[Data_Type_Model]/min_func_Tor.pt (torch, 60841 bytes, 139 tensors)

weight f4 [2, 2]
0	0x3e9133ac	0.28359735
1	0x3f0b24ce	0.54353034
2	0x3f84c57d	1.0372769
3	0x402509ef	2.5787313

bias f4 [2]
0	0xbf82a6b5	-1.0207125
1	0xbf9e6cfb	-1.2377008

weight f4 [2, 2]
0	0xbfdd57aa	-1.7292378
1	0x3f242a97	0.64127487
2	0x3fe6c08d	1.8027512
3	0xbe707377	-0.23481546

weight f4 [1, 2]
0	0xbf082ef6	-0.53196657
1	0xbf12f67c	-0.57407355

weight f4 [2, 2]
0	0x3c9a8d0e	0.018866088
1	0x3da4c2e0	0.08044982
2	0x41214eb0	10.081711
3	0xc0d80063	-6.750047

bias f4 [2]
0	0x3f3b66da	0.73203814
1	0xbfd7adc4	-1.6849904

weight f4 [2, 2]
0	0x4080fe32	4.0310297
1	0xbcc5de51	-0.02415386
2	0x4080d8b9	4.0264554
3	0xbc03dcbc	-0.008048233

weight f4 [1, 2]
0	0xbf207894	-0.6268399
1	0xbf216ea1	-0.6305943

weight f4 [2, 2]
0	0xbef0e0d5	-0.47046533
1	0x3f525e08	0.8217473
2	0x3f49193d	0.78554136
3	0x3da408d9	0.080095

bias f4 [2]
0	0x3e8824fa	0.2659071
1	0x3e4316c4	0.19051653

weight f4 [2, 2]
0	0xbe8f05c0	-0.27934074
1	0x3f7c492b	0.98549145
2	0x3fe5b453	1.7945656
3	0xbf04b0ab	-0.51832074

weight f4 [1, 2]
0	0xbf030b82	-0.51189435
1	0x3ec6648e	0.38748592

weight f4 [2, 2]
0	0x3e1d1ac0	0.15342236
1	0x3fbfc216	1.4981105
2	0x3c26275b	0.010141219
3	0xbba7f936	-0.005126144

bias f4 [2]
0	0x3faf1767	1.3679017
1	0x3cb7c3ae	0.022432175

weight f4 [2, 2]
0	0x39eaf128	0.00044811633
1	0x3e442be3	0.19157366
2	0xb923dc2a	-0.00015626909
3	0xbf50a8a9	-0.81507355

weight f4 [1, 2]
0	0x3edd014e	0.43165058
1	0x3df17f50	0.11791861

weight f4 [2, 2]
0	0x3b83b360	0.004019186
1	0x3e2275ee	0.15865299
2	0x3eb398dc	0.3507756
3	0xc0d5009d	-6.656325

bias f4 [2]
0	0xbef8b07d	-0.4857215
1	0xbfaad706	-1.334687

weight f4 [2, 2]
0	0x40e55c4a	7.1675158
1	0xbf8640cb	-1.0488523
2	0xc1755eba	-15.335627
3	0xc01c3409	-2.440676

weight f4 [1, 2]
0	0xbe69c15c	-0.22827667
1	0xbe44611c	-0.1917767

weight f4 [2, 2]
0	0xbe04e1f3	-0.12976818
1	0xbebc5219	-0.36781386
2	0xbf1881a8	-0.5957284
3	0xbf0930d3	-0.53590125

bias f4 [2]
0	0xbcaeacbe	-0.021322604
1	0x3f17f69c	0.5936067

weight f4 [2, 2]
0	0x3ecab04a	0.39587623
1	0xbca88922	-0.020573203
2	0x3cb7f2c5	0.022454629
3	0xba38c75f	-0.00070487516

weight f4 [1, 2]
0	0xbe0ad948	-0.13559449
1	0xbf2eacbc	-0.6823232

weight f4 [2, 2]
0	0xbe259888	-0.16171467
1	0xbd04cec0	-0.032423735
2	0xbf5254ff	-0.82160944
3	0x3e10a96d	0.14127131

bias f4 [2]
0	0x3e8c8bc6	0.2745039
1	0xbebe3435	-0.37149206

weight f4 [2, 2]
0	0x3d589b09	0.052882228
1	0x3fe9b80f	1.8259295
2	0xbe8a66de	-0.27031606
3	0x3fc95065	1.572766

weight f4 [1, 2]
0	0x3efac5aa	0.4897893
1	0x3e362c14	0.17790252

weight f4 [2, 2]
0	0x4012e9ca	2.2955194
1	0x3f96e095	1.1787287
2	0xbd7d982b	-0.061912697
3	0xbf9635ac	-1.1735129

bias f4 [2]
0	0x3d459b45	0.04824378
1	0x3e1aee4f	0.1512997

weight f4 [2, 2]
0	0x3ef3ed37	0.47641918
1	0x3f1b520c	0.6067207
2	0xbe8120ad	-0.25220242
3	0x3fc0ffa4	1.5078015

weight f4 [1, 2]
0	0xbefab872	-0.48968846
1	0xbe4cca48	-0.19999039

weight f4 [2, 2]
0	0x3ec53d34	0.38523257
1	0x3ec7afc0	0.39001274
2	0x3f02075e	0.5079249
3	0x4008de6f	2.1385763

bias f4 [2]
0	0x3faa56d3	1.3307747
1	0xbe0ca9b7	-0.13736616

weight f4 [2, 2]
0	0x40125ca0	2.2869034
1	0xbd957402	-0.07297517
2	0xbfd0770e	-1.6286333
3	0x3fc8c00d	1.5683609

weight f4 [1, 2]
0	0x3ea41546	0.3204748
1	0xbe33cf20	-0.1755948

weight f4 [2, 2]
0	0x3e9ae91a	0.30255967
1	0x3ddf2f17	0.108976535
2	0xbf5e1bbf	-0.8676109
3	0xbe607ed2	-0.21923378

bias f4 [2]
0	0xbdae414b	-0.085085474
1	0xbe3fac60	-0.187181

weight f4 [2, 2]
0	0x3ef5052c	0.47855508
1	0x3f145eb2	0.57956994
2	0x3f3f7b10	0.74797153
3	0xbe1a920d	-0.15094776

weight f4 [1, 2]
0	0x3e9719f6	0.29511994
1	0xbf31add6	-0.6940588

weight f4 [2, 2]
0	0x40d57705	6.6707788
1	0x40932916	4.5987654
2	0x3e4931ce	0.19647905
3	0x3d85bd48	0.06530243

bias f4 [2]
0	0xbeaa4895	-0.332585
1	0xbf3d45f5	-0.7393487

weight f4 [2, 2]
0	0xbcbe567b	-0.023234596
1	0x401bedd7	2.4363916
2	0xbf55de06	-0.83541906
3	0x3fa09de0	1.254818

weight f4 [1, 2]
0	0xbf2eda73	-0.6830208
1	0x3f10cf61	0.56566435

weight f4 [2, 2]
0	0xc0e7f4cb	-7.248632
1	0x413bd920	11.740509
2	0x4005e701	2.0922244
3	0xbf45207c	-0.7700269

bias f4 [2]
0	0xc01c57cc	-2.4428587
1	0xbd0a4990	-0.03376156

weight f4 [2, 2]
0	0xbe7158c6	-0.2356902
1	0x3e4ffeb4	0.20312005
2	0xc0644291	-3.566563
3	0x3fcb50af	1.5883998

weight f4 [1, 2]
0	0xbef228fa	-0.47296888
1	0xbeeda08d	-0.46411553

weight f4 [2, 2]
0	0xc01772ce	-2.3663821
1	0x3fcf01ea	1.6172459
2	0x3f83a2fb	1.0284113
3	0xc08a4d72	-4.321954

bias f4 [2]
0	0x3e08a3c9	0.13343729
1	0x3f546221	0.8296223

weight f4 [2, 2]
0	0x409e1f73	4.941339
1	0xc076e66f	-3.8578146
2	0x3fade3d5	1.3585154
3	0x3e932b5b	0.28744015

weight f4 [1, 2]
0	0xbd8cbf48	-0.068724215
1	0xbe531114	-0.20611984

weight f4 [2, 2]
0	0xbf34f6c8	-0.7068906
1	0xbe0f6fe2	-0.14007524
2	0xbf8d4d11	-1.1039144
3	0xbf2e330f	-0.6804666

bias f4 [2]
0	0x3fc4d7d3	1.5378364
1	0xbf365812	-0.71228135

weight f4 [2, 2]
0	0x3fc1a786	1.5129249
1	0x3f24d1db	0.64382714
2	0x3f756874	0.9586251
3	0x3fade48d	1.3585373

weight f4 [1, 2]
0	0x3f241049	0.6408735
1	0xbecf94d2	-0.40543228

weight f4 [2, 2]
0	0x3eaba482	0.33523947
1	0x3f191bc7	0.5980801
2	0x3c9845a0	0.018587887
3	0x3d519fe0	0.05117786

bias f4 [2]
0	0x3ed716c3	0.42009553
1	0xbf500932	-0.8126403

weight f4 [2, 2]
0	0x3f351b93	0.707452
1	0x403745d7	2.8636377
2	0x3ee151fd	0.44007865
3	0x40569874	3.353055

weight f4 [1, 2]
0	0x3dce79b8	0.1008181
1	0xbe217888	-0.15768635

weight f4 [2, 2]
0	0xc08cd168	-4.4005623
1	0xc00fcc6d	-2.2468522
2	0xbff91426	-1.9459274
3	0xbf3c9092	-0.73658097

bias f4 [2]
0	0x4066049b	3.594031
1	0x3fb9572f	1.4479731

weight f4 [2, 2]
0	0xbf4191b1	-0.7561293
1	0x4008ca54	2.1373491
2	0xbf146a44	-0.5797465
3	0xc0bf2777	-5.9735675

weight f4 [1, 2]
0	0x3f1d6f51	0.6149798
1	0xbe564246	-0.20923719

weight f4 [2, 2]
0	0x3eea5100	0.45764923
1	0xbdd2b6e4	-0.1028879
2	0xbfab8077	-1.3398579
3	0x3e9e629b	0.30934605

bias f4 [2]
0	0xbf6611fa	-0.8987118
1	0x3fdef351	1.7418004

weight f4 [2, 2]
0	0xc0907eea	-4.5154924
1	0x3f318c74	0.6935494
2	0x406b134e	3.6730533
3	0xc00b2b70	-2.1745262

weight f4 [1, 2]
0	0xbf333f5d	-0.7001856
1	0x3d8f88c0	0.07008505

weight f4 [2, 2]
0	0xbd83ae29	-0.06429703
1	0x3e8c66ff	0.2742233
2	0xbe8099ab	-0.2511724
3	0xc0166e00	-2.3504639

bias f4 [2]
0	0x3fda8993	1.7073234
1	0x3fc0f78b	1.5075544

weight f4 [2, 2]
0	0x3f2e6bed	0.6813343
1	0x3cb94fe0	0.022621095
2	0x3f42de30	0.7612028
3	0xbf8650b5	-1.049338

weight f4 [1, 2]
0	0xbec91ce0	-0.39279842
1	0x3e7479e8	0.23874629

weight f4 [2, 2]
0	0x3f35b888	0.709847
1	0xbfff40d8	-1.9941664
2	0x3fab021e	1.3360021
3	0x3d8f6368	0.07001382

bias f4 [2]
0	0x3fa3cbbd	1.2796551
1	0x3f37798f	0.7166986

weight f4 [2, 2]
0	0xbfda9f38	-1.707984
1	0x3ec0296e	0.37531608
2	0xbec10257	-0.37697098
3	0x3f25b379	0.6472698

weight f4 [1, 2]
0	0x3ec50d56	0.38486737
1	0x3ec8d1ae	0.39222473

weight f4 [2, 2]
0	0x40b141cb	5.5392814
1	0x3ff7981e	1.9343297
2	0x4066cfbd	3.6064293
3	0x3f86e7c5	1.053948

bias f4 [2]
0	0xbf8aaacc	-1.0833373
1	0xc01888ba	-2.3833451

weight f4 [2, 2]
0	0xbe7f700c	-0.24945086
1	0x3e5040ec	0.20337266
2	0xbfb6757d	-1.4254605
3	0x3e82c997	0.25544426

weight f4 [1, 2]
0	0xbef5ed62	-0.4803267
1	0x3cfbb120	0.030724108

weight f4 [2, 2]
0	0xbf4c6272	-0.79837716
1	0xc03df37e	-2.9679866
2	0x40323bb2	2.7848935
3	0xbff35e8d	-1.901323

bias f4 [2]
0	0xbf6b048d	-0.9180382
1	0x3d9832f9	0.07431597

weight f4 [2, 2]
0	0xbe5f68d4	-0.21817333
1	0x3f0d5871	0.55213076
2	0xbd8514d0	-0.0649811
3	0x3f27e773	0.6558754

weight f4 [1, 2]
0	0xbeafa5f5	-0.34306303
1	0xbf1b3e21	-0.60641676

weight f4 [2, 2]
0	0xc062fa3b	-3.5465229
1	0xc0a6b3b4	-5.2094364
2	0xbe3f6e55	-0.18694432
3	0xbf39bac0	-0.7255058

bias f4 [2]
0	0xbd04c7ee	-0.03241723
1	0xbf94b150	-1.1616611

weight f4 [2, 2]
0	0x3ea13c82	0.31491476
1	0x3f23197c	0.6371076
2	0xbd84d9ea	-0.06486876
3	0x3fe10fe3	1.7582973

weight f4 [1, 2]
0	0xbeabed96	-0.335797
1	0x3e8a750e	0.2704243

weight f4 [2, 2]
0	0xbdb2f1bd	-0.08737514
1	0x3e63527b	0.22199433
2	0x3e71b520	0.2360425
3	0xbf0bca3c	-0.5460546

bias f4 [2]
0	0xbf86faad	-1.054525
1	0x3f6e6034	0.93115544

weight f4 [2, 2]
0	0x40383fd9	2.878897
1	0x3f1c2863	0.60999125
2	0x40832621	4.0984044
3	0xbdce906e	-0.100861415

weight f4 [1, 2]
0	0xbdeb37f0	-0.114852786
1	0x3efd123e	0.4942798

weight f4 [2, 2]
0	0x404aee4f	3.1707952
1	0xc0f449c3	-7.634004
2	0x3f4cc354	0.7998555
3	0x3d8af7ce	0.06785546

bias f4 [2]
0	0x4028ad49	2.6355765
1	0x3eaee662	0.34160143

weight f4 [2, 2]
0	0xc0804322	-4.008195
1	0x41437af7	12.217521
2	0xbea7203f	-0.3264179
3	0x40cbb391	6.3656697

weight f4 [1, 2]
0	0xbcf05de0	-0.029341638
1	0x3f1cc683	0.61240405

weight f4 [2, 2]
0	0xc07f69ac	-3.9908247
1	0x3f3ef5fd	0.745941
2	0xbe215e09	-0.15758528
3	0x3d09cafb	0.033640843

bias f4 [2]
0	0x3eec7b6e	0.4618792
1	0xbe7c3afd	-0.24631877

weight f4 [2, 2]
0	0xbabea089	-0.0014543693
1	0x3f1ac49c	0.6045625
2	0xb8dd3c11	-0.000105492894
3	0x3d19d2f6	0.037554704

weight f4 [1, 2]
0	0xbeb3e4c8	-0.35135484
1	0xbee83519	-0.4535301

weight f4 [2, 2]
0	0x3fd3ba60	1.6541252
1	0x3fdd0510	1.726717
2	0xbea297de	-0.3175649
3	0x3f82c202	1.0215456

bias f4 [2]
0	0xbe07583d	-0.13217254
1	0x3fc08860	1.5041618

weight f4 [2, 2]
0	0x3fa0584f	1.252695
1	0xbf1528b3	-0.5826523
2	0xbfd84ebd	-1.6899029
3	0x3f5eace6	0.8698257

weight f4 [1, 2]
0	0xbe209d60	-0.15685034
1	0x3e16fe7c	0.14745516

weight f4 [2, 2]
0	0x3f006d2b	0.5016658
1	0xbf5e8a82	-0.86930096
2	0xbd9bddc8	-0.07610661
3	0xbedb40a2	-0.42822748

bias f4 [2]
0	0x3f5586a0	0.83408546
1	0x3f5236f9	0.8211513

weight f4 [2, 2]
0	0xc1081949	-8.506173
1	0x3fe4628a	1.7842572
2	0x40b85bfd	5.761229
3	0xc14b4783	-12.704959

weight f4 [1, 2]
0	0x3f29881b	0.66223305
1	0x3ebe32ce	0.37148136

weight f4 [2, 2]
0	0xbef96ca2	-0.48715693
1	0xbf0f17a2	-0.55895436
2	0xbedfb822	-0.4369517
3	0xbd940988	-0.072283804

bias f4 [2]
0	0xbe1f1bec	-0.15537995
1	0xbdd66f66	-0.10470466

weight f4 [2, 2]
0	0x400130b2	2.0185971
1	0x3f084487	0.53229564
2	0x3eff5656	0.49870557
3	0xbf33828e	-0.70121086

weight f4 [1, 2]
0	0xbecccf10	-0.40001726
1	0x3f2efa55	0.68350726

weight f4 [2, 2]
0	0xbf276ff1	-0.65405184
1	0xbfae1b8b	-1.3602155
2	0xc018bb07	-2.3864152
3	0xc082c699	-4.086743

bias f4 [2]
0	0xbff06e06	-1.8783576
1	0xc0a7133c	-5.221098

weight f4 [2, 2]
0	0x400e142c	2.2199812
1	0xbe8ce6de	-0.27519888
2	0x404c1402	3.1887212
3	0xbeaa856c	-0.33304918

weight f4 [1, 2]
0	0x3e4f60f0	0.20251822
1	0x3d3c3af0	0.045954645

weight f4 [2, 2]
0	0xbf1faac8	-0.62369967
1	0xbfcb2978	-1.587203
2	0xbe5e3d97	-0.21703182
3	0x3fe99f4c	1.8251739

bias f4 [2]
0	0xbf6c877f	-0.9239425
1	0xbf19c701	-0.6006928

weight f4 [2, 2]
0	0x3f983cb4	1.1893525
1	0xbf213211	-0.6296702
2	0xbf21f1e1	-0.632597
3	0x3f2a346a	0.6648623

weight f4 [1, 2]
0	0x3e315d88	0.17320836
1	0x3d7834f0	0.06059736

weight f4 [2, 2]
0	0x40627eed	3.538997
1	0x404468ed	3.0689042
2	0x3fede7e7	1.8586396
3	0x3da79eca	0.081845835

bias f4 [2]
0	0xc04d4711	-3.2074625
1	0xc02cbf0c	-2.6991606

weight f4 [2, 2]
0	0xbfcfa67b	-1.6222681
1	0x3efda93d	0.4954318
2	0xbfcf291d	-1.6184422
3	0x3ef9bca8	0.48776746

weight f4 [1, 2]
0	0x3e125404	0.14289862
1	0x3eb264ba	0.34842473

weight f4 [2, 2]
0	0xbde67b6a	-0.11254008
1	0xbc33cab3	-0.01097362
2	0xbfa73f2a	-1.3066151
3	0x3d1cd5ad	0.038289715

bias f4 [2]
0	0xbbaf25d2	-0.0053450847
1	0xbc8a5249	-0.01688494

weight f4 [2, 2]
0	0x3fd3bda6	1.6542251
1	0x3d787955	0.060662586
2	0x3f605213	0.87625235
3	0x403b42c8	2.925951

weight f4 [1, 2]
0	0xbe709aec	-0.23496598
1	0xbec9d820	-0.39422703

weight f4 [16, 2]
0	0xbf3844ab	-0.7197978
1	0x3f04c6d3	0.5186588
2	0xc01e03d6	-2.4689841
3	0x3f63155d	0.8870447
4	0x3f930ac8	1.1487665
5	0xbe11e078	-0.14245784
6	0x3f3f7d7d	0.74800855
7	0xbf34b2fb	-0.705856
8	0xc0294f19	-2.6454527
9	0xc040dc81	-3.0134585
10	0xbfbf0be0	-1.4925499
11	0xc02d4434	-2.7072878
12	0xbf0f29c1	-0.55923086
13	0x402cd2f8	2.7003765
14	0xbfbf7a31	-1.4959165
15	0x3e9c47de	0.3052358
16	0xbf24aaad	-0.6432293
17	0x4039c61f	2.9027174
18	0xbe5a300d	-0.21307392
19	0xbf8c9a55	-1.0984598
20	0x4088c506	4.2740507
21	0x408d7371	4.420342
22	0xbf1caa9a	-0.6119782
23	0xbf8e831b	-1.113376
24	0xbf7be72b	-0.9839961
25	0xbf5f7df2	-0.8730155
26	0xbf3cd802	-0.737671
27	0x3faada83	1.3347934
28	0xc09e8ce8	-4.9547005
29	0x3ed2d869	0.41180733
30	0x3fb140f9	1.3847953
31	0xbf21b10e	-0.6316079

bias f4 [16]
0	0x3e625c1e	0.22105452
1	0x3dc84a1e	0.09779762
2	0xbf60fed4	-0.87888837
3	0xbe6c5664	-0.2307983
4	0x3e99f9e1	0.30073455
5	0x3f6b83f5	0.91998225
6	0xbfd452b6	-1.6587741
7	0x3f1d5985	0.6146472
8	0x3f0fb103	0.56129473
9	0xbe4b0b67	-0.19828568
10	0xbf78d50a	-0.9720007
11	0xbe441e77	-0.19152246
12	0xbe8b8e72	-0.27257115
13	0x3f382832	0.71936333
14	0xbd36260a	-0.04446987
15	0x3e1f0044	0.15527445

weight f4 [16, 16]
0	0x3ece25e9	0.40263298
1	0xbf421690	-0.7581568
2	0x3fbc719e	1.4722173
3	0x3e4742c7	0.19459067
4	0xbfb2b83a	-1.3962471
5	0xbef5329b	-0.4789017
6	0xbe720ddf	-0.23638104
7	0xbe83965a	-0.25700647
8	0xbf6f34d2	-0.9343997
9	0xbe0ae774	-0.13564855
10	0x3fa72e02	1.3060915
11	0x3dce835b	0.10083648
12	0x3d520ed0	0.051283658
13	0x3f5ad83a	0.85486186
14	0xbe5a938f	-0.21345352
15	0x3f3d5398	0.7395568
16	0x3e655be1	0.2239833
17	0xbcc663ce	-0.024217512
18	0x3f80c824	1.0061078
19	0x3f034486	0.51276433
20	0xbf53d57e	-0.8274764
21	0xbebc1331	-0.36733392
22	0xbefac166	-0.48975676
23	0xbf66e27e	-0.9018935
24	0xbf37d07a	-0.71802485
25	0xbd086b13	-0.03330524
26	0x3e14429a	0.14478531
27	0xbd60876c	-0.05481665
28	0xbeb7f7f3	-0.35931358
29	0xbf85efaa	-1.0463765
30	0xbe910d89	-0.2833064
31	0x3f6db521	0.92854506
32	0xbf0d2133	-0.55128783
33	0x3da2b635	0.079449095
34	0x3e8ffbbd	0.2812175
35	0x3fb1f54e	1.3902986
36	0x3f6544b1	0.8955794
37	0xc03cc570	-2.9495506
38	0x3f91c765	1.1388975
39	0xbf3577f2	-0.7088615
40	0x3dd2d3f8	0.10294336
41	0x3f6d7692	0.9275905
42	0x3f497fd4	0.78710675
43	0x3f2fa357	0.6860861
44	0x3f4cf5fd	0.8006285
45	0xbf531db1	-0.8246718
46	0x3fb96ddf	1.4486655
47	0xc001f1a3	-2.0303733
48	0x3f991ea0	1.1962471
49	0x3f7e7830	0.9940214
50	0xbf7b2ae1	-0.98112303
51	0x3e3d0b2e	0.18461296
52	0xbe829986	-0.25507754
53	0x3f107a11	0.5643626
54	0xbf239cc3	-0.63911074
55	0x3f8fcfda	1.1235306
56	0x3fbe44e6	1.4864776
57	0xbf18fb71	-0.5975867
58	0x3fb49142	1.4106829
59	0xbefcb588	-0.49357247
60	0x3d6e347b	0.058155518
61	0x3f9bec61	1.2181512
62	0xbff8e7e5	-1.9445769
63	0x3db445d2	0.0880238
64	0xbf4d184d	-0.80115205
65	0xbf7d3184	-0.9890368
66	0x3eac224a	0.3361991
67	0x3d927f9e	0.07153247
68	0xbf8be5c9	-1.09295
69	0xbf596038	-0.84912443
70	0xbea560a7	-0.32300302
71	0x3dd83f8f	0.10558998
72	0xbe96aa0b	-0.29426607
73	0xbf3541f6	-0.70803773
74	0xbf639909	-0.8890539
75	0xbf3078f6	-0.6893457
76	0xbf51e92f	-0.81996435
77	0xbd7fc94e	-0.06244784
78	0xbf8d7b84	-1.1053319
79	0x3faecaf9	1.3655692
80	0x3f425ecf	0.75925916
81	0x3f682326	0.9067863
82	0xbe9abd55	-0.30222574
83	0xbea2660a	-0.31718475
84	0xbe3e888f	-0.1860678
85	0xbe0bf9c7	-0.13669501
86	0x3f2d7968	0.67763376
87	0xba9361ec	-0.0011244393
88	0x3d76f98a	0.060296573
89	0xbe7d3433	-0.24726944
90	0xbf5f1aa6	-0.8715004
91	0xbe9b548a	-0.30337936
92	0x3ef84a0b	0.4849399
93	0x3e2e5c2b	0.17027347
94	0x3f0eb1a7	0.55739826
95	0xbfb65583	-1.4244846
96	0xbf563ed6	-0.8368963
97	0xbf20ffce	-0.62890327
98	0x3f573ab8	0.8407397
99	0xbeeb00b0	-0.45898962
100	0xbf136413	-0.57574576
101	0xbf14d569	-0.5813814
102	0x3f3786be	0.71689975
103	0xbf7f0219	-0.99612576
104	0x3f2d8b4c	0.67790675
105	0x3e86d3a2	0.26333338
106	0x3fa60694	1.2970757
107	0x3e8e50a2	0.27795893
108	0x3eb11911	0.34589437
109	0xbed302af	-0.41212985
110	0xbee300b1	-0.44336465
111	0x3f697206	0.9118961
112	0x3cbf048c	0.023317598
113	0xbf48a5cf	-0.78378004
114	0xbf9a81b2	-1.207083
115	0x3dfa4ba9	0.12221462
116	0x408008e2	4.0010843
117	0xc129df11	-10.61696
118	0xc04bbcd2	-3.1833997
119	0x3e396970	0.18106627
120	0x3f85bfc5	1.0449148
121	0xc046c2c1	-3.1056368
122	0x3e817f97	0.25292656
123	0xc0b30140	-5.5939026
124	0xc1161a70	-9.381454
125	0x3f4f666d	0.81015664
126	0x40789658	3.8841763
127	0xc06c62bc	-3.6935263
128	0xbf32bf32	-0.6982299
129	0x3e843b61	0.25826553
130	0xbf59c559	-0.85066754
131	0x40026635	2.0374882
132	0xbe2d16e5	-0.16903265
133	0x3e6541f6	0.22388443
134	0xbfbfd430	-1.498663
135	0x3eb3851e	0.35062498
136	0xbf24d74c	-0.64391017
137	0x3ea600a5	0.32422367
138	0xbf0f2e50	-0.5593004
139	0x3ee2e237	0.44313213
140	0xbec4514f	-0.38343284
141	0x3e614902	0.22000507
142	0xbfa80491	-1.3126394
143	0x3ea855dd	0.32878008
144	0xbf9208bd	-1.1408917
145	0xbfcecd18	-1.615634
146	0x3f2d0877	0.6759104
147	0xbf9014e6	-1.1256378
148	0xbfe872f9	-1.8160087
149	0xbf90ce85	-1.1313025
150	0xbf27ded4	-0.65574384
151	0xbf70651d	-0.93904287
152	0xbee38e28	-0.44444394
153	0xbcf1fcce	-0.029539492
154	0x40247777	2.5697916
155	0x3f15cc67	0.5851502
156	0x3f1d2207	0.61380047
157	0xbeed3e55	-0.46336618
158	0x3f262d76	0.6491312
159	0xbf17fb83	-0.5936815
160	0xbea42e96	-0.32066792
161	0xbf4af00c	-0.7927253
162	0x3f664420	0.899477
163	0xbd59ae98	-0.05314502
164	0xbebc50f8	-0.36780524
165	0x3f455eaf	0.770976
166	0x3fa52041	1.2900468
167	0xbf6c5bfd	-0.9232786
168	0xc01299f1	-2.2906458
169	0x3f5b7b5d	0.8573511
170	0x3f1ea867	0.6197571
171	0x3f51e17e	0.819847
172	0x3f247321	0.6423817
173	0xbfa24700	-1.2677917
174	0x40696cf1	3.6472743
175	0x40215865	2.5210202
176	0xbd36afe0	-0.04460132
177	0xbef697cb	-0.48162684
178	0xbe585360	-0.21125555
179	0xbe5e3c4d	-0.2170269
180	0x3e20c11a	0.15698662
181	0x3f3cefa7	0.7380318
182	0x3d8749fd	0.06605909
183	0xbedb5a18	-0.42842174
184	0x3ea2ed01	0.31821445
185	0x3e4d9fd0	0.20080495
186	0x3f31cd4d	0.6945389
187	0x3ec04bb8	0.3755777
188	0x3ed13dac	0.40867364
189	0x3dfcdf3c	0.12347266
190	0xbec5f281	-0.38661578
191	0xbf37316e	-0.715598
192	0x3f8ad639	1.0846626
193	0x4021b94d	2.5269349
194	0xbeda4882	-0.42633444
195	0x3eb29b92	0.34884316
196	0x3e65322b	0.22382419
197	0x3ec0ab7b	0.3763083
198	0xbd756917	-0.059914675
199	0x3e3a9da7	0.18224202
200	0xc003cff9	-2.0595686
201	0xbfac3205	-1.3452765
202	0xbfb50420	-1.4141884
203	0xc021c1d0	-2.5274544
204	0xc00e4310	-2.2228432
205	0xbef205ca	-0.47270042
206	0xbeb16837	-0.34649822
207	0xc077e3e1	-3.8732836
208	0x3ea153ba	0.3150919
209	0x3f4eeae5	0.8082717
210	0x3ef513d2	0.47866684
211	0xbf230d71	-0.63692385
212	0x3e890461	0.26761153
213	0x3fad58a5	1.3542677
214	0x3f8a6977	1.0813435
215	0xbea0c02c	-0.31396616
216	0xbf92cf8a	-1.1469586
217	0x3f8aee34	1.0853944
218	0x3f4981a8	0.78713465
219	0x3fc70b7f	1.5550383
220	0x4021e88e	2.529819
221	0xbfb3529c	-1.4009585
222	0x3ffa4597	1.9552487
223	0xbff99351	-1.9498082
224	0xc0615a08	-3.52112
225	0xbff349f0	-1.9006939
226	0x4008a421	2.1350176
227	0x40219eb4	2.5253115
228	0xbf377787	-0.7166676
229	0xc022b1cd	-2.542102
230	0x40e73fa8	7.2265205
231	0xc044c7b9	-3.07469
232	0xbfb8a3f4	-1.4425035
233	0x3fab94e7	1.3404816
234	0x408034dc	4.0064526
235	0x3eefaa5e	0.46809667
236	0x3f4308b4	0.76185155
237	0xbfb6f191	-1.429247
238	0xbffd5741	-1.9792253
239	0x3f658793	0.89659995
240	0x3e5b5fae	0.21423218
241	0xbe780200	-0.24219513
242	0xbd73225a	-0.059358932
243	0xbf0406cf	-0.5157289
244	0xbfd98a38	-1.6995306
245	0x407e4b99	3.973364
246	0xbde5da49	-0.11223275
247	0x3df5e010	0.12005627
248	0xbe754812	-0.23953274
249	0x3f493b7f	0.7860641
250	0x3f34b7d6	0.7059301
251	0x3fff7a8f	1.9959277
252	0x4060e3b8	3.5138988
253	0x3f1a3c65	0.60248405
254	0x3fc757c4	1.5573659
255	0x401d583f	2.458511

bias f4 [16]
0	0x3e524241	0.20533086
1	0x3ead7da4	0.3388492
2	0xbf73ab8e	-0.95183647
3	0x3f7d937f	0.99053186
4	0x3ee2f584	0.4432794
5	0xbe9a0716	-0.3008353
6	0xbee1ae88	-0.4407847
7	0x3e7465f6	0.2386702
8	0x3f1042bd	0.56351835
9	0xbf79b013	-0.9753429
10	0xbf644f68	-0.89183664
11	0xbe86b992	-0.26313454
12	0x3f0504ad	0.5196026
13	0xbf738456	-0.95123804
14	0xbfb5a062	-1.418957
15	0xbef56eb1	-0.47936013

weight f4 [2, 16]
0	0xbe9dfd9f	-0.3085756
1	0xbea41db4	-0.32053912
2	0x3e10314d	0.14081307
3	0x3f85692c	1.0422721
4	0xbe2e7f5f	-0.17040776
5	0xbede2d98	-0.4339416
6	0x3deedf54	0.1166369
7	0xbf06fd1a	-0.5272995
8	0xbf9c1de9	-1.2196628
9	0xbf0dfe98	-0.55466604
10	0xbf8c4b38	-1.0960455
11	0x3e1f4f7b	0.15557663
12	0xbfa7fd78	-1.3124228
13	0xbe6479c6	-0.22312078
14	0x3eb262f1	0.3484111
15	0x3eb5a140	0.35474586
16	0xbf72dbf0	-0.9486685
17	0x3ea8d706	0.3297655
18	0xbe9b00ff	-0.30274197
19	0x3ed68397	0.4189727
20	0xbf79e3b7	-0.9761309
21	0xbc33b559	-0.01096853
22	0xbf001539	-0.50032383
23	0xbe8ec01e	-0.2788095
24	0x3f207831	0.626834
25	0x3f504fc3	0.81371707
26	0xbf9cee89	-1.2260295
27	0xbd62b280	-0.055346012
28	0xbefa9515	-0.48941866
29	0x3f37480c	0.7159431
30	0xbde9be51	-0.11413253
31	0xbf2dfada	-0.67960894

bias f4 [2]
0	0x3ed8f423	0.42373762
1	0xbda46343	-0.08026745

weight f4 [8, 2]
0	0x3f8466c1	1.0343858
1	0xbd29cb0c	-0.041453406
2	0xbeb942da	-0.36183816
3	0xbef31d84	-0.47483456
4	0xbe7367a8	-0.2377001
5	0xbea33e58	-0.31883502
6	0xbf97bc53	-1.1854347
7	0xbe991596	-0.2989928
8	0x3e32e478	0.17469966
9	0x3de2c825	0.11073331
10	0xbe1324ce	-0.14369509
11	0x3effb368	0.49941564
12	0xbf06298c	-0.52407146
13	0x3f2bc665	0.670996
14	0xbf44f621	-0.7693806
15	0xbd5602d0	-0.052248776

bias f4 [8]
0	0x3f39d77c	0.7259443
1	0x3e9c9a80	0.30586624
2	0xbf3ebdfd	-0.7450865
3	0x3c21ed78	0.009883277
4	0xbe33565b	-0.17513411
5	0xbf765766	-0.9622711
6	0xbf629ad5	-0.88517505
7	0xbf69c0e5	-0.9130996

weight f4 [16, 8]
0	0x3ecf8683	0.40532312
1	0x3e32bf27	0.17455731
2	0xbef868bc	-0.48517406
3	0x3f08d9f4	0.5345757
4	0xbf1cd1b1	-0.61257464
5	0xbef2d7b0	-0.47430182
6	0xbe236b6c	-0.15958947
7	0xbe83294e	-0.2561745
8	0x3e92b668	0.2865479
9	0x3da62ccb	0.08114012
10	0xbdfc9cdb	-0.12334605
11	0x3e44f238	0.19233024
12	0xbe8939dd	-0.2680196
13	0xbd22f3b9	-0.039783213
14	0xbe9148a6	-0.2837574
15	0xbf3c24ae	-0.7349347
16	0x3f59e3a9	0.85113007
17	0xbcdbb882	-0.026821379
18	0xbf169a47	-0.5882916
19	0xbd8cccba	-0.06874986
20	0xbe2c99e3	-0.16855578
21	0xbf1a0880	-0.6016922
22	0xbeb9ce74	-0.36290324
23	0xbf1b545f	-0.60675615
24	0x3eb9222d	0.36158887
25	0x3ebe9563	0.37223348
26	0xbd9bf61d	-0.07615302
27	0x3d8a96a8	0.06767017
28	0xbd1e0718	-0.038580984
29	0xbe21a883	-0.15786938
30	0xbf213063	-0.6296446
31	0xbf1a3c3c	-0.6024816
32	0xbe970a92	-0.29500252
33	0xbd80d458	-0.06290501
34	0x3e113700	0.14181137
35	0xbdd4e60f	-0.10395443
36	0x3eb5de6a	0.3552125
37	0x3e8b9278	0.27260184
38	0x3f12da78	0.57364607
39	0x3f14efe9	0.58178574
40	0x3de7f301	0.11325646
41	0x3d0424f5	0.032261807
42	0xbde21380	-0.110388756
43	0x3e3ee8bf	0.18643473
44	0xbe28a594	-0.16469413
45	0xbed32c1f	-0.412446
46	0xbe0a55ed	-0.1350934
47	0xbe997894	-0.29974806
48	0xbcccb2f1	-0.02498767
49	0x3ece0073	0.40234718
50	0xbdc3bdeb	-0.09557708
51	0x3e7015e2	0.23445848
52	0xbf1484b6	-0.58015
53	0xbf25c8cc	-0.64759517
54	0xbeeea1aa	-0.46607715
55	0xbecf9659	-0.40544394
56	0xbcdb19f6	-0.026745778
57	0xb95b3604	-0.0002090559
58	0x3e6f67e0	0.23379469
59	0xbe570fc2	-0.21002105
60	0x3e62311b	0.22089045
61	0x3e64e186	0.22351655
62	0x3db849ef	0.08998477
63	0x3ef58193	0.4795042
64	0xbf2cc9e2	-0.6749555
65	0x3c003041	0.007824005
66	0x3dfeb784	0.124373466
67	0xbf034b79	-0.5128704
68	0x3eb69a89	0.35664776
69	0x3f21d0cb	0.6320922
70	0xbce9f61b	-0.028559735
71	0x3e3852f1	0.1800039
72	0xbee70292	-0.45119148
73	0xbf0f8d52	-0.5607501
74	0x3f26c3df	0.65142626
75	0x3d4dfcc0	0.05028987
76	0x3f14b67a	0.5809094
77	0x3d8e7701	0.06956292
78	0x3f1c40ce	0.61036384
79	0x3f15af86	0.5847095
80	0x3e2151bd	0.15753837
81	0x3e8aab30	0.2708373
82	0xbf146ef5	-0.57981807
83	0x3c173f66	0.009231424
84	0xbe3573f8	-0.1772002
85	0xbed6c4c0	-0.41946983
86	0xbe932757	-0.2874095
87	0xbe76b430	-0.24092174
88	0xbf00b930	-0.50282574
89	0x3d1c6c58	0.038189262
90	0x3e9ed2bf	0.31020162
91	0xbf0e7ad8	-0.55656195
92	0x3eea8fd1	0.45812848
93	0x3e7ad161	0.24493934
94	0x3dcd74f8	0.10032076
95	0x3e21f6fe	0.15816876
96	0x3c9a30df	0.018822132
97	0x3d519d28	0.051175267
98	0xbe9e5ac6	-0.3092863
99	0xbc418ffb	-0.011814113
100	0xbf0683be	-0.5254477
101	0xbf21b151	-0.6316119
102	0xbd5f4973	-0.054513406
103	0xbe9244ff	-0.28568265
104	0xbf0363b2	-0.51324
105	0xbeeca27f	-0.46217725
106	0x3e48f313	0.19623975
107	0xbd724a93	-0.05915315
108	0x3e119d48	0.14220154
109	0x3e80c303	0.25148782
110	0x3f2bc3de	0.67095745
111	0x3ec3e5d7	0.3826129
112	0x3f111394	0.566705
113	0x3ea74de3	0.3267661
114	0xbe866d2a	-0.2625516
115	0x3e0b9cf2	0.13634089
116	0xbe993740	-0.29924965
117	0xbd5ba4ad	-0.053623844
118	0xbe91f3bf	-0.28506276
119	0xbf017487	-0.5056843
120	0x3f2d1938	0.67616606
121	0x3efb1d64	0.4904586
122	0xbf2fa1b1	-0.68606097
123	0x3ecad7cc	0.39617765
124	0xbf06dec9	-0.52683693
125	0xbedbef7b	-0.42956147
126	0xbf1c3702	-0.61021435
127	0xbe463d48	-0.19359314

bias f4 [16]
0	0x3ec5a05d	0.3859891
1	0x3f32b0ae	0.6980084
2	0x3f073e33	0.52829283
3	0x3ef045bc	0.46928203
4	0xbe9bc177	-0.3042104
5	0x3f0bf668	0.5467286
6	0x3ee42940	0.4456272
7	0xbf281da2	-0.65670216
8	0xbf09915c	-0.53737426
9	0xbf00952f	-0.50227636
10	0x3f11682d	0.56799585
11	0xbf150450	-0.58209705
12	0x3c94637b	0.018113842
13	0x3c9242c3	0.0178541
14	0x3c95fd01	0.018309118
15	0x3f057bb5	0.52141887

weight f4 [1, 16]
0	0x3eda092d	0.42585126
1	0x3ec7474b	0.3892158
2	0x3f7d52b5	0.98954326
3	0x3f0fe814	0.562135
4	0x3e60b95d	0.2194571
5	0xbe3dfff8	-0.18554676
6	0x3ec6c76b	0.3882402
7	0x3dc8f5e3	0.09812524
8	0xbf094e70	-0.5363531
9	0xbefdf763	-0.49602804
10	0x3ea962b5	0.3308312
11	0x3e2e9870	0.17050338
12	0xbe0f2ba9	-0.13981499
13	0x3df0a8a7	0.11750918
14	0xbdfb5606	-0.12272267
15	0x3edce72e	0.43145126
