[Data_Type_Model]/min_func_2Xbcd.pt (torch, 60841 bytes, 139 tensors)

weight f4 [2, 2]
-0.5676188 -0.7514461 -3.984795 -0.12077939
00000000: 774f 11bf c65e 40bf e206 7fc0 2f5b f7bd

bias f4 [2]
1.1883576 -0.14068083
00000000: 1a1c 983f a30e 10be

weight f4 [2, 2]
1.7420288 -0.19816442 0.9925814 0.4609797
00000000: cdfa de3f 9deb 4abe d119 7e3f 8805 ec3e

weight f4 [1, 2]
0.009462893 0.21388894
00000000: 400a 1b3c b405 5b3e

weight f4 [2, 2]
1.7179826 -1.8865467 -2.2528036 -1.4882841
00000000: dbe6 db3f 5d7a f1bf ef2d 10c0 1880 bebf

bias f4 [2]
-1.3220171 1.4418919
00000000: db37 a9bf ea8f b83f

weight f4 [2, 2]
-3.3849072 1.7707607 1.2888107 -2.2325368
00000000: 52a2 58c0 49a8 e23f c0f7 a43f e2e1 0ec0

weight f4 [1, 2]
0.022271395 -0.2506338
00000000: 8072 b63c 1353 80be

weight f4 [2, 2]
0.10026661 0.62238693 -1.6133099 1.4591615
00000000: 9558 cd3d c054 1f3f f080 cebf cec5 ba3f

bias f4 [2]
-1.0243332 -0.19913575
00000000: 5a1d 83bf 3eea 4bbe

weight f4 [2, 2]
-0.108279586 -2.0660415 0.6878433 0.82983845
00000000: b0c1 ddbd 063a 04c0 8016 303f 4b70 543f

weight f4 [1, 2]
-0.014903188 0.64855343
00000000: 802c 74bc 9907 263f

weight f4 [2, 2]
1.2279085 8.056673 -0.6317394 -2.0791013
00000000: 1b2c 9d3f 22e8 0041 acb9 21bf ff0f 05c0

bias f4 [2]
-2.1156027 1.4061972
00000000: 0966 07c0 45fe b33f

weight f4 [2, 2]
-1.3309534 3.630264 -1.3212569 3.5783377
00000000: ae5c aabf 3f56 6840 f21e a9bf 7c03 6540

weight f4 [1, 2]
-0.13976991 -0.10928029
00000000: d81f 0fbe 58ce dfbd

weight f4 [2, 2]
0.09098723 0.4779443 0.7662852 -0.89117754
00000000: 8357 ba3d 1eb5 f43e 442b 443f 3624 64bf

bias f4 [2]
1.3520213 0.37624034
00000000: 090f ad3f 93a2 c03e

weight f4 [2, 2]
1.4730129 2.1593473 0.63472676 1.4629513
00000000: b08b bc3f bf32 0a40 747d 223f fd41 bb3f

weight f4 [1, 2]
-0.1285274 0.5564553
00000000: b09c 03be db73 0e3f

weight f4 [2, 2]
-4.2400403 -0.40569568 -5.012664 0.4332778
00000000: 69ae 87c0 58b7 cfbe be67 a0c0 96d6 dd3e

bias f4 [2]
0.70544106 0.36717126
00000000: c997 343f dffd bb3e

weight f4 [2, 2]
0.35173318 0.3392871 1.1192322 -4.174881
00000000: 5f16 b43e 0ab7 ad3e 0043 8f3f a098 85c0

weight f4 [1, 2]
0.40525466 0.11292845
00000000: 8a7d cf3e 0847 e73d

weight f4 [2, 2]
0.36592525 -0.88764334 -3.8970885 10.386217
00000000: 8e5a bb3e 983c 63bf e669 79c0 f22d 2641

bias f4 [2]
-1.1293806 0.28672138
00000000: 8b8f 90bf 25cd 923e

weight f4 [2, 2]
-0.39091527 -2.8104968 2.4798932 -0.12213822
00000000: 0c26 c8be 2edf 33c0 92b6 1e40 9a23 fabd

weight f4 [1, 2]
0.6947728 -0.5213214
00000000: a1dc 313f 5275 05bf

weight f4 [2, 2]
0.06169901 -1.9009932 0.77879524 -1.1980315
00000000: 1ab8 7c3d bf53 f3bf 205f 473f 1959 99bf

bias f4 [2]
1.4236538 0.9385542
00000000: 4a3a b63f 1745 703f

weight f4 [2, 2]
-0.074541114 1.1135367 -0.07714725 1.1360754
00000000: 03a9 98bd 5f88 8e3f 61ff 9dbd eb6a 913f

weight f4 [1, 2]
0.27820575 0.40367275
00000000: fc70 8e3e 32ae ce3e

weight f4 [2, 2]
1.5445677 -0.8539306 -0.27033758 1.2521559
00000000: 65b4 c53f 329b 5abf b069 8abe a546 a03f

bias f4 [2]
0.7494003 -0.5788826
00000000: b3d8 3f3f a631 14bf

weight f4 [2, 2]
2.313199 0.84174263 0.24234436 0.30707633
00000000: 740b 1440 727c 573f 1f29 783e 1c39 9d3e

weight f4 [1, 2]
-0.066313624 -0.37537694
00000000: 70cf 87bd 6831 c0be

weight f4 [2, 2]
-0.5389746 -0.83434874 0.026869072 -0.601795
00000000: 3dfa 09bf e197 55bf 871c dc3c 3d0f 1abf

bias f4 [2]
0.31681785 0.7472225
00000000: f335 a23e f949 3f3f

weight f4 [2, 2]
-0.6918888 0.9104218 0.38241833 -0.4608212
00000000: a01f 31bf 6711 693f 56cc c33e c2f0 ebbe

weight f4 [1, 2]
0.17120951 0.51778454
00000000: 8c51 2f3e 878d 043f

weight f4 [2, 2]
-0.8922154 1.5073924 -0.39280027 0.98170114
00000000: 3a68 64bf 3cf2 c03f 1e1d c9be c450 7b3f

bias f4 [2]
0.1415139 -1.1287761
00000000: 05e9 103e bc7b 90bf

weight f4 [2, 2]
0.73841685 -1.4942551 0.50114065 0.026766736
00000000: e308 3d3f c043 bfbf c14a 003f ea45 db3c

weight f4 [1, 2]
0.16133857 0.11578077
00000000: f035 253e 781e ed3d

weight f4 [2, 2]
-3.3790996 2.7308218 -1.4765955 0.3473943
00000000: 2b43 58c0 c9c5 2e40 1501 bdbf aadd b13e

bias f4 [2]
-1.0826048 -1.5958865
00000000: cb92 8abf 0246 ccbf

weight f4 [2, 2]
-1.0819523 2.148366 0.3985958 -0.8752643
00000000: 6a7d 8abf d47e 0940 c014 cc3e 5211 60bf

weight f4 [1, 2]
0.07184529 0.07936877
00000000: a023 933d 188c a23d

weight f4 [2, 2]
-0.806549 0.02275076 -0.82959926 0.8470882
00000000: ff79 4ebf cd5f ba3c 9e60 54bf c6da 583f

bias f4 [2]
0.75702906 1.0344434
00000000: a8cc 413f a468 843f

weight f4 [2, 2]
0.40440795 0.57544935 0.07719155 -0.70027614
00000000: 8f0e cf3e a650 133f 9a16 9e3d 4c45 33bf

weight f4 [1, 2]
0.7066172 0.557285
00000000: dde4 343f 3baa 0e3f

weight f4 [2, 2]
0.6237694 4.7224174 -0.012713316 0.19403806
00000000: 5aaf 1f3f 0b1e 9740 834b 50bc eab1 463e

bias f4 [2]
1.121157 1.0716519
00000000: 1382 8f3f e42b 893f

weight f4 [2, 2]
0.022083743 1.1002446 0.023029024 1.4430572
00000000: f7e8 b43c d1d4 8c3f 5da7 bc3c 19b6 b83f

weight f4 [1, 2]
-0.5709551 -0.58107984
00000000: 1d2a 12bf a6c1 14bf

weight f4 [2, 2]
2.9466932 0.4697494 -0.39319465 0.95100623
00000000: 9f96 3c40 fe82 f03e cf50 c9be 2575 733f

bias f4 [2]
-1.0712764 1.2986389
00000000: 961f 89bf cd39 a63f

weight f4 [2, 2]
0.9115994 -2.3535697 0.64317244 -2.0356238
00000000: 945e 693f e3a0 16c0 f3a6 243f a947 02c0

weight f4 [1, 2]
0.49939603 0.6258444
00000000: d6b0 ff3e 5737 203f

weight f4 [2, 2]
-0.8061422 -0.65494883 -0.21467574 0.2634787
00000000: 565f 4ebf baaa 27bf f5d3 5bbe aee6 863e

bias f4 [2]
0.107922934 -2.1369636
00000000: b306 dd3d 03c4 08c0

weight f4 [2, 2]
-1.4561791 -1.0046344 1.3508399 1.065988
00000000: 1464 babf dc97 80bf 52e8 ac3f 4b72 883f

weight f4 [1, 2]
0.08418673 0.63479716
00000000: 186a ac3d 1182 223f

weight f4 [2, 2]
2.1892583 -3.3353138 -0.3297391 1.6747818
00000000: cf1c 0c40 c875 55c0 90d3 a8be 405f d63f

bias f4 [2]
0.71966463 -1.4261652
00000000: f13b 383f 958c b6bf

weight f4 [2, 2]
-1.0723506 1.74942 -0.88892907 0.33700174
00000000: c942 89bf ffec df3f db90 63bf 7e8b ac3e

weight f4 [1, 2]
0.25031048 -0.18876475
00000000: b228 803e 8c4b 41be

weight f4 [2, 2]
1.7111542 -0.58999664 0.41118303 0.73310924
00000000: 1a07 db3f 050a 17bf 9586 d23e 0cad 3b3f

bias f4 [2]
-0.2146346 -0.84708524
00000000: 2cc9 5bbe 94da 58bf

weight f4 [2, 2]
-1.5426562 -3.2024248 0.6937591 0.9752478
00000000: c275 c5bf 87f4 4cc0 329a 313f d7a9 793f

weight f4 [1, 2]
-0.2165108 0.5284007
00000000: 02b5 5dbe 4545 073f

weight f4 [2, 2]
1.2260389 2.2799296 0.07546822 0.017606875
00000000: d8ee 9c3f 5eea 1140 158f 9a3d 4b3c 903c

bias f4 [2]
0.09114617 1.489982
00000000: d8aa ba3d bbb7 be3f

weight f4 [2, 2]
-1.5667094 1.7241169 3.5853038 0.7090042
00000000: ef89 c8bf ddaf dc3f 9e75 6540 4d81 353f

weight f4 [1, 2]
0.46961814 -0.5050801
00000000: ca71 f03e ee4c 01bf

weight f4 [2, 2]
-0.44086865 -0.23889765 0.8945228 -1.0323088
00000000: 89b9 e1be 96a1 74be 72ff 643f b222 84bf

bias f4 [2]
-1.2267317 1.5448713
00000000: 8b05 9dbf 58be c53f

weight f4 [2, 2]
0.6403925 -1.9498013 0.9690906 -1.8022127
00000000: c3f0 233f 1793 f9bf 5216 783f e8ae e6bf

weight f4 [1, 2]
-0.024627268 -0.3268247
00000000: 20bf c9bc 9155 a7be

weight f4 [2, 2]
0.33171546 -0.040852886 1.3835535 -0.7482727
00000000: 9cd6 a93e 5b55 27bd 4818 b13f cd8e 3fbf

bias f4 [2]
0.2873238 0.74669325
00000000: 1b1c 933e 4a27 3f3f

weight f4 [2, 2]
1.0763414 -2.0641108 0.28034025 1.5987904
00000000: 8ec5 893f 641a 04c0 c288 8f3e 2aa5 cc3f

weight f4 [1, 2]
0.69402665 -0.43808192
00000000: bbab 313f 464c e0be

weight f4 [2, 2]
-1.6162218 -0.7388225 4.504487 0.25724894
00000000: 5be0 cebf 7923 3dbf c224 9040 22b6 833e

bias f4 [2]
0.06065613 -0.18923846
00000000: 9072 783d bac7 41be

weight f4 [2, 2]
0.2363951 0.21429148 -1.8892134 -3.0374146
00000000: 8f11 723e 3a6f 5b3e bfd1 f1bf 0065 42c0

weight f4 [1, 2]
0.53958064 0.06056702
00000000: f521 0a3f 2015 783d

weight f4 [2, 2]
0.73952806 -1.319839 -0.85171795 0.47966498
00000000: b651 3d3f 7cf0 a8bf 300a 5abf a696 f53e

bias f4 [2]
-0.12501909 -1.2951237
00000000: 0105 00be 9dc6 a5bf

weight f4 [2, 2]
1.8397608 0.94163084 1.4838399 0.8525781
00000000: 487d eb3f b80e 713f 77ee bd3f 8f42 5a3f

weight f4 [1, 2]
-0.056984723 -0.3015301
00000000: d068 69bd 2762 9abe

weight f4 [2, 2]
0.8689798 0.6627467 0.13491398 0.035437785
00000000: 7675 5e3f c5a9 293f e426 0a3e 3627 113d

bias f4 [2]
-0.7797454 -1.0721457
00000000: 659d 47bf 123c 89bf

weight f4 [2, 2]
0.36387736 -3.150916 1.1103406 0.954673
00000000: 224e ba3e 9ca8 49c0 a41f 8e3f 7365 743f

weight f4 [1, 2]
0.6474634 0.2797435
00000000: 29c0 253f 8a3a 8f3e

weight f4 [2, 2]
-1.0072004 -0.756237 -0.61979586 0.2922008
00000000: f1eb 80bf bf98 41bf f1aa 1ebf 589b 953e

bias f4 [2]
-1.4822028 1.7184619
00000000: d2b8 bdbf 8ff6 db3f

weight f4 [2, 2]
0.6399704 1.2621065 0.5691116 -0.100675344
00000000: 1ad5 233f b58c a13f 4cb1 113f e02e cebd

weight f4 [1, 2]
0.45716316 0.68485564
00000000: 4a11 ea3e b352 2f3f

weight f4 [2, 2]
-0.19032264 0.68947715 0.46696642 0.6999275
00000000: f0e3 42be 9381 303f 3916 ef3e 732e 333f

bias f4 [2]
-1.7836161 -1.40978
00000000: 884d e4bf ac73 b4bf

weight f4 [2, 2]
-1.1542394 -0.13287246 -1.1052167 1.1694117
00000000: 1ebe 93bf b80f 08be be77 8dbf 48af 953f

weight f4 [1, 2]
-0.37140897 0.45480436
00000000: 5129 bebe 1edc e83e

weight f4 [2, 2]
0.37109897 0.008143609 1.4831355 -0.12897578
00000000: af00 be3e c66c 053c 62d7 bd3f 3a12 04be

bias f4 [2]
-1.415372 -0.9729553
00000000: e92a b5bf 9913 79bf

weight f4 [2, 2]
0.77311945 0.8109846 -0.062397186 -0.70143014
00000000: 28eb 453f b09c 4f3f 3194 7fbd ed90 33bf

weight f4 [1, 2]
0.23606813 0.66954786
00000000: d8bb 713e 7d67 2b3f

weight f4 [2, 2]
0.04906831 -0.088398665 0.010885875 -0.035022497
00000000: dafb 483d 5c0a b5bd ab5a 323c c073 0fbd

bias f4 [2]
-0.43416283 -0.11908241
00000000: 974a debe 7be1 f3bd

weight f4 [2, 2]
-0.6206569 -0.81000465 -0.7615614 -0.0990239
00000000: 5fe3 1ebf 775c 4fbf b0f5 42bf 0bcd cabd

weight f4 [1, 2]
0.43529826 0.1808263
00000000: 6adf de3e 882a 393e

weight f4 [2, 2]
-0.9102833 -0.19380067 -0.3704527 0.010624191
00000000: 5408 69bf af73 46be faab bdbe 1611 2e3c

bias f4 [2]
0.5561409 1.2095513
00000000: 405f 0e3f 94d2 9a3f

weight f4 [2, 2]
-0.5773488 0.59630805 0.7265716 0.5808007
00000000: 22cd 13bf a5a7 183f 9900 3a3f 5baf 143f

weight f4 [1, 2]
0.69839305 0.49993235
00000000: e3c9 323f 22f7 ff3e

weight f4 [2, 2]
2.218359 -1.8478038 0.5393919 -0.9325038
00000000: 98f9 0d40 d684 ecbf 9615 0a3f 92b8 6ebf

bias f4 [2]
0.41643855 0.07145152
00000000: 6f37 d53e 2d55 923d

weight f4 [2, 2]
0.93777126 0.1430198 0.9860136 -0.3951578
00000000: c711 703f c873 123e 636b 7c3f 2052 cabe

weight f4 [1, 2]
0.5815757 0.42590743
00000000: 25e2 143f 8a10 da3e

weight f4 [2, 2]
2.758303 1.1319828 2.9904156 -0.33847037
00000000: 0988 3040 d0e4 903f f862 3f40 fd4b adbe

bias f4 [2]
-0.3579226 0.2618763
00000000: a241 b7be a714 863e

weight f4 [2, 2]
0.90200967 0.09119458 0.13154002 0.6194958
00000000: 1bea 663f 39c4 ba3d 6db2 063e 4797 1e3f

weight f4 [1, 2]
0.5123194 0.4659
00000000: 5d27 033f 728a ee3e

weight f4 [2, 2]
-0.64787894 -1.112481 -1.5463821 -2.6580112
00000000: 65db 25bf c765 8ebf d9ef c5bf db1c 2ac0

bias f4 [2]
0.8980663 -0.91946155
00000000: ace7 653f d561 6bbf

weight f4 [2, 2]
0.62040603 -3.6790867 1.9147635 1.059482
00000000: eed2 1e3f 2876 6bc0 f816 f53f 1b9d 873f

weight f4 [1, 2]
0.27140522 0.123373926
00000000: a0f5 8a3e 78ab fc3d

weight f4 [16, 2]
-1.7638384 -1.6790587 0.7311126 -2.7486112 -1.5890913 -1.2136225 -0.48035604 -1.6354547
-1.0520253 2.565329 -0.9349663 -2.0091062 1.4542964 -3.2868881 -0.27059942 -2.2520175
1.6513895 -1.7716303 -1.570597 1.816981 -1.5427744 -0.7924331 -1.9899379 -0.6710729
1.4609454 1.5244263 -2.0085034 -0.12687078 -1.9717752 3.5434413 -3.4092693 -0.6895653
00000000: 75c5 e1bf 65eb d6bf 322a 3b3f 3fe9 2fc0
00000010: 5867 cbbf fb57 9bbf 3af1 f5be 9456 d1bf
00000020: c4a8 86bf 5a2e 2440 f459 6fbf 3295 00c0
00000030: 6226 ba3f 605c 52c0 028c 8abe 0e21 10c0
00000040: bb60 d33f c8c4 e2bf 5309 c9bf d592 e83f
00000050: a279 c5bf e5dc 4abf 49b6 febf 6fcb 2bbf
00000060: 4200 bb3f 6720 c33f 528b 00c0 6aea 01be
00000070: 2163 fcbf bec7 6240 7831 5ac0 5a87 30bf

bias f4 [16]
-0.5308311 0.19049302 0.754302 0.16671124 0.008578898 0.58402544 -0.44156483 -0.0664166
0.4294134 -0.8618151 0.60859275 0.54964775 0.46743467 0.6852004 -0.38652018 -0.6057902
00000000: 8ce4 07bf 9a10 433e f019 413f 5ab6 2a3e
00000010: 828e 0c3c b182 153f c914 e2be 6d05 88bd
00000020: 13dc db3e ea9f 5cbf bccc 1b3f b7b5 0c3f
00000030: 9953 ef3e 4b69 2f3f f9e5 c5be 1115 1bbf

weight f4 [16, 16]
1.0820211 1.3352715 -1.5129278 0.5273882 -0.52492666 -0.4875441 2.0562153 1.3495039
0.91203666 0.6287288 -1.8219355 -1.6634117 -0.023894846 -2.1862636 -0.36091554 -0.32485515
0.07546448 -0.21830654 0.38757768 0.64453447 -0.57249755 0.5351862 0.12805101 0.40641892
0.53201634 0.6664404 0.45055127 0.2290922 -0.37641364 0.50302464 -0.26402187 1.5645694
-0.3706039 1.211819 0.14965917 0.53339165 -1.4289806 0.6174604 0.0038008967 0.5269394
0.8540234 -0.47762287 -0.15218495 -0.25738683 0.0074344063 -0.3984225 -1.9688047 -0.9330759
0.21519607 0.0022109323 -0.52130234 -0.21020323 -0.4168803 -0.4284454 -0.48185566 0.12623164
-0.3535576 0.62398356 -0.2933166 -0.57120603 0.049565557 -0.40291637 -0.7007473 -0.14667842
-0.40320674 0.17987388 -0.32081655 -0.65066284 -0.120174035 -1.8313073 -0.1366933 -0.0011920455
0.38029322 0.10153731 -0.36671388 -0.48649728 0.94264174 -0.2062188 0.05425409 -2.2642994
0.28196427 0.39108792 0.597048 1.287952 -1.2658587 1.1200484 0.23392764 1.2776122
1.0571338 -1.2219375 1.1537477 0.19672523 -0.18382876 0.2093949 -1.3639691 -0.11369516
0.21746199 -0.51105696 0.04641459 -0.012402122 0.29644027 0.14352967 0.04913623 -0.12636034
-0.31396422 0.43509507 0.42688632 0.34344035 -0.09812268 0.32813442 0.41561007 0.72637504
0.32125422 -0.097195625 -0.29977146 -0.5011446 0.043101974 -2.053097 0.014210332 -0.07745489
-0.73188335 1.6722442 -0.08339638 -0.18806712 -0.19051094 -0.30817538 0.3767032 -0.2439092
0.3238645 2.0887382 -1.5442135 0.62725127 -0.031630617 -1.2011391 2.589321 0.37232196
1.0015966 0.26819903 -3.6956859 -1.9146138 0.052641977 -2.9677281 0.35702285 -0.2129621
-0.64197004 -1.2912291 0.093662634 -0.7037127 0.79484427 0.31558055 -0.91667897 -1.0550677
-0.32149044 -0.6165525 -0.06677995 -0.20070727 0.26487038 0.12773788 0.79022205 -0.21516487
0.020044874 1.634232 -1.4899179 -1.0160477 -0.16540052 -0.3903044 2.1654956 -0.59008175
0.8943021 0.18743229 -3.5172195 -3.0249045 0.76328826 -3.4310741 -0.60012805 -1.1807127
3.4615679 0.42454362 -0.012654913 1.71042 -2.1678922 0.55815053 2.3968756 3.2117162
0.01330819 0.7084075 0.14684492 0.21638241 -3.298513 -0.31059498 -0.2098593 1.9260538
-0.12134021 0.8927638 -0.51261157 0.31411055 -0.89355713 -0.04019453 1.6262125 0.6122016
0.8817646 -0.39642286 -0.6196616 -0.979378 0.090514354 -1.0650522 -0.44345397 -1.2263471
0.53802013 1.28108 0.06688093 0.67990196 -2.065408 0.42151535 2.1264825 1.4382997
1.3546877 -0.13728829 0.32811087 -0.4515917 0.7083016 -0.6408319 -1.3412719 -0.6095814
0.7671876 1.7178363 0.5103412 1.5784843 -2.5372722 1.2550558 0.5425298 2.3185868
1.0941168 -0.9458464 0.39190292 0.17155258 -1.5769614 -0.15264459 -3.4145174 0.32245302
-0.18857977 1.1345993 -0.47697312 -0.04152931 -0.58584225 -0.13314165 0.8639512 0.4056929
0.72786444 -0.376716 -0.35392722 -0.25820103 -0.36218256 -0.5666543 -0.6169165 -0.84328556
00000000: ab7f 8a3f 2dea aa3f 9ea7 c1bf ea02 073f
00000010: 9861 06bf 619f f9be 0899 0340 8bbc ac3f
00000020: 3c7b 693f 5ff4 203f 2f35 e9bf adea d4bf
00000030: 20bf c3bc beeb 0bc0 ecc9 b8be 6a53 a6be
00000040: 1f8d 9a3d c08b 5fbe 9570 c63e 3600 253f
00000050: 338f 12bf f601 093f ce1f 033e 2416 d03e
00000060: 3932 083f d79b 2a3f a8ae e63e 2597 6a3e
00000070: 4ab9 c0be 39c6 003f e02d 87be cf43 c83f
00000080: cbbf bdbe e31c 9b3f 4140 193e 5b8c 083f
00000090: d6e8 b6bf e311 1e3f 7718 793b 80e5 063f
000000a0: 47a1 5a3f fc8a f4be 5fd6 1bbe 35c8 83be
000000b0: 529c f33b 09fe cbbe cb01 fcbf 10de 6ebf
000000c0: 5c5c 5c3e 4ae5 103b 1274 05bf 843f 57be
000000d0: 5671 d5be 325d dbbe c9b5 f6be de42 013e
000000e0: 8005 b5be 63bd 1f3f 982d 96be 8f3a 12bf
000000f0: 4105 4b3d 0e4b cebe 2d64 33bf de32 16be
00000100: 1d71 cebe dc30 383e 1142 a4be d791 26bf
00000110: ce1d f6bd 4768 eabf 54f9 0bbe 693e 9cba
00000120: cbb5 c23e cbf2 cf3d ecc1 bbbe 2c16 f9be
00000130: f850 713f 052b 53be 8939 5e3d 48ea 10c0
00000140: 9f5d 903e ad3c c83e 23d8 183f 9cdb a43f
00000150: a807 a2bf bf5d 8f3f ba8a 6f3e cc88 a33f
00000160: 2950 873f 7368 9cbf 01ae 933f 5772 493e
00000170: 9b3d 3cbe 9e6b 563e 8a96 aebf 02d9 e8bd
00000180: 5bae 5e3e a1d4 02bf 3a1d 3e3d 4532 4bbc
00000190: 05c7 973e 71f9 123e 1243 493d 9b64 01be
000001a0: ebbf a0be c8c4 de3e d890 da3e 6ad7 af3e
000001b0: 8bf4 c8bd 3c01 a83e d8ca d43e b7f3 393f
000001c0: 6f7b a43e 800e c7bd a57b 99be 034b 00bf
000001d0: b28b 303d f165 03c0 74d2 683c aba0 9ebd
000001e0: b55c 3bbf 190c d63f b9cb aabd ab94 40be
000001f0: 4d15 43be 2ac9 9dbe 3edf c03e 55c3 79be
00000200: 91d1 a53e e3ad 0540 caa8 c5bf 8a93 203f
00000210: 1b8f 01bd edbe 99bf 6fb7 2540 fca0 be3e
00000220: 5134 803f 6251 893e 1e86 6cc0 1112 f5bf
00000230: 1d9f 573d 42ef 3dc0 b3cb b63e bd12 5abe
00000240: 2658 24bf ff46 a5bf 32d2 bf3d 8426 34bf
00000250: ea7a 4b3f c693 a13e 79ab 6abf 750c 87bf
00000260: 659a a4be 62d6 1dbf edc3 88bd 3586 4dbe
00000270: 179d 873e b8cd 023e fe4b 4a3f 2e54 5cbe
00000280: 2635 a43c 842e d13f a1b5 bebf da0d 82bf
00000290: c15e 29be fad5 c7be 7b97 0a40 990f 17bf
000002a0: fcf0 643f 40ee 3f3e 201a 61c0 0998 41c0
000002b0: dc66 433f b896 5bc0 fea1 19bf 9821 97bf
000002c0: 548a 5d40 c85d d93e 8d56 4fbc 0bef da3f
000002d0: bfbe 0ac0 f4e2 0e3f 6966 1940 c28c 4d40
000002e0: 980a 5a3c 325a 353f 845e 163e 5a93 5d3e
000002f0: d61a 53c0 4e06 9fbe 5be5 56be ee88 f63f
00000300: 3781 f8bd 2b8c 643f 833a 03bf 19d3 a03e
00000310: 29c0 64bf 05a3 24bd bb27 d03f 3eb9 1c3f
00000320: 53bb 613f f0f7 cabe 25a2 1ebf 84b8 7abf
00000330: 975f b93d a153 88bf 660c e3be f1f8 9cbf
00000340: b0bb 093f 6efa a33f def8 883d 0e0e 2e3f
00000350: a52f 04c0 dcd0 d73e 4a18 0840 341a b83f
00000360: 6866 ad3f 4d95 0cbe 26fe a73e 0737 e7be
00000370: 4153 353f 8f0d 24bf ccae abbf 870d 1cbf
00000380: 6866 443f 0fe2 db3f b9a5 023f c60b ca3f
00000390: ab62 22c0 aba5 a03f 3ce3 0a3f ba63 1440
000003a0: 050c 8c3f fd22 72bf 80a7 c83e 7bab 2f3e
000003b0: dfd9 c9bf dd4e 1cbe 7487 5ac0 9018 a53e
000003c0: 0e1b 41be 8d3a 913f d235 f4be a31a 2abd
000003d0: c2f9 15bf 4956 08be e82b 5d3f fbb6 cf3e
000003e0: 5355 3a3f ebe0 c0be f335 b5be ed32 84be
000003f0: fe6f b9be 4210 11bf 3dee 1dbf 90e1 57bf

bias f4 [16]
-0.859965 -0.03659781 0.32694387 -0.38867685 0.13313767 0.23687732 -0.109210104 -0.17611411
-0.80090857 0.14836183 -0.6812312 -0.64844716 -0.24985588 -0.08494882 0.3823732 0.065965064
00000000: ab26 5cbf 96e7 15bd 3065 a73e a700 c7be
00000010: 3e55 083e f88f 723e 8ca9 dfbd 4257 34be
00000020: 5808 4dbf 2aec 173e 2b65 2ebf a200 26bf
00000030: 38da 7fbe a6f9 adbd 6cc6 c33e b118 873d

weight f4 [2, 16]
-0.51079154 -0.735727 0.4561195 0.40780094 -0.1710252 -0.50215364 -0.17775275 0.48180956
-0.47711465 -0.41668466 -0.37600794 -0.5452677 -0.29750806 -0.4150423 0.75842005 -0.11708378
-0.82251984 -0.3831922 0.7195386 0.4909322 -0.0009581701 -0.96525127 0.27518797 0.16753457
-0.6808448 -0.664855 -1.064238 -0.62302315 -0.07120492 -0.29485235 0.78439766 0.26492298
00000000: 3cc3 02bf 9b58 3cbf 7f88 e93e 49cb d03e
00000010: 3b21 2fbe 248d 00bf d104 36be beaf f63e
00000020: 5f48 f4be b157 d5be 1d84 c0be aa96 0bbf
00000030: fa52 98be 6d80 d4be d127 423f 9fc9 efbd
00000040: a990 52bf c531 c4be af33 383f 775b fb3e
00000050: b52d 7bba b51a 77bf 70e5 8c3e 2f8e 2b3e
00000060: d84b 2ebf f033 2abf f338 88bf 727e 1fbf
00000070: e3d3 91bd e3f6 96be 49ce 483f fca3 873e

bias f4 [2]
-0.0036482746 0.0005252613
00000000: e417 6fbb b0b1 093a

weight f4 [8, 2]
-0.02955906 -0.26239723 0.40501425 -0.62348557 -0.047029335 -0.19121088 -0.106599264 -0.23801267
1.000902 -0.3237834 0.10262217 -0.055320125 -0.20201941 0.6700449 -0.8738309 0.6181117
00000000: d825 f2bc ee58 86be 075e cf3e c09c 1fbf
00000010: d5a1 40bd c9cc 43be b750 dabd 98b9 73be
00000020: 8f1d 803f f0c6 a5be 922b d23d 5b97 62bd
00000030: 2dde 4ebe 1088 2b3f 62b3 5fbf 923c 1e3f

bias f4 [8]
-0.44956195 -0.20488012 -0.08923328 -0.18352278 -0.36562914 -0.47978383 0.17924422 0.68147916
00000000: fc2c e6be 18cc 51be f0bf b6bd 65ed 3bbe
00000010: be33 bbbe 3aa6 f5be cc8b 373e 6b75 2e3f

weight f4 [16, 8]
0.04256022 -0.4252414 -0.33289883 0.109422 -0.11550791 -0.3035617 0.06260653 -0.23976
-0.30126548 0.10881645 -0.14353527 -0.19799267 -0.25562716 -0.03112057 -0.2131754 0.027588539
-0.1010281 -0.24981028 -0.12635556 0.35843673 -0.10074767 0.37533996 -0.075287454 -0.30110803
0.13089862 -0.052890066 0.19816183 0.24511284 -0.18926828 0.2964507 -0.26007906 0.13212459
-0.20503794 0.14927225 0.18413387 -0.06108138 0.21460666 -0.28417557 0.20679262 -0.10318816
-0.23835197 -0.068624966 -0.17467557 -0.12336077 -0.25416604 -0.022507766 0.16435468 0.35709107
0.34353822 -0.35680217 -0.18219922 0.19311346 0.16193795 0.07013421 -0.15895316 -0.40988153
-0.3196085 0.3763258 0.022973834 0.48160562 0.2054873 -0.23122922 -0.5121113 -0.2671895
0.17516534 -0.3325215 -0.13325818 0.014428392 0.035079487 0.09080029 -0.026918793 -0.3613508
0.013568467 -0.53932554 -0.51729876 -0.03416156 -0.039800934 -0.25829956 0.46205917 -0.4094594
0.38513538 0.06105422 0.11697867 -0.17177193 0.11990311 0.37495846 0.07124458 0.12986922
0.32665995 -0.38806263 -0.050804283 0.010916552 0.3958648 0.15869887 -0.03074249 -0.21351476
0.19996935 0.12911981 -0.007423407 -0.23530892 0.007328029 -0.2412864 -0.004633246 -0.0617779
0.50320685 1.7103993 0.6853859 0.6505727 0.47882816 0.0038998637 -0.79874593 0.153577
-0.027706236 0.036446586 0.26060927 -0.14274488 0.08798714 0.3321835 -0.1181174 0.1569825
-0.21706179 -0.073220424 0.13662115 -0.06893968 -0.23359926 -0.22408757 0.028892996 -0.023407808
00000000: a053 2e3d 3eb9 d9be b771 aabe a418 e03d
00000010: 698f ecbd 706c 9bbe da37 803d a583 75be
00000020: 783f 9abe 29db de3d e9fa 12be 97be 4abe
00000030: 90e1 82be 91f0 febc a74a 5abe 5c01 e23c
00000040: d2e7 cebd 44ce 7fbe 5a63 01be 0585 b73e
00000050: cb54 cebd 8f2c c03e 4f30 9abd d52a 9abe
00000060: 4a0a 063e 41a3 58bd efea 4a3e dcfe 7a3e
00000070: 8bcf 41be 63c8 973e 1529 85be ab4b 073e
00000080: 77f5 51be d3da 183e 978d 3c3e 7830 7abd
00000090: d9c1 5b3e 767f 91be 72c1 533e 5054 d3bd
000000a0: 8a12 74be 3f8b 8cbd 27de 32be 92a4 fcbd
000000b0: 0d22 82be 3562 b8bc 984c 283e a4d4 b63e
000000c0: 3ee4 af3e c6ae b6be 6f92 3abe 89bf 453e
000000d0: 10d3 253e 86a2 8f3d 9ec4 22be fedb d1be
000000e0: baa3 a3be c6ad c03e 9f33 bc3c 0395 f63e
000000f0: 436b 523e 5ac7 6cbe ba19 03bf 10cd 88be
00000100: 8b5e 333e 4240 aabe d574 08be 1065 6c3c
00000110: 82af 0f3d 81f5 b93d cd84 dcbc f902 b9be
00000120: 474e 5e3c 3d11 0abf b16d 04bf feec 0bbd
00000130: 4e06 23bd d73f 84be 0593 ec3e aaa4 d1be
00000140: 7730 c53e fd13 7a3d 8392 ef3d fbe4 2fbe
00000150: c38f f53d 8efa bf3e aee8 913d 70fc 043e
00000160: f93f a73e 25b0 c6be 2718 50bd 56db 323c
00000170: cbae ca3e f581 223e add7 fbbc 9da3 5abe
00000180: c4c4 4c3e fc37 043e 0d40 f3bb d2f4 70be
00000190: f61f f03b c813 77be 7cd2 97bb d30a 7dbd
000001a0: 2ad2 003f 5dee da3f 7375 2f3f ef8b 263f
000001b0: f728 f53e db94 7f3b 9d7a 4cbf 4a43 1d3e
000001c0: 30f8 e2bc 0449 153d 946e 853e b72b 12be
000001d0: 9a32 b43d f513 aa3e 89e7 f1bd 05c0 203e
000001e0: 7245 5ebe 97f4 95bd 6ae6 0b3e 3f30 8dbd
000001f0: a534 6fbe 3677 65be 01b1 ec3c bbc1 bfbc

bias f4 [16]
-0.084790014 0.07623552 0.23918109 -0.3129302 -0.09059933 0.20589712 -0.38156256 0.3147773
-0.3979114 -0.14584775 -0.37323627 -0.12444878 0.095086716 0.26232517 -0.38036275 -0.26895478
00000000: 63a6 adbd 5e21 9c3d e3eb 743e 6338 a0be
00000010: 248c b9bd b2d6 523e 2b5c c3be 7e2a a13e
00000020: 0bbb cbbe 1d59 15be d318 bfbe 01df febd
00000030: d3bc c23d 7c4f 863e e8be c2be 71b4 89be

weight f4 [1, 16]
-0.010263049 0.14287646 -0.100273885 -0.1298477 -0.0050915377 0.29869863 -0.16437097 0.063354105
-0.11663369 -0.023327848 -0.09101817 -0.17535771 -0.13535261 0.065241486 -0.124074675 0.00024916878
00000000: 5926 28bc 354e 123e 655c cdbd ccf6 04be
00000010: ead6 a6bb 07ef 983e dd50 28be ccbf 813d
00000020: a5dd eebd 0b1a bfbc bc67 babd f990 33be
00000030: e099 0abe 549d 853d dd1a febd dea2 8239
