[LC models]/min_func_LC_3x60_n_V=8.pt (torch_old, 395544 bytes, 78 tensors)

weight f4 [40, 2]
000000 72 a8 76 3e 14 c0 09 bf ec d7 4d 3d 7e b7 df 3e
       0.24087694 -0.5380871 0.050254747 0.4369468
000010 ec 7c ae 3d 26 3c 62 bd c2 9b 1a 3e 12 09 46 3e
       0.08519921 -0.055233143 0.1509848 0.19339398
000020 b8 52 05 3b 09 8b 0e 3f 3e 7b 99 3a a4 d6 51 3e
       0.0020343494 0.556809 0.0011709703 0.20492035
000030 1e ae f4 bb 67 be 4f 3e 15 78 64 3e 49 8e b5 bd
       -0.0074670454 0.20287476 0.22311433 -0.08865029
000040 16 c8 80 be e6 3a c0 be e3 a8 35 be 7d 26 4b be
       -0.25152653 -0.37544936 -0.17740206 -0.19838901
000050 aa 3e d5 bb 75 94 3c 3d 3f 52 b4 3e 5b f8 bf be
       -0.0065077143 0.046040017 0.35219 -0.37494168
000060 88 91 fe 3e f6 50 53 3e b1 f7 9b 3d 63 ed 17 be
       0.49720407 0.20636353 0.07615603 -0.1483665
000070 c8 50 8c 3e ee 43 80 be c3 8c 9a 3e f5 a2 ab 3e
       0.2740538 -0.25051826 0.30185518 0.33522764
000080 73 db de 3d 80 92 b0 3e 27 f3 01 3f 72 0b df bd
       0.108817 0.3448677 0.50761646 -0.10890855
000090 f0 90 48 be 44 50 1e bf 97 0c 97 be e9 ac 05 bf
       -0.1958654 -0.61841226 -0.29501793 -0.52216965
0000a0 de 28 3c bf 14 ad 5a be 82 e2 d3 3c 2d f1 3a 3c
       -0.7349986 -0.21355087 0.025864843 0.01141004
0000b0 95 98 0e 3e 28 dc 8f be 96 76 cb 3e 07 b5 5d 3e
       0.13925393 -0.28097653 0.3973891 0.21651088
0000c0 47 bb 76 3e ae 86 9c be ed 05 57 3e e7 2a 83 3e
       0.24094878 -0.30571502 0.20998354 0.2561867
0000d0 f0 76 98 3e 79 14 d2 3e 4f 93 cf be ce 9b 97 3e
       0.29778242 0.41031244 -0.40542075 0.29611057
0000e0 a2 00 ab 3f 4f 00 83 bf 1b 7e e2 bd bc 0a b5 bd
       1.3359568 -1.0234469 -0.11059209 -0.08839938
0000f0 a1 49 2d 3f e9 33 76 3e 45 6b a0 bd dc 5f 71 be
       0.67690474 0.2404324 -0.0783296 -0.23571724
000100 e9 65 de bd 57 56 27 bf 8b ae 95 3c 51 eb bc 3d
       -0.108592816 -0.6536612 0.018271705 0.092245705
000110 a0 8f cc bb ba 5c 05 3f 39 cf ae 3c 8c 70 bb bd
       -0.0062427074 0.52094615 0.021339046 -0.09152326
000120 e4 f4 ba be a1 3d 7b be 7c 61 b7 3e be 59 ac bc
       -0.36514962 -0.24535228 0.35816562 -0.021038886
000130 f7 64 9e 3d 1c 5b 21 3e ac 97 05 3e 19 c5 f0 bd
       0.07734101 0.15757412 0.1304614 -0.117563434

bias f4 [40]
000000 ea 03 a6 3e 68 f2 a0 3e 00 09 45 3f 44 a4 4e bf
       0.3242486 0.3143494 0.7696686 -0.807194
000010 dd a7 40 3e 07 18 2b 3d 98 ad 0c bf 24 a9 04 bf
       0.18814035 0.04177096 -0.54952383 -0.5182059
000020 2d de 84 3e bb 28 35 3f 10 0c f7 bd 42 ae ab 3e
       0.25950757 0.70765275 -0.120628476 0.33531386
000030 45 6e 15 3e 47 4d bb 3e a9 1f 91 be 3f a1 c8 be
       0.14592846 0.36582395 -0.28344467 -0.3918552
000040 e0 5d 7f bf 15 96 ea 3d 69 69 0f 3f 88 57 8b 3d
       -0.99752617 0.11454407 0.5602022 0.06803805
000050 b8 41 8a bd 47 29 b5 be 0e a2 f0 3d f7 2f 00 bf
       -0.06750816 -0.35383055 0.117496595 -0.5007319
000060 9e 3e 62 3e 13 49 ec be 42 26 3b be 42 36 99 3e
       0.22094199 -0.461495 -0.18276313 0.29924208
000070 4a ab ad 3e 90 88 89 3e 4c 5b 45 bf e8 51 fb 3e
       0.33919746 0.26862 -0.7709243 0.49085927
000080 94 9d 96 3e 4c ce b8 be 19 3a f2 be 46 8a 2b be
       0.29417098 -0.36094892 -0.4730995 -0.16751966
000090 77 1c 96 3d 3a 09 e7 be af fb 32 be 72 46 b5 3e
       0.07329648 -0.45124227 -0.17478822 0.35405308

weight f4 [40, 40]
000000 41 dd 8e bf 2d 1c 5a bf 1d 34 5c bf b9 ad 52 3f
       -1.1161271 -0.8519924 -0.8601702 0.8229633
000010 39 e9 44 bf 3b e4 85 3e f1 f4 af 3e 52 7f 69 3c
       -0.7691837 0.2615069 0.34366563 0.014251547
000020 7f c8 04 be 72 fa f5 bd 85 8a 5f 3f 23 7d 86 be
       -0.12967108 -0.12010659 0.8732074 -0.26267347
000030 f1 66 25 bf 33 55 0a bf 3b 06 a4 be 54 69 a2 bd
       -0.646102 -0.54036254 -0.32036003 -0.07930246
000040 04 84 87 3e 43 ef 77 3c fc d6 4b bf cc d0 8f 3e
       0.26467907 0.015132728 -0.79624915 0.28088987
000050 a5 28 8a 3f 1c 9f 61 3f 1f d6 82 bf 94 20 0a 3f
       1.0793654 0.88133407 -1.0221595 0.5395596
000060 ef 3e a2 bc 4d e1 72 3e 06 e0 30 be 0e 24 43 be
       -0.0198054 0.23718758 -0.17272958 -0.19056723
000070 14 a4 8c be fe 4d 4d bf 16 18 d9 3e 55 18 0d bf
       -0.27468932 -0.8019713 0.4240119 -0.5511525
000080 4b e4 2c 3e 53 f8 7d 3f a8 f4 90 3f 92 24 6b 3f
       0.16883962 0.9920704 1.1324663 0.91852677
000090 32 c0 a4 3e 33 5a 2c 3e e6 fe 7f 3f ad b4 b6 3b
       0.32177883 0.16831283 0.9999832 0.0055757375
0000a0 c2 73 b5 be 03 38 a2 be a4 9c 27 bf 9a 37 50 3f
       -0.3543988 -0.3168336 -0.6547339 0.8133484
0000b0 8a 26 ae bc 02 cc f9 3e b7 82 be 3d 89 62 a8 be
       -0.021258611 0.48788458 0.09302276 -0.32887676
0000c0 ec ad e8 3d 2e 19 79 3f 21 f4 b7 3f 5f 2c ef be
       0.11361298 0.97304046 1.4371377 -0.4671354
0000d0 5c af 16 bf bd 24 16 bf 51 7a e7 bc a4 36 dd 3c
       -0.5886133 -0.5864981 -0.028256567 0.027003594
0000e0 3f d2 ce 3e f1 b2 c4 be 58 80 2d bf e0 be af bd
       0.4039478 -0.3841777 -0.6777396 -0.085813284
0000f0 c1 5a c8 3f 05 a6 a2 3e 63 81 4d bf e5 7b 1a be
       1.5652696 0.31767288 -0.80275553 -0.15086325
000100 2c e3 9a 3f 4c e2 0c bd a5 27 39 bd 63 97 61 3e
       1.2100577 -0.0343955 -0.045203824 0.22030406
000110 c5 f7 04 bf 71 de ba bd 41 1d f5 3b fc 80 dc bd
       -0.51940566 -0.091244586 0.007480294 -0.10766789
000120 ad 7a 18 3f 58 a4 b0 3e 8f bd 36 3f 7b 78 8c 3c
       0.5956219 0.34500384 0.71382993 0.017147293
000130 3a 9a c5 be 67 f1 c7 3e 2b b9 e8 3f 07 ee b8 3e
       -0.38594228 0.39051363 1.8181509 0.361191
000140 82 ec 99 3e 01 c6 80 be af 8d 93 3e d2 bc 86 3e
       0.30063254 -0.25151065 0.28819034 0.26315933
000150 30 19 df be d3 08 0d be 35 4d b7 3f ec 69 41 3e
       -0.43573904 -0.13772897 1.4320437 0.18888062
000160 b7 cf 95 bf a9 77 1b bf 2e d0 50 bf 2f 86 5d bd
       -1.1704015 -0.6072946 -0.81567657 -0.054083046
000170 ad f2 08 3f 56 a6 38 3e 8a 84 49 3e e6 fb f6 3e
       0.53495294 0.18032202 0.19679466 0.48239058
000180 c7 7d 1f 3e 66 dc 0f be c1 00 e2 3e 71 e5 c0 bd
       0.15575324 -0.14048919 0.441412 -0.094187625
000190 f4 ad 1f be 58 48 1c 3f a0 02 6c bd 2f 1f 61 bf
       -0.15593702 0.6104789 -0.05761969 -0.8793821
0001a0 81 c0 38 bf 27 a6 54 3f d8 23 31 3f c6 06 91 bf
       -0.7216874 0.8306603 0.6919532 -1.1330192
0001b0 71 4c 1c bf 42 50 5b bf f1 15 f5 bd 9e 9a a4 bf
       -0.6105414 -0.8566934 -0.119670756 -1.2859685
0001c0 ef 68 85 bf 9d 6a 26 be 64 cb 30 3e 6f c1 fe 3e
       -1.0422648 -0.16251607 0.17265087 0.49756953
0001d0 67 b9 59 bf ca 96 ec 3e a1 ca 74 bf ef 52 85 be
       -0.85048527 0.46208793 -0.9562169 -0.26039836
0001e0 a6 f0 ec bf 41 f1 ab bf a5 4b 27 3f 58 a1 01 bd
       -1.851094 -1.3433 0.653498 -0.03164801
0001f0 56 b6 3f bf ca 76 a9 bd 01 22 66 3f 4c c9 06 bf
       -0.748876 -0.0827461 0.89895636 -0.52650905
000200 b7 58 d3 be 16 08 f2 be 0b 1d 23 be 50 8d a1 bf
       -0.41278622 -0.47271794 -0.15929048 -1.262125
000210 3a 6c 7f bd 59 72 46 bf 70 23 fd be 40 ac fe 3e
       -0.062359072 -0.7751823 -0.494411 0.4974079
000220 06 21 a5 3e 03 81 d1 3f a7 f5 13 bf ee ac 6a bd
       0.32251757 1.6367496 -0.5779671 -0.057293825
000230 d5 5b 1a 3e 68 bd 0f 3f c2 7e d4 3c df a5 fc 3d
       0.15074094 0.56148386 0.02593935 0.12336325
000240 7c 6f a1 3e 4d 50 18 3f be 0c 88 3f 3a 49 a3 bf
       0.31530368 0.5949753 1.0628889 -1.2756722
000250 88 ce a8 bf 5d 36 a9 be cb ea cb 3e c2 88 5b bf
       -1.3188028 -0.33049288 0.3982757 -0.8575555
000260 5f cd cb be 47 24 46 be 38 61 a8 3f 83 4f 2b 3f
       -0.39805123 -0.19349776 1.3154669 0.669182
000270 50 ac e8 be 2b cc 8e 3e 86 b7 b9 3d 2c 82 05 bf
       -0.45443964 0.27890143 0.090682074 -0.5215175
000280 fd 4c 8e bd cf 01 a4 bd b4 ad ba bf 21 f5 1c bf
       -0.06948278 -0.080081575 -1.458426 -0.6131154
000290 73 47 03 bf fe 38 15 bf f4 6f 04 3e d1 7c 2a bf
       -0.512809 -0.5829009 0.12933332 -0.66596705
0002a0 aa d8 8d 3e f9 cc 54 bd f2 e7 7f be d4 4d a2 3f
       0.27704364 -0.05195329 -0.24990824 1.2680001
0002b0 82 3f 84 be 92 93 5e bf fe 4d 13 3f 25 a8 0e 3e
       -0.25829703 -0.86943924 0.5754088 0.1393133
0002c0 27 90 50 bf 5a 1b 09 bf cd 6b fa 3e 73 64 69 bf
       -0.8146996 -0.5355736 0.4891037 -0.911689
0002d0 9f b4 43 3f 68 d7 fc 3e 10 cc 23 bf 35 13 38 3f
       0.7644748 0.49383092 -0.6398325 0.7190431
0002e0 e3 87 3c be 47 63 f2 3c 2c 6a b0 bd d6 40 1d 3e
       -0.18411212 0.029588355 -0.08614001 0.15356764
0002f0 4b 12 13 40 1b 33 d3 be 84 8f 73 bf ea 69 39 be
       2.2979915 -0.41249928 -0.9514086 -0.1810681
000300 b9 aa 8a 3e 10 60 36 be b7 f8 1e 3f 6d d3 52 3f
       0.27083376 -0.17810082 0.6209826 0.8235386
000310 22 c5 81 3f 75 5a a9 be 4d 94 18 3e a2 f5 e5 be
       1.0138285 -0.33076826 0.14900322 -0.44913965
000320 5f 6e b8 bf e7 dd 0b be 38 05 99 bf 8a 5a 30 3f
       -1.4408683 -0.13658868 -1.1954718 0.6888815
000330 2d 0c 81 bf a2 00 30 bf 4b 55 e8 be 99 86 11 3f
       -1.0081841 -0.68750966 -0.45377573 0.56846005
000340 df a9 82 3e 2f 6b b8 be f6 3e 57 3f 2f 06 d1 bf
       0.25520226 -0.36019275 0.84080446 -1.6330012
000350 d4 4c a9 bf e0 01 38 3d ff 0d 4a bf c9 cd 11 bf
       -1.3226571 0.044923663 -0.78927606 -0.5695463
000360 85 68 04 3f 0a 1c 5a bd 6e 0f ec bf b8 b8 64 3f
       0.51721984 -0.053249396 -1.8442209 0.8934436
000370 71 1f 44 3f e7 04 45 be 0a ba 2c bf 84 c9 4c be
       0.76610476 -0.19240151 -0.67471373 -0.19998747
000380 a2 4b 4a 3e da f0 2d bf e9 bf 4a bf 34 4a de 3d
       0.19755414 -0.67945635 -0.7919908 0.10853997
000390 86 01 9b bf 27 b1 08 3f 0d 94 ca 3e 4e fc b0 3d
       -1.210984 0.53395313 0.3956608 0.08641873
0003a0 c1 cc 2e 3f fe d6 6e 3f 2b 26 b2 3f 29 5a 96 be
       0.6828118 0.932968 1.3917898 -0.29365662
0003b0 4c 48 0c 3f 2f 81 2e 3d aa 3c 48 3f a8 43 6a 3e
       0.54797816 0.042603668 0.78217566 0.22877371
0003c0 57 1e 19 3e 43 4e 5a bd 48 81 81 bf 47 5f 74 bf
       0.1495298 -0.053297292 -1.0117579 -0.9545788
0003d0 fd 76 10 be fe cc 61 bf f9 23 89 bf 01 1e b3 be
       -0.1410789 -0.8820342 -1.0714103 -0.3498383
0003e0 e6 01 92 3e 51 6a 36 3f f7 27 fc be db 41 06 3f
       0.28517073 0.71255976 -0.4924924 0.5244424
0003f0 a6 a5 75 be 4b 0d 98 be fa ae ed 3e 39 4c 4f bf
       -0.23988971 -0.29697642 0.4642256 -0.8097568

bias f4 [40]
000000 6b 01 bf bf cf 22 94 be 41 2d 0e 3c 13 3c b5 be
       -1.4922308 -0.28932807 0.008677782 -0.35397395
000010 2b 89 a0 bd cd d7 e1 be 67 d1 8b be aa 00 8f bf
       -0.07838663 -0.44109955 -0.273082 -1.1172078
000020 43 2a 5d be b1 e0 9b bf ab d0 90 bf e7 72 05 3e
       -0.21598153 -1.2177945 -1.131368 0.13032113
000030 1c 49 e0 3d 69 13 be 3e e5 2d 14 bf 97 e9 c1 3c
       0.109514445 0.37124184 -0.5788253 0.023670955
000040 cd 86 6a bf e9 53 a0 bf 0a 85 a6 bf 90 21 a5 bb
       -0.9161194 -1.2525607 -1.300935 -0.0050394014
000050 c2 ac 59 bf bd 8d 97 3d cf 72 26 bf 4c f0 bf bf
       -0.8502923 0.07400081 -0.65018934 -1.4995208
000060 81 fb 9c bf 2f d0 a5 bf 6f 97 07 3f ca cf 2b 3e
       -1.2264253 -1.2954158 0.52965444 0.16778484
000070 a0 d9 0f 3e e9 a7 68 bf 6b 20 33 3f 03 ca 8c bf
       0.14047861 -0.9088121 0.6997134 -1.0999149
000080 e0 48 06 bf 77 fe 96 bd ab fc 85 bf a0 78 9a be
       -0.5245495 -0.07372754 -1.0467733 -0.30170155
000090 c8 5b 8c bf dc 0d 4c bf 13 ac 8e bf f0 c6 19 be
       -1.096551 -0.7970865 -1.1146263 -0.15017295

weight f4 [4, 40]
000000 0f 48 65 3e c8 71 d7 3e b9 a5 ed 3d e9 b1 22 3e
       0.2239077 0.42078996 0.11603875 0.1588818
000010 55 23 10 3f 09 90 b1 be c3 5c a7 3d 89 58 d2 3d
       0.5630391 -0.34680203 0.0817199 0.10270793
000020 82 9b 95 be 8b 4e 1d bc 04 40 1a be c8 ec 00 3e
       -0.29220206 -0.009601246 -0.15063483 0.12590325
000030 db 6f 0d bf ff e9 e8 3c 38 99 61 3e 95 4c fd 3e
       -0.552488 0.02843189 0.22031105 0.4947249
000040 50 bb d4 3e 17 75 42 3f 86 15 15 bf 2a 66 72 3f
       0.41549158 0.75959915 -0.5823597 0.9468714
000050 57 cc ba bd 1c a6 0b bd f8 29 24 be 49 5e 0c 3d
       -0.09121006 -0.03409396 -0.16031635 0.034269605
000060 32 17 56 bf 85 27 15 3e d0 88 4a be f1 e3 4d 3e
       -0.83629143 0.14565857 -0.19778752 0.20106484
000070 7e 3c 78 be 9e 25 2c bf 39 b7 1f be 9a bd 6f 3e
       -0.24241826 -0.672449 -0.15597238 0.23412171
000080 90 11 58 3e 1d 98 94 bd 14 92 40 bf 7e 1a 22 3b
       0.2110045 -0.07255576 -0.752229 0.002473503
000090 8d f4 eb 3e 89 a3 01 bf b1 00 34 bf 54 35 fe 3d
       0.46085015 -0.5064016 -0.70313555 0.12412515
0000a0 aa 40 73 3e ae 2b 0a 3e 7e 43 9c 3e 49 0c 9a bb
       0.23755136 0.13493225 0.30520242 -0.0047011715
0000b0 c4 8b 13 bf ce 11 f5 3e 14 61 c4 bd af bb 14 3e
       -0.5763514 0.47865146 -0.09588829 0.1452472
0000c0 16 b0 1f be 69 80 c6 3e ef 04 0a 3d cf 64 56 3e
       -0.15594515 0.38769844 0.03369611 0.20936893
0000d0 ae 4e 74 3f 9e 03 51 be 63 84 10 bf 92 57 04 3e
       0.95432556 -0.20411536 -0.56452006 0.1292403
0000e0 c7 b2 2c bd eb 75 a8 3e 55 cd 15 3f 18 19 b0 be
       -0.042162683 0.32902464 0.58516437 -0.34394145
0000f0 83 0a ef 3e 19 ff ac 3e 22 56 e2 3e 60 ec a2 bd
       0.46687707 0.33788374 0.4420634 -0.07955241
000100 f7 7b f9 3d 7a 04 8c 3e 1a bc 2e 3f 83 d5 d0 3e
       0.121818475 0.27347165 0.6825577 0.40787897
000110 64 0d df 3e a8 a5 67 3d 8f db 22 3f 8a 55 a5 3e
       0.43564904 0.056554466 0.6361627 0.32291824
000120 df bc 20 be e6 08 15 3e ee b6 9d 3e e7 c9 60 be
       -0.15697049 0.14554176 0.30803627 -0.2195202
000130 cd 32 df bb c7 fb 2b 3e 7b 21 20 3f 7d f1 92 3d
       -0.006811476 0.16795264 0.6255109 0.071749665
000140 0e 31 cf be 5d 46 9e be 67 ce a8 3e ec 16 d3 bd
       -0.40467113 -0.30913058 0.32969972 -0.103071064
000150 28 0d 3b 3f 3e ea c9 3e f4 aa 8a bc a1 38 d4 be
       0.7306695 0.39436525 -0.01692722 -0.41449454
000160 59 aa 8c 3e 6d f2 0a 3f f3 e9 49 3f 76 8d 97 3e
       0.27473715 0.5427616 0.78872603 0.29600114
000170 cf 01 b4 3e 54 99 26 be cb 54 92 3d ae 51 9f 3e
       0.3515763 -0.16269428 0.07145079 0.31117004
000180 a0 22 c3 be 90 99 b6 3f 3d 6f 9a 3e 66 4d 3d 3e
       -0.38112354 1.4265614 0.30162993 0.18486556
000190 66 05 d2 3d 5e e9 32 3f bb f0 46 bd 84 b9 8b 3d
       0.10254936 0.6988734 -0.048569422 0.06822494
0001a0 5c de 85 3e f4 32 cb be 20 44 9a bc 7d e8 b8 3c
       0.2614621 -0.39687312 -0.018831313 0.022571797
0001b0 df a4 cc 3e 7e b8 66 3f 2f 75 33 3e 58 63 81 be
       0.39969537 0.9012526 0.1752517 -0.25271106
0001c0 d1 eb 7e be c1 ea 3a be 43 f4 b4 3e 44 d7 8e 3d
       -0.24894644 -0.18253614 0.35342607 0.069746524
0001d0 a5 58 3a bf b3 44 9a be d0 0e d1 3e e1 ff 44 3d
       -0.7279151 -0.30130538 0.40831614 0.048095588
0001e0 49 04 8e 3e 0e b9 38 3f 8d be c2 be 36 2c 85 be
       0.27737644 0.7215737 -0.38036004 -0.26010293
0001f0 3f 73 e7 3e 54 34 eb bd b6 45 2f 3d 30 a2 c8 3e
       0.45205113 -0.1148459 0.04279109 0.3918624
000200 44 a1 ac be e9 4f b4 bc 32 e8 d3 be ae 52 1e bd
       -0.33716786 -0.02201076 -0.41388088 -0.03865307
000210 6d 5e 86 3e 73 3c 2e 3d a4 83 bc 3e b1 06 19 bf
       0.26243916 0.042538118 0.36819184 -0.59775835
000220 2a b8 ab bc e6 6e ee be b7 4d 88 be 63 a9 17 3f
       -0.02096184 -0.46568984 -0.26621792 0.5924284
000230 2f b4 df 3d 9e 04 a9 be 99 8d b2 bd bd 75 1c 3f
       0.10923039 -0.33011335 -0.08718414 0.61117154
000240 83 3d c5 be 0f 60 87 3e d8 68 bc be 33 8e b8 3d
       -0.38523492 0.26440474 -0.3679874 0.09011497
000250 3e 88 f7 3d 2e 2b a5 be 90 37 f3 bd a4 0d 89 3d
       0.12086533 -0.32259506 -0.11875832 0.06692055
000260 99 e6 97 3d ba bc 31 be b3 cb 82 be b3 f0 67 3e
       0.0741703 -0.1735715 -0.25546035 0.22650413
000270 e4 72 90 3e 6b e5 22 be 6f 21 21 be 59 03 58 3e
       0.28212655 -0.15907829 -0.1573541 0.21095027

bias f4 [4]
000000 6e e8 9f be 23 5f ae be b6 61 f3 be 5b e7 22 3f
       -0.31232017 -0.3405696 -0.47535485 0.6363427

weight f4 [60, 2]
000000 5b 7d 39 3f e5 03 ac bd fc d7 91 3f 19 c3 00 3f
       0.724569 -0.0839918 1.1394038 0.50297695
000010 e0 e2 3d 3e 27 20 38 bf bd 8b 52 3c d2 34 5f bc
       0.18543577 -0.7192406 0.012850699 -0.013623433
000020 d2 a8 eb be 50 5b da be 3c 40 6c be 48 76 1c be
       -0.46027237 -0.4264779 -0.23071378 -0.15279496
000030 31 04 e9 3e 05 b9 bb bd 7d 1e fc 3d dd a8 ba 3f
       0.4551101 -0.09166149 0.12310503 1.4582783
000040 b6 02 8c 3f 47 7b 07 40 f5 bd d0 3f 28 9a 37 bd
       1.0938327 2.1168993 1.630797 -0.04482475
000050 1d de 37 3f 90 a7 84 40 1f 12 37 bf 6d b9 90 bf
       0.7182329 4.1454544 -0.71512026 -1.1306587
000060 78 a7 12 bf 09 11 9e bf 29 e5 bd 3f 58 93 6c 3f
       -0.5728679 -1.2348949 1.4835559 0.9241233
000070 ee dc 02 3f f2 a1 5c 40 63 ff 40 40 5e 62 43 3f
       0.5111836 3.4473844 3.0155876 0.7632197
000080 72 29 8b 3f e5 93 a3 3e 6f 95 01 bf 9c 95 5e bf
       1.0872023 0.31948772 -0.5061864 -0.86947036
000090 67 22 e1 3f 55 7e 70 3f e0 f5 95 3d 56 5b 66 be
       1.7588624 0.9394277 0.073222876 -0.2249578
0000a0 4e be 89 3e 4a 29 93 3e 14 f2 11 3f e8 f7 2d bf
       0.26903003 0.2874244 0.57010007 -0.679564
0000b0 b6 eb 91 bf 01 82 86 bf 2b 69 e6 bf 74 e6 d0 bd
       -1.1400058 -1.0508424 -1.8000845 -0.102002054
0000c0 9f 78 43 be 6a fb 3b bf 3d ac 8b 3e c1 43 bc 3f
       -0.19088982 -0.734305 0.27279845 1.4708177
0000d0 8c a7 50 bf f1 31 c1 be 04 15 4f 3e dc 41 24 bf
       -0.81505656 -0.37733415 0.2022286 -0.64162993
0000e0 e0 08 63 bd 26 05 56 be db 3c 2b bf 42 dc 45 bf
       -0.055428386 -0.20900401 -0.66889733 -0.7728921
0000f0 1d 29 76 bd 2c ec b9 3e 6a 68 58 3d 99 d2 1f bf
       -0.060097802 0.36312997 0.052833952 -0.6243072
000100 0e a6 b6 3d bf b2 b7 be ef 15 30 be 74 e3 80 3e
       0.08918391 -0.3587856 -0.17195867 0.25173533
000110 d2 18 fa 3f 7f b4 8d 3e 38 aa 09 40 9d f9 3f bc
       1.9538825 0.2767677 2.1510143 -0.011717227
000120 49 1b a1 3e 66 23 9b 3f 32 d6 b4 3e 74 12 ad bd
       0.3146613 1.2120178 0.35319668 -0.08450785
000130 56 58 22 3f 44 3f 75 40 c0 ec 56 3d 3c cf 0a 3e
       0.6341604 3.8319864 0.052471876 0.13555616
000140 8f 2b 59 be ac 85 d4 3e f8 f2 b1 3f dc 93 ab 3f
       -0.21208023 0.41508234 1.3902273 1.3404498
000150 6a 7c 22 3f ec d3 82 40 d4 8e db bc 90 d4 8f 3e
       0.6347109 4.0883694 -0.026801504 0.2809186
000160 8c dd c4 bf db 40 2a bf be 93 31 3f 78 31 d8 be
       -1.5380111 -0.6650521 0.6936606 -0.42225242
000170 db e0 e7 3f d9 00 17 3f 9d 0a d2 be 26 17 ce 3e
       1.8115495 0.5898567 -0.41023722 0.40252036
000180 f8 05 aa 3f 5c 69 69 3f 3f 32 81 3f 10 ac f1 3e
       1.3283072 0.9117639 1.0093459 0.47201586
000190 ed e4 b1 be 48 b6 33 3e 98 1e a9 3f 2f 12 8a 3e
       -0.3474497 0.17550004 1.3212461 0.26966998
0001a0 14 5b c3 3f 72 de dd 3e fa 12 a8 3e 80 3c 1f bd
       1.526217 0.43333775 0.32826978 -0.038876057
0001b0 aa c4 70 be 00 7d e3 bd 80 59 3d bd 15 60 9a 3e
       -0.23512521 -0.11107826 -0.046227932 0.3015143
0001c0 80 7f 5f bc 90 f0 c8 3d 99 36 9d 3e 04 4b a1 3f
       -0.013641238 0.09811509 0.30705717 1.2601018
0001d0 7b df 8a 3f dc e0 4f 40 8f 44 11 40 03 c0 62 3f
       1.0849451 3.2480993 2.2698095 0.88574237

bias f4 [60]
000000 81 1a 87 3e 4c 53 03 3f 0b ec d4 3e a0 1a 47 be
       0.26387408 0.51298976 0.41586336 -0.1944375
000010 8d 87 fa be 90 4c f1 be 0a 67 21 bf 38 40 b4 3f
       -0.48931542 -0.47128725 -0.6304785 1.4082098
000020 2a 88 05 3f dd a9 bb 3e ee 39 8f 3e b3 f9 cf 3e
       0.52160895 0.36653033 0.27973884 0.40620193
000030 2d fe 75 3e 86 ab cd 3f 1e 13 7a be af c3 6a 3f
       0.24022742 1.606797 -0.24421355 0.9170484
000040 b1 3e d3 3f 59 e1 f5 3e c3 19 ef 3f 55 6a 97 be
       1.6503507 0.4802349 1.8679737 -0.29573312
000050 90 5b 54 bf a9 bf ea 3e 8e 01 35 3d 39 21 47 3f
       -0.82952213 0.4584935 0.044190936 0.7778507
000060 1b 2d 70 bf bd 4b 3c 3f ea df e4 be 2b 9e 21 3f
       -0.93818825 0.7355307 -0.44702083 0.6313197
000070 f4 e0 13 bf ea 5b c0 3e eb 7c f4 be 2e d6 3c bf
       -0.57765126 0.37570125 -0.47751555 -0.7376431
000080 c9 6a 56 3e d4 3f f6 be 86 92 7f 3f 0f 5b 98 3f
       0.20939173 -0.48095572 0.9983295 1.1902789
000090 2f 18 d1 bd e6 36 df be be 92 19 3e c7 e0 bc be
       -0.10209691 -0.43596572 0.14997384 -0.36890242
0000a0 ea 2a 40 bf 4a fb 7d bd cb 0e 82 3e 7f d6 17 bf
       -0.7506548 -0.062007226 0.2540191 -0.5931167
0000b0 5c 55 61 be 31 e1 0e 3f 87 68 4a 3f 55 89 4a bf
       -0.22005218 0.55812365 0.79065746 -0.791158
0000c0 94 21 8d 3e 11 e7 d6 3f c5 e6 0f bf 0e 5d 6f 3f
       0.2756468 1.6789266 -0.562115 0.93501365
0000d0 28 e6 f1 3e 32 03 e5 be 85 20 16 bf 13 44 47 3f
       0.47245908 -0.44729 -0.5864337 0.7783825
0000e0 9e 5d 2e bf c0 0b 60 3f fa 63 18 bc a8 84 89 3f
       -0.681116 0.8751793 -0.00930118 1.0743608

weight f4 [60, 60]
000000 59 42 ad bd d9 8e 83 3e e3 23 74 3e 63 1b 1a bd
       -0.084599204 0.25694922 0.23841815 -0.037623774
000010 28 c3 ca 3e 36 48 e8 bd 27 be 3c bf bb df 9e 3e
       0.39602017 -0.11341898 -0.7372765 0.31030068
000020 71 13 ff be ed cb b2 3d fa 0f 9d 3e 75 e4 23 3f
       -0.4981952 0.08730302 0.30676252 0.6402047
000030 25 07 03 3f 3f 40 0f 3f 46 ed be 3e 39 8a 3d be
       0.51182777 0.55957407 0.372904 -0.18509759
000040 3b 6f 3f 3f f6 29 2a 3f 94 78 b0 3e 90 c7 ea bb
       0.747791 0.6647028 0.34466994 -0.007164903
000050 18 dd fd b9 3b 10 18 3f 0b 29 51 3f ae 8d 35 3f
       -0.00048420648 0.59399766 0.8170325 0.7091931
000060 89 f9 95 be da d3 46 be c5 17 07 be 3b ae 3a 3e
       -0.29291943 -0.19416752 -0.13192661 0.18230526
000070 28 8f 0e bd 71 af 0f 3f 89 6d fc 3d d5 cc e6 3d
       -0.034804493 0.5612708 0.1232558 0.11269537
000080 d8 70 cc 3e d1 4a 8a be cc 0d f6 3e 5e 6c f4 be
       0.39929843 -0.27010205 0.480574 -0.47738928
000090 c0 a0 0c bf 72 73 47 bd dd 28 bb 3e 00 3e 25 3d
       -0.54932785 -0.04869408 0.36554614 0.04034233
0000a0 7d 6c 82 be f3 c7 06 bf 31 77 e0 3e f8 1f 05 be
       -0.25473395 -0.5264885 0.43840936 -0.13000476
0000b0 fc 43 3e 3f a1 a2 9f 3e 50 5a f5 3d 9d 06 00 bd
       0.74322486 0.31178764 0.11980116 -0.031256307
0000c0 8a 88 3a be c7 4a 4a 3f 9c 9e a4 bc 33 d3 2d 3c
       -0.18216148 0.7902035 -0.020095162 0.010609436
0000d0 43 f6 83 be 10 e9 1c 3c f8 6f cf 3d 42 65 f4 3e
       -0.2577382 0.009577051 0.10128778 0.47733504
0000e0 6b 87 9a bd 44 e1 04 bf 51 8d 06 3f 87 86 f4 3d
       -0.0754536 -0.5190623 0.5255938 0.119397216
0000f0 79 13 92 be 30 4b 1a bf 2b 55 28 bd 9d 5a d2 bd
       -0.2853048 -0.6027098 -0.041096848 -0.10271189
000100 53 10 95 be fc 36 bc bd 10 dc 64 3c 93 d5 ed be
       -0.29114017 -0.09190175 0.013968483 -0.46452007
000110 58 38 41 bf 79 e4 11 bf f5 de 67 bf cb 17 1a bf
       -0.754766 -0.56989247 -0.9057458 -0.60192555
000120 d9 b9 12 bf a3 26 ef be 90 a6 84 bf 1e 5d 59 bf
       -0.5731483 -0.46709165 -1.0363331 -0.8490771
000130 72 5d a6 be 1b bb b4 be b9 8e 1e bf dc 57 5d 3d
       -0.32493168 -0.35299 -0.6193653 0.054038867
000140 51 4f 17 be b9 5a 62 bf ea 60 0f bf 39 7c 3c bf
       -0.1477635 -0.8841968 -0.56007254 -0.7362705
000150 59 d6 74 3e e2 21 63 bf c6 2a 21 bf 5c 6a d0 be
       0.23909892 -0.88723576 -0.6295589 -0.40706146
000160 00 e1 d3 3a 3c 68 17 bf fb 6d 8f be 4e 97 08 3e
       0.0016165078 -0.59143424 -0.28013596 0.13338968
000170 69 fa 81 be db dc ab be 37 a4 af be 68 72 2f bf
       -0.2538636 -0.33566937 -0.34304973 -0.68533945
000180 af 98 9e bf 7a 0e 0b 3d 2d 28 73 bf 30 e8 d7 3c
       -1.2390345 0.033949353 -0.9498318 0.026355833
000190 4e ac b6 be dd bc be be f0 0d 89 bf d1 40 a6 be
       -0.35678333 -0.37253466 -1.0707378 -0.32471326
0001a0 19 7d be be 23 2e 0b bf 00 f7 3d be 60 70 5b 3c
       -0.37204817 -0.54367274 -0.18551254 0.0133934915
0001b0 9a 61 92 bf e9 97 0b bf 93 06 26 3e fb cb 0d 3d
       -1.1436036 -0.5452867 0.16213445 0.03461836
0001c0 59 07 53 bf 98 b4 d4 3d 80 3c 00 3b b8 2e 0a bf
       -0.82433087 0.10386008 0.001956731 -0.5397754
0001d0 4c f9 c9 bd 10 17 40 bf e9 46 94 bf 6e 32 1f bf
       -0.09862003 -0.7503519 -1.158414 -0.62186325
0001e0 17 ae a5 3e 85 48 52 3f 04 0e 0b 3f 2f 29 38 bd
       0.32359383 0.82141906 0.5431826 -0.04496115
0001f0 1e bc 97 3e de e5 cd 3d 57 f2 1a be 7e 99 ba 3e
       0.2963571 0.10053609 -0.15131508 0.3644523
000200 69 e2 3a bd f1 31 ad 3e 42 1d db 3e 58 3d 05 3e
       -0.045626078 0.33827165 0.4279576 0.13011682
000210 64 8b 54 3e 52 e8 d8 3e 01 7e 44 3e 59 b3 cf 3e
       0.20756298 0.42364746 0.19188692 0.4056652
000220 5e 59 fb 3e 2d a8 0b 3f 48 c2 c1 3e a6 32 e4 3d
       0.4909162 0.5455349 0.37843537 0.11142473
000230 7b 9c 79 be 7c b4 9f 3e af c4 10 bd b8 99 47 3e
       -0.24376099 0.31192386 -0.035343822 0.19492233
000240 8a 2c 23 3f 4c fb 77 be 60 98 b3 3e c7 fa c8 3e
       0.63739836 -0.24216956 0.3507719 0.39253828
000250 08 8a dc 3d 0e e3 92 3e 62 c4 9f be 13 77 6d bd
       0.10768515 0.28688854 -0.31204516 -0.057974886
000260 2f 7b d4 3e 4f 1d 5f be e2 70 8b 3e b8 c3 38 3e
       0.41500232 -0.21788524 0.2723456 0.18043411
000270 07 0e 52 3d 57 07 9e 38 be d4 b7 3e 8b 6a d6 bd
       0.05128291 7.535394e-05 0.35904497 -0.1046954
000280 1a c9 ec be 3f 65 b4 3f d7 fe a8 3e 2a fb 7b be
       -0.46247178 1.4093398 0.33006927 -0.2460753
000290 0f e6 1b 3f 82 3e f2 ba 35 95 42 3e a8 4b 9a bd
       0.60897917 -0.0018481764 0.1900223 -0.075339615
0002a0 dd df df be 51 75 87 3e c3 e8 30 3d a2 0c 19 3f
       -0.43725482 0.26456693 0.04319073 0.597849
0002b0 71 76 da 3e 42 5b f8 3d 8a f1 aa 3d 81 d1 9e 3e
       0.4266849 0.12126781 0.08346851 0.31019214
0002c0 e0 f3 4f 3d fc b4 f1 bd 01 e0 12 3e 96 16 1d bd
       0.050769687 -0.11802098 0.14343263 -0.038351618
0002d0 c9 28 9e be ae 71 0f bf 72 b7 08 3e ba 07 29 bd
       -0.30890492 -0.56032836 0.13351229 -0.041267134
0002e0 bb 96 3c be 98 ca 0b bd 2f 1d 01 bf 8a da c9 3e
       -0.18416874 -0.034128755 -0.50435156 0.39424545
0002f0 bb f7 bf bf a1 c7 10 bf 8a 60 c0 be 92 2d 8e be
       -1.4997476 -0.5655461 -0.37573653 -0.27769142
000300 9b 09 6b 3d c3 65 b7 be 8d 40 cc be 41 a4 d5 be
       0.057382207 -0.35819826 -0.39892998 -0.41726878
000310 5f 7b c6 be c0 74 b9 3d 6c 0e 19 bf 90 79 3d 3d
       -0.38766 0.090554714 -0.5978763 0.04625851
000320 f7 b0 db bd 6d bd 4b bf f0 a0 40 3d b3 45 2c 3f
       -0.10727113 -0.79585916 0.047028482 0.6729385
000330 98 82 ae 3d cd 87 27 3e 4f 9f d9 3e 85 2d 12 bd
       0.085210025 0.16360398 0.42504355 -0.035687942
000340 9c d0 0c 3d 99 cc 02 be 17 d8 81 be e8 1b 02 3e
       0.034378633 -0.1277336 -0.25360176 0.12705958
000350 f0 ec 3f be ca b5 db bd 3f 05 47 bf 68 36 47 be
       -0.18742728 -0.10728033 -0.7774238 -0.19454348
000360 9c 54 57 bf 26 2c 08 be 9e ad 12 bf 10 8d ee bb
       -0.8411348 -0.13298091 -0.5729617 -0.0072799996
000370 35 f3 fe be e1 d0 2f bf 77 32 8a be 3a d5 fe be
       -0.49794927 -0.686781 -0.26991627 -0.49772054
000380 36 79 17 be 0c 07 40 be da 69 2f bf aa e3 08 be
       -0.14792332 -0.18752688 -0.6852089 -0.13368097
000390 ff e3 2b bf dc a7 9b bd 4c 8b 26 bc ba 65 59 3e
       -0.6714477 -0.07600376 -0.010165047 0.21230212
0003a0 fe 1f 05 bf fe 81 8f bd fc 23 f9 bd f9 8f 7f be
       -0.5200194 -0.07007216 -0.121650666 -0.24957265
0003b0 14 76 b1 3d 83 2f cd 3d 3c f1 a0 be 18 6e 1a bf
       0.086651 0.10018828 -0.31434047 -0.6032424
0003c0 e0 57 d3 be ac 1e d4 be 11 4c d4 be c8 d3 5b be
       -0.4127798 -0.4142965 -0.41464284 -0.21467507
0003d0 4d a6 07 bf 0c a9 7d 3d 38 74 c6 3c f8 be 6f bf
       -0.5298813 0.061928794 0.02422534 -0.9365077
0003e0 e4 50 75 be f2 39 b7 be 0c 34 27 bf 17 04 0c bf
       -0.23956639 -0.35786396 -0.6531379 -0.5469374
0003f0 74 2a 0e bf 08 aa 06 bf c0 33 43 bf cb 96 d3 bd
       -0.5553353 -0.526032 -0.7625084 -0.10331496

bias f4 [60]
000000 a1 7b cc 3e 12 72 ce be 8f d7 d9 3e 02 99 88 be
       0.3993807 -0.40321404 0.4254727 -0.26679236
000010 5c d0 25 bf 5f 98 b1 be ff 3d b0 bf 6c d7 03 bf
       -0.64771056 -0.34686562 -1.376892 -0.5150058
000020 ca f3 2a 3f 9b 06 1b bf ee 61 33 bf 45 48 7d bd
       0.6677824 -0.60556954 -0.70071304 -0.0618365
000030 3b 18 10 3f 63 62 86 bf 8a 53 ca 3f c1 02 9b 3e
       0.5628697 -1.0498775 1.5806744 0.3027554
000040 6d 14 28 bf aa 4a 57 be 6b ae fd be 71 aa 70 3e
       -0.6565617 -0.21024576 -0.49547133 0.23502518
000050 26 06 5a 3f c1 cd 91 be 31 3a 3e bf 13 e4 f5 3e
       0.8516563 -0.2847729 -0.74307543 0.4802557
000060 2d 2a b8 be 3f 4c 86 bf ec fc 02 bf b9 2e 91 3e
       -0.35969678 -1.0492018 -0.5116718 0.2835596
000070 1e 75 2a 3f 82 0e d6 be ca 29 26 3f d2 8a 28 3f
       0.66584957 -0.41807944 0.64907515 0.65836823
000080 5c 90 1b bf 82 e5 20 bf eb 0e f5 be c5 f7 fd be
       -0.6076715 -0.628502 -0.47862944 -0.49603096
000090 ba 32 19 bf f3 34 f9 bd 3d f4 e5 be 81 48 c8 bc
       -0.5984303 -0.121683024 -0.44912902 -0.024448635
0000a0 bb 08 26 bf 62 31 aa be 58 e0 ad 3e 6f 4f e3 bc
       -0.6485707 -0.332408 0.33960223 -0.027747838
0000b0 72 7c 9b be 58 c1 48 bf dc 19 0c 3f f0 ff 55 3f
       -0.30368382 -0.7842002 0.5472696 0.83593655
0000c0 f4 10 e7 be e6 78 25 bf b5 91 9e be 75 b6 ea 3e
       -0.45130122 -0.646376 -0.3097054 0.4584233
0000d0 66 3c 5e 3e 39 09 08 3f 5f 85 16 bf 74 7c 02 3f
       0.21702728 0.5313907 -0.5879726 0.5097115
0000e0 60 e0 14 3f 20 44 43 bf 3a 6a c2 be 8b 6c 34 3f
       0.5815487 -0.76275826 -0.3797167 0.70478123

weight f4 [60, 60]
000000 6b 82 8d be 1b 03 0e be ed 12 f2 3d 00 d0 f9 bd
       -0.27638564 -0.13868372 0.11820016 -0.12197876
000010 02 1a 07 bf 35 81 ce bc 30 44 aa be 7a 27 89 be
       -0.5277406 -0.025208095 -0.33255148 -0.2678793
000020 59 cd be 3e 02 5c e9 be 85 77 04 bf 17 67 02 be
       0.37266043 -0.4557801 -0.5174487 -0.12734638
000030 c1 12 06 3f 82 ec bd be 19 7d 6a 3e 31 f8 2d bc
       0.52372366 -0.37094504 0.22899283 -0.0106182555
000040 f0 82 90 be 74 2e 2d 3e 08 e6 07 bf 25 ba ed 3e
       -0.28224897 0.16912252 -0.53085375 0.4643108
000050 f6 c8 f3 3e 31 47 c0 be 25 a1 df be 8b b4 1d 3f
       0.4761426 -0.37554315 -0.4367763 0.6160361
000060 39 82 81 be a6 8f de bc af 30 45 bc 74 1a 4d be
       -0.25294665 -0.027168106 -0.012035533 -0.20029622
000070 c0 1d 01 3e 46 80 fc be c1 c0 88 3e 4c 6a dc 3e
       0.12609005 -0.49316615 0.2670956 0.43049848
000080 e5 a9 07 bf 48 30 c1 be 3b 53 19 bf a6 01 01 be
       -0.52993613 -0.37732148 -0.59892625 -0.12598285
000090 61 db d1 be 7c 7a 67 3e 56 18 d2 be e2 8e c7 3e
       -0.40987685 0.22605318 -0.41034192 0.38976198
0000a0 7a 6b 2c be 4c 3c e3 be e5 14 83 3e 11 cf 10 3d
       -0.16837874 -0.4438194 0.2560188 0.035353724
0000b0 04 ed 8e 3e 1a 35 0e bf 82 c2 00 3f 98 7a e6 3e
       0.27915204 -0.55549777 0.50296795 0.45015407
0000c0 da f6 69 be 89 54 4a 3d 1e 7e 5b be 6c 55 c2 3e
       -0.22848073 0.049397025 -0.21434829 0.37955797
0000d0 43 b8 23 3d ea 65 ea 3e 62 c8 e2 be 74 62 85 3e
       0.039970648 0.4578088 -0.44293505 0.26051676
0000e0 50 d6 45 be c2 7f d1 be 69 b3 a1 be 21 3f 80 3e
       -0.19320035 -0.40917784 -0.31582192 0.25048164
0000f0 f7 81 02 3f 19 d6 30 3e 1d 1c 24 bd 29 f0 f5 3e
       0.5097956 0.17269172 -0.040065873 0.4803479
000100 2a e0 be 3e 30 ef 80 3e 97 97 da 3e 78 c9 89 3e
       0.372804 0.25182486 0.4269378 0.2691152
000110 d5 f3 be be b2 40 ac 3e 2e e5 ca 3e b4 98 b0 3e
       -0.37295404 0.3364311 0.39627975 0.34491503
000120 5e 54 ff be 54 de 9d 3e 34 80 33 bf 34 e9 83 be
       -0.49869055 0.30833685 -0.701175 -0.25763857
000130 38 c2 a2 3e ea a1 97 3e d4 ff d1 3e 70 9e cf be
       0.31788802 0.29615718 0.41015494 -0.40550566
000140 11 34 1d be 19 68 ea be 2d 8d 25 3e fd 3f 1e be
       -0.15351893 -0.45782545 0.16167136 -0.15454097
000150 33 0f 0b 3f a5 60 dd 3f ca 02 9f 3e 7f 5b 96 3e
       0.5432007 1.7295119 0.31056815 0.2936668
000160 5e 06 ea 3e 79 87 10 3f 68 79 bf 3e 47 d0 ba be
       0.45707983 0.56456715 0.37397313 -0.36487028
000170 cd 9d f9 3e b8 de 02 3f 19 a5 27 3f d8 d9 0e bf
       0.48753205 0.5112109 0.65486294 -0.55801153
000180 b8 68 e5 3e f3 2e e7 3e fe ad 99 3e 87 93 ce 3d
       0.44806457 0.45153007 0.30015558 0.10086732
000190 40 2e 23 3f b2 b1 b6 3e 6b 1f 41 be 7c 24 5f be
       0.63742447 0.35682446 -0.18859641 -0.21791261
0001a0 09 85 14 3e 04 e7 03 3f d7 2d 5f be d7 17 be be
       0.14503874 0.51524377 -0.2179483 -0.37127563
0001b0 06 ee 1f 3f 14 bd b3 be 93 a9 18 3f 65 f9 a5 be
       0.6247257 -0.35105193 0.5963375 -0.32416835
0001c0 79 9c 33 be c9 db 3c bf bf ff ea 3e 4f d1 3b bf
       -0.17540158 -0.73772866 0.45898244 -0.73366255
0001d0 a7 65 e9 3e 8d e5 ff 3e 8d 0e 88 bd 35 95 87 be
       0.45585367 0.4997982 -0.066434 -0.26481023
0001e0 7f 2d b8 be c3 e7 d5 3d 51 03 59 bf 76 3e 07 3f
       -0.3597221 0.10444596 -0.84770685 0.5282968
0001f0 06 89 00 3e 61 0e 1a 3e a9 19 68 3f 26 d6 b2 bc
       0.1255227 0.15044548 0.90664154 -0.02183063
000200 e2 fb d7 bd 2b b2 5e 3f 65 9a be bc ad d9 1e 3e
       -0.1054609 0.8699061 -0.02326698 0.15512724
000210 c5 2e a8 be 5f 32 1c 3b b3 e7 52 bf 47 64 9d bd
       -0.32848182 0.0023833734 -0.82384795 -0.07685142
000220 7d 16 90 3e aa 4d 3b be 20 ee 3f 3d c0 a9 50 bf
       0.28142157 -0.18291345 0.046857953 -0.8150902
000230 6a 99 52 3d 76 b6 74 3d 6c aa 2a 3e cd 3e e5 3b
       0.05141584 0.05974432 0.16666573 0.006996012
000240 d1 27 16 3f 3f af 5d 3f 35 63 3e 3e c0 e9 f9 3b
       0.58654505 0.8659553 0.18592532 0.007626742
000250 ba a9 a8 be bb f0 ee 3d 1e 8d 31 3e 54 42 6b bd
       -0.3294199 0.116670094 0.17338988 -0.057436302
000260 f9 08 34 bd 89 84 de bd cf a5 c8 3d a5 e6 2c be
       -0.04395387 -0.10865123 0.097972505 -0.16884859
000270 f4 9c 0a 3c bf 34 ac 3e dd ee 86 3e 92 c6 06 bf
       0.008460272 0.33633992 0.26354113 -0.52646744
000280 c7 44 04 3f ca fe 4d 3f 7c 8c 0b be f2 e2 52 bd
       0.51667446 0.804669 -0.1362781 -0.051485963
000290 5b dd f2 3e 13 14 4d be ad 8e 9c bd 94 f4 10 3c
       0.47434506 -0.20027189 -0.07644401 0.0088473745
0002a0 a4 66 fb 3e 89 d2 ab be 37 98 81 3f 58 4d c7 bd
       0.49101746 -0.33559063 1.0124577 -0.09731549
0002b0 1b 16 2b bf ea 54 85 be 02 89 51 3c 15 e3 6d bf
       -0.66830605 -0.26041347 0.012789013 -0.92924625
0002c0 66 42 8d 3d c2 50 94 be 81 f3 40 3f 94 37 a7 bd
       0.0689743 -0.28967863 0.7537156 -0.081648976
0002d0 61 40 a7 be 57 43 4b 3e 2f eb bb 3e 50 01 8f 3e
       -0.32666305 0.19849907 0.36702868 0.2793069
0002e0 24 2d e3 3e 59 ed 3c 3e bc a1 78 be 2d 63 c0 3e
       0.44370377 0.18449916 -0.24280447 0.37575665
0002f0 e2 ec 8f be 56 f8 04 bd c4 5c c1 3e 1b 0d 4d bf
       -0.28110415 -0.032463394 0.37766087 -0.8009812
000300 21 52 9c bd 8e ba d6 3e b2 76 5f 3e 35 6f bd be
       -0.07632852 0.41939205 0.21822622 -0.36998907
000310 a7 af a5 3e bd a7 ae 3e 56 e5 26 3e c8 ce ac be
       0.32360575 0.3411235 0.16298422 -0.33751512
000320 78 cc 6d be 91 82 87 3e 7a 09 d1 3e 06 16 24 bf
       -0.2322253 0.26466802 0.40827543 -0.64096105
000330 7b 40 1c 3e b2 fb 21 bf 25 6b e7 3e f3 c2 8d 3e
       0.15258972 -0.6327468 0.45198932 0.27687797
000340 60 c8 43 be d7 86 60 3e 1e c6 08 bf e6 2f 89 be
       -0.19119406 0.21926437 -0.534273 -0.26794356
000350 03 0b 3c 3f f7 67 5c 3f cd 54 2f bf 0e 22 67 be
       0.734543 0.8609614 -0.6848877 -0.22571585
000360 28 a6 a6 3e b4 8c ab be d7 05 cb 3e 6c 0b d0 bd
       0.32548642 -0.33505785 0.39652893 -0.101584285
000370 2e 41 87 3e 94 91 68 3e 84 af 63 be 14 a0 bb 3e
       0.26416916 0.22711784 -0.22234923 0.36645567
000380 cb 21 8e be cb 20 4d 3f cf 4b d9 be 60 c3 b6 be
       -0.27760157 0.80128163 -0.4244065 -0.35695934
000390 5f 3b a8 3b b2 9d 76 3f b2 b0 58 bf f6 1a c6 be
       0.0051340307 0.96334374 -0.84644616 -0.38692445
0003a0 76 1e 96 3e ba a1 6f be 5c 73 90 3e 28 03 6d 3e
       0.29320115 -0.23401538 0.28213012 0.23145735
0003b0 1c 42 68 be 9a 12 1a 3f 6b 1b c1 be b2 3d a0 be
       -0.22681469 0.60184634 -0.3771623 -0.3129707
0003c0 1a cf 9d 3e 74 26 3b be 17 58 c9 bd 41 f6 e3 3e
       0.30822068 -0.18276387 -0.09831255 0.44523814
0003d0 b4 ac 05 3f a2 1b b0 bd d8 78 50 3e 5f c1 d0 3e
       0.5221665 -0.085990205 0.20358598 0.4077253
0003e0 8b d1 02 bf e1 46 04 3f 2b 2b de 3e 1e b5 f4 3d
       -0.5110099 0.5167065 0.4339231 0.11948608
0003f0 70 f4 b5 be e5 d1 11 3f d1 e9 5d be fd 4e 5b 3e
       -0.35538054 0.569609 -0.21671225 0.2141685

bias f4 [60]
000000 85 be fa 3e 96 82 d5 be 7d d3 23 be 14 f1 2e be
       0.4897348 -0.41701192 -0.15998645 -0.17084152
000010 cc 9f 0d bf 7d ef 80 be a7 7f d5 3e 23 3f 0f 3f
       -0.55321956 -0.25182715 0.41698954 0.55955714
000020 59 f9 f5 be ec 53 ca 3e c2 9d cd 3e ca be bd 3e
       -0.480418 0.39517152 0.40159422 0.37059623
000030 5f 0c 94 bd 1d 8e cb 3e 08 e4 c0 be f5 f1 0b bf
       -0.07228922 0.3975686 -0.37673974 -0.5466607
000040 de 60 9c 3e a0 2b 80 bd a6 90 2d 3f 1d d3 1f 3f
       0.30542654 -0.06258321 0.6779884 0.6243151
000050 6c cc 47 3e 73 6f c6 be e8 f6 b4 be ac 58 e0 3e
       0.19511575 -0.38756904 -0.35344625 0.4381765
000060 4b ff f3 be e5 c8 1b 3f 44 d9 8f 3e b8 06 bb be
       -0.4765571 0.60853416 0.28095448 -0.36528563
000070 b4 9e e9 3e 5d 01 9a 3e 81 68 1f bf fa da be be
       0.45628893 0.30079165 -0.62268835 -0.3727644
000080 bb dd b4 3d 5b 90 b6 be 23 2c 1f 3f 1e d3 71 bd
       0.08831354 -0.3565701 0.6217672 -0.059039228
000090 4f 94 0c 3e 6e 83 63 be 70 85 0d 3f ae 0e e3 3e
       0.1372845 -0.22218105 0.55281734 0.44347137
0000a0 32 af b6 3e 91 ae cc 3e 76 f8 cb 3e a1 9b 5e be
       0.35680538 0.39976934 0.39837998 -0.21739055
0000b0 31 28 22 3f 48 21 fe bd bc 32 87 be 60 90 74 be
       0.6334258 -0.12408692 -0.26405895 -0.238832
0000c0 c0 de 14 bf 67 3a f5 3e 7f 25 af 3e 66 e9 b8 be
       -0.5815239 0.4789612 0.34208295 -0.3611557
0000d0 20 71 05 3f f9 4b c3 be ae 35 b8 be d6 c3 fb 3e
       0.5212574 -0.381439 -0.35978454 0.49172848
0000e0 e0 48 3a be a3 c7 db 3e 4c 93 a0 be 46 41 5d be
       -0.18191862 0.42925748 -0.3136238 -0.21606931

weight f4 [60, 60]
000000 db 40 d2 be 57 1e ee be 18 92 6e be 6e f0 2f 3e
       -0.41065106 -0.46507522 -0.23297918 0.1718156
000010 d6 55 01 3f a0 a9 4b 3e 17 33 43 be 80 14 9c be
       0.505216 0.19888926 -0.19062458 -0.3048439
000020 76 47 f0 3e 28 33 d3 be c4 0d 7b be 09 89 72 bd
       0.4692952 -0.41249967 -0.2451697 -0.05921272
000030 3b d1 17 3f 7a 04 c1 be 8a 47 f3 be 49 06 e9 3e
       0.59303635 -0.37698728 -0.47515517 0.45512608
000040 cf cd 3a 3d 47 4c e1 be 6c 30 c8 be 8c 53 9b be
       0.04560643 -0.44003507 -0.39099443 -0.3033718
000050 d1 cd 51 be 04 e5 20 3f 86 1c 97 3e ab 9a d3 be
       -0.20488669 0.6284945 0.2951395 -0.4132894
000060 ed 8e ec 3e 78 1f b0 be 72 1d 52 be 9e 43 d6 3e
       0.46202794 -0.3439901 -0.20519045 0.41848463
000070 1a ff 01 bf 90 a2 0a be e8 6c 7b 3e 97 93 d6 3e
       -0.5077988 -0.13538575 0.24553263 0.41909477
000080 27 b6 f2 3d af b3 1e 3e 78 6a 00 bf b2 5e 90 be
       0.11851149 0.15498231 -0.5016246 -0.28197247
000090 2a 76 ae be db 55 81 be 4d b5 11 bf 4d 83 ac be
       -0.34074527 -0.25260815 -0.5691727 -0.33693925
0000a0 7b 80 a6 be 8b a2 66 be ec 16 88 be e9 5c ef 3e
       -0.32519898 -0.22522943 -0.26579988 0.46750572
0000b0 a6 7d a3 be 83 3e f1 be 67 00 b1 be 59 de d6 3e
       -0.319318 -0.47118005 -0.3457062 0.41966513
0000c0 37 bb 70 3e c3 67 84 be d1 f1 99 be 40 d1 99 3e
       0.23508917 -0.25860414 -0.30067304 0.30042458
0000d0 4f b4 ae be 0f d2 ff 3e cf ba 8d 3d 2f 3a dd be
       -0.3412194 0.4996495 0.069203965 -0.43208453
0000e0 73 b8 6c 3e fe 2b 89 be 38 47 b2 3e d8 7b 55 3e
       0.23117237 -0.26791376 0.3481996 0.20848024
0000f0 82 bb b5 be 8b a0 18 3e 7c 99 a6 bf a8 ad 21 3f
       -0.3549462 0.14904992 -1.301559 0.63155603
000100 19 69 d2 3e b5 b5 e6 3e f4 09 a4 be 8d 97 e8 be
       0.41095808 0.45060506 -0.32038844 -0.45428124
000110 64 ba 3d be fd d2 e9 be 6c f5 bf be ab db 8f be
       -0.18528134 -0.45668784 -0.3749193 -0.2809728
000120 07 e4 df be d9 31 c5 be 6c b9 91 3e 96 4b fa 3e
       -0.4372866 -0.38514593 0.28461778 0.48885792
000130 91 ba bf be 50 a0 55 3e 57 13 28 be bb a0 f0 be
       -0.37447026 0.20861936 -0.16413628 -0.46997628
000140 4b 23 71 be 22 d6 16 3f 1a c6 75 3e a3 a2 77 3e
       -0.2354862 0.5892049 0.24001351 0.24183135
000150 c7 85 b5 3e 95 e9 01 bf c3 07 53 be a9 b7 15 3f
       0.35453627 -0.5074704 -0.2060843 0.5848337
000160 46 af f2 be 90 fd 1a 3e 21 69 0a 3f b2 36 a5 3e
       -0.47399348 0.15135789 0.54066664 0.32268292
000170 bf 8b 95 3e 4e a5 67 3e f5 3a e5 be 06 77 ce be
       0.2920818 0.22621652 -0.44771543 -0.40325183
000180 c9 4c bb be e4 1c 7a 3e 3a ae e9 be 42 50 a9 be
       -0.3658202 0.24425083 -0.45640737 -0.33069044
000190 37 11 b0 be a1 5e 0f bf 80 96 25 bf fc 6e cf 3e
       -0.34388134 -0.5600377 -0.6468277 0.40514362
0001a0 c3 2b a5 be 83 7e 2b 3e d2 7b f1 3d 2d 95 5f be
       -0.3225995 0.16747479 0.11791195 -0.2183425
0001b0 34 1c 13 3f 24 45 fe bc 94 7f e0 be a5 dc ae bd
       0.5746491 -0.031038828 -0.43847334 -0.08538178
0001c0 2c 13 03 bf 21 ac c6 3e 67 c9 44 3f 76 57 c3 be
       -0.5120113 0.388032 0.76869816 -0.38152665
0001d0 03 0b ad 3e 42 b6 e1 be 25 59 91 be 1e 4f bb 3e
       0.33797464 -0.44084364 -0.28388324 0.365838
0001e0 38 20 34 3f 5a 02 eb bd be 8b 26 3f aa a8 ae be
       0.7036166 -0.11475058 0.6505698 -0.34113055
0001f0 07 a4 e1 be b4 b0 4f 3e 84 c5 02 3f 3d a6 01 3f
       -0.44070455 0.2028225 0.51082635 0.50644284
000200 06 dc dc 3d c9 67 2f 3f 0b 0f d0 3e 90 8d df 3e
       0.10784154 0.6851774 0.40636477 0.4366269
000210 46 4e a1 3e 34 9d e3 3e a2 cf 9f bd cb 23 ea be
       0.3150503 0.44455874 -0.07803275 -0.45730433
000220 46 28 ed 3e b3 8a 75 3e 20 49 64 3d 37 d3 4b 3e
       0.4631979 0.23978691 0.0557338 0.19904791
000230 e8 d2 b1 3e c8 3c 64 bf aa 23 2f bf 5d 7c 82 bd
       0.3473122 -0.89155245 -0.68413794 -0.06371377
000240 b9 f7 e4 be 2c 85 2d 3f a4 5d cc 3d 5c 8c e3 be
       -0.44720247 0.6778133 0.09978798 -0.44443023
000250 70 1c 36 3f d7 fd 57 be 43 51 c0 be a5 74 f0 be
       0.7113714 -0.21092926 -0.37561998 -0.46963993
000260 a9 e1 ce be d5 03 93 be 73 32 1d 3f 25 bd 6e 3e
       -0.4040654 -0.2871386 0.61405104 0.2331434
000270 d0 26 eb 3e 30 b6 de be 90 07 f4 3e c8 b8 00 3f
       0.4592805 -0.43498373 0.4766202 0.50281954
000280 f8 be a5 3e d5 d3 cc 3e 3a 06 0b 3f aa d6 f5 be
       0.3237226 0.40005365 0.54306376 -0.48015338
000290 75 d6 07 3f 13 5d 13 be 3d da ae bd db b9 ca 3d
       0.5306161 -0.14390974 -0.085377194 0.0989873
0002a0 e8 b8 f3 be a2 38 26 bb 2e 7d fb 3e f2 ed 80 3e
       -0.4760201 -0.0025363346 0.49118942 0.25181538
0002b0 4b d7 2a 3f 79 cc e7 be 89 25 94 be 58 7a 15 3f
       0.6673476 -0.45273188 -0.28934887 0.58389807
0002c0 0f e0 8c be 7f 8f fb 3e 63 fb e8 bb 2a 4e b6 be
       -0.27514693 0.49132916 -0.0071100458 -0.3560651
0002d0 b3 fa 03 bf a7 10 1d 3e fe 14 94 be e0 5d 90 3e
       -0.5155441 0.15338384 -0.28922266 0.2819662
0002e0 be af 04 3f d5 c4 91 bd 96 af ff be dc a5 ce be
       0.5183066 -0.07117621 -0.4993865 -0.40360916
0002f0 dd 4e dc 3e f2 d3 b4 be 42 7d a2 be 10 5f 04 bf
       0.43028918 -0.3531795 -0.3173619 -0.51707554
000300 35 15 24 bf ae 24 0e bf 42 a2 0b bf 8a a9 0c 3f
       -0.6409486 -0.5552472 -0.5454446 0.54946196
000310 b1 3c ad be b1 da 19 be a3 b8 60 be 9f 72 d2 bd
       -0.33835366 -0.1502483 -0.21945433 -0.102757685
000320 ea 4d 02 be b6 ae 05 3f 3f 00 02 3f 7d 5c cb be
       -0.12725034 0.5221971 0.50781626 -0.39719
000330 d7 11 e0 3e b5 19 1c bf 29 1d 12 be bf 69 ec 3e
       0.4376361 -0.60976726 -0.14268936 0.46174428
000340 72 1e c2 be e1 16 0b bf 7c fa 16 3f 97 7d 00 3f
       -0.37913853 -0.54331785 0.5897596 0.50191635
000350 28 09 9c 3e 6f e0 7f 3e 4e ff ff be 42 36 e0 be
       0.30475736 0.24987958 -0.4999947 -0.43791395
000360 1f e1 0b bf 1b 3a 51 3b 80 d1 b4 be b6 c3 a4 be
       -0.5464038 0.0031925503 -0.35316086 -0.32180566
000370 76 a9 92 be 7c 32 09 bf ea 9c e3 be 3e eb f9 3e
       -0.28644913 -0.5359266 -0.44455653 0.48812288
000380 db 99 09 bf 60 e6 19 bf 7b 65 73 3d 84 37 e2 3e
       -0.5375039 -0.6011715 0.05942295 0.4418298
000390 34 de c9 3e 13 bd 25 be 6a 35 ea be 57 d1 af 3e
       0.3942734 -0.16185407 -0.45743877 0.343394
0003a0 de 95 14 bf ca 79 fc 3e 97 ae 5f 3e 66 11 ef be
       -0.5804118 0.49311668 0.21843944 -0.4669296
0003b0 42 0a 03 3f cc 8f 51 be 2c f5 a7 3e a7 e5 90 3e
       0.5118753 -0.2046501 0.3280424 0.2830021
0003c0 63 f1 02 3f 4f 7e 81 3d 78 e3 d1 3e ee 9a a0 be
       0.51149577 0.063229196 0.40993857 -0.31368202
0003d0 35 e9 33 bf 71 23 06 3e 1f 3e 26 3f a8 7c 29 3f
       -0.7027772 0.13099457 0.6493854 0.66205835
0003e0 c6 2d d2 bd 92 cd 11 3f e7 f8 13 3f 8a aa cc 3e
       -0.10262637 0.569543 0.5780167 0.3997386
0003f0 0d 15 47 3f c4 94 11 3f 9f 1e 13 3d c1 71 35 bf
       0.77766496 0.56867623 0.035917874 -0.708767

bias f4 [60]
000000 93 2f cf be 7c 03 92 be 7b 4b 1c 3f 51 29 07 bf
       -0.40465984 -0.28518283 0.61052674 -0.5279742
000010 c5 26 f7 3e c8 08 a4 be b5 5b 20 bf c8 ad 8e 3e
       0.48271766 -0.3203795 -0.62639934 0.2786696
000020 8c f8 31 3f 62 a3 e6 be 5f bd e5 3e 03 b0 d2 3e
       0.6951988 -0.45046526 0.4487104 0.4114991
000030 4f c7 49 3e 11 c6 78 be ae 0c ce 3e ff 5b 7c be
       0.19704936 -0.24294306 0.4024405 -0.24644469
000040 0e 2d 25 3e 33 dd a9 be de 06 97 be 75 6a 46 3f
       0.16130468 -0.33176574 -0.29497427 0.7750619
000050 6d 0d db 3e 05 86 54 3e 93 8e 8a 3e 1b c9 e9 3e
       0.4278368 0.2075425 0.270619 0.45661244
000060 8c 3b 06 3f c6 90 ea be 7a 39 40 bf 1e 99 94 3e
       0.5243461 -0.45813578 -0.750877 0.2902307
000070 9a 32 f5 3e 3d 7c 16 3f a8 00 ce 3e cf 5c b9 3e
       0.47890168 0.5878332 0.40234876 0.3620362
000080 e0 77 1d 3f 93 d0 fc be 19 47 1d bf d1 4a 3f 3e
       0.6151104 -0.4937788 -0.6143661 0.18680884
000090 f2 2c f8 be 27 3f 23 3f a2 6c 11 3f 83 cc 06 3f
       -0.4847179 0.6376824 0.56806386 0.5265581
0000a0 a4 99 e8 be 60 f0 2f 3f f1 04 f8 3e 2a de 37 be
       -0.45429718 0.6872616 0.4844127 -0.17955843
0000b0 a0 5d 28 3f 49 13 37 3f 5d 04 eb be e2 16 d8 be
       0.6576786 0.715138 -0.45901766 -0.42204958
0000c0 d3 00 9a be 14 f7 ad be 6e be 3f 3e 7f dd 7d 3e
       -0.30078754 -0.33977568 0.18724987 0.24791525
0000d0 9e 7b 00 3f 68 25 b2 3e c6 47 0c 3f 61 97 ab 3e
       0.50188625 0.34794164 0.5479702 0.3351393
0000e0 9a 4e 2f bf ca d4 81 be da b3 e3 3e 72 80 a2 3e
       -0.6847931 -0.25357658 0.44473153 0.3173862

weight f4 [1, 60]
000000 d1 1c b2 3d 35 7f 8c be a2 d1 13 bd 1a 9f 16 be
       0.086969025 -0.274408 -0.036088593 -0.1470913
000010 e0 a4 4f 3c 53 51 b3 be d6 ea 61 bd 7c 65 ca 3e
       0.012673587 -0.35022983 -0.055155598 0.3953055
000020 41 f0 1f 3e 12 3a 0e bb 59 c6 0b 3e 47 62 0d 3e
       0.15618993 -0.0021702093 0.13649882 0.13807021
000030 5e 9e d1 3e 95 9c f4 be 86 e7 13 3e 05 da 5d be
       0.40941137 -0.47775713 0.14443788 -0.21665199
000040 ea 0e 45 3f 92 c8 fb bd 84 56 af 3c ef 9e 67 3d
       0.7697588 -0.12294115 0.021403559 0.056548055
000050 ab c7 37 3e bc c5 f9 3e a3 a4 b7 3e 3d a4 4f 3e
       0.17947261 0.48783672 0.35867795 0.20277496
000060 f9 d1 76 3e a9 51 f1 3d 88 7d 8f bc 3e 43 40 3f
       0.24103536 0.117831536 -0.017515913 0.75102603
000070 f4 06 f8 bc f6 41 89 3e 9a de 91 3e e6 2f b7 bc
       -0.030276753 0.26808137 0.28490144 -0.022361707
000080 6a 37 ce bb fc 8b 9a be 1a a5 d4 bb d6 7e 98 3e
       -0.006293227 -0.30184925 -0.006489408 0.29784268
000090 30 e0 23 3d ae 28 f3 3d a2 bf 5b 3e 8c 70 33 3d
       0.040008724 0.118729934 0.21459821 0.043808505
0000a0 5e a9 53 bd bd 08 8c 3e 88 c8 af 3e eb 14 00 bf
       -0.051675193 0.27350417 0.3433268 -0.5003192
0000b0 84 b5 9d bd 8d 6e 00 bd 35 ad 49 3d f3 c5 07 3e
       -0.07700637 -0.03135543 0.04923745 0.13259105
0000c0 51 6a a9 bd 74 64 15 bd 1c 35 8d 3e 3e 75 df 3e
       -0.08272231 -0.036472753 0.27579582 0.43644136
0000d0 84 fe cc 3c 30 f1 57 3e 79 52 08 3e 34 80 01 3f
       0.025023706 0.210881 0.13312711 0.5058625
0000e0 36 f8 b9 bd 95 2f 92 be 3f a1 a5 3e 4a ee 50 3e
       -0.090805456 -0.28551927 0.32349584 0.204034
