[LC models]/min_func_LC_n_V=7.pt (torch_old, 127886 bytes, 55 tensors)

weight f4 [40, 2]
0	0xbde465a1	-0.11152197
1	0x3dbe3e6e	0.09289251
2	0xbf67998e	-0.9046868
3	0x3eb5d4cb	0.3551391
4	0xbddafd91	-0.10692895
5	0xbe7931d9	-0.24335422
6	0x3d8b3f5f	0.067991965
7	0x3e90a0c9	0.2824767
8	0x3ef1df57	0.47240707
9	0x3cb8fb9f	0.02258092
10	0xbe5eec67	-0.21769868
11	0xbe6495fc	-0.2232284
12	0xbfa1500e	-1.2602556
13	0xbe56b07f	-0.20965765
14	0x3f14fe63	0.58200663
15	0xbf5f21ec	-0.87161136
16	0xbf3e4ed3	-0.74339026
17	0x3f27a42e	0.65484893
18	0x3e9ce1e9	0.30641106
19	0x3e88b39d	0.26699534
20	0x3e863eb5	0.26219717
21	0xbcffb1ac	-0.03121265
22	0x3ec123f7	0.37722751
23	0x3eef6e70	0.46763945
24	0x3e5da96e	0.21646664
25	0x3cda3575	0.026636818
26	0x3cfeb23a	0.031090844
27	0x3f208a5a	0.6271111
28	0xbd7d0248	-0.061769754
29	0x3e719b08	0.23594296
30	0xbf78c39f	-0.97173494
31	0xbec1f18d	-0.378796
32	0x3d642873	0.055702638
33	0x3d0ecb20	0.034861684
34	0x3e43d3da	0.19123784
35	0x3e2da614	0.16957885
36	0xbf83e37b	-1.0303797
37	0xbf93e865	-1.1555296
38	0x3eb77805	0.35833755
39	0x3e80edbd	0.2518138
40	0x3fa3f8cf	1.2810305
41	0x3e9b1bc3	0.30294618
42	0x3e34478f	0.17605422
43	0xbeba62b5	-0.36403432
44	0x3d12ae9f	0.035811063
45	0x3dd27302	0.10275842
46	0xbee08143	-0.4384862
47	0x3fa13c6a	1.2596562
48	0xbf0cc567	-0.5498871
49	0x3e9751d1	0.29554608
50	0x3f44d94b	0.7689406
51	0xbef6db57	-0.48214218
52	0x3f3b0c46	0.730656
53	0x3dca75ab	0.09885725
54	0x3f07a1de	0.52981365
55	0x3f296d87	0.6618275
56	0xbf589816	-0.84607065
57	0xbf617e0f	-0.88082975
58	0xbdd1b7c9	-0.10240132
59	0x3f758cf2	0.9591819
60	0x3f83a4c2	1.0284655
61	0xbeb14d98	-0.34629512
62	0xbc1811c2	-0.009281578
63	0x3f5228a5	0.8209327
64	0x3e9bf0d6	0.3045718
65	0xbf7c878f	-0.98644346
66	0x3f344c00	0.70428467
67	0x3e53e415	0.20692475
68	0x3ef0bf8d	0.47021142
69	0xbf785f7b	-0.9702069
70	0xbebf3f6f	-0.37353083
71	0xbf162eba	-0.5866505
72	0xbe051526	-0.12996349
73	0xbee44982	-0.44587332
74	0xbed6cf3c	-0.41954982
75	0xbf304683	-0.6885759
76	0x3e66b317	0.22529255
77	0x3ebc4946	0.36774653
78	0x3ec90698	0.39262843
79	0x3dbd3230	0.09238088

bias f4 [40]
0	0xbf6bb7f2	-0.92077553
1	0x3faf6321	1.3702127
2	0x3ef24472	0.47317845
3	0xbd98cb78	-0.074606836
4	0xbe8ab69b	-0.27092442
5	0x3e2398c0	0.15976238
6	0xbf7d014e	-0.98830116
7	0xbf1a56c3	-0.6028864
8	0x3fb48d17	1.4105557
9	0xbe985ff0	-0.29760695
10	0xbf399e7e	-0.72507465
11	0xbedf36e2	-0.4359656
12	0xbf46da57	-0.7767691
13	0x3f9df890	1.234148
14	0xbf7b081f	-0.98059267
15	0x3ec75641	0.38932994
16	0xbe827144	-0.2547704
17	0xbe940f9e	-0.28918165
18	0xbf41720d	-0.7556465
19	0xbe20691d	-0.15665098
20	0x3c1af0e7	0.00945685
21	0xbfca72f6	-1.5816333
22	0xbf8191df	-1.0122641
23	0xbfaa99f1	-1.3328229
24	0x3eb4ac64	0.35287774
25	0xbe3cfd87	-0.18456088
26	0xbf647360	-0.8923855
27	0xbec07ee0	-0.37596798
28	0xbe98b080	-0.2982216
29	0xbf32ab81	-0.69792944
30	0xbf55ad21	-0.834673
31	0xbf678699	-0.90439755
32	0xc014e4a0	-2.3264542
33	0x3fc41fef	1.5322245
34	0xbff984dc	-1.949367
35	0xbe17022c	-0.14746922
36	0xbf926fbe	-1.1440351
37	0x3dd599dd	0.10429738
38	0xbdeb4d18	-0.11489314
39	0xbe0f7ee6	-0.14013252

weight f4 [40, 40]
0	0x3e830ed1	0.25597242
1	0xbec7ac95	-0.38998857
2	0xbf268a21	-0.6505452
3	0x3e262a43	0.16227059
4	0xbe48e221	-0.19617511
5	0xbe1723b4	-0.14759713
6	0xbf9b7d52	-1.214762
7	0x3e92a958	0.28644824
8	0xbf225b8b	-0.63420933
9	0x3f59ba32	0.85049736
10	0xbeba7fd2	-0.36425644
11	0x3e9377ef	0.2880244
12	0x3f4d3b04	0.80168176
13	0xbe161a14	-0.14658386
14	0x3e2207bd	0.15823264
15	0x3e5cf789	0.21578802
16	0xbe3fc148	-0.18726075
17	0x3f023dbf	0.5087547
18	0xbf271dc2	-0.6527978
19	0x3ec00572	0.37504154
20	0xbebdeb8b	-0.37093768
21	0x3f743075	0.9538644
22	0x3da7214f	0.0816065
23	0x3d46607b	0.048431855
24	0xbec9c4c0	-0.3940792
25	0x3ee90c6b	0.45517287
26	0xbe6635ee	-0.2248151
27	0xbddc77e4	-0.10765055
28	0xbe6f57ed	-0.23373385
29	0xbf58b820	-0.8465595
30	0x3d1706cb	0.036871713
31	0x3ddc632f	0.10761105
32	0x3f33cca6	0.70234144
33	0xbf43955e	-0.7639979
34	0x3f75d1d4	0.960233
35	0xbda81065	-0.08206252
36	0x3fa13d2f	1.2596797
37	0x3e0badd9	0.13640536
38	0x3e5e6794	0.217192
39	0x3e1e6d28	0.15471327
40	0xbe0227d1	-0.12710501
41	0xbf5b6bf1	-0.8571158
42	0xbd9ea5e4	-0.07746485
43	0xbf3ca294	-0.73685575
44	0xbeb54297	-0.35402367
45	0x3f19fb76	0.60149324
46	0x3ef01a23	0.4689494
47	0x3fa5a4df	1.294094
48	0xbf63de6e	-0.89011276
49	0xbf582fe6	-0.8444809
50	0xbe0bee2e	-0.13665077
51	0x3ec9c8fe	0.39411157
52	0xbf521c1d	-0.8207415
53	0xbfe76624	-1.8078046
54	0x3f1585d6	0.5840734
55	0xbf74e10a	-0.9565588
56	0x3cbff97b	0.023434391
57	0xbf8171e0	-1.0112877
58	0xbd14c6ee	-0.036322527
59	0xbf95696b	-1.1672796
60	0xbf20e9b7	-0.6285662
61	0xbeb90ca5	-0.3614246
62	0x3e1e0f10	0.15435433
63	0x3ef6c09d	0.48193827
64	0xbfbf11bb	-1.4927286
65	0x3f8f1b22	1.1180155
66	0x3dc06e7d	0.09396074
67	0xbf906cd8	-1.1283216
68	0xbd81cb33	-0.06337585
69	0x3ec98a84	0.39363492
70	0xbef42e63	-0.4769164
71	0x3f1f10d9	0.6213508
72	0xbf02c16b	-0.5107638
73	0xbf347ff0	-0.7050772
74	0x3db41491	0.08792985
75	0x3f45f841	0.7733193
76	0xbe32c52a	-0.17458025
77	0x3f17a066	0.59229124
78	0x3bd7f2e1	0.0065902327
79	0xbfaf5e24	-1.3700604
80	0x3f220dfb	0.6330258
81	0xbf7d2d52	-0.9889728
82	0x3f2624a3	0.64899653
83	0x3ea68197	0.32520744
84	0xbce4ee75	-0.027945736
85	0xbf380045	-0.7187541
86	0x3f9d6a0b	1.2297987
87	0x3e625b8f	0.2210524
88	0xbf7a47db	-0.9776589
89	0x3f285499	0.65754086
90	0x3f1a7484	0.6033404
91	0x3f7c9f55	0.9868062
92	0x3f15102e	0.58227813
93	0xbf35073c	-0.70714164
94	0x3fbe4b6b	1.4866766
95	0x3ec3bf27	0.38231775
96	0x3ee0be63	0.43895254
97	0x3ec736d7	0.38909027
98	0x3dee59cc	0.11638221
99	0xbe1e73db	-0.15473883
100	0x3e49d1c3	0.19708924
101	0x3fcadd19	1.5848724
102	0x3f379c5e	0.7172297
103	0x3fa66d37	1.300208
104	0xbe5dc278	-0.21656215
105	0x3f6ff9e5	0.93740684
106	0x3f0d2538	0.55134916
107	0xbde38836	-0.111099645
108	0x3ec0d2de	0.3766088
109	0x3fbd1cb7	1.4774388
110	0x3f9611a5	1.1724135
111	0x3f87b8e1	1.0603296
112	0x3fcb959b	1.5905031
113	0x3eb59d21	0.35471442
114	0x400e7868	2.226099
115	0xbf08a2d2	-0.53373444
116	0x3f931f69	1.1493961
117	0x3b1eb4a3	0.0024216555
118	0x3f8dc78e	1.1076524
119	0xbf174d7b	-0.591026
120	0x3f40b78d	0.75280076
121	0xbf18f058	-0.59741735
122	0x3ec163c0	0.37771416
123	0x3e7b6504	0.24550253
124	0x3e9ce2a8	0.30641675
125	0x3f18c73c	0.5967901
126	0x3f003d34	0.5009339
127	0x3e15ac2d	0.14616461
128	0xbf7ba348	-0.9829602
129	0x3e9c52e7	0.30532
130	0x3f0c33ad	0.5476635
131	0xbd9638ae	-0.073350295
132	0x3ef219dd	0.47285357
133	0xbec7d6ec	-0.3903116
134	0x3d6c3358	0.057666153
135	0x3eaf7678	0.34270072
136	0x3c9eb0e5	0.01937146
137	0xbbc76e92	-0.006086179
138	0xbd06b2cb	-0.032885354
139	0x3e87d19b	0.26527104
140	0x3ea3880c	0.31939733
141	0x3ec82cd7	0.3909671
142	0x3fab0ebd	1.3363873
143	0xbe92fff1	-0.28710893
144	0xbbe76622	-0.0070617357
145	0xbe9b784f	-0.30365226
146	0x3f11cfd9	0.56957775
147	0x3e035a4f	0.12827419
148	0xbe8e94d5	-0.27847925
149	0xbe54b24d	-0.20771141
150	0x3f28a89e	0.6588229
151	0xbe9f63dd	-0.31130877
152	0x3ee9c0c5	0.45654884
153	0xbd9341bf	-0.071902744
154	0x3f410615	0.75399905
155	0xbe654db7	-0.22392927
156	0x3dfd8d38	0.12380451
157	0xbe00a60e	-0.12563345
158	0x3f871768	1.0554018
159	0xbd52ccc1	-0.0514648
160	0x3e279f6c	0.16369408
161	0x3ead542f	0.3385329
162	0xbe85e978	-0.26154685
163	0x3efee066	0.49780577
164	0xbedcc2d9	-0.43117407
165	0x3fa8d887	1.3191079
166	0x3fae2e6c	1.3607917
167	0xbf422f92	-0.75853837
168	0x3e810fd4	0.25207388
169	0x3f209d0e	0.62739646
170	0x3dcb7f84	0.09936431
171	0x3fececbe	1.8509748
172	0x3f0824db	0.53181237
173	0x3d840d35	0.064478315
174	0x4017291f	2.3618848
175	0x3e9f70d2	0.31140763
176	0x3f1e2073	0.61768264
177	0x3e9dce63	0.30821523
178	0xbf9618bc	-1.1726298
179	0x3ce1a560	0.027544677
180	0x3dfb4fe5	0.12271098
181	0x3eb2594e	0.3483376
182	0x3f140410	0.578187
183	0x4047c6e2	3.1215138
184	0xbf2ab598	-0.6668334
185	0x3f6d5f4d	0.9272354
186	0x3eb2a79f	0.3489351
187	0x3f8232ec	1.017179
188	0xbf91f052	-1.1401465
189	0x400baf43	2.1825721
190	0x3f17db54	0.59319043
191	0x4026145b	2.5949924
192	0x3eefc244	0.468279
193	0x3e941be8	0.2892754
194	0x3fd1c2de	1.6387594
195	0x3ee56bab	0.44808707
196	0x3e508bfa	0.20365897
197	0xbf170a18	-0.58999777
198	0x3feda194	1.8564935
199	0xbf303fb2	-0.6884719
200	0x3f3c01b3	0.7344009
201	0xbfa169ae	-1.2610376
202	0xbf8ab64a	-1.083688
203	0xbea4ac79	-0.32162836
204	0xbdcb5bcd	-0.09929619
205	0x3e866a6a	0.26253062
206	0xbdc91b58	-0.098196685
207	0x3df61eb5	0.12017576
208	0xbfa17824	-1.2614789
209	0xbe065680	-0.13118935
210	0x3e39bbc7	0.18138038
211	0xbe535ae4	-0.20640141
212	0x3e86d069	0.2633088
213	0xbcc8089d	-0.02441817
214	0x3db02e48	0.086025774
215	0x3db602a1	0.0888722
216	0x3f181adb	0.5941598
217	0xbf13661b	-0.57577676
218	0xbedb6ea5	-0.42857853
219	0x3e12b073	0.14325123
220	0x3e917a72	0.2841373
221	0x3ebfd74e	0.37468952
222	0x3fd2dfa9	1.6474506
223	0xbf282c98	-0.65693045
224	0x3c7bb3d2	0.015362697
225	0xbe8f7b5f	-0.28023812
226	0x3f60e0f9	0.8784328
227	0x3f9df584	1.234055
228	0xbf0ff4c4	-0.5623286
229	0xbec8ed40	-0.39243507
230	0x3ed9266c	0.42412126
231	0xbed47799	-0.41497496
232	0x3d8b9e16	0.06817262
233	0xbd93c2a0	-0.07214856
234	0x3f6e62d8	0.93119574
235	0xbe04b1fd	-0.12958522
236	0x3e102155	0.14075215
237	0xbf43c486	-0.76471746
238	0x3f9f502a	1.2446339
239	0x3df13e3c	0.117794484
240	0xbee42765	-0.44561306
241	0xbec6184c	-0.38690412
242	0x3f21a87f	0.6314773
243	0xbd9ac600	-0.07557297
244	0xbe6654a5	-0.22493227
245	0xbdd6c02f	-0.10485875
246	0x3f654336	0.8955568
247	0xbe1bd799	-0.15218963
248	0xbece04a9	-0.4023793
249	0xbd341986	-0.043969654
250	0x3f1a5912	0.6029216
251	0x3e9760ed	0.29566136
252	0x3da635fc	0.081157655
253	0xbeea1499	-0.4571884
254	0x3f326ed5	0.69700366
255	0xbea93a0a	-0.33052093

bias f4 [40]
0	0xbf348982	-0.7052232
1	0xbf64bfa6	-0.8935493
2	0xbff9efd1	-1.9526311
3	0xbf56c452	-0.8389331
4	0xbfcbbe67	-1.5917481
5	0xbf8dffaa	-1.1093647
6	0xbf6fdb71	-0.93694216
7	0xbf4d8455	-0.8028005
8	0xbfaf3262	-1.3687251
9	0xbf3b022d	-0.73050195
10	0xbf2ecf40	-0.6828499
11	0xbf876391	-1.057726
12	0xbe2d25be	-0.16908929
13	0xbf203653	-0.6258289
14	0xbda68435	-0.08130685
15	0xbf764511	-0.96199137
16	0xbf27a978	-0.65492964
17	0x3ee36b63	0.44417867
18	0xbf93eea5	-1.1557204
19	0xbedbb922	-0.42914683
20	0xbf8a9f7b	-1.082992
21	0xbfb47a48	-1.4099817
22	0xbe8ab4fe	-0.2709121
23	0xbf0c8579	-0.54891163
24	0xbf43c0a4	-0.7646582
25	0xbda35a57	-0.07976215
26	0xbf218e16	-0.6310743
27	0xbe512efa	-0.20428076
28	0xbf03846c	-0.51373935
29	0xbf452c28	-0.770205
30	0xbf8a1b01	-1.0789491
31	0xbf5f6fde	-0.8728007
32	0xbf459735	-0.7718385
33	0xbf880fb3	-1.0629791
34	0x3da4bc44	0.08043721
35	0xbefea150	-0.49732447
36	0xbef26dc6	-0.47349375
37	0xbeb50d71	-0.35361817
38	0xbfadfe8a	-1.3593304
39	0xbf5bc1e6	-0.8584274

weight f4 [4, 40]
0	0xbe903dd7	-0.2817218
1	0x3e49d9fe	0.19712064
2	0xbdf1613c	-0.11786124
3	0xbd8b25ac	-0.06794295
4	0xbeb14141	-0.34620097
5	0xbea22d1c	-0.3167504
6	0x3e7be6ed	0.2459981
7	0xbf641e99	-0.8910919
8	0xbe893366	-0.26797026
9	0x3df66967	0.12031823
10	0xbf830b42	-1.0237811
11	0x3e84a5de	0.25907797
12	0xbdb35371	-0.087561496
13	0xbe9fa3a5	-0.31179538
14	0x3cb89610	0.022532493
15	0x3ebbec57	0.3670375
16	0xbead02cb	-0.33791193
17	0xbe2f206c	-0.17102212
18	0xbbf5a066	-0.0074959276
19	0xbda02673	-0.078198336
20	0xbf1a57c0	-0.60290146
21	0x3f76b585	0.96370727
22	0xbee5a150	-0.44849634
23	0x3eb2378f	0.34808013
24	0x3ee7f805	0.4530641
25	0x3ebf56f8	0.3737104
26	0xbf06115e	-0.5237025
27	0x3e866fb5	0.262571
28	0x3f2994aa	0.6624247
29	0xbe11a61a	-0.14223519
30	0x3f27c729	0.6553827
31	0x3df6f70a	0.12058838
32	0x3ea2905d	0.31750765
33	0xbc16a763	-0.009195182
34	0x3ead76c7	0.33879682
35	0x3fa99d93	1.3251213
36	0xbe39ae04	-0.18132788
37	0x3e920599	0.28519896
38	0x3f84307f	1.03273
39	0xbe1e70bd	-0.15472694
40	0x3f0250df	0.5090465
41	0xbe95c45c	-0.29251373
42	0x3f314aa3	0.6925451
43	0x3c6dbd76	0.014510503
44	0x3eb5bb26	0.35494345
45	0xbb9680d0	-0.0045929924
46	0x3edb7e2c	0.428697
47	0x3e923413	0.28555354
48	0x3ee9c3a2	0.45657068
49	0x3ee52058	0.4475124
50	0xbeef2bd5	-0.4671313
51	0xbea6374c	-0.32464063
52	0xbf01f088	-0.50757647
53	0x3f4a2fac	0.7897899
54	0x3ee119cc	0.43964994
55	0x3fa03fc6	1.2519462
56	0x3efc775b	0.4930981
57	0x3e5fd77b	0.21859543
58	0xbe81f05f	-0.253787
59	0xbd3679d7	-0.04454979
60	0x3d4d8257	0.05017313
61	0xbe11767c	-0.14205354
62	0xbe7b90c3	-0.24566941
63	0x3e1c2180	0.15247154
64	0x3fa74b7c	1.3069911
65	0xbe2b6769	-0.16738667
66	0x3d9dfe47	0.07714515
67	0xbf7cbdc6	-0.9872707
68	0x3da60826	0.08107023
69	0xbe610ec7	-0.21978293
70	0x3f27a430	0.65484905
71	0x3ea6a0c1	0.3254452
72	0x3f143bf7	0.57904
73	0x3e8e8cb4	0.27841723
74	0xb7fdefb3	-3.0271569e-05
75	0x3cbcbee5	0.023040244
76	0x3eb6a907	0.35675833
77	0x3e094500	0.13405228
78	0xbe468e7e	-0.19390294
79	0xbe2c569c	-0.16829914
80	0xbec0d6cc	-0.37663877
81	0xbf0be0e4	-0.5464003
82	0xbf081e43	-0.53171176
83	0xbeaa7697	-0.33293602
84	0x3f34fdc8	0.7069974
85	0xbef85a0a	-0.48506194
86	0xbef828d9	-0.48468664
87	0x3f9685e3	1.1759609
88	0x3f2727ff	0.65295404
89	0xbebfb8bf	-0.37445638
90	0x3ee29a7d	0.4425849
91	0xbe8bc610	-0.27299547
92	0xbf15741a	-0.5838028
93	0x3e8b9c44	0.2726766
94	0xbe699ecc	-0.22814482
95	0xbef16fa2	-0.47155482
96	0x3f09c960	0.538229
97	0x3e9b998e	0.3039059
98	0xbe70c70c	-0.2351343
99	0xbe2d4c6f	-0.16923688
100	0xbe7a3901	-0.24435808
101	0x3eda911a	0.4268883
102	0x3f26ee06	0.65206945
103	0xbe68f3ac	-0.22749203
104	0xbfc01e20	-1.5009193
105	0x3f9de819	1.2336456
106	0xbeba8aaa	-0.36433917
107	0x3f3d86d1	0.7403384
108	0xbf180b47	-0.5939221
109	0x3ec44366	0.3833267
110	0x3f3008e1	0.6876355
111	0xbd25a6d8	-0.040442318
112	0x3f05d89b	0.5228364
113	0xbdb65a2f	-0.0890392
114	0xbedd819d	-0.4326295
115	0xbf556fa5	-0.8337348
116	0x3ebb880f	0.36627242
117	0xbf68f543	-0.9099924
118	0xbea6b618	-0.32560802
119	0x3e73d661	0.23812248
120	0xbf0c03fd	-0.54693586
121	0x3f483d3b	0.7821843
122	0xbdd44c28	-0.10366088
123	0xbeba88e9	-0.3643258
124	0xbf7a8ca4	-0.9787085
125	0x3e572d2f	0.2101333
126	0xbe2159a4	-0.15756851
127	0x3c9c33ac	0.019067608
128	0xbfe29874	-1.7702775
129	0xbf3fa598	-0.7486205
130	0x3ee164e4	0.44022286
131	0x3f5e3fbc	0.86816
132	0xbf2a71b2	-0.66579735
133	0x3e7dab30	0.24772334
134	0xbe123e41	-0.1428156
135	0x3f1ecdc0	0.620327
136	0x3e158998	0.14603269
137	0x3e13f15d	0.14447542
138	0x3fad2bcf	1.3528994
139	0xbc9f5a5b	-0.019452265
140	0xbd404b7b	-0.046946984
141	0x3f093185	0.53591186
142	0xbe1df2bd	-0.15424629
143	0xbf21425e	-0.62991893
144	0x3edc0362	0.4297133
145	0xbf2c1ca6	-0.67231214
146	0x3efc41f1	0.4926906
147	0xbd77058d	-0.060308028
148	0xbd8f9db8	-0.07012504
149	0x3efb7d58	0.49119067
150	0x3e704a7e	0.23465917
151	0x3d66a9fa	0.056314446
152	0xbec32ba9	-0.38119248
153	0xbee19402	-0.44058233
154	0xbd0d6a65	-0.034525294
155	0xbce81b1f	-0.028333245
156	0xbf4d4ac9	-0.8019224
157	0x3dde285d	0.108475424
158	0x3f30b52a	0.69026434
159	0x3f66b6b7	0.9012255

bias f4 [4]
0	0x3e0cfada	0.13767567
1	0xbecde5ba	-0.4021433
2	0xbf00f47c	-0.50373054
3	0xbea84826	-0.32867545

weight f4 [40, 2]
0	0x3f0feb2f	0.56218237
1	0x3f14cad0	0.5812197
2	0x3cf1c0c3	0.029510861
3	0x3ebd4a73	0.36970863
4	0xbe231101	-0.15924455
5	0xbf350bcf	-0.70721143
6	0xbe868283	-0.26271448
7	0xbed78d88	-0.42100167
8	0x3fad6495	1.354632
9	0x3e9ec8f2	0.31012684
10	0x3f0a5e70	0.5405035
11	0x3e8a6703	0.27031717
12	0xbc0fabf6	-0.008769026
13	0xbf0f9148	-0.56081057
14	0x3fa139c7	1.2595757
15	0xbeead6c3	-0.45866975
16	0xbe6be775	-0.23037513
17	0x3cf0d6ff	0.029399393
18	0xbe9c0680	-0.3047371
19	0xbe96b309	-0.29433468
20	0x3e2fabf8	0.17155445
21	0xbe9ad619	-0.3024147
22	0xbe25671c	-0.16152614
23	0x3f489a00	0.78359985
24	0x3ea82a00	0.32844543
25	0x3eb1fcac	0.34763086
26	0xbeb76e68	-0.3582642
27	0x3e8986c2	0.26860625
28	0x3f2f1aa3	0.6840002
29	0x3e142d64	0.1447044
30	0xbe658ab3	-0.22416191
31	0xbe431e2a	-0.19054475
32	0xbeba38a7	-0.36371347
33	0xbeb07e18	-0.34471202
34	0xbea23b50	-0.31685877
35	0x3f0ee1ab	0.5581309
36	0x3e88be57	0.26707718
37	0x3e2f95b3	0.1714695
38	0x3fb0ac44	1.3802571
39	0xbe812647	-0.25224516
40	0xc00d4d3c	-2.207839
41	0x3f96d784	1.178452
42	0xbe2fcd10	-0.17168069
43	0xbd571c20	-0.052517056
44	0x3e372a84	0.17887312
45	0x3fba9f47	1.4579858
46	0x3e35a9d9	0.17740573
47	0xbed340a8	-0.41260266
48	0x3f87aa35	1.0598818
49	0xbecde27c	-0.40211856
50	0x3d4d0568	0.050053984
51	0x3e9c6ee3	0.3055335
52	0x3fc15f65	1.5107237
53	0xbf45adaa	-0.77218115
54	0xbe32d07c	-0.17462343
55	0x3eeb2ee8	0.45934224
56	0xbeb30a34	-0.34968722
57	0x3c04a8b6	0.008096864
58	0xbe85f089	-0.26160076
59	0xbe22fe88	-0.15917408
60	0xbd2296b0	-0.039694488
61	0x3da87298	0.08224982
62	0xbe14358c	-0.14473552
63	0xbe99be8c	-0.30028188
64	0x3e1fe9ed	0.1561658
65	0xbdf751c5	-0.12076143
66	0x3dbd84b7	0.09253829
67	0xbe354581	-0.17702295
68	0xbe5108ab	-0.20413463
69	0xbdb6fe5e	-0.089352354
70	0x3fa47f95	1.2851435
71	0xbe838e33	-0.25694427
72	0xbe86ade5	-0.26304546
73	0x3f0a6871	0.54065615
74	0x3f9dc913	1.2326988
75	0x3d24a00c	0.040191695
76	0xbf90d54b	-1.1315092
77	0x3f269755	0.65074664
78	0xbefcc680	-0.49370193
79	0x3eace1e8	0.33766103

bias f4 [40]
0	0x3f209613	0.62728995
1	0xbee2eeb8	-0.44322753
2	0x3f2ddebc	0.6791799
3	0xbf2e17aa	-0.6800486
4	0x3f2bd76d	0.6712559
5	0x3ffe58d0	1.9870853
6	0x3fb037d5	1.3767039
7	0xbe13dd7e	-0.14439961
8	0x3fcb1a78	1.5867453
9	0x3fb99dda	1.4501297
10	0xbee9f5e3	-0.4569541
11	0x3f6afd1f	0.9179248
12	0x3f955016	1.1665065
13	0xbf1bb0c9	-0.6081663
14	0x401bff32	2.437451
15	0x3d7f1e39	0.062284682
16	0xbf43d2ad	-0.7649334
17	0x3faf690a	1.370393
18	0x3fe6cb17	1.8030728
19	0x3fa39ca4	1.2782178
20	0x3fcaf47e	1.5855863
21	0xbe9f088c	-0.31061208
22	0x3ef2c79c	0.47417915
23	0x3ee89fcf	0.45434424
24	0x3fc6769c	1.5504947
25	0xbeba6dc9	-0.36411884
26	0x3e74d86f	0.23910688
27	0xbf2ccfa2	-0.6750432
28	0xbf06bdf1	-0.5263358
29	0xbf21fa99	-0.63273007
30	0xbf163522	-0.58674824
31	0x400c21d0	2.1895638
32	0xbe241e7e	-0.16027257
33	0x3f97ffcb	1.1874937
34	0x3fb23fee	1.392576
35	0xba58d6bd	-0.00082717446
36	0xbf5cd200	-0.86257935
37	0x3f24b7c8	0.6434293
38	0x3eb7115e	0.35755438
39	0xbf51be98	-0.8193145

weight f4 [40, 40]
0	0x3c112e46	0.00886113
1	0xbd4fa644	-0.050695673
2	0x3ef2035c	0.47268188
3	0xbe1ac6f6	-0.1511496
4	0x3e85bd5b	0.2612103
5	0x3ee755b1	0.45182565
6	0x3f2307ab	0.63683575
7	0x3b0954bd	0.002095505
8	0x3ed40890	0.41412783
9	0xbed4d75f	-0.41570565
10	0x3d4f3016	0.050582968
11	0x3e7ad05f	0.2449355
12	0x3f9442a0	1.1582832
13	0xbe1d5e44	-0.1536799
14	0x3d6341c0	0.055482626
15	0x3f131515	0.57454044
16	0x3d5eb76e	0.05437415
17	0x3eeaec98	0.45883632
18	0x3f148fa7	0.58031696
19	0xbe7372f9	-0.23774327
20	0xbd355784	-0.044272915
21	0x3d9f6cf6	0.077844545
22	0xbf14c511	-0.581132
23	0xbf34372a	-0.70396674
24	0x3c8cc856	0.017185371
25	0x3d526cef	0.05137342
26	0x3df15d9a	0.11785431
27	0x3dd0eb6b	0.102011524
28	0x3d99474a	0.074843004
29	0xbe1e4397	-0.15455471
30	0xbded46b0	-0.11585748
31	0x3eea44ef	0.45755717
32	0x3f85ef1e	1.0463598
33	0x3f60d1d1	0.87820154
34	0x3c449448	0.011998244
35	0x3d4b5da7	0.04964986
36	0xbe14d260	-0.14533377
37	0x3f0c14f0	0.5471945
38	0x3e92f872	0.28705174
39	0xbe37cbec	-0.17948884
40	0x3e18d24d	0.14923973
41	0xbf32e73d	-0.6988409
42	0xbf3fe837	-0.74963707
43	0x3e3f07e4	0.18655354
44	0x3ef255f7	0.4733121
45	0x3f178423	0.59186
46	0x3f11fe0b	0.57028264
47	0x3f25bfc5	0.6474574
48	0x3ed1cd90	0.40977144
49	0xbec03531	-0.37540582
50	0xbe68f8c8	-0.22751153
51	0x3daeef2e	0.08541714
52	0xbd8c9589	-0.06864459
53	0x3d00e49c	0.03146802
54	0x3dbaca50	0.09120619
55	0x3e888504	0.26663983
56	0x3e3aff75	0.18261512
57	0x3ec33a86	0.38130587
58	0x3f249374	0.64287496
59	0x3d88a2dc	0.06671688
60	0x3e40dfaa	0.18835321
61	0x3e0165cb	0.12636487
62	0x3dc8e568	0.09809381
63	0x3e155ed2	0.14586952
64	0x3d74a133	0.059724044
65	0xbe1b23a8	-0.1515032
66	0x3f5df6c6	0.8670467
67	0xbe3ef268	-0.18647158
68	0x3e016933	0.12637787
69	0x3d8804cc	0.0664154
70	0xbdc14fd4	-0.09439054
71	0x3f42771f	0.75963014
72	0x3e8b4d12	0.27207237
73	0x3f30178e	0.6878594
74	0xbc812966	-0.01576681
75	0x3ddb3718	0.10703868
76	0xbe927e01	-0.28611758
77	0x3f040dc0	0.5158348
78	0x3f61d015	0.88208133
79	0x3c3f0fc4	0.011661474
80	0xbf014422	-0.5049459
81	0xbd5e820a	-0.054323234
82	0x3e9023d4	0.28152335
83	0x3e5f9dfa	0.21837607
84	0x3fa1bd5e	1.2635915
85	0x3f3a7255	0.72830707
86	0xbe2eb77c	-0.17062181
87	0x3ef904d8	0.48636508
88	0xbea3381b	-0.31878743
89	0x3ebd777f	0.3700523
90	0x3ebddd2c	0.37082803
91	0x3f9d1ce2	1.2274439
92	0x3ec2eeb8	0.38072753
93	0xbda1dd45	-0.07903532
94	0x3f8c66b9	1.0968848
95	0x3e5cbbf1	0.21556069
96	0x3e896546	0.26835078
97	0x3e9bdd26	0.3044216
98	0x3e1585b3	0.14601783
99	0x3ee929d3	0.45539722
100	0xbd87db8e	-0.066336736
101	0x3de41b06	0.11137967
102	0x3f6f8131	0.93556505
103	0xbb7c584a	-0.0038504773
104	0x3d80d6df	0.062909834
105	0xbe32ebe8	-0.17472804
106	0x3f2ad2ff	0.66728204
107	0x3e103714	0.1408351
108	0xbdbcc0ad	-0.092164375
109	0xbc875620	-0.01652056
110	0x3d99e640	0.0751462
111	0x3dfefccc	0.12450561
112	0x3e88fb7e	0.26754373
113	0xbdb71d1a	-0.089410976
114	0x3f184a78	0.5948863
115	0x3ea897d9	0.3292835
116	0xbe4b94c6	-0.19880971
117	0xbd441e25	-0.04788031
118	0xbdb84263	-0.08997037
119	0xbe2fc825	-0.17166193
120	0xbc3489f3	-0.011019218
121	0xbd432b58	-0.047648758
122	0xbf3e987a	-0.7445141
123	0xbe8fc825	-0.28082386
124	0xbf42c6ea	-0.7608477
125	0xbee1bd19	-0.44089583
126	0xbe6a2b78	-0.22868145
127	0xbd0e70f9	-0.034775708
128	0xbe2ef524	-0.17085701
129	0xbeebe4dc	-0.46073043
130	0x3e236d94	0.1595977
131	0xbe566812	-0.20938137
132	0xbf1bdfca	-0.6088835
133	0x3cbcdc80	0.023054361
134	0xbf11a668	-0.5689454
135	0xbedaaa59	-0.4270809
136	0x3d6ee1eb	0.05832092
137	0xbce809b3	-0.028324937
138	0xbee251d5	-0.44203058
139	0xbf136ee7	-0.575911
140	0xbedbc7ec	-0.42925966
141	0x3d6f9260	0.058489203
142	0xbf01f45e	-0.507635
143	0xbcdf87db	-0.02728646
144	0x3dc9dbee	0.098564014
145	0xbe0de1c9	-0.13855661
146	0xbf02460b	-0.5088813
147	0xbe05c199	-0.13062133
148	0xbd942a40	-0.07234621
149	0x3e0a741b	0.13520853
150	0x3ce2dd20	0.027693331
151	0xbf20b6ea	-0.62779105
152	0xbe609b89	-0.21934332
153	0xbd700b0f	-0.058604296
154	0x3e4bec69	0.19914402
155	0x3e955331	0.29165033
156	0xbcaf4a3d	-0.021397704
157	0xbe22f5d2	-0.15914086
158	0xbe851330	-0.259912
159	0x3d868c21	0.06569696
160	0x3f4f9ad9	0.81095654
161	0x3cd66663	0.026171869
162	0x4010ca3a	2.262343
163	0x3f08601b	0.53271645
164	0x3f21dfb7	0.63231987
165	0x3f0245ef	0.5088796
166	0x3ea301b2	0.3183723
167	0xbedbcf43	-0.42931566
168	0x3f1ef23e	0.6208838
169	0x3f85430b	1.0411085
170	0x3d8c40ba	0.06848283
171	0x3f9413bf	1.1568526
172	0x3f0ec314	0.55766416
173	0xbd8a02e5	-0.06738833
174	0x3fd39e95	1.653277
175	0xbe94bcb3	-0.29050216
176	0x3d88fb23	0.066885255
177	0x3fda3924	1.7048688
178	0x3ec21fa0	0.37914753
179	0x3f127266	0.5720581
180	0x3f5ac59a	0.85457766
181	0x3e18e521	0.14931156
182	0x3f137429	0.5759912
183	0x3e5f4d5b	0.21806853
184	0x3f33eac4	0.702801
185	0x3dd5ddaf	0.104426734
186	0xbe931762	-0.28728777
187	0xbe5bc88e	-0.21463224
188	0x3e2e11b6	0.16998944
189	0xbe08039a	-0.13282624
190	0xbd96ccdc	-0.073632926
191	0xbe54af7a	-0.20770064
192	0xbf78f423	-0.97247523
193	0x3d848afa	0.0647182
194	0x3f58eca7	0.847361
195	0x3e380ef9	0.17974462
196	0xbe0d4339	-0.13795175
197	0x3e867dff	0.26268002
198	0x3d3370c0	0.0438087
199	0xbd36ec4e	-0.04465895
200	0x3dd7c4f5	0.105356134
201	0x3d059d7c	0.032620892
202	0x3e928ebd	0.28624526
203	0x3efcf58d	0.4940609
204	0x3eb9d03c	0.36291683
205	0xbbc8e403	-0.0061306967
206	0xbca6d868	-0.020366862
207	0x3ec36712	0.38164574
208	0x3d9e2795	0.077223934
209	0x3f2148a6	0.6300148
210	0x3f2aca43	0.66714877
211	0x3f1cb4d1	0.61213404
212	0x3e000a0c	0.12503833
213	0xbd230b88	-0.03980592
214	0x3dbe17a4	0.09281853
215	0x3db477c4	0.08811906
216	0x3d7a3b72	0.061091848
217	0x3ec108c0	0.37701988
218	0x3eb5f46d	0.35538045
219	0x3e7f9822	0.24960378
220	0x3ec6b198	0.38807368
221	0x3d2b3b24	0.041804448
222	0x3f7a488b	0.9776694
223	0xbee83832	-0.45355374
224	0xbe63ce87	-0.22246753
225	0x3e7ed71d	0.24886747
226	0x3e396a7e	0.1810703
227	0xbe122a0a	-0.14273849
228	0xbe89428e	-0.2680859
229	0xbc84d400	-0.01621437
230	0xbdc64c0b	-0.09682473
231	0x3f8248d4	1.0178475
232	0x3e34f881	0.17672922
233	0x3ec1af98	0.3782928
234	0x3d3a2592	0.045445986
235	0x3e268682	0.16262248
236	0xbdb6d4f1	-0.08927334
237	0x3e9f6d35	0.31138006
238	0x3f11a862	0.56897557
239	0x3ea5e3ec	0.32400453
240	0x3e85f191	0.26160863
241	0x3e04c19f	0.12964486
242	0x3f1a1dd9	0.60201794
243	0xbe2661ef	-0.16248296
244	0xbe17fb06	-0.14841852
245	0x3eab709f	0.3348436
246	0xbe59806a	-0.21240392
247	0x3eb97662	0.3622313
248	0x3e393c51	0.18089415
249	0x3e3d572f	0.18490289
250	0xbe3b8282	-0.18311504
251	0x3eb1cee3	0.34728155
252	0xbf664e40	-0.8996315
253	0x3dcc2f0e	0.099699125
254	0x3f6c2d59	0.92256695
255	0x3f0e5a16	0.5560621

bias f4 [40]
0	0x3f0f44dd	0.5596445
1	0x3f4359e0	0.76309013
2	0xbe03fc71	-0.12889268
3	0xbd9ca6a2	-0.0764897
4	0x3e467bc4	0.1938315
5	0x3f00a25c	0.5024774
6	0x3eb5b768	0.3549149
7	0x3eab1287	0.33412573
8	0xbf5b6871	-0.8570624
9	0x3ee3d2b6	0.44496697
10	0x3f6073cc	0.8767669
11	0xbee7472e	-0.45171493
12	0x3e9a63f7	0.30154392
13	0x3dfe56d4	0.12418905
14	0x3eaeae91	0.3411756
15	0x3ef9770d	0.4872364
16	0xbd112460	-0.03543508
17	0xbee6576b	-0.4498857
18	0xbef96db5	-0.48716512
19	0xbf041ef3	-0.51609725
20	0x3ebd2f0d	0.3694996
21	0x3e9eca76	0.3101384
22	0x3e9bfe6b	0.30467543
23	0x3f37bc5c	0.7177179
24	0xbf02ad85	-0.5104602
25	0xbeef963c	-0.46794307
26	0x3d876d8a	0.0661269
27	0xbdf130f8	-0.11776918
28	0x3ecbd3ec	0.3981012
29	0xbe5dc619	-0.216576
30	0x3dbd584b	0.09245356
31	0xbe27b187	-0.16376315
32	0xbed0b993	-0.40766582
33	0xbe3c94ef	-0.18416189
34	0xbeb9c490	-0.36282778
35	0xbe01fcff	-0.12694167
36	0xbef81413	-0.48452815
37	0x3f833769	1.0251285
38	0xbe0aebe0	-0.13566542
39	0xbe5d6742	-0.21621421

weight f4 [40, 40]
0	0x3ed00c52	0.406344
1	0x3f3dbc64	0.74115586
2	0x3eef42a4	0.4673053
3	0x3ec94dc2	0.39317137
4	0x3f50889e	0.8145846
5	0x3cee648c	0.029100679
6	0xbda15638	-0.07877773
7	0x3f547f44	0.8300669
8	0x3db40054	0.08789125
9	0x3e9441aa	0.28956348
10	0x3f2b93e2	0.67022526
11	0x3dbc7f8c	0.09204015
12	0xbd67ed0f	-0.05662256
13	0x3e9b5546	0.30338496
14	0x3eb65133	0.35608825
15	0x3eeceb48	0.46273255
16	0xbe3bc34c	-0.18336219
17	0xbec08222	-0.37599283
18	0xbf0bc8c2	-0.5460321
19	0xbd1d3109	-0.03837684
20	0x3f175350	0.591115
21	0x3e160390	0.14649796
22	0xbe687ed3	-0.2270463
23	0x3f5b8bb2	0.85760033
24	0x3d287f59	0.041137073
25	0xbf749a1b	-0.95547646
26	0x3daf30b8	0.08554214
27	0x3ecb5a46	0.3971731
28	0x3dc12631	0.094311126
29	0xbd987687	-0.07444482
30	0x3e9b8ffd	0.30383292
31	0xbeb0c907	-0.34528372
32	0xbdfdf0e4	-0.12399462
33	0x3eb1e626	0.34745902
34	0xbd0d0e15	-0.034437258
35	0xbeb02813	-0.34405574
36	0xbe2f4b58	-0.17118585
37	0x3f37bd25	0.71772987
38	0xbefbd7d4	-0.491881
39	0xbee2bf6f	-0.44286677
40	0xbf2cba7a	-0.6747204
41	0xbef61f5b	-0.48070797
42	0xbec1f39b	-0.3788117
43	0x3e82d62e	0.2555403
44	0xbf1d413a	-0.6142765
45	0x3cbb258b	0.02284505
46	0xbdf798eb	-0.12089714
47	0xbe9b567f	-0.3033943
48	0x3dee429e	0.116338
49	0xbeda95bd	-0.42692366
50	0xbeb2fbc8	-0.3495772
51	0xbd1b8295	-0.03796633
52	0xbe0c33a5	-0.13691576
53	0x3e4d217d	0.20032306
54	0xb7bf33f6	-2.279317e-05
55	0xbe698a20	-0.22806597
56	0xbd97fa26	-0.07420759
57	0x3e82d7e1	0.25555328
58	0x3eaf2d34	0.34214175
59	0x3cbca3a3	0.023027247
60	0xbf747a20	-0.9549885
61	0xbe7c4c5d	-0.24638505
62	0xbe449a8e	-0.19199583
63	0xbe79f8a9	-0.24411263
64	0x3f2a7441	0.6658364
65	0x3e4b7fe1	0.19873
66	0x3df9035e	0.12158845
67	0x3e61c512	0.22047833
68	0xbe0b507e	-0.13604924
69	0x3cfffc15	0.031248132
70	0xbb51f89a	-0.0032039047
71	0x3ec5bb21	0.3861933
72	0x3ed217d5	0.41033807
73	0x3e1454c8	0.14485466
74	0x3beb22f1	0.007175796
75	0x3ecaefc8	0.39636064
76	0x3e52165f	0.20516346
77	0xbe0c0e55	-0.13677342
78	0xbdd4730c	-0.10373506
79	0x3d9d0d81	0.07668591
80	0xbf4c30b3	-0.7976181
81	0xbe080fc0	-0.13287258
82	0xbeec57d1	-0.4616075
83	0x3f035c83	0.51313037
84	0xbf7ab6c4	-0.9793513
85	0x3e210620	0.15724993
86	0x3c5446e1	0.012956352
87	0xbbc7d7d7	-0.006098728
88	0xbf0f3224	-0.55935884
89	0xbe90bf89	-0.2827113
90	0xbde14a7f	-0.11000537
91	0xbd86c945	-0.06581358
92	0xbf6d8b0c	-0.92790294
93	0x3da8ebe6	0.08248119
94	0xbe92ddb9	-0.28684786
95	0x3daee28d	0.08539305
96	0xbd91fcc2	-0.07128288
97	0x3e4d5971	0.2005365
98	0xbe6f414b	-0.23364751
99	0x3e2c956f	0.1685388
100	0xbf31e571	-0.69490725
101	0xbe0dfaea	-0.13865247
102	0x3e8857ed	0.26629582
103	0xbdf136aa	-0.117780045
104	0x3e79d759	0.24398555
105	0x3d1e7ca1	0.038693074
106	0x3e34f999	0.17673339
107	0x3e77ffa0	0.24218607
108	0xbe99aef0	-0.3001628
109	0x3e3996b9	0.18123902
110	0xbe6003fa	-0.21876517
111	0x3eacb47f	0.33731458
112	0x3d360938	0.044442385
113	0x3dc7f7fa	0.09764095
114	0x3e5339e4	0.20627552
115	0xbdaf5e83	-0.085629486
116	0x3ecdaa1c	0.40168846
117	0x3e57c26d	0.21070261
118	0x3c4a2e8e	0.012340201
119	0x3e056aa1	0.13028957
120	0xbe88fae2	-0.26753908
121	0xbf2401e1	-0.64065367
122	0xbe8718dd	-0.26386157
123	0xbe0243ff	-0.12721251
124	0xbeaa7e07	-0.33299276
125	0xbe57a5d4	-0.21059352
126	0x3e1de206	0.15418252
127	0x3eb463dc	0.35232437
128	0x3e7723a4	0.2413469
129	0xbf12322b	-0.571078
130	0xbebf006c	-0.3730501
131	0xbe100043	-0.140626
132	0x3e163453	0.14668398
133	0x3e81f788	0.25384164
134	0xbd85e8d1	-0.06538547
135	0xbeb107e8	-0.34576344
136	0x3d9b597c	0.07585427
137	0x3f81618c	1.0107894
138	0x3f2a3537	0.6648745
139	0x3f073675	0.5281747
140	0xbdb75451	-0.08951629
141	0xbe8f8daf	-0.28037784
142	0xbd202a3d	-0.03910278
143	0xbeeaf0f7	-0.45886967
144	0x3f4a40dc	0.7900522
145	0x3d826a53	0.06367936
146	0x3e63efdb	0.22259466
147	0xbec8faeb	-0.39253935
148	0xbec8fca1	-0.3925524
149	0x3e17a66f	0.14809583
150	0x3c4ce610	0.012506023
151	0x3d00ca8d	0.031443167
152	0x3e2bd54b	0.16780584
153	0x3e4f9899	0.20273055
154	0x3e4bacfd	0.19890209
155	0x3e50d8ed	0.2039525
156	0x3f2e9e1b	0.6821
157	0xbed2ba3a	-0.41157705
158	0xbe680984	-0.2265988
159	0x3ea7d64c	0.32780683
160	0xbda35022	-0.079742685
161	0xbf24bb09	-0.64347893
162	0xbec86fa1	-0.39147666
163	0xbd5121fa	-0.051057793
164	0xbf3cd705	-0.73765594
165	0xbe286388	-0.16444218
166	0xbdb84c75	-0.08998958
167	0xbf75f183	-0.9607164
168	0x3e66f598	0.22554624
169	0xbe83c53b	-0.25736412
170	0xbf224681	-0.6338883
171	0xbea6afef	-0.32556102
172	0x3e43a333	0.19105224
173	0xbb2e46b9	-0.0026592447
174	0xbe0e5450	-0.1389935
175	0xbe98e724	-0.29863846
176	0x3ebf859f	0.37406632
177	0x3f3f529e	0.7473544
178	0x3f337124	0.70094514
179	0x3e234db7	0.15947615
180	0xbec28911	-0.37995198
181	0x3cd844b5	0.02639995
182	0xbdb56823	-0.08857753
183	0xbf1d1d58	-0.613729
184	0x3f43dc95	0.76508456
185	0x3f3280d5	0.6972783
186	0x3e658725	0.22414835
187	0xbe4e33db	-0.20136969
188	0x3cd14490	0.025545388
189	0x3e08e76a	0.13369527
190	0x3e46af90	0.1940291
191	0x3e9e9108	0.30970025
192	0x3e34435d	0.17603822
193	0xbe292372	-0.16517428
194	0x3ec12381	0.377224
195	0x3f21bbb2	0.63177025
196	0x3f0cac95	0.5495084
197	0x3d492aac	0.04911296
198	0x3e076e0c	0.13225573
199	0x3ee1e1ae	0.44117492
200	0x3d81b063	0.06332471
201	0xbe8c102b	-0.27356085
202	0x3f2d31fc	0.67654395
203	0xbee800cc	-0.45313108
204	0x3ec6a8f8	0.38800788
205	0x3ea9f5de	0.33195394
206	0x3e90a819	0.28253248
207	0x3f2adf9b	0.66747445
208	0xbf3cb89d	-0.737192
209	0x3eb4406b	0.35205397
210	0xbe0a00d0	-0.13476872
211	0xbed92aa9	-0.4241536
212	0x3f023f0d	0.5087746
213	0xbee8c265	-0.4546081
214	0xbe4faadb	-0.2028002
215	0xbd37f4ff	-0.04491138
216	0x3e46720a	0.1937944
217	0x3e9ef514	0.31046355
218	0xbe47fc66	-0.19529876
219	0x3dcd7d75	0.10033695
220	0x3b064358	0.0020486917
221	0x3e66a758	0.22524774
222	0x3f321086	0.6955646
223	0xbec82867	-0.39093325
224	0xbd2ea11e	-0.042634122
225	0xbf320ce7	-0.6955094
226	0xbf03bf3f	-0.51463693
227	0xbc3e4498	-0.011613034
228	0x3f033d3a	0.512653
229	0xbf196f0b	-0.59935063
230	0x3ed7f5aa	0.42179614
231	0xbeeb044b	-0.45901713
232	0xbf9ec2b0	-1.2403164
233	0xbeedcf46	-0.464472
234	0xbdcb721c	-0.09933874
235	0xbf28946a	-0.6585146
236	0x3ea6f55b	0.32609066
237	0xbe4094de	-0.18806788
238	0x3f3a183b	0.7269322
239	0xbea7f0ae	-0.32800812
240	0x3e283d0a	0.16429535
241	0x3e44f11d	0.19232602
242	0x3e4cdb8d	0.20005627
243	0xbf010ef9	-0.5041347
244	0x3dcc41cc	0.09973487
245	0xbe688165	-0.2270561
246	0xbe4d0893	-0.20022802
247	0x3e7ba6b1	0.24575306
248	0xbf2cf017	-0.6755385
249	0x3e2499b2	0.16074255
250	0x3e1e3a20	0.1545186
251	0x3e07345a	0.13203564
252	0x3ebb2673	0.36552772
253	0xbc6ca40d	-0.01444341
254	0x3e9ee918	0.3103721
255	0x3e7700a8	0.24121344

bias f4 [40]
0	0x3f3eb3ff	0.744934
1	0xbe0ea4e9	-0.13930096
2	0xbdecc1b7	-0.11560386
3	0xbeb64d54	-0.35605872
4	0xbf430e42	-0.7619363
5	0xbeb855db	-0.36003003
6	0x3d252378	0.04031703
7	0xbef0cf79	-0.4703329
8	0xbed7610c	-0.42066228
9	0x3f297f6e	0.6621007
10	0x3f1c1a47	0.60977596
11	0xbf57700e	-0.84155357
12	0x3f3f5888	0.7474446
13	0xbd3afca0	-0.04565108
14	0xbeb201c2	-0.34766966
15	0x3f3108f3	0.6915428
16	0xbe786856	-0.24258551
17	0xbf1bcfd8	-0.6086402
18	0x3ef0dac9	0.4704192
19	0x3d8ec0b4	0.06970349
20	0x3e63467e	0.2219486
21	0x3dd4508c	0.103669256
22	0xbe6ec56c	-0.23317498
23	0x3ef6351f	0.48087403
24	0x3cc38a81	0.023869755
25	0x3e126372	0.14295748
26	0xbe9506ad	-0.29106656
27	0x3d7a1e18	0.061063856
28	0xbee9329b	-0.4554642
29	0xbf482189	-0.7817617
30	0x3cb3ce98	0.021949098
31	0xbee37bc9	-0.44430378
32	0xbf4b3c0f	-0.7938852
33	0xbf4dc9da	-0.80386126
34	0x3e86fbe2	0.26364046
35	0xbe5f2cd7	-0.21794449
36	0x3ed8af2a	0.4232114
37	0x3f175fa8	0.59130335
38	0xbe8c6598	-0.2742126
39	0xbef55f68	-0.47924352

weight f4 [1, 40]
0	0x3e8acfcd	0.27111664
1	0xbeb63eb8	-0.35594726
2	0x3df899d2	0.12138714
3	0xbf195944	-0.59901834
4	0xbf057511	-0.52131754
5	0xbe4a7035	-0.19769366
6	0xbe387db0	-0.18016696
7	0xbed3bd0f	-0.41355178
8	0xbf094b34	-0.53630376
9	0x3f195414	0.5989392
10	0x3f2013d2	0.62530243
11	0xbf2615fb	-0.6487729
12	0x3f384f10	0.7199564
13	0xbe8e0abc	-0.27742565
14	0xbf25a9c2	-0.64712155
15	0x3f1a43fe	0.6026
16	0xbee9701f	-0.45593354
17	0xbf1a85fc	-0.60360694
18	0x3f6985b8	0.91219664
19	0xbe1b57d3	-0.15170221
20	0xbe563452	-0.20918396
21	0x3dc28a38	0.094990194
22	0xbec82c60	-0.39096355
23	0x3f1c3f38	0.61033964
24	0x3e74bf0e	0.23901007
25	0x3d9e69e9	0.077350445
26	0xbe5c855a	-0.21535245
27	0x3e9b3a87	0.3031809
28	0xbecb87f2	-0.39752156
29	0xbef2023d	-0.47267333
30	0x3ea3a39a	0.31960756
31	0xbf24eb0c	-0.64421153
32	0xbef73a77	-0.48286793
33	0xbf200d57	-0.62520355
34	0x3eb5bc8a	0.35495406
35	0x3eea9ae2	0.4582129
36	0x3f467b2b	0.7753169
37	0x3ea82279	0.328388
38	0xbdbd2df3	-0.0923728
39	0xbf2bd055	-0.67114764

weight f4 [40, 2]
0	0x3f2386b3	0.6387741
1	0x3eca6949	0.3953345
2	0x3f0273e4	0.50958085
3	0x3fbcac55	1.4740092
4	0xbe12aaeb	-0.14323013
5	0xbe8d8592	-0.2764097
6	0x401b00ee	2.4219317
7	0x3f28c8ac	0.659312
8	0xbe77adda	-0.24187413
9	0xbf8aca92	-1.084307
10	0x3e4a1b39	0.19736947
11	0xbd6d48d6	-0.05793079
12	0xbfbfadea	-1.4974949
13	0xbe739e1b	-0.23790781
14	0x3e8b8415	0.27249208
15	0xbec9aed5	-0.393912
16	0x3ed21fa5	0.41039768
17	0x3da0b861	0.078476675
18	0x3cc1d134	0.023659326
19	0xbf2ad11d	-0.6672533
20	0xbedc9a56	-0.430865
21	0x3f1c8a38	0.61148405
22	0x3f169ef5	0.588363
23	0x3ef8efc2	0.4862042
24	0x3f075a90	0.5287256
25	0xbe77e0f9	-0.24206914
26	0xbf811e9b	-1.0087465
27	0xbfb260af	-1.3935755
28	0xbf2bb955	-0.6707967
29	0x3e8d4dcd	0.2759842
30	0x3e413a14	0.18869811
31	0x3df11540	0.11771631
32	0x3e81f060	0.25378704
33	0xbeaeeafb	-0.3416365
34	0xbf23c030	-0.6396513
35	0xbe124035	-0.14282306
36	0xbddf65fb	-0.10908123
37	0x3efbf609	0.49211147
38	0x3eb2a145	0.34888664
39	0x3c0207cc	0.007936429
40	0x3ee2a646	0.44267482
41	0xbac96800	-0.0015366077
42	0xbd2f7e20	-0.04284489
43	0x3ea28e7e	0.31749338
44	0x3fd9f711	1.7028524
45	0x3f167952	0.5877887
46	0x40090278	2.1407757
47	0x3f809e82	1.0048373
48	0x3f6eb1c9	0.9324003
49	0xbeb8c09e	-0.36084455
50	0x3d511b50	0.051051438
51	0x3e9d13a2	0.3067904
52	0xbe8c17e4	-0.27361977
53	0xbc8942c0	-0.016755462
54	0xbe082294	-0.1329444
55	0xbd6161d0	-0.055024922
56	0xbf38883b	-0.7208287
57	0xbfe57548	-1.7926416
58	0xbe156295	-0.14588387
59	0x3ebdf89a	0.3710373
60	0x3f9c4282	1.2207797
61	0x3e144c02	0.1448212
62	0x3f7f066a	0.9961916
63	0x3b4cb821	0.003123768
64	0x3fe3bca3	1.7791942
65	0x3e8d95d7	0.2765338
66	0xbfab3660	-1.3375969
67	0xbda77f55	-0.081785835
68	0x3f550ef1	0.83225924
69	0xbe9b00d2	-0.30274063
70	0xbf9613ea	-1.1724827
71	0x3f6cdd1d	0.9252489
72	0xc000c89c	-2.0122442
73	0xbf3c6451	-0.7359057
74	0xbe32c6a1	-0.17458583
75	0xbe67630f	-0.22596382
76	0xbebacf12	-0.36486107
77	0xbf1cfef2	-0.61326516
78	0x401358de	2.302299
79	0x3ef85110	0.48499346

bias f4 [40]
0	0x3f3a0cb0	0.7267561
1	0x3e8d07a0	0.2754488
2	0xbeff557e	-0.49869913
3	0x3f1155bd	0.5677145
4	0x3f41b5ae	0.75667846
5	0xbefb3757	-0.49065658
6	0x3efff57c	0.49991977
7	0xbf31fed1	-0.69529444
8	0xbf2dd657	-0.6790518
9	0xbf385e72	-0.7201911
10	0xbf987ce6	-1.1913116
11	0xbf878e04	-1.0590215
12	0x3f1890a9	0.59595734
13	0x3fa45144	1.28373
14	0x3e59e58e	0.21278974
15	0xbeae7d48	-0.34079957
16	0x3f541319	0.8284164
17	0x3f2bccea	0.6710955
18	0xbf4256d5	-0.75913745
19	0x3f3fcab7	0.74918693
20	0xbf16caa9	-0.58902985
21	0xbf0da746	-0.55333364
22	0x3e133d81	0.1437893
23	0x3eda8008	0.42675805
24	0x3f853a9e	1.0408514
25	0xbef73d4b	-0.4828895
26	0xbf0f542a	-0.559878
27	0xbf334bc1	-0.70037466
28	0x3fb69776	1.4264972
29	0x3fdf0893	1.7424492
30	0x3dad4937	0.0846123
31	0x3e08f5c2	0.13374999
32	0x3edfab69	0.43685463
33	0x3f480f7a	0.78148615
34	0x3e9c7b7f	0.3056297
35	0x3faba2c3	1.3409046
36	0x3f95f3f0	1.1715069
37	0xbef14c70	-0.4712863
38	0x3f8a36f7	1.0798024
39	0x3f1cea04	0.6129458

weight f4 [40, 40]
0	0x3f1ab47c	0.6043165
1	0x3f4d36f4	0.80161977
2	0xba2672b5	-0.000634949
3	0x3fbf9c53	1.4969581
4	0x3d4900ba	0.04907296
5	0xbd98dc0e	-0.07463847
6	0x3e59b024	0.21258599
7	0xbe8bc6e6	-0.27300185
8	0x3da75702	0.08170892
9	0xbe5ec2e0	-0.21754026
10	0x3ea6768c	0.3251232
11	0x3e9ce762	0.3064528
12	0x3eda53fb	0.42642197
13	0xbe4fb810	-0.20285058
14	0xbdbd656f	-0.092478625
15	0x3d4efdc0	0.050534964
16	0x3ef73e45	0.48289695
17	0x3f40c1ed	0.7529591
18	0xbe4280f9	-0.18994512
19	0x3f149ca0	0.5805149
20	0x3e080473	0.13282947
21	0x3bcbb760	0.0062169284
22	0x3f1fffa2	0.6249944
23	0x3c4ab909	0.012373217
24	0x3ee96333	0.45583495
25	0xbd42f40e	-0.04759603
26	0x3dc51236	0.09622614
27	0x3db071b8	0.0861544
28	0x3f96bd8c	1.1776595
29	0x3eb1b563	0.347087
30	0x3b0782b6	0.0020677275
31	0x3e646a3e	0.22306153
32	0x3e0d66bc	0.13808721
33	0x3f6629fe	0.89907825
34	0xbd0eacb7	-0.034832682
35	0x3fba2896	1.4543636
36	0xbe27bfaa	-0.16381708
37	0xbe4277a3	-0.1899095
38	0x3ea4316d	0.3206896
39	0x402c6545	2.693681
40	0x3f1dc0d7	0.61622375
41	0x3edb7b75	0.42867628
42	0xbddcac53	-0.10775056
43	0x3fd0dce4	1.631741
44	0x3f38baaa	0.72159827
45	0x3eda7263	0.42665395
46	0x3f8e8d42	1.1136858
47	0x3e425cac	0.18980664
48	0xbd877cb2	-0.066155806
49	0x3d97e093	0.07415881
50	0xbfb0f6d9	-1.3825332
51	0x3ef78f0d	0.48351327
52	0x3f592d14	0.8483441
53	0x3faa85aa	1.3322041
54	0x3fc0e34d	1.5069367
55	0x3d355e4c	0.04427938
56	0x3f14c4a6	0.5811256
57	0x3f939ea9	1.1532794
58	0x3e01049b	0.12599413
59	0x3f78ed90	0.9723749
60	0xbe08c486	-0.13356218
61	0x3c8777e0	0.016536653
62	0x3dd699a5	0.10478524
63	0x3f2079cb	0.6268584
64	0x3f4e944d	0.8069504
65	0x3d47d820	0.048790097
66	0xbde6e20e	-0.11273585
67	0xbdf21d53	-0.118219994
68	0x3ede16d5	0.43376794
69	0x3f3b5c1c	0.7318742
70	0xbf42a4c7	-0.7603268
71	0x3dc7cdd5	0.09756056
72	0x3f018e05	0.5060733
73	0x3f2c9ed2	0.6742984
74	0xbef2faf3	-0.47457084
75	0x3f204653	0.62607306
76	0x3f9a9ebc	1.2079692
77	0xbd7c32ad	-0.061571766
78	0x3f5d353b	0.8640935
79	0x3f4d4543	0.8018381
80	0xbfb7deb4	-1.4364839
81	0x3f405bc7	0.7514004
82	0x3e7badbb	0.24577992
83	0xc01152d6	-2.270681
84	0xc03b4db8	-2.9266186
85	0x3f7cde86	0.98777044
86	0xbeddd212	-0.43324333
87	0xbdaa49c5	-0.08314852
88	0xbdcc646e	-0.09980093
89	0xbe80fee7	-0.25194475
90	0x3f87693d	1.0578991
91	0xbf535023	-0.82544154
92	0xbf3e27ad	-0.7427929
93	0xbf68bac3	-0.90909976
94	0xbee6350b	-0.44962344
95	0xbd16efb2	-0.036849685
96	0xbf6a6ee0	-0.9157543
97	0xbf8e4761	-1.1115533
98	0xbe46ecf1	-0.19426323
99	0xbecc3cdb	-0.3989018
100	0x3b80b2a0	0.0039275438
101	0xbd88ecdf	-0.066858046
102	0xbf9e48c1	-1.2365953
103	0xc004cef9	-2.0751326
104	0xc010d2f9	-2.2628767
105	0x3d95e196	0.07318418
106	0x3c427960	0.011869758
107	0x3da5055a	0.08057661
108	0xbfa81dd1	-1.3134099
109	0xc035f1bd	-2.8428795
110	0xbf7fdb1b	-0.99943703
111	0xbf9dbc7e	-1.2323148
112	0xbf4aa996	-0.7916502
113	0x3e6b5edd	0.22985406
114	0xbf68c4f5	-0.9092553
115	0x3f0e941a	0.55694735
116	0xbe686a92	-0.22696903
117	0x3ebec286	0.37257785
118	0xbf5f0380	-0.87114716
119	0xbff97b4e	-1.9490755
120	0xbf83db41	-1.0301286
121	0xbeb2b1c9	-0.34901264
122	0xbdca6861	-0.0988319
123	0xbf65a602	-0.8970643
124	0xbe14ca26	-0.14530239
125	0xbf8a3de7	-1.0800141
126	0xbfa59110	-1.2934895
127	0xbd9e8976	-0.07741062
128	0x3dcadac7	0.0990501
129	0x3d140f0e	0.03614717
130	0x3f4db00f	0.8034677
131	0x3e90611e	0.28199095
132	0x3d4f44d8	0.050602764
133	0x3e754f9e	0.23956153
134	0xbe99f79c	-0.30071723
135	0xbc38a1b0	-0.011269018
136	0xbda5286c	-0.080643505
137	0xbea5bd9a	-0.32371217
138	0x3e17880c	0.14797992
139	0xbe9fe819	-0.31231764
140	0xbe08cd32	-0.13359526
141	0x3d67628c	0.056490466
142	0xbf0e916a	-0.55690634
143	0xbddd6080	-0.108094215
144	0xbd119c6d	-0.03554957
145	0x3ceaed00	0.028677464
146	0xbcb9c478	-0.022676691
147	0xbdd866d6	-0.105664894
148	0xbe237454	-0.15962344
149	0xbdfeabf3	-0.124351405
150	0x3c009a80	0.007849336
151	0x3e0e0051	0.13867308
152	0xbfa08dd4	-1.2543283
153	0x3e44215e	0.19153354
154	0x3e4c5ecc	0.19958037
155	0xbfa57d98	-1.2928953
156	0x3f05fbab	0.5233714
157	0xbea89558	-0.3292644
158	0xbdb6b3bc	-0.08921
159	0x3f763eeb	0.96189755
160	0xbd071bd5	-0.032985527
161	0xbc79e80c	-0.015253078
162	0xbc8dd013	-0.017311132
163	0xbfc9eba5	-1.5775038
164	0xbe8b788c	-0.27240407
165	0xbedcbdc9	-0.43113545
166	0xbeb379dd	-0.35053912
167	0xbea022e8	-0.3127663
168	0x3dfb4350	0.12268698
169	0x3d8f6596	0.07001798
170	0xbf65ba95	-0.89737827
171	0xbf866970	-1.0500927
172	0xbdae82fa	-0.085210755
173	0x3dde33d9	0.10849733
174	0x3e9ccf8b	0.30627093
175	0xbd680932	-0.056649394
176	0xbec0accb	-0.3763183
177	0xbf9b21b8	-1.2119665
178	0xbe67dc56	-0.22642645
179	0xbf1cc003	-0.61230487
180	0x3d807f56	0.062742874
181	0x3b10b340	0.0022079498
182	0xbe444c83	-0.19169812
183	0x3ecdb00a	0.4017337
184	0xbdcb03d0	-0.099128366
185	0x3d532550	0.051549256
186	0x3c2c1760	0.01050362
187	0x3dbfcafe	0.093648896
188	0xbfb03e03	-1.3768924
189	0xbe453380	-0.19257927
190	0xbf19cf95	-0.6008237
191	0xbe858180	-0.26075363
192	0xbe21de56	-0.1580747
193	0xbfc50d81	-1.5394746
194	0x3f23869b	0.63877267
195	0xbf9ca984	-1.2239232
196	0xbecda900	-0.40168
197	0xbe350fc8	-0.17681801
198	0xbe43079e	-0.19045874
199	0xbf459d20	-0.7719288
200	0xbfb7ed6b	-1.4369329
201	0xbf90b752	-1.1305945
202	0x3e700145	0.23437984
203	0xc01f690a	-2.490786
204	0xbe2985c2	-0.16554931
205	0xbfc0dd66	-1.5067565
206	0xbe88cb1d	-0.26717463
207	0x3e02d707	0.12777339
208	0x3dc90457	0.09815281
209	0x3e6ddbce	0.2322838
210	0xbfbac174	-1.4590287
211	0xbf79dbf2	-0.97601235
212	0xbf7ce475	-0.987861
213	0x3eb47d7d	0.3525199
214	0xbe7da21f	-0.24768876
215	0x3db1e92c	0.08687052
216	0xbf99eaa6	-1.2024734
217	0x3fa4c2a8	1.2871904
218	0x3e2711d9	0.16315402
219	0xbf9ca39e	-1.2237432
220	0xbc110870	-0.008852109
221	0xbd5ef994	-0.054437235
222	0xbfdfd8a4	-1.7487988
223	0xc092a33f	-4.5824275
224	0xbf94efaa	-1.163564
225	0x3d9db730	0.07700956
226	0x3d0f6ed0	0.03501779
227	0x3c706260	0.014671892
228	0x3f22c610	0.6358347
229	0xbf807044	-1.0034261
230	0xbff08575	-1.8790728
231	0xc01f837d	-2.4924004
232	0xbfe17ffd	-1.7617184
233	0xbf9ee1eb	-1.2412695
234	0xbfac11ea	-1.3442967
235	0xbfca73cd	-1.581659
236	0xbf171f3d	-0.5903204
237	0xbebc83ce	-0.3681931
238	0x3eef0c92	0.46689278
239	0xc06918cf	-3.6421392
240	0x3fa9e6fc	1.3273616
241	0xbf53f583	-0.82796496
242	0x3db5f278	0.08884138
243	0x3fb2e650	1.3976536
244	0x3e882358	0.26589465
245	0xbf536c88	-0.8258748
246	0x3e9e31f6	0.30897492
247	0xbe2e064d	-0.16994591
248	0x3d860b73	0.065451525
249	0x3cf391e3	0.02973265
250	0xbf2584ac	-0.64655566
251	0x3e263bd3	0.16233759
252	0xbeac1ef5	-0.33617368
253	0x3fb00f32	1.3754637
254	0x3f1abe28	0.60446405
255	0xbe05324b	-0.13007466

bias f4 [40]
0	0x3f1cfaf9	0.61320454
1	0x3f22e90c	0.6363685
2	0xbea790bc	-0.3272761
3	0xbe802021	-0.25024512
4	0xbed36f88	-0.4129603
5	0xbf734d95	-0.95040256
6	0xbe951f66	-0.29125518
7	0x3f765edf	0.9623851
8	0xbf456a10	-0.77114964
9	0xbec97d6e	-0.39353508
10	0xbebe3fa2	-0.37157923
11	0xbef04968	-0.46931005
12	0xbf656551	-0.8960772
13	0xbf11941c	-0.5686662
14	0x3f129e65	0.5727294
15	0xbf30255b	-0.68807
16	0xbed1f979	-0.41010645
17	0x3f40ddc1	0.7533837
18	0x3f0f8deb	0.56075925
19	0x3f762e38	0.96164274
20	0xbf97acdb	-1.1849626
21	0xbf5a358d	-0.8523796
22	0xbf1c4b47	-0.61052364
23	0xbe9006dc	-0.28130233
24	0x3f5b526d	0.85672647
25	0xbe9dddce	-0.30833286
26	0xbe81070b	-0.25200686
27	0x3ebc4678	0.36772513
28	0xbf44ecd0	-0.7692385
29	0xbfd265d3	-1.6437324
30	0x3f17d014	0.5930188
31	0xbe97947f	-0.2960548
32	0xbd189825	-0.03725447
33	0x3f2dc4c3	0.6787836
34	0x3e0c526d	0.13703318
35	0x3f092d0a	0.5358435
36	0x3ef9fa28	0.48823667
37	0x3e740e05	0.23833473
38	0xbe575302	-0.21027759
39	0x3e94fe2e	0.29100174
