[LC models]/min_func_LC_3x60_n_V=4.pt (torch_old, 207816 bytes, 42 tensors)

weight f4 [40, 2]
0	0x3e06ccc3	0.13164048
1	0xbe8c5a26	-0.27412528
2	0x3d1013c4	0.0351751
3	0xbfce06af	-1.609579
4	0x3e9a52fe	0.30141443
5	0xbf952667	-1.1652344
6	0x3f07e514	0.5308392
7	0xbf783a56	-0.96964014
8	0x3eb00c12	0.3438421
9	0x3ca987f7	0.020694716
10	0xbe929c58	-0.28634906
11	0xbc489660	-0.012242883
12	0x3f28ebbb	0.65984696
13	0xbf2738b4	-0.653209
14	0x3ecfbe49	0.40574864
15	0xbe415ef3	-0.18883877
16	0xbc425c19	-0.011862778
17	0x3ec0e9cc	0.37678373
18	0xbe8f7c1e	-0.2802438
19	0xbf14a4ca	-0.5806395
20	0xbe0e42ca	-0.13892666
21	0xbce29064	-0.027656741
22	0x3dd1bbbd	0.10240886
23	0xbe861846	-0.26190394
24	0xbeeb7fd8	-0.45995975
25	0x3aa214a8	0.0012365775
26	0xbeac8f5c	-0.33703125
27	0xbd041a46	-0.03225162
28	0xbeaff841	-0.3436909
29	0x3ea9faa9	0.3319905
30	0x3d73e8a5	0.05954804
31	0x3eb0e1fc	0.34547412
32	0x3e42564f	0.18978237
33	0xbdfe346b	-0.12412342
34	0x3f44711f	0.7673511
35	0xbf12b7e0	-0.5731182
36	0x3e358c26	0.17729244
37	0x3d8beb4e	0.0683199
38	0xbee8357f	-0.45353314
39	0xbc8ab88d	-0.016933704
40	0x3deb7055	0.11496035
41	0xbd3eadef	-0.046552595
42	0xbf468690	-0.77549076
43	0x3f1cfa55	0.61319476
44	0x3f99c2e8	1.2012606
45	0x3e7804be	0.24220559
46	0xbe9cfb36	-0.3066041
47	0x3e81affc	0.25329578
48	0x3e1c7066	0.15277252
49	0xbe6c3a58	-0.23069131
50	0xbdd4c174	-0.10388461
51	0xbe9498fa	-0.29022962
52	0xbd735b88	-0.059413463
53	0x3e9ced33	0.3064972
54	0xbee4bd46	-0.44675654
55	0xbe1287f0	-0.14309669
56	0xbefc4302	-0.49269873
57	0x3d12732f	0.03575438
58	0xbeb3eed7	-0.35143158
59	0x3ec63340	0.38710976
60	0x3f2b6dc2	0.6696435
61	0xbdffd96d	-0.124926426
62	0x3e643ee8	0.22289622
63	0xbe2b3785	-0.16720398
64	0xbe5d5e75	-0.21618064
65	0xbebe1e38	-0.3713243
66	0xbe317ca2	-0.173327
67	0x3d3e5c9b	0.046475034
68	0x3d73a431	0.059482757
69	0x3f08ca00	0.5343323
70	0x3f2cd803	0.6751711
71	0xbf23d885	-0.6400226
72	0x3e9e3e28	0.30906796
73	0xbe9db864	-0.3080474
74	0x3ea6f339	0.3260744
75	0xbe177092	-0.14789036
76	0x3d067a49	0.032831464
77	0xbf4a8208	-0.7910466
78	0xbeaf6045	-0.34253135
79	0x3e2ecc52	0.1707013

bias f4 [40]
0	0xbdc5f792	-0.09666361
1	0xbf7107de	-0.9415263
2	0xbfaa41ca	-1.3301327
3	0xbe43eabe	-0.19132516
4	0xbe870a59	-0.26375082
5	0x3d1b2439	0.03787634
6	0x3e535fb5	0.20641978
7	0x3e38d50d	0.18050022
8	0x3dbdb16c	0.09262356
9	0xbefe47e4	-0.49664223
10	0xbb51519c	-0.0031939512
11	0x3e16a71e	0.14712188
12	0xbe1a681c	-0.15078777
13	0xbec99a79	-0.39375666
14	0xbd420315	-0.04736622
15	0xbeae0887	-0.3399088
16	0xbe0789a1	-0.13236095
17	0xbad39f26	-0.0016145452
18	0xbe9319f6	-0.28730744
19	0xbda9b929	-0.082872696
20	0x3e127136	0.14300999
21	0xbf79d561	-0.97591215
22	0x3ea45d56	0.3210246
23	0xbe019f7c	-0.12658495
24	0xbe427fd5	-0.18994077
25	0x3ebe7310	0.3719716
26	0xbe1e379e	-0.15450904
27	0xbdb8aa13	-0.09016814
28	0xbe02d193	-0.12775259
29	0xbd1f4d98	-0.03889236
30	0x3d923a25	0.071399964
31	0xbd72008d	-0.059082557
32	0x3b728538	0.0037005674
33	0x3b337480	0.0027382672
34	0xbbf69b9d	-0.007525875
35	0x3e4f31d3	0.2023385
36	0x3e07e49b	0.132708
37	0x3dce05de	0.10059713
38	0xbf70d63e	-0.9407691
39	0xbb9d6773	-0.004803592

weight f4 [40, 40]
0	0x3e488897	0.19583355
1	0x3e0e5341	0.13898946
2	0x3f68b87b	0.90906495
3	0xbf109b60	-0.56487083
4	0x3f94ddeb	1.1630224
5	0xbe9202f4	-0.28517878
6	0x3ebf683c	0.37384212
7	0xbed32237	-0.4123704
8	0xbe92e4b2	-0.28690106
9	0x3f626477	0.8843455
10	0x3f532e35	0.8249238
11	0xbecd8a3c	-0.40144527
12	0x3f371ee3	0.71531504
13	0x3f77f097	0.96851486
14	0x3ef42992	0.47687966
15	0x3f81dc3b	1.0145334
16	0xbecfa08e	-0.4055218
17	0xbf88655e	-1.0655935
18	0x3e1527b3	0.14565925
19	0x3faad85c	1.3347278
20	0xbf09b5d7	-0.5379309
21	0xbe2d787e	-0.16940495
22	0xbf54c323	-0.83110255
23	0xbdf91426	-0.12162046
24	0x3f0621c6	0.52395284
25	0xbe06cee1	-0.13164856
26	0x3ebe5399	0.37173155
27	0x3f9637a5	1.1735731
28	0x3f918643	1.1369098
29	0xbdc49a29	-0.09599716
30	0xbf6f53b3	-0.9348709
31	0xbd71ad31	-0.05900306
32	0xbf56e34e	-0.8394059
33	0x3f33aa9c	0.70182204
34	0x3f1c2339	0.60991246
35	0x3e9e7dcd	0.30955353
36	0xbe8a7331	-0.2704101
37	0xbe199c17	-0.1500095
38	0xbdcef52e	-0.10105358
39	0x3d9ef5da	0.07761736
40	0xbbe71054	-0.007051507
41	0x3eb40a1e	0.3516397
42	0x3ea4056a	0.3203538
43	0xbe5b1167	-0.21393357
44	0xbf4687d6	-0.7755102
45	0x3ebec86f	0.37262294
46	0xbe32b612	-0.17452267
47	0x3eaabcf2	0.3334728
48	0xbe953e04	-0.29148877
49	0xbe39ce83	-0.18145184
50	0x3dbeb1ef	0.09311282
51	0x3f5e1d0e	0.86763084
52	0xbe9dbdd9	-0.30808905
53	0xbec333f8	-0.38125587
54	0x3da4ef76	0.08053486
55	0xbef8c005	-0.48584
56	0xbd73d74e	-0.059531502
57	0x3d4b3002	0.04960633
58	0xbeb24fdb	-0.3482655
59	0x3ef16a8e	0.47151607
60	0x3f90f525	1.1324812
61	0x3f327dae	0.6972302
62	0xbec05f15	-0.37572542
63	0xbeaae15d	-0.33375064
64	0xbda121df	-0.078677885
65	0xbeed7111	-0.46375325
66	0xbe464a02	-0.19364169
67	0x3e74321a	0.23847237
68	0x3f18acf7	0.59638923
69	0x3ecb65fe	0.3972625
70	0x3e9ae7a3	0.3025485
71	0x3e1bea6b	0.15226142
72	0x3ea57845	0.3231832
73	0x3ddcbf4b	0.10778674
74	0x3f0335e8	0.5125413
75	0xbeb43685	-0.35197845
76	0x3e802ed7	0.25035736
77	0x3e0edc4e	0.13951227
78	0x3ed6a7d0	0.41924906
79	0x3f376259	0.7163444
80	0x3ed5925a	0.4171322
81	0x3efd4d67	0.49473116
82	0x3f3efc4d	0.7460373
83	0x3d96f2b2	0.07370509
84	0x3f5139f9	0.81729084
85	0xbe7b9fc1	-0.2457266
86	0xbf20936d	-0.62724954
87	0xbe66f628	-0.22554839
88	0xbea9d08f	-0.3316693
89	0x3fefe378	1.8741293
90	0x3f110738	0.5665164
91	0xbf9a1490	-1.2037525
92	0x3f363763	0.71178263
93	0x3f9c9ccd	1.2235352
94	0xbfc00048	-1.5000086
95	0x3faea343	1.3643574
96	0xbe6d5259	-0.23175944
97	0xbe762f8f	-0.2404158
98	0x3e4db4af	0.20088457
99	0xbf230b64	-0.63689256
100	0xbf868c7c	-1.0511622
101	0x3f8f641c	1.1202426
102	0xbe96cdce	-0.29453892
103	0x3f697121	0.91188246
104	0x3f088549	0.53328377
105	0xbf0947b9	-0.53625065
106	0x3f9d781a	1.2302277
107	0xbf1ea654	-0.61972547
108	0xbef42d2a	-0.47690707
109	0xbf83f958	-1.0310469
110	0x3eb47171	0.352428
111	0xbe9748a1	-0.295476
112	0xbe7f8ce5	-0.24956091
113	0xbee4a1e3	-0.4465476
114	0xbde943b7	-0.11389869
115	0xbf71b4fc	-0.94416785
116	0x3d2bfd66	0.041989706
117	0x3d27276f	0.04080909
118	0x3f0419b6	0.5160173
119	0xbf8c89ea	-1.0979588
120	0xbd8f5a38	-0.0699963
121	0x3f602386	0.87554204
122	0x3ec7d34e	0.390284
123	0x3f8859f8	1.0652456
124	0x3f139f8b	0.5766532
125	0xbe0e8ec6	-0.13921651
126	0x3f676054	0.9038136
127	0x3ea12bdc	0.31478775
128	0xbead5470	-0.33853483
129	0xbe3fbe4b	-0.18724935
130	0xbcfb3152	-0.030663166
131	0x3f5c05af	0.8594617
132	0xbe82e82d	-0.2556776
133	0xbe359ccd	-0.17735596
134	0xbcebfef4	-0.028808095
135	0x3e098256	0.13428625
136	0xbc189388	-0.009312518
137	0x3fb795fc	1.4342647
138	0xbe86c537	-0.26322338
139	0x3ca91d61	0.020643892
140	0x3ee8637d	0.45388404
141	0xbde74f37	-0.11294406
142	0x3f6e4087	0.9306721
143	0xbee0714c	-0.4383644
144	0x3eb1cad6	0.34725064
145	0x3ecf2847	0.40460417
146	0xbf424d61	-0.7589932
147	0xbe0f2b21	-0.13981296
148	0xbe8a3218	-0.26991343
149	0xbf194e3a	-0.5988499
150	0x3f6d4160	0.9267788
151	0xbe26190f	-0.16220497
152	0xbdd7c020	-0.10534692
153	0xbe5b7eb6	-0.21435055
154	0x3e421c50	0.18956113
155	0x3f50ff5a	0.81639636
156	0x3f35aa2e	0.709628
157	0x3e9dc2da	0.30812722
158	0x3f3208b0	0.69544506
159	0xbea9d03d	-0.33166686
160	0xbe3791fd	-0.17926784
161	0x3f2d5356	0.67705286
162	0x3f8a47e4	1.0803189
163	0x3f61cf85	0.88207275
164	0x3f71db77	0.944755
165	0x3ce82789	0.028339164
166	0x3eb304b8	0.34964538
167	0x3ea2e6f4	0.31816828
168	0x3f1430a0	0.57886696
169	0x3e3a6216	0.1820148
170	0xbe7ec06f	-0.24878095
171	0xbcfdeb1e	-0.030995902
172	0xbf335cc9	-0.70063454
173	0xbf07dd54	-0.53072095
174	0xbf033304	-0.5124972
175	0xbe3f6e60	-0.18694448
176	0xbc56b351	-0.013104276
177	0x3fc8f79a	1.5700562
178	0xbf61d12a	-0.88209784
179	0xbeb1b1c0	-0.34705925
180	0xbd433017	-0.047653284
181	0xbf1403ec	-0.57818484
182	0x3fa63559	1.298503
183	0xbe1c009b	-0.15234606
184	0x3e6be230	0.23035502
185	0xbf135b7d	-0.57561475
186	0x3bb07cb1	0.005385958
187	0xbf55d93f	-0.83534616
188	0xbf4d94c8	-0.8030515
189	0x3db8e55f	0.09028124
190	0x3ef1e46e	0.4724459
191	0xbdea7509	-0.11448104
192	0xbf304dce	-0.6886872
193	0xbe0c0097	-0.136721
194	0x3e625faa	0.22106805
195	0x3e83969e	0.2570085
196	0x3ed5977c	0.41717136
197	0x3e8b1e1d	0.27171412
198	0x3ebb45e6	0.36576766
199	0xbea48352	-0.3213144
200	0x3e7dafae	0.24774048
201	0x3cc547e2	0.024082128
202	0x3f25a878	0.6471019
203	0x3eb3bdc6	0.35105723
204	0x3f91e647	1.13984
205	0xbe840601	-0.2578583
206	0x3f4528d8	0.7701545
207	0x3f634a79	0.8878551
208	0xbf201535	-0.6253236
209	0x3db6ab22	0.0891936
210	0x3ef4ae53	0.4778925
211	0x3f0d970c	0.55308604
212	0xbe586dfc	-0.21135706
213	0xbf09e32b	-0.53862256
214	0xbf9b5323	-1.2134746
215	0x3e1265ab	0.14296596
216	0x3d1c2c19	0.038127992
217	0x3e988423	0.29788312
218	0x3e8a21a5	0.26978794
219	0xbdfccaf8	-0.12343401
220	0x3eb9f8a6	0.36322516
221	0x3f0d4301	0.55180365
222	0x3e8b7e87	0.2724497
223	0xbebd2d7c	-0.36948764
224	0x3eb34376	0.35012406
225	0x3f4ed957	0.80800384
226	0xbed694aa	-0.41910297
227	0xbeb4581f	-0.3522348
228	0xbdf77aae	-0.12083946
229	0xbf52221b	-0.8208329
230	0x3f44e95b	0.7691857
231	0xb98ce4b1	-0.0002687327
232	0xbf48a0bd	-0.7837027
233	0xbd563a44	-0.05230166
234	0x3f18dc30	0.5971098
235	0x3f1a71c0	0.6032982
236	0x3f98a251	1.1924535
237	0x3f504abc	0.81364036
238	0xbe9399ab	-0.28828177
239	0xbf49f599	-0.7889038
240	0xbee2111e	-0.44153684
241	0x3e905c5a	0.2819546
242	0x3e9d865b	0.30766568
243	0xbf019dc4	-0.50631356
244	0xbf432436	-0.7622713
245	0x3ec44a28	0.38337827
246	0xbe731844	-0.23739725
247	0x3e875b2b	0.26436743
248	0xbe9d4117	-0.30713722
249	0xbe59a648	-0.21254838
250	0x3f001faa	0.50048316
251	0x3f64617a	0.8921124
252	0xbeabdb68	-0.3356583
253	0xbef7bee8	-0.48387837
254	0xbc2ab3ba	-0.010418827
255	0xbf02565b	-0.5091302

bias f4 [40]
0	0xbd64277b	-0.055701714
1	0xbe9d2a80	-0.30696487
2	0xbf95cfbc	-1.170402
3	0xbf9579b6	-1.1677768
4	0xbf0bb933	-0.54579467
5	0xbeb30e0e	-0.3497166
6	0xbed4d5d2	-0.41569382
7	0xbecf481e	-0.4048471
8	0x3e48c08f	0.19604705
9	0x3e892807	0.2678835
10	0xbf9af874	-1.2107072
11	0xbe1f7b4d	-0.1557438
12	0xbf3c4fe1	-0.73559386
13	0xbe9ca258	-0.30592608
14	0xbea4891c	-0.32135856
15	0xbea09289	-0.31361797
16	0xbefddbc9	-0.49581745
17	0xbf707362	-0.9392606
18	0x3ebfcacc	0.3745941
19	0x3d85de11	0.065364964
20	0xbddbdb5b	-0.10735198
21	0xbe9d37f7	-0.3070676
22	0xbed835b4	-0.42228472
23	0xbf1b12f1	-0.6057578
24	0xbe257f21	-0.16161777
25	0xbf0fa8cf	-0.56116956
26	0xbf369176	-0.71315706
27	0xbe0bfc82	-0.13670543
28	0xbefbb669	-0.49162605
29	0xbf752888	-0.9576497
30	0xbdd3c539	-0.103403516
31	0xbf568dd7	-0.8381018
32	0x3e81201c	0.2521981
33	0xbef48358	-0.47756457
34	0xbf7c8393	-0.98638266
35	0xbc84f352	-0.016229305
36	0xbf6555c8	-0.89584017
37	0xbe8fb75f	-0.2806959
38	0xbe10994b	-0.14120977
39	0xbf784cca	-0.9699217

weight f4 [4, 40]
0	0x3ecad384	0.396145
1	0x3e1adc6f	0.15123151
2	0x3e9843dc	0.29739273
3	0xbdccec98	-0.10006064
4	0xbe7b1d30	-0.24522853
5	0xbebe8071	-0.37207368
6	0x3d782308	0.060580283
7	0x3e0cc2b0	0.13746142
8	0xbe49d18d	-0.19708844
9	0xbec65be0	-0.3874197
10	0x3e6e801b	0.23291056
11	0x3ecb8c31	0.39755395
12	0x3f11163d	0.5667456
13	0xbd3e3f33	-0.04644699
14	0x3f0e0cf1	0.55488497
15	0xbe9b32a7	-0.30312082
16	0xbd965537	-0.07340472
17	0x3f505f1e	0.8139514
18	0xbf25bab7	-0.6473803
19	0x3d96b6ec	0.07359108
20	0xbedb2e26	-0.42808646
21	0x3eba4a35	0.3638474
22	0x3edc5100	0.43030548
23	0x3da072c1	0.078343876
24	0x3e368e50	0.17827725
25	0xbe06435a	-0.1311163
26	0x3e247278	0.16059291
27	0x3e5d58e0	0.21615934
28	0x3f1f4eb9	0.62229496
29	0xbe1b1063	-0.1514297
30	0xbf461598	-0.773767
31	0x3f02ac01	0.5104371
32	0xbf20d104	-0.6281893
33	0x3e089b25	0.13340433
34	0xbedacc8e	-0.42734188
35	0xbec82a98	-0.39094996
36	0x3ee33253	0.44374332
37	0x3df2173d	0.118208386
38	0x3e2d966c	0.16951913
39	0x3d5442fd	0.051821698
40	0xbfc01008	-1.5004892
41	0xbde20b56	-0.110373184
42	0xbed15da7	-0.40891764
43	0xbe401e8d	-0.18761654
44	0xbe4df087	-0.20111285
45	0xbe8b6bc1	-0.27230647
46	0xbdc8ed62	-0.09810902
47	0xbda025d5	-0.07819716
48	0xbf86b6b1	-1.0524503
49	0xbf431411	-0.76202494
50	0xbf0054fe	-0.5012969
51	0xbe0b1d44	-0.13585383
52	0x3dc22849	0.0948034
53	0x3e8721e1	0.26393035
54	0xbdfac771	-0.12245072
55	0xbf29c206	-0.6631168
56	0x3e3fbf22	0.18725255
57	0x3e80e6ab	0.25175986
58	0x3dc2f861	0.09520031
59	0xbdc0c3ee	-0.094123706
60	0x3ecff3f6	0.40615815
61	0x3e023844	0.12716776
62	0xbe058408	-0.13038647
63	0x3f3a74ec	0.7283466
64	0x3f743c22	0.95404255
65	0xbe820133	-0.2539154
66	0xbeff8878	-0.49908805
67	0x3e39022a	0.18067232
68	0x3e618e22	0.22026876
69	0xbf84498e	-1.0334947
70	0xbedd8003	-0.43261728
71	0xbe65e6c4	-0.22451311
72	0xbf6834b1	-0.907054
73	0x3e9b05b3	0.30277786
74	0xbf679e4f	-0.90475935
75	0xbf66d4fa	-0.90168726
76	0xbf2b38af	-0.6688337
77	0xbe2d12a8	-0.16901648
78	0x3eae0a06	0.33992022
79	0xbed40572	-0.41410404
80	0x3eeeb380	0.46621323
81	0x3eeb7e4f	0.45994803
82	0xbf27341d	-0.65313894
83	0x3f18ff7b	0.5976483
84	0x3f51ee82	0.8200456
85	0x3f293117	0.6609053
86	0x3ea429e7	0.3206322
87	0xbf2a7404	-0.66583276
88	0x3eadfd6b	0.33982405
89	0x3e91569f	0.283864
90	0xbf4dfc4e	-0.8046311
91	0xbe9c0495	-0.30472246
92	0xbf608de3	-0.877165
93	0x3e6e825f	0.2329192
94	0xbf4ff085	-0.8122638
95	0xbd5881ed	-0.052858282
96	0x3f968713	1.1759971
97	0xbf2161f3	-0.63040084
98	0x3fca30e5	1.5796171
99	0x3e9e3a17	0.30903694
100	0x3ed44f31	0.41466668
101	0xbf37427a	-0.7158581
102	0xbf1ff723	-0.62486476
103	0xbebea8cb	-0.37238154
104	0x3e491143	0.19635491
105	0x3f42c219	0.7607742
106	0xbf169827	-0.58825916
107	0x3ef54325	0.4790279
108	0xbf141e34	-0.57858586
109	0x3f835bea	1.0262425
110	0x3ecc4134	0.39893496
111	0xbf2a3a46	-0.6649517
112	0xbdc010aa	-0.093781784
113	0xbf6f79fa	-0.93545496
114	0x3f800161	1.0000421
115	0x3e8018ec	0.25019014
116	0xbee58335	-0.44826666
117	0xbcc97844	-0.02459348
118	0xbe47c710	-0.1950953
119	0x3f3b7ca6	0.73237073
120	0x3e831b0e	0.2560658
121	0xbe48aed0	-0.19597936
122	0x3efdb5e8	0.49552846
123	0x3ebb7dfd	0.3661956
124	0x3e9ee6d3	0.3103548
125	0xbe94bdf1	-0.29051164
126	0xbe9005af	-0.28129336
127	0x3f0d26ff	0.5513763
128	0xbc121de8	-0.008918263
129	0x3eb09548	0.34488893
130	0x3edd511b	0.4322594
131	0x3f7290a7	0.9475197
132	0x3e86baca	0.26314384
133	0xbef024a2	-0.4690295
134	0x3ef01c1d	0.4689645
135	0xbd5aceb6	-0.05341979
136	0xbe28a1e8	-0.16468012
137	0x3f03b430	0.5144682
138	0xbe533d3f	-0.20628832
139	0xbe1b748c	-0.15181178
140	0x3d153453	0.036426853
141	0x3eb2f406	0.349518
142	0x3f16785b	0.587774
143	0x3e52781c	0.2055363
144	0x3e9e8505	0.3096086
145	0xbd03deff	-0.032195088
146	0x3e144b89	0.1448194
147	0x3e8d0ca3	0.27548704
148	0x3f4752d2	0.7786075
149	0x3f0b7e4c	0.5448959
150	0x3bdfa252	0.00682477
151	0x3f15cecc	0.5851867
152	0x3ee1f305	0.44130722
153	0x3d8b2094	0.06793323
154	0x3f2ae77d	0.66759473
155	0xbcd204b8	-0.025637016
156	0x3e87a51a	0.2649315
157	0x3ec69818	0.38787913
158	0x3f0b443a	0.5440098
159	0x3ea6cc3d	0.32577696

bias f4 [4]
0	0xbebfbe84	-0.3745004
1	0xbf1e07e9	-0.6173082
2	0x3eb4fcd5	0.35349146
3	0xbf405e1e	-0.7514361

weight f4 [60, 2]
0	0xbe266018	-0.16247594
1	0xbd6c9220	-0.057756543
2	0xbf36036c	-0.7109897
3	0x4037a1be	2.869247
4	0xbf127740	-0.5721321
5	0xbf6405e2	-0.89071476
6	0xbc69546d	-0.01424132
7	0xbf5f8669	-0.8731447
8	0xbe8dff17	-0.2773368
9	0x3e8d6e84	0.2762338
10	0x3b8c3395	0.00427861
11	0x3f820db2	1.016043
12	0x3d897708	0.067121565
13	0x3ca04340	0.019563317
14	0xbf19e402	-0.6011354
15	0x3d9151fe	0.07095717
16	0xbf449b65	-0.76799613
17	0xbfd15a13	-1.6355613
18	0xbed1d141	-0.4097996
19	0x3fd6ab3a	1.6771004
20	0x3f7e03dd	0.99224645
21	0x3f8e0f71	1.1098462
22	0xbeea2de0	-0.45738125
23	0x3f9e8b1a	1.23862
24	0x3f034abb	0.51285905
25	0xbf323a25	-0.6961997
26	0xbed9caa1	-0.42537406
27	0x3e244f78	0.1604594
28	0xbeddfd96	-0.43357533
29	0x3fe322f2	1.774504
30	0x3e0cee34	0.13762742
31	0x3d73ae14	0.059492186
32	0x3f490be5	0.78533775
33	0x3ccfed83	0.02538181
34	0xbd7a136f	-0.06105369
35	0xbe5c6d20	-0.21526003
36	0x3f9cc0cc	1.2246337
37	0xbf2aaf2a	-0.6667353
38	0xbd6cda50	-0.057825387
39	0xbde70dc8	-0.112819254
40	0xbe893cb6	-0.2680413
41	0xbe7d1ddc	-0.24718422
42	0x3e09e697	0.1346687
43	0xbfd1dc78	-1.6395407
44	0xbd9421c0	-0.07233
45	0xbf04fabf	-0.5194511
46	0xbf0d0206	-0.5508121
47	0x401daac6	2.4635482
48	0x3dc83ce1	0.09777237
49	0x3ee41ec1	0.44554713
50	0xbe5600dd	-0.20898767
51	0x3ee20af4	0.44148982
52	0xbc0bb0d9	-0.0085260505
53	0xbe2e8413	-0.1704257
54	0xbf239f36	-0.6391481
55	0xbfb9b456	-1.4508159
56	0xbf06674f	-0.52501386
57	0x3d8dcd48	0.0692392
58	0xbed196be	-0.4093532
59	0x3f6892d9	0.9084907
60	0xbf7577d0	-0.95885944
61	0x3fa541e5	1.2910734
62	0x3f183428	0.59454584
63	0x3ed0588f	0.40692565
64	0xbe716702	-0.2357445
65	0xbe88dc42	-0.26730543
66	0x3c126b8c	0.008936774
67	0xbf2ccff6	-0.67504823
68	0x3d0514fd	0.03249072
69	0xbefc6de9	-0.49302605
70	0xbeca40d8	-0.39502597
71	0xbf23a174	-0.6391823
72	0x3e9d9642	0.307787
73	0xbe832294	-0.2561232
74	0xbdc88c10	-0.0979234
75	0x3c350340	0.011048138
76	0x3e81d23e	0.25355715
77	0x3d95dc78	0.07317442
78	0x3f063815	0.52429324
79	0x3ecc182a	0.39862186
80	0xbc867e27	-0.016417576
81	0xbf8c3bb8	-1.0955725
82	0x3f111f67	0.5668854
83	0xbcbd95c7	-0.023142708
84	0xbc499160	-0.0123027265
85	0x3e336aa8	0.17521155
86	0xbe3da3ee	-0.18519565
87	0xbfb2c04c	-1.3964934
88	0x3d26c531	0.0407154
89	0x3ea626e9	0.3245156
90	0x3ef10ab3	0.47078475
91	0xbeed70af	-0.46375033
92	0x3d7bacc0	0.061444044
93	0xbd46b470	-0.048511922
94	0x3ec2b05a	0.3802517
95	0xbe88e148	-0.26734376
96	0x3e71cab8	0.23612487
97	0x3e58ade6	0.21160087
98	0xbe08cbd2	-0.13359001
99	0xbf97f0a0	-1.1870308
100	0x3eb0b4b5	0.3451287
101	0xbd4d5179	-0.050126527
102	0x3c14a1e1	0.009071798
103	0xbfbd36b7	-1.4782323
104	0x3f0799f7	0.52969307
105	0x3f8705e2	1.054867
106	0xbe0cb3e6	-0.13740501
107	0xbfd8cd61	-1.6937677
108	0xbc67c802	-0.014146807
109	0xbef1c15f	-0.47217843
110	0xbd0d2e7c	-0.03446816
111	0xbdb9930a	-0.090612486
112	0xbf007910	-0.50184727
113	0xbfbd4b8c	-1.478868
114	0x3f0bc793	0.546014
115	0xbf87ef49	-1.0619899
116	0xbc3a1038	-0.011356406
117	0x3ee71beb	0.45138487
118	0xbe51b2f6	-0.20478424
119	0xbffb8799	-1.9650756

bias f4 [60]
0	0xbe8ba14f	-0.27271506
1	0x3f3f0a86	0.7462543
2	0xbeae587a	-0.34051877
3	0x3fe15472	1.7603896
4	0x3fb9e231	1.4522153
5	0xbf238349	-0.638722
6	0xbf0f5deb	-0.5600268
7	0xbf2bb219	-0.6706863
8	0x3eaf1cfe	0.34201807
9	0x3f46a82e	0.7760037
10	0xbef8f147	-0.4862158
11	0x3f471f71	0.7778235
12	0x3f801047	1.0004967
13	0xbf32e5f8	-0.69882154
14	0x3f3078ae	0.6893414
15	0xbf4d13d1	-0.8010836
16	0xbf5485ad	-0.83016473
17	0x3faa38b2	1.3298552
18	0x3e9d9681	0.30778888
19	0xbef13aa6	-0.47115058
20	0xbf5b0fd8	-0.8557105
21	0x3f534c56	0.82538354
22	0x3fc33a7d	1.5252224
23	0x3f8f1b82	1.118027
24	0x3f651ba8	0.89495325
25	0xbf24141e	-0.64093196
26	0x3f841359	1.0318404
27	0x3e4fb04a	0.20282093
28	0xbf224d86	-0.6339954
29	0x3fb6e233	1.428778
30	0x3f1497f4	0.5804436
31	0xbf9ceaed	-1.2259194
32	0xbf1496ed	-0.58042794
33	0x3fa0ecb3	1.2572235
34	0x3f2cad42	0.6745187
35	0x3f223f6a	0.6337801
36	0xbf21e547	-0.63240474
37	0xbe9977ab	-0.29974112
38	0xbea55bc1	-0.32296565
39	0xbf737752	-0.95103943
40	0x3f35d8d9	0.7103401
41	0x3e5864c8	0.21132195
42	0xbf52ab03	-0.82292193
43	0xbf19895f	-0.59975237
44	0xbefd8328	-0.49514127
45	0xbca5fc27	-0.020261837
46	0xbf0f199b	-0.55898446
47	0x3e06071a	0.13088647
48	0xbf05b11f	-0.5222339
49	0x3f4f7591	0.8103877
50	0xbf061414	-0.52374387
51	0x3fae7da9	1.3632098
52	0xbead1eb9	-0.33812502
53	0x3f256c74	0.6461861
54	0xbf27097e	-0.6524886
55	0x3fe517da	1.7897904
56	0xbe404d5f	-0.18779515
57	0x3f6807df	0.9063701
58	0xbf07d5ef	-0.5306081
59	0x3f3c87d2	0.73644745

weight f4 [60, 60]
0	0xbd02bc88	-0.03191808
1	0x3d9c926c	0.07645115
2	0x3dc33d64	0.09533194
3	0x3f06ea91	0.5270167
4	0x3fa0394c	1.2517486
5	0x3f84b3e4	1.0367398
6	0xbd6a88dc	-0.057259426
7	0x3d307876	0.04308363
8	0x3f03b3f3	0.51446456
9	0xbd4f9fa7	-0.050689366
10	0x3ef468fc	0.47736347
11	0x3daa286f	0.08308493
12	0xbd6bb67a	-0.05754707
13	0xbdcd8a0c	-0.10036096
14	0x3eec9d7f	0.4621391
15	0x3da31472	0.07962884
16	0x3f490b30	0.78532696
17	0x3f10dda8	0.5658822
18	0x3e98f50e	0.29874462
19	0x3cafcb18	0.021459147
20	0x3d4dfc06	0.050289176
21	0x3ec7707f	0.38953015
22	0x3e6455ab	0.22298305
23	0x3e88da03	0.2672883
24	0x3f645892	0.8919765
25	0x3da3401f	0.079712145
26	0x3e77345a	0.24141064
27	0x3edabc3f	0.42721745
28	0xbd3745ba	-0.04474423
29	0x3f20bbbe	0.6278647
30	0x3f07975c	0.5296533
31	0x3f48c9f2	0.78433144
32	0x3d0f83cc	0.0350378
33	0x3e151aad	0.14560957
34	0x3ebb0050	0.36523676
35	0x3e3f19af	0.18662141
36	0xbd37a0ac	-0.044830963
37	0x3da9666e	0.0827149
38	0xbdf6e9d7	-0.1205632
39	0xbe9ce57b	-0.3064383
40	0x3e1ee17a	0.155157
41	0xbe4ad94f	-0.19809459
42	0x3e17bf30	0.14819026
43	0x3d3e9dd5	0.04653724
44	0x3add83a4	0.0016900194
45	0x3e69f789	0.22848333
46	0xbc8ccc80	-0.017187357
47	0xbe8f3b17	-0.2797477
48	0x3ec19a54	0.37813056
49	0x3f156b7a	0.5836712
50	0x3e43894c	0.19095343
51	0x3fa75c4d	1.3075043
52	0x3f398a6f	0.7247686
53	0x3f2f650c	0.6851356
54	0x3e8eae93	0.27867565
55	0x3e9a7673	0.30168495
56	0x3f0b1e0d	0.5434273
57	0x3f4e5aea	0.80607474
58	0x3dab7628	0.08372146
59	0x3eea9875	0.4581944
60	0xbc97e098	-0.018539712
61	0xbfac6b6e	-1.3470285
62	0x3f571202	0.8401185
63	0xbec0bda4	-0.37644684
64	0xbfa34402	-1.2755129
65	0xbf4aa42f	-0.79156774
66	0x3e03c3a7	0.12867604
67	0x3e4403ae	0.19142029
68	0x3f03d17d	0.5149153
69	0xbf90c2bd	-1.130943
70	0xbf20be28	-0.62790155
71	0xbfa2d35d	-1.2720753
72	0xbe95a9f1	-0.29231218
73	0xbd083696	-0.033255182
74	0xbfa576fc	-1.2926936
75	0x3d437318	0.047717184
76	0xbea43686	-0.32072848
77	0xbf3e0cce	-0.7423829
78	0x3dd9395b	0.10606643
79	0x3db9fdb2	0.09081592
80	0x3f7e1b97	0.9926085
81	0x3e914b63	0.28377828
82	0xbe873437	-0.26407024
83	0xbfe9ecdb	-1.8275408
84	0xbf3af948	-0.73036623
85	0xbe4c0820	-0.19924974
86	0xbf2e38e7	-0.68055576
87	0x3f20a2a7	0.6274819
88	0xbd77408e	-0.0603643
89	0xbf9ad3ae	-1.209585
90	0xbed26b65	-0.4109756
91	0xbf4bd838	-0.796268
92	0xbdc6a4a0	-0.096993685
93	0xbec1f966	-0.37885588
94	0xbe67bfef	-0.2263181
95	0x3dbaaf12	0.09115423
96	0x3c8b4fb0	0.017005771
97	0xbcae70a8	-0.021293953
98	0x3d9074ca	0.07053526
99	0xbe834bd1	-0.2564378
100	0x3f28d2c3	0.65946597
101	0xbe96fea2	-0.29491144
102	0xbe48b531	-0.19600369
103	0x3f939027	1.1528367
104	0xbf49c318	-0.78813314
105	0x3e4f89bb	0.20267384
106	0x3dbaaea8	0.09115344
107	0xbed530bf	-0.41638753
108	0x3c7f47c2	0.015581073
109	0x3ef5ed3c	0.48032558
110	0x3dcd3348	0.10019547
111	0xbe82b5cc	-0.25529325
112	0xbf62798e	-0.8846673
113	0x3e8e0151	0.2773538
114	0x3f5b737c	0.8572309
115	0xbf36a2f4	-0.71342397
116	0x3da2e4fc	0.079538316
117	0xbe4177d7	-0.18893372
118	0xbd498416	-0.049198233
119	0x3e48e552	0.19618729
120	0xbde10de7	-0.1098898
121	0xbe5b6835	-0.2142647
122	0xbe28143d	-0.1641397
123	0xbeaa3220	-0.33241367
124	0xbe470371	-0.19434907
125	0x3d2facc8	0.042889386
126	0x3d919ac2	0.07109596
127	0xbe306aa8	-0.17228186
128	0x3da80c17	0.08205431
129	0xbe0de7fa	-0.13858023
130	0xbeadbc96	-0.33932942
131	0xbe99d35c	-0.30044067
132	0xbe9da9d4	-0.3079363
133	0xbd600244	-0.05468966
134	0xbed5edf7	-0.41783115
135	0xbee050fd	-0.4381179
136	0xbbe49098	-0.0069752447
137	0xbeafbb0a	-0.34322387
138	0xbddae1f6	-0.1068763
139	0x3e035be9	0.1282803
140	0xbee13c98	-0.43991542
141	0xbf2204ea	-0.6328875
142	0xbe5e490a	-0.2170755
143	0xbf084280	-0.5322647
144	0xbf19c18b	-0.6006095
145	0xbace9f42	-0.0015764015
146	0xbe89b8c7	-0.26898786
147	0x3cbfe86d	0.023426259
148	0x3c56d120	0.013111383
149	0xbf1c0a95	-0.60953647
150	0xbf44befc	-0.7685392
151	0x3dfc4143	0.12317135
152	0x3c973f40	0.018462777
153	0xbe96c355	-0.29445902
154	0xbeb4c1f9	-0.3530424
155	0xbe6aab40	-0.22916889
156	0xbdad4816	-0.08461015
157	0xbd8cd848	-0.0687719
158	0xbd42f49e	-0.047596566
159	0xbe7285c1	-0.23683836
160	0xbe1a8da1	-0.1509309
161	0xbf099439	-0.53741795
162	0xbe453d0b	-0.19261567
163	0xbe8fd51b	-0.28092274
164	0xbe5782c8	-0.21045983
165	0xbe23224d	-0.15931053
166	0xbd813baf	-0.06310212
167	0xbe63544b	-0.22200124
168	0x3c52b23b	0.012859876
169	0xbf23460a	-0.63778746
170	0x3e215470	0.15754867
171	0xbefa23c1	-0.48855403
172	0xbfaa0418	-1.3282499
173	0xbd3dc2c9	-0.04632834
174	0xbd352f9b	-0.044234853
175	0xbe48ffe4	-0.19628865
176	0x3db51faf	0.08843934
177	0xbeaafb86	-0.33395022
178	0xbe5c8cc0	-0.21538067
179	0xbd35b337	-0.044360366
180	0xbdbbb338	-0.09165043
181	0x3fd08a3e	1.6292188
182	0x3f149ec7	0.58054775
183	0xbd2bb055	-0.04191621
184	0x3e7eb814	0.24874908
185	0x3ea81a37	0.328325
186	0x3de8a1aa	0.1135896
187	0x3f130169	0.57424027
188	0xbf1f54d3	-0.62238806
189	0x3f565d94	0.8373654
190	0x3f776aae	0.96647155
191	0x3f5c1072	0.85962594
192	0xbe29ae26	-0.16570339
193	0x3dda0688	0.10645777
194	0x3f4bea7f	0.7965469
195	0x3eb39e3e	0.35081667
196	0x3e241137	0.16022192
197	0xbdf5b592	-0.119975224
198	0xbe6c5730	-0.23080134
199	0xbdb3abe8	-0.08773023
200	0x3ecd49f9	0.400955
201	0xbe997144	-0.29969227
202	0xbc0e544c	-0.00868709
203	0x3ff72e1c	1.9310946
204	0x3e6f4617	0.23366581
205	0xbeeb284e	-0.45929188
206	0xbe3457cd	-0.17611618
207	0xbf11f0e9	-0.57008225
208	0xbd3b24ac	-0.04568927
209	0x3f3597a4	0.7093451
210	0x3f69975a	0.9124657
211	0x3f319d59	0.6938072
212	0xbd67acbc	-0.056561217
213	0xbd99913d	-0.07498405
214	0x3d127ee3	0.03576554
215	0xbda518db	-0.080613814
216	0xbb90c110	-0.004417546
217	0x3d1d6860	0.038429618
218	0x3d01b4e8	0.031666666
219	0xbe477382	-0.19477656
220	0xbe66940b	-0.22517411
221	0x3df2f977	0.11863988
222	0xbe21309b	-0.15741198
223	0x3e56f74d	0.20992775
224	0x3ef60681	0.48051837
225	0xbe5404d1	-0.20704962
226	0x3d929046	0.07156424
227	0x3d948b2d	0.07253108
228	0xbdf292f7	-0.118444376
229	0x3e251aaf	0.1612346
230	0xbe070fe4	-0.13189656
231	0x3e96fb73	0.29488716
232	0x3fd23eac	1.6425376
233	0xbeccef0c	-0.40026128
234	0xbeddd142	-0.43323714
235	0xbd382986	-0.044961475
236	0xbe81b82c	-0.25335824
237	0xbea58fc0	-0.32336235
238	0xbe862722	-0.2620173
239	0xbef5e97c	-0.48029697
240	0xbd8bada8	-0.06820232
241	0x3e7ca5f9	0.24672689
242	0x3e6dae63	0.23211055
243	0x3eae3529	0.34024933
244	0x3f1f3d38	0.6220279
245	0x3e8146da	0.25249368
246	0x3bd900a0	0.006622389
247	0xbd1f1ed7	-0.03884777
248	0x3f089fa9	0.5336862
249	0x3edea45f	0.4348478
250	0x3ed4c5f6	0.41557282
251	0x3ea75dbc	0.326887
252	0x3eb29731	0.34880975
253	0xbbf43740	-0.0074528754
254	0x3eef2f44	0.46715748
255	0x3ea30680	0.31840897

bias f4 [60]
0	0x3e3b73ae	0.18305847
1	0xbee2b5c0	-0.4427929
2	0xbe0172fa	-0.12641516
3	0x3d6402ac	0.05566661
4	0x3ee66b27	0.45003626
5	0xbf0d7a3c	-0.5526464
6	0xbed6a493	-0.41922435
7	0xbf15424d	-0.5830429
8	0x3f3ed177	0.7453837
9	0xbf10ccd1	-0.56562525
10	0xbf315799	-0.6927429
11	0xbf11f3ea	-0.5701281
12	0x3f5bc30f	0.8584451
13	0xbee8565d	-0.4537839
14	0xbf210e19	-0.62912136
15	0xbedb394c	-0.42817152
16	0x3f6c35e2	0.9226972
17	0xbebf1e14	-0.37327635
18	0xbf05d353	-0.5227558
19	0xbeac293e	-0.33625215
20	0x3f5c8c65	0.86151725
21	0xbf3119da	-0.6918007
22	0xbf25188c	-0.6449058
23	0xbe8d6cd1	-0.27622083
24	0xbebab0be	-0.3646297
25	0xbf0a714e	-0.5407914
26	0x3ea6a284	0.32545865
27	0xbea77d38	-0.32712722
28	0xbef89466	-0.4855072
29	0xbf325bf6	-0.6967157
30	0x3ef019e6	0.4689476
31	0xbebb6381	-0.36599353
32	0xbf328c5f	-0.6974544
33	0x3edb1a57	0.42793533
34	0xbee53da5	-0.44773594
35	0xbef486a0	-0.4775896
36	0x3ed1d4d8	0.409827
37	0xbeb0f072	-0.34558445
38	0x3ea9a471	0.3313327
39	0xbedb1218	-0.42787242
40	0x3e8f34c6	0.2796995
41	0xbee00719	-0.43755415
42	0xbe8e9c6a	-0.2785371
43	0x3f08b583	0.53401965
44	0x3f1417a4	0.5784857
45	0xbf0f7140	-0.5603218
46	0x3ed92be2	0.42416292
47	0xbf0150eb	-0.50514096
48	0x3ecec0da	0.4038151
49	0x3f126cca	0.5719725
50	0x3f288ea2	0.6584264
51	0xbf497eb4	-0.7870896
52	0x3f08faa4	0.5350745
53	0x3eb81822	0.35955912
54	0xbefa0dce	-0.48838657
55	0xbed743b8	-0.42043853
56	0xbed65a17	-0.41865608
57	0xbf1d5066	-0.61450803
58	0x3f0ab65e	0.5418452
59	0xbf063280	-0.52420807

weight f4 [60, 60]
0	0xbe47480c	-0.19461077
1	0x3d52387e	0.051323406
2	0x3ed422aa	0.41432697
3	0xbec8d01e	-0.3922128
4	0xbeb19e8e	-0.3469128
5	0x3f084824	0.5323508
6	0x3e145981	0.14487268
7	0x3eb56252	0.35426575
8	0xbe366b0f	-0.17814277
9	0x3ec63f7c	0.3872031
10	0x3ed28ef2	0.41124684
11	0xbdcc1752	-0.099653855
12	0xbe62d2dd	-0.2215075
13	0x3eac1e7a	0.33617002
14	0x3eda5d27	0.42649195
15	0x3eb55854	0.35418952
16	0x3dc15261	0.09439541
17	0x3ec60fb1	0.38683847
18	0x3e9a0482	0.30081564
19	0x3ee15f70	0.44018126
20	0xbde0102b	-0.10940584
21	0x3e59bd26	0.2126356
22	0x3e1eab16	0.15494952
23	0x3e95553e	0.29166597
24	0x3e473053	0.19452028
25	0x3f022dfe	0.5085143
26	0xbe83dc5f	-0.25754067
27	0x3f5c5892	0.8607265
28	0x3ec85877	0.39129993
29	0xbe991374	-0.29897654
30	0xbe9f9b33	-0.31173095
31	0x3eb4550c	0.35221136
32	0xbdc6ae37	-0.097011976
33	0xbf1f29a6	-0.62172925
34	0x3eaf2248	0.34205842
35	0x3e9a1fb4	0.30102313
36	0xbe97a3e9	-0.2961724
37	0x3ea39167	0.3194687
38	0xbf081c18	-0.5316787
39	0xbef53c0c	-0.47897375
40	0xbe9ea9ce	-0.30988926
41	0x3ea2841f	0.31741425
42	0x3eb5cda8	0.35508466
43	0x3ee708f5	0.4512402
44	0xbeae4e3e	-0.3404407
45	0x3eaf165b	0.34196743
46	0xbea4aff5	-0.32165495
47	0x3e847d40	0.25876808
48	0xbf14d4b1	-0.5813704
49	0xbe935258	-0.2877376
50	0x3dc24bf2	0.09487142
51	0x3e7fc652	0.24977997
52	0xbef11470	-0.47085905
53	0xbe560334	-0.2089966
54	0x3ecfd560	0.4059248
55	0x3ef235a9	0.47306564
56	0x3e8bfea1	0.27342704
57	0x3e9b27b4	0.3030373
58	0xbeccdccf	-0.40012214
59	0x3ea730d9	0.32654455
60	0x3e9c6d35	0.30552068
61	0x3f26fb4d	0.65227205
62	0xbe9dec44	-0.3084432
63	0x3e8bb0ec	0.27283418
64	0x3ed5e850	0.41778803
65	0xbedcc1cc	-0.43116605
66	0x3ea717d2	0.3263536
67	0xbebb711b	-0.3660973
68	0x3ee50aef	0.44734904
69	0xbe6567f6	-0.22402939
70	0xbecd3816	-0.40081853
71	0xbe93176e	-0.28728813
72	0xbe276a5e	-0.1634917
73	0xbf008f84	-0.5021899
74	0xbf07d0d0	-0.53053
75	0xbef01d88	-0.4689753
76	0xbedafa08	-0.42768884
77	0xbefa7f62	-0.4892531
78	0xbee0fdb6	-0.43943566
79	0xbeea39f3	-0.45747337
80	0x3e94bdd0	0.29051065
81	0x3d4535ee	0.048147134
82	0x3dc50c5d	0.09621499
83	0xbf011e3d	-0.50436765
84	0x3ef18fb9	0.47179964
85	0xbf1589aa	-0.58413184
86	0x3ea32fd8	0.3187244
87	0xbecf02e8	-0.40431905
88	0xbf21c2f3	-0.63188094
89	0xbd0eadd3	-0.03483374
90	0x3ed82edb	0.42223248
91	0xbf1a23b6	-0.6021074
92	0xbec6dc86	-0.3884012
93	0x3ed5dfab	0.41772208
94	0xbf365b7d	-0.7123335
95	0xbe02bf45	-0.12768276
96	0x3eeb353c	0.45939052
97	0xbed5ab8f	-0.4173245
98	0x3e5e5f77	0.21716104
99	0x3e9d0983	0.3067132
100	0x3e1429dc	0.14469093
101	0xbe8d4786	-0.2759363
102	0xbecacf00	-0.39611053
103	0xbdbaadd6	-0.09115188
104	0x3e434a38	0.19071281
105	0xbede30c3	-0.43396577
106	0x3f036fec	0.51342654
107	0xbf0cdbec	-0.55023074
108	0x3ed9bcc0	0.42526817
109	0x3d8606d3	0.0654427
110	0x3e947f93	0.2900358
111	0xbef1b0c1	-0.47205165
112	0x3e7cc23d	0.24683471
113	0xbe81cce5	-0.25351635
114	0xbec463a5	-0.38357273
115	0xbf1f2bfe	-0.621765
116	0xbebbcf60	-0.36681652
117	0xbf21cc17	-0.6320204
118	0x3eacf015	0.33776918
119	0xbf27753b	-0.65413254
120	0xbee1df98	-0.441159
121	0xbd9444cb	-0.07239684
122	0x3f29d55e	0.663412
123	0xbec31db5	-0.38108602
124	0xbf327e8d	-0.6972435
125	0x3f1bd6d1	0.6087466
126	0xbd9ffcbb	-0.078118764
127	0x3ec46a0c	0.38362157
128	0xbedf8e63	-0.4366332
129	0x3eacf771	0.33782533
130	0x3f31d1b3	0.694606
131	0x3e5ccf2e	0.21563408
132	0xbf1b188d	-0.60584337
133	0x3f0d34ef	0.55158895
134	0x3f26ceeb	0.6515948
135	0x3f0d4fc1	0.5519982
136	0xbcd7c746	-0.026340138
137	0x3f24455a	0.6416832
138	0x3f28be5e	0.6591548
139	0x3f33e63b	0.7027318
140	0xbd935796	-0.0719444
141	0xb9c7e97e	-0.00038130203
142	0x3e233ed4	0.15941936
143	0x3f13b3da	0.57696307
144	0x3ebdd4ec	0.3707651
145	0x3f10369e	0.5633334
146	0xbf092d29	-0.53584534
147	0x3f1dc0b9	0.61622196
148	0x3f00c1fc	0.50295997
149	0xbc88048f	-0.016603736
150	0xbf128728	-0.5723748
151	0x3f05fc3d	0.5233801
152	0x3eaa929c	0.3331498
153	0xbf0732d0	-0.5281191
154	0x3f051d4e	0.5199784
155	0x3ec9d339	0.39418963
156	0xbf1419b8	-0.57851744
157	0xbd9403a0	-0.07227254
158	0xbf08a79d	-0.5338076
159	0xbe0dd68b	-0.13851373
160	0xbee1e84c	-0.4412254
161	0x3f131c18	0.5746474
162	0x3f2d2553	0.6763508
163	0xbe8543d9	-0.26028326
164	0xbeafe2ae	-0.3435263
165	0x3f0f4295	0.5596097
166	0xbe4d99a3	-0.20078139
167	0x3efea3e7	0.49734423
168	0xbefe061d	-0.4961404
169	0x3e0cee2e	0.13762733
170	0xbe93ed7c	-0.28892124
171	0x3f3a2d87	0.7272572
172	0xbeb97043	-0.3621846
173	0xbea8dc62	-0.3298064
174	0x3f2b3a89	0.6688619
175	0x3f22c0ea	0.63575613
176	0x3f05e7e6	0.52306974
177	0x3f31f082	0.6950761
178	0xbeaa4be0	-0.33261013
179	0x3f329261	0.69754606
180	0xbf02ad78	-0.5104594
181	0xbe7506d5	-0.23928387
182	0x3e5955a9	0.21224083
183	0xbe33e188	-0.17566502
184	0xbe649e75	-0.22326072
185	0x3ddf2e17	0.10897463
186	0xbeedbe31	-0.46434167
187	0x3e1ee009	0.1551515
188	0xbe248f46	-0.1607028
189	0x3f05f68f	0.52329344
190	0x3e630d3b	0.22173016
191	0x3edd6d4c	0.4324745
192	0x3f04cc65	0.5187438
193	0x3dbc4658	0.091931045
194	0x3e8d905d	0.27649203
195	0x3e4cd36b	0.20002525
196	0x3ef43b00	0.47701263
197	0x3e5946d4	0.21218425
198	0x3ca5164e	0.020152237
199	0x3e41ea12	0.18936947
200	0x3d471c24	0.04861082
201	0x3ee119b1	0.43964913
202	0xbeb9f654	-0.36320746
203	0x3e5db635	0.21651538
204	0xbe614635	-0.21999438
205	0x3db212c1	0.08694983
206	0xbea94988	-0.33063912
207	0x3eb9b83e	0.36273378
208	0x3e7812d3	0.24225931
209	0xbe1d358e	-0.1535246
210	0xbd8131e1	-0.06308342
211	0x3e441843	0.1914988
212	0x3ccd557d	0.025065178
213	0xbd41eaba	-0.047342993
214	0x3e65e697	0.22451244
215	0x3ed980c6	0.4248106
216	0xbea241c6	-0.31690806
217	0x3e81f609	0.25383022
218	0xbea49b1b	-0.32149586
219	0xbea3bad8	-0.31978488
220	0xbef05096	-0.46936482
221	0x3e9f0944	0.31061757
222	0x3e5f8282	0.21827129
223	0x3f04092b	0.5157649
224	0xbec67e5f	-0.38768288
225	0x3d9a873d	0.07545326
226	0xbe4be951	-0.19913222
227	0x3e136b3c	0.14396375
228	0xbe2de9d8	-0.16983736
229	0xbf174893	-0.59095114
230	0xbef60bae	-0.48055786
231	0x3e39938a	0.18122688
232	0xbf1df9bd	-0.61709195
233	0x3f1a8488	0.60358477
234	0x3e89d74b	0.26922068
235	0x3e082a4a	0.13297382
236	0x3eb6d277	0.35707447
237	0x3e4797f6	0.19491562
238	0xbea371f9	-0.31922892
239	0x3dd91836	0.10600321
240	0x3e8273de	0.25479025
241	0x3eecafde	0.46227926
242	0xbea1ad1f	-0.31577393
243	0x3ecca4eb	0.39969572
244	0x3f0d359c	0.55159926
245	0xbed8561e	-0.42253202
246	0x3e494577	0.19655405
247	0xbe9b494c	-0.3032936
248	0x3ec04838	0.375551
249	0xbe28943b	-0.16462795
250	0xbefe512f	-0.49671313
251	0xbe8f820f	-0.28028914
252	0xbe65340f	-0.2238314
253	0xbf00277a	-0.50060236
254	0xbecbbf11	-0.3979421
255	0xbf04a129	-0.5180841

bias f4 [60]
0	0xbedaeda1	-0.4275942
1	0x3ecd66c4	0.40117466
2	0xbf2242eb	-0.6338336
3	0xbe0c8040	-0.13720798
4	0x3f0c26bf	0.5474662
5	0xbf1464dc	-0.579664
6	0xbec6dd8d	-0.38840905
7	0x3e22d296	0.15900645
8	0x3f0d4614	0.55185056
9	0x3e2fe850	0.17178464
10	0x3e8c3444	0.27383626
11	0xbe4cb9ae	-0.19992706
12	0x3ddc079e	0.1074364
13	0xbe1231e2	-0.14276841
14	0xbe986bbb	-0.29769692
15	0xbe97abdc	-0.29623306
16	0x3ca00d57	0.019537611
17	0x3e6a9726	0.22909221
18	0x3e559d48	0.2086078
19	0x3e239dca	0.1597816
20	0xbe83f691	-0.25774053
21	0x3ecc3861	0.39886764
22	0xbef62cc6	-0.48081034
23	0x3e3d42d1	0.1848252
24	0xbea045bb	-0.313032
25	0xbe8b499a	-0.2720459
26	0xbe712ee4	-0.23553044
27	0x3f0e2e1a	0.55539095
28	0xbe961ebd	-0.29320326
29	0x3ea27b57	0.31734726
30	0x3e412758	0.18862665
31	0x3e962370	0.29323912
32	0xbe8e49ff	-0.2779083
33	0x3ec798c4	0.38983738
34	0xbe381142	-0.17975333
35	0x3e324154	0.17407733
36	0x3e98f2d0	0.2987275
37	0xbe8005ac	-0.25004327
38	0x3ebc1a4e	0.3673882
39	0xbe9b093a	-0.30280477
40	0xbe8d117d	-0.27552405
41	0x3ec84a3c	0.39119136
42	0xbe7ab919	-0.24484672
43	0x3f1f0569	0.6211763
44	0xbea328ff	-0.31867215
45	0xbef7c42c	-0.48391855
46	0x3edbd727	0.42937586
47	0x3e8d81c5	0.2763807
48	0xbeda2332	-0.42604977
49	0x3dfc2840	0.123123646
50	0xbe94a7ad	-0.29034176
51	0xbd0b35d5	-0.033986885
52	0xbe991e4d	-0.2990593
53	0xbd82c6b6	-0.06385557
54	0xbe413148	-0.18866456
55	0x3e9ee9b3	0.31037673
56	0xbe487334	-0.19575197
57	0xbe79748a	-0.24360862
58	0xbf026e4c	-0.5094955
59	0xbe42ea4b	-0.19034688

weight f4 [60, 60]
0	0x3ee63636	0.44963235
1	0xbf0fb2d5	-0.5613225
2	0x3efa1617	0.48844978
3	0x3c84071e	0.016116675
4	0xbf06987f	-0.5257644
5	0x3f024f92	0.50902665
6	0xbee455ac	-0.44596612
7	0x3eed82e6	0.4638893
8	0xbee4ac88	-0.4466288
9	0x3e20296d	0.15640803
10	0x3f020eda	0.5080391
11	0x3e553cd0	0.2082398
12	0x3f04cc59	0.5187431
13	0xbe05f63c	-0.13082212
14	0x3efe8bc3	0.49716005
15	0x3ef03338	0.46914077
16	0xbe831920	-0.25605106
17	0xbdd6b584	-0.1048384
18	0xbea039dc	-0.31294143
19	0xbed6f835	-0.41986242
20	0x3d5ced62	0.053937323
21	0xbeaa9b11	-0.3332143
22	0x3ecea2bd	0.40358534
23	0xbee3c61c	-0.44487083
24	0x3e618236	0.22022328
25	0x3e69d972	0.22836855
26	0x3e577c8a	0.21043602
27	0xbee41bca	-0.4455245
28	0x3f1eaab9	0.6197925
29	0xbe295daa	-0.16539636
30	0xbeb14329	-0.34621552
31	0xbf076c4e	-0.52899635
32	0x3f0e703f	0.55640024
33	0xbed1e328	-0.4099362
34	0x3eafd976	0.34345597
35	0xbee2a2c7	-0.44264814
36	0xbf3c3092	-0.7351161
37	0x3e70efff	0.23529051
38	0xbea52666	-0.32255858
39	0x3eaf1e41	0.3420277
40	0x3ce47db3	0.02789197
41	0xbebad7b0	-0.36492682
42	0x3eae4d81	0.34043506
43	0xbf0864a0	-0.5327854
44	0x3ebb388b	0.36566576
45	0x3f17fcc2	0.5937005
46	0xbec6b713	-0.3881155
47	0xbe1ccab8	-0.15311706
48	0x3eb0b540	0.34513283
49	0x3f0fb864	0.5614073
50	0x3e136b4d	0.14396401
51	0x3ecf8ffa	0.40539533
52	0x3eecab4b	0.46224436
53	0xbe8c9db5	-0.2746407
54	0x3c3df0c0	0.011593044
55	0xbebe3459	-0.37149313
56	0x3e8b8364	0.2724868
57	0x3e3fe23f	0.1873865
58	0x3f148b75	0.58025295
59	0x3e88d019	0.26721266
60	0x3f1b47c8	0.60656404
61	0xbedd9977	-0.43281147
62	0x3f1b2f2d	0.6061886
63	0x3e0a80c5	0.13525684
64	0xbf0fb852	-0.56140625
65	0x3f104117	0.5634932
66	0xbf10cde8	-0.5656419
67	0x3ee95cfe	0.4557876
68	0xbf03a54c	-0.514241
69	0x3e271183	0.16315274
70	0x3f0ef42e	0.5584134
71	0x3dc4a633	0.096020125
72	0x3e53643c	0.20643705
73	0xbe8fc38f	-0.28078887
74	0x3e6291b4	0.22125894
75	0x3effd6eb	0.49968657
76	0xbead9f67	-0.33910677
77	0x3c932718	0.017962977
78	0xbeb1ca17	-0.34724495
79	0xbee1db06	-0.44112414
80	0x3d824a5d	0.0636184
81	0xbeaec0a4	-0.34131348
82	0x3f06f6f7	0.5272059
83	0xbd6d3ec3	-0.057921182
84	0x3d686813	0.056739878
85	0x3e3c273a	0.18374339
86	0x3ed939f8	0.4242704
87	0xbef72b12	-0.48275048
88	0x3efb3ffb	0.4907225
89	0xbef4b051	-0.4779077
90	0xbdc7386f	-0.09727561
91	0xbebfaba2	-0.37435633
92	0x3f14446c	0.57916903
93	0xbef3ac26	-0.47592276
94	0x3d360e99	0.044447515
95	0xbed5d0da	-0.41760904
96	0xbe671caa	-0.22569528
97	0x3e1d2a86	0.15348253
98	0xbeb9b49c	-0.36270607
99	0x3f08c306	0.5342258
100	0x3e2ca01d	0.16857953
101	0xbed255b6	-0.41081017
102	0x3f1e3b6f	0.6180944
103	0xbeee29dc	-0.4651631
104	0x3f15d07b	0.5852124
105	0x3ec9a7fd	0.39385977
106	0xbed65896	-0.4186446
107	0x3dc6cbbd	0.09706829
108	0x3f0233ef	0.50860494
109	0x3ef38506	0.47562426
110	0x3e072bfb	0.13200371
111	0x3dee5cff	0.11638831
112	0x3ef131a0	0.47108173
113	0xbe966397	-0.29372856
114	0x3d8f49ab	0.06996473
115	0xbec58291	-0.38576177
116	0x3ec9b094	0.3939253
117	0xbda29235	-0.07938043
118	0x3f1d1583	0.6136095
119	0xbd01c767	-0.031684306
120	0xbef47e4b	-0.47752604
121	0x3f006db2	0.5016738
122	0xbf24ec3b	-0.6442296
123	0x3e7e63ce	0.2484276
124	0x3f326ca4	0.6969702
125	0xbf006014	-0.50146604
126	0x3b7d3b70	0.0038640164
127	0xbe776a5c	-0.24161667
128	0x3f2a5bb9	0.6654621
129	0x3e1cbfc0	0.15307522
130	0x3d694cfc	0.056958184
131	0x3dc8a71d	0.09797499
132	0xbe4f02a6	-0.20215854
133	0xbd80c429	-0.062874146
134	0xbed3509e	-0.41272444
135	0xbeafae7b	-0.34312806
136	0x3e308623	0.17238669
137	0x3dbd2d45	0.0923715
138	0x3e8aa7dd	0.27081195
139	0x3edccd6d	0.43125477
140	0x3dbafeb9	0.09130616
141	0x3f0b022e	0.543002
142	0xbef104b7	-0.4707391
143	0x3e9ba071	0.30395845
144	0x3dec82ff	0.11548423
145	0x3e0b7dd9	0.13622226
146	0x3e8d4190	0.27589083
147	0x3eece063	0.46264943
148	0xbef6ce55	-0.48204294
149	0x3eadd21a	0.33949357
150	0x3f05f847	0.52331966
151	0x3f087f0f	0.53318876
152	0xbf0d4337	-0.55180687
153	0x3ed86445	0.42264
154	0x3eb21a48	0.34785676
155	0x3edfd0f6	0.43714112
156	0x3f001d74	0.5004494
157	0xbec3f19f	-0.3827028
158	0x3f1a214b	0.6020705
159	0xbf09fe5b	-0.5390374
160	0x3db7fe95	0.089841045
161	0x3f2de909	0.6793371
162	0xbee30c65	-0.44345394
163	0x3f25f7e5	0.6483138
164	0xbf166623	-0.587496
165	0xbf0592ba	-0.5217701
166	0x3f26ef68	0.65209055
167	0xbe3d3f4d	-0.18481179
168	0xbf087f89	-0.53319603
169	0x3ed26914	0.41095793
170	0xbeedf982	-0.46479422
171	0xbec090d6	-0.376105
172	0xbedb2b2d	-0.42806378
173	0x3f3b428a	0.73148406
174	0x3dd37c5c	0.10326454
175	0x3f3bfeff	0.7343597
176	0xbec947e6	-0.39312667
177	0xbeee476d	-0.4653887
178	0xbec76dc2	-0.38950926
179	0x3e128beb	0.14311187
180	0x3ec673d2	0.3876024
181	0xbf02f038	-0.51147795
182	0x3eabdc1b	0.33566365
183	0x3e4cbdf6	0.1999434
184	0xbed4ce2c	-0.41563547
185	0x3f1e3bb4	0.6180985
186	0xbeea5e09	-0.45774868
187	0x3ec57be6	0.3857109
188	0xbeee3d54	-0.46531165
189	0x3da4a2fd	0.080389
190	0x3eab090e	0.33405346
191	0x3e6534c0	0.22383404
192	0x3efb6b23	0.49105176
193	0xbdc85f72	-0.0978383
194	0x3c6a7a32	0.01431136
195	0x3ef8725d	0.48524752
196	0xbef95baa	-0.48702747
197	0xbe38c38f	-0.1804335
198	0xbf1b90fc	-0.60768104
199	0xbee91a36	-0.4552781
200	0x3daac5ae	0.08338486
201	0xbeea42d2	-0.45754105
202	0x3ee81c3c	0.4533404
203	0xbda3d991	-0.08000482
204	0x3d310663	0.04321898
205	0x3de1fb9f	0.11034321
206	0x3c841279	0.01612209
207	0xbe9e5e81	-0.30931476
208	0x3ecb07ea	0.39654475
209	0xbe971539	-0.2950838
210	0xbdf46868	-0.119339764
211	0xbefa1fc0	-0.48852348
212	0x3eb98318	0.3623283
213	0xbf0f238e	-0.5591363
214	0x3d8acba5	0.06777123
215	0xbed6128b	-0.41811022
216	0xbf36b81b	-0.7137467
217	0x3de2e61c	0.11079046
218	0xbf0fdc97	-0.5619597
219	0x3ebb3d84	0.3657037
220	0x3e4c68f7	0.19961916
221	0xbecf8f75	-0.40539137
222	0x3ec10a69	0.37703255
223	0xbf11f54f	-0.57014936
224	0x3f1cdd2a	0.6127497
225	0x3ec27fa3	0.37988004
226	0xbed50720	-0.41606998
227	0x3cdf7412	0.027277026
228	0x3f24cde9	0.64376694
229	0x3f088c15	0.5333875
230	0x3dca8c36	0.09890024
231	0x3ce6e662	0.028186027
232	0x3f103398	0.56328726
233	0xbf1709cb	-0.5899932
234	0x3dfa7e01	0.122310646
235	0xbf14acf5	-0.5807641
236	0x3e375337	0.17902838
237	0x3e0deffd	0.1386108
238	0x3f0b5381	0.5442429
239	0xbb8723f9	-0.0041241613
240	0xbefe93a2	-0.4972201
241	0x3efdd2ce	0.49574894
242	0xbef02e48	-0.4691031
243	0xbdbc74d5	-0.092019714
244	0x3f0b8116	0.54493845
245	0xbece1880	-0.40253067
246	0x3ef67358	0.48134875
247	0xbf1b1964	-0.6058562
248	0x3ed151d7	0.4088275
249	0xbd527c10	-0.051387846
250	0xbf025bdf	-0.50921434
251	0xbe0af072	-0.13568285
252	0xbf15d7bf	-0.5853233
253	0x3f02659b	0.5093629
254	0xbe2d6665	-0.16933592
255	0xbec505d8	-0.3848102

bias f4 [60]
0	0xbf1db727	-0.61607593
1	0xbf107675	-0.5643075
2	0x3f0e33a9	0.5554758
3	0xbedb6ece	-0.42857975
4	0x3f17d616	0.59311044
5	0xbee429c4	-0.44563115
6	0xbf18ecc4	-0.59736276
7	0xbe66fd2f	-0.2255752
8	0xbf085814	-0.53259397
9	0xbef1d1a1	-0.47230247
10	0x3eb66aad	0.35628262
11	0xbe5751bf	-0.21027277
12	0x3ee08acb	0.4385589
13	0xbf1117a5	-0.56676704
14	0xbee2ee9e	-0.44322675
15	0x3f27303b	0.6530797
16	0xbf0c6712	-0.5484477
17	0xbe1fb272	-0.15595415
18	0x3f0ad5bc	0.5423238
19	0x3e5e8dee	0.2173383
20	0x3e99129d	0.29897013
21	0x3f2ff614	0.6873486
22	0xbebf7551	-0.37394193
23	0x3ece15e0	0.40251064
24	0x3efe1644	0.49626362
25	0x3ecd6cd1	0.40122083
26	0xbf02c7f7	-0.5108637
27	0x3e984fa3	0.29748258
28	0xbe4a740d	-0.19770832
29	0x3f098003	0.53710955
30	0x3f1f89d7	0.623197
31	0xbf51d573	-0.8196632
32	0xbf0445ec	-0.5166919
33	0xbefab639	-0.4896715
34	0xbf11b7dc	-0.5692117
35	0x3efa5c5f	0.488986
36	0x3ebc24a8	0.36746716
37	0x3f12ef53	0.5739643
38	0x3eb479b6	0.35249108
39	0x3f1baa72	0.60806954
40	0xbf15f02d	-0.58569604
41	0x3e932a49	0.287432
42	0xbf0645c5	-0.5245021
43	0x3f147f9e	0.5800723
44	0x3e8983d7	0.26858398
45	0x3ea311dc	0.31849563
46	0x3effbe22	0.49949747
47	0xbee2181d	-0.44159022
48	0x3f0a2632	0.5396453
49	0xbe71773b	-0.23580639
50	0xbedb77ef	-0.4286494
51	0xbe8a3e33	-0.2700058
52	0xbf1801c1	-0.59377676
53	0x3efbccb6	0.4917962
54	0x3ebf2e14	0.37339842
55	0x3f2118e3	0.629286
56	0xbe5a4aa4	-0.21317536
57	0x3f077f22	0.52928364
58	0x3f25d0b0	0.64771557
59	0xbe82a42e	-0.25515884

weight f4 [1, 60]
0	0x3ef10ecb	0.470816
1	0x3ed0eb1d	0.40804377
2	0xbe9dcc69	-0.30820015
3	0x3eacaea4	0.3372699
4	0xbf15f802	-0.58581555
5	0x3ee6b8d1	0.4506288
6	0x3eb4bb13	0.35298976
7	0x3d2a8dd0	0.04163915
8	0xbe7e9908	-0.24863064
9	0x3ec1d7d1	0.37859967
10	0xbe95062a	-0.29106265
11	0x3e75de8f	0.2401068
12	0xbf0d3408	-0.5515752
13	0x3e581752	0.21102646
14	0x3e55523c	0.20832151
15	0xbedf1f01	-0.43578342
16	0x3ec9d6dc	0.39421737
17	0xbf048173	-0.51760024
18	0xbf0f8742	-0.5606576
19	0xbe96bc7a	-0.2944067
20	0x3ea0084b	0.31256327
21	0xbf043e73	-0.5165779
22	0x3e89d562	0.2692061
23	0xbf141840	-0.578495
24	0xbf02a4de	-0.5103282
25	0xbeb47ce1	-0.35251525
26	0x3e4cec09	0.20011915
27	0xbe390db0	-0.18071628
28	0x3e63621c	0.22205395
29	0xbecf24e3	-0.4045783
30	0xbed18838	-0.4092424
31	0x3ede91a6	0.43470496
32	0x3ea15152	0.31507355
33	0x3ea792dd	0.32729235
34	0x3f0fdb6c	0.56194186
35	0xbf02ab9a	-0.51043093
36	0xbf149748	-0.58043337
37	0xbed2ea33	-0.41194305
38	0xbe5d1d1b	-0.21593134
39	0xbe30d6ac	-0.17269391
40	0x3ebb7371	0.36611512
41	0xbeaf03c2	-0.34182554
42	0x3ed6e9e3	0.41975316
43	0xbed8bb01	-0.42330173
44	0x3f150f5e	0.58226573
45	0xbe7982d8	-0.24366319
46	0xbefa2371	-0.48855165
47	0x3ef554d7	0.4791629
48	0xbec32fb3	-0.3812233
49	0x3e94f3f8	0.29092383
50	0x3e3b36e0	0.18282652
51	0x3ec1b3a7	0.37832376
52	0x3eda4035	0.4262711
53	0xbec5c287	-0.38624975
54	0xbe760821	-0.24026538
55	0xbebbba2f	-0.36665484
56	0xbea19cd8	-0.31564975
57	0xbe9d9445	-0.30777183
58	0xbef925cb	-0.48661646
59	0x3e9aec8b	0.30258593

weight f4 [60, 2]
0	0xbf8e8f62	-1.1137507
1	0x3f1ec236	0.6201509
2	0xbce7de84	-0.028304346
3	0x3e82f9d1	0.2558122
4	0x3eebe329	0.46071747
5	0xbe48174b	-0.19540136
6	0xbe8c7ffc	-0.27441394
7	0xbc98f209	-0.018670099
8	0x3ef20ac8	0.4727385
9	0x3c23a5c0	0.009988248
10	0xbe30fd63	-0.1728416
11	0xbecf36c7	-0.4047148
12	0xbd55691a	-0.052102186
13	0x3e856263	0.26051626
14	0xbe907bd5	-0.28219476
15	0x3f1f42bb	0.622112
16	0x3e76a009	0.24084486
17	0x3dd6cff3	0.10488882
18	0xbd104cf0	-0.035229623
19	0xbeb1acc9	-0.34702137
20	0x3f1f3a8e	0.6219872
21	0x3f8554d1	1.0416509
22	0xbe6448ed	-0.22293444
23	0x3ada11b1	0.0016637353
24	0x39be1042	0.00036251737
25	0x3f0e0e8e	0.5549096
26	0xbbba8c84	-0.0056930203
27	0x3f404abc	0.75114036
28	0x3ec324e4	0.38114083
29	0xbe8922a6	-0.26784247
30	0xbdeb14e8	-0.11478597
31	0xbe913021	-0.28357032
32	0x3d5ba8b2	0.053627677
33	0x3b6fdf1f	0.0036601496
34	0xbe1a1bb4	-0.1504963
35	0x3c71c5f5	0.014756669
36	0xbcbb2760	-0.022845924
37	0xbf0648d7	-0.52454895
38	0xbcdea5c9	-0.027178662
39	0x3e78bbc4	0.24290377
40	0x3da563c9	0.08075673
41	0x3e4b6613	0.19863157
42	0xbe79c865	-0.2439285
43	0x3d9dea71	0.07710732
44	0xbdd54dff	-0.10415267
45	0xbefb353a	-0.49064046
46	0xbf8518a6	-1.0398147
47	0x3fa0bcd0	1.2557621
48	0x3f191b4e	0.5980729
49	0x3ebaf487	0.36514685
50	0xbdf7a441	-0.12091876
51	0xbf0c14f4	-0.5471947
52	0x3d38f82c	0.04515855
53	0xbc63cfad	-0.013904494
54	0xbe808269	-0.25099495
55	0xbe4f199a	-0.2022461
56	0x3b0bf510	0.0021355785
57	0x3f0b6da3	0.5446417
58	0xbe458ad9	-0.19291247
59	0x3e711d55	0.23546346
60	0xbe6edf9e	-0.2332749
61	0xbdfb09e5	-0.122577466
62	0x3f0e9fad	0.55712396
63	0x3f7ef453	0.9959156
64	0xbd047e7e	-0.032347195
65	0xbd9eab67	-0.07747536
66	0x3e9f4755	0.3110911
67	0xbbf77ac3	-0.007552476
68	0xbee7883a	-0.4522112
69	0x3ab1a3af	0.001355281
70	0xbe8def4a	-0.27721626
71	0x3eb4343c	0.35196102
72	0x3e0d79a5	0.13815935
73	0x3e7baa16	0.24576601
74	0xbe7a56f5	-0.24447234
75	0x3e28b00f	0.16473411
76	0xbe236b04	-0.15958792
77	0x3c962159	0.018326448
78	0xbe3bdd20	-0.18346071
79	0xbea935bc	-0.3304881
80	0x3f4afaa4	0.792887
81	0x3db81e0d	0.08990107
82	0x3b93b180	0.0045072436
83	0x3ea4f8c6	0.3222105
84	0x3cfd72a2	0.03093845
85	0x3f0ae025	0.5424827
86	0x3e8f9f05	0.2805101
87	0x3e45e266	0.19324645
88	0xbe2637c1	-0.16232206
89	0xbea2055a	-0.31644708
90	0x3ec01496	0.37515706
91	0x3f4667ec	0.7750232
92	0xbe512c96	-0.20427164
93	0xbe450da3	-0.19243483
94	0xbdb8dea8	-0.09026843
95	0x3d910860	0.070816755
96	0xbe8b62fa	-0.2722395
97	0xbe0a3f35	-0.13500674
98	0xbd6adc35	-0.057338912
99	0x3c235243	0.009968343
100	0xbe705a60	-0.23471975
101	0x3f9f2b69	1.2435123
102	0xbe0dd717	-0.13851582
103	0xbee52af5	-0.44759336
104	0x3d5eb088	0.054367572
105	0x3d1116f3	0.035422277
106	0x3f6581ea	0.8965136
107	0x3bdf8ef3	0.006822461
108	0x3e440482	0.19142345
109	0xbe113896	-0.14181742
110	0x3e34f4dc	0.17671531
111	0x3e46af00	0.19402695
112	0x3ee4a68a	0.4465831
113	0xbf573bed	-0.84075814
114	0x3eb6aa0d	0.35676613
115	0xbe163c53	-0.1467145
116	0x3f0f28fe	0.55921924
117	0x3f203002	0.62573254
118	0xbaca1574	-0.001541777
119	0x3ea07e2f	0.3134627

bias f4 [60]
0	0xbf380c16	-0.7189344
1	0xbf60115a	-0.87526476
2	0xbf2596b1	-0.6468306
3	0xbe9d093a	-0.30671102
4	0xbefd940c	-0.49527013
5	0xbf18022b	-0.5937831
6	0xbea6695d	-0.3250226
7	0xbea9402f	-0.3305678
8	0xbeb93a73	-0.36177406
9	0xbf14e5b2	-0.5816299
10	0x3f6c9106	0.9240879
11	0xbe799b7d	-0.2437572
12	0xbf6393f4	-0.88897634
13	0xbddd3e86	-0.10802941
14	0xbf216aa4	-0.63053346
15	0xbed3c811	-0.41363576
16	0xbe15ee73	-0.14641742
17	0xbef24be1	-0.47323516
18	0xbf2397d6	-0.6390356
19	0xbf777a0d	-0.9667061
20	0xbea9d3d6	-0.3316943
21	0xbeab7c1f	-0.33493134
22	0x3f30c519	0.6905075
23	0xbec2e67a	-0.38066465
24	0x3edf832d	0.43654767
25	0xbf2e54ba	-0.6809803
26	0xbe3d19ed	-0.18466921
27	0xbee8ffde	-0.4550771
28	0xbf507446	-0.8142742
29	0xbefcdaae	-0.4938559
30	0xbf1d9a20	-0.615633
31	0x3ea8d539	0.32975176
32	0xbe7242a4	-0.23658234
33	0xbeb41fb0	-0.35180426
34	0xbeed0cf7	-0.46298954
35	0x3faf3008	1.3686533
36	0xbf049880	-0.51795197
37	0xbeda9f8d	-0.42699853
38	0xbe87bc0e	-0.26510662
39	0xbf545a81	-0.829506
40	0x3f68bf06	0.9091648
41	0xbea8b620	-0.3295145
42	0xbf3bd02d	-0.73364526
43	0xbeea8a16	-0.45808476
44	0xbf008a87	-0.50211376
45	0x3f23ece1	0.64033324
46	0xbec8144a	-0.3907798
47	0xbf17bae8	-0.5926957
48	0xbed57e14	-0.41697752
49	0xbee4bfaa	-0.44677478
50	0xbe86774e	-0.26262897
51	0xbf148ce0	-0.5802746
52	0xbe17d9d0	-0.14829183
53	0x3da8c77f	0.08241176
54	0xbef74838	-0.48297286
55	0xbf045ed4	-0.51707196
56	0x3f3f4190	0.74709415
57	0xbf171a2d	-0.59024316
58	0x3f9af55d	1.2106129
59	0xbea87df3	-0.32908592
