[LC models]/min_func_LC_3x60_n_V=6.pt (torch_old, 301680 bytes, 60 tensors)

weight f4 [40, 2]
000000 b8 b7 af bc a3 0b 81 be f6 59 5d be f7 5a 99 be
       -0.021449909 -0.2520419 -0.21616349 -0.29952213
000010 5a 54 c9 be f8 0a 39 3e 37 94 c5 bd 00 0c 2b 3f
       -0.39322168 0.1807059 -0.0964741 0.66815186
000020 4f d0 c2 be 7d 50 71 be 82 dc db 3e 40 e1 6d 3f
       -0.38049552 -0.2356586 0.42941672 0.9292183
000030 73 4d 48 3f 8f 19 1c 3e 44 8c be 3d 57 70 60 bd
       0.7824318 0.15244125 0.09304097 -0.054794636
000040 a3 0a d0 bd 31 0a bb bd 41 fe 59 bf 86 89 3e bf
       -0.10158279 -0.09132803 -0.85153586 -0.74428594
000050 5c 21 d8 bc db ce 32 be 8a 7d 1c bf cd b1 46 3e
       -0.026383094 -0.17461722 -0.6112906 0.19403763
000060 92 41 6b 3d d6 15 80 bd 4d d8 2f bf 0a a3 a0 be
       0.05743558 -0.06254165 -0.68689424 -0.3137439
000070 97 f2 7a 3e 04 ba 04 3f 50 d6 4a be 9d 0a a2 3e
       0.24506603 0.5184634 -0.19808316 0.31648722
000080 d4 46 ea be 0e 86 36 3f 26 30 78 bf f6 54 09 be
       -0.45757163 0.712983 -0.9694847 -0.13411316
000090 f0 bb 91 be 1f a0 2b be e1 76 76 bd a6 0f c7 3d
       -0.28463697 -0.167603 -0.060171966 0.097197816
0000a0 1f a1 4c be 4b 34 19 3f 2b 0e 67 bf 6f a8 ba be
       -0.19983338 0.5984542 -0.90255994 -0.3645663
0000b0 9c 47 05 bf b5 33 9f be 84 71 90 3e 46 47 6a 3e
       -0.5206239 -0.31094137 0.28211606 0.22878751
0000c0 5c e1 a4 be fe 81 93 3d e0 67 64 3d b7 95 f0 3e
       -0.32203186 0.072025284 0.055763125 0.46989223
0000d0 6c f9 a9 3d a4 2b 1d 3e ce da 38 3f 77 f6 b4 be
       0.082995266 0.15348679 0.7220887 -0.35344288
0000e0 64 0d ea 3e bd 18 c3 3e 82 6b bd 3e 2b 1e 1d bf
       0.4571334 0.3810481 0.36996084 -0.6137416
0000f0 d8 d5 b1 3e 61 35 6b be c5 7e e2 3e ad cb ba be
       0.34733462 -0.22969581 0.44237342 -0.36483517
000100 5c bc cc 3c bb 58 22 3f 05 38 23 3f 42 50 09 bf
       0.02499216 0.6341664 0.63757354 -0.5363809
000110 77 d0 c6 3e f5 30 08 be 63 77 31 be 83 9a d9 bc
       0.3883092 -0.13299926 -0.17330699 -0.026562935
000120 de 2f 92 be 1b 01 cb 3e 5e de 37 3f 2f 94 97 be
       -0.28552145 0.3964928 0.7182368 -0.29605243
000130 c9 94 da 3c 1f a4 5d 3d 6c 92 85 bf c2 b5 ed 3d
       0.026682274 0.054111596 -1.043531 0.11606933

bias f4 [40]
000000 32 15 89 bf 09 7c 78 be ef b3 39 3f cf 2f c8 3e
       -1.0709593 -0.24266066 0.7254018 0.39098975
000010 1f bb 7a bf 13 3c 94 3d 13 9e 8d be 72 61 3c 3f
       -0.97941774 0.07238021 -0.27659664 0.7358619
000020 64 97 af bf b4 cf 0e bf 51 fa 3f bf c2 62 42 3f
       -1.3718076 -0.5578568 -0.7499133 0.7593194
000030 cf 85 16 3f 94 78 8a bf 2b ee 5c 3d 72 90 6d 3f
       0.58797926 -1.0818048 0.053938072 0.9279853
000040 5d 40 89 bd 29 db 24 bf 71 f5 40 3e c6 20 86 bf
       -0.067017294 -0.6439691 0.18843628 -1.0478752
000050 9a 5f f8 3c 06 d5 f9 be 41 73 d2 3e 44 71 2d be
       0.030319024 -0.48795336 0.41103557 -0.16937739
000060 75 c9 d5 bf 15 25 4c bf f4 f5 bf 3c 0e 74 ca be
       -1.6702105 -0.7974408 0.02343271 -0.39541668
000070 a1 5c 64 3e cf 7a 1f 3f 98 c2 ae be 93 24 e1 3e
       0.2230096 0.62296766 -0.34132838 0.43973216
000080 90 f1 af 3d 5a 4f 95 be 7a 65 08 3f ab 98 d1 bf
       0.08590996 -0.29162103 0.5327984 -1.6374716
000090 cc f0 18 3d 12 f0 be be 8f 5b dd be 06 25 02 3f
       0.037339017 -0.37292534 -0.43233916 0.50837743

weight f4 [40, 40]
000000 59 b3 79 be 41 03 e8 be f1 ae 21 3f c5 e6 8e bf
       -0.24384822 -0.45314983 0.63157564 -1.1164175
000010 a5 f7 bb be 07 9a 7d bf b0 bd 1a bf 07 35 93 bf
       -0.36712375 -0.9906315 -0.6044569 -1.1500558
000020 8c ae 7f be f3 d3 7c 3e ec 00 b1 be 90 fc 4d be
       -0.24968928 0.24690227 -0.34571016 -0.20115876
000030 b1 67 1a bf 66 aa 4c be 3e 85 43 bf 8b 48 47 3e
       -0.6031447 -0.19986877 -0.76375186 0.19461267
000040 9a 26 45 bf dd 94 ca be ee 97 70 3e f7 70 0b bf
       -0.77012026 -0.395667 0.23495457 -0.54469246
000050 56 37 34 bf 9c 44 06 3f c3 76 27 be f4 17 36 bf
       -0.70396936 0.5244844 -0.16353898 -0.711303
000060 a4 a9 eb be 1d c3 ae be c4 19 19 c0 93 a6 2d be
       -0.46027863 -0.34133235 -2.3921976 -0.16958074
000070 35 e6 3e bf 0a 27 7f 3e 1a b5 0b bf e4 b9 a2 bf
       -0.7457002 0.24917236 -0.54573214 -1.2712979
000080 42 49 64 bf fc 05 8b be 6e e7 41 3f d0 75 26 be
       -0.8917428 -0.27153003 0.7574376 -0.1625588
000090 14 c7 82 bf 5d cb b3 be d2 da f5 be cf 2c c0 3d
       -1.0217004 -0.3511609 -0.4801851 0.093835466
0000a0 38 53 43 3f 0c 9a de 3e 7c 9d 92 be 00 0f ec bd
       0.76298857 0.43476903 -0.28635776 -0.115262985
0000b0 fe a5 c3 3e d7 1d 15 bf e3 d7 6b 3e d1 52 73 3d
       0.3821258 -0.58248657 0.23031573 0.05940515
0000c0 ca 11 3e 3f 16 4c d5 3e 68 13 01 3f af e3 1a bf
       0.74245894 0.4165961 0.50420237 -0.6050367
0000d0 57 04 2b 3e 4e f0 10 3f 0a 52 82 be f4 66 11 bf
       0.16700874 0.56616676 -0.25453216 -0.5679772
0000e0 d4 de 90 3d 46 ff 9c 3f 18 05 06 bd 4e f0 ca 3e
       0.07073751 1.2265403 -0.0327197 0.39636463
0000f0 67 88 d1 be bd f2 48 3f 09 33 61 3e 1c a4 0a 3f
       -0.4092438 0.7849539 0.21992125 0.5415666
000100 cd 19 d5 3e 97 93 2b 3e ac c9 92 3f 3b 4d e0 3e
       0.41621247 0.1675552 1.1467795 0.43808922
000110 ea 23 52 be 81 c2 09 bf 5c f7 7a 3e 99 15 d9 3e
       -0.20521513 -0.53812414 0.24508423 0.4239929
000120 56 ac a3 be d7 0a be 3d 63 76 60 bf a5 b1 0c 3f
       -0.3196742 0.09279411 -0.87680644 0.54958564
000130 9e 8f 23 3e ae c7 16 3f 75 b7 9d 3e 1c f2 20 3e
       0.15972754 0.5889844 0.3080403 0.15717357
000140 f4 f0 26 bf 47 ce 17 bf 6d 00 b9 3c 61 7b d9 3d
       -0.65211415 -0.5929913 0.02258321 0.10619236
000150 1c ef 5d be f0 f5 6b 3e 9a 7b d9 be 25 b2 9a bf
       -0.21673244 0.23043036 -0.42477113 -1.2085615
000160 9c ba 15 be b4 b9 39 be 87 f7 c7 be 72 96 7c 3f
       -0.14621967 -0.18137246 -0.39056036 0.9866706
000170 df ec a8 3e 60 d7 aa 3e 95 c9 16 3f 62 5d 3a bd
       0.32993218 0.33367443 0.5890134 -0.045499213
000180 42 03 52 3f e4 76 a3 3e 9d 59 ed 3e d2 a6 d3 be
       0.8203622 0.31926644 0.46357432 -0.4133821
000190 79 e1 d9 3e 91 de 2c 3f 7c 06 de be 9a 0c 7f bf
       0.42554834 0.6752711 -0.43364322 -0.99628603
0001a0 bd e7 7d be 28 03 b7 be c7 c1 c4 3d 18 42 f0 3d
       -0.24795432 -0.35744596 0.096072726 0.117313564
0001b0 99 2d 29 3e c4 60 79 be 95 e1 80 be ce 1f 29 bf
       0.165213 -0.2435332 -0.25172105 -0.66064155
0001c0 c0 11 d7 3e b4 64 0b bf 70 e9 7b be 79 3c 47 be
       0.4200573 -0.54450536 -0.24600768 -0.19456662
0001d0 e4 2b f8 3e 35 81 ec 38 30 5e 2b bf c8 47 5e be
       0.48470986 0.000112774236 -0.66940594 -0.2170707
0001e0 f8 f9 93 3f 5d 27 27 bf 4a d9 22 bf f5 fb 38 bf
       1.156066 -0.6529444 -0.63612807 -0.72259456
0001f0 8d e4 7f 3f f1 d0 7f bf 35 60 8f bf 54 29 80 3d
       0.99958116 -0.99928194 -1.1201235 0.06257883
000200 75 4b 58 3f 3d 99 85 3f 35 67 8d 3f 29 1a b4 bf
       0.8449014 1.043739 1.1047121 -1.4070483
000210 6f 5c 42 3c e3 04 67 3e 39 fc a1 bf 10 46 b1 be
       0.011862858 0.22560458 -1.2655097 -0.34623766
000220 5d 29 f9 be 9c b2 36 3f 6f bd 65 bc 88 1b 6d 3f
       -0.4866437 0.71366286 -0.014022215 0.92620134
000230 71 98 0d bf 73 e1 c3 3e 9e 26 36 bd 48 0e 21 3f
       -0.5531073 0.38257942 -0.044470422 0.62912416
000240 e1 e3 4d 3f bb a4 bd 3e f4 4a 09 bf 3c 3b 69 bf
       0.8042584 0.37039742 -0.53629994 -0.9110601
000250 6b 7d a6 bf c1 e9 68 be 37 2d 82 be 50 90 21 bf
       -1.3007025 -0.2274542 -0.2542512 -0.6311083
000260 5e f0 7c bf 89 e3 18 bf 29 ff 6a 3f d2 4c 4d 3f
       -0.9880427 -0.5972219 0.91795594 0.80195343
000270 ce b8 45 bf 4f 5f 09 3e 18 56 29 bc 2e 50 9e 3e
       -0.77235115 0.13415264 -0.010335468 0.30920547
000280 51 cc b9 be cc 55 27 bf df 26 da 3e b4 df b7 3e
       -0.36288694 -0.6536529 0.4260778 0.3591286
000290 e8 05 99 be e6 c7 42 3e a6 24 b9 be b8 54 52 3b
       -0.2988732 0.19021568 -0.36160773 0.0032093953
0002a0 7a 74 bb be df 85 dc be ef 8c fc 3a 04 42 b8 3e
       -0.36612302 -0.43070886 0.0019268076 0.35987866
0002b0 6e 0f 51 be bb 16 e6 3d 5e 57 c0 3d 2c e3 42 3f
       -0.20416042 0.11234804 0.09391664 0.76127887
0002c0 2b f5 b7 3e 9e b8 4a 3e 74 60 a8 3c 63 e7 90 be
       0.35929236 0.19796988 0.020553805 -0.28301534
0002d0 c5 4e b3 be 6c 59 8e be 63 b9 27 3f 76 22 eb 3d
       -0.35021034 -0.27802598 0.6551725 0.11481182
0002e0 1d 9c d5 be 1b c5 0a bf 74 b0 77 3f 59 68 00 bf
       -0.41720667 -0.5420701 0.9675362 -0.5015922
0002f0 03 83 ac 3e 81 63 81 bf f6 6a 0f bf f9 da a4 be
       0.33693704 -1.0108491 -0.56022584 -0.32198313
000300 e7 b6 84 3e c1 32 3e bf a4 55 f7 be aa 69 a9 be
       0.25920793 -0.74296194 -0.48307526 -0.33088428
000310 17 18 a6 be 33 88 5b be d0 02 c4 3d e4 e0 d2 3e
       -0.32440254 -0.21438675 0.09570849 0.41187203
000320 2a fd 9d 3d 72 ef 23 3f 5c 0f 91 be 67 8c fe bf
       0.07714303 0.6403724 -0.2833203 -1.9886597
000330 58 41 30 3e fc a2 0f bf 76 ab b6 3e 0c 99 18 bf
       0.17212427 -0.5610807 0.3567769 -0.5960853
000340 8c 48 54 bc be 30 dd 3e 7a 95 68 3d 3f 46 89 bf
       -0.01295675 0.4320125 0.056783177 -1.0724562
000350 dc 9b 7c 3f ea 71 81 bf 17 6f bc bf 7f 99 b8 bd
       0.9867532 -1.0112889 -1.4721402 -0.09013652
000360 43 74 ff be b3 19 2f be 81 16 3c be b6 3a 2f 3e
       -0.49893388 -0.17099647 -0.1836796 0.1711224
000370 a3 e7 14 bf b7 98 ca be 8f d1 28 be 3b 2c 82 be
       -0.5816595 -0.39569637 -0.1648619 -0.2542437
000380 4c c3 fb 3b b0 b7 a0 be ff 5c 72 bf 59 ac 2e be
       0.0076831933 -0.31390142 -0.9467315 -0.17057933
000390 fd c0 7e bf 42 67 4f 3f b0 3c 3c bf df 3b 9f bf
       -0.99513227 0.81016934 -0.735301 -1.2440146
0003a0 d8 a2 9a bf 9a 78 13 3f 6e 7f 37 3e b5 25 02 3e
       -1.2080946 0.576059 0.17919704 0.12709697
0003b0 0a cd 9a bf 14 ea 01 bf 12 c5 44 be e2 43 6a bf
       -1.2093823 -0.507478 -0.19215801 -0.9150983
0003c0 b4 41 60 3f c4 0b 01 40 2f 55 85 be bf 33 d4 be
       0.87600255 2.016343 -0.26041552 -0.4144573
0003d0 32 41 0f 3f 2b f8 7d bf 68 b2 9e 3f fd e4 40 3f
       0.55958855 -0.992068 1.2398195 0.7534941
0003e0 15 39 0b 3f 85 35 91 3f 27 59 e9 3e e0 68 cf bf
       0.54383975 1.1344458 0.4557583 -1.620388
0003f0 90 b1 2e 3e d1 eb 70 3e 61 5d 2e bf 48 27 fd be
       0.17059922 0.23527457 -0.68111235 -0.49444032

bias f4 [40]
000000 93 09 b5 bc ce f0 03 bf f8 f0 42 3e 4c 38 06 bf
       -0.022099292 -0.51539314 0.19037235 -0.5242965
000010 ce 32 13 3f 73 35 e5 be 52 8f 49 bf 21 78 58 bf
       0.57499397 -0.4476734 -0.78734314 -0.845583
000020 ed e9 c3 3d 26 75 33 bf da 1c 76 bc ea 43 fd bd
       0.09566102 -0.7010063 -0.015021527 -0.12366469
000030 eb 48 1e bf de 75 3e bf 61 4f 0d bf 77 ff c7 be
       -0.61830014 -0.743986 -0.5519925 -0.39062092
000040 40 54 21 bf 77 5f 13 3f 17 16 5e 3f 96 06 03 bf
       -0.6301918 0.5756754 0.86752456 -0.51181924
000050 49 1b a1 be 41 11 8b be 2b 61 b2 bf 02 48 cc 3c
       -0.3146613 -0.271616 -1.3935903 0.02493668
000060 19 80 1a bf 6d 41 5d bf 8d 32 a2 3c 2c 6e f9 be
       -0.6035171 -0.86427957 0.019799495 -0.48716867
000070 58 f8 e5 be 74 63 6f be 2e fd f0 3b ca 1e 5c bf
       -0.44916034 -0.23377782 0.0073544 -0.8598448
000080 57 21 af bf 08 bd d7 3d 04 91 bf bd f8 32 e8 bd
       -1.368205 0.10534102 -0.093538314 -0.113378465
000090 3d 0a cb bc 6d f2 bf be c8 f7 85 bb b7 85 0b bf
       -0.024785155 -0.37489644 -0.0040883757 -0.5450091

weight f4 [4, 40]
000000 60 a9 ea be 65 b0 c7 3d 79 9e 67 3e b3 e5 5c be
       -0.45832348 0.097504415 0.22619046 -0.21571998
000010 f8 2d ca 3e e1 30 db 3d 54 59 02 bf 66 b4 2e bf
       0.39488196 0.10702682 -0.50917554 -0.68244016
000020 9d a9 16 3e 1e 66 30 bf 09 98 d1 3e 9c 23 0d bf
       0.1471314 -0.6890582 0.40936306 -0.5513246
000030 54 11 b1 bd 49 df 4c 3b fb f9 19 bf 32 ea 2d bf
       -0.08645883 0.0031261018 -0.60147065 -0.6793548
000040 54 44 7b bd 46 3d 23 3f 63 ab fa be 40 99 42 bf
       -0.06134446 0.6376537 -0.48958883 -0.7601509
000050 8b f4 1c 3e c1 f7 83 be 70 9c 7d bf 10 97 3f bf
       0.1532766 -0.2577496 -0.9906683 -0.7483988
000060 0d 3c ff be 0f cb 88 3b c7 a7 8e 3e 7c b7 c4 bd
       -0.49850503 0.004174597 0.2786238 -0.09605309
000070 2e a7 d2 3e 39 11 2c bf ec 8a bb be 59 7e 04 bf
       0.41143173 -0.6721378 -0.36629426 -0.5175529
000080 1d 33 e9 bd c1 6d 4d bf 80 21 b6 3d fe 7e 7e be
       -0.11386702 -0.80245596 0.08893108 -0.24853131
000090 1a d5 de 3e e6 21 fe 3d fa 50 42 3f aa da ca 37
       0.4352196 0.12408809 0.7590481 2.41821e-05
0000a0 fd 7d e3 3e 2b 83 34 3e cb 13 7d 3f 33 fd e8 3e
       0.4443206 0.17628162 0.98858327 0.45505676
0000b0 66 f5 30 3f bb c2 8c bf dd 80 0e 3e 29 64 b3 be
       0.6912445 -1.0996927 0.13916345 -0.35037354
0000c0 30 bf 8d bf bb 95 77 3e da 31 7a be 96 26 ad 3e
       -1.1073971 0.24178211 -0.2443308 0.338185
0000d0 10 1b a0 be a6 fc 76 3e 89 38 52 3f 07 ba 73 be
       -0.31270647 0.24119815 0.82117516 -0.23801433
0000e0 13 5a a5 3d 14 3a 71 3f 7c ed f4 bd 79 0a f7 3d
       0.08073821 0.94229245 -0.11959359 0.120625444
0000f0 18 03 16 be 4e 1c 31 3f 12 20 e5 3e 67 63 96 3e
       -0.14649618 0.69183815 0.4475103 0.29372713
000100 86 25 38 3f d5 e1 32 3f 96 09 5f 3e 1a 8b 8a 3e
       0.71932256 0.6987584 0.21781 0.2705925
000110 e1 a9 d8 3e 04 5e 0b 3e 3a 3b 31 be 26 05 43 3e
       0.42317107 0.13610083 -0.1730775 0.19044933
000120 b2 60 f6 3e 09 da 0e 3f dd 7b 35 be 95 57 05 3f
       0.48120648 0.55801445 -0.17723031 0.52086765
000130 b0 81 8d 3e 66 61 70 3e 55 db 24 3f 97 f4 6a 3e
       0.27638006 0.23474655 0.64397174 0.22944866
000140 6e e9 b2 be 5c 15 2a 3f 21 ba f6 3e b4 32 e0 3e
       -0.34943718 0.6643884 0.4818888 0.43788683
000150 a0 20 5f 3e 2d b4 cf 3e 84 6d 88 3f 8f f9 54 3f
       0.21789789 0.4056715 1.0658422 0.83193296
000160 00 8f 1d bf 40 47 58 3e ba ef c4 be e0 27 74 bd
       -0.61546326 0.2112093 -0.38464147 -0.05960834
000170 73 08 7d be 06 8b 1b 3f 88 50 5a 3f de 8d 9e 3e
       -0.24710254 0.6075901 0.8527913 0.3096761
000180 73 4e 0d 3f 61 42 b5 3e e0 5b 19 be 29 98 57 3f
       0.5519783 0.35402206 -0.14976454 0.8421655
000190 b8 c8 82 be aa 84 07 3e c3 d4 2d bf db 50 af 3e
       -0.2554376 0.13234201 -0.67902774 0.34241375
0001a0 95 99 c0 3e a4 79 51 3e 96 9f b8 3d 2b 09 d4 3e
       0.37617174 0.20456558 0.090148136 0.41413245
0001b0 d8 5f 5e 3f 76 5e 1d 3e d0 52 cd 3e f5 8a 6c 3d
       0.86864996 0.15368065 0.40102243 0.057749707
0001c0 33 76 b9 be 93 42 1a bd 5b 22 b5 3e e4 c0 f6 3e
       -0.3622299 -0.037661146 0.35377774 0.4819404
0001d0 cd b6 95 3e ef 61 31 3f 0c ad 75 3e ae 4b 3e 3f
       0.29241028 0.6929006 0.23991793 0.7433423
0001e0 96 33 c9 3c a3 dc c0 be cf f8 0e bf 1f 28 c9 be
       0.02456073 -0.37668332 -0.558484 -0.39288422
0001f0 1f ee e4 bb bb 34 9c 3e 46 b0 cb be ef 36 25 3e
       -0.006986394 0.3050898 -0.39782923 0.16134237
000200 f0 c9 96 bc 94 7b 0b 3e ab bc 9b bd ca 3f e5 3e
       -0.018406838 0.1362136 -0.07604345 0.4477523
000210 4b 87 58 bf dc fd df be b8 3e e3 bd a8 54 1e bf
       -0.8458144 -0.43748367 -0.11095947 -0.61847925
000220 1a 70 1a be 81 9b 7b be 68 b2 1d 3f b4 d7 56 bf
       -0.15081826 -0.24571039 0.6160035 -0.83922887
000230 f7 34 08 bf a4 68 9c be 15 a7 01 bf ed 1f 2b 3d
       -0.5320582 -0.30548584 -0.5064557 0.041778494
000240 4a 3d a8 3d b4 65 d2 3e a3 38 8d 3e 78 5c 80 3e
       0.08214815 0.41093218 0.27582273 0.25070548
000250 12 41 6d bf e2 72 10 3f ad ef b4 3e 0d 55 80 3e
       -0.92677414 0.564253 0.35339108 0.2506489
000260 71 cb 95 3f 3a 80 60 3f 0a 04 60 be 96 53 23 3d
       1.170271 0.8769566 -0.21876541 0.039874636
000270 42 78 18 bd 66 95 d6 be f3 c8 d6 bd 75 0f d3 be
       -0.03722406 -0.41910857 -0.10487547 -0.4122273

bias f4 [4]
000000 0a 57 8c bd 11 35 dd be 95 2c 44 be a2 69 55 be
       -0.06852539 -0.4320455 -0.19157632 -0.20841077

weight f4 [60, 2]
000000 c6 52 f6 3e 16 73 14 3d fa a2 04 be 5b a2 ef 3c
       0.48110026 0.036242567 -0.12952796 0.029252222
000010 04 93 0c bf c8 c7 4a be 72 7c 34 3e ab e2 13 be
       -0.5491183 -0.19802773 0.17625597 -0.14441936
000020 1f 12 0d bf a8 fa 5f 3e a9 3a b1 bf 2c df 52 bf
       -0.55105776 0.21872962 -1.3846027 -0.82371783
000030 40 3e 19 3e 08 39 41 be 46 e6 32 be cc a3 37 be
       0.14965153 -0.18869412 -0.17470655 -0.17933577
000040 db e4 58 3f 35 ce aa bd 8e 0c f3 bf 2f 0f 81 3d
       0.84724206 -0.08340112 -1.8988206 0.06301724
000050 25 db 93 be 83 0f 0a 3e 22 19 fa 3e 40 ef 6b bc
       -0.28878132 0.1348248 0.488473 -0.014400303
000060 19 76 c7 3e a0 6a 8c 3c c1 9b 04 3e fc 51 2c bf
       0.3895729 0.017140687 0.1295004 -0.673126
000070 87 07 30 3f 73 93 99 be 17 92 8b 3f a7 29 46 be
       0.68761486 -0.29995307 1.0903958 -0.19351827
000080 c5 d7 ef 3e 19 42 4d 3f 67 2b 4e be b1 d6 2a be
       0.46844307 0.8017898 -0.20133744 -0.16683461
000090 1d 03 3a be b7 68 95 3d e9 de 7c be 67 36 19 3f
       -0.1816525 0.072953634 -0.24694408 0.59848636
0000a0 ee 43 3d bf 19 60 6e bf de f9 91 3e 6b cd 82 be
       -0.7393178 -0.93115383 0.28510946 -0.25547346
0000b0 92 c2 1c be f7 87 26 3e 24 13 8d 3e a2 52 e7 be
       -0.15308598 0.16262804 0.27553666 -0.4518023
0000c0 bb d1 95 bf df c5 0c 3f 01 f7 da 3f f6 f9 44 be
       -1.170463 0.5498943 1.710663 -0.19235978
0000d0 1d ea 1a 3e e8 f7 e7 3e d4 4d 6e 3e 20 46 4a 3d
       0.1512837 0.45306325 0.23271877 0.049383283
0000e0 70 da 04 c0 fb b9 1a 3c c4 3c a0 be 23 9e 9c bd
       -2.0758324 0.009443755 -0.3129636 -0.0764735
0000f0 b0 08 8c bd f0 b6 31 3e b9 ab 2c bf a5 28 1e 3f
       -0.068375945 0.17354941 -0.6744953 0.6178077
000100 23 a5 75 bd ce a4 c4 be a8 e2 7d be f8 48 b0 bd
       -0.05997194 -0.38406986 -0.24793494 -0.08607668
000110 79 5b e2 bd d7 10 d9 3e d6 da a5 bf ce 21 72 3f
       -0.11052603 0.4239566 -1.2957408 0.9458283
000120 8b 76 48 bf a2 5c 04 40 b5 ec a2 3e be 63 c7 3e
       -0.7830588 2.0681539 0.31821218 0.38943285
000130 8b cd e9 3e 01 df b4 3e 53 98 11 c0 e5 5f 57 3e
       0.4566463 0.35326388 -2.2749221 0.21032675
000140 62 cb 42 be de 2a 33 be ea d5 ac 3e 53 27 99 be
       -0.19022897 -0.17496821 0.33756953 -0.29912814
000150 66 fc 52 be 16 41 fe bc dd 4f 25 bf d0 b4 fb 3e
       -0.20604095 -0.031036895 -0.64574987 0.49161386
000160 56 38 50 3e 88 8e 54 3d 60 97 20 3f f9 10 0e be
       0.2033399 0.05189374 0.6273098 -0.13873662
000170 b2 fc c7 bf ba bb 8e bf ae 0c 54 3e 04 a8 db bd
       -1.5623991 -1.115104 0.20707962 -0.10725406
000180 06 04 99 3b 6c 07 f7 3e cf e0 76 3e 66 bc 36 3f
       0.004669669 0.4824785 0.24109195 0.71381223
000190 a0 45 2f 3f 01 4f 15 bf d0 1c a6 3e 4e be dd bd
       0.68465614 -0.58323675 0.32443857 -0.10827313
0001a0 5c 78 46 be 11 75 80 3e 04 c7 1b bf 3a 15 80 3e
       -0.19381851 0.25089315 -0.6085055 0.25016195
0001b0 8b 33 11 3f e8 f5 39 be a5 a6 f7 be 20 70 21 3e
       0.56719273 -0.18160212 -0.48369327 0.15765429
0001c0 d0 43 63 bf aa 4b 01 be 1e 36 15 c0 97 49 0f 3d
       -0.8877535 -0.1262652 -2.331428 0.03498229
0001d0 b0 c9 a5 bd f8 c8 cb bd 0f 21 88 bd 75 ef fb 3e
       -0.080951095 -0.09950441 -0.066469304 0.4920613

bias f4 [60]
000000 a7 3c 39 3f d4 d5 68 be dd a3 4b bf 61 a9 6f 3f
       0.72358173 -0.22737819 -0.7954691 0.93617827
000010 fa 27 43 bf c5 3a aa be 1c 3d c7 be f1 48 e1 be
       -0.76232874 -0.33247963 -0.3891381 -0.44000962
000020 2c d7 cd 3e 59 f0 96 3f 86 9c d7 be da dc 2a bf
       0.40203226 1.1792098 -0.42111605 -0.6674324
000030 70 0f 3d 3e dd 96 98 3e 65 cf a2 3e c4 04 1f 3f
       0.1846292 0.298026 0.31798854 0.62116647
000040 68 f4 ac 3f 69 89 ba 3f 91 7a 07 bf 98 1e 90 3f
       1.3512087 1.4573184 -0.52921396 1.1259336
000050 cb 10 45 be 33 93 92 3e 89 da fd 3f b6 2f 55 bf
       -0.19244687 0.2862793 1.9832317 -0.83275926
000060 23 29 eb bd e8 0d 31 3f 6e b5 34 bf 0c 30 0f bf
       -0.114824556 0.69161844 -0.7058934 -0.5593269
000070 06 c4 92 3f 5d 2a c9 be 32 13 79 be 6f 86 3a 3f
       1.1466072 -0.39290133 -0.24323729 0.7286138
000080 30 ba a0 3f 8c 9f 3f bf 2a 12 1a bf f2 ee 4c 3f
       1.255682 -0.74852824 -0.60183966 0.800521
000090 3f 01 89 3f c2 11 2d bf 5f 5b 83 be df 78 0e 3f
       1.0703505 -0.6760522 -0.25655648 0.55653185
0000a0 86 61 d4 be b4 00 29 bf 54 8b 8c be df e8 c1 3f
       -0.41480654 -0.660167 -0.2745005 1.5149192
0000b0 5c 42 a0 3e a2 c8 d2 3e 35 35 e6 3e c5 5a 9d be
       0.31300628 0.41168696 0.4496247 -0.30733314
0000c0 3f 39 94 3f 55 2f 0b 40 d2 18 7d bf e9 4f b2 3f
       1.157997 2.174764 -0.98866 1.3930637
0000d0 ac 1c ea 3f 74 31 68 3f 9e 3b be 3e cb 47 4b bf
       1.829 0.9070046 0.3715486 -0.7940642
0000e0 b0 dd 61 bd bf 18 21 3e e4 e1 71 be 49 5b 1f bf
       -0.05514306 0.15732096 -0.23621327 -0.62248665

weight f4 [60, 60]
000000 63 ec ec 3e 89 60 e2 3d a9 e5 0f be 7b b3 3a 3f
       0.462741 0.11053569 -0.14052452 0.72930115
000010 3d f3 2f bd 05 b9 0d 3f ac 20 12 be d8 dd e0 3c
       -0.04295658 0.5536044 -0.14270276 0.027449533
000020 a7 ab a9 3e 1c ed 1b 3f 7d 3f 57 3c e4 16 67 3d
       0.33138773 0.60908675 0.013137695 0.056418315
000030 29 c2 0f 3f 76 ee e1 3e 05 f2 b1 3e 7f 4a fc 3e
       0.5615564 0.44127244 0.3475496 0.49275586
000040 2c 47 47 3f e0 61 42 3f 8a 55 47 3e 0f ae 99 3e
       0.77842975 0.75930595 0.19466224 0.3001561
000050 d1 45 c3 3e d7 dd 8f 3e bf 0a 39 3f 17 3d 5d 3e
       0.38139203 0.28098938 0.7228202 0.21605335
000060 0c e7 65 3e aa 44 2c 3e fa df a2 3c aa f5 93 3d
       0.22451419 0.16823068 0.019882191 0.07224591
000070 24 d6 1e 3f 5a ae 04 bd 74 f6 b1 bd f7 18 17 3f
       0.620455 -0.032392837 -0.08689585 0.5902247
000080 e4 07 f4 3e ec c5 57 3d 4b 15 eb 3d 3b cc d6 3e
       0.4766227 0.052678987 0.11478671 0.4195269
000090 e5 4b 23 3f 59 47 6f 3d 03 2d bb 3e 03 db 20 3f
       0.6378768 0.05841765 0.3655778 0.62834185
0000a0 e7 fe f7 bc 46 06 a7 3d a9 b9 27 be a2 c9 ed 3e
       -0.030272914 0.081554934 -0.16379417 0.46442896
0000b0 a3 75 e0 3e a1 c9 b2 3e 93 93 18 3f 25 cd 25 bd
       0.4383975 0.34919456 0.5960018 -0.040478844
0000c0 89 91 d6 3e 47 03 ce 3e e1 3e e0 be b8 ae 4c 3f
       0.4190791 0.40236875 -0.43797973 0.799541
0000d0 07 a2 40 3f 35 fe d3 3e 62 03 c6 3e d1 25 0c 3e
       0.75247234 0.41404882 0.38674456 0.13686301
0000e0 8c 0c ee 3e de 83 c0 3e 80 35 85 ba 95 97 03 3d
       0.46493948 0.37600607 -0.0010163039 0.03212698
0000f0 fb 24 b3 3e 9c e9 29 3e 43 7f e5 3d bf 84 ec 3e
       0.3498915 0.16593021 0.11205914 0.46195027
000100 cf a5 f0 bd d8 0d 9f 3d d2 14 1d 3e b7 68 c3 3e
       -0.117503755 0.07766312 0.15339974 0.3816583
000110 25 57 47 3f 5f 73 88 3f c9 2d 72 be 68 f0 2c bc
       0.77867347 1.0660208 -0.23650278 -0.010555364
000120 e6 2f 32 3f 57 35 32 40 f4 67 1f 3f 38 61 08 40
       0.6960434 2.7845056 0.62267995 2.1309338
000130 9d 8f 12 3f 6a df fd 3e 18 4a d8 3e 61 42 11 3d
       0.57250386 0.49584514 0.4224403 0.035463694
000140 32 85 b0 3d ff b9 85 bc 02 11 08 3e 4f c1 4c 3e
       0.08619155 -0.016324041 0.13287738 0.19995616
000150 5e 88 d5 3f f6 f4 65 bb f3 98 2e be 9c cd 67 3d
       1.6682241 -0.0035088635 -0.17050533 0.05659257
000160 4a c8 ac 3e 75 4c 5b be 5a 5b fb 3d 8d e4 02 3c
       0.33746558 -0.21415885 0.12273283 0.007989061
000170 f2 2d 84 bf 7d 13 dd 3d 13 b9 95 3d b7 cc 02 3f
       -1.0326521 0.10794733 0.07310691 0.5109362
000180 9a 01 94 3f 6f 55 9a bd 95 d1 98 3d 17 61 54 3f
       1.1562989 -0.075358264 0.074618496 0.8296065
000190 85 ee e0 bd 58 07 18 3d 07 49 fe bd 92 e1 2f 3f
       -0.10982994 0.03711638 -0.124162726 0.6870357
0001a0 e9 2d c3 3e 4b 86 09 3f fe 49 4c 3f 69 db b2 3d
       0.38120964 0.5372054 0.79800403 0.087332554
0001b0 4a 80 ad 3e 6c e5 ba 3e 64 af e6 3e 6c 81 a6 3e
       0.3388694 0.3650316 0.45055687 0.32520616
0001c0 db 36 81 3e 63 e9 0e 3f e3 79 88 3f bb 30 c6 bc
       0.25237164 0.5582487 1.0662197 -0.024193158
0001d0 fa 29 30 be 3a 34 60 3f c8 91 81 3c 0a 9c 5a 3d
       -0.17203513 0.8757969 0.015816584 0.053371467
0001e0 67 3d 1f bf c6 9a d6 bd 62 39 6f 3e fa e1 16 bf
       -0.6220307 -0.104787394 0.23361734 -0.5893856
0001f0 65 3d 82 bd b9 83 e5 be 07 84 16 3e b0 af 1f be
       -0.06359366 -0.4482706 0.14698802 -0.15594363
000200 8b c0 3c bb 04 3e 52 bf 46 68 a9 bd 62 c9 9b 3d
       -0.0028801288 -0.8212588 -0.08271842 0.0760677
000210 92 b3 a5 be 6e d5 d2 be 9d 60 a4 be f1 82 ee be
       -0.32363564 -0.4117846 -0.3210496 -0.46584275
000220 dc 7a 18 bf b1 6c 25 bf 29 58 42 be 58 88 30 bf
       -0.5956247 -0.64618975 -0.18978943 -0.68958044
000230 3f cb a8 be 88 41 99 be 5e b6 67 bf fc 63 d0 3d
       -0.32967564 -0.2993281 -0.90512645 0.101753205
000240 77 a0 e4 be da e0 ca be a5 ea 80 3d a0 4f bb 3b
       -0.44653675 -0.39624673 0.06294755 0.005716279
000250 69 83 2e bf 22 6e 5d 3e 7c 0f 70 bd 1e 61 dd be
       -0.68169266 0.21624044 -0.058608517 -0.43238157
000260 de 77 83 bf f8 7c 63 3e bd aa 41 be ef 38 8c bf
       -1.0270956 0.2221564 -0.18912788 -1.0954875
000270 4a bc 31 be 0c 64 fc bd 27 3b c9 be 53 eb 4a bf
       -0.17356983 -0.1232377 -0.39302942 -0.79265326
000280 cc 3b 24 3d 30 3b 62 3c b4 0c 9d 3e 8d 7c 7e bf
       0.04009609 0.013808057 0.30673754 -0.994088
000290 24 7c e3 be 88 35 65 be 44 6d 86 bd 70 06 d9 3d
       -0.4443065 -0.22383702 -0.065638095 0.10596931
0002a0 09 70 46 bf 2d 4e 97 be a9 a4 a0 3e 95 ef e9 be
       -0.775147 -0.2955183 0.31375626 -0.456906
0002b0 32 da 4b bf 4b 56 a8 bf 35 4a f4 be 5a 9d 48 bd
       -0.79629815 -1.3151335 -0.47712865 -0.048978187
0002c0 ba 95 48 be 00 cc 3b bf b6 2b 9f 3d 9d 36 87 be
       -0.19588366 -0.73358154 0.07772009 -0.26408854
0002d0 60 9f a8 be 63 21 80 3d 2a 32 ab be ab 2a 5d be
       -0.32934093 0.06256368 -0.3343671 -0.21598308
0002e0 21 ef d1 3d d7 63 22 3e 49 0e 2f be 2f 22 22 3d
       0.10250688 0.15858398 -0.17095293 0.03958338
0002f0 01 69 19 be 06 e6 e6 3e 7b d6 92 bd 46 e8 b7 3d
       -0.14981462 0.4509737 -0.07169815 0.089798495
000300 3f 53 b4 bb ba 56 38 bd 32 99 dc be 9d 3e f3 be
       -0.005503088 -0.045004584 -0.4308563 -0.47508708
000310 ec 71 59 be 23 52 b1 be 8c 68 97 3d 18 8d 32 be
       -0.21234864 -0.34632978 0.073929876 -0.17436635
000320 33 18 46 bd 2a 75 00 bf a9 88 05 be d6 e1 f7 3c
       -0.048362922 -0.5017878 -0.13040413 0.030259054
000330 f2 a1 77 be 87 55 ee be ed f1 05 3f f8 f5 b4 3d
       -0.24182871 -0.46549627 0.52322274 0.08835977
000340 d4 ec 73 bd 30 10 6c be 1c ef d1 3d 95 74 4c bd
       -0.05955203 -0.2305305 0.102506846 -0.04991587
000350 19 d7 b0 3e d7 46 c1 be 4e bd ca be 55 62 ad be
       0.34539106 -0.3774936 -0.39597553 -0.33864084
000360 74 6f 36 bf 34 45 67 3e 35 cc e6 be 52 3d 7a bc
       -0.71263814 0.22584993 -0.45077673 -0.015273409
000370 96 c3 a9 be ae e3 cf 3d 7b 61 be bd 4a be 19 3e
       -0.33157033 0.10150848 -0.09295937 0.15013996
000380 55 fc cc be cd 6a 5d be 3c 6e 32 be 44 ea 83 3d
       -0.40036264 -0.21622773 -0.17424864 0.06441167
000390 24 41 0c bd 02 90 b7 be ef 86 3d be 4b 07 a7 be
       -0.03424181 -0.35852057 -0.18508504 -0.32622752
0003a0 2b 6d 4a be 6d bd bd 3e 2a bc 8d be 66 b0 3d 3e
       -0.19768207 0.37058583 -0.2768262 0.18524322
0003b0 5f 0a 82 bc 5e 14 52 3e d8 4e 86 bd ca cf 2f be
       -0.015874086 0.20515582 -0.06558007 -0.17169109
0003c0 e4 b7 20 3f f0 65 ac bd 6a 1c a7 3e ed 29 fe 3e
       0.62780595 -0.084178805 0.32638866 0.49641362
0003d0 7d 65 67 3c 4a 1f 3e 3d 74 ad 76 be ec 15 27 3e
       0.014123318 0.04641656 -0.24089605 0.16316956
0003e0 94 6a ea 3e 9b 1c f6 3e d3 c4 4b 3e a8 b6 2d 3d
       0.45784438 0.480687 0.19899301 0.042410523
0003f0 f2 0c 02 3f 9c d4 bd 3e fc 12 c3 3e 4d f1 41 3f
       0.50801 0.3707627 0.3810042 0.7575882

bias f4 [60]
000000 13 73 45 3f 43 bd 03 3f 4a 35 4f bf 03 a3 25 3c
       0.77128714 0.51460665 -0.8094069 0.010109666
000010 d6 5c 1c 3f d7 24 e3 3e 0b db a4 3e c0 23 8f be
       0.61079156 0.44364044 0.32198367 -0.27956963
000020 2f 36 73 be 57 03 b3 be b9 30 40 3e 2a 39 b9 bd
       -0.23751138 -0.34963486 0.18768586 -0.09044106
000030 c8 d6 77 3e 11 71 4b bf 32 ad 1f bf e4 bc 70 be
       0.24203026 -0.794694 -0.6237365 -0.23509556
000040 a5 45 a8 be c7 ba 02 3f 43 c2 6b 3e 5f c7 9f bd
       -0.32865635 0.5106625 0.23023324 -0.07801699
000050 3a 34 f5 3e e2 6b 20 bf 89 e4 3a bf a7 f1 83 be
       0.47891408 -0.62664616 -0.73004967 -0.25770304
000060 e9 74 71 3e 2d 2c e5 be 85 9a e9 3e ee 9f 7a 3f
       0.23579754 -0.44760266 0.45625702 0.97900283
000070 6b 4c 9d be 98 6f e9 3e 60 e6 54 bf 81 63 1c bf
       -0.30722365 0.45592952 -0.83164024 -0.6108933
000080 2e 65 bd bd 9b 15 5f be 08 b7 f0 bd 90 4b 94 be
       -0.09247814 -0.21785586 -0.117536604 -0.289639
000090 c1 b4 26 bf 5c bd b3 3d 64 52 1c 3d 46 10 cc be
       -0.6511956 0.08776352 0.03816451 -0.39856166
0000a0 2c cb 40 bf 57 97 18 bf 1f 48 c8 3e 02 c2 3e bf
       -0.75310016 -0.59605926 0.39117524 -0.7451478
0000b0 88 2f 01 3f 03 63 b1 be 8d 17 fe 3e ed 04 26 bf
       0.5046315 -0.34645852 0.49627343 -0.64851266
0000c0 9e cc e2 3e a3 d2 a5 3f 0b 3c 12 bf 4e b2 fa be
       0.44296736 1.2954906 -0.5712287 -0.4896416
0000d0 38 02 6c 3e 7f 93 a5 be 64 30 95 be 9d 1e 1d bf
       0.23047721 -0.32339093 -0.29138482 -0.6137484
0000e0 30 61 1c bf 9a 14 da be 8a aa 76 be 1d 0a 98 3e
       -0.61085796 -0.42593843 -0.24088493 0.29695216

weight f4 [60, 60]
000000 a2 19 e7 3e e3 a6 0d 3e ed 68 c4 be b2 e8 bc be
       0.45136744 0.13833193 -0.38361302 -0.36896282
000010 fe 89 0f 3f 65 62 9e 3e ef 0a 03 3f ef 39 c9 3e
       0.56069934 0.30934444 0.5118856 0.39302012
000020 3a e0 aa be 05 f4 11 bf 5d 4c a3 be 87 d4 b5 be
       -0.33374196 -0.5701297 -0.31894198 -0.35513708
000030 e2 60 85 3e 0f 61 4b be 10 ad c4 3e f3 71 88 be
       0.26050478 -0.19861244 0.38413286 -0.26649436
000040 1f d9 a4 3e 3f 18 31 be a2 68 7e 3e aa a1 8e 3e
       0.321969 -0.17294405 0.24844602 0.27857715
000050 87 36 06 3f b5 c2 cf be ba ad a1 3e 42 bc 8b be
       0.5242695 -0.40578237 0.31577855 -0.27292067
000060 d8 5f d5 3e f5 04 0d 3f 44 82 49 3e 50 1d d2 3e
       0.41674685 0.5508569 0.19678599 0.4103799
000070 3d 52 a1 be 3f b7 86 3e ba 79 54 be b4 66 8c be
       -0.31508055 0.2631168 -0.2074956 -0.27422106
000080 c9 5d 1e 3f 8f 46 20 3f 7c 02 fe be 4d 69 8e be
       0.61861855 0.62607664 -0.4961127 -0.27814713
000090 c6 48 06 be 18 aa e9 be 24 0b c5 3e 65 cf 46 be
       -0.13113698 -0.45637584 0.38485062 -0.19415052
0000a0 55 89 c3 be ef 48 73 be be bd 91 be 4c 48 c3 bd
       -0.38190714 -0.2375829 -0.28465074 -0.09535274
0000b0 25 5a da be f1 64 c1 be dc 62 9e 3e 65 99 c5 be
       -0.426469 -0.37772325 0.309348 -0.38593593
0000c0 7a ef 96 3e b8 ec e5 3e 7d c4 ba be 8a 3c 01 bf
       0.2947958 0.44907165 -0.36478034 -0.50483
0000d0 60 df 6b be a7 09 50 bf 68 05 b5 be b0 d2 b4 be
       -0.2303443 -0.8126473 -0.35355687 -0.35316992
0000e0 dd 6f b9 be 97 8c cd be 52 54 0e be f2 d8 b2 3e
       -0.36218157 -0.40146324 -0.13899353 0.3493114
0000f0 e9 80 22 3f 12 9d 1b 3f c6 c2 2c bf 0f 46 12 bf
       0.6347795 0.60786545 -0.674847 -0.5713815
000100 a8 72 a7 3e b8 d5 03 3f 63 e4 36 3f 11 d4 37 be
       0.32704663 0.51497984 0.7144224 -0.1795199
000110 51 06 04 bf 4c 58 4f 3e cc 51 78 3e 59 b2 92 be
       -0.5157214 0.20248526 0.24249953 -0.28651693
000120 d1 ef 45 3f 26 07 09 bf f9 92 31 be 30 53 6c bf
       0.77319056 -0.5352653 -0.17341222 -0.92314434
000130 33 bd 72 be c5 23 4e 3e da 44 2d 3f 7c 2a 27 3f
       -0.23704986 0.20130832 0.67683184 0.652992
000140 38 63 d8 3e 99 c0 0f bf 59 11 1d be b2 58 16 bf
       0.42263198 -0.56153256 -0.15338649 -0.5872909
000150 bb ff 9e bb 9e 78 d4 bd 54 fe 07 3f 9a fb fd 3e
       -0.004852263 -0.103745684 0.5312245 0.4960602
000160 44 98 36 bf 7e 72 ec 3e 17 d2 23 bf dc 32 0c bf
       -0.7132609 0.461811 -0.63992447 -0.54765105
000170 01 85 b8 3a f4 c6 1f 3e 97 f9 b3 be b8 19 10 bf
       0.0014077724 0.15603238 -0.3515136 -0.56289244
000180 1b a3 1c bf b5 1e 25 bf 1e 44 66 3d e9 97 d1 be
       -0.6118638 -0.6449998 0.056217305 -0.4093621
000190 dd 0e 14 be 59 3c 18 bf 25 c0 fb be ba cf 0b bf
       -0.14458795 -0.59467083 -0.49170032 -0.5461384
0001a0 d5 b8 43 3e 8b d3 15 bf b3 99 15 3f ea 74 33 bf
       0.19113477 -0.58525914 0.5843765 -0.7010027
0001b0 e9 7e fe 3e 5c b1 00 3f 32 bf 0b bf 35 1e 33 bf
       0.497062 0.5027063 -0.54588616 -0.6996797
0001c0 ba 1c 31 bf 38 9b 47 be 83 6e 3b bf 54 07 ff be
       -0.6918446 -0.19492805 -0.732155 -0.49810278
0001d0 c6 a6 03 bf 7d 81 09 bf bc 3c 34 be 42 d5 83 3e
       -0.5142635 -0.5371321 -0.17601293 0.2574864
0001e0 07 70 cf be 1b 4b 16 3e a7 80 63 3e d9 ff cd 3e
       -0.40515158 0.14677088 0.22217046 0.4023426
0001f0 fe 63 b2 be 3a f7 f8 be 4a 71 b8 bd 45 23 09 3f
       -0.34841913 -0.4862612 -0.09005983 0.5356944
000200 81 a3 7c 3e 91 fc 4c bf fc bb c1 be 41 cd 1c 3f
       0.24671747 -0.80072886 -0.37838733 0.6125069
000210 2d 7f 7f be d2 72 ad 3e 40 e1 01 3f da cc 00 3e
       -0.24950857 0.33876663 0.5073433 0.12578145
000220 64 86 c9 3e 9c a2 00 bf 69 97 88 be 3f a5 8b be
       0.39360344 -0.5024812 -0.26678017 -0.2727451
000230 ae 20 0b be 7c 8a aa 3e 13 a6 e9 3e 76 e3 84 3e
       -0.13586685 0.3330878 0.45634517 0.2595479
000240 cb 98 a8 3e 05 d5 fb 3e f6 86 ff be 65 de 74 be
       0.32929072 0.49185959 -0.49907655 -0.23912962
000250 01 a2 ef 3c bd 47 29 bf 99 91 9e 3e de ca df 3e
       0.029252054 -0.6612509 0.30970457 0.43709463
000260 84 a8 45 bf 0e 6e 35 3f fe 74 ee 3d b0 14 cd 3e
       -0.7721026 0.70871055 0.11643408 0.40054846
000270 41 2b 29 3f db 90 09 bf 3c 71 ec 3e ef a3 aa 3d
       0.66081625 -0.53736657 0.4618014 0.08332049
000280 24 48 95 3e c2 22 7d 3e eb fa 52 3e 1e 92 cb 3e
       0.291566 0.2472029 0.2060353 0.39759916
000290 bf 12 10 bf 40 5f e0 3d 72 c8 ae be ad 82 f8 3e
       -0.56278604 0.109556675 -0.34137303 0.48537198
0002a0 d8 0f 8d be b1 3f f3 be 93 7f eb 3e 6d 0a 8e 3e
       -0.2755115 -0.4750953 0.4599577 0.2774233
0002b0 b4 3f c3 3e f5 05 f2 3e 0f 4b 1c 3f 5a 13 61 3e
       0.3813454 0.4727017 0.6105203 0.21980038
0002c0 8a 52 5b 3e 7a 43 00 3d df 8f 17 be b0 73 1e bf
       0.21418205 0.03131435 -0.14800976 -0.61895275
0002d0 88 83 ac be 8c d7 0e 3f f7 4e ee 3e ee 1f 0d 3e
       -0.336941 0.5579765 0.4654462 0.13781711
0002e0 cf 1a dd be 0a e4 e6 be b9 7e 05 bf dd 2e af bd
       -0.43184516 -0.45095855 -0.5214649 -0.0855386
0002f0 1d 63 e0 3e 3d 74 3d 3f 00 75 2e be ce eb ba 3e
       0.43825617 0.7400549 -0.1703682 0.3650803
000300 53 32 07 bf fd 19 7b 3e d3 63 03 bf be 92 dc 3e
       -0.52811164 0.24521632 -0.51324195 0.43080705
000310 11 ea ee be 60 94 a5 3e 7e 49 50 be 0b c1 f5 be
       -0.46662953 0.32339764 -0.20340535 -0.47998843
000320 10 45 08 bf 3e e3 52 3e 01 1a fa be b6 f9 90 3d
       -0.5323038 0.20594499 -0.48847964 0.070788786
000330 50 6f a5 be 23 20 cf be 3e de 93 be 25 b3 43 be
       -0.32311487 -0.40454206 -0.28880495 -0.19111307
000340 db 59 69 3e 70 41 e7 3d 1f 10 71 3e 70 65 a5 3e
       0.22788183 0.11291778 0.23541306 0.32303953
000350 f9 fb 46 be 00 28 23 bf 08 f4 bd 3e d5 f4 90 3e
       -0.19432057 -0.6373291 0.37100244 0.28311792
000360 5a 4e 71 3e 84 1c 2d 3f 3b 05 ad be d7 d4 11 3f
       0.23565045 0.67621636 -0.33793053 0.5696539
000370 19 0c a8 3e ab 2b c4 3e 84 96 b4 3e b6 0a 7e be
       0.3282173 0.38314566 0.35271084 -0.24808773
000380 29 90 21 3e 48 69 ca 3e fb fd 87 be fa 1f 44 3e
       0.15777649 0.39533448 -0.2656096 0.19152823
000390 29 31 52 be 58 56 47 bf 83 43 c1 3e 41 76 cd 3d
       -0.20526566 -0.77866125 0.3774682 0.10032321
0003a0 ab af 8d 3d 91 ae bd 3e fd 5f 50 3e 44 c6 c8 3d
       0.06918272 0.37047246 0.20349117 0.09803441
0003b0 24 01 fc 3e b4 72 4b 3f a0 43 28 3f cb 62 7f be
       0.4921962 0.794719 0.6572819 -0.2494003
0003c0 a8 db 96 be a7 3a 08 bf 77 8e 0b 3f e4 30 db 3e
       -0.2946446 -0.53214496 0.5451426 0.42810738
0003d0 94 06 ef be a2 08 b9 be da 2b 0d bf 37 af 08 3f
       -0.46684706 -0.361394 -0.5514504 0.53392357
0003e0 b2 b8 2e 3f 30 cb 4a be 73 96 f2 be 3b 66 b9 3e
       0.6825057 -0.19804072 -0.4738041 0.36210808
0003f0 14 7a fc be 29 82 12 3f 53 59 7a 3e 9e 95 7c 3f
       -0.49311888 0.5722986 0.24448137 0.986658

bias f4 [60]
000000 1d 37 c4 3e b1 80 e8 3e 90 38 71 be 36 82 fb bd
       0.38323298 0.45410684 -0.23556733 -0.12280695
000010 e7 e3 b9 be ac a5 a8 be 33 02 66 be 7a 1d 7d be
       -0.36306688 -0.32938898 -0.22461776 -0.24718276
000020 d9 58 27 3e 2f 96 f8 3e 0d 96 13 3f 45 cf aa 3e
       0.16342486 0.4855208 0.57650834 0.3336126
000030 38 57 c9 be bc 4e 22 bf f9 b3 b8 be c5 0b 09 3f
       -0.39324355 -0.6340139 -0.36074808 0.53533584
000040 85 5d 1e bf 69 4a 71 3e b7 7a 00 3e 43 70 18 3f
       -0.6186145 0.23563541 0.12546812 0.595463
000050 f3 b2 f0 3e 9a c8 bc 3e b0 6a ac be 93 30 fc 3e
       0.47011527 0.36871797 -0.33675146 0.4925581
000060 25 47 b9 3e 58 64 7b be b3 fb 03 bf 06 a4 a0 3e
       0.3618709 -0.24549997 -0.5155594 0.3137514
000070 39 af a1 be 95 9d 09 bf c8 91 60 be 9d ff 2f 3f
       -0.31578997 -0.53756076 -0.21930611 0.6874941
000080 41 3c 16 bf d9 74 aa 3e a9 1b a0 be 1b 6c 8c be
       -0.5868569 0.33292273 -0.31271103 -0.27426228
000090 02 92 32 bf 78 98 9c 3d aa 4a 68 be e0 81 d2 3e
       -0.6975404 0.076462686 -0.22684732 0.41114712
0000a0 ad e8 10 bf 21 3c 84 be 90 99 12 be 11 54 95 3e
       -0.56605035 -0.25827125 -0.14316392 0.291657
0000b0 8f 7e ff be e4 a2 f3 3e 87 67 e3 be a9 69 06 bf
       -0.49901244 0.47585213 -0.44414923 -0.52504975
0000c0 8f a2 b9 be fa 6f 0d bf f2 4f a0 bd c4 7b b5 3e
       -0.36256835 -0.5524899 -0.07827748 0.35445988
0000d0 83 02 d6 3e c0 a3 90 3e 49 35 46 3e 07 8b cf 3e
       0.4179879 0.2824993 0.19356264 0.40535757
0000e0 eb 5d 54 be 32 66 c0 be a8 9f b7 be 0d 4b 9f 3e
       -0.20738952 -0.3757797 -0.35863996 0.31111947

weight f4 [60, 60]
000000 05 d9 9b be 9d e7 de be df 7d 23 be 19 0f 24 3e
       -0.3043901 -0.43536082 -0.15965985 0.16021384
000010 3c d4 0f 3f f5 22 a1 3e 48 8b 07 bf de 27 80 3e
       0.5618322 0.31471983 -0.529469 0.25030416
000020 fc 64 94 be bc a7 c2 be f4 a6 a1 be 1a 1b 74 be
       -0.28983295 -0.38018596 -0.31572688 -0.23838463
000030 39 98 d1 3e ac 59 c1 3e ad 8c a5 3e 44 47 bf be
       0.4093645 0.37763727 0.3233389 -0.3735906
000040 cf e5 da 3e 3f 34 1d bf 46 8b a3 be 0e 1a c6 be
       0.42753455 -0.61407846 -0.31942195 -0.38691753
000050 8d fd da be 18 de 0f bf 79 b2 00 3f 97 34 35 be
       -0.4277157 -0.56198263 0.5027233 -0.17695843
000060 6f 99 48 be f7 80 63 3e 00 9e e8 3e b5 ae b0 be
       -0.1958978 0.22217165 0.45433044 -0.3450829
000070 f4 f8 0f 3f b8 34 a7 3e 16 df f8 3e 02 5a 8b be
       0.5623925 0.3265741 0.486077 -0.27217108
000080 03 99 97 3e 34 92 20 be 2e b8 f4 3e 01 c8 b2 3e
       0.29608926 -0.15680772 0.47796768 0.34918216
000090 d5 25 dd 3e 6d f7 b2 be 85 b7 ac be 84 b9 22 be
       0.43192926 -0.34954396 -0.33733764 -0.15891081
0000a0 e2 e1 ad 3e d0 a7 73 3e 3d 58 6c 3e db af bb 3e
       0.33961397 0.23794484 0.23080535 0.36657605
0000b0 4e 1f d1 3e db 05 91 be 6c 1e 8c 3e b3 45 68 3e
       0.40844196 -0.2832478 0.2736696 0.22682838
0000c0 51 60 9b 3e c0 d5 82 3e 44 0d 4d 3e e8 9e db be
       0.3034692 0.25553703 0.20024592 -0.42894673
0000d0 c3 c7 0a bf e9 7a de be 2d 97 fc be 71 25 34 bf
       -0.5421106 -0.43453148 -0.49334088 -0.7036963
0000e0 d6 65 17 3e e7 e7 9a 3b 44 e5 e9 3e fd 02 a0 be
       0.14784941 0.004727352 0.45682728 -0.3125228
0000f0 bd 4d b9 3e 97 42 96 3e 04 d5 92 3e b8 93 3b be
       0.36192122 0.2934768 0.28678143 -0.18318069
000100 bf c1 f1 be 56 d3 d7 be 1f b8 e3 3e a1 2a 65 be
       -0.4721813 -0.42153424 0.4447641 -0.22379543
000110 ed a1 9e 3e 30 f5 f7 3e 7f d6 c9 3e 81 1d ab 3e
       0.30982915 0.4842925 0.3942146 0.33420947
000120 16 8a ed be 2d 50 87 bd ac ae 16 bf 0b d5 7a 3e
       -0.46394414 -0.06607089 -0.5886028 0.24495332
000130 53 8d ef be 3c a6 01 3f 2a 76 3a 3e 19 31 c6 3e
       -0.4678751 0.5064428 0.18209139 0.38709334
000140 59 e5 bb 3e 95 19 e1 3e 91 53 b7 be 14 4b 9f 3e
       0.36698416 0.4396483 -0.35805944 0.31111968
000150 0d ff 97 3e 4d ad f2 bd cc eb 96 be c0 ce 92 3e
       0.29686776 -0.11849461 -0.29476774 0.28673363
000160 fd 49 de be ba 82 ec be 23 d6 04 bf 8b 59 b9 3e
       -0.43415824 -0.46193486 -0.51889247 0.36201128
000170 80 fc 3a be 4a 67 51 3e 14 51 92 be d4 2b 08 be
       -0.18260384 0.20449558 -0.28577483 -0.13297969
000180 06 ef 39 be ed 80 0d 3f bf 6d dd 3e 1b 44 98 be
       -0.18157586 0.5527485 0.43247792 -0.2973946
000190 9f 59 da be c7 dc c0 bd 86 d0 9c be c8 9c a0 be
       -0.426465 -0.0941711 -0.3062784 -0.31369615
0001a0 90 ef c7 be dd 6c 7a 3e 53 5f d8 be d0 0c 5d be
       -0.3904996 0.2445559 -0.42260227 -0.21586919
0001b0 f0 0c 04 bf 36 ec bd be c4 17 44 be 46 4b 06 3f
       -0.5158224 -0.37094277 -0.19149691 0.5245861
0001c0 f9 ad 00 3f af 64 f5 3e d7 4f 1f 3f 86 67 27 3f
       0.5026546 0.47928378 0.622312 0.6539234
0001d0 93 89 22 be 71 e2 b2 3e 15 78 1d bf 54 6e d9 3d
       -0.15872793 0.34938386 -0.61511356 0.106167465
0001e0 58 a1 cb be 1b ea 1c bf 71 65 8a bc 37 72 f1 3e
       -0.39771533 -0.61294717 -0.016894074 0.47157452
0001f0 8a 7d 0d 3f f8 62 7d 3f a1 86 8d be 0f dc 2f bd
       0.5526968 0.9897914 -0.27641776 -0.042934474
000200 6b dd 7e 3e 18 0e ff be b3 ce 24 bf 53 89 32 bf
       0.24889152 -0.4981544 -0.643779 -0.6974079
000210 9e 30 2d 3f 2a 58 d0 3e dc 1f ff 3e 7e 0a 75 bd
       0.6765231 0.40692264 0.49828994 -0.05982446
000220 00 b0 38 3f ba 4e 2c bf ff db 19 bf 6f dc 17 bf
       0.72143555 -0.6730763 -0.6010131 -0.5932073
000230 f8 79 67 bf 83 58 33 bf 1c 94 29 3f 3a 99 3a be
       -0.90420485 -0.70056933 0.6624162 -0.18222514
000240 78 35 bd be dc 7c 2c 3e 78 33 17 3f 11 c8 ee be
       -0.36954856 0.16844505 0.5906291 -0.46637014
000250 94 13 3a 3f 52 52 0d 3f 7c 58 d0 3e 93 ea be be
       0.72686124 0.55203736 0.40692508 -0.3728834
000260 9b d1 cd 3e 79 d6 48 3e 2f 37 3f 3f 55 02 b4 bc
       0.4019898 0.19613065 0.7469358 -0.021973768
000270 72 28 00 3f 17 88 46 bf e6 3e f8 bd ab ce 60 bd
       0.50061715 -0.77551407 -0.12121372 -0.054884594
000280 d0 7c 57 3f a6 de 15 be 45 5b ec 3e 5f 49 71 bd
       0.84174824 -0.14635715 0.46163383 -0.058907863
000290 06 fd 4f 3f 8b 64 b9 3d a2 29 30 3f b8 a9 53 3e
       0.8124546 0.0905238 0.68813527 0.20670211
0002a0 90 74 db 3e a7 7d 5b 3e b1 b2 10 3f 49 00 ff be
       0.42862368 0.21434651 0.5652266 -0.49804905
0002b0 9a c8 b7 be 72 22 ca be bc ac b8 be d6 92 3e bf
       -0.35895234 -0.39479405 -0.36069286 -0.74442804
0002c0 53 70 80 3d eb 1a 52 bd 0a 7d 0d 3f a1 18 a1 3d
       0.06271424 -0.051295202 0.5526892 0.07866026
0002d0 81 14 0f 3f bb 89 a9 3c 39 00 2e bf cb ef 05 bf
       0.5589066 0.020695558 -0.6796909 -0.5231902
0002e0 5f 8e fa be 14 87 c0 be b5 c0 de be 6b 79 0b bf
       -0.48936746 -0.37603056 -0.435064 -0.54482144
0002f0 f8 b5 18 3f ee 42 5a bd 3a 4f fa 3d 84 4b 0c be
       0.5965266 -0.053286485 0.122221425 -0.13700682
000300 54 31 39 be 44 60 e0 be 55 b0 00 bf e7 85 2d bf
       -0.18085223 -0.43823445 -0.5026906 -0.67782444
000310 ee 42 0f be fc cf ac 3e 45 9c 07 3f 8e 41 e8 3e
       -0.13990375 0.3375243 0.52972823 0.45362514
000320 07 69 09 3e 40 8f 64 3e 0c 1a 41 be 1e 42 2a 3f
       0.13418971 0.2232027 -0.18857592 0.66507137
000330 5c e7 08 3f 58 b7 b3 be 8a 20 03 bd dd ca 2a 3d
       0.53478026 -0.35100818 -0.032013454 0.04169737
000340 08 a5 ba be 24 0a ee bd fe 73 0c bf db c0 d1 3d
       -0.36454034 -0.11623028 -0.5486449 0.102418624
000350 d4 68 27 be bc 7b 1d 3f 39 a5 40 be 6b 97 0c be
       -0.16348583 0.6151693 -0.18813027 -0.13729636
000360 2e f7 b2 be 25 91 0e 3f fd 51 04 bf 7f 0c af 3e
       -0.34954208 0.5569022 -0.51687604 0.3418922
000370 76 b2 00 be 3e bd 43 bf c6 5d d0 be fc 2c 48 3e
       -0.12568077 -0.76460636 -0.40696543 0.1954841
000380 85 9b f5 bd 77 4b e8 3d bb 41 e1 be 48 16 b4 be
       -0.119925536 0.11342519 -0.4399546 -0.3517325
000390 5a 8e 29 bf fe e4 fe be 39 12 af be 64 3a e1 3e
       -0.66232836 -0.49784082 -0.3419359 0.4398986
0003a0 b4 64 00 3f 00 26 9b 3e 5c 69 0a 3f d2 46 eb 3e
       0.5015366 0.3030243 0.54067016 0.4595247
0003b0 de 23 c8 3e b6 c0 e3 be 7e 2c ed be 15 37 ab 3e
       0.39089864 -0.44482964 -0.46323007 0.33440462
0003c0 02 87 df 3e eb fa 2c 3e e6 d0 ef 3e 07 18 e7 be
       0.4365769 0.16892593 0.46839064 -0.4513552
0003d0 e1 e0 1e bf ef 95 5c be b9 21 3c 3e 67 14 0b 3e
       -0.6206189 -0.2154157 0.18372239 0.13582002
0003e0 9e ba e6 3e 51 ed a1 3e 1f 45 93 3e da fb 87 3e
       0.45064253 0.3162637 0.28763673 0.26559335
0003f0 00 ff 09 be 90 60 cc be 5d 1a 91 be bd ed a9 3e
       -0.13476181 -0.3991742 -0.28340426 0.33189192

bias f4 [60]
000000 0e 49 00 bf 90 2a 8f 3e c4 b0 3b bf 5f 08 64 3c
       -0.5011147 0.2796216 -0.733166 0.013918011
000010 9a d7 04 3e a9 80 b1 be 04 f6 51 be e4 80 7e be
       0.1297287 -0.34668472 -0.20504004 -0.24853855
000020 40 09 12 3f c6 c5 6a 3e 0e a8 a6 be 95 06 2d 3e
       0.57045364 0.22927007 -0.3255009 0.16897042
000030 d8 64 32 be e2 11 41 3e 24 4a a7 3e 09 11 bf 3e
       -0.17421281 0.18854478 0.32673752 0.37317684
000040 a3 3d 61 3e 90 a5 25 bf 95 12 15 3f 06 a8 9a 3e
       0.21996169 -0.64705753 0.5823148 0.30206317
000050 67 6b 73 3e a7 26 8b 3c 48 0b 47 bf 97 3a 87 be
       0.2377144 0.016986204 -0.7775159 -0.26411888
000060 3f 49 9e be a4 53 2b 3f 96 a9 e8 3e 84 8d 8a 3d
       -0.30915257 0.669245 0.45441884 0.06765273
000070 5b bb 00 bf 26 ed f5 be 4e 5b 94 3e d7 a6 58 be
       -0.5028588 -0.48032492 0.2897591 -0.21157394
000080 ed 92 e2 3e a8 51 b3 be 7a e3 b7 be ae f9 ea be
       0.4425272 -0.35023236 -0.35915738 -0.45893615
000090 e8 07 18 3f 23 21 9f be 5d e5 fc 3d 51 b9 12 bf
       0.59387064 -0.3107997 0.12348435 -0.5731402
0000a0 f8 f1 dc bd cd ea 92 be 15 d2 f6 be d9 25 fd 3e
       -0.107883394 -0.28694764 -0.48207155 0.49442938
0000b0 39 08 f7 3d 11 eb e2 be da da f9 3e 36 2e 9c be
       0.12062115 -0.44319966 0.48799783 -0.30504006
0000c0 66 23 e9 be 39 33 db 3e 9d f3 04 bf c0 3f 88 be
       -0.4553482 0.42812517 -0.51934224 -0.26611137
0000d0 0d 65 b9 be eb 95 b6 3e 45 68 19 bf 9f 19 e2 be
       -0.36209908 0.35661253 -0.5992473 -0.44160172
0000e0 7a ec ed 3e 56 38 f9 be 9b 8b dd 3e 5d 4e 33 bf
       0.4646948 -0.48675793 0.43270573 -0.7004145

weight f4 [1, 60]
000000 36 7b 86 3e ba 39 0b be 98 44 97 3e 77 ca 14 3e
       0.26265877 -0.1359624 0.2954452 0.14530359
000010 dc 8a 49 3c 9c 37 1d 3f e5 9f 17 be f2 f1 37 bd
       0.012301173 0.6141298 -0.14807089 -0.04490847
000020 6b f1 a1 be 75 ec 25 be 10 b5 f6 bd 94 a1 97 3e
       -0.316295 -0.16203482 -0.12046254 0.29615462
000030 a5 39 37 3d e2 a5 bf 3e ae 99 ab 3e ed 73 76 be
       0.04473271 0.37431246 0.33515686 -0.2406766
000040 b5 a4 87 be 80 f6 68 3e c4 da d5 be 78 84 5a be
       -0.2649285 0.22750282 -0.41768467 -0.21339595
000050 00 3f c8 bd e6 97 12 3d 43 f0 07 3f 6d bc ce bd
       -0.09777641 0.035789393 0.53100985 -0.10094533
000060 98 db 5d be 1e e4 0d bf a5 8f 30 bd 54 f1 38 3e
       -0.216658 -0.55426204 -0.04310574 0.1806081
000070 78 ff 61 3d 1c a0 be 3e 45 58 88 be 9c ed 50 3c
       0.055175275 0.3723153 -0.26629844 0.012751963
000080 37 18 7b be 31 ce 60 be 75 a8 b1 3e 67 cb a5 3e
       -0.24520956 -0.21953656 0.34698835 0.32381746
000090 45 a2 7c be 03 9f 32 3c ac a3 52 3e 8c f9 5c 3d
       -0.24671276 0.010902169 0.20570248 0.053948924
0000a0 b0 93 4d bd 19 23 45 3e a9 ed 99 3e 9f c7 4a be
       -0.050189674 0.1925167 0.30064133 -0.19802712
0000b0 2a ca 88 3e e4 97 99 3e 65 64 9a bd bb 1a 83 3e
       0.2671674 0.29998696 -0.0753868 0.2560633
0000c0 9f 1c d4 3e 63 6e 54 be 91 6d 8a 3e 81 a0 a1 3e
       0.41428086 -0.20745234 0.27036718 0.31567767
0000d0 38 0e f7 bd 10 54 46 be b3 70 a9 3e 35 90 79 3e
       -0.12063259 -0.19368005 0.33093795 0.24371417
0000e0 0a cf 42 be bf 4a 0e 3e 8a 4e 96 be 6d be 03 3f
       -0.19024292 0.13895701 -0.29356796 0.5146244
