[LC models]/min_func_LC_n_V=3.pt (torch_old, 66278 bytes, 27 tensors)

weight f4 [40, 2]
-0.41684648 0.055233777 0.5651929 -0.7564706 -0.11901439 1.5615072 -0.4690686 0.5862607
0.56513095 0.035913143 -0.3704702 0.3076292 -0.29496068 0.94020784 0.5151848 -0.6755494
0.80618495 0.17730644 0.1265659 -0.29482353 -0.15104623 0.6230718 -0.52073056 -0.34823114
0.43493834 0.61099786 -0.25612667 0.16062282 0.30458584 0.28005514 -0.14500538 -0.13078794
-0.5601728 0.093372375 1.2624995 -1.0255175 -0.3934643 -0.020212205 -0.7077366 0.777698
-0.7078347 0.26215973 -0.031520102 -0.0076479735 0.21583356 -0.33894804 1.3125134 0.31959516
0.67220473 0.5170635 -0.046862464 -0.04477343 -0.41693294 0.1496778 0.19696578 0.28833926
-0.19148752 0.25230977 0.5924556 0.3267448 0.15477121 -0.3560694 -0.056355737 0.15836397
0.66151977 0.7948611 0.024184205 0.57412827 0.4209514 -0.07631815 -0.22719054 0.04300807
-0.3110631 0.10845017 -0.06400598 0.14110374 -0.011454427 0.20102473 -0.8240074 -0.38902846
00000000: e76c d5be d03c 623d 7bb0 103f 0fa8 41bf
00000010: d1bd f3bd 78df c73f c229 f0be 2e15 163f
00000020: 6cac 103f a919 133d 45ae bdbe 9381 9d3e
00000030: 1605 97be 76b1 703f 27e3 033f cef0 2cbf
00000040: 2362 4e3f d28f 353e 7e9a 013e 1cf3 96be
00000050: ddab 1abe a281 1f3f 994e 05bf 5a4b b2be
00000060: 3db0 de3e 5b6a 1c3f 0923 83be 4f7a 243e
00000070: adf2 9b3e 6363 8f3e 4a7c 14be 46ed 05be
00000080: 7c67 0fbf 043a bf3d 9599 a13f 2844 83bf
00000090: 2774 c9be 1194 a5bc 3a2e 35bf 3717 473f
000000a0: a834 35bf cd39 863e 391b 01bd da9b fabb
000000b0: 7903 5d3e 998a adbe 7000 a83f faa1 a33e
000000c0: 9c15 2c3f 465e 043f dbf2 3fbd 5864 37bd
000000d0: 3c78 d5be 2345 193e 66b1 493e 34a1 933e
000000e0: 4e15 44be bf2e 813e 2cab 173f 184b a73e
000000f0: 587c 1e3e ba4e b6be 46d5 66bd 2a2a 223e
00000100: 5c59 293f 047c 4b3f f41d c63c 12fa 123f
00000110: f186 d73e b14c 9cbd a3a4 68be 3b29 303d
00000120: aa43 9fbe 1f1b de3d 9115 83bd 807d 103e
00000130: 59ab 3bbc 6dd9 4d3e 26f2 52bf bd2e c7be

bias f4 [40]
-0.50603336 -0.023018686 0.46423185 -0.024841959 0.20862892 0.33240622 -0.20519462 0.1896149
0.0055765067 -0.22640252 -0.3266158 0.21524501 -0.098388195 -0.31615993 -0.2718752 0.92741793
0.6714032 -0.4133287 0.20571026 0.016976023 1.258075 0.024826232 -0.14128976 -0.82743394
0.0720202 0.5484846 -0.30858094 0.028951755 0.14860658 -0.16063812 -0.38053638 0.26357237
-0.29451156 -0.109816425 -0.6582669 -0.25735041 -0.16043034 -0.15601647 -0.1424422 0.15337895
00000000: 678b 01bf af91 bcbc ccaf ed3e 5d81 cbbc
00000010: d2a2 553e 2631 aa3e 8a1e 52be 692a 423e
00000020: 21bb b63b 10d6 67be 303a a7be 3069 5c3e
00000030: c07f c9bd b7df a1be 3a33 8bbe 436b 6d3f
00000040: 15e1 2b3f d29f d3be b6a5 523e 4d11 8b3c
00000050: 9a08 a13f 6260 cb3c 43ae 10be b6d2 53bf
00000060: 547f 933d 7d69 0c3f 52fe 9dbe 3b2c ed3c
00000070: 532c 183e 527e 24be aad5 c2be f5f2 863e
00000080: 38ca 96be 6fe7 e0bd 2e84 28bf 6fc3 83be
00000090: da47 24be c8c2 1fbe 5edc 11be 5f0f 1d3e

weight f4 [40, 40]
0.27451944 0.25169358 0.038566288 0.08018686 0.71013534 -0.06423912 -0.3110568 -0.2692659
0.35347533 -0.49440238 -0.44081348 0.062629 0.4535482 0.53666514 -0.1551373 -0.03479935
-0.93353146 1.1061416 -0.2632964 -0.7596188 -0.26648885 -0.7029773 0.076952636 1.0867015
0.25528017 0.6244078 0.41833562 -0.38138247 -0.20782924 -0.08038091 0.2241167 -0.529626
1.1535962 0.36958846 0.47691867 0.21957736 -0.81060195 -0.45708704 -0.5472506 0.30753678
-0.91863245 0.34009525 -0.7019684 -0.83558816 -0.9584683 -0.47055525 -0.4811507 0.30597296
-1.4470507 -0.9812801 -1.5774959 -0.08985918 -1.9719683 -0.9187909 -0.14506397 1.4626093
-0.47128734 0.16684401 -0.6264731 -0.5913326 0.4512829 0.1708544 -0.6087376 -0.59589505
-1.874326 0.6701477 -0.81776226 -0.05088513 -0.20069902 -0.99016196 -0.17725855 0.19806452
-1.034847 -0.008256488 -0.11220969 -1.199098 -0.1190814 -0.254702 -0.0637017 1.2214154
-0.36838928 0.5913374 -0.17336102 -0.15560506 -1.3272496 -0.14079031 -0.32065308 0.2980761
-1.5351994 -0.43450597 -0.3515076 1.3176929 -1.3651254 -0.20718694 0.514278 0.8018598
0.9947829 -0.19971964 0.7943582 -0.43420476 0.12165802 -0.24338661 -0.2755496 0.1662725
-1.5800675 0.7363214 0.06691405 -0.044202976 0.2115787 -0.028091274 -0.0064659757 0.0687409
-0.9808263 -0.4099032 0.52908754 -0.17011958 -0.17526457 0.03759035 -0.23664503 0.88498
-0.34921837 -0.6020003 0.60522294 -0.43374097 -0.8372128 -3.0839627 0.046690147 -0.58783513
0.3978965 -2.9735963 -0.66767716 -0.7523873 -0.25706452 -0.8763489 -0.31804922 0.6206463
-1.1454381 -0.49729264 -0.9477328 -1.5185615 0.36923453 -0.38873574 0.058955193 -0.34721532
0.23156908 0.39099482 -0.4851234 -0.25496942 -2.0789213 -0.12526047 -0.3290222 -0.72122526
-0.65376824 0.3893323 0.42703545 -1.1574867 -0.80949736 -0.97583896 -0.4753589 0.12557624
-0.42437327 0.9700264 -0.85595053 -1.3954468 -0.42912593 0.7975941 -0.5789924 0.6660736
-0.2559529 0.41299757 -0.38484243 1.2793058 -0.020994704 -0.3370625 0.8450506 -1.1742393
-0.12663944 0.77847636 0.5434544 0.2182937 -0.9257176 -0.5107144 -0.3681081 0.68273157
0.010491245 -0.49054575 -0.7851247 -0.7172208 1.2741789 0.31975582 0.8414133 -0.26934505
-0.15251598 -0.86702543 0.77240777 0.53579724 -0.30087262 1.0696554 -0.5870243 0.072963335
2.540612 -0.55753523 0.08149958 2.137881 -0.39837986 -1.7825501 0.59056914 -0.32065815
-0.18554567 -1.6581792 0.8314244 -0.46601817 0.15998116 1.8483393 0.17380129 0.20138954
0.61721253 -0.7202944 0.9194567 -0.13236827 -0.06986684 -0.57398117 0.7346863 0.08405986
-0.31138313 -0.032218475 2.1638556 -1.2045488 -1.0294808 -0.38343394 -0.39546368 -1.313549
-0.15089509 -0.49722597 0.4796535 1.0468082 -0.7455597 0.048447788 -0.10509904 0.19621377
0.50631756 0.38389155 0.17688908 0.5020531 0.916705 0.0558551 -0.29490957 0.17810158
0.84815395 0.45787024 1.3483262 -0.18919335 1.2189626 0.46356025 0.008141852 -1.0399648
00000000: d08d 8c3e fbdd 803e aff7 1d3d 0239 a43d
00000010: 6ecb 353f cd8f 83bd d642 9fbe 38dd 89be
00000020: b8fa b43e 4f22 fdbe 4eb2 e1be a243 803d
00000030: 7837 e83e e362 093f 50dc 1ebe c389 0ebd
00000040: ebfb 6ebf 0c96 8d3f c9ce 86be 6176 42bf
00000050: 3a71 88be 52f6 33bf 5899 9d3d 0919 8b3f
00000060: 15b4 823e 31d9 1f3f 1630 d63e 9044 c3be
00000070: 30d1 54be bf9e a4bd d97e 653e 9295 07bf
00000080: 0aa9 933f b33a bd3e af2e f43e e3d8 603e
00000090: 9c83 4fbf 5007 eabe 9e18 0cbf 7675 9d3e
000000a0: 7f2b 6bbf f720 ae3e 33b4 33bf 1be9 55bf
000000b0: 2e5e 75bf 9eec f0be 6259 f6be 7da8 9c3e
000000c0: f538 b9bf 2c35 7bbf 63eb c9bf 1708 b8bd
000000d0: 7569 fcbf e135 6bbf a68b 14be c836 bb3f
000000e0: 934c f1be 28d9 2a3e 8b60 20bf 9361 17bf
000000f0: 8d0e e73e 75f4 2e3e 3ad6 1bbf 948c 18bf
00000100: eae9 efbf cd8e 2b3f de58 51bf ed6c 50bd
00000110: 0b84 4dbe 417b 7dbf 4483 35be 6dd1 4a3e
00000120: de75 84bf 3846 07bc 32ce e5bd 0b7c 99bf
00000130: f3e0 f3bd 4d68 82be 0976 82bd 5757 9c3f
00000140: 859d bcbe e361 173f 8d85 31be ef56 1fbe
00000150: 51e3 a9bf 562b 10be a42c a4be 6e9d 983e
00000160: 6a81 c4bf 9177 debe cef8 b3be 29aa a83f
00000170: 6ebc aebf d028 54be b9a7 033f af46 4d3f
00000180: 18aa 7e3f 4e83 4cbe 0f5b 4b3f 1650 debe
00000190: d727 f93d 573a 79be d614 8dbe 5743 2a3e
000001a0: a73f cabf 8f7f 3c3f 3c0a 893d 2e0e 35bd
000001b0: 16a8 583e ac1f e6bc 89e0 d3bb 07c8 8c3d
000001c0: 6f17 7bbf d5de d1be 4872 073f d433 2ebe
000001d0: 8e78 33be 57f8 193d 1353 72be 0d8e 623f
000001e0: c0cc b2be b11c 1abf e4ef 1a3f 4c13 debe
000001f0: 9453 56bf a55f 45c0 2b3e 3f3d 5d7c 16bf
00000200: 17b9 cb3e 674f 3ec0 e4ec 2abf 749c 40bf
00000210: f69d 83be 6758 60bf 59d7 a2be ade2 1e3f
00000220: b79d 92bf 249d febe 9e9e 72bf 3960 c2bf
00000230: 4f0c bd3e 5f08 c7be 007b 713d 35c6 b1be
00000240: 7220 6d3e 7930 c83e 1862 f8be 5a8b 82be
00000250: 0c0d 05c0 4844 00be 9975 a8be 38a2 38bf
00000260: 5b5d 27bf 9056 c73e 64a4 da3e 8628 94bf
00000270: 383b 4fbf 95d0 79bf 3e62 f3be 0f97 003e
00000280: 7447 d9be a653 783f 931f 5bbf 009e b2bf
00000290: 65b6 dbbe 202f 4c3f d938 14bf cd83 2a3f
000002a0: 420c 83be 6b74 d33e 110a c5be 4bc0 a33f
000002b0: 16fd abbc 7593 acbe 3c55 583f 794d 96bf
000002c0: c5ad 01be 3a4a 473f d41f 0b3f 6288 5f3e
000002d0: d4fb 6cbf 2ebe 02bf aa78 bcbe 7fc7 2e3f
000002e0: 79e3 2b3c d028 fbbe effd 48bf c89b 37bf
000002f0: 4b18 a33f 09b7 a33e dd66 573f 98e7 89be
00000300: 262d 1cbe 61f5 5dbf 84bc 453f 022a 093f
00000310: fa0b 9abe 78ea 883f 3947 16bf cd6d 953d
00000320: 6399 2240 a1ba 0ebf 40e9 a63d 0bd3 0840
00000330: 72f8 cbbe 9a2a e4bf 8a2f 173f 4e2d a4be
00000340: afff 3dbe 373f d4bf 3bd8 543f ef99 eebe
00000350: 1ad2 233e 6296 ec3f f7f8 313e 0f39 4e3e
00000360: a401 1e3f 3765 38bf 8461 6b3f 8c8b 07be
00000370: 5916 8fbd 6ef0 12bf 6714 3c3f 9327 ac3d
00000380: 9c6d 9fbe 85f7 03bd 9c7c 0a40 a82e 9abf
00000390: 07c6 83bf 7451 c4be 377a cabe 6022 a8bf
000003a0: 3e84 1abe 6794 febe 2595 f53e d0fd 853f
000003b0: 00dd 3ebf 3071 463d 2a3e d7bd 43ec 483e
000003c0: 079e 013f 6f8d c43e 6922 353e 8d86 003f
000003d0: 2ead 6a3f 51c8 643d 63fe 96be 4360 363e
000003e0: 9e20 593f f86d ea3e f495 ac3f e7bb 41be
000003f0: f706 9c3f c557 ed3e 6765 053c 911d 85bf

bias f4 [40]
-0.63413566 0.30157167 0.03747616 0.07049502 -0.7417693 -0.27783412 -0.3831491 -0.97936594
-0.86277205 0.4397407 -0.8489118 0.44487125 0.0011559328 -0.11725136 -1.3797891 0.42388195
0.35381117 0.016611766 -1.7896879 -1.1731739 -0.6211902 -0.05108759 -1.1746293 -0.7230645
0.4487259 0.54538655 -0.47800002 -0.5765964 -1.7291111 -0.46411777 -0.5759224 -0.6940702
0.04810962 -0.4344887 0.16100913 -0.51890916 -0.11995546 -0.28220272 -0.13833046 0.2185647
00000000: b756 22bf 9a67 9a3e 9a80 193d b15f 903d
00000010: 98e4 3dbf 4640 8ebe 1e2c c4be bab7 7abf
00000020: a1de 5cbf b125 e13e 4952 59bf 2ac6 e33e
00000030: ab82 973a 7b21 f0bd ee9c b0bf 0e07 d93e
00000040: bd26 b53e 6615 883c 7e14 e5bf 902a 96bf
00000050: 5206 1fbf 3941 51bd 415a 96bf c11a 39bf
00000060: 67bf e53e 749e 0b3f 6bbc f4be d29b 13bf
00000070: 8353 ddbf d8a0 edbe a76f 13bf 96ae 31bf
00000080: 980e 453d 4e75 debe 94df 243e 3bd7 04bf
00000090: 35ab f5bd e07c 90be 80a6 0dbe 6dcf 5f3e

weight f4 [4, 40]
0.6713586 -0.0068570287 0.4043673 -0.16484751 0.0790156 -0.19608109 -0.06628189 0.46585813
0.2469712 0.14054109 0.16900451 -0.28547305 -0.21958065 0.26877853 0.15135448 -0.2891174
-0.07838326 0.18010427 -0.2526692 -0.218425 -0.79531586 0.68083364 0.107205264 0.23097168
0.32876742 0.6647754 -0.2234746 0.12195825 -0.044313338 0.5943707 0.50061 0.22709392
0.51650786 1.4536816 0.10238176 0.6002433 0.20244955 0.7139564 0.2370098 -0.22871436
-0.27904287 0.7164878 0.3842222 -0.17258357 1.2130624 -0.5951167 0.57891124 -1.1646547
-0.32641277 0.37943834 -0.2796556 -0.40272912 0.1309638 -0.74751365 1.536516 -0.56178707
0.33026534 -0.5387006 -0.13795236 -0.42018402 0.32893023 0.45897797 -0.44848672 -0.94040394
-0.04951279 0.16022116 -0.4091573 -0.12793766 -0.48999032 -0.93299866 -0.60106003 0.8706973
0.38564926 1.3640087 -0.2817179 -0.94668674 0.4037277 -0.26859248 -0.045835055 0.468773
0.49555668 -0.41063282 -0.17800629 -0.4022748 -0.039216634 -0.08904836 -0.78919953 0.063491985
-0.20628676 -0.06930984 0.21720529 -0.43144354 0.062227514 -0.22841492 -0.54408216 -0.057555538
0.16452858 -0.23097073 -1.1827687 -0.121133596 -0.39869744 0.16114834 -0.15951538 -0.2804116
0.22846328 0.45820558 -0.021881426 -0.19261165 -0.29076576 0.06668286 -0.0292742 -0.067548886
-0.36019272 -0.13154182 0.09034685 0.04477028 -0.037942525 -0.2045883 -0.07434911 -0.054335862
-0.057329286 0.5322055 0.24201828 0.13049921 0.550473 -0.34186983 0.8369511 -0.27453128
-0.30628437 0.3751054 -0.17975953 -0.4059929 0.35783228 -0.07964765 -0.05057921 -0.18472746
1.7129123 -0.8798575 -0.9472708 -0.38436866 -0.06674311 -0.085809894 -0.43290845 -0.15264839
0.4051579 0.6942419 0.28710908 -0.31061018 0.09064317 -0.13224174 -0.0869738 -0.27863905
0.29886815 0.055126816 0.39095092 0.3010032 0.33770832 -0.6852437 -0.33126977 0.49501407
00000000: 28de 2b3f edb0 e0bb 3b09 cf3e c9cd 28be
00000010: eed2 a13d 7bc9 48be cdbe 87bd f584 ee3e
00000020: 05e6 7c3e 01ea 0f3e 850f 2d3e 8629 92be
00000030: c0d9 60be 579d 893e abfc 1a3e 3207 94be
00000040: 6787 a0bd 416d 383e db5d 81be ceaa 5fbe
00000050: d299 4bbf 1d4b 2e3f 6f8e db3d d783 6c3e
00000060: 3454 a83e b82e 2a3f 87d6 64be 3fc5 f93d
00000070: e781 35bd ae28 183f fa27 003f 4f8b 683e
00000080: dc39 043f 3d12 ba3f 87ad d13d 8ba9 193f
00000090: ef4e 4f3e d9c5 363f b2b2 723e 1934 6abe
000000a0: b5de 8ebe bf6b 373f c6b8 c43e bfb9 30be
000000b0: a145 9b3f 9159 18bf 8733 143f 6813 95bf
000000c0: 931f a7be be45 c23e 052f 8fbe 8332 cebe
000000d0: 601b 063e 0e5d 3fbf 8eac c43f 47d1 0fbf
000000e0: 8a18 a93e 48e8 09bf 6243 0dbe 5c22 d7be
000000f0: 8b69 a83e 29ff ea3e 0da0 e5be 50be 70bf
00000100: eccd 4abd 0411 243e 117d d1be 1702 03be
00000110: 03e0 fabe 00d9 6ebf 12df 19bf 05e6 5e3f
00000120: d273 c53e d697 ae3f 543d 90be 105a 72bf
00000130: 66b5 ce3e f484 89be 8abd 3bbd 0403 f03e
00000140: 9bb9 fd3e 773e d2be 4847 36be f6f6 cdbe
00000150: 9fa1 20bd fd5e b6bd fb08 4abf 1608 823d
00000160: d63c 53be 51f2 8dbd 106b 5e3e 2be6 dcbe
00000170: 47e2 7e3d 9ae5 69be f848 0bbf 5bbf 6bbd
00000180: 2e7a 283e 9783 6cbe f764 97bf e414 f8bd
00000190: 1222 ccbe 1204 253e 0058 23be 1c92 8fbe
000001a0: 47f2 693e ec99 ea3e ad40 b3bc fd3b 45be
000001b0: 40df 94be 0691 883d 72d0 efbc 1257 8abd
000001c0: 2e6b b8be e6b2 06be c507 b93d 0b61 373d
000001d0: 9f69 1bbd 987f 51be 5944 98bd 488f 5ebd
000001e0: 1dd2 6abd 9f3e 083f a4d3 773e 96a1 053e
000001f0: cceb 0c3f 9009 afbe 6d42 563f 5d8f 8cbe
00000200: 4ed1 9cbe d10d c03e e212 38be 4dde cfbe
00000210: cb35 b73e 4f1e a3bd 252c 4fbd 3229 3dbe
00000220: b640 db3f 573e 61bf 5780 72bf f8cb c4be
00000230: 9db0 88bd 19bd afbd 2da6 ddbe dc4f 1cbe
00000240: db70 cf3e d6b9 313f f6ff 923e 4c08 9fbe
00000250: 20a3 b93d 616a 07be 521f b2bd c7a9 8ebe
00000260: 3f05 993e a8cc 613d b82a c83e 171d 9a3e
00000270: 1be8 ac3e 226c 2fbf 319c a9be 7c72 fd3e

bias f4 [4]
-0.08619031 0.44039735 0.00045538024 -0.097054064
00000000: 8c84 b0bd c37b e13e 1ac0 ee39 48c4 c6bd

weight f4 [40, 2]
0.43341377 -1.1850457 0.519637 1.3319914 -0.76914084 0.34817863 1.137701 0.4812164
-0.13183409 0.18628125 -0.21536931 -0.24129453 -0.28946453 -0.2101039 0.4378072 0.6395821
0.36816475 0.45410633 -1.224758 -0.9139506 0.70913124 -0.5510491 -0.7423786 0.13021582
0.4656528 -0.6200864 -0.1801982 0.016590953 1.4145315 -0.00045242923 1.0477527 -0.22718488
0.4904513 0.04366622 1.2398717 -0.030920308 0.31414154 -0.32093456 0.111220315 1.3772093
-0.5640443 0.9217598 -1.0956024 1.1819582 0.15663885 -0.28903913 -0.0074866163 0.33076248
-0.05327846 -1.5616748 1.2952758 0.29606676 0.9617881 1.0303787 0.6116226 0.7934199
-0.34299523 0.046303894 -0.02699268 0.031839676 -1.8588437 0.9010318 -0.4816111 -1.217803
-0.04062164 0.07434702 0.1791542 -0.1522535 0.19905001 -0.27053794 -1.0831348 1.2628688
-0.7758764 1.7129223 0.43286377 0.32966867 -0.049913824 0.00070005655 0.03867072 2.2221823
00000000: 69e8 dd3e 94af 97bf ee06 053f b27e aa3f
00000010: 6ae6 44bf 7844 b23e 30a0 913f ff61 f63e
00000020: 84ff 06be 83c0 3e3e c689 5cbe ea15 77be
00000030: b234 94be 7a25 57be 4428 e03e a7bb 233f
00000040: 1780 bc3e a080 e83e dfc4 9cbf abf8 69bf
00000050: a089 353f 8e11 0dbf 860c 3ebf 4c57 053e
00000060: 0b6a ee3e fbbd 1ebf e085 38be c0e9 873c
00000070: 5e0f b53f 0634 edb9 c31c 863f 27a3 68be
00000080: 6f1c fb3e 5adb 323d 1eb4 9e3f 964c fdbc
00000090: 29d7 a03e 8951 a4be 7ac7 e33d 6548 b03f
000000a0: 3565 10bf 73f8 6b3f b33c 8cbf 684a 973f
000000b0: ef65 203e f0fc 93be 4a52 f5bb b359 a93e
000000c0: 843a 5abd f6e4 c7bf 99cb a53f 1096 973e
000000d0: bf37 763f 73e3 833f 4c93 1c3f 911d 4b3f
000000e0: 129d afbe 27a9 3d3d c11f ddbc 526a 023d
000000f0: 97ee edbf 05aa 663f bb95 f6be f8e0 9bbf
00000100: e062 26bd 4043 983d 3374 373e 57e8 1bbe
00000110: c4d3 4b3e f383 8abe 29a4 8abf afa5 a13f
00000120: d69f 46bf 0a41 db3f 52a0 dd3e 55ca a83e
00000130: 7072 4cbd 0084 373a 3065 1e3d 3c38 0e40

bias f4 [40]
0.5905748 -0.2399178 -1.1327081 1.0721314 -0.22181924 0.7655508 -0.55991125 0.23407105
-0.84995955 0.62911963 0.32554978 -0.8860961 0.95210016 -0.49543342 1.602751 -0.15674779
-0.6009655 1.5685939 -0.64811516 0.12369276 0.49322355 0.3670436 -0.43051243 -0.35188854
0.014291635 0.70706546 -0.81892455 1.1009064 -0.38636106 -0.54626465 -0.4144674 0.38795936
-0.6890515 -0.39296794 1.013527 0.2350877 0.6250356 -0.7474661 -0.55833936 0.12172691
00000000: e92f 173f 03ad 75be 94fc 90bf 9a3b 893f
00000010: 9524 63be 23fb 433f 5856 0fbf 52b0 6f3e
00000020: f396 59bf fc0d 213f 76ae a63e 32d7 62bf
00000030: d6bc 733f 73a9 fdbe f226 cd3f 7e82 20be
00000040: e0d8 19bf afc7 c83f e0ea 25bf a152 fd3d
00000050: cc87 fc3e 24ed bb3e 206c dcbe bc2a b4be
00000060: 7627 6a3c 3e02 353f 0aa5 51bf 80ea 8c3f
00000070: 1ed1 c5be 00d8 0bbf 1235 d4be 9ca2 c63e
00000080: ae65 30bf 1833 c9be 41bb 813f d4ba 703e
00000090: 5502 203f f059 3fbf 54ef 0ebf f54b f93d

weight f4 [40, 40]
0.18080376 0.15440448 2.3459525 0.59927374 0.45445395 0.45184305 0.9649334 0.2749864
0.16954665 1.6157488 -0.21761154 -0.21983145 0.40183052 -0.070935585 0.45864424 -0.19065784
-0.07059106 0.20667087 0.088009216 0.13027887 0.0339274 0.43755698 0.035015557 0.40861282
0.41878238 0.32245117 0.24864858 -0.010956834 -0.46446145 0.47049233 0.7568398 0.6019855
0.08558051 -0.23426044 0.03139794 0.39192846 1.4248166 0.0085523715 0.13441713 -0.3360115
0.94009244 -0.33598623 1.2775364 0.6669754 0.02775768 0.53343296 0.5350308 -0.031598218
-0.061001934 0.61174583 0.27386957 0.07228264 0.54865366 -0.036084883 0.5186415 0.4439092
0.008933638 0.2732141 1.0310974 0.118780024 0.10253107 0.46922424 0.06299934 -0.0648146
3.0333729 0.49225068 -0.38538307 -0.10730372 0.5808554 -0.009308665 1.0101508 -0.57561326
0.07946299 -1.020567 0.03431303 0.6075672 0.713602 -0.09850028 -0.011945844 0.33802372
0.1507948 -0.66819155 -2.9165761 1.7445548 -0.38761124 -0.34958467 -0.57236683 0.45983124
0.2567917 -0.78207666 -0.25878355 -0.98528 0.5103718 0.08728813 0.8225135 1.3454016
-0.0454891 1.8875488 -0.04402518 -0.13493119 0.0010445624 0.18796948 0.038880873 -0.71313393
-0.42419875 1.415685 -0.66073763 0.3626936 -0.37625793 0.24527283 -2.6086762 -0.31849894
0.025082678 0.2835182 -0.40293783 -0.39888746 0.19446309 0.03236888 -0.051499076 1.0233134
-0.20700371 0.26435867 -0.19809492 -0.020813901 0.040433187 -0.22046492 -0.2848254 0.2370602
0.08644295 -0.092047036 -0.5993724 -0.17942509 -0.38949862 -0.091838755 -0.08496567 0.23947978
-0.043010727 -0.1244609 -0.13154837 -0.247691 -0.51490676 0.048475415 -0.09891297 -0.32729346
-0.1674051 -0.009363307 0.16138512 0.05439541 -0.58592707 -0.038404096 0.30482826 -0.89171404
0.08929518 -0.047336314 -0.9796663 -0.52535015 -0.42818144 0.11170767 -0.10251628 -0.102334365
0.57549703 -0.44282833 -0.69511193 0.19032773 0.9170317 0.043808732 0.21533999 0.68451685
-0.037644863 -1.7475183 2.1132283 1.222524 -0.043136194 0.023119062 -0.06414989 0.10777858
-0.0040144194 -1.228518 -0.11581402 -0.71510327 -1.6164981 0.34663123 -0.10511511 -0.09087015
-0.7871517 0.12396269 0.50291544 -0.7127281 1.5037547 0.97341985 -0.6792955 -0.89083445
-0.029264048 -1.211413 -1.3018584 -0.82414114 -0.36747777 0.19842942 -0.04102671 -0.75461113
-0.39899805 -0.43073624 0.51053315 -0.01736052 -0.4241964 -0.30983138 -0.13803336 -0.9462868
-0.033277184 -0.80962497 0.24067262 -1.3413066 -0.17335352 -0.15301053 -0.12341997 -0.008504582
-0.06554482 -0.34517118 0.11542283 -0.18606964 0.2327376 -0.49016422 -0.14944547 -0.41346347
-0.17320988 -0.42362085 -0.1710441 0.05525529 0.5395832 -0.04596558 0.14082186 -0.693246
-0.13412625 0.42329735 -1.160108 -0.11055221 -0.78168356 -0.24118893 -0.037142098 -0.47540462
-0.6410577 -0.81129867 -0.6017449 -0.03567855 -0.8033353 -0.516543 0.095424816 -0.06525822
0.123039976 -0.1758708 0.089242086 -0.29880905 -0.3552226 -0.14467023 -0.38711616 0.6026776
00000000: 9f24 393e 351c 1e3e 1624 1640 016a 193f
00000010: 30ae e83e f957 e73e e005 773f 04cb 8c3e
00000020: a39d 2d3e dbd0 ce3f 8fd5 5ebe 7f1b 61be
00000030: bbbc cd3e ad46 91bd 6bd3 ea3e cf3b 43be
00000040: 0c92 90bd 87a1 533e 2d3e b43d d367 053e
00000050: 75f7 0a3d 7807 e03e 796c 0f3d b335 d13e
00000060: a56a d63e 5218 a53e bc9d 7e3e 4b84 33bc
00000070: e4cd edbe 5fe4 f03e 41c0 413f b91b 1a3f
00000080: d644 af3d f8e1 6fbe 209b 003d d9aa c83e
00000090: 6460 b63f 3f1f 0c3c a5a4 093e b309 acbe
000000a0: e6a9 703f 6306 acbe 5086 a33f e6be 2a3f
000000b0: 1364 e33c 108f 083f c7f7 083f 226d 01bd
000000c0: 2add 79bd 609b 1c3f a238 8c3e ec08 943d
000000d0: 9174 0c3f becd 13bd b0c5 043f 1148 e33e
000000e0: 655e 123c b8e2 8b3e 00fb 833f f142 f33d
000000f0: cffb d13d 293e f03e cc05 813d 84bd 84bd
00000100: c822 4240 4808 fc3e ee50 c5be 0ec2 dbbd
00000110: f1b2 143f 5f83 18bc 9f4c 813f 645b 13bf
00000120: 7ebd a23d f1a1 82bf d28b 0c3d 8689 1b3f
00000130: 9fae 363f 84ba c9bd 80b8 43bc 7211 ad3e
00000140: f469 1a3e 9a0e 2bbf 2fa9 3ac0 924d df3f
00000150: fb74 c6be c3fc b2be a286 12bf 006f eb3e
00000160: 347a 833e 2d36 48bf 477f 84be 4f3b 7cbf
00000170: baa7 023f 1ec4 b23d 3f90 523f 1f36 ac3f
00000180: c752 3abd 339b f13f bf53 34bd 672b 0abe
00000190: b3e9 883a 127b 403e 8d41 1f3d f28f 36bf
000001a0: 9430 d9be 2b35 b53f 1a26 29bf fab2 b93e
000001b0: e1a4 c0be cd28 7b3e 8df4 26c0 4b12 a3be
000001c0: 307a cd3c 4c29 913e de4d cebe fa3a ccbe
000001d0: 5521 473e 3b95 043d b2f0 52bd effb 823f
000001e0: c8f8 53be 055a 873e 65d9 4abe ea81 aabc
000001f0: 459d 253d 8ec1 61be a3d4 91be e9bf 723e
00000200: 0009 b13d 2883 bcbd 7870 19bf 36bb 37be
00000210: 5d6c c7be f515 bcbd 7b02 aebd 303a 753e
00000220: 042c 30bd 5be5 febd 9eb4 06be b6a2 7dbe
00000230: eed0 03bf 288e 463d e292 cabd 0293 a7be
00000240: 3e6c 2bbe 8e68 19bc 2442 253e b9cd 5e3d
00000250: 51ff 15bf 9d4d 1dbd 7312 9c3e 5f47 64bf
00000260: 64e0 b63d b9e3 41bd 69cb 7abf 597d 06bf
00000270: 993a dbbe fec6 e43d 0ef4 d1bd ae94 d1bd
00000280: c653 133f 65ba e2be dbf2 31bf 46e5 423e
00000290: 97c2 6a3f c970 333d 1682 5c3e 7f3c 2f3f
000002a0: 8031 1abd aeae dfbf 223f 0740 ab7b 9c3f
000002b0: 94af 30bd 3064 bd3c 0461 83bd 04bb dc3d
000002c0: 648b 83bb 1440 9dbf e72f edbd 0211 37bf
000002d0: 69e9 cebf a679 b13e 9746 d7bd 211a babd
000002e0: c682 49bf 27e0 fd3d 11bf 003f 5975 36bf
000002f0: 097b c03f 0b32 793f 4fe6 2dbf ba0d 64bf
00000300: 28bb efbc 950f 9bbf 4ca3 a6bf eafa 52bf
00000310: 0c26 bcbe 1531 4b3e a00b 28bd 322e 41bf
00000320: 7949 ccbe 7689 dcbe 4db2 023f a637 8ebc
00000330: 4530 d9be 38a2 9ebe 9e58 0dbe da3f 72bf
00000340: a84d 08bd 9543 4fbf e272 763e efaf abbf
00000350: 9683 31be cbae 1cbe 9cc3 fcbd cd56 0bbc
00000360: 5d3c 86bd 47ba b0be ce62 ec3d 0a89 3ebe
00000370: c452 6e3e cef6 fabe 3c08 19be 7cb1 d3be
00000380: ee5d 31be d5e4 d8be 2f26 2fbe 5f53 623d
00000390: 2022 0a3f 6746 3cbd 9b33 103e 9278 31bf
000003a0: 6458 09be 6eba d83e 6b7e 94bf 3269 e2bd
000003b0: 6a1c 48bf 3bfa 76be 5022 18bd 3c68 f3be
000003c0: 5c1c 24bf 45b1 4fbf f40b 1abf ac23 12bd
000003d0: 62a7 4dbf 293c 04bf 166e c33d 1aa6 85bd
000003e0: 62fc fb3d 7a17 34be 8ec4 b63d 80fd 98be
000003f0: bddf b5be 6f24 14be 1734 c6be 1449 1a3f

bias f4 [40]
0.59488237 0.83344245 0.72846454 -0.50563574 -0.4824232 -0.6824852 -0.08509132 -0.6792083
0.37587008 0.48035628 -0.6122708 0.24955007 0.46094477 -0.35529467 0.19954954 0.30340734
-0.49265265 0.427431 -0.6035808 0.7892073 -0.25104195 0.24389194 1.3151605 0.6229353
-0.724735 0.5598169 -0.4886206 -0.7622684 -0.42659426 -0.19664213 1.0431011 0.2731179
0.32489717 0.8129963 0.5600626 -0.5220768 -0.37447807 0.4484449 0.13794507 0.7493857
00000000: 364a 183f 7c5c 553f a77c 3a3f 5871 01bf
00000010: 2c00 f7be 5ab7 2ebf 5c44 aebd 98e0 2dbf
00000020: 0b72 c03e 42f1 f53e c7bd 1cbf 0e8a 7f3e
00000030: f400 ec3e 2fe9 b5be b756 4c3e 3558 9b3e
00000040: f83c fcbe 3cd8 da3e 4584 1abf 7d09 4a3f
00000050: 9288 80be cfbe 793e 2e57 a83f b078 1f3f
00000060: 3c88 39bf 2950 0f3f 7b2c fabe 0624 43bf
00000070: 906a dabe 8e5c 49be 5684 853f 1cd6 8b3e
00000080: ec58 a63e 8720 503f 4360 0f3f d3a6 05bf
00000090: 97bb bfbe 929a e53e 7941 0d3e bed7 3f3f

weight f4 [40, 40]
0.67339754 0.5580367 0.40414616 -0.20267509 0.11445665 0.10856607 -0.31373316 -0.33034644
0.4544732 0.61436385 -0.49615303 -0.4290997 -0.47674388 -0.56485116 0.539146 0.3730625
-0.4051529 -0.089469984 0.1791075 0.4681693 -0.31852463 0.21641806 0.25992265 -0.5274168
-0.5124556 0.6615676 0.20601004 -0.40489677 -0.5224301 -0.0016028429 0.5076273 0.40116787
0.58835036 0.03226351 0.03369661 -0.3076264 0.02728592 -0.046741456 0.4152512 0.3956498
0.60733503 0.31024653 0.45947042 -0.26169926 -0.13055705 -0.47768953 -0.029021088 -0.33452028
0.6215318 0.4205531 -0.5299057 0.40993533 -0.022927547 -0.49069127 0.33060363 0.43671653
-0.8730413 -0.23659083 -0.017690554 0.71641046 -0.4096488 0.037638303 0.19480321 0.1240456
-0.45301515 0.43866813 -0.19984832 -0.703314 -0.24041046 -0.06793084 0.47356766 0.45461938
0.40558812 -0.35562086 0.024511382 -0.6101972 -0.2956872 -0.15915419 0.6793138 0.4010136
-0.46367836 -0.46953502 -0.28356797 0.14999948 -0.018086873 -0.13936977 0.22796911 0.5498507
-0.4676336 -0.5304799 0.5139361 -0.19950087 0.13180615 0.48589957 -0.5931938 -0.5032085
0.2867795 0.1783726 0.033346474 -0.4413569 0.20257455 -0.3778287 -0.3823791 0.31332988
0.27580637 -0.5989327 -0.0075072437 0.34586 0.53485566 0.030157274 -0.42149407 -0.46177533
-0.58754635 0.012986544 0.14779666 0.26091754 0.14246461 0.13354108 -0.5259768 -0.38481456
0.37377223 0.18718371 0.23463303 -0.62820315 0.34198257 -0.6824684 -0.64219457 -0.6543246
0.45593017 0.28072926 -0.43009833 -0.21303535 0.36344406 -0.5231465 0.4776291 0.47065577
-0.58560956 0.4845959 -0.50576437 0.4376353 -0.22953555 0.40451163 0.123022065 -0.29065073
-0.53822017 0.50481206 -0.6698054 -0.7031813 -0.47530526 0.46302435 0.20823726 0.50258785
0.4629291 0.11157431 0.18727402 -0.52930945 -0.5587225 0.5617294 0.4911108 0.18906693
-0.61413974 -0.44838703 -0.57399577 0.056917712 -0.32418314 -0.027446283 0.3646856 0.32509962
-0.5004595 -0.34365353 0.46364617 0.23567057 0.20430875 0.37052724 -0.3176518 -0.5689306
0.49084714 -0.041651167 -0.06477157 -0.62069243 -0.079989225 -0.045412783 -0.17245011 -0.24220617
0.43679154 -0.4513441 0.09281803 0.36216328 0.5805694 0.25073966 -0.60035616 -0.3203707
-0.5451668 0.2441358 0.03232934 0.33210838 -0.020759974 -0.07348483 -0.55189633 -0.4280438
0.6330366 0.64674133 0.60546315 -0.14092691 0.078357436 0.021349097 -0.012657834 -0.6200032
0.62041 0.21345472 -0.40219903 0.052816883 -0.4307744 -0.6228893 0.50337124 0.38687536
-0.4776149 -0.33343756 -0.034275908 0.42259562 -0.11942433 0.09316932 0.20446002 0.16052806
-0.19675736 0.54435414 0.19944668 -0.4641464 -0.6354765 -0.113665976 0.61022043 0.642609
0.76147187 -0.19557728 -0.19297862 -0.5021689 -0.06744125 -0.12045144 0.63172686 0.49031085
-0.6748986 -0.61986464 -0.2917042 0.22092189 -0.31624746 0.10859276 0.37228078 0.512144
-0.42507815 -0.3633987 0.24277171 -0.10167987 0.3064882 0.6452285 -0.4749939 -0.38012284
00000000: c863 2c3f 7edb 0e3f 3fec ce3e 0f8a 4fbe
00000010: 4068 ea3d e357 de3d a2a1 a0be 2b23 a9be
00000020: b6b0 e83e f346 1d3f c507 febe f5b2 dbbe
00000030: c617 f4be 169a 10bf 7905 0a3f 0c02 bf3e
00000040: 3370 cfbe 0a3c b7bd f567 373e e3b3 ef3e
00000050: a915 a3be b29c 5d3e 9514 853e ca04 07bf
00000060: 4a30 03bf 7f5c 293f 4cf4 523e a14e cfbe
00000070: fbbd 05bf 7c16 d2ba ddf3 013f e065 cd3e
00000080: 219e 163f be26 043d 7505 0a3d 3581 9dbe
00000090: b986 df3c f873 3fbd ce9b d43e 9c92 ca3e
000000a0: 4f7a 1b3f a2d8 9e3e b53f eb3e 72fd 85be
000000b0: bfb0 05be b993 f4be a2bd edbc 3e46 abbe
000000c0: b51c 1f3f bc52 d73e e6a7 07bf 0be3 d13e
000000d0: 8dd2 bbbc e33b fbbe e144 a93e 4f99 df3e
000000e0: a27f 5fbf de44 72be c8eb 90bc ad66 373f
000000f0: 7dbd d1be 9f2a 1a3d 7e7a 473e 9f0b fe3d
00000100: 9af1 e7be 1c99 e03e 0aa5 4cbe 630c 34bf
00000110: 292e 76be 531f 8bbd 7677 f23e dfc3 e83e
00000120: 3fa9 cf3e f013 b6be 18cc c83c e235 1cbf
00000130: 5064 97be 51f9 22be 82e7 2d3f a851 cd3e
00000140: 4067 edbe e566 f0be d22f 91be 7799 193e
00000150: ec2a 94bc f3b6 0ebe bc70 693e 04c3 0c3f
00000160: ac6d efbe 88cd 07bf 5191 033f f549 4cbe
00000170: 31f8 063e d4c7 f83e 8ddb 17bf 46d2 00bf
00000180: c3d4 923e 4fa7 363e 5096 083d 88f9 e1be
00000190: b46f 4f3e c372 c1be 32c7 c3be c66c a03e
000001a0: 7e36 8d3e a753 19bf 53ff f5bb 9014 b13e
000001b0: 4dec 083f 630c f73c 12ce d7be d16d ecbe
000001c0: 7069 16bf 83c5 543c 0258 173e fc96 853e
000001d0: 3ee2 113e febe 083e 6aa6 06bf 6a06 c5be
000001e0: 135f bf3e 16ad 3f3e a443 703e ecd1 20bf
000001f0: 5718 af3e 40b6 2ebf dd66 24bf d181 27bf
00000200: ae6f e93e bfbb 8f3e d935 dcbe f025 5abe
00000210: 5715 ba3e eeec 05bf cd8b f43e cbf9 f03e
00000220: 82ea 15bf f41c f83e c679 01bf bc11 e03e
00000230: 5e0b 6bbe 261c cf3e fef2 fb3d 2cd0 94be
00000240: ccc8 09bf 5d3b 013f 5e78 2bbf b103 34bf
00000250: 365b f3be 8711 ed3e 263c 553e 99a9 003f
00000260: 0b05 ed3e 1281 e43d c3c4 3f3e d380 07bf
00000270: 7008 0fbf 7fcd 0f3f e072 fb3e c39a 413e
00000280: 4338 1dbf fc92 e5be 63f1 12bf 8c22 693d
00000290: 55fb a5be 07d7 e0bc 12b8 ba3e 7573 a63e
000002a0: 1d1e 00bf 5bf3 afbe 0863 ed3e a053 713e
000002b0: 5036 513e bfb5 bd3e 42a3 a2be 70a5 11bf
000002c0: 5150 fb3e 6a9a 2abd f5a6 84bd b3e5 1ebf
000002d0: 64d1 a3bd c102 3abd c396 30be e504 78be
000002e0: 24a3 df3e 9316 e7be 6117 be3d 776d b93e
000002f0: 32a0 143f f360 803e f1b0 19bf a107 a4be
00000300: 0d90 0bbf bcfe 793e c56b 043d 1c0a aa3e
00000310: d210 aabc 377f 96bd 1449 0dbf 8f28 dbbe
00000320: b00e 223f d790 253f a2ff 1a3f 254f 10be
00000330: dd79 a03d 4de4 ae3c ce62 4fbc 88b8 1ebf
00000340: 31d3 1e3f e093 5a3e 08ed cdbe 8456 583d
00000350: 768e dcbe ac75 1fbf f0dc 003f 8714 c63e
00000360: f189 f4be 54b8 aabe e564 0cbd 745e d83e
00000370: be94 f4bd 8ecf be3d f85d 513e 7861 243e
00000380: c37a 49be cb5a 0b3f c03b 4c3e 99a4 edbe
00000390: 97ae 22bf b5c9 e8bd 6837 1c3f 0682 243f
000003a0: d2ef 423f 6945 48be 309c 45be 248e 00bf
000003b0: a31e 8abd 3faf f6bd dab8 213f 060a fb3e
000003c0: 28c6 2cbf 73af 1ebf 415a 95be 5939 623e
000003d0: 30eb a1be e265 de3d 969b be3e df1b 033f
000003e0: d8a3 d9be 650f babe 2699 783e 893d d0bd
000003f0: 05ec 9c3e b22d 253f 6732 f3be 769f c2be

bias f4 [40]
0.39111724 0.51071477 -0.42080042 0.33082256 -0.33965388 0.4503844 -0.5444235 -0.3307996
0.50741637 0.6351718 -0.600956 -0.50833523 0.4567451 -0.4283238 0.4068485 0.47057623
0.5722109 -0.5187397 0.6270178 0.57688683 -0.50856334 0.49232236 -0.45649877 0.45387712
0.51151896 0.55240834 -0.70552224 0.6897418 -0.5330596 0.62366915 0.5201778 0.38967088
-0.6176235 -0.36044145 0.51515615 0.2600855 -0.5461556 -0.6753552 -0.7981503 0.65349674
00000000: 8540 c83e 34be 023f 2773 d7be 9361 a93e
00000010: 1de7 adbe c998 e63e 575f 0bbf 915e a9be
00000020: 0ae6 013f 9e9a 223f 41d8 19bf 4222 02bf
00000030: 7eda e93e 424d dbbe 724e d03e 5eef f03e
00000040: 6a7c 123f 20cc 04bf 3d84 203f dbae 133f
00000050: 3531 02bf ad11 fc3e 35ba e9be 9562 e83e
00000060: e8f2 023f a26a 0d3f 1b9d 34bf eb92 303f
00000070: 9876 08bf c8a8 1f3f 5f2a 053f f182 c73e
00000080: 931c 1ebf c88b b8be 46e1 033f ed29 853e
00000090: dad0 0bbf 14e4 2cbf 9453 4cbf 904b 273f

weight f4 [1, 40]
0.46346083 0.45018855 -0.5965969 0.24874069 -0.3043195 0.15803573 -0.24665205 -0.18425845
0.18812013 0.31247592 -0.4791368 -0.14999345 0.29385298 -0.13075227 0.26764205 0.12839268
0.10316361 -0.21135654 0.31366643 0.5003024 -0.19245848 0.06764279 -0.09119764 0.22750723
0.17718638 0.20493968 -0.11168533 0.1100346 -0.18557724 0.22487351 0.27577117 0.54396194
-0.31829748 -0.5230249 0.5800726 0.42048916 -0.24302498 -0.51800954 -0.5594734 0.03323275
00000000: bd4a ed3e 1d7f e63e 93ba 18bf e1b5 7e3e
00000010: c4cf 9bbe 1ed4 213e 5b92 7cbe 3fae 3cbe
00000020: 90a2 403e d8fc 9f3e 6b51 f5be e297 19be
00000030: e673 963e ece3 05be 6108 893e 5f79 033e
00000040: 7147 d33d d96d 58be e398 a03e d113 003f
00000050: d613 45be 4e88 8a3d d4c5 babd a8f7 683e
00000060: 5970 353e b5db 513e 47bb e4bd d259 e13d
00000070: f607 3ebe 3e45 663e e131 8d3e 1741 0b3f
00000080: e3f7 a2be f6e4 05bf a37f 143f 5b4a d73e
00000090: 8adb 78be 469c 04bf a639 0fbf 101f 083d

weight f4 [40, 2]
-0.52898884 -2.4532425 0.81710064 0.94639474 -0.54327226 -1.205973 1.3178257 2.9394178
-0.7972864 -2.3089228 -1.6399096 -0.22602692 -0.094660245 0.23693973 0.84905607 0.5758189
0.6356088 -1.3193228 0.6273791 -0.28738943 1.0632656 2.0264485 -0.38520315 -1.6454618
-0.07731833 -0.3441997 1.7558196 3.1673727 1.500063 1.5163126 0.7025041 1.0345474
-1.2513031 -0.8894302 -0.30713013 -0.5523874 -0.7321029 -0.19917434 0.0014928479 0.30704394
-0.5695726 -0.71048504 2.021279 0.5505784 0.45615217 -0.41642737 -0.28193742 -0.8834691
0.84930396 2.3354917 -1.9360231 -0.2833342 1.5193014 0.965908 0.18456566 0.442054
0.43832728 -0.8821632 0.40467805 0.120438814 -1.6151152 -0.18083654 -0.30626428 -0.12042475
0.8440247 -0.49210376 0.50785255 -0.48655272 1.0472425 2.00606 -0.61288464 -2.3134718
-0.31701204 -3.0079563 0.008628748 -1.6060787 0.8672261 0.7549046 -0.3290024 -2.3773177
00000000: d06b 07bf ed01 1dc0 822d 513f ed46 723f
00000010: e413 0bbf 535d 9abf 83ae a83f 6c1f 3c40
00000020: f61a 4cbf 64c5 13c0 8fe8 d1bf 9a73 67be
00000030: 3bdd c1bd 54a0 723e bd5b 593f de68 133f
00000040: 42b7 223f 92df a8bf eb9b 203f b524 93be
00000050: 1619 883f 55b1 0140 5939 c5be 7e9e d2bf
00000060: 1359 9ebd f13a b0be b2be e03f 3cb6 4a40
00000070: 1002 c03f 8816 c23f 4fd7 333f 0d6c 843f
00000080: b32a a0bf b3b1 63bf 2940 9dbe 4369 0dbf
00000090: 186b 3bbf 5cf4 4bbe aaab c33a dd34 9d3e
000000a0: 83cf 11bf 59e2 35bf a35c 0140 b5f2 0c3f
000000b0: c78c e93e f835 d5be 1a5a 90be 082b 62bf
000000c0: fc6b 593f b278 1540 9bcf f7bf 2e11 91be
000000d0: 7878 c23f bf45 773f c8fe 3c3e e754 e23e
000000e0: 6f6c e03e 73d5 61bf f631 cf3e a0a8 f63d
000000f0: 18bc cebf 372d 39be acce 9cbe 40a1 f6bd
00000100: 0112 583f 06f5 fbbe a002 023f 701d f9be
00000110: 0b0c 863f 4963 0040 02e6 1cbf ec0f 14c0
00000120: 674f a2be 5b82 40c0 985f 0d3c fd93 cdbf
00000130: 8802 5e3f 6e41 413f 0173 a8be f925 18c0

bias f4 [40]
-0.37277657 0.8316269 -0.46127954 0.19027445 0.22212136 0.50344306 0.986755 0.9090289
1.0170944 0.5102496 1.0241398 1.2785618 -0.6232482 0.51020616 0.49510783 0.8862227
0.99169743 1.5460804 0.6862373 -0.519625 1.1976542 1.0596912 0.16126527 0.30999264
0.81814295 0.545034 1.0630832 1.0056267 0.31460267 -0.58024275 0.37386608 -0.4899683
0.6271515 -0.9747078 -0.55114526 -0.34631807 -0.38144892 -0.40544367 0.64683217 0.9376303
00000000: 92dc bebe 80e5 543f d52c ecbe 4ed7 423e
00000010: c873 633e a5e1 003f fa9b 7c3f 1eb6 683f
00000020: 2630 823f b89f 023f 0317 833f eaa7 a33f
00000030: 328d 1fbf df9c 023f c67e fd3e 7edf 623f
00000040: e2df 7d3f f6e5 c53f 3fad 2f3f 2506 05bf
00000050: bc4c 993f f6a3 873f b922 253e 5bb7 9e3e
00000060: d171 513f 5987 0b3f 1c13 883f 60b8 803f
00000070: 9a13 a13e ca8a 14bf 606b bf3e 20dd fabe
00000080: 008d 203f 7386 79bf db17 0dbf 9a50 b1be
00000090: 464d c3be 5096 cfbe cb96 253f 8a08 703f

weight f4 [40, 40]
0.44810504 0.5918761 0.2543711 0.0047042374 0.36376 0.31123146 0.24159789 0.49609682
0.4718063 0.5473522 0.21056005 0.6762549 -0.19903946 0.44056296 -0.13797894 0.2975502
0.23919287 0.8032598 0.076583415 0.2617801 0.56067103 1.0695118 0.48906162 0.5536678
0.2716929 0.48199418 0.6839583 0.37992463 0.7683828 0.14363171 0.45787996 -0.15173548
0.6444892 0.13587356 0.069381885 0.39816225 0.6393238 0.4286099 0.59105134 0.4580453
0.74497545 0.25835174 0.28891417 0.24042365 0.7698394 0.42469245 0.4633404 0.30033118
-0.021801017 0.8719527 -0.09218724 0.10672618 0.1430784 0.24425222 0.19316833 0.3713498
0.56845534 -0.3308675 0.38574347 0.15630417 0.43647885 0.28989655 0.49694765 -0.1620561
0.23437439 0.2025091 0.29921606 0.50832933 0.28400564 -0.15707083 0.17726019 0.15094449
0.03528161 -0.013318773 -1.9401817 0.8204806 0.46377212 0.6080753 0.41347247 1.7101048
-0.31531787 -0.6549144 -0.34210598 -3.636097 -0.4766955 -0.3318022 -0.38652298 -0.6631137
-0.7142822 -0.6373284 -1.6630086 -0.75797504 -0.09611139 -1.8144284 -2.7688606 -0.566502
-0.42367685 -0.52572864 -0.09180699 -0.10516445 -0.57779247 0.028993636 -0.6265485 -0.3990048
-0.6986153 -0.01232284 -0.5301686 -0.5983354 -0.8313583 -0.013435423 -0.3355097 -0.12624387
-0.48264977 0.30530673 -0.5600976 -0.3816437 -0.4506307 -0.53161186 -0.6444041 -0.3059959
-0.18845981 0.9249998 -0.08276735 3.3353982 0.14075589 0.54139256 1.031049 0.79832816
0.35159957 0.86911464 2.7785163 0.3974176 -0.19641376 1.650179 2.8940678 0.9308805
0.24946445 0.8620878 0.9394968 0.13951936 0.6710758 0.711975 0.7604228 -0.068778954
0.878912 0.34801656 1.1440966 0.8990826 0.79230213 -0.10134846 0.18628411 -0.039590687
0.43136552 -0.26120555 0.21185853 -0.11333045 -0.11155472 0.02857664 0.79291505 0.015231738
0.16914585 0.27676606 0.056137048 -0.01976937 0.44728214 0.2154986 0.5723399 0.48319826
0.7782262 0.56714624 0.0043521216 0.57843876 0.06975482 0.0818975 0.2915542 0.31908226
0.3152793 0.3774372 0.27434677 0.08963065 0.26499295 0.70552826 0.2697137 0.43399516
0.34076804 0.38757184 0.560425 0.46950042 0.5748992 0.08812572 0.24563396 -0.06203618
0.31458053 -0.37941107 -0.46000543 0.12994675 0.49604136 0.2921952 0.37785247 0.3511924
-0.4548734 -0.19967917 -0.39048374 0.29458445 -0.12298421 0.3727055 0.011161039 -0.36907429
-0.65045077 -0.1190404 0.51261234 -0.05360906 0.14643894 0.119096965 0.3327761 0.0055157593
0.12730044 -0.16873986 0.2553881 0.048457533 -0.11367637 -0.013099054 -0.2038825 -0.5927295
0.24666521 0.4780511 -0.36235362 -0.08894876 -0.22093925 -0.07973397 0.4096401 -0.07579952
-0.18673928 -0.027680818 0.76749855 -0.22027062 -0.56800395 -0.8184576 -0.08847432 -0.52229303
-0.49807638 -0.26954645 -0.4237119 -0.9266627 -0.08707026 -0.59476614 -0.37403333 -0.26819474
-0.37189543 -0.27736712 -1.0653592 -0.34873185 -0.10561943 -0.3382823 -2.5176458 -0.44257334
00000000: 066e e53e 3185 173f ee3c 823e 0126 9a3b
00000010: c03e ba3e bb59 9f3e 7065 773e 6700 fe3e
00000020: 9890 f13e 461f 0c3f 0e9d 573e 0b1f 2d3f
00000030: 00d1 4bbe 7891 e13e 5a4a 0dbe 8058 983e
00000040: faee 743e 6fa2 4d3f c4d7 9c3d 0b08 863e
00000050: 2388 0f3f c3e5 883f 4966 fa3e 2cbd 0d3f
00000060: 551b 8b3e f1c7 f63e e417 2f3f 7b85 c23e
00000070: bcb4 443f 3114 133e 3e6f ea3e 8c60 1bbe
00000080: 3ffd 243f 7022 0b3e 1718 8e3d ecdb cb3e
00000090: b9aa 233f c272 db3e 244f 173f ea84 ea3e
000000a0: b6b6 3e3f ae46 843e 8fec 933e 9e31 763e
000000b0: 3214 453f 4a71 d93e f43a ed3e 02c5 993e
000000c0: 0c98 b2bc 4b38 5f3f aacc bcbd 4193 da3d
000000d0: 2583 123e 411d 7a3e ebcd 453e 9021 be3e
000000e0: 4a86 113f 7767 a9be 2b80 c53e 330e 203e
000000f0: 287a df3e 526d 943e ec6f fe3e 09f2 25be
00000100: d7ff 6f3e 8c5e 4f3e d932 993e df21 023f
00000110: 3069 913e 2dd7 20be b283 353e 3191 1a3e
00000120: 7383 103d fc36 5abc e057 f8bf 040b 523f
00000130: 8a73 ed3e d3aa 1b3f aab2 d33e b7e4 da3f
00000140: 5871 a1be 78a8 27bf 8428 afbe d0b5 68c0
00000150: 6f11 f4be fae1 a9be 57e6 c5be d2c1 29bf
00000160: 33db 36bf f427 23bf 77dd d4bf a70a 42bf
00000170: 0cd6 c4bd 313f e8bf 0335 31c0 4606 11bf
00000180: 2cec d8be 2796 06bf 4e05 bcbd 7660 d7bd
00000190: 35ea 13bf 1084 ed3c 7c65 20bf 5b4a ccbe
000001a0: 74d8 32bf bde5 49bc 21b9 07bf 822c 19bf
000001b0: e6d3 54bf 4020 5cbc edc7 abbe 1346 01be
000001c0: df1d f7be 2a51 9c3e 8e62 0fbf ce66 c3be
000001d0: 11b9 e6be b717 08bf abf7 24bf 7fab 9cbe
000001e0: 9cfb 40be c9cc 6c3f ee81 a9bd 2a77 5540
000001f0: 5022 103e b498 0a3f 6af9 833f 3c5f 4c3f
00000200: dc04 b43e 4c7e 5e3f 36d3 3140 527a cb3e
00000210: b020 49be 1139 d33f 6838 3940 2f4e 6e3f
00000220: 9c73 7f3e c9b1 5c3f dd82 703f 2ade 0e3e
00000230: a0cb 2b3f fe43 363f 12ab 423f fbdb 8cbd
00000240: 6000 613f 3a2f b23e c271 923f 472a 663f
00000250: 50d4 4a3f c88f cfbd 43c1 3e3e d829 22bd
00000260: f1db dc3e bcbc 85be 71f1 583e cc19 e8bd
00000270: cd76 e4bd 8f19 ea3c 7bfc 4a3f 8a8e 793c
00000280: 9234 2d3e 48b4 8d3e f6ef 653d 60f3 a1bc
00000290: 2a02 e53e aaab 5c3e de84 123f c365 f73e
000002a0: d539 473f 7f30 113f 3e9c 8e3b 9014 143f
000002b0: 9ddb 8e3d e0b9 a73d 9846 953e c05e a33e
000002c0: 4a6c a13e 733f c13e 2e77 8c3e 4690 b73d
000002d0: 28ad 873e 809d 343f ea17 8a3e 9d34 de3e
000002e0: 2679 ae3e d16f c63e 0378 0f3f 5c62 f03e
000002f0: 982c 133f 427b b43d 7887 7b3e a619 7ebd
00000300: b310 a13e 2b42 c2be d585 ebbe c310 053e
00000310: 22f9 fd3e 9c9a 953e e175 c13e 7ecf b33e
00000320: 2be5 e8be b278 4cbe 7ced c7be c6d3 963e
00000330: 25df fbbd 41d3 be3e cadc 363c 4ef7 bcbe
00000340: f183 26bf 74cb f3bd 903a 033f 2c95 5bbd
00000350: 17f4 153e 1ce9 f33d a161 aa3e 8bbd b43b
00000360: 0c5b 023e 24ca 2cbe 3bc2 823e 687b 463d
00000370: 28cf e8bd 6a9d 56bc 93c6 50be 1fbd 17bf
00000380: ce95 7c3e 1dc3 f43e 6a86 b9be c42a b6bd
00000390: e63d 62be 904b a3bd 59bc d13e c73c 9bbd
000003a0: 9538 3fbe e2c2 e2bc c97a 443f 9f8e 61be
000003b0: b568 11bf 7086 51bf 0632 b5bd ffb4 05bf
000003c0: de03 ffbe fe01 8abe c4f0 d8be c439 6dbf
000003d0: e451 b2bd 9842 18bf 4c81 bfbe d250 89be
000003e0: 1469 bebe 1003 8ebe b15d 88bf fb8c b2be
000003f0: 004f d8bd 5633 adbe 1c21 21c0 f998 e2be

bias f4 [40]
0.745528 0.2451471 -0.68830687 0.65266734 0.5461582 -0.2749058 -0.44294813 -0.40392822
0.04435936 -0.89532703 -0.45620707 0.68990064 0.7447064 -0.740531 0.1060799 -0.37154803
-0.5536793 1.2527555 -0.30055383 -0.81154734 0.45695934 0.44876048 -0.7305498 0.63129735
-0.18789929 0.7082997 -0.365558 1.0684583 -0.50176346 -0.4985613 -0.5207386 -0.24810559
0.3874833 0.77339244 -0.33545586 0.6697656 0.02060489 -0.7040495 0.29034698 0.43146572
00000000: ecda 3e3f d707 7b3e e134 30bf 3515 273f
00000010: 06d1 0b3f 74c0 8cbe 19ca e2be aecf cebe
00000020: 29b2 353d 2734 65bf f993 e9be 549d 303f
00000030: 14a5 3e3f 7193 3dbf 6b40 d93d 8b3b bebe
00000040: edbd 0dbf 4b5a a03f 31e2 99be 91c1 4fbf
00000050: 93f6 e93e efc3 e53e 5005 3bbf b49c 213f
00000060: ac68 40be 2153 353f 6b2a bbbe 3ec3 883f
00000070: 9273 00bf 6d43 ffbe 204f 05bf 640f 7ebe
00000080: 3664 c63e 0cfd 453f dfc0 abbe c275 2b3f
00000090: 96cb a83c 973c 34bf 5ca8 943e 13e9 dc3e

weight f4 [40, 40]
-0.65859604 -0.0807866 0.12854125 -0.45468798 -0.6608817 -0.030723678 0.52664036 0.14649047
0.19672124 0.6112375 0.4422149 -0.693309 -0.46014303 0.5278833 -0.15797113 0.45754197
0.46312684 -0.57333934 0.3250354 0.043867446 -0.5248743 0.121221565 0.3353233 -0.33035278
-0.24072084 -0.3625733 0.17238188 0.4670518 0.0924294 0.15737647 0.36878365 0.16511586
-0.4208272 -0.5389365 0.33287564 -0.5194335 -0.4803822 0.19571896 -0.32183582 -0.26684362
0.31503573 -0.19226539 -0.0675833 0.101560906 0.62041587 0.19137985 -0.43539655 -0.14456579
-0.43442848 -0.40220034 -0.47515866 0.36911115 0.58923215 -0.88004667 0.3866973 -0.17363213
-0.2695049 0.56221807 -0.5529466 0.07458469 0.22801599 -0.114913896 -0.54518145 0.6196976
0.41395742 0.4012378 -0.33424124 -0.44107646 -0.21939065 -0.82333773 -0.49285397 0.123999394
0.3799271 1.0031549 -0.14411715 0.560351 0.4094461 -0.57459784 0.16061959 0.83117664
-0.47579402 -0.11568806 0.4643145 -0.42101547 -0.48982507 -0.15129568 0.46712115 0.22861722
0.55224377 0.5770253 0.49817708 -0.44960296 -0.5901741 0.5641187 -0.18664657 0.4168725
0.60917175 -0.6038157 0.12030912 0.011830029 -0.6152019 0.07018078 0.47989577 -0.46075025
-0.43282655 -0.13721113 0.5715755 0.5359441 0.093687944 0.4599535 0.610632 -0.0676468
-0.48461607 -0.42208582 0.18549645 -0.51406485 -0.016026368 0.660092 0.037552767 -0.38334075
0.42307785 0.16137409 -0.35643575 0.38012916 0.4279628 -0.07368975 -0.4615354 0.1732025
-0.04197072 -0.47001228 -0.74106455 0.7042607 0.55053234 -0.6013262 0.074832484 -0.5222859
-0.5727914 0.6689081 -0.17931439 -0.3929506 0.50406903 -0.014608768 -0.54213494 0.5467595
-0.12109812 -0.25797853 -0.34636018 -0.5106283 -0.13191193 -0.45660946 -0.55576015 -0.31352282
0.5639818 0.42888826 -0.37443087 0.6094405 0.31970224 -0.5413529 0.1922229 0.2970409
-0.2734475 0.07059124 0.76048696 -0.36637712 -0.46681342 0.013291797 0.40426937 0.12531325
0.36692205 0.39144272 0.42216116 -0.33978897 -0.30216113 0.43528298 0.003956124 0.4050779
0.5172824 -0.5312998 0.19102333 0.023234468 -0.49946415 -0.28085265 0.4603156 -0.35663283
-0.29476556 -0.36625504 0.5997669 0.3618761 -0.083554745 0.4253733 0.37202662 0.23763122
-0.43825978 -0.35255137 0.3737015 -0.38779768 -0.21743642 0.60889995 0.035354376 -0.5575698
0.6640706 0.34931332 -0.7384985 0.49550438 0.70338434 -0.046950676 -0.6523824 0.1544323
-0.5163561 -0.503746 -0.5971057 0.6664952 0.45180848 -0.74923325 0.21249223 -0.42263463
-0.5364137 0.5722687 -0.19413188 0.029338319 0.3885234 0.1614302 -0.5281225 0.6937365
0.4037361 1.1973379 -0.76776356 0.041568786 -0.17171913 -0.6090698 -0.6124316 0.017522132
0.6195232 0.59335566 -0.7059908 0.68852156 0.53700453 -0.42061257 0.089116134 0.6241092
0.62127256 0.34649086 -0.6989458 0.014149548 0.70775664 -0.32451588 -0.8309048 0.23593798
0.11307987 -0.6707393 -0.44241682 0.5123984 0.57339925 -1.1302292 -0.1659465 -0.48124263
00000000: c099 28bf 7273 a5bd 51a0 033e ddcc e8be
00000010: 8b2f 29bf 39b0 fbbc e7d1 063f 9901 163e
00000020: 4b71 493e 107a 1c3f fe69 e23e b37c 31bf
00000030: de97 ebbe 5c23 073f 2fc3 21be f142 ea3e
00000040: f61e ed3e 5ec6 12bf 0a6b a63e 5aae 333d
00000050: 2a5e 06bf 0343 f83d 7faf ab3e 0024 a9be
00000060: 867f 76be 35a3 b9be e084 303e 6a21 ef3e
00000070: a04b bd3d 4c27 213e 36d1 bc3e 2214 293e
00000080: aa76 d7be bef7 09bf ad6e aa3e 98f9 04bf
00000090: a8f4 f5be 8d6a 483e aac7 a4be ba9f 88be
000000a0: 5d4c a13e 38e1 44be 1d69 8abd 2aff cf3d
000000b0: 93d3 1e3f 14f9 433e 4cec debe 0e09 14be
000000c0: 696d debe 34ed cdbe ff47 f3be 23fc bc3e
000000d0: ebd7 163f bd4a 61bf 30fd c53e 9fcc 31be
000000e0: 8cfc 89be 86ed 0f3f e98d 0dbf dcbf 983d
000000f0: 067d 693e fa57 ebbd 0391 0bbf 80a4 1e3f
00000100: 3af2 d33e 0a6f cd3e ab21 abbe c6d4 e1be
00000110: f1a7 60be 43c6 52bf 5b57 fcbe 65f3 fd3d
00000120: ce85 c23e 6167 803f 7293 13be 2a73 0f3f
00000130: eba2 d13e d818 13bf 7679 243e fec7 543f
00000140: 469b f3be dded ecbd a1ba ed3e 578f d7be
00000150: 5aca fabe 41ed 1abe 812a ef3e a21a 6a3e
00000160: d95f 0d3f eeb7 133f 1111 ff3e 5c32 e6be
00000170: a615 17bf 156a 103f 4720 3fbe 5070 d53e
00000180: aef2 1b3f aa93 1abf a164 f63d bdd2 413c
00000190: df7d 1dbf f1ba 8f3d e6b4 f53e 75e7 ebbe
000001a0: 719b ddbe 1381 0cbe c652 123f a233 093f
000001b0: 77df bf3d 067f eb3e 6152 1c3f 688a 8abd
000001c0: 991f f8be a21b d8be c8f2 3d3e c199 03bf
000001d0: bb49 83bc cafb 283f eed0 193d 3d45 c4be
000001e0: a99d d83e 403f 253e bf7e b6be 4aa0 c23e
000001f0: f11d db3e a7ea 96bd 5e4e ecbe ff5b 313e
00000200: 7de9 2bbd 73a5 f0be 68b6 3dbf 6e4a 343f
00000210: b0ef 0c3f 84f0 19bf c641 993d 87b4 05bf
00000220: 75a2 12bf 903d 2b3f 319e 37be d230 c9be
00000230: ab0a 013f 9d59 6fbc 5bc9 0abf 6ef8 0b3f
00000240: 4b02 f8bd c315 84be 1f56 b1be 89b8 02bf
00000250: ec13 07be b7c8 e9be 4c46 0ebf 1086 a0be
00000260: 1c61 103f 3e97 db3e 67b5 bfbe 4b04 1c3f
00000270: 03b0 a33e 1b96 0abf 14d6 443e bf15 983e
00000280: 5001 8cbe 2492 903d 46af 423f c895 bbbe
00000290: 2b02 efbe d6c5 593c 65fc ce3e 1e52 003e
000002a0: 35dd bb3e 2e6b c83e 8225 d83e d2f8 adbe
000002b0: ddb4 9abe 69dd de3e 60a2 813b 5f66 cf3e
000002c0: 9f6c 043f 4403 08bf 9f9b 433e 3656 be3c
000002d0: c4b9 ffbe ebcb 8fbe 7cae eb3e 9498 b6be
000002e0: 83eb 96be c885 bbbe 538a 193f d347 b93e
000002f0: c01e abbd 87ca d93e 467a be3e 9955 733e
00000300: 9663 e0be 9d81 b4be ce55 bf3e 6b8d c6be
00000310: a7a7 5ebe dee0 1b3f c0cf 103d e5bc 0ebf
00000320: 8800 2a3f 32d9 b23e 3d0e 3dbf c0b2 fd3e
00000330: ff10 343f 5a4f 40bd 8802 27bf 8023 1e3e
00000340: ea2f 04bf 7ff5 00bf ebdb 18bf 6e9f 2a3f
00000350: 7153 e73e c0cd 3fbf 9097 593e 9163 d8be
00000360: 6952 09bf 3480 123f 82ca 46be ea56 f03c
00000370: 8aec c63e f54d 253e 0933 07bf b798 313f
00000380: 80b6 ce3e 5e42 993f 278c 44bf 0844 2a3d
00000390: 24d7 2fbe 00ec 1bbf 51c8 1cbf 938a 8f3c
000003a0: 1399 1e3f 28e6 173f d0bb 34bf f342 303f
000003b0: 2179 093f 885a d7be 8582 b63d 9fc5 1f3f
000003c0: b80b 1f3f 4067 b13e 1dee 32bf 81d3 673c
000003d0: 8a2f 353f f226 a6be 2db6 54bf ba99 713e
000003e0: 6b96 e73d 92b5 2bbf 7584 e2be 8b2c 033f
000003f0: 4bca 123f 5aab 90bf e1ed 29be 6f65 f6be

bias f4 [40]
-0.43712518 0.439783 -0.6274081 0.50352514 -0.5607351 0.4306681 0.63397515 -0.48676586
-0.45923153 -0.76976466 0.51494473 -0.45588395 0.43754065 -0.6497472 0.20071763 0.5401852
0.73784494 0.6046359 -0.7793661 0.67030996 0.38067052 0.4638216 0.5658706 0.42983833
0.5936874 0.36872768 -0.71265996 -0.60249907 -0.6670082 0.31507114 0.5213555 -0.4671059
-0.3932849 0.4979581 -0.56704366 0.4043682 0.5939025 0.5141766 0.5458995 0.6493485
00000000: dfce dfbe 3d2b e13e d19d 20bf 06e7 003f
00000010: 568c 0fbf 8780 dc3e 324c 223f 6039 f9be
00000020: 6520 ebbe 4c0f 45bf 6bd3 033f 9f69 e9be
00000030: 5405 e03e d555 26bf ec88 4d3e 9449 0a3f
00000040: 68e3 3c3f 6bc9 1a3f 8984 47bf 6f99 2b3f
00000050: 3fe7 c23e 067a ed3e e5dc 103f c513 dc3e
00000060: e6fb 173f e0c9 bc3e e270 36bf 613d 1abf
00000070: 0dc1 2abf 0151 a13e 8e77 053f 8128 efbe
00000080: a35c c9be 5df4 fe3e c629 11bf 5909 cf3e
00000090: ff09 183f 14a1 033f 12c0 0b3f b43b 263f

weight f4 [1, 40]
-0.6489534 0.42491034 -0.4958174 0.6201395 -0.40820432 0.3584475 0.42434475 -0.4593576
-0.3634168 -0.39707357 0.71144027 -0.42910165 0.7322161 -0.62487036 0.51564884 0.37002078
0.50906676 0.41929334 -0.7312749 0.5076555 0.6657256 0.37487593 0.62435526 0.6019918
0.540032 0.38096413 -0.6382655 -0.45139563 -0.40974322 0.34440997 0.56155443 -0.6862684
-0.64815134 0.6157604 -0.513047 0.32944137 0.6974327 0.8594775 0.542698 0.61199397
00000000: cf21 26bf d98d d93e c7db fdbe 76c1 1e3f
00000010: 2800 d1be 6e86 b73e b743 d93e eb30 ebbe
00000020: c411 babe 3a4d cbbe f320 363f 36b3 dbbe
00000030: 8472 3b3f 81f7 1fbf 9001 043f 5d73 bd3e
00000040: 3352 023f 9ead d63e d534 3bbf b6f5 013f
00000050: fe6c 2a3f bdef bf3e bfd5 1f3f 221c 1a3f
00000060: 8a3f 0a3f bb0d c33e 5e65 23bf 541d e7be
00000070: ddc9 d1be 8156 b03e 08c2 0f3f 49af 2fbf
00000080: 3fed 25bf 79a2 1d3f 0c57 03bf 8aac a83e
00000090: f38a 323f b806 5c3f 42ee 0a3f a3ab 1c3f
