[LC models]/min_func_LC_n_V=8.pt (torch_old, 143288 bytes, 62 tensors)

weight f4 [40, 2]
-1.7348555 -0.5040166 -0.07607284 -0.11427119 0.34070513 -2.6623693 -1.1820024 -0.3281616
0.17717503 -0.11322401 0.25453255 0.5667929 0.20903683 0.26921153 0.5085495 0.6339543
0.2739284 0.5505149 0.476611 0.37429723 -0.22906962 -0.0905902 -3.7065313 -0.6376417
-0.37516066 0.44990614 0.24972582 0.30066702 0.08510847 0.11015057 -0.31002346 -0.069835834
-1.1181897 -0.5550041 -0.26342133 0.11247875 -0.058938395 0.5337497 -0.2942237 -0.08919681
0.33587924 0.42992282 0.02474884 -0.094836794 -2.228754 -0.71358883 0.19166765 -0.4062356
-0.0029883974 -0.54333496 0.76719135 0.42941937 -0.32652113 0.35009086 -2.7834902 -0.4991796
0.38411906 0.3077731 0.084435456 0.30364323 0.47354203 0.24684161 -1.6321523 -0.42424586
2.8307812 -0.9082876 0.06930836 -0.12084154 0.7021729 1.3266559 -0.5825612 1.2057914
-0.3161949 -0.120602734 0.27607653 0.32712093 -0.8409933 1.3642572 0.15046489 0.1582638
00000000: bf0f debf 3b07 01bf 14cc 9bbd 0307 eabd
00000010: e770 ae3e 4264 2ac0 db4b 97bf cc04 a8be
00000020: 5f6d 353e fde1 e7bd 1752 823e 5719 113f
00000030: c00d 563e 18d6 893e 4d30 023f d44a 223f
00000040: 5840 8c3e 8bee 0c3f 5b06 f43e e3a3 bf3e
00000050: 3a91 6abe 5b87 b9bd cf37 6dc0 7d3c 23bf
00000060: 0f15 c0be 195a e63e 20b8 7f3e 07f1 993e
00000070: 594d ae3d 9f96 e13d 65bb 9ebe 1706 8fbd
00000080: d720 8fbf c014 0ebf 29df 86be 425b e63d
00000090: 6369 71bd d2a3 083f 7da4 96be d1ac b6bd
000000a0: 5df8 ab3e d81e dc3e 14be ca3c cb39 c2bd
000000b0: e8a3 0ec0 c2ad 36bf 8644 443e 1dfe cfbe
000000c0: fdd8 43bb 0018 0bbf a766 443f dbdc db3e
000000d0: c72d a7be 1c3f b33e b424 32c0 7894 ffbe
000000e0: 41ab c43e 7094 9d3e 7fec ac3d 2077 9b3e
000000f0: 1a74 f23e 0cc4 7c3e 5eea d0bf c136 d9be
00000100: 852b 3540 8985 68bf 8bf1 8d3d c57b f7bd
00000110: 9ac1 333f dccf a93f bb22 15bf 5f57 9a3f
00000120: 4ce4 a1be 91fe f6bd e759 8d3e 657c a73e
00000130: 564b 57bf fb9f ae3f 7813 1a3e e80f 223e

bias f4 [40]
-0.63324445 -0.13373642 -1.4552869 0.5493156 -0.023875866 0.15313914 -0.9605088 0.21659742
0.15443163 -0.6369009 0.2982116 -0.25218272 -0.2123945 -0.9685957 -1.0257046 0.22175217
-0.33792287 -0.28005427 -0.47772366 0.19214126 0.04204932 0.098495655 -0.44888288 -0.75355405
0.3828074 0.272937 0.19198844 -0.14513169 -0.7181563 0.33564356 -0.44577062 -0.0591888
-0.5702497 -0.5073506 0.73279816 -0.23889676 0.23789932 -0.89942527 -1.7429745 -0.76730484
00000000: 4f1c 22bf 33f2 08be d746 babf f29f 0c3f
00000010: 5297 c3bc 82d0 1c3e e8e3 75bf b7cb 5d3e
00000020: 5323 1e3e f00b 23bf 31af 983e 181e 81be
00000030: f27d 59be e3f5 77bf 4a4a 83bf 0013 633e
00000040: 3a04 adbe 4663 8fbe 3298 f4be aec0 443e
00000050: e83b 2c3d 17b8 c93d fad3 e5be ebe8 40bf
00000060: 55ff c33e 66be 8b3e 9e98 443e 679d 14be
00000070: 17d9 37bf 79d9 ab3e 0c3c e4be f56f 72bd
00000080: e2fb 11bf bbe1 01bf a998 3b3f 5aa1 74be
00000090: e19b 733e bc40 66bf ca19 dfbf 176e 44bf

weight f4 [40, 40]
-0.40668333 0.11324532 -0.6837167 -0.47283572 -0.23510517 -0.34148178 -0.5046355 -0.6956142
-0.7169292 -0.5593079 -0.16204384 -0.5962927 0.16166317 -0.10033745 -0.5865946 -0.031458065
0.22829364 0.06247026 -0.3177381 0.15322931 -0.23386234 -0.28383863 -0.1888583 0.19806677
-0.13029489 -0.0139568895 -0.28113738 -0.14428231 -0.2851245 -0.43682992 -0.34828773 0.09025088
0.19672242 0.022081163 -1.15023 -0.40962002 0.27049154 0.101561375 -0.33096203 0.1072483
0.1497697 0.76765823 0.97307754 -0.5355519 0.8265005 -0.97316 3.0619328 -1.0829071
-1.2327344 0.81225395 -0.28202266 -0.29050997 0.06313276 1.4097407 1.6709366 -0.5344126
0.5312564 0.4015744 0.55755335 -2.5605545 -0.87104803 0.44094217 0.22561868 0.5932556
0.54311967 -0.83426666 -0.6931003 -0.79129654 0.9052127 -0.90216124 -0.32268125 -0.018097421
0.016749643 1.2260784 -1.5626831 -0.694301 0.16696645 1.3909942 0.2997611 1.484907
-0.5934429 1.7384229 -0.5483604 -0.52679795 0.39680105 0.82142615 0.80399436 0.6945977
0.634754 1.1607081 -0.34797558 -1.0713453 0.3582398 0.6975621 0.058044847 -1.2964268
-0.53492296 -0.5511692 0.5318359 -1.1162626 0.2528504 -0.8100512 -0.25070542 -0.20587333
0.6893505 0.8244634 0.7657955 -0.95209074 0.026939603 -0.57950234 1.4335343 -1.0910064
0.78955275 -0.00424603 1.0496104 0.025599327 -0.39544806 0.4945842 2.395486 0.32639763
-0.7917941 0.45451358 0.25935733 -1.1438047 -0.0037252605 0.725195 0.52343416 0.7071382
0.8559768 1.0185858 -0.015903201 -1.2918888 0.29386455 0.32792902 0.13805482 -1.698361
-0.7140198 -0.56859857 0.1184768 -0.8628117 0.6071084 -0.52189726 -0.68194926 -0.17094055
0.12369207 1.3421189 -0.22544016 -1.2772087 0.41865984 -1.1082975 -0.06894237 -1.0462122
0.9319385 0.303809 0.83939284 0.24841797 -0.63866156 0.6317275 -0.7009525 0.5522914
-0.17272428 0.036160152 -2.5638201 -0.16650072 -0.11824505 -0.49449185 0.036689468 -0.86459976
-0.7540961 -0.2252242 0.16695884 -0.44097236 0.11882175 0.22704847 -0.03632242 -0.36788365
-0.03290617 0.28303623 0.5667082 0.0009858508 -0.4476001 -0.6473256 -0.07340379 -0.1070442
-0.17516452 -0.0032138114 -0.25697234 -0.03280377 -0.47403193 -0.6729266 0.042589594 -0.03390382
-0.66165656 0.048807625 -1.3144861 -0.8016599 0.24106893 -0.0034918778 0.36863393 -0.084182784
0.7206037 -0.19344218 -0.5323788 -1.178651 0.0888892 -0.49734268 1.1335796 -0.2114771
-0.12334073 0.9116703 -1.1482716 0.47446144 -0.5456877 1.0339869 0.46945015 -0.16952607
0.37813717 -0.20079087 -0.034963083 -1.1455543 -0.75381 0.33115384 0.6374189 0.37108168
-0.026096107 -0.30971608 -0.11732768 -0.16512544 1.1619422 -0.9314699 -0.85244924 0.035691567
-0.030616425 0.9619377 -0.42519572 -0.2106536 -0.5276914 1.2973119 -0.6982703 1.4820608
0.27696538 0.1070268 2.0785365 -0.5137912 1.3093439 0.13792893 1.5782782 1.1272266
0.83050406 2.110125 -3.2471585 -0.022050576 -1.0386347 1.4671069 1.1269332 -0.39777893
00000000: cc38 d0be 2aed e73d 0f08 2fbf 8617 f2be
00000010: 69bf 70be b3d6 aebe cb2f 01bf c613 32bf
00000020: ac88 37bf cd2e 0fbf d2ee 25be a3a6 18bf
00000030: 088b 253e b97d cdbd 102b 16bf 2cda 00bd
00000040: cfc5 693e d1e0 7f3d 91ae a2be 25e8 1c3e
00000050: 9c79 6fbe 4c53 91be 1264 41be 04d2 4a3e
00000060: 066c 05be 70ab 64bc 3df1 8fbe bebe 13be
00000070: d7fb 91be 2ca8 dfbe c552 b2be 74d5 b83d
00000080: 9a71 493e 8ee3 b43c bd3a 93bf b7b9 d1be
00000090: de7d 8a3e 69ff cf3d db73 a9be ffa4 db3d
000000a0: 3a5d 193e 4085 443f 9c1b 793f ee19 09bf
000000b0: 8995 533f 0421 79bf b5f6 4340 b39c 8abf
000000c0: 3eca 9dbf e0ef 4f3f 4665 90be b9bd 94be
000000d0: c04b 813d 6272 b43f 40e1 d53f 44cf 08bf
000000e0: 6b00 083f 299b cd3e d1bb 0e3f 20e0 23c0
000000f0: 01fd 5ebf 2cc3 e13e 9508 673e 99df 173f
00000100: e409 0b3f 8092 55bf 056f 31bf 6992 4abf
00000110: 05bc 673f 0af4 66bf 7a36 a5be 0b41 94bc
00000120: 8c36 893c 23f0 9c3f 0006 c8bf b6bd 31bf
00000130: 41f9 2a3e 190c b23f 497a 993e 6f11 be3f
00000140: e0eb 17bf a484 de3f 5961 0cbf 3bdc 06bf
00000150: 8229 cb3e fc48 523f 93d2 4d3f 28d1 313f
00000160: 3d7f 223f 1592 943f db29 b2be d821 89bf
00000170: 356b b73e 6e93 323f 6fc0 6d3d 50f1 a5bf
00000180: b6f0 08bf 6d19 0dbf 6626 083f b1e1 8ebf
00000190: 9c75 813e 845f 4fbf 765c 80be 75d0 52be
000001a0: 4679 303f 0910 533f 2d0b 443f 38bc 73bf
000001b0: 71b0 dc3c 445a 14bf 0d7e b73f 19a6 8bbf
000001c0: 2120 4a3f 4822 8bbb a259 863f aeb5 d13c
000001d0: 2b78 cabe 243a fd3e a54f 1940 971d a73e
000001e0: 05b3 4abf 01b6 e83e 7cca 843e 3168 92bf
000001f0: 8023 74bb 61a6 393f c8ff 053f 0207 353f
00000200: 4c21 5b3f 0561 823f 6e47 82bc 9d5c a5bf
00000210: 6a75 963e 50e6 a73e 3e5e 0d3e e563 d9bf
00000220: 00ca 36bf ad8f 11bf f7a3 f23d 3ae1 5cbf
00000230: 756b 1b3f 0f9b 05bf 3a94 2ebf 0a0b 2fbe
00000240: 4552 fd3d 8dca ab3f c9d9 66be 937b a3bf
00000250: 955a d63e b1dc 8dbf a831 8dbd 48ea 85bf
00000260: 8693 6e3f da8c 9b3e 73e2 563f 4861 7e3e
00000270: 537f 23bf e5b8 213f 9f71 33bf f862 0d3f
00000280: a2de 30be ab1c 143d a115 24c0 2a7f 2abe
00000290: 762a f2bd 092e fdbe b247 163d 6956 5dbf
000002a0: 710c 41bf 2ca1 66be 42f7 2a3e 21c7 e1be
000002b0: d158 f33d 657f 683e d1c6 14bd 3f5b bcbe
000002c0: 9fc8 06bd 20ea 903e ca13 113f aa37 813a
000002d0: d72b e5be 21b7 25bf ba54 96bd fd39 dbbd
000002e0: 545e 33be cf9e 52bb e191 83be 3f5d 06bd
000002f0: 50b4 f2be eb44 2cbf 6d72 2e3d bbde 0abd
00000300: 5362 29bf 81ea 473d 1541 a8bf 9539 4dbf
00000310: c6da 763e fdd7 64bb 96bd bc3e 0668 acbd
00000320: 7c79 383f b515 46be fa49 08bf 09de 96bf
00000330: 8a0b b63d b3a3 febe 2319 913f 748d 58be
00000340: 119a fcbd 3a63 693f 90fa 92bf 9cec f23e
00000350: 30b2 0bbf af59 843f c55b f03e 3e98 2dbe
00000360: 329b c13e 1f9c 4dbe 7335 0fbd 86a1 92bf
00000370: b1f9 40bf ff8c a93e e32d 233f 6bfe bd3e
00000380: 81c7 d5bc 1b93 9ebe 7f49 f0bd a516 29be
00000390: 86ba 943f d074 6ebf 1d3a 5abf 5231 123d
000003a0: 4ccf fabc 8d41 763f 41b3 d9be 94b5 57be
000003b0: c916 07bf 510e a63f d8c1 32bf 2bb4 bd3f
000003c0: 68ce 8d3e de30 db3d be06 0540 d287 03bf
000003d0: 9598 a73f 3e3d 0d3e 0505 ca3f f648 903f
000003e0: ea9b 543f 4a0c 0740 72d1 4fc0 69a3 b4bc
000003f0: fbf1 84bf 29ca bb3f 593f 903f aea9 cbbe

bias f4 [40]
-0.22769967 -1.5333123 -0.5637441 -0.4705104 0.0064988947 -1.2127357 -1.0946672 -1.1068889
-0.46836582 -0.9463037 -1.1821004 -0.49821016 0.18444006 -2.0168173 -1.0275644 -1.328838
-0.4884478 -0.74425024 -0.29183513 -0.45655134 -0.81903136 -1.2798038 -0.3135292 -0.45713192
-0.6870236 -0.30571878 -0.82753813 -0.12349576 -0.9529839 -0.05646869 -0.7424093 -0.50064814
-0.22755782 -0.7271072 -0.30026743 -0.31814435 0.24856411 -0.16505973 -0.64713216 -0.20166707
00000000: 1a2a 69be 9443 c4bf 8951 10bf bde6 f0be
00000010: aef4 d43b ec3a 9bbf 0e1e 8cbf 89ae 8dbf
00000020: a5cd efbe f640 72bf 114f 97bf 6715 ffbe
00000030: dbdd 3c3e 8913 01c0 3b87 83bf 5d17 aabf
00000040: d415 fabe 2f87 3ebf 6a6b 95be 19c1 e9be
00000050: 0aac 51bf 9cd0 a3bf e686 a0be 320d eabe
00000060: c7e0 2fbf 2c87 9cbe 8ad9 53bf 58eb fcbd
00000070: c1f6 73bf b74b 67bd 890e 3ebf 7a2a 00bf
00000080: eb04 69be b323 3abf a7bc 99be d1e3 a2be
00000090: 9787 7e3e 6b05 29be 74aa 25bf d081 4ebe

weight f4 [4, 40]
-0.040468413 -0.41431096 0.09217725 -0.0770639 0.26897097 0.11077986 0.2987717 -0.11250708
-0.3802502 0.2210319 -0.21030034 0.1813306 -0.5714215 0.29823968 -0.12438871 0.29833296
0.2603151 -0.18444717 -0.044394236 -0.13578615 0.12798177 -0.039214514 0.23580204 -0.3523573
0.43964738 -0.046316043 -0.44837195 0.20220478 0.009345659 0.9031101 -0.9290636 0.26917222
0.09974828 -0.31662205 0.95647115 0.57711494 0.19939493 0.18500775 0.20196274 0.20780039
-0.3412433 -0.62008846 0.04305355 0.096961826 0.25032613 -0.08496885 0.10450744 0.11424948
0.26362896 -0.55808306 0.44339892 -0.31357852 0.27703628 0.6395878 0.38682657 -0.018614864
-0.20646249 0.04822343 0.17485854 0.12800315 0.36949933 -0.059400827 -0.17594777 0.4308969
0.52101064 -0.15900978 0.0660824 -0.37453058 -0.3994672 0.18000585 0.3541088 0.07522857
-0.42147812 -0.14130713 -0.17837301 -0.4411916 -0.34793392 -0.20453483 -0.17978288 0.7424774
-0.085394785 0.23379546 -0.32851273 0.8662035 -0.7125938 -0.5617986 -0.23958555 -0.2982816
-0.98222893 0.4049998 0.13361627 -0.2738836 0.1506427 0.3199573 0.12688768 -0.0012639684
0.2939383 0.26404163 0.25402066 0.35206068 0.16082306 -0.11393319 0.25573677 -0.02527246
0.0033083614 -0.19107962 0.282621 0.08783307 0.019177472 0.79392564 -0.07692453 -0.16155536
-0.30274782 -0.24572155 -1.0129482 -0.080420054 0.19570896 0.176378 -0.44236246 -0.07127032
-0.45361894 0.79924303 -0.17131247 0.06533351 0.09366821 -0.0139490785 -0.32186717 0.6530394
-0.29804558 0.017256683 -0.042880207 0.09413173 0.6023792 0.18788527 0.06453864 -0.4504938
-0.22298533 -0.50070786 -0.4491924 -0.037227366 -0.44374493 -0.1886296 -0.33849356 -0.03154387
0.03515023 0.19785601 0.0875321 -0.07693988 0.03949055 0.403143 0.10357005 0.00842908
-0.23088677 -0.15766992 -0.031477295 0.8390994 -0.45337164 -0.6919311 -0.47941092 0.46138853
00000000: 35c2 25bd 9120 d4be 6dc7 bc3d aed3 9dbd
00000010: 90b6 893e 8de0 e23d 9bf8 983e 1d6a e6bd
00000020: 27b0 c2be 3056 623e f958 57be bbae 393e
00000030: ae48 12bf dfb2 983e 82bf febd 19bf 983e
00000040: 0548 853e b8df 3cbe bbd6 35bd 860b 0bbe
00000050: a70d 033e 669f 20bd 1776 713e 2d68 b4be
00000060: 7619 e13e e4b5 3dbd 0291 e5be c50e 4f3e
00000070: 891e 193c 3932 673f 1dd7 6dbf f1d0 893e
00000080: d448 cc3d 491c a2be 4bdb 743f cebd 133f
00000090: 2f2e 4c3e ac72 3d3e 52cf 4e3e a0c9 543e
000000a0: 71b7 aebe 1ebe 1ebf eb58 303d ec93 c63d
000000b0: bf2a 803e 2604 aebd ff07 d63d a2fb e93d
000000c0: 60fa 863e 88de 0ebf 2f05 e33e 5d8d a0be
000000d0: b3d7 8d3e 07bc 233f 220e c63e 337e 98bc
000000e0: e76a 53be ee85 453d 1e0e 333e 4213 033e
000000f0: 042f bd3e 484e 73bd a72b 34be 859e dc3e
00000100: f460 053f 76d3 22be 3656 873d 79c2 bfbe
00000110: f786 ccbe 7453 383e c04d b53e 7011 9a3d
00000120: fbcb d7be d1b2 10be 6aa7 36be dee3 e1be
00000130: 6524 b2be 9471 51be 0119 38be 0013 3e3f
00000140: 76e3 aebd 1468 6f3e d232 a8be 83bf 5d3f
00000150: 8c6c 36bf 08d2 0fbf ea55 75be 5eb8 98be
00000160: 5b73 7bbf 225c cf3e b4d2 083e 793a 8cbe
00000170: 1442 1a3e 71d1 a33e d8ee 013e beab a5ba
00000180: 157f 963e 7730 873e ff0e 823e 4c41 b43e
00000190: cdae 243e ce55 e9bd eeef 823e 3108 cfbc
000001a0: 18d1 583b 60aa 43be b3b3 903e d3e1 b33d
000001b0: 131a 9d3c b63e 4b3f 9c8a 9dbd c56e 25be
000001c0: c301 9bbe 6e9e 7bbe 49a8 81bf 45b3 a4bd
000001d0: ee67 483e 6f9c 343e 557d e2be 2cf6 91bd
000001e0: be40 e8be 319b 4c3f 896c 2fbe 93cd 853d
000001f0: 1ed5 bf3d ad8a 64bc c6cb a4be 972d 273f
00000200: 6e99 98be e35d 8d3c 28a3 2fbd 23c8 c03d
00000210: 8635 1a3f ff64 403e d62c 843d 20a7 e6be
00000220: 4456 64be 642e 00bf 8cfc e5be b97b 18bd
00000230: 8932 e3be 1e28 41be 074f adbe 2534 01bd
00000240: b0f9 0f3d c49a 4a3e 0844 b33d a892 9dbd
00000250: d8c0 213d c268 ce3e 891c d43d 201a 0a3c
00000260: 956d 6cbe 3974 21be 56ee 00bd 38cf 563f
00000270: 5420 e8be 6622 31bf 5975 f5be 1e3b ec3e

bias f4 [4]
-0.010058037 -0.15864928 0.08940145 -0.09733471
00000000: 77ca 24bc f574 22be 1b18 b73d 6c57 c7bd

weight f4 [40, 2]
-0.9990219 -0.55391353 0.1770585 -0.08168645 -0.15663396 -0.31281146 -0.051567174 -0.3533444
-1.429911 0.33363786 3.753729 1.0687228 -0.8192167 0.08140723 -1.1206298 -0.6191745
-1.3095921 -0.17318751 2.6116648 0.71528965 -0.025669541 0.30716258 2.0160017 0.7722795
2.124849 -0.7395363 3.3119633 0.30960822 -0.966921 -0.38888934 -0.97958267 -0.16918173
-1.020046 0.7352148 0.34900078 -0.512556 0.29591477 -0.11763249 -0.014034361 0.6519121
2.720252 -0.37266654 2.3271523 0.8024103 -1.1917427 -0.1883144 1.7311623 0.6442931
0.3634701 0.78406304 -0.01998061 -0.86913866 -0.30716696 -0.28667358 -0.4820828 0.68613315
-0.57517123 -0.27248502 -1.0948704 -0.25865698 -0.4229417 -0.27382407 -1.2003589 -0.22906612
-1.146906 0.07241398 -0.41425836 0.32587278 0.15756492 -0.5218318 0.08643949 0.36743397
-0.9884505 0.080077015 -0.38736242 0.20985116 0.61409086 1.1817456 0.61492723 0.04795636
00000000: e6bf 7fbf 47cd 0dbf d34e 353e 3a4b a7bd
00000010: a764 20be d328 a0be 1a38 53bd 8fe9 b4be
00000020: 5307 b7bf 95d2 aa3e 193d 7040 e9cb 883f
00000030: 30b8 51bf d5b8 a63d cc70 8fbf 3882 1ebf
00000040: b7a0 a7bf 1158 31be 8425 2740 391d 373f
00000050: ee48 d2bc 6a44 9d3e 2c06 0140 1cb4 453f
00000060: 87fd 0740 4052 3dbf 35f7 5340 f884 9e3e
00000070: 2288 77bf 811c c7be eec5 7abf fa3d 2dbe
00000080: de90 82bf 0a37 3c3f 3bb0 b23e df36 03bf
00000090: 2482 973e 4ee9 f0bd 60f0 65bc b6e3 263f
000000a0: 9c18 2e40 26ce bebe 10f0 1440 c36a 4d3f
000000b0: 068b 98bf 7dd5 40be ba96 dd3f 65f0 243f
000000c0: c118 ba3e 5bb8 483f 60ae a3bc df7f 5ebf
000000d0: fd44 9dbe e1c6 92be 8fd3 f6be 6ca6 2f3f
000000e0: 6c3e 13bf 2883 8bbe b724 8cbf b06e 84be
000000f0: d18b d8be ab32 8cbe 5ca5 99bf 4f90 6abe
00000100: d1cd 92bf c84d 943d ac19 d4be ccd8 a63e
00000110: b358 213e c596 05bf 3007 b13d 4e20 bc3e
00000120: 180b 7dbf 6bff a33d 5e54 c6be 39e3 563e
00000130: 0f35 1d3f 7143 973f df6b 1d3f e36d 443d

bias f4 [40]
0.36115882 -0.41333136 0.261394 -0.43340474 0.11405528 0.06371816 0.27931505 0.1316137
0.5515806 0.47392675 -0.33433014 0.17187618 0.53392327 0.16712533 0.48960012 1.1220008
0.50385004 -1.3453351 -0.41537273 0.6741866 1.5596935 -0.7137177 -0.04261008 0.25770736
0.50974816 0.39960945 1.1843195 -0.2841144 0.29940963 1.1734482 0.40676886 0.6417529
0.34282082 0.5285343 -0.71822816 -0.4650628 0.27851832 0.57514566 0.77567947 -0.6484662
00000000: cfe9 b83e 2ba0 d3be 6fd5 853e 3ae7 ddbe
00000010: d195 e93d ab7e 823d 6202 8f3e bec5 063e
00000020: 6334 0d3f 87a6 f23e 522d abbe 4f00 303e
00000030: 32af 083f e722 2b3e deac fa3e b99d 8f3f
00000040: 51fc 003f f133 acbf bcab d4be 7e97 2c3f
00000050: 09a4 c73f 34b6 36bf e887 2ebd 38f2 833e
00000060: db7e 023f 9c99 cc3e c897 973f 7177 91be
00000070: 384c 993e 8d33 963f 0244 d03e eb49 243f
00000080: 3686 af3e 064e 073f cddd 37bf b61c eebe
00000090: f499 8e3e bf3c 133f ee92 463f e201 26bf

weight f4 [40, 40]
-0.014591361 0.119283244 -0.1326484 -0.19008273 -0.87412655 0.18107513 0.2096381 -0.88331604
-0.5040768 -0.3643988 -0.08737418 -0.9999239 -0.106425755 1.0169791 -0.6786867 -0.64041007
-0.74968046 -0.08381987 -0.06658697 -0.5294863 -2.9231293 0.09295354 -0.146283 -0.29498988
0.19634877 -0.2107833 -0.34947485 -0.25587985 -0.38517907 -0.2951734 0.1977144 -0.5001778
-0.110579595 -0.5341749 0.079978526 0.16876334 -0.40767714 -0.21283367 -0.5974857 0.21808699
0.08322986 0.049957592 -0.20067094 0.2992438 -0.70482916 -0.12078375 -0.9319073 -0.12753817
-0.9291818 -0.22610654 0.1829551 -0.40261534 -0.20741084 -0.26944557 -0.7058455 -0.70944947
0.15854886 0.7649893 0.28114104 -0.42045766 -0.21115826 0.3247567 0.028802454 -0.12900646
-0.3890118 -0.30451405 -0.5294422 -0.017614588 -0.4157104 -0.47054693 -0.32379976 -0.69973505
-0.41318104 -0.3845197 -0.10655001 0.051524624 -0.49496335 -0.80507034 -0.32285553 0.33169574
-0.22353446 -0.27470815 0.46756753 -0.20643376 -0.72223455 -0.018428547 -0.19914488 0.23655492
0.26047593 0.5205736 0.052851446 0.1657404 0.48000613 0.6575942 0.7954855 0.94359714
0.43157876 -0.37219864 -0.28142276 0.3612381 0.26979196 0.6459466 0.22471742 -0.016451558
1.1196492 0.5456115 1.1770241 -0.025140796 0.30321187 -0.19541802 0.9502917 0.3318965
1.3218334 0.35977292 -0.083337076 -0.014663005 0.40788034 -0.3311846 0.32382166 0.16703817
-0.4222928 -0.042746365 0.1324619 0.020699026 -1.20034 -1.2703776 -0.06481232 -0.016044509
-0.34593594 4.2068567 -1.0833298 1.5951631 -1.1435049 -1.3832474 0.61647826 -0.15928619
0.4739219 -0.27160633 -0.074332744 -0.5531815 -0.17781325 -0.44285423 1.0994862 -0.6288517
-0.804116 0.6942056 0.084213965 -1.3340502 -0.30309054 -0.5444132 -0.019026345 -0.70116854
-0.8405598 0.05571483 -0.022611195 0.045224987 -0.7409737 -0.6395269 0.26646444 -0.4690326
0.629684 -0.023750843 0.12230048 0.061530657 0.110864185 0.2688995 0.6791396 0.25924182
0.45106575 0.027746476 -0.011822772 0.8881868 -0.010706159 0.09048241 0.86951095 0.11953391
0.0630408 0.45628762 0.24522778 0.4777038 -0.454159 0.26726976 0.5001457 0.37836742
-0.5246219 0.67570174 0.047301803 0.00077882636 0.6333641 0.75403273 0.9137474 -0.17102414
0.48293346 0.34712794 0.08976322 0.27197066 0.36796308 0.5579388 0.20268358 -0.5647765
0.6877728 0.10604383 0.5893883 0.09772985 0.2630276 3.304368 0.7484423 0.8721813
0.86115754 -1.2180542 0.3322403 -1.4232951 1.1022542 2.658521 0.61575246 0.30633244
-0.13793832 0.39643136 -0.042642478 0.64631265 2.7106225 0.41986755 0.97715664 0.023506757
-0.29087743 0.5974056 -0.4927893 0.072042756 1.0105132 0.14258713 0.8722145 -0.13485718
0.40304133 0.41003942 0.1084364 -0.20754516 0.93147033 0.34806067 0.3631717 0.17404714
0.6609213 0.11956787 0.58694834 0.10470565 0.33810472 0.8769073 0.37141678 0.84151
0.6638167 1.0843717 0.19077133 0.37917686 1.5137564 0.43080422 0.55459404 0.14411703
00000000: 9b10 6fbc c64a f43d fbd4 07be 0ca5 42be
00000010: c2c6 5fbf c26b 393e 5fab 563e 0021 62bf
00000020: 2d0b 01bf 7b92 babe 3cf1 b2bd 03fb 7fbf
00000030: bff5 d9bd 5f2c 823f 69be 2dbf eaf1 23bf
00000040: 0feb 3fbf c1a9 abbd c05e 88bd 6a8c 07bf
00000050: 8d14 3bc0 6d5e be3d 36cb 15be ea08 97be
00000060: a70f 493e 94d7 57be 5eee b2be af02 83be
00000070: 3136 c5be f820 97be a575 4a3e a70b 00bf
00000080: 8e77 e2bd b0bf 08bf c8cb a33d 4cd0 2c3e
00000090: 0fbb d0be 12f1 59be d3f4 18bf 3252 5f3e
000000a0: 6b74 aa3d 55a0 4c3d af7c 4dbe 7c36 993e
000000b0: af6f 34bf 795d f7bd 7a91 6ebf 5e99 02be
000000c0: dcde 6dbf 7988 67be 9558 3b3e 9923 cebe
000000d0: 8263 54be c5f4 89be 4ab2 34bf 7b9e 35bf
000000e0: a25a 223e 57d6 433f b8f1 8f3e 3a46 d7be
000000f0: df39 58be 8346 a63e 20f3 eb3c 451a 04be
00000100: 8e2c c7be 44e9 9bbe 8689 07bf 784c 90bc
00000110: fed7 d4be 87eb f0be 15c9 a5be d621 33bf
00000120: 778c d3be c4df c4be e436 dabd 7c0b 533d
00000130: d66b fdbe 1719 4ebf 524d a5be 06d4 a93e
00000140: 38e6 64be 8ca6 8cbe 0365 ef3e 5f63 53be
00000150: 5de4 38bf 77f7 96bc a3ec 4bbe 743b 723e
00000160: 1a5d 853e 5044 053f c27a 583d dab7 293e
00000170: 5dc3 f53e 1858 283f f0a4 4b3f 958f 713f
00000180: e4f7 dc3e d290 bebe a516 90be 33f4 b83e
00000190: 2c22 8a3e c25c 253f 531c 663e 6bc5 86bc
000001a0: aa50 8f3f 32ad 0b3f baa8 963f 12f4 cdbc
000001b0: 963e 9b3e a91b 48be 5146 733f 57ee a93e
000001c0: d631 a93f 2834 b83e a1ac aabd 1a3d 70bc
000001d0: b1d5 d03e 0791 a9be f4cb a53e 0e0c 2b3e
000001e0: c336 d8be d016 2fbd 18a4 073e 0191 a93c
000001f0: bea4 99bf bc9b a2bf 52bc 84bd c66f 83bc
00000200: 841e b1be 929e 8640 8daa 8abf 4e2e cc3f
00000210: 5e5e 92bf 400e b1bf 85d1 1d3f eb1b 23be
00000220: e4a5 f23e fc0f 8bbe c43b 98bd 4e9d 0dbf
00000230: ad14 36be cabd e2be f7bb 8c3f 6dfc 20bf
00000240: 8cda 4dbf 75b7 313f 5f78 ac3d 28c2 aabf
00000250: af2e 9bbe aa5e 0bbf 23dd 9bbc c87f 33bf
00000260: ed2e 57bf 3c35 643d 1d3b b9bc d63d 393d
00000270: 74b0 3dbf 09b8 23bf 076e 883e 0a25 f0be
00000280: f832 213f 2191 c2bc ad78 fa3d 9207 7c3d
00000290: c30c e33d 32ad 893e 18dc 2d3f 58bb 843e
000002a0: 17f2 e63e 944c e33c 4db4 41bc 3660 633f
000002b0: e368 2fbc d74e b93d 4598 5e3f 32ce f43d
000002c0: 891b 813d 889e e93e fe1c 7b3e 9895 f43e
000002d0: 8787 e8be 95d7 883e 8c09 003f 60b9 c13e
000002e0: 9f4d 06bf cafa 2c3f 89bf 413d 272a 4c3a
000002f0: 2624 223f 4a08 413f 59eb 693f f420 2fbe
00000300: 0e43 f73e c1ba b13e c7d5 b73d bd3f 8b3e
00000310: a865 bc3e 14d5 0e3f 498c 4f3e 3195 10bf
00000320: e111 303f 822d d93d 27e2 163f 9626 c83d
00000330: 8eab 863e c47a 5340 ea99 3f3f 4647 5f3f
00000340: d274 5c3f 33e9 9bbf 671b aa3e 892e b6bf
00000350: aa16 8d3f 3525 2a40 f4a1 1d3f 9bd7 9c3e
00000360: b43f 0dbe 0df9 ca3e e1a9 2ebd bf74 253f
00000370: d77a 2d40 e1f8 d63e f026 7a3f 3e91 c03c
00000380: e3ed 94be 93ef 183f e14e fcbe 278b 933d
00000390: 7f58 813f 5c02 123e 7349 5f3f 0018 0abe
000003a0: 6f5b ce3e b0f0 d13e e713 de3d b886 54be
000003b0: d774 6e3f 0235 b23e a4f1 b93e 6a39 323e
000003c0: 2332 293f 00e0 f43d 3f42 163f ea6f d63d
000003d0: 101c ad3e ff7c 603f 572a be3e 336d 573f
000003e0: e4ef 293f b1cc 8a3f 8f59 433e 7823 c23e
000003f0: c5c2 c13f 5f92 dc3e e0f9 0d3f 6a93 133e

bias f4 [40]
-0.6419655 -0.26649612 0.25231147 -0.31465024 0.66706526 0.8873469 0.3910667 0.38033074
0.14892358 -0.5604775 0.62818116 -0.060446933 0.41751143 0.50460434 0.63672674 -0.29221916
0.47338843 -0.28784564 0.31652862 -0.30362052 -0.28569317 -0.53943855 0.27035904 0.24259867
0.15941502 -0.57795256 0.14841741 0.051030573 0.6068846 -0.10491921 -1.128949 -0.7062855
-0.7941469 0.1743827 -0.63103956 -0.7888582 -0.71856785 0.32584292 0.53525615 -0.34413192
00000000: da57 24bf 2e72 88be f82e 813e d619 a1be
00000010: cac4 2a3f 2b29 633f e539 c83e b6ba c23e
00000020: 6c7f 183e 747b 0fbf 7bd0 203f 3497 77bd
00000030: 0fc4 d53e c02d 013f 8600 233f c09d 95be
00000040: f85f f23e 8160 93be 0a10 a23e 2674 9bbe
00000050: 6046 92be a518 0abf 806c 8a3e c96b 783e
00000060: b13d 233e b3f4 13bf bcfa 173e 6f05 513d
00000070: ca5c 1b3f e2df d6bd 6781 90bf 20cf 34bf
00000080: 364d 4bbf 6191 323e cf8b 21bf 9cf2 49bf
00000090: 10f4 37bf e2d4 a63e 8c06 093f 0f32 b0be

weight f4 [40, 40]
-0.66446203 0.54601836 0.7823484 -0.4657867 -0.5372348 0.6265375 0.5100389 0.36390087
-0.63826746 -0.74329776 -0.40374455 -0.5296736 1.0051522 -0.31319305 0.69876647 -0.6238886
0.7180024 -0.59013313 -0.20191944 0.3995136 -0.65514296 0.13734162 0.57371294 0.28609616
-0.17979406 -0.67935413 -0.15320176 0.2585827 0.5240173 -0.8971627 -0.8518571 -0.7478263
-0.5187286 0.7033446 -1.6286957 -0.52186155 -0.099187 0.40601072 0.55518883 0.5210781
-0.1560132 -0.32610524 0.3242411 0.11738198 -0.09995205 -0.3331409 -0.18856867 0.27899048
-0.022958726 -0.3544532 0.70216423 0.9987965 0.38567793 -0.041242972 -0.027956326 -0.21894792
-0.05283507 0.42052728 -0.11351318 0.3057857 0.34171447 0.151412 -0.7406905 0.051718257
-0.269398 0.36273223 0.48562557 -0.014104175 0.49860415 0.21462409 -0.1041481 -0.06339719
0.0891597 0.015064903 0.69308937 0.30469632 -0.6495348 -0.14008412 -0.20553656 0.28904405
0.42400402 0.4577985 0.52790344 0.051831216 -0.5887115 0.37215132 0.2678617 0.17409599
-0.26700702 -0.42920494 0.009126165 0.15063503 0.26714545 0.38296834 0.24408098 -0.31187743
0.4187812 -0.40551153 -0.03454234 0.9673563 0.18550217 1.9202018 -0.7166914 0.13245052
0.16607465 -0.20588672 -1.1843534 0.37591562 1.36982 -0.18787588 0.04609245 -0.37068683
-0.4280775 0.4403043 -0.5956586 -0.36494142 -0.5303538 0.20635562 0.21281461 0.15467213
-0.0512806 0.25689557 -0.70219934 1.1206161 0.47187266 -0.010874458 -0.08408596 0.42693692
0.020032829 0.3419859 -0.24943256 -1.335862 0.16250032 0.08318653 0.030351844 0.3858792
-0.445952 0.48148614 0.3690771 0.58619887 0.1869112 1.6180207 0.542129 -0.5278961
0.04250995 9.648813e-05 -1.2925855 -0.52364105 -0.15199858 0.22551276 0.17712697 -0.09460422
0.18454827 -2.3299932 -0.38868034 0.035464574 -0.2046025 -0.1982226 -0.16260047 -0.7473037
0.07441157 -0.2149564 -0.61184347 0.17330983 -0.0006819483 -0.59928095 -0.7509715 -0.58351725
0.70046514 1.0741986 -0.38809535 -0.23302135 -0.26929748 0.18419361 -0.573903 0.584142
-0.5396794 0.26911372 -0.13562588 -0.15462592 0.23168203 -0.61089987 -0.111713454 -0.05821615
-0.07360442 0.34742185 0.26892963 0.24088933 0.16638532 0.58068466 0.420434 0.35362598
0.46653578 -0.49547255 0.6572656 0.5117012 0.3547063 -0.489023 -0.5265592 0.26639625
-0.072242096 0.5373927 0.27433425 -0.20149922 -0.12620503 0.5529745 0.50589746 0.2393499
-0.29269853 -0.4993535 0.38600332 0.11189921 0.45496827 -0.5953024 0.5361957 -0.5286467
0.5513536 0.034090742 0.07460743 0.13841845 -0.61937636 0.7087619 -0.029197708 -0.26749644
0.13203922 -0.8321205 -0.15963338 -0.20415236 0.21455172 -0.45329455 -0.19677545 -0.56795436
-0.6268339 0.2644255 -0.5436022 -0.39727703 -0.67677003 0.5019818 0.49668726 -0.30731443
-0.21803626 0.52028006 0.23700728 -0.49906853 -0.09124041 0.7128734 0.6274184 0.40376076
-0.33914825 -0.7332942 0.30339164 0.16780126 0.41120705 -0.18507306 0.5449157 -0.65659064
00000000: 2f1a 2abf dcc7 0b3f fc47 483f 987b eebe
00000010: 3888 09bf c364 203f e991 023f 3751 ba3e
00000020: 7f65 23bf c348 3ebf 9bb7 cebe b098 07bf
00000030: d4a8 803f d75a a0be 5ce2 323f 2ab7 1fbf
00000040: 01cf 373f f712 17bf f8c3 4ebe 0c8d cc3e
00000050: 73b7 27bf 48a3 0c3e dade 123f 327b 923e
00000060: ef1b 38be 27ea 2dbf ece0 1cbe f464 843e
00000070: ff25 063f 74ac 65bf 4f13 5abf 8b71 3fbf
00000080: 66cb 04bf 640e 343f 1a79 d0bf b898 05bf
00000090: 8e22 cbbd a3e0 cf3e db20 0e3f 6065 053f
000000a0: edc1 1fbe 44f7 a6be ee02 a63e f765 f03d
000000b0: a9b3 ccbd 7291 aabe 2518 41be d7d7 8e3e
000000c0: f013 bcbc e47a b5be 09c1 333f 21b1 7f3f
000000d0: 9477 c53e 64ee 28bd aa04 e5bc e233 60be
000000e0: 9669 58bd 5a4f d73e 9979 e8bd f18f 9c3e
000000f0: 33f5 ae3e bf0b 1b3e e59d 3dbf 86d6 533d
00000100: 89ee 89be 0ab8 b93e eaa3 f83e 3315 67bc
00000110: 0b49 ff3e 6bc6 5b3e 994b d5bd 63d6 81bd
00000120: 5c99 b63d c8d2 763c 4e6e 313f 2801 9c3e
00000130: ea47 26bf 3672 0fbe 2d78 52be 95fd 933e
00000140: 0e17 d93e 9164 ea3e ae24 073f f84c 543d
00000150: ccb5 16bf 9e8a be3e 2b25 893e 3846 323e
00000160: 25b5 88be c0c0 dbbe e985 153c 1240 1a3e
00000170: 4ac7 883e 6d14 c43e 5df0 793e 66ae 9fbe
00000180: 7d6a d63e 359f cfbe 457c 0dbd aaa4 773f
00000190: 48f4 3d3e 2cc9 f53f 1679 37bf 1ca1 073e
000001a0: 790f 2a3e f8d3 52be e498 97bf 0378 c03e
000001b0: 4356 af3f 8962 40be 70cb 3c3d aaca bdbe
000001c0: f92c dbbe 916f e13e 157d 18bf 9ad9 babe
000001d0: 44c5 07bf e34e 533e 13ec 593e 5f62 1e3e
000001e0: 9b0b 52bd d187 833e 56c3 33bf 5970 8f3f
000001f0: 4b99 f13e c82a 32bc 4335 acbd 7a97 da3e
00000200: e31b a43c c718 af3e 406b 7fbe 87fd aabf
00000210: 7c66 263e b35d aa3d 6ea4 f83c f591 c53e
00000220: d253 e4be 5a85 f63e acf7 bc3e 2111 163f
00000230: a665 3f3e 4d1b cf3f f7c8 0a3f 3324 07bf
00000240: ea1e 2e3d ac59 ca38 7173 a5bf 570d 06bf
00000250: 84a5 1bbe d1ec 663e c660 353e dbbf c1bd
00000260: 39fa 3c3e 9c1e 15c0 1c01 c7be 4d43 113d
00000270: 5183 51be defa 4abe bd80 26be 4c4f 3fbf
00000280: 1865 983d 881d 5cbe c6a1 1cbf 2278 313e
00000290: c7c4 32ba 7a6a 19bf ab3f 40bf 6361 15bf
000002a0: af51 333f 577f 893f 6fb4 c6be 269d 6ebe
000002b0: 5ce1 89be 409d 3c3e 4feb 12bf 558a 153f
000002c0: 6e28 0abf 46c9 893e 83e1 0abe 4256 1ebe
000002d0: 0e3e 6d3e ef63 1cbf 06ca e4bd 0f74 6ebd
000002e0: eabd 96bd 47e1 b13e 25b1 893e b1ab 763e
000002f0: ea60 2a3e c0a7 143f 2043 d73e 770e b53e
00000300: c7dd ee3e 94ae fdbe 8f42 283f dafe 023f
00000310: 109c b53e 3961 fabe 95cc 06bf 1765 883e
00000320: aaf3 93bd 9192 093f 8a75 8c3e d055 4ebe
00000330: e43b 01be bd8f 0d3f 7f82 013f 2418 753e
00000340: 95dc 95be 43ab ffbe 3aa2 c53e 6a2b e53d
00000350: 9af1 e83e bd65 18bf 1f44 093f 6455 07bf
00000360: 8225 0d3f bca2 0b3d c8cb 983d 91bd 0d3e
00000370: 738f 1ebf 6b71 353f 0830 efbc 4bf5 88be
00000380: 4a35 073e d905 55bf ef76 23be 510d 51be
00000390: 72b3 5b3e 3916 e8be 817f 49be 7565 11bf
000003a0: 3078 20bf c762 873e 8429 0bbf e567 cbbe
000003b0: cd40 2dbf e181 003f cb4d fe3e 5158 9dbe
000003c0: e644 5fbe 1331 053f 09b2 723e e985 ffbe
000003d0: 41dc babd df7e 363f 7e9e 203f bbb9 ce3e
000003e0: d7a4 adbe 2bb9 3bbf 2656 9b3e 18d4 2b3e
000003f0: bb89 d23e cb83 3dbe 987f 0b3f 5316 28bf

bias f4 [40]
0.5206551 -0.07904602 0.34609097 -0.104484595 -0.5903621 0.39142436 0.7280802 0.36652723
0.4979197 0.41519684 -0.50481576 -0.55952233 0.4739681 -0.4351052 -0.20850417 -0.44665113
0.15797287 -0.11716504 -0.5030613 -0.24143009 0.5971314 0.54961795 0.5966243 0.2763655
-0.38977644 -0.3050245 0.21671522 -0.30709168 -0.40270332 -0.4993354 0.6523111 0.3567413
0.3856975 -0.042634025 0.47160664 0.2596676 0.6473844 0.7890368 -0.30788407 0.34884766
00000000: a749 053f e1e2 a1bd d632 b13e 05fc d5bd
00000010: f821 17bf c668 c83e 7763 3a3f 75a9 bb3e
00000020: 55ef fe3e ae94 d43e 9b3b 01bf db3c 0fbf
00000030: f2ab f23e 1cc6 debe 1e82 55be 75af e4be
00000040: a4c3 213e 39f4 efbd a0c8 00bf 7339 77be
00000050: 9add 183f c3b3 0c3f 5fbc 183f c77f 8d3e
00000060: c790 c7be 2c2c 9cbe 98ea 5d3e 1f3b 9dbe
00000070: 212f cebe e4a8 ffbe dcfd 263f cca6 b63e
00000080: 257a c53e 04a1 2ebd 6d76 f13e 27f3 843e
00000090: fcba 253f 51fe 493f fba2 9dbe 299c b23e

weight f4 [1, 40]
0.13939272 -0.28006938 -0.26755843 0.34101838 0.42656457 -0.5911602 -0.55937475 -0.43309432
-0.4678152 0.04305344 0.41091165 0.5297437 -0.04828161 0.608099 0.0035419748 0.4827738
-0.05112769 -0.15831982 0.52676225 0.08139482 -0.34685597 -0.5421802 -0.5999903 0.16568524
1.0474429 0.12893814 -0.2703958 0.45779255 0.21750729 0.3406906 -0.12900744 0.1669883
-0.30884296 0.12770309 -0.16882262 -0.4357614 0.09455084 0.08278404 -0.29370856 0.17042252
00000000: f7bc 0e3e 4165 8fbe 6bfd 88be f699 ae3e
00000010: ac66 da3e 4656 17bf 2f33 0fbf 8abe ddbe
00000020: 7985 efbe ce58 303d 0363 d23e 489d 073f
00000030: f0c2 45bd 60ac 1b3f 7a20 683b 212e f73e
00000040: 456b 51bd 971e 22be e4d9 063f 54b2 a63d
00000050: 1b97 b1be 52cc 0abf f798 19bf 64a9 293e
00000060: 9c12 863f 5c08 043e 5171 8abe c963 ea3e
00000070: 3bba 5e3e 006f ae3e 871a 04be fbfe 2a3e
00000080: aa20 9ebe 99c4 023e d6df 2cbe 1e1c dfbe
00000090: dfa3 c13d ae8a a93d f860 96be 3e83 2e3e

weight f4 [40, 2]
-0.3237253 -0.31170565 0.44127792 -0.47760358 -0.089922324 0.29220834 0.9753803 -0.6483322
2.0421433 0.5121382 1.1928798 0.94332033 -0.8330463 -0.7407018 -1.8682863 -0.4636901
-0.19874415 1.6723648 -0.23361857 -0.27476248 -3.3242328 -0.5129142 -0.031368576 0.38419273
0.35784963 -0.93858385 -0.022540867 0.024049401 0.12806274 -0.43115637 1.1930488 -0.10722075
0.045649156 0.58327025 2.5498502 -0.3790081 0.52400804 -0.17804177 0.5345151 -0.46620244
0.13154854 -0.46194583 1.6545054 0.097313106 0.33803684 -0.076542534 -1.9374821 -0.25459188
2.561694 0.52335393 0.20803313 0.009668176 0.16760218 0.01513897 -0.22691491 1.256834
-2.4749122 1.9549017 -0.3188748 0.75767094 0.3115852 0.5387143 -1.3210564 0.24894783
0.23709652 -1.0132935 -0.23670316 0.21685246 2.4260046 -0.3820713 -0.9832384 0.7853653
0.3223322 -0.2708875 -1.5795059 -0.8609241 0.46719062 0.12837385 0.13274692 0.60565764
00000000: 53bf a5be e297 9fbe 2eef e13e 7588 f4be
00000010: 3229 b8bd 559c 953e 86b2 793f 19f9 25bf
00000020: 7ab2 0240 7d1b 033f 49b0 983f 717d 713f
00000030: 8642 55bf a29e 3dbf 0124 efbf ca68 edbe
00000040: 9683 4bbe 0d10 d63f b539 6fbe abad 8cbe
00000050: 3bc0 54c0 584e 03bf 567c 00bd e9b4 c43e
00000060: 1138 b73e 0847 70bf a0a7 b8bc 4003 c53c
00000070: e122 033e 87c0 dcbe d3b5 983f 8d96 dbbd
00000080: 9cfa 3a3d 3351 153f bf30 2340 5a0d c2be
00000090: 6425 063f 9550 36be fbd5 083f 16b2 eebe
000000a0: a9b4 063e 2a84 ecbe d5c6 d33f 184c c73d
000000b0: 2a13 ad3e 55c2 9cbd 6aff f7bf de59 82be
000000c0: cbf2 2340 86fa 053f a306 553e 4567 1e3c
000000d0: e89f 2b3e 7109 783c 625c 68be f0df a03f
000000e0: f664 1ec0 383a fa3f 8f43 a3be b9f6 413f
000000f0: 1888 9f3e 2ee9 093f 6018 a9bf 2eec 7e3e
00000100: 6ec9 723e 9ab3 81bf 5062 72be 920e 5e3e
00000110: a943 1b40 d99e c3be 83b5 7bbf b30d 493f
00000120: ba08 a53e c4b1 8abe 402d cabf 8665 5cbf
00000130: 9c33 ef3e 6f74 033e cfee 073e 610c 1b3f

bias f4 [40]
-0.6550374 -1.2828414 -0.39509773 1.1003575 1.433924 1.0011843 1.4776922 -0.71814436
0.5266949 -0.51277375 -0.34913212 -0.41463393 -0.81409407 -0.60257584 -0.72094 -0.3328106
-0.6642667 0.4737402 -0.6913871 -0.13642332 -0.60944474 1.2696978 -0.42647988 0.7872852
-0.16665465 -0.2635385 -0.17840578 0.1792164 0.82049674 0.46251374 -0.8224618 1.570786
0.8230377 -0.5227374 0.46867904 0.69879204 -0.6042423 0.39614943 -0.61899817 -0.7435312
00000000: 88b0 27bf 2634 a4bf 404a cabe 84d8 8c3f
00000010: d28a b73f cf26 803f 0525 bd3f 4fd8 37bf
00000020: 7ad5 063f 2445 03bf 72c1 b2be e64a d4be
00000030: 7868 50bf 6942 1abf 868f 38bf 2766 aabe
00000040: 620d 2abf 138e f23e bffe 30bf 8eb2 0bbe
00000050: 9204 1cbf 7585 a23f 925b dabe 868b 493f
00000060: 84a7 2abe 85ee 86be 01b0 36be 8184 373e
00000070: 130c 523f 9ace ec3e db8c 52bf 840f c93f
00000080: 99b2 523f 1ed2 05bf b3f6 ef3e 09e4 323f
00000090: a0af 1abf 19d4 ca3e aa76 1ebf 1058 3ebf

weight f4 [40, 40]
0.05567874 0.06539596 0.23402366 0.00997779 -0.055257335 -0.03519135 -1.0078983 -0.37001428
-0.063367285 -0.59513694 -0.29623792 -0.045147825 -0.37021118 0.0942456 0.12163252 -0.30467358
0.14449161 -1.1318903 0.7376738 -0.50997514 0.38444692 -0.12848102 -0.2930194 -0.24841793
-0.20804419 0.31417602 0.07845222 0.1606966 0.5258793 -1.0908215 -0.07750731 -0.8651686
-0.46742886 -0.32153147 0.06937034 -1.0196834 -0.06006965 -0.49934798 -0.040195603 -0.22093514
0.37502956 -0.54827493 -0.2680831 0.9304217 -1.6418066 -1.0782092 0.19196294 1.229048
-0.41230857 -0.67129254 0.49674574 0.25031838 -0.20224398 -0.15737292 -0.016318435 -1.7845116
0.0211393 -0.5303968 0.3500939 -0.56646764 0.4078705 -0.32664317 -0.05481134 0.48898685
-0.13545816 0.08764583 -0.14979653 -0.4071292 0.24035981 -0.15827946 -0.37236398 -0.1899448
0.46106797 0.07572774 -0.26834542 1.1193429 0.15420638 0.7356902 -0.04489616 -0.25103876
-0.50581944 -0.8748823 0.008443273 -0.6859515 -0.51277983 -0.6209631 -0.15715206 -2.7616482
-0.77934027 0.05783595 -0.7585509 0.33740637 -0.76558036 0.14209865 -0.026456121 -1.348627
-0.6314029 -0.21576048 -0.5853891 -0.5523518 0.1261484 -0.9732213 -0.59477305 0.03501871
0.07008399 -0.062066913 0.30326983 -0.44665495 0.30015546 0.43510354 0.5009536 -0.0629814
0.33366996 -0.1590404 -0.9124458 -0.3943928 -0.09738402 -0.21018629 -0.27220324 0.2715642
-0.68272305 0.33427593 -0.027354224 -0.5768678 0.019812845 -1.074738 -0.51144046 -1.2505445
-0.7977036 0.93140346 -0.8958334 -0.07032989 -0.73535883 0.027293414 -0.032922827 -2.144762
-0.36405244 0.23852989 -1.1863844 -1.3146484 -0.051988505 -0.8555388 -0.34245777 -0.21491729
-1.5565152 0.16344474 -0.0070224437 -0.5159635 0.20497803 -1.8376915 -0.40095448 -0.48726627
-0.11263206 0.0513579 -0.24561624 -0.27850866 0.0908476 -0.8108965 0.05481558 -0.28237456
0.2715127 -0.26973474 0.03200312 0.19500265 -0.10667763 0.3227859 -0.0965793 -0.39037675
1.1602132 1.6381763 0.044882815 0.2919715 -0.027330654 -0.14149924 -0.18599027 -0.8025757
0.19553518 0.18519439 0.12545764 0.26773044 -0.14543498 0.7287395 -0.0004585941 0.8069868
-0.13468151 -0.07536579 0.13595632 0.9000141 1.7245457 0.6373883 0.3663428 0.19298899
-0.7987579 0.3773112 0.16009346 0.22548296 0.11176692 -0.3089623 0.20273572 -0.15679118
0.5929518 0.06178421 -0.03682636 0.9521218 0.47174054 0.71771765 0.8792635 0.1457523
0.72599036 -0.04465446 -0.057218306 0.43375245 0.39632985 -0.014938101 -0.0288213 0.65695405
0.7968836 0.5268674 -0.7194675 0.89755917 0.04348496 0.8943918 -0.083563305 0.4229071
0.3228567 -0.32240424 0.12920026 0.43649682 0.1759924 -0.19025697 -0.03055158 0.46951348
0.86973214 0.29091516 0.6787323 0.42077813 -0.046382084 -0.017975293 0.4079736 0.22427456
-0.021594377 0.46540987 -0.042072132 0.74339277 1.4504378 -0.18324363 0.98937756 -0.72153413
0.35654607 0.09535048 -0.06628358 -0.17277317 -0.6322341 -0.089546554 0.15778302 0.25758228
00000000: 640f 643d 51ee 853d e6a3 6f3e e279 233c
00000010: 8455 62bd ce24 10bd d002 81bf 8372 bdbe
00000020: b5c6 81bd e55a 18bf 7fac 97be edec 38bd
00000030: 528c bdbe d603 c13d 781a f93d 2dfe 9bbe
00000040: 9cf5 133e c8e1 90bf 31d8 3c3f bb8d 02bf
00000050: 3ad6 c43e 8790 03be a406 96be 4561 7ebe
00000060: 8909 55be aedb a03e 8fab a03d a68d 243e
00000070: 07a0 063f 0aa0 8bbf 27bc 9ebd b07b 5dbf
00000080: d652 efbe c69f a4be 0912 8e3d fc84 82bf
00000090: 980b 76bd 8aaa ffbe 25a4 24bd d23c 62be
000000a0: e003 c03e bf5b 0cbf 3042 89be 1e30 6e3f
000000b0: b826 d2bf c202 8abf ef91 443e 7251 9d3f
000000c0: 1c1a d3be d4d9 2bbf 7555 fe3e bb29 803e
000000d0: 0c19 4fbe 5e26 21be 3dae 85bc e06a e4bf
000000e0: 532c ad3c 16c8 07bf 823f b33e 0604 11bf
000000f0: 67d4 d03e c63d a7be db81 60bd 7c5c fa3e
00000100: 8bb5 0abe a87f b33d 4364 19be 3d73 d0be
00000110: e220 763e 0314 22be 7ea6 bebe e480 42be
00000120: 1a11 ec3e 2517 9b3d 9264 89be a146 8f3f
00000130: 47e8 1d3e 3156 3c3f 09e5 37bd 2788 80be
00000140: 627d 01bf 49f8 5fbf a755 0a3c 849a 2fbf
00000150: 8a45 03bf 70f7 1ebf 78ec 20be d8be 30c0
00000160: d882 47bf 64e5 6c3d 6430 42bf 87c0 ac3e
00000170: 13fd 43bf 4f82 113e 82ba d8bc cf9f acbf
00000180: 9fa3 21bf 51f0 5cbe 0fdc 15bf ed66 0dbf
00000190: 0c2d 013e 0825 79bf 0c43 18bf c76f 0f3d
000001a0: 3288 8f3d e039 7ebd 2f46 9b3e f5af e4be
000001b0: faad 993e e4c5 de3e 7f3e 003f 64fc 80bd
000001c0: cad6 aa3e 7ddb 22be 0c96 69bf daed c9be
000001d0: 4671 c7bd 133b 57be 395e 8bbe 760a 8b3e
000001e0: f0c6 2ebf 3726 ab3e f715 e0bc 9cad 13bf
000001f0: 8c4e a23c 0491 89bf c3ed 02bf d811 a0bf
00000200: 4e36 4cbf 7570 6e3f 5655 65bf 1e09 90bd
00000210: 7a40 3cbf 7096 df3c 16da 06bd c843 09c0
00000220: 1565 babe 2e41 743e 72db 97bf 6646 a8bf
00000230: e6f1 54bd 9704 5bbf a056 afbe 4713 5cbe
00000240: e43b c7bf 0f5e 273e 871c e6bb 2f16 04bf
00000250: c3e5 513e 7a39 ebbf e849 cdbe f77a f9be
00000260: a3ab e6bd a95c 523d d382 7bbe b098 8ebe
00000270: 4e0e ba3d ea96 4fbf 4d86 603d 6693 90be
00000280: b603 8b3e ac1a 8abe b415 033d c6ae 473e
00000290: cd79 dabd 3244 a53e 5ecb c5bd 76df c7be
000002a0: de81 943f c3af d13f 0bd7 373d 4a7d 953e
000002b0: 89e4 dfbc 2de5 10be 3c74 3ebe 9a75 4dbf
000002c0: 603a 483e 99a3 3d3e f877 003e f713 893e
000002d0: e8ec 14be ac8e 3a3f 756f f0b9 b096 4e3f
000002e0: f3e9 09be 6159 9abd 2238 0b3e 5367 663f
000002f0: eabd dc3f e12b 233f 4991 bb3e e89e 453e
00000300: 667b 4cbf ef2e c13e 8aef 233e 01e5 663e
00000310: 0ee6 e43d 4e30 9ebe f499 4f3e de8d 20be
00000320: b0cb 173f 7111 7d3d 3dd7 16bd 41be 733f
00000330: fa87 f13e 58bc 373f 6a17 613f 1740 153e
00000340: 81da 393f 98e7 36bd be5d 6abd cd14 de3e
00000350: bfeb ca3e f0be 74bc a61a ecbc 242e 283f
00000360: 9000 4c3f c8e0 063f 062f 38bf 70c6 653f
00000370: 491d 323d dcf6 643f 3d23 abbd 4887 d83e
00000380: 794d a53e 2b12 a5be 134d 043e 837c df3e
00000390: 5a37 343e b9d2 42be 4f47 fabc 1264 f03e
000003a0: c4a6 5e3f d5f2 943e 66c1 2d3f 3b70 d73e
000003b0: 24fb 3dbd ec40 93bc eae1 d03e 3ba8 653e
000003c0: b1e6 b0bc 344a ee3e d453 2cbd fd4e 3e3f
000003d0: f2a7 b93f 38a4 3bbe d947 7d3f 76b6 38bf
000003e0: 358d b63e 1d47 c33d b0bf 87bd 73eb 30be
000003f0: 18da 21bf 2f64 b7bd df91 213e d3e1 833e

bias f4 [40]
-0.37316573 0.22966176 -1.0135399 -0.907922 0.83020943 0.8266127 0.48575285 -0.6404576
0.7282045 -0.21821617 -0.5792842 -0.8193236 -0.8021249 -0.26942593 0.18015061 -0.95891815
-0.44516352 0.114372924 0.6390981 1.0865443 -0.3569709 0.5598695 0.8243829 -0.6180261
0.67630005 0.057769563 -0.3911858 0.3917107 0.056420397 0.1251202 -0.3644749 -0.45054018
0.32044494 -0.23841673 0.15274729 -0.10760359 -0.20743491 0.7105812 -0.41383344 -0.22371948
00000000: 940f bfbe 742c 6b3e adbb 81bf 946d 68bf
00000010: 9b88 543f e49c 533f 99b4 f83e 07f5 23bf
00000020: 9c6b 3a3f 0f74 5fbe f84b 14bf 31bf 51bf
00000030: 0f58 4dbf 32f2 89be 6779 383e a97b 75bf
00000040: 79ec e3be 5a3c ea3d ef9b 233f e213 8b3f
00000050: e4c4 b6be 9c53 0f3f c20a 533f f536 1ebf
00000060: 0022 2d3f c79f 6c3d 8149 c8be 4e8e c83e
00000070: 1319 673d 821f 003e 749c babe 34ad e6be
00000080: 5c11 a43e 8423 74be c969 1c3e 455f dcbd
00000090: d169 54be a6e8 353f fae1 d3be b816 65be

weight f4 [40, 40]
-0.17595156 0.10977951 -0.3187496 -0.46777987 -0.8963843 0.7523617 1.8973985 -0.31622922
0.75818 -1.74629 -0.20445165 -0.7828193 0.0011428887 -0.1977365 0.23918027 -0.4694227
-0.49768138 0.3375921 0.68426555 0.37161887 -0.25486985 0.5603983 -0.07343723 0.3754778
0.41030604 -0.6778325 0.6196593 -0.2139502 0.0057370043 -0.43172425 -0.019057173 -0.3046714
-0.33522108 0.5461307 1.1815132 -0.20437568 -1.0661008 0.61871946 1.8278567 -0.4636638
-0.86565214 -0.47782296 -1.2038237 -0.7503442 0.25475675 0.640364 1.2503855 -0.35665712
0.6252398 0.36267552 -0.30245602 -0.6986492 -0.09583671 -0.8855013 0.023486443 -0.39669672
-0.50782883 -0.5495934 0.5153559 0.0063354247 -0.54009247 0.13338888 0.044909675 -1.2659757
0.7248396 1.4941287 0.57367265 0.5466495 -0.7640769 -0.25819078 -0.31048566 -0.8228822
0.10361956 0.0032202394 -0.057313234 -0.09596231 -0.5291883 0.61682457 1.0843843 -0.07456135
0.33366114 -0.1166331 0.24852844 0.70365155 -0.05261858 -0.45137838 0.5881009 0.6668224
-0.5299797 0.61564887 0.047961157 0.16449936 0.5438061 0.18928182 -0.13349628 0.24537598
0.57772493 -1.1658489 -0.5205807 -0.33663404 -0.031510595 -0.3878808 -0.0769239 -0.4340941
-0.7289455 0.23804173 0.614247 -0.61266446 -0.07870999 0.89712924 -0.255682 0.45560095
-0.50635153 -0.07884561 -1.0547935 0.25853086 -0.6160895 -0.39318866 0.38692924 0.69480884
-0.16661704 -0.4500784 -0.14741927 -0.6777969 -0.4091729 0.3978024 1.7480676 -0.66712564
0.36315218 -0.79079574 -0.4660758 -0.049760506 0.14039707 0.60199076 -0.16656175 -0.51685274
-0.7664493 0.31976646 -0.1336781 0.100611605 -0.66078115 0.51568395 0.30086422 0.3959086
0.3056769 0.12653412 0.31320113 0.33723438 -0.31357372 -0.2714572 -0.26379058 -0.49504015
0.4694067 -0.030431706 0.5330893 -0.7098415 -0.511878 0.41299543 -0.23932452 -1.27347
0.31535628 0.1696229 0.546937 0.5800855 0.14722876 -0.5972161 1.4101462 0.60762405
-0.750532 0.18165468 -0.27221647 0.30536434 0.83234316 -0.008228351 0.0077129104 0.7727949
0.2646344 -0.5838411 -0.5532691 -0.5672269 0.51017976 -0.26773807 0.60506046 0.20125858
-0.7862239 0.71797043 -0.27962357 -0.14654966 -0.16621178 0.81143 0.6615893 -0.55744547
-0.09214048 -0.23476617 -1.3303384 0.539699 0.022444014 -0.7504239 -0.21419549 0.63919085
-0.3302023 -0.24199618 -0.38505378 -0.18572867 0.56283665 0.32823518 1.525971 -0.0029616132
0.18416834 -0.55535316 -0.66618955 -0.17136627 0.10442152 0.3702167 1.0242825 0.30212322
0.005299788 -0.57646966 0.52338815 -0.20130607 -0.40731165 0.21116202 -0.19555482 -0.18104756
0.9544757 2.227166 -0.08259402 0.19880483 -0.044853684 -0.816128 -1.204275 0.025862325
0.34781092 0.13446216 0.19945513 -0.2605992 -0.15818381 -0.122705355 0.18889411 -0.73252803
0.30724356 -0.17780338 0.5752877 0.7852575 -0.3169903 -0.5672535 -0.044500347 0.33039734
-0.56738824 -0.6080575 -0.03144332 0.320831 0.5452659 -0.1666364 -0.12819311 0.9297215
00000000: a52c 34be 14d4 e03d 2633 a3be d880 efbe
00000010: 7179 65bf c79a 403f f4dd f23f cce8 a1be
00000020: 1618 423f 6e86 dfbf c65b 51be d866 48bf
00000030: fbcc 953a 707b 4abe aceb 743e 2c58 f0be
00000040: 18d0 febe dfd8 ac3e 072c 2f3f d444 be3e
00000050: 4d7e 82be 4376 0f3f 4266 96bd a03e c03e
00000060: a213 d23e 6e86 2dbf fea1 1e3f c315 5bbe
00000070: 7bfd bb3b f60a ddbe ca1d 9cbc e4fd 9bbe
00000080: 19a2 abbe 39cf 0b3f d33b 973f dc47 51be
00000090: fe75 88bf 6664 1e3f 35f7 e93f 5765 edbe
000000a0: 619b 5dbf 36a5 f4be e516 9abf 8f16 40bf
000000b0: 7a6f 823e e5ee 233f a20c a03f c39b b6be
000000c0: b70f 203f 9bb0 b93e 84db 9abe adda 32bf
000000d0: 0946 c4bd 37b0 62bf a466 c03c d51b cbbe
000000e0: 1201 02bf 27b2 0cbf 5dee 033f 6599 cf3b
000000f0: 8043 0abf 1897 083e 35f3 373d 7e0b a2bf
00000100: 178f 393f 9c3f bf3f 36dc 123f 39f1 0b3f
00000110: 8b9a 43bf 9531 84be faf7 9ebe 68a8 52bf
00000120: 7e36 d43d a70a 533b 48c1 6abd e387 c4bd
00000130: e278 07bf 37e8 1d3f 1bcd 8a3f 9fb3 98bd
00000140: a2d5 aa3e 56dd eebd 3d7e 7e3e 8222 343f
00000150: 9586 57bd 111b e7be c88d 163f dfb4 2a3f
00000160: c0ac 07bf 2a9b 1d3f eb72 443d 8572 283e
00000170: e036 0b3f 18d3 413e 40b3 08be d743 7b3e
00000180: c8e5 133f 893a 95bf c744 05bf 4c5b acbe
00000190: 4111 01bd 5098 c6be 478a 9dbd 9541 debe
000001a0: 2c9c 3abf 36c1 733e 4b3f 1d3f 94d7 1cbf
000001b0: b432 a1bd 43aa 653f c0e8 82be 8744 e93e
000001c0: 41a0 01bf cf79 a1bd 7903 87bf 285e 843e
000001d0: 0bb8 1dbf 0650 c9be 971b c63e fede 313f
000001e0: a89d 2abe ad70 e6be 14f5 16be 1984 2dbf
000001f0: 1c7f d1be c2ac cb3e aec0 df3f bfc8 2abf
00000200: 15ef b93e 9771 4abf 7da1 eebe acd1 4bbd
00000210: 40c4 0f3e 111c 1a3f 2a8f 2abe 7650 04bf
00000220: 0536 44bf 6eb8 a33e e9e2 08be 750d ce3d
00000230: f428 29bf dd03 043f e00a 9a3e 88b4 ca3e
00000240: af81 9c3e 2992 013e e65b a03e fca9 ac3e
00000250: bc8c a0be 70fc 8abe 8f0f 87be e775 fdbe
00000260: 1356 f03e ea4b f9bc 8a78 083f 2cb8 35bf
00000270: 700a 03bf 2374 d33e 7d11 75be 1101 a3bf
00000280: 6176 a13e a0b1 2d3e 1004 0c3f 7c80 143f
00000290: 23c3 163e 28e3 18bf ac7f b43f 408d 1b3f
000002a0: dd22 40bf af03 3a3e f55f 8bbe b758 9c3e
000002b0: 7114 553f 35d0 06bc 95bc fc3b e3d5 453f
000002c0: 297e 873e 9c76 15bf 0ba3 0dbf c835 11bf
000002d0: 249b 023f f714 89be 3ee5 1a3f bb16 4e3e
000002e0: f845 49bf e9cc 373f d22a 8fbe 1d11 16be
000002f0: 6c33 2abe e0b9 4f3f eb5d 293f bfb4 0ebf
00000300: 26b4 bcbd 8b66 70be 8748 aabf b729 0a3f
00000310: 82dc b73c c81b 40bf 1056 5bbe 03a2 233f
00000320: 4710 a9be d9cd 77be c525 c5be a82f 3ebe
00000330: 1016 103f 710e a83e 0553 c33f a017 42bb
00000340: a096 3c3e a02b 0ebf 668b 2abf a47a 2fbe
00000350: f3da d53d 0b8d bd3e b01b 833f e5af 9a3e
00000360: d8a9 ad3b 8493 13bf c4fc 053f 2e23 4ebe
00000370: 278b d0be db3a 583e 863f 48be 8864 39be
00000380: 8558 743f e389 0e40 0e27 a9bd 7e93 4b3e
00000390: 7fb8 37bd c4ed 50bf af25 9abf 3add d33c
000003a0: 4614 b23e 73b0 093e f73d 4c3e 426d 85be
000003b0: f0fa 21be f24c fbbd 756d 413e f586 3bbf
000003c0: 074f 9d3e 1712 36be 0e46 133f a306 493f
000003d0: 8d4c a2be 8637 11bf ff45 36bd d729 a93e
000003e0: 5b40 11bf a8a9 1bbf b6ca 00bd f643 a43e
000003f0: 8c96 0b3f bca2 2abe 0e45 03be 3a02 6e3f

bias f4 [40]
0.6542607 0.45879877 -0.46294263 0.4066547 -0.80545217 0.32020554 -0.5429441 0.53985757
-0.09552746 -0.60055345 -0.36803058 0.5117401 0.467016 0.6851208 -0.4897644 -0.2173747
0.38402325 -0.61729026 -0.5035541 0.54157895 0.37883335 0.54855853 -0.4807431 -0.4809573
-0.2415466 -0.6150985 -0.5647175 -0.90775925 0.73168904 0.38267866 -0.2490632 -0.09136322
-0.49311668 0.44757855 0.70275456 -0.30182946 -0.46263787 -0.2499443 0.35164067 0.28514695
00000000: a17d 273f ace7 ea3e d106 edbe 0b35 d03e
00000010: 1d32 4ebf fbf1 a33e 62fe 0abf 1b34 0a3f
00000020: e7a3 c3bd dfbd 19bf 816e bcbe 6601 033f
00000030: b91c ef3e 1464 2f3f 66c2 fabe 7997 5ebe
00000040: b29e c43e bc06 1ebf ece8 00bf eba4 0a3f
00000050: 72f6 c13e 556e 0c3f f623 f6be 0940 f6be
00000060: fe57 77be 1877 1dbf 5391 10bf e962 68bf
00000070: f94f 3b3f 75ee c33e 6c0a 7fbe a41c bbbd
00000080: ca79 fcbe 0429 e53e b9e7 333f 6489 9abe
00000090: dfde ecbe 66f1 7fbe 3f0a b43e c8fe 913e

weight f4 [1, 40]
-0.6451103 0.33223623 -0.38174638 -0.04965661 -0.43537304 -0.35136518 -1.2384187 0.5059412
-0.67960256 -0.3730027 -0.3885706 0.64825094 0.6407585 0.6175893 -0.15659286 -0.44558173
0.86777365 -0.41601565 -0.69537336 0.76437217 0.3359043 0.82715154 -0.7834483 -0.34030038
-0.34065875 0.3292888 -0.05807773 -0.54435873 0.87479264 -0.3638345 0.1324114 0.13866143
-0.3961466 0.2904788 0.56804234 0.045644995 0.26094165 -0.078419596 0.45000002 0.78503627
00000000: f325 25bf de1a aa3e 4374 c3be bb64 4bbd
00000010: 37e9 debe 23e6 b3be 8184 9ebf 5d85 013f
00000020: 6ffa 2dbf 36fa bebe baf2 c6be c6f3 253f
00000030: c008 243f 551a 1e3f e159 20be 4a23 e4be
00000040: 6a26 5e3f 0100 d5be fd03 32bf e5ad 433f
00000050: a6fb ab3e 34c0 533f 1190 48bf da3b aebe
00000060: d36a aebe 8b98 a83e eae2 6dbd 185b 0bbf
00000070: 69f2 5f3f 8448 babe db96 073e 43fd 0d3e
00000080: bad3 cabe a3b9 943e 396b 113f 3ff6 3a3d
00000090: 259a 853e 749a a0bd 6766 e63e 23f8 483f
