[LC models]/min_func_LC_n_V=4.pt (torch_old, 81680 bytes, 34 tensors)

weight f4 [40, 2]
00000000: b0a1 80be c2f6 e33e 105f 5b3e 7052 fbbe
00000010: fc0d d5bd 43f4 f4bc d614 4e3e f5c9 833e
00000020: d12e 29be 6cf2 f2bd 36b9 12bf 8998 423c
00000030: e63f a33c e7e8 89be a4bc a4be 1aa3 9bbe
00000040: 973b 28bf 768c 913f 5623 abbe abca 2a3e
00000050: 4547 90be 4294 80be e1c0 c9be f4db 313e
00000060: 9f19 ebbd d57a 893e b7cb b83e 32a1 9cbd
00000070: e53b 8b3f 7353 733e 0d70 0b3f a4e5 83be
00000080: fdf8 66be b901 fa3c e554 833d f8b7 fbbe
00000090: 1e45 5a3e d7e6 883f ea83 5fbd 75a0 b93e
000000a0: 15c4 13c0 366e d2bf 1639 a8be b501 25bd
000000b0: c289 9ebe 0096 01be 750a 4fbe 5770 aa3d
000000c0: e9db 353c 83cd d03d 0f09 f33e 92a6 6a3e
000000d0: 7251 06bf 5ab7 0b3f 5f2f 273f fb1e b83e
000000e0: 6bce 16bf 6cc4 69ba 244c 763e a8fc edbc
000000f0: 3a71 71be e17a f9bc ab5c 13bf 3e47 2dbd
00000100: 9980 e9be 295f 8fbd 3a4f c5be af5b 91be
00000110: 24f1 b5be ffba 0abe ef6b 86bc ab02 ca3e
00000120: 2840 e83d ae9c 7dbd 565a 3b3f a015 80bc
00000130: ea97 43bf 34c0 56be 230b 9ebc 3c23 173d
-0.25123358 0.445242 0.21422982 -0.49086332 -0.10403058 -0.02990163 0.20125136 0.25740018
-0.16521765 -0.118626446 -0.5731386 0.0118771875 0.01992793 -0.26935503 -0.3217517 -0.30397874
-0.65715927 1.137099 -0.33425397 0.16678874 -0.28179374 -0.25113112 -0.39404967 0.17369062
-0.11479496 0.26851526 0.36092922 -0.07647933 1.0877653 0.23762302 0.5446785 -0.2576114
-0.22555919 0.0305184 0.06412677 -0.49163795 0.21315429 1.0695447 -0.054569162 0.36255231
-2.308843 -1.6439884 -0.32856053 -0.04028483 -0.30964476 -0.12654877 -0.20218833 0.083222084
0.011099794 0.10195448 0.4746785 0.22915104 -0.52468026 0.5457665 0.6530666 0.35961136
-0.5890872 -0.0008917514 0.24052483 -0.02905114 -0.23578349 -0.030454101 -0.57563275 -0.04230427
-0.45605925 -0.07000572 -0.38537008 -0.28390262 -0.35535538 -0.13547896 -0.016408889 0.3945516
0.11340362 -0.061917 0.73184717 -0.015635312 -0.7640368 -0.20971757 -0.01929242 0.036898836

bias f4 [40]
00000000: f8e2 463d 7175 01c0 7b0d 02bf 6977 c23e
00000010: f898 82bc 5f76 e5bf 85bf 62be 9b1e 7bbb
00000020: 45f6 12bf 1e04 b5bd 2691 08bf 9c0c fbbe
00000030: fb33 d93e 1813 3dbe 7c2b 20bd 3a5d babd
00000040: 922a 0abf 9150 2bbe 895e cebb 1b82 343e
00000050: 0aa7 c1bf 04b3 eb3e d3e3 803c 87e8 283e
00000060: 7867 12be 1b58 193e b260 38bf 922d 623f
00000070: 688b 1abe 8470 26be 3250 f43d 050b 0dbe
00000080: 42ca d1bc 77ed ab3c 5c45 b5be d7de 373f
00000090: 538c 20bd 594e 60bf 8b39 38bf 0fb5 9f3e
0.048556298 -2.022793 -0.5080182 0.37981728 -0.015942082 -1.7926749 -0.22143371 -0.0038317803
-0.5740703 -0.08838676 -0.5334648 -0.49033058 0.4242247 -0.18464315 -0.03910397 -0.09099813
-0.5397121 -0.16729952 -0.0062978906 0.17627756 -1.5129101 0.46035016 0.015733635 0.16494952
-0.14297283 0.14975016 -0.72022545 0.88350785 -0.15092242 -0.16253859 0.119293585 -0.13773735
-0.02560914 0.020987255 -0.3540448 0.718244 -0.039196324 -0.8761955 -0.71962804 0.31192824

weight f4 [40, 40]
00000000: 853b 3c3e 8e1c c4be d773 13bf 2d5d df3e
00000010: f962 4abc 6c7e 273d 2646 bd3d ac21 01bf
00000020: 205b 80bf 57e6 56bf 8837 82bf 7fa2 85bf
00000030: 2e47 443f 7d40 38bf 2525 a13f de50 ce3d
00000040: 831d 3e3b 6d97 02bf 0402 bc3f b33a 1cbe
00000050: ecbf 24c0 74cb 913d bb93 a3bf 5472 af3d
00000060: 19e7 ce3e e133 f43e f169 7cbf ca7d ecbe
00000070: 7488 d73e 1823 8dbf 8f80 4e3d 60cf 25bf
00000080: 45ce dabf b071 72bf f9a6 8fbf c864 7fbe
00000090: 3544 463f 9867 ddbd c956 abbf a829 423e
000000a0: 19fe 653e 1bb4 ad3f a22d d53e adae 02bf
000000b0: b0d7 8b3e 2432 dc3e a16f 25be 2ec9 933e
000000c0: a2cf ea3e 3032 a6be 7a96 853f a2ce 0d3e
000000d0: 7c68 33bf 9fce 043f ac39 0f3f 97ac 9abe
000000e0: 282f 9e3e 5406 c93e 7628 123f f629 07bf
000000f0: 2bce 673e 638d 5dbf 05f5 16bf 308c 3fbe
00000100: 64c0 113f fa23 f8bd 18f2 463f 9ff9 27be
00000110: 9b67 b83d 379a 373e 5221 2fbf 10e1 36be
00000120: 5684 02bf 04b4 47bf be4a 7d3e 7c23 f9be
00000130: 51f4 aabe dede 6c3f 4b86 9cbe da29 37bf
00000140: 9d03 5ebf 73d2 7f3e 7fd5 23bf 9aad c13d
00000150: ef6b 66bf 1641 2340 aa94 a63f bf4c 853e
00000160: 4319 e23e 6038 393f ddcc 9d3e 1411 643e
00000170: b828 d13e 4fdd 57bf f686 6f3e f223 2a3f
00000180: 7c5e 3a3f 0c48 4d3e 8589 2f3e b0c6 823e
00000190: e11e 343f a165 00bf b2c6 073f 710d cdbf
000001a0: 73f3 2b3e 1939 523e c526 49be 23f6 99bf
000001b0: ff9e d23f 0821 85be a835 e13e 4351 d53e
000001c0: 98a5 e2bf 4771 dabe ab0a 07bd a5de 8ebf
000001d0: be81 bc3f d6d6 e53e 62f8 e13f 1074 f63e
000001e0: 524b 7bbf 4864 a23f 1d56 1c3f 4f10 e53d
000001f0: c45c 6b3e 68c0 2d3f b6c1 4b3f ffa0 de3b
00000200: 28bc f73f d7a1 063f d606 4cbe 89b0 5b3f
00000210: 5e53 463d eeb2 58be c593 edbe 9fd0 273f
00000220: 3d36 1e3f eb6d e5bd 8cd0 08c0 4b00 453d
00000230: 726e aa3f f6f5 093f a105 0b3f 3be4 58bf
00000240: 5180 1dbf 098b 6cbe 9de4 4c3f a215 e4bf
00000250: 0694 2f3e 0ad5 073e f961 ef3e 3ecb 5e3f
00000260: ff40 81be 884f 233f f30f e03e d846 84bf
00000270: 42e2 213f 5e14 9c3e 7259 e13f 6b37 813e
00000280: 3b62 b1be 0569 633e 4349 083f 6ad3 b0be
00000290: 7f84 cebe 6800 923f 8b32 713e ade3 6e3e
000002a0: e7b7 2f3f 1a1b d7bc 818d 443f 8248 be3e
000002b0: ccb5 14bf a7e7 1bbe 9968 cbbe b14a 433e
000002c0: 7912 dd3e d24c ba3e ff90 693e 6628 0fbe
000002d0: 36d7 20bd a443 c4be 6719 e63d f63d 55be
000002e0: dd3a 0b3e 1cc8 2c3d 0dff a33e 3232 e3bd
000002f0: b138 a73e a404 d13d 611b 0e3e 203c d53e
00000300: 1c5f 17be 1b07 6c3e 6088 06bf 7d29 2fbf
00000310: 142c 683d 4002 a43e 79d3 1c3f 2789 8e3e
00000320: f7f6 79bf 568e d23e e4a0 56bf 24d2 dabe
00000330: 5648 1ebf 6ac7 8bbe f267 ebbd 91a9 443f
00000340: 81e1 51bf c7f4 3ebf 3741 50be 5cd4 25bf
00000350: 989f c2be b51a eabc e4a6 0fbf e228 0bbe
00000360: 0232 67be 91ba 3abf 88f4 9cbf 4b89 80bf
00000370: d1fb b1bf 7163 cb3e 8dfe 4bbf 9450 c13d
00000380: 9f82 e1be 50c5 e43e f874 9ebe ee64 5e3f
00000390: 46fd b73e 696f ee3e b583 1abf aac0 033e
000003a0: e7c2 2ebd 796e 0b3f c818 cdbf 653a 6fbc
000003b0: ea19 babc 967b 27be e1fa 28bf 7850 93be
000003c0: c67b 7fbf bb00 843f 1bea acbf bb6a 9b3e
000003d0: 5a7c 94bf 5f6b 8dbe 1c94 cbbe c035 8f3f
000003e0: bb03 36bf 5ae0 7d3e 002f 013d b960 29be
000003f0: 05e9 6ebd 2042 c5be b384 82bf c27c adbe
0.1838208 -0.38303035 -0.5759863 0.43625775 -0.0123526985 0.04089205 0.092418954 -0.50442004
-1.0027809 -0.8394522 -1.0173197 -1.0440215 0.7667111 -0.719734 1.2589461 0.10074018
0.002900929 -0.5101231 1.4688115 -0.15256767 -2.574214 0.07118884 -1.2779459 0.08566728
0.4041069 0.4769583 -0.98599154 -0.4618972 0.42096293 -1.1026335 0.05041557 -0.64769554
-1.7094198 -0.94704723 -1.1222831 -0.24940789 0.77447826 -0.108107746 -1.338586 0.18961203
0.22460212 1.3570589 0.41636378 -0.51047784 0.27312994 0.43007004 -0.16155864 0.28864425
0.45861536 -0.32460165 1.0436547 0.13848355 -0.70081306 0.5187778 0.55947375 -0.302098
0.30895352 0.3926264 0.5709299 -0.527984 0.2263724 -0.86543864 -0.5896762 -0.18705821
0.5693419 -0.12116237 0.77713156 -0.16403817 0.09004136 0.17929922 -0.6841022 -0.17859292
-0.5098318 -0.7800906 0.24735543 -0.48659885 -0.33389524 0.9252757 -0.30571207 -0.71548235
-0.86724263 0.24982624 -0.63997644 0.0945694 -0.90008444 2.5508475 1.3014119 0.26035115
0.44159898 0.72351646 0.3082036 0.2227214 0.40851378 -0.84322065 0.23391327 0.664611
0.7280042 0.20047015 0.17142303 0.25542212 0.7035962 -0.50155073 0.5303756 -1.6019727
0.16792087 0.20529594 -0.19643696 -1.202824 1.6454772 -0.26001763 0.4398625 0.4166356
-1.7706785 -0.4266455 -0.03296916 -1.1161696 1.4727094 0.4489047 1.7653925 0.48135424
-0.98161805 1.2686853 0.610689 0.11184751 0.22984606 0.67871714 0.79592454 0.0067940946
1.9354296 0.525907 -0.19924483 0.85816246 0.04841935 -0.21162006 -0.46401802 0.65552706
0.6180151 -0.11202606 -2.1377287 0.048095983 1.3314955 0.5389093 0.54305464 -0.8472325
-0.6152392 -0.23099913 0.80036336 -1.7819102 0.1714631 0.13264862 0.46754435 0.8702887
-0.252449 0.6379323 0.43762168 -1.033412 0.6323587 0.3048429 1.7605422 0.25237593
-0.34645256 0.2220803 0.5323679 -0.34536296 -0.40335461 1.1406374 0.23554437 0.23329039
0.6863999 -0.02625804 0.7677842 0.37164694 -0.580899 -0.15225087 -0.3972824 0.19071461
0.43178156 0.36386734 0.22809218 -0.13980255 -0.03926774 -0.38332856 0.11235314 -0.20824417
0.13596673 0.042183027 0.32030526 -0.11093558 0.3266044 0.10205963 0.13877632 0.41647434
-0.14782375 0.23049586 -0.5255184 -0.6842268 0.05668266 0.32032967 0.6126018 0.27839014
-0.97642463 0.4112422 -0.8383925 -0.4273845 -0.61829126 -0.27300578 -0.11494435 0.7682124
-0.81984717 -0.7459225 -0.20337377 -0.6477716 -0.38012385 -0.028577188 -0.5611403 -0.13589814
-0.2257767 -0.7294093 -1.2262125 -1.0041898 -1.3904973 0.39724305 -0.7968529 0.09439197
-0.44044968 0.44681787 -0.30948615 0.86872756 0.3593542 0.46569374 -0.6035722 0.12866464
-0.042666342 0.5446544 -1.6023188 -0.014601325 -0.022717435 -0.16355738 -0.6600781 -0.2877233
-0.9979824 1.0312723 -1.3508943 0.30354866 -1.1600449 -0.2762098 -0.39761436 1.1188278
-0.7109944 0.24792615 0.031538963 -0.16540803 -0.058327693 -0.38527012 -1.0196747 -0.33884245

bias f4 [40]
00000000: 674f 82be 9183 64bf c361 06bf 12c2 2dbf
00000010: a1ab 1bbf 64c3 c9bd de93 853e 7fd0 02be
00000020: d111 d23d 5c8e d6be 678b b2be 3379 45be
00000030: c4dc 6fbf 44eb 533e d80a 97bf 9f89 7ebf
00000040: 2483 04bf 310c a33d d90f 8dbf 8938 a7bf
00000050: e9f3 9abf 4bc1 a3bf 7bcb 1dbf c535 23bf
00000060: b102 80be ecc7 77bf a8cd 6ebf 90dc a2bf
00000070: 340f a6bf c247 4bbf e3c4 e2be b210 a9bf
00000080: 6faf 3ebf a76c debe 2d7e 8cbf 5a7f f2be
00000090: ed85 8fbf 41e2 8abf 1d49 5dbf e9ce 7bbd
-0.25451204 -0.89263254 -0.5249292 -0.6787425 -0.6080876 -0.09851721 0.26089376 -0.12774847
0.102573045 -0.41905487 -0.3487198 -0.19284515 -0.93696237 0.20695215 -1.1800184 -0.99428743
-0.51762605 0.0796131 -1.1020461 -1.3064128 -1.2105685 -1.2793363 -0.6163861 -0.6375392
-0.25002053 -0.9678943 -0.93282557 -1.272356 -1.297339 -0.7940637 -0.44290838 -1.320822
-0.7448644 -0.4344227 -1.0976006 -0.47362787 -1.1212746 -1.0850297 -0.86439687 -0.06147662

weight f4 [4, 40]
00000000: 48af c03d 3f33 a1be 61ee 3dbd 0f4a c03e
00000010: 2f07 5ebf b792 903e 9cf9 fc3e 1cbb ad3e
00000020: abd4 dcbd a551 42be 195b 0dbd f7d6 6a3e
00000030: 436e 71bd d5cd bf3e 6561 983e 9583 92bd
00000040: 45eb 2abe febf 423f e586 a43e c5f4 223d
00000050: f1e0 4cbc b23e cabd 6b72 babd 8ebf bebc
00000060: 8301 223e 3ce4 9fbd baa6 58be 7b01 22bf
00000070: 1c4c 3a3f 4a7f fa3b 040b 0c3f e1d1 59bf
00000080: 414e a13e 4563 e2be f6ff a63e 9081 40bf
00000090: 755c 5c3c cac5 40bf 3115 8c3f d697 e43e
000000a0: 230f 39be 63ae 9bbe 2931 9dbf d494 adbd
000000b0: fc8c 743e 1ec1 d4be c75c 84bd 7b92 a63e
000000c0: 0d74 e73d b695 7dbf 269b edbe e4b3 9fb9
000000d0: bdff 10bf dfb1 0ebf dafb fe3e 372b 0cbf
000000e0: 0292 e7bd 4797 ebbe e3f8 d23e a2a9 7ebf
000000f0: 9929 64bf 52cb 2fbf b37f 8dbe 9e2c 23bd
00000100: faee 9b3d 83f3 11bf 6c63 a0b9 eaf2 0cbf
00000110: 24bc c4be 5026 f8bd c0b6 9b3e cc15 24bf
00000120: 28ed bf3b 9b45 f8bd 6944 a1bc b477 ccbe
00000130: 17f1 7abe 3a33 5ebc f5e0 eb3d 3f08 18bf
00000140: ebdb e6bf af22 c0be d720 1ebd fa6c b9be
00000150: 2518 783d 1714 bbbd 0b47 f3bb 0b5e 9cbd
00000160: 097d 253d 599d d5be b016 393e 80e6 0d3e
00000170: 519a c3be 5eb3 b83c 854d 6bbf 301b bebe
00000180: c1ec d23a 8ecd 95be c116 5d3f 97b2 adbf
00000190: be2d fa3e efdc 8abf c510 22be 7cfd b6be
000001a0: 398d 57bd de87 0abf f803 98be e5ed 513a
000001b0: f20b ea3e c9e8 15bf 2253 b5be a320 933e
000001c0: a96e 6abe e895 b2be 3e44 95bf a812 29bf
000001d0: 3091 14bf 7c23 09c0 4f41 28bf 8782 29bf
000001e0: 7370 aebc 3978 22bf 1320 033f 866d 083d
000001f0: f462 1fbf bcdf be3e a26f 113f 73be c73e
00000200: ee30 a73e 5121 f63e d3eb 3b3f 07fb 90bf
00000210: 3d57 1a3f eb30 4ebe 536c 1abe 4992 acbe
00000220: dbfe a73e ab9e ef3d 1b75 25bd 60a8 f9be
00000230: 71d8 193e 34e0 3d3f caab 2fbd e99c eabe
00000240: 1b0e 05bf 47bf 813f bff1 55be 2b51 d33e
00000250: 08b0 313f f1e1 80be 40a2 8abd 4485 b1be
00000260: 53f5 f1be 700c 02be b059 07bf e2e5 863d
00000270: 526b 93be 4d0c 18bf 375b b0be 1bfc 05bf
0.09408432 -0.3148441 -0.046369914 0.37556502 -0.8672971 0.28236935 0.49409187 0.33931816
-0.10782751 -0.18976457 -0.034510706 0.22933565 -0.058943044 0.37461725 0.29761806 -0.071540035
-0.1669131 0.76074207 0.32134166 0.03978421 -0.012504802 -0.098752394 -0.09103855 -0.0232847
0.15820889 -0.07807204 -0.21157351 -0.6328351 0.72772384 0.0076445686 0.5470431 -0.85085875
0.31505015 -0.44216362 0.32617158 -0.75197697 0.013449778 -0.753018 1.0943967 0.44647092
-0.1807218 -0.30406484 -1.2280627 -0.08475652 0.23881906 -0.41553587 -0.064630084 0.3253363
0.11301432 -0.99056566 -0.4640743 -0.00030460872 -0.56640226 -0.5574016 0.49801522 -0.5475344
-0.11307146 -0.46013853 0.4120551 -0.9947759 -0.89125973 -0.6866962 -0.2763649 -0.039837472
0.076139405 -0.57012194 -0.00030591653 -0.5505816 -0.3842479 -0.121166825 0.30412865 -0.6409576
0.0058571286 -0.12122651 -0.01968594 -0.39935076 -0.24506031 -0.013562018 0.115175165 -0.5938758
-1.8035864 -0.3752646 -0.038605537 -0.36215955 0.0605699 -0.09134691 -0.0074242405 -0.07635125
0.040402446 -0.4172161 0.18075061 0.1385746 -0.38203672 0.022546466 -0.9191516 -0.37130117
0.0016092287 -0.29258388 0.86362845 -1.3570126 0.48863024 -1.0848674 -0.1582671 -0.35740268
-0.052624915 -0.54113567 -0.29690528 0.00080081663 0.4571224 -0.58558327 -0.35414988 0.28735837
-0.22893776 -0.34879994 -1.1661451 -0.6604409 -0.5803404 -2.1427908 -0.65724653 -0.66214794
-0.021293854 -0.63464695 0.51220816 0.033307575 -0.62260365 0.3728007 0.56810963 0.3901249
0.32654518 0.48072293 0.73406714 -1.1326607 0.60289365 -0.20135848 -0.15080385 -0.33705357
0.32811627 0.117001854 -0.040394884 -0.48761272 0.15023972 0.7417023 -0.04288844 -0.45822838
-0.5197465 1.0136498 -0.20893 0.41272864 0.6940923 -0.2517238 -0.06769228 -0.34671986
-0.4725748 -0.12700057 -0.5287123 0.065868154 -0.28792816 -0.5939377 -0.3444459 -0.5233781

bias f4 [4]
00000000: 62c1 a43e d736 c4be 9421 f03e 106b a83e
0.3217879 -0.3832309 0.46900618 0.32894182

weight f4 [40, 2]
00000000: 9869 f7be 49b7 993f 96df af3e 4023 53bc
00000010: 08eb 8b3d 56aa 01be 09b4 09be f13f adbe
00000020: e863 ed3d 982a d2bd 61b9 043f f460 02be
00000030: 02a2 4dbd 67ca 43be 3b67 a13c 1d81 bebe
00000040: 38d1 f73e b592 20bf 4cde 4ebe 0842 47bd
00000050: d970 0ebf 2b29 1c40 d7fe 863e c89d 1ebf
00000060: 6e4c d4bc 4ef2 ffbe 405c 53bf 4ada 223f
00000070: cd7c e2be 530f b33d 1d7f a23c 87eb 363d
00000080: 3403 7b3e ba1f a0be c44e 7c3e 9177 663d
00000090: 787d 013e e009 e2bc 3362 3fbd ac64 7f3d
000000a0: d1be 56be 5abf 9b3e 4af3 563e 4fa7 78bf
000000b0: d0a1 663e bf63 2fbe f0c3 adbe 503a 633f
000000c0: 56e8 423e 4e69 ed3e a333 3c3f 76d6 a13c
000000d0: 7d37 c73e 4001 6dbf a0d5 153f 5913 b7ba
000000e0: 1bb7 19bd 3f03 83be da51 163e 34d8 e63e
000000f0: bf34 853d 8fac 13bf 416f b03e c879 733e
00000100: 0762 6dbf 8443 0440 0e1c cbbf 52a6 a0bf
00000110: 3092 1c3d 16b8 a1be 1095 5c3e 89ee 43bf
00000120: 5699 f6bd 32b8 babe d911 cdbb 343d 9b3e
00000130: 6875 a43e 39cc 9cbf c06b ea3e f9cd d6bd
-0.4832275 1.2009059 0.3435027 -0.012886822 0.06831938 -0.12662634 -0.13447584 -0.33837846
0.11591321 -0.1026203 0.51845366 -0.12732297 -0.05020333 -0.19120179 0.019702544 -0.3720788
0.4840181 -0.6272386 -0.20201987 -0.048646957 -0.5564094 2.4400127 0.26366302 -0.61959505
-0.02591535 -0.4998955 -0.8256264 0.6361433 -0.4423584 0.08743157 0.019836003 0.04465821
0.2451294 -0.31274205 0.24639422 0.05626637 0.12645519 -0.0275926 -0.04672451 0.062351868
-0.20971228 0.30419427 0.20991245 -0.9713029 0.22522664 -0.17127894 -0.3393855 0.8876085
0.19033942 0.46369404 0.7351629 0.019755583 0.38909522 -0.9258003 0.5852909 -0.0013967558
-0.03752814 -0.25588414 0.14679661 0.45086825 0.06504201 -0.5768518 0.3445988 0.23776925
-0.927277 2.0666208 -1.5867937 -1.2550757 0.038225353 -0.3158576 0.21541238 -0.7653585
-0.12040965 -0.36468655 -0.006258231 0.30320132 0.32120824 -1.2249824 0.45785332 -0.10488505

bias f4 [40]
00000000: 3976 ff3f f981 2dbf e2a6 3fbf 8579 37bf
00000010: 0e21 0dbf 38e2 36bf 5826 97be 5e40 9c3f
00000020: eaad 86bf 586c c2be 4407 973f 6d7f 8e3f
00000030: 34cc 1c3f 80b2 e33f ccb1 b23f 9313 a13f
00000040: 6cec 0ebf 8c35 e8be e8ad 5abe 88a0 39bf
00000050: 7baa 06bf f11f 5d3f 7f85 18bf b331 0940
00000060: 0b38 26bf b34c 79bf 3d7f dd3e 610d 45bf
00000070: a057 ebbe 4ec6 25bf f262 8a3f 94ef 10bf
00000080: a838 563f 5606 533f ab61 c4be 46b0 243f
00000090: 3a8a 783f f0c5 933f 9119 863e 41a1 1fbf
1.9957954 -0.6777645 -0.7486402 -0.716698 -0.5512856 -0.7143893 -0.2952144 1.2207143
-1.0521824 -0.37973285 1.1799092 1.1132637 0.6124909 1.7788849 1.3960509 1.2584099
-0.558295 -0.45353353 -0.21355402 -0.72510576 -0.5260388 0.86376864 -0.595787 2.1436584
-0.64929265 -0.9738266 0.43261138 -0.7697354 -0.4596529 -0.64755714 1.0811446 -0.5661557
0.836802 0.8243154 -0.38355765 0.6433147 0.97085917 1.1544781 0.2619138 -0.6235543

weight f4 [40, 40]
00000000: f038 a1be 585c ba3c 46da d63e 9dd9 96bd
00000010: 6088 00bd a902 22bf eb2c 04bd ce6b cebe
00000020: 5297 60be 5b10 38bf d75c babe 1ad6 b3be
00000030: 6cd5 e9be 43e4 d7be ea49 b73e 8b21 1fbf
00000040: 4ff1 ce3e abb1 e73d fe22 a43d 9287 00be
00000050: 40f6 60bc ca99 d4be ac2f dbbc b0f0 3cbe
00000060: 26ce 303d 1029 8cbe 5171 2cbf bd60 81be
00000070: e508 8bbe e761 b9bd 4a4d b2be cd38 83be
00000080: 6efd 35bf 1c53 d7bf 4a94 e83d dd2e 41bf
00000090: 41c6 04bf 2ab0 193f 5c09 c53c c78d fb3e
000000a0: a065 f13e 9a90 cd3d 38d0 a83d 82a4 3c3f
000000b0: 1609 b43d 4520 343e c8f9 533e d3d5 cb3e
000000c0: 29d6 f23e fff7 ec3e 6e3b 003f ee04 923e
000000d0: 6450 9b3e f901 873f a0cc c53f 7e55 e83e
000000e0: c260 8f3e ccb4 3a3e 3201 d43d 6196 963f
000000f0: 2da5 693e 262c 803e 13f7 633e 9d85 c53e
00000100: a2ec 3a3f af1d bc3e 2501 153f 2859 443e
00000110: 2225 1f3f b521 a73e 79bc 923e 9f70 623c
00000120: ee99 9b3e a59e fa3e b0f5 c7bc 1f09 d03e
00000130: b43f 783e 69e5 ba3f bf20 033f ae74 b23c
00000140: 5e5f 7d3f 40a9 013d 5f95 94be d087 5dbf
00000150: 2a28 bd3d 321e 90be 89fc 96be d554 1f3f
00000160: 9435 2c3f 2b85 273f cc95 0c3f 7b12 113f
00000170: 9dbf 423e 78eb 293f ad9d ca3e a7df c13e
00000180: c0ee 16be c48b 543c b477 2d3d 3e11 34bf
00000190: 2e53 04be 13bc 9b3e acfb 9c3c 61b1 833e
000001a0: 2f42 d4be 5eee 22bf f11d 76bd 4ade 7cbe
000001b0: b965 95bd 2c5e 913d af8e ed3e 2578 84be
000001c0: c26d 493f 6922 ce3e 7569 1e3e ba30 153f
000001d0: 0778 d53e 2e4b 7b3e c0d0 9b3f c6dd 0abd
000001e0: 2044 a23f b07c bbbc 9b38 313f b59e f13d
000001f0: 319d 0a3e 7563 273d be29 1e3e dd35 2a3e
00000200: 0d40 d63e 2553 84bd bf0f ad3f 0310 f73e
00000210: 9f7a 173f 1444 f23f ae0e c13f f474 b23e
00000220: d896 773e 5394 47bd 8826 843c 5bdb 063f
00000230: bdec f93e 8f8f 78bd b0b4 ed3e 0b3f 713f
00000240: 8e63 543e 5c61 9f3e 00c2 943e 5768 e73e
00000250: d520 993e a2ab c23e 9f84 083f 167f b93e
00000260: 386b 433f 6f3c 303e 87f4 c2bd 3a2f d13e
00000270: 453b 223e e40f c73e 4253 d3bd a717 503e
00000280: ba87 823e b06e a2bd e453 983e 95d4 b73e
00000290: f089 5abc 90fa 4c3e b5f8 a0bd ede8 f83e
000002a0: 3a8d ab3e 3338 d73e cbb5 a43e 4908 823e
000002b0: a41b ba3e 8710 7c3e 2c57 413f e7e9 c23e
000002c0: adfa 02be e133 a93e 695e 97bd 7ca9 933d
000002d0: 3c96 3abb d993 4f3e 8e96 7f3d eb30 193f
000002e0: 17d0 c03e db06 f2bd e0c3 bc3e 0528 e4bc
000002f0: cfe1 7d3d 7524 b83e be9e 133f 9813 513d
00000300: fb65 a73e b6c7 9c3e e029 f2bb 0bec 6f3e
00000310: ad0d ab3e 0de9 5c3f 8a08 223e 6818 f5bc
00000320: 23e0 febe e8da 4a3d d09c 76bf c542 4fbf
00000330: 6708 9bbd 5b06 aebe 3e20 a43e 315c 71be
00000340: be72 bdbe 98c4 69bc 3d4d 67bf c3fe 18be
00000350: 24a9 05bf bc3d 1dbf 2ad7 4fbf 114b 98be
00000360: 6fc9 7f3e 43ab 5cbe 66f4 8d3d da10 9b3e
00000370: d3c7 d33c 5c05 25be 32b1 a03d 9b0d 8bbe
00000380: 4b33 833e 1d66 2ebd ad28 39bf ee32 ce3e
00000390: c9b5 683e 0753 17be 0fcd 7fbf e462 263e
000003a0: 55d4 2ebf a534 acbe 9ac4 13be 94ac 0abe
000003b0: 4a53 cbbe 1836 1fbf 2424 d4bd 3a4b 0f3e
000003c0: 3b5d f23c 7fa2 153e e9c9 293f ec34 e0bd
000003d0: f4dc 253d abd0 f93d bb21 e13d 8db9 66be
000003e0: 195a f7be 365f 153a cf15 80bf e5b5 a5be
000003f0: 36fb f9be a634 90bf 76d3 7ebf 7814 99bd
-0.31488752 0.022749111 0.41963404 -0.07365725 -0.031380057 -0.6328531 -0.0322694 -0.40316623
-0.21932724 -0.71899956 -0.36398956 -0.35124284 -0.4567064 -0.42166337 0.3579858 -0.6216056
0.4041848 0.11313184 0.08014487 -0.12551716 -0.013730586 -0.41523582 -0.02675613 -0.1845119
0.04316535 -0.27375078 -0.6736041 -0.25269118 -0.27155223 -0.090518765 -0.34824592 -0.25629273
-0.7108983 -1.6822238 0.11356409 -0.7546213 -0.5186501 0.6003443 0.024052314 0.49131605
0.47147846 0.10037346 0.082428396 0.7368852 0.087907955 0.17590435 0.20700753 0.39811572
0.47429016 0.46282956 0.5009068 0.28519386 0.3033477 1.0547477 1.5453072 0.45377725
0.28003508 0.18233031 0.103517905 1.1764642 0.22816916 0.25033683 0.2226222 0.385785
0.73017323 0.36741397 0.5820487 0.19174635 0.62166035 0.32642904 0.28659418 0.013820796
0.30390877 0.4894916 -0.024409145 0.4063196 0.24243051 1.460126 0.5122184 0.021784153
0.98973644 0.03165555 -0.2902021 -0.8653536 0.09236176 -0.28148037 -0.29489544 0.6223882
0.67269254 0.65437573 0.5491607 0.56668824 0.19018407 0.6637492 0.39573422 0.37865946
-0.14739513 0.012972776 0.042350486 -0.7033881 -0.12922356 0.30416927 0.019162975 0.25721267
-0.41456744 -0.6364497 -0.060087148 -0.24694172 -0.07294793 0.0709804 0.4639792 -0.25872913
0.786831 0.40260628 0.15469916 0.58277476 0.41693136 0.24540398 1.217308 -0.033902906
1.267704 -0.022886604 0.69227 0.11797849 0.13536526 0.040866334 0.15445611 0.1662211
0.41845742 -0.06461171 1.352043 0.48254403 0.5917148 1.8927026 1.5082605 0.34854853
0.24178636 -0.048725437 0.016131654 0.5267846 0.4881343 -0.060683783 0.46426916 0.9423682
0.20741102 0.31128967 0.2905426 0.45196792 0.2990786 0.3802157 0.53327364 0.3622977
0.7633548 0.17210554 -0.09519296 0.40856344 0.15842922 0.3887931 -0.103186145 0.20321523
0.25494176 -0.07931268 0.29751503 0.35904375 -0.013338551 0.20017457 -0.07859937 0.48615208
0.33506185 0.42035064 0.32169947 0.25396946 0.36349213 0.2461568 0.7552364 0.38069078
-0.12790938 0.33047393 -0.07391054 0.07210061 -0.0028470894 0.20271243 0.06239944 0.5984027
0.3765876 -0.11817714 0.3686819 -0.027851114 0.061982926 0.35965315 0.57664096 0.051044077
0.32694992 0.30621117 -0.007390246 0.23429887 0.3340887 0.8629311 0.1582357 -0.029918864
-0.49780378 0.04952517 -0.96333027 -0.8096126 -0.07569962 -0.33989224 0.3205585 -0.23570324
-0.37001604 -0.014268063 -0.9035223 -0.14940934 -0.52211213 -0.61422324 -0.8118769 -0.2974477
0.24979185 -0.21549706 0.06931381 0.30286294 0.02585212 -0.16115326 0.07846297 -0.27158818
0.2562507 -0.04257785 -0.7232769 0.4027323 0.22725596 -0.14777766 -0.9992227 0.16248661
-0.6829274 -0.33633915 -0.14430466 -0.13542396 -0.39711982 -0.62191916 -0.10358456 0.1399354
0.029585471 0.14612769 0.66323715 -0.10947594 0.04049392 0.121980034 0.10992762 -0.2253172
-0.48310927 0.00056980865 -1.0006655 -0.32365337 -0.4882447 -1.1266067 -0.99541414 -0.07474607

bias f4 [40]
00000000: fbe1 79be 923d 593e 277f 823e 211a 033f
00000010: e7b2 a23e faa5 dbbe 60a0 bebe 4a7f 03bf
00000020: 4ca0 f1bd e50c 61be e584 ff3e 9996 8abe
00000030: 1c63 a2be 3926 19bf 5543 c8be da02 47be
00000040: a9d7 9d3e 62b5 9a3e b964 f0be 7e98 98be
00000050: 2829 6cbf fa95 15bf 650a d23e c7ad ec3e
00000060: ba6f 813e 72b5 053f 758e 4ebf f33b e33e
00000070: 0d7c a83e ce89 febe a604 0ebf e883 8c3e
00000080: 9c41 dc3e da74 bfbe 7672 0bbe 0e3c 973e
00000090: 8909 e2be 97da 213f 04e0 6abe 5814 933e
-0.24402611 0.21214893 0.25487635 0.51211745 0.31777117 -0.42900068 -0.3723173 -0.513661
-0.11798152 -0.21977575 0.49906078 -0.27068022 -0.3171624 -0.5982395 -0.3911387 -0.19434682
0.30828598 0.3021651 -0.46951845 -0.29803842 -0.922503 -0.5843197 0.41023555 0.46226332
0.25280553 0.5222999 -0.8068612 0.44381675 0.32907143 -0.49714512 -0.5547584 0.27444386
0.43018806 -0.37393838 -0.13617882 0.29538006 -0.441479 0.63224167 -0.22937018 0.2872646

weight f4 [40, 40]
00000000: b0c9 8abe b7a8 de3e 31b0 333f f020 993e
00000010: 627e 5b3e 0191 08bf 0fdf 11bf 53a9 27bf
00000020: ac22 bcbe ba74 62be a385 c63e db35 f3be
00000030: 8009 9abe 1801 d43e 998e 61bf ee84 c4be
00000040: 0862 123f 401d 0f3f 0903 a7be 379b ddbe
00000050: 0eee 363f 8f73 abbe 0f8b 7a3e 9de4 9e3e
00000060: ba45 213f 17f2 24bf dda6 20bf 4028 b83e
00000070: 4c89 43bf 19f2 27bf 56de 67be a1ef ed3e
00000080: 427c e73e ca1f ebbe 297e 573f 4aee d53e
00000090: 2f1b 40be 5a71 043f f09b eebe 4b8c 7f3e
000000a0: dbe7 0b3f c836 cfbe 6f9f f53e c81c d1be
000000b0: 70a7 bfbd 0976 f63d f8e3 8bbe b49c 223e
000000c0: 195f b5bd 0420 013f 424c c5be 0ed4 ea3e
000000d0: 1b75 093f ff5a abbe eb74 c03e baed 013e
000000e0: 54eb 8bbe 44bd e5be 18f7 ba3e b341 0d3f
000000f0: 848a 203c c14c 843e f869 653c b00f cbbe
00000100: 3705 d6be 9891 ecbe 679a 083f 969d 19bf
00000110: cbd1 03bf be98 fb3e 9075 e73e d152 aebe
00000120: 1dc3 eebe 8929 bd3e 6b18 cc3e 4df5 efbe
00000130: 51ea ad3e a7f5 17bf aa85 9b3e 550d c7be
00000140: 6cd2 c8be 8add 413e b97c 9e3e ab31 dc3e
00000150: adaa 7abd 36e2 99bc e91c 063e f9a9 8fbd
00000160: 1210 4c3e 01c3 7ebe bf1c e6bd a381 adbe
00000170: 8ab1 c3be 8953 c33e d283 d0be a068 f5be
00000180: 8ff4 513e a5f5 a83e 1d28 33be f109 acbe
00000190: eefc 24bf 0687 9bbe f21a c73e 0f71 e73e
000001a0: b0ac 9c3e f361 e33a d206 39be 9066 c13e
000001b0: 3448 dd3e c1fa 4ebf 2d3c 94be 1cb1 013f
000001c0: 51a5 dc3e 1f72 7bbe c70e 12bf 87b6 043f
000001d0: 780c a7be d2f9 ec3e 08ef 03bf c8a0 983e
000001e0: 035f 55be 07de c43e 88f5 183f e7a2 323e
000001f0: 9f27 25bd d16e 3cbe 1583 6cbe 5a7d d0be
00000200: 806e 64bf 392e 50be 7686 8e3d 08d9 2ebf
00000210: b85a a9be 5e4a 013f f90c dd3d ad9b 2abe
00000220: 7da7 d83e 8692 013f 5b13 98be 1061 b3be
00000230: 61a0 493e 5c84 97be ef77 9c3d f557 533e
00000240: b4a8 8c3e e658 c1bd 3a50 a0be 0f66 493e
00000250: 2e40 cc3e e07f 8cbf e3ee 64be 6a64 843e
00000260: 1fee 24bd 4fd3 40bf 8aae 41be cda9 d43e
00000270: e33f 8e3e e50f c03e 9728 62bf 8166 fa3d
00000280: 0121 493e 5527 a4be 837c 593e df19 34be
00000290: 3d68 dfbe d0fa 45bd a752 433b 4720 4b3d
000002a0: 1464 bc3e e24b 9c3e 6a8f 63be e4d7 433f
000002b0: cd1a 873e ccda 35be a031 2cbf d152 8d3e
000002c0: a9cf 02be 0bba c7be a871 253e 69fb 9e3e
000002d0: 7e2d 94be 1075 993e 2694 02be b6ba 81be
000002e0: 855b 1fbe aeb5 9ebe e4ae 7a3c ecae b9be
000002f0: 68c9 f5be 3b76 0d3f 6c98 8c3e 28e7 a3be
00000300: 366f b2be 3914 8d3e 5a26 d6be 1593 10be
00000310: 5ad3 433e 4843 37be 255b 883e 2fee 69be
00000320: c38f a23e a6d4 40be f21c af3e 554c 5cbe
00000330: 7ed2 46bf 661a 553e e214 a13e 313e 013f
00000340: 54b3 103f 897f f33e 00c4 03bf 5320 d53e
00000350: 21d9 b33e ec69 febe 9594 71be 2d9f ac3e
00000360: c146 c9be 3bdc 10bf ab94 903e da30 b43e
00000370: 20d3 93bf a79b 2a3e 9a6c 9fbe de49 c7be
00000380: 75be ffbe f714 60be ed1f 983e f3b8 e9be
00000390: 4310 eabe 05ac 953e 9c45 9c3e 4d9f 02bf
000003a0: c33c 9dbe e2b6 0e3f 63af 813e 1999 c0be
000003b0: 30ac 6f3e 8950 a8be 2f30 d93e cb3f cdbe
000003c0: ce7f 16bf ad60 063f d1b5 98bd 57f6 e43e
000003d0: 8990 4e3e 29bc 22bd 379b 193d 177e 2b3d
000003e0: c728 09bf 9765 afbe eb4d 023f 38f6 e6be
000003f0: 8b54 09bf b21d 8d3e 0f3d a1bd 7e12 09bf
-0.27107 0.43488094 0.7019072 0.29907942 0.2143493 -0.5334626 -0.56980985 -0.65492743
-0.36745203 -0.2211484 0.38773832 -0.47502026 -0.30085373 0.41407084 -0.8810821 -0.38382667
0.57180834 0.55904007 -0.32619503 -0.43282482 0.7145699 -0.33486602 0.24467109 0.31033793
0.6299702 -0.644319 -0.62754613 0.35968208 -0.76381373 -0.65603787 -0.22643408 0.46471885
0.4521199 -0.4592269 0.8417688 0.41783363 -0.1876037 0.5173546 -0.46603346 0.24955861
0.5465066 -0.40471482 0.479732 -0.4084227 -0.09358108 0.12034232 -0.27322364 0.1588009
-0.08856029 0.50439477 -0.38534743 0.4586491 0.53694314 -0.33467862 0.375892 0.12688342
-0.2732798 -0.4487096 0.36516643 0.55178374 0.00979865 0.2583981 0.014002316 -0.39660406
-0.41800854 -0.4620483 0.533606 -0.6000608 -0.51491994 0.4913997 0.4520688 -0.3404756
-0.46633235 0.3694575 0.3986238 -0.46866837 0.33967832 -0.5935921 0.30375415 -0.3887736
-0.3922304 0.18932167 0.3095453 0.43006644 -0.061197925 -0.018784624 0.13096966 -0.070148416
0.19928005 -0.24879076 -0.11235952 -0.33887967 -0.3822139 0.3814967 -0.4072557 -0.47931385
0.20503448 0.32999912 -0.17495771 -0.33601335 -0.6444844 -0.30376452 0.38887745 0.45203444
0.306005 0.0017347917 -0.18069008 0.3777356 0.4321915 -0.8085137 -0.2895216 0.5066087
0.43094876 -0.24555252 -0.570538 0.51841015 -0.326267 0.46284348 -0.5153661 0.29810166
-0.20837025 0.38450643 0.5974965 0.17444955 -0.04032099 -0.18401648 -0.23096879 -0.40720636
-0.8923111 -0.20330133 0.0695924 -0.68299913 -0.33077025 0.505041 0.1079349 -0.16660948
0.42315283 0.506142 -0.29702267 -0.3503499 0.19690086 -0.2959317 0.07640063 0.20639022
0.2747246 -0.09440784 -0.31311208 0.19667839 0.39892715 -1.0976524 -0.22356753 0.2585786
-0.040266152 -0.7532243 -0.18914238 0.41535798 0.27783117 0.37512127 -0.88343185 0.12226582
0.19641496 -0.32061258 0.21238904 -0.17587994 -0.43634215 -0.048334897 0.0029803903 0.04959133
0.36795104 0.30526644 -0.22222677 0.765013 0.26387635 -0.17759246 -0.6726322 0.27602246
-0.12774529 -0.39009127 0.16156638 0.31051186 -0.28940958 0.29972124 -0.12751827 -0.25337762
-0.15562256 -0.30997986 0.015300486 -0.36266267 -0.48005223 0.5525853 0.2746004 -0.32012296
-0.34850472 0.2755449 -0.41826135 -0.14118607 0.19123593 -0.1789676 0.26632038 -0.22844766
0.31750306 -0.18831119 0.3420177 -0.21513493 -0.77664936 0.20810851 0.31461245 0.5048552
0.56523633 0.4755824 -0.5147095 0.41626224 0.35126594 -0.49690187 -0.23591836 0.3371519
-0.39311793 -0.56586045 0.28238425 0.3519352 -1.1548805 0.16660939 -0.31137544 -0.38923544
-0.49949995 -0.21882997 0.29711857 -0.45648918 -0.45715532 0.29232803 0.30521858 -0.51024324
-0.3071042 0.5574781 0.25329122 -0.37616804 0.23405528 -0.32873943 0.42419574 -0.40087733
-0.58788764 0.52491266 -0.07456554 0.44719192 0.20172323 -0.039730225 0.03750154 0.041868296
-0.53577846 -0.34257194 0.50900143 -0.45109725 -0.5364463 0.27561718 -0.07872974 -0.5354384

bias f4 [40]
00000000: a449 3b3e 497e c7be 0f37 bf3e 55db ed3d
00000010: 4a10 dbbe 0bf9 d3be 9dc2 c63e 1afd 703e
00000020: 26ba efbe 2849 5cbe 004c c0be 6352 5ebe
00000030: 1ce1 c83e 0725 b73e 8550 ebbe 4252 0b3f
00000040: 082b a3be f75a c7be 3f45 293e 2220 fbbe
00000050: e633 0c3f bade 913e 3f2f 7b3e 3e9f e4be
00000060: a873 6f3e 3c6f de3e cab7 ef3e 68e4 963e
00000070: 904a dbbe 99d8 3d3e 8f4b 993e be86 183f
00000080: 733f 143f 662b e0be f6f0 a33e 6e2c a03e
00000090: 1ebf 013f 4fd2 813e bc0d df3e e3ca 83be
0.1828981 -0.38963535 0.37346694 0.116141 -0.42785865 -0.41400942 0.38820353 0.2353405
-0.46821707 -0.21512282 -0.37557983 -0.21711116 0.39234245 0.35770437 -0.4595987 0.5442239
-0.31868768 -0.38936588 0.16530322 -0.49047953 0.5476669 0.2849024 0.24529742 -0.44652742
0.23383963 0.4344424 0.46819907 0.29471135 -0.42830324 0.18539657 0.2994046 0.595806
0.57909316 -0.4378311 0.32019776 0.31283897 0.50682247 0.25355765 0.43565166 -0.25740728

weight f4 [1, 40]
00000000: 2439 bbbd 5463 52bf ad5f 4a3f 0c9a 0e3f
00000010: d889 29bf 8e82 36bf aa54 103f ffb3 43bd
00000020: 3ead 4cbf 76b0 613d 8488 5dbf 0196 4abf
00000030: 43a8 e6bd 96b8 0b3f 681c 25bf 2a6f 043f
00000040: 4e2f 253e e6bb 0ebf 7521 f5bd aa26 f6be
00000050: 8f99 423f e6b7 e23e bb71 073f d4fe 09bf
00000060: f8a7 9abe 4ed1 0b3f 213f 473f 6bc9 1d3f
00000070: a257 fcbe 5e63 51be 3dbb 543f 3d23 d03e
00000080: 44d6 d3be 83f5 243e 12ca 123f 5a76 0f3f
00000090: 3970 553f 1035 3b3f 9c67 193f ad2b f7be
-0.09141758 -0.8218281 0.7905224 0.55703807 -0.6622596 -0.7129296 0.5637919 -0.04777908
-0.79951847 0.055099927 -0.8653643 -0.7913514 -0.11262562 0.5457853 -0.6449647 0.5173212
0.16131327 -0.5575546 -0.11969272 -0.48076373 0.7601556 0.44280928 0.52907914 -0.5390446
-0.30206275 0.5461625 0.778307 0.61635464 -0.4928561 -0.20448062 0.830982 0.40651885
-0.4137441 0.1610928 0.57339585 0.56039965 0.83374363 0.7312784 0.5992372 -0.4827551

weight f4 [40, 2]
00000000: dbe6 8cbe d5c8 e4bd eb87 ae3e 70cb 4c3e
00000010: 8e7c 42be 4dc8 bbbd 2326 763e 08d9 dd3e
00000020: 27a8 c8bd 2fae 06bd 344e a6be a0db d73c
00000030: fa4c 0e3f d3c1 05be f8e1 283e a5f5 6bbe
00000040: b573 a3be e26c bc3e 8807 e33e c488 233f
00000050: c363 93be d70a a13e 066f bfbc 4a2b ac3d
00000060: 2a61 2d3f 0cba 5abf 631a bd3e 9b18 d73e
00000070: 6e06 9ebd 0264 a4be 880e 70be d138 803d
00000080: fbeb 2abc 3b5d 0fbf 6009 90bc 0419 21be
00000090: 0654 663e 67be d53d 9d7b 5d3e 99a0 54be
000000a0: f6cd 293e bdf2 bc3d b47e 673c 2cd7 7bbe
000000b0: ebe9 0dbe dabd 09bf a28a 8c3e bb32 e0be
000000c0: f4b6 da3c 53ac f0be fc05 123f bb2e 87be
000000d0: 64aa 68bf c188 873e 902e 113f 49eb 83bb
000000e0: 091c d2bf c1ba c93e f646 e7be 4e9e fcbe
000000f0: 51c8 a4be 4128 ccbe f8a5 83be c47a c43d
00000100: db7e d63d fd23 c23e 27c0 a5be 9a44 5f3e
00000110: 9bca 42bf d80a c33d 50d2 013e 245a c7be
00000120: c17d 4c3e c325 cc3e 1b67 b13e 86a5 a4be
00000130: 558c 253b a263 43bf f95a 20be 116c 8c3e
-0.2751988 -0.11171118 0.34088072 0.1999948 -0.18992826 -0.09169064 0.24037986 0.43329644
-0.097976975 -0.03288096 -0.3248154 0.026349843 0.55586207 -0.1306222 0.1649245 -0.23042925
-0.31924215 0.3680182 0.44341683 0.6388056 -0.2878705 0.31453583 -0.02336837 0.08406694
0.67726386 -0.85440135 0.36934194 0.4201096 -0.0771607 -0.3210755 -0.23443043 0.06260837
-0.010432239 -0.56001633 -0.017582595 -0.15732199 0.2249299 0.10436707 0.21629186 -0.20764388
0.16582474 0.09225986 0.0141293295 -0.245938 -0.13858764 -0.53805315 0.27449518 -0.43788704
0.026698567 -0.47006473 0.5704038 -0.2640284 -0.90884995 0.26471522 0.56711674 -0.004025851
-1.6414806 0.39400294 -0.45171326 -0.49339527 -0.3218408 -0.3987446 -0.25712562 0.09593728
0.104734145 0.37918082 -0.32373163 0.21803513 -0.760904 0.09523553 0.12677884 -0.3893596
0.19969846 0.3987256 0.34648976 -0.32157534 0.0025260646 -0.763239 -0.15659703 0.27426198

bias f4 [40]
00000000: b7ce ccbe 581c 0bbf f60d 07bf e759 3140
00000010: 438c 1a40 652c 28bf bd83 31bf f9c7 28bf
00000020: 58d0 1840 310a 2340 9040 1cbf a00e a13e
00000030: e583 533f 742f 053d 9582 07bf 4873 533f
00000040: b17d 0b3f 0ab3 21bf 2ddc 783f 0d9f d6be
00000050: 0b30 95be 5773 50bf 16c5 053f 618d 32bf
00000060: 996c 16bf 5336 5ebf b1f4 0b3f 4e7f 4bbf
00000070: ab46 303f 7179 3340 71da f63f 8aff 1340
00000080: 51a7 21bf 8936 06bf 83f9 fd3f d059 1ebf
00000090: 74b3 1b40 58ec 24bf 4974 53be 7bc5 ddbe
-0.4000146 -0.54340124 -0.5275568 2.7711122 2.414811 -0.6569274 -0.6934164 -0.65930134
2.3877163 2.547497 -0.61036015 0.3145647 0.8262313 0.032515958 -0.5293363 0.8259778
0.54488665 -0.63163817 0.9721096 -0.4191822 -0.29138216 -0.81425995 0.52253854 -0.6974698
-0.58759457 -0.8680164 0.54670244 -0.79491127 0.6885783 2.8042872 1.9285413 2.3124719
-0.6314593 -0.52426964 1.984177 -0.61855793 2.432828 -0.6442313 -0.20649828 -0.43314728

weight f4 [40, 40]
00000000: 1338 833e 80a9 8e3d 9efb 75be 881a 1dbf
00000010: b7ff d3bd 68c5 02bd 77ef b5be c672 6abe
00000020: c2a5 25be 8ed0 1dbf c955 9fbd af10 0040
00000030: 6c1c 2abe cc9f 25bf 0a49 09be def0 a4bf
00000040: 2d2d 09be f054 403d 61ee 3fbf 6a9b 1e3f
00000050: 9b1f 743e 29ed 91be ee04 d3bd 046d 2c3d
00000060: 21d1 363e 373a 47be bcb8 d33e d41b 3d3e
00000070: fc21 ccbe f7c5 88bf 368e ac3d a122 28bf
00000080: a936 b33e 19be 4d3e 061b 87be 074a 3cbf
00000090: 9a50 89be d311 22bc 09c1 dfbe 1d18 c7bd
000000a0: ab93 ba3e 84d6 3abe 761e 9abe 4546 96be
000000b0: aab3 51bf ac57 debd 515e 1d3d 2812 93be
000000c0: a435 46bf 9c3a 10bf f281 b9bd 9e97 eabf
000000d0: 1c96 05bf 83c5 68be 356a 88be cf0b 25bf
000000e0: 155c a2be eb34 aebd 4ba3 35be a494 89be
000000f0: 5e70 0bbe 323b babe 4bcd f4be 1ec1 3abe
00000100: d7e9 eb3c b5f4 cdbd 1e0e cbbe 616a bcbe
00000110: fd10 e6be 01bb 60be fe57 4fbe 3041 10bf
00000120: 1ec3 8dbc 4fb9 d63d 80e7 51bf 9b2f a9be
00000130: 9f95 bebe 1af1 0abe 0304 96be 3ccb 5d3d
00000140: ead8 e1bc e185 2cbe 83cf ecbe ebe2 b3be
00000150: ac4c ba3e c47a 973d 28ec 033d 65d9 bcbe
00000160: a854 fcbd 0f15 53be f937 48be 2576 98bf
00000170: a6aa 6bbf 366c 8abe 0ca0 f4be cd40 2bbf
00000180: caee 31bf d82b a03c 2b0b 45bf f613 45bf
00000190: c648 50be aeab 3bbf 341c 00bf 7150 043e
000001a0: 4a7d 4f3d cbfc 90be 3125 e0be a6c3 00be
000001b0: 0360 8fbe bffd a93d b086 88be 68ce e8be
000001c0: 1bfe 16be 5a32 6cbd 5d3b 33bf 3d95 9cbe
000001d0: 0292 e2bf a81a febe 2215 c13e 4e16 95bd
000001e0: 4189 bdbe e2b6 713e 84a3 2c3d 5880 ee3e
000001f0: 0078 7d3e 9645 e2bd 8a96 013c 0f88 c43d
00000200: 5561 0d3f 39d2 2a3f d66c 163e 44bd 32bd
00000210: c399 65bd 7fe7 4bbe e21a 14bb 4537 4d3f
00000220: b0df dabd 28bf 803c f3ee 813e ccb8 0a3e
00000230: 3e13 fb3d e032 8b3e 33f2 8c3e a4cf 053e
00000240: 7cdc 78bc aea6 8cbe f294 efbd 5e64 15bd
00000250: 0b27 9c3d 5358 e8bd 54a4 623f f9c4 bb3e
00000260: 99d7 713d bd61 8f3d df1d 863e e091 183e
00000270: 4699 c4bd 55d0 693e 8927 0d3e 65f2 c73d
00000280: c34f 8f3d c0e5 353e 1817 a63d c448 093f
00000290: ac6f 103f e33f a9bd 0686 88be ab0b 2f3f
000002a0: 2518 d4bd efce 143f 7b20 a8bd f91c b13f
000002b0: 0115 503e 3959 843e dfaa ba3e 610c 1ebe
000002c0: 5f28 613f 756c 093e 0499 023f 444b 933f
000002d0: 14e5 813d d778 ec3e 4a37 bbbd 3b2c b1bd
000002e0: e8f8 e4bd f0c9 b53c 24de b8bd faa6 0f3f
000002f0: b5ba c73e 9d6b 563f 8cf3 c63e 4347 e53e
00000300: 0aee 3b3e d258 7c3d 0ced ea3e 1e2c 9d3d
00000310: fdea 853f 6c81 cd3e 5aa8 bc3e b8b5 24bd
00000320: e85f 173c 5699 593e 20d1 f43e 57e9 1f3f
00000330: 0b22 9b3f 1073 fbbc 706c 8f3d 877b 193f
00000340: 4c24 653f c64c 083f 7541 713e df8e 133f
00000350: 8925 523f f470 dd3e 63a0 44bf 04cf 9ebf
00000360: 559b ce3e 7047 a7bc 889f 143f aadf 093f
00000370: 1279 083d adac 3a3f f8f0 ef3e be7a e23d
00000380: e308 643d fd01 9e3e b212 5c3f f7c8 8d3f
00000390: 2d53 94be 89a7 9a3f ff2b 013f 9d1e 0c3f
000003a0: 3e5a b23e 5694 a03e 49e8 333f 8985 2e3e
000003b0: 4cae 863e ca6e 163e 3ff5 953d 3dde ea3e
000003c0: 5292 e7bd 6a99 9fbe c386 babe 3d4b 31bf
000003d0: eb05 6cbf 06ff bf3d 7636 9fbd 5e1e 3fbf
000003e0: fad8 86bf dc67 dfbe 4f59 94bc e6e0 523e
000003f0: 381a c1be 56fc dabe 4e0a d23e 021d d13e
0.2562872 0.06965923 -0.24021766 -0.6136861 -0.10351508 -0.031926543 -0.3553426 -0.22895345
-0.16176513 -0.61646354 -0.07780034 2.0010183 -0.16612405 -0.64696956 -0.13406768 -1.2886007
-0.1339614 0.046956003 -0.7497311 0.61955893 0.23840182 -0.2850125 -0.10303675 0.042096153
0.17853214 -0.19455801 0.4135188 0.18467647 -0.39869678 -1.0685414 0.08425562 -0.6567784
0.3500264 0.20092048 -0.26387805 -0.73550457 -0.26819307 -0.009891945 -0.43701962 -0.09721396
0.36440787 -0.18245894 -0.30101365 -0.29350486 -0.8191477 -0.10856566 0.038420025 -0.2872479
-0.774256 -0.5633943 -0.09057988 -1.832752 -0.52182174 -0.22731595 -0.2664353 -0.64471143
-0.31710878 -0.08506187 -0.17738073 -0.26871216 -0.13617083 -0.36373287 -0.47812876 -0.18237731
0.028798027 -0.1005644 -0.39659208 -0.3679991 -0.44934836 -0.21946336 -0.2024841 -0.5634947
-0.017304953 0.104845636 -0.81993866 -0.33044133 -0.37223527 -0.13568535 -0.29299936 0.054148898
-0.027569253 -0.16847946 -0.4625207 -0.35134062 0.3638662 0.073964626 0.032207638 -0.3688461
-0.123208344 -0.20613502 -0.19552602 -1.1911055 -0.92057264 -0.27035683 -0.47778356 -0.66895753
-0.6950499 0.019552156 -0.76970166 -0.7698358 -0.20340261 -0.7330884 -0.50043035 0.12921311
0.050656594 -0.28317866 -0.43778375 -0.12574634 -0.2800294 0.08300351 -0.26665258 -0.45469975
-0.14745371 -0.057665206 -0.70012456 -0.3058261 -1.7700808 -0.49629712 0.37711436 -0.07279645
-0.3701878 0.2360492 0.04214813 0.46582294 0.24752808 -0.11048429 0.007909426 0.095962636
0.5522664 0.66727024 0.14689955 -0.04363753 -0.05605484 -0.19912528 -0.0022599031 0.8016246
-0.10687196 0.01571615 0.25377616 0.13547057 0.122595295 0.27187252 0.27528533 0.1306749
-0.015189286 -0.27470917 -0.11698331 -0.03647267 0.07624634 -0.113449715 0.88531995 0.36673716
0.0590435 0.07001064 0.26194665 0.14899397 -0.09599547 0.22833379 0.13784613 0.0976303
0.06997635 0.17763424 0.081098735 0.53626657 0.564204 -0.082641385 -0.26664752 0.6837718
-0.10356168 0.58128256 -0.0820932 1.3836967 0.20320512 0.2584932 0.3645849 -0.1543441
0.87952226 0.1342028 0.51014733 1.1507344 0.06342521 0.46185943 -0.09141405 -0.086510144
-0.111802876 0.022191018 -0.09026745 0.5611416 0.39009634 0.83757955 0.38857687 0.4478093
0.18352523 0.061608143 0.45883977 0.0767443 1.0462338 0.40137804 0.36847192 -0.040212363
0.009239174 0.212499 0.478158 0.62465423 1.2119764 -0.030694515 0.07003105 0.5995411
0.8950851 0.53242147 0.23560126 0.5763988 0.82088524 0.4325024 -0.7680723 -1.2406926
0.40352884 -0.020419806 0.58055925 0.5385691 0.033318587 0.7291973 0.46863532 0.110585675
0.055672538 0.30860892 0.85966027 1.1076955 -0.28969708 1.2082378 0.5045776 0.5473421
0.34834474 0.3136317 0.70276314 0.17043127 0.26304853 0.146907 0.073221676 0.4587268
-0.11307205 -0.31171733 -0.3643094 -0.6925543 -0.9219653 0.09374814 -0.077740595 -0.7465571
-1.0534966 -0.43633926 -0.018108992 0.20593604 -0.37715316 -0.42770642 0.41023487 0.40842444

bias f4 [40]
00000000: fcc7 adbe 6930 c8be 4c34 0abf db84 7b3d
00000010: f6a5 b93e e9a1 3f3f 743a 1abf 50be c93e
00000020: 56bc 0c3f feac 74bf d944 233f 7d52 46be
00000030: b00d 433f a866 03bf 9bb9 483f 5ee4 813e
00000040: 7810 54bf ffae d93e 6b0f a03e a7da e73e
00000050: 02e0 dcbd 8a5c abbe 646e 0abf 023e e9be
00000060: c49b a63e 163e a53e ec84 123f c21a cbbe
00000070: e760 c0be b678 133f 7776 dabe 3f12 bf3e
00000080: ebe9 41bf 0ce0 be3e d852 d83e 0d86 82be
00000090: f3e3 2fbf d0c5 e3be 154d 963e 1d57 ea3e
-0.33941638 -0.39099434 -0.5398605 0.061405998 0.3625943 0.7485643 -0.6024544 0.3940301
0.5497488 -0.95576465 0.6377693 -0.19367404 0.7619276 -0.51328516 0.7840821 0.25369543
-0.8283763 0.42516324 0.31261763 0.45284006 -0.107849136 -0.3346904 -0.5407469 -0.4555512
0.32540715 0.3227393 0.5723407 -0.39668852 -0.3757393 0.57606065 -0.42668507 0.37318608
-0.75747555 0.3728031 0.42250705 -0.25492898 -0.687072 -0.44486856 0.29355684 0.45769587

weight f4 [40, 40]
00000000: 4b35 af3d ff90 cb3e f44f a03e 5f1e 82bf
00000010: 625b c9be 6903 cabe 8be9 ea3e 0f29 45bf
00000020: e20d a7be b32d 963e c3ae f5be 229b cd3d
00000030: d719 04bf 1714 7f3e 9f2c 51bf 8519 94be
00000040: 5d45 77be e5cd a5be f515 153e fe83 98be
00000050: 4a17 a9be 0397 f23a 7b93 3dbf 4fe5 ddbd
00000060: c8b4 bbbe 7c1b 45be f21c 063e 593a f03d
00000070: 5cf0 863e 997c 84bd f165 8e3e aff8 c9be
00000080: 1d9d ddbd ee27 babe bb13 fcbe 7a4a 9e3e
00000090: c7ec 543e fcd2 083e 736f 573e 1cd9 78be
000000a0: de6b 983e 79b7 073f f246 6d3e fb00 b7be
000000b0: 8f1d 28bf 0689 3bbf 0c2a 993e dcb0 5b3c
000000c0: 73ae 12bf 475f f13e 7904 44be c00f 0fbd
000000d0: 8987 95be 2a4a 063f 563c d1be 05a9 a7be
000000e0: 1042 f63e 5b7b 523e ee29 16be 97e8 99be
000000f0: d119 11bf 921c 933e 29dd 8a3e 7a79 72be
00000100: f4df 2cbf b1e1 34bf aeb6 093f 6e5d 2e3f
00000110: 4fd9 e03e f4c9 c9be f7ca 08bf e2af 0cbf
00000120: cc9a 9e3e 07bb 34bf 290c 12bf 6783 d93e
00000130: 34c1 d03e d4ce c03e 8a5f 2bbe 77b1 09bf
00000140: 7a1f 80be b6f6 f5be 666a 5fbe 945c 163d
00000150: 8148 e93e 6b68 193f 45db 86be 936c ab3b
00000160: 7630 b73e acd2 c1be ddc8 7e3e bedc 33be
00000170: d310 50bc bc19 f0be 0f45 803e 6d1c 193e
00000180: c33c 763e 5ed9 3240 5241 e6be b074 fcbd
00000190: ab5c 33bd ddd7 d03e 8945 2fbd a19c 04be
000001a0: c4ba da3e f227 0f3f 9bba 233e 1e6d 01bf
000001b0: c273 dabe 557b c53e 06ef 353c b7ba f73e
000001c0: c995 15be 8b9f 933e 8447 083f 5410 cdbe
000001d0: ca59 01bf c000 c6be 3375 7a3e b343 2e3f
000001e0: 972e 063f b165 383e 2688 9a3e cb1f 71be
000001f0: 6d0f 90be 0a7b 4cbe 7ee5 f83e aa49 efbe
00000200: 90f6 a6bd 0350 3a3e 2e9f 60be 57f1 4c3f
00000210: 5156 1ebe 89fe 063e 730c 08be a4ef ffbe
00000220: 5a28 323f 426d eebe 7690 f6be 252c 12bf
00000230: bf1a 903f 6c16 d43e 69bf 883e d270 3c3f
00000240: 2b52 a63c bc7a a9bd 9c58 6ebf 3b3f 973e
00000250: 4dc7 833e c89b 2dbe db9f 183f 994c 55be
00000260: ecab cf3e 6374 ecbb 0a0d 65be f615 713e
00000270: 6e4f 823e 1a58 da3d d7d3 96be 468c a7be
00000280: 4e79 01be 7258 adbe 8598 7dbe 1a95 643e
00000290: bd01 693e 584c ee3e baf3 92bf 19b8 aabc
000002a0: f472 d83e 2819 1abf 2824 8e3e 513b d2bc
000002b0: 96fc a3bd 70a9 fdbe e3b1 983e a6cb 093e
000002c0: c2ac 81be 6198 6fbc cd9f 88be e351 a53e
000002d0: 2685 51bc d50a 62bd ee00 46be cb34 edbe
000002e0: 9ecc d43e 5ac6 ca3e c1f7 ad3e f07b babe
000002f0: db69 11bf abf7 033f ad72 3a3e e76e fb3e
00000300: e48d 0abe 596f f13e fcd2 133f 88f0 90be
00000310: de1c ccbe d457 9abe 6533 973e 675e c13e
00000320: 9833 f43c 1df2 0c3f d504 c33e 8e64 cbbe
00000330: 0341 9bbe 5f93 b9be 9eaf ea3e 3914 b2be
00000340: f6a6 cabe 5ded 863e 17b6 2bbf d8e0 e3be
00000350: e6e2 a8bd 693f bf3e aa7b 13bf 6331 f0be
00000360: 232f 873e d84f 1bbe 2096 b63e 8f41 4fbe
00000370: 0a74 89be 68a6 7ebe 8ba4 a23e 7fd4 89be
00000380: d5c4 f3be 3f7d d9be f530 4fbc 7a79 143f
00000390: 94a0 e23e 1858 a1be 5944 0abb f831 0cbf
000003a0: 6817 c23e fea3 16bf b4c5 f2be 0d3f 0c3f
000003b0: 5edf 333f e367 1a3f e9ac cfbd be33 0bbf
000003c0: cc2b 8a3d 3052 98be 5fec 35be 129f 6c3d
000003d0: 0f13 063e 799a d73e 37ae 00be 69cd 433e
000003e0: 75f1 b83e 6f1c dabe 1eab ef3d 0dc1 55bf
000003f0: 34de 773d 99ab 20bf f3c5 7d3d 5bfe 8b3e
0.08555087 0.3975906 0.31311 -1.0165519 -0.39327532 -0.39455727 0.45881304 -0.77015775
-0.3262778 0.2933174 -0.47984895 0.10039355 -0.5160193 0.24910007 -0.8170871 -0.2892572
-0.24147554 -0.32383648 0.14559157 -0.29788202 -0.3302558 0.001850814 -0.7405316 -0.10834753
-0.36661363 -0.19248766 0.1309698 0.11729879 0.26355255 -0.064690776 0.2781215 -0.39447543
-0.108209826 -0.3635859 -0.49233803 0.30916196 0.20793448 0.13361734 0.21038608 -0.2430157
0.29769796 0.5301433 0.23171595 -0.35742936 -0.656701 -0.73255956 0.29914892 0.013408866
-0.5729744 0.47143003 -0.19142331 -0.03492713 -0.29204968 0.52456915 -0.40866345 -0.3274614
0.48097277 0.20554869 -0.14664432 -0.30060264 -0.5668002 0.28732735 0.27121857 -0.23679152
-0.67529225 -0.7065688 0.5379437 0.6811131 0.43915793 -0.3941189 -0.534347 -0.54955876
0.30977476 -0.7059788 -0.57049805 0.42483065 0.40772402 0.37657797 -0.16735664 -0.53786415
-0.25024015 -0.48039788 -0.21817932 0.036709383 0.4556313 0.59924954 -0.26339164 0.005231449
0.3577916 -0.37856042 0.24881311 -0.17564675 -0.012699324 -0.46894634 0.25052688 0.1495225
0.24046616 2.794517 -0.4497171 -0.12326944 -0.043789547 0.4078969 -0.042790923 -0.12950374
0.42720616 0.55920327 0.15989153 -0.50557125 -0.4266644 0.38570657 0.011104351 0.4838464
-0.1460792 0.2883266 0.53234124 -0.4005152 -0.5052763 -0.38672447 0.2445877 0.6807205
0.5241484 0.18007542 0.30181998 -0.23547284 -0.2813677 -0.1996881 0.4861259 -0.4673589
-0.08152497 0.18194585 -0.21935722 0.80055755 -0.15462615 0.13183035 -0.13285999 -0.4998752
0.6959282 -0.46567732 -0.4815709 -0.5709861 1.1258162 0.41423357 0.26708534 0.7360965
0.020302853 -0.08275363 -0.9310396 0.2954043 0.25737992 -0.16953957 0.5961892 -0.20830001
0.40560853 -0.007216023 -0.22368255 0.23543534 0.25451225 0.10661335 -0.29458496 -0.32724208
-0.1264393 -0.3385654 -0.24765213 0.22322503 0.2275457 0.4654262 -1.148063 -0.020839738
0.42275202 -0.60194635 0.2776196 -0.02566305 -0.08007161 -0.49543333 0.29823217 0.13456592
-0.25327116 -0.014623732 -0.26684418 0.32289037 -0.012788093 -0.05518611 -0.19336292 -0.4632934
0.4156236 0.39604455 0.33978084 -0.36422682 -0.5680215 0.51549786 0.18207808 0.4910805
-0.1353069 0.47155264 0.5774381 -0.2830851 -0.39865774 -0.30145133 0.29531398 0.37767336
0.029809758 0.55056936 0.38089624 -0.39725155 -0.30323038 -0.36245248 0.4583711 -0.34781054
-0.39580506 0.2635297 -0.6707472 -0.4450748 -0.082464024 0.37353066 -0.5761057 -0.4691268
0.2640315 -0.15167177 0.3566141 -0.20239852 -0.26846343 -0.24868166 0.3176616 -0.26919934
-0.47611108 -0.42478368 -0.01264595 0.5799786 0.44263136 -0.31512523 -0.0021097867 -0.54763746
0.37908483 -0.5884398 -0.4741646 0.5478371 0.70262706 0.6031477 -0.10140402 -0.5437583
0.06746635 -0.29750204 -0.1776595 0.05776889 0.13093208 0.4211004 -0.12566458 0.19121327
0.36121717 -0.42599818 0.1170256 -0.834977 0.060514644 -0.6276184 0.061956357 0.27342495

bias f4 [40]
00000000: 6e24 dabe 1e85 3bbf c9cb 143f e7c9 fdbd
00000010: 1add 133f 21cf 17bf ab96 e33e 4617 063f
00000020: 3aa6 b93e 234e e7be b32c 22be 8bae d13e
00000030: 89d6 dfbe 893d c5be 7120 553d 8d4d c9be
00000040: 6a70 723e c9f3 77be d752 fcbe e852 77be
00000050: f187 7dbe 44df 1cbf d8db 22bf d05f e7be
00000060: 0d16 a6be b6a3 003f 57cb 06bf 9d9a cebe
00000070: fc07 03bf 99f7 e8be c3c5 083f cfe1 963e
00000080: 9e87 ddbd 3d9a 16bf 3382 11bf e6d9 093f
00000090: 9bc9 083f 1a5e d13e e53a 103f 702f 943e
-0.4260592 -0.73249996 0.5812345 -0.123920254 0.5775925 -0.5930043 0.44450888 0.5237926
0.36259633 -0.451768 -0.15837364 0.40953478 -0.43718365 -0.3852351 0.05203289 -0.3931698
0.23675695 -0.2421409 -0.49281952 -0.2415272 -0.24758889 -0.61278176 -0.63616705 -0.45190287
-0.32438698 0.50249803 -0.5265402 -0.40352336 -0.5118406 -0.45501402 0.5342676 0.29469153
-0.108168826 -0.588291 -0.56839293 0.5384811 0.53432626 0.40892106 0.56339866 0.28942442

weight f4 [1, 40]
00000000: ddfb 08bf ef56 dabe bcf6 233f 0634 d93e
00000010: 0dda 2e3f 2b7f 13bf bc57 e73e 3002 f93e
00000020: 8f6e 053f e2f5 febe bcc8 d8be 8fdf 123f
00000030: c2dc e6be cc6b 213f f2d3 283f 1388 e1be
00000040: f4b2 0d3f 9700 f0be b20c 01bf 2fff 40bf
00000050: 5ced c3be e5cb 00bf a427 d0be 69d4 e8be
00000060: 103c dcbe 052b 133f 0a6f 09bf 4701 ddbe
00000070: cbac 18bf 98a3 fdbe 59b2 dc3e cf75 113f
00000080: ceec 37bf 106a 0bbf e1e0 1fbf 0779 0b3f
00000090: 0c1b 0f3f 0a71 c53e 05bb 443f d4c5 17bf
-0.5350931 -0.4264445 0.6404836 0.42422503 0.6830147 -0.5761592 0.45184124 0.4863448
0.52121824 -0.4979697 -0.42340648 0.57372373 -0.450903 0.6305511 0.659484 -0.4404913
0.55351186 -0.4687545 -0.50409997 -0.7538938 -0.38267028 -0.5031112 -0.40655243 -0.45474556
-0.43014574 0.5748752 -0.5368506 -0.43165037 -0.5963866 -0.49538875 0.43104818 0.56820387
-0.7184571 -0.54458714 -0.6245251 0.5448155 0.55900645 0.38562804 0.7684787 -0.59286237
