[LC models]/min_func_LC_3x60_n_V=3.pt (torch_old, 160884 bytes, 33 tensors)

weight f4 [40, 2]
00000000: ae71 ecbe f313 1fbf f87d ba3e 4c25 b5bd
00000010: 4b59 1c3e f8c4 a53e 15e0 273e db59 8dbc
00000020: b383 133f aa85 893e 94a8 c9be ba4f c9be
00000030: 5d8c 68be af41 14be d61f a9bd 6170 c8be
00000040: 4ecb c1bd 69d5 213e 7eff 203f 91c2 4c3f
00000050: 5a08 193f 0991 6a3f cf8e b53e c4bb 8f3f
00000060: 096f ffbe 9613 c7bd be63 80bf 40e4 fabe
00000070: 6c8e 683e ee6f 123f 2323 65be e92d cbbe
00000080: 3004 d9be 4e6f 9dbe 7c57 6ebe 5705 c6be
00000090: 77a6 f33e 6a7d 873d 8960 393f 4ee2 0a3f
000000a0: 10e7 833e 9c59 92bd ddc7 223f dca9 b2be
000000b0: 55a9 9b3e a444 713e 6190 053f 74dd 13be
000000c0: dda7 af3e a28b df3e e919 223f 2698 2f3e
000000d0: 2d88 46bd ee1c 283e f6e0 023e 4894 7fbd
000000e0: 4340 f6bd adad 0ebe 371f 24bc b776 4e3f
000000f0: a854 693e 7836 8dbe fe3a 2abf 362d 9cbe
00000100: d94c a83d 1eb9 f83e 25d4 14bf c435 88be
00000110: 455e 73be 78fc dbbe f052 993e 14bc c43e
00000120: 8979 cfbe 1c93 6fbe 6995 243e 15a8 e63c
00000130: 9316 123f 6bbd f53d ace3 183f 3cca 9ebe
-0.4618048 -0.62139815 0.36424232 -0.088450044 0.15268438 0.32376838 0.16394074 -0.01725476
0.5762283 0.2685979 -0.39386427 -0.3931864 -0.22709794 -0.14478181 -0.08258025 -0.39148238
-0.094626054 0.15804066 0.6288985 0.79984385 0.5977837 0.91627556 0.35460517 1.1229177
-0.498894 -0.097205326 -1.0030439 -0.49002266 0.2271058 0.5720204 -0.22376685 -0.39683464
-0.42386007 -0.3074898 -0.2327556 -0.3867595 0.4758794 0.06615718 0.72412926 0.54251564
0.25762224 -0.07145998 0.6358622 -0.34895217 0.30402628 0.2356134 0.5217343 -0.14439946
0.34307757 0.4366122 0.63320786 0.17147884 -0.04846971 0.16417286 0.12781128 -0.06239727
-0.12023976 -0.1393344 -0.010017208 0.80649894 0.227862 -0.2758062 -0.66496265 -0.30503243
0.082177825 0.48578733 -0.58136207 -0.2660352 -0.2376643 -0.42966056 0.2994609 0.38424742
-0.4052241 -0.23395962 0.1607262 0.02815632 0.57065696 0.11999019 0.597224 -0.31013668

bias f4 [40]
00000000: 99c2 b7bd 8df1 043f d4ec f13d 3893 493e
00000010: 8cd0 3cbf a751 91be 680c ef3d 0f13 d4be
00000020: acc9 a63b 2a47 01bf 53d0 17bf 21c3 aebe
00000030: 1026 dc3d 6afc 01be c61d 3c3e 1171 943e
00000040: 32ba 20bd fdc8 b73e 1a28 14bf d939 ddbe
00000050: a5a5 883e 5f92 91bf 16eb 043c 103f 87be
00000060: b297 84be 63c6 32be e1e7 64be 4560 4ebe
00000070: 6e29 5b3e ad82 08bf 888f 283e 50c8 d5be
00000080: b75d 81bf cb7b 133f beaa e8be 0cce f5bb
00000090: 3a5d 75bc 99b6 963c ccc5 3cbf 2825 9cbf
-0.089726634 0.5193108 0.118127495 0.19685066 -0.7375572 -0.28382608 0.11672288 -0.4142079
0.005089959 -0.5049921 -0.5930225 -0.34133247 0.10749447 -0.12693945 0.18370733 0.28992513
-0.03924007 0.3589553 -0.5787369 -0.43208197 0.26688877 -1.1372794 0.0081126895 -0.264153
-0.25896984 -0.17458491 -0.2235408 -0.20153911 0.21402523 -0.53324395 0.16461003 -0.4175439
-1.0106725 0.5761077 -0.45442766 -0.0075013693 -0.01497584 0.018397616 -0.73739314 -1.2198839

weight f4 [40, 40]
00000000: 5a73 aabe 4b23 c8be e6db 18be d912 01bf
00000010: e23c 0c3f c2ad 433f 4c3f 153e c20c 663f
00000020: 42ba 93be 551e 153f e543 263f 6bed 123f
00000030: 3122 32be a5d9 bfbd 319b efbd b87d 0dbf
00000040: 2350 7b3c ea92 86be 1ef7 fabe dd4f 603f
00000050: c865 efbe 4e70 443e 666e 6d3c f12a cebe
00000060: d1e7 153f d518 143e eea6 8dbe 8cc9 18be
00000070: 5229 46bd 6f18 453e 2888 7bbe d5d5 253f
00000080: 39f8 3a3f d789 8cbf 2bf0 1a3f fa40 4abf
00000090: 30f0 aabc 6248 293d 319a d9be aba9 c43d
000000a0: f0b4 15bc a71b 5cbf 6d31 38bf 166b 68bf
000000b0: a3b9 d23e 4f17 933f afa8 613f 45df 643f
000000c0: 51cf 6d3e fe92 0a3f a630 713f 32c0 c03e
000000d0: 54a7 41bf 6967 3bbd 99c7 e4be dbab c9bf
000000e0: d9f7 b3bd 216f 773e 32ae 023f 14b1 273e
000000f0: 52f1 5dbf c91c 0c3e 6669 a53f af30 d23e
00000100: 83ec 313e b08b eb3c fb77 6abf 0802 aabf
00000110: d937 0e3f de46 093f d0c8 5dbf 5359 163f
00000120: 33d8 5c3f b8d1 92bf 76b4 9e3f 7025 13bf
00000130: a844 673f 0db6 aabf 8c83 1b3f b632 173f
00000140: b4de 8e3c d4ac 57bd 1c4a 1cbe 37c5 223d
00000150: fe1b 6a3f 1956 5c3f 0946 133f 0c5c 393f
00000160: b5e4 d63d 135c 233e f377 4f3d a16d e3be
00000170: 7478 81bf f63d 5dbe 1306 7cbe 90cc 45bf
00000180: e59e 21bc 57b3 29bc def1 0a3f f51d c73e
00000190: 09b0 8abe ce58 833f a0e5 753f 940d 033f
000001a0: f92f a9be 8dc2 fa3e 53ab 43be 0992 c0bd
000001b0: 26d4 e73e 9068 803f 140e 46bd 57f2 143d
000001c0: b734 b63e 4bfb 5bbf 48f6 433f ccca 4c3e
000001d0: 180d 553e fe8b 1bbf 8a5a 0b3f 31ce 8d3f
000001e0: dcf7 61bf 5457 bf3e d9a9 613c 6dd4 19be
000001f0: 695b 1240 1195 143e 188b f63e 1469 6e3d
00000200: 13ac afbf c2bd d83d 83fc 553e 7265 ed3d
00000210: ab4d 3bbe badb 3dbf bd98 7e3e 0d11 9abe
00000220: d186 08bf 2a6b bcbe 08c7 5f3e 4fcf 1b3f
00000230: f3c9 b53f 1d8a 713e ee08 a4be bb22 f7bc
00000240: 9e4c 053e 3d17 e73f 561c 22bf 49c0 d3be
00000250: a4fc 86bf 042e 1ebe 8594 9d3f 314d 94bf
00000260: 9241 1440 5984 7bbf 02e1 e6be 94d4 02bf
00000270: a7c1 d2bf 5dec 1cbf 0df7 49bc 2773 603f
00000280: 58a8 b63d 0644 81bd 0963 c7bd e59d f9bd
00000290: a9af 853f ae2b 6e3f 0af6 de3e e124 5d3f
000002a0: c4fb 263e 1483 803e f78c 8b3e 408d 15bd
000002b0: cedd a8bf 3393 e1bc b8d1 21be e038 2abf
000002c0: 06b9 dabd 5413 853d ac8b 133f 7fc8 153f
000002d0: 5c3c 0a3e 4c31 2b3f 2505 8d3f 54e7 053e
000002e0: d8d8 03be e460 623f 6266 c8be e8d4 12bf
000002f0: 8da8 44bd c342 673f 8962 923d ab1f d73e
00000300: ace4 2a3f f4df 85bf 1f3d 693f 7e6d 12be
00000310: c782 423e 01df 6abf 5d37 293f 32ff 943f
00000320: 1d9b 363e f3a1 5f3e 2bbd 05bf f1c2 04bf
00000330: f667 23bc 71e0 10bd 0cea 953d 4907 39be
00000340: 5c8e 9ebe 387c ed3e 44b3 ff3d 6d50 3ebe
00000350: def4 1fbf ccf9 d23e bea8 6dbe ad27 a03e
00000360: 0b6f 013f 5f07 853f f5db 063f 8739 d93e
00000370: 946d 6f3e 7823 833f 8bf8 90be 701f 34bf
00000380: a04d e93e 0f94 91bb fa1f 4abe cfcf 813e
00000390: dce8 72bf 80bd 0ebf e52b 613e 96b5 c73e
000003a0: 10de 2fbd 6c2b 323e e19a 283e 4acc 11be
000003b0: 9534 3fbf 3728 e1bc 0b7e 413f 72be 993f
000003c0: cb1d b4be 95b7 0f3f 6fcb 1bbe 8e6b 113f
000003d0: 3bd6 573e 6b82 edbe cdf9 fbbe aaef 29bf
000003e0: cb75 343e 3533 9cbf 4122 9abf f359 b0bf
000003f0: 7553 0d3e 6985 88be 96b7 8dbe d14f da3e
-0.3329113 -0.39089426 -0.14927635 -0.50419384 0.547804 0.7643701 0.14574927 0.89863217
-0.2885304 0.5824941 0.6494735 0.5739352 -0.17395855 -0.09367684 -0.11699522 -0.55269957
0.01533893 -0.26283962 -0.4901666 0.8762186 -0.4675734 0.19183466 0.014491653 -0.40267137
0.5855685 0.14462598 -0.2766642 -0.14920634 -0.04837925 0.19247602 -0.24563658 0.64779407
0.7303501 -1.0979565 0.6052272 -0.79005396 -0.020866483 0.041328795 -0.4250045 0.09602674
-0.009137377 -0.85979694 -0.7195042 -0.907884 0.41157255 1.1491488 0.88148016 0.8940318
0.23223616 0.5413054 0.94214857 0.37646633 -0.7564595 -0.045752916 -0.4468353 -1.5755571
-0.087875076 0.24163486 0.5104705 0.16376144 -0.8669635 0.13682856 1.292279 0.41052768
0.17375378 0.028753132 -0.91589326 -1.328187 0.55553967 0.5362376 -0.8663454 0.5873005
0.86267394 -1.1470251 1.2398822 -0.57479 0.90339136 -1.3336807 0.607476 0.59061754
0.017440178 -0.052655056 -0.15262645 0.03973886 0.9144896 0.86068875 0.5752874 0.7240608
0.10492841 0.15953092 0.050651502 -0.44419578 -1.0114884 -0.21605667 -0.24611692 -0.7726526
-0.009864544 -0.010357699 0.5427531 0.38890043 -0.2708743 1.0261476 0.96053505 0.51192594
-0.33044413 0.48976555 -0.19108324 -0.09402854 0.45279044 1.003191 -0.04835327 0.036363926
0.35587093 -0.8593032 0.7654767 0.19999236 0.20805776 -0.60760486 0.54435027 1.107855
-0.8826883 0.37371314 0.013773405 -0.1502244 2.2868292 0.1450999 0.48152995 0.05820568
-1.3724388 0.105830684 0.20897107 0.11591615 -0.18291347 -0.741634 0.24862953 -0.30091134
-0.53330714 -0.3680051 0.21853268 0.608632 1.4202255 0.23587842 -0.32038063 -0.030167928
0.13017508 1.8053967 -0.6332449 -0.4135764 -1.054585 -0.15447241 1.231095 -1.1586057
2.316502 -0.9824882 -0.45093542 -0.5110562 -1.6465348 -0.6129816 -0.012326968 0.8767571
0.08918828 -0.063118026 -0.09735686 -0.12188319 1.0444232 0.930354 0.43547088 0.863844
0.16306978 0.25100005 0.27255985 -0.03651166 -1.319269 -0.02753601 -0.15802658 -0.66493034
-0.10679822 0.06497827 0.57635 0.5850906 0.13499588 0.66872096 1.1017195 0.13076526
-0.12875688 0.88429093 -0.39140612 -0.5735612 -0.048012305 0.90336245 0.071477 0.42016348
0.66755176 -1.045897 0.9110889 -0.1429958 0.189952 -0.91746527 0.661001 1.164038
0.17832609 0.21839122 -0.5224177 -0.51859957 -0.009973517 -0.035370294 0.073200315 -0.18069185
-0.30967987 0.46383834 0.12485364 -0.18585368 -0.6248301 0.41206205 -0.23208901 0.3128027
0.50560063 1.0392874 0.5267938 0.42426702 0.23381644 1.0245199 -0.28314623 -0.7036047
0.45567036 -0.004442699 -0.1973876 0.25353858 -0.94886565 -0.55757904 0.219894 0.39005727
-0.042936385 0.17399377 0.16465332 -0.14238086 -0.7468961 -0.027484996 0.7558295 1.2011244
-0.3517898 0.561395 -0.15214323 0.5680474 0.21077816 -0.46388564 -0.4921402 -0.66381323
0.1762306 -1.2203127 -1.2041703 -1.377745 0.13801368 -0.26664284 -0.27679127 0.4263902

bias f4 [40]
00000000: 1370 26be 8ad0 4fbf 4d8f 44bf fca6 84bf
00000010: 3352 86bf de0b 61be ed59 d7bc b0be 2dbf
00000020: c7a1 bc3e ef0d 66bf cd9b eebd fb6a 04be
00000030: ea30 29bf 160f 2a3d 3459 84be 7064 a6be
00000040: e6f6 80be 2286 bd3e 404b 03bf 71fb 38bf
00000050: 4a45 dabe cbad f9bd e919 f9be 6e4e 12bf
00000060: 98bc 4ebf 2479 6cbe 6025 2ebf 363c e6be
00000070: 5324 7abd fb80 15bf dead 37bf fa96 2ebf
00000080: 740d f1be 528c 08bf 56a6 94bd 00de a8be
00000090: 9424 c6bf f95b b6be 5a9a d5be 673c 3e3c
-0.1625369 -0.8117758 -0.7678116 -1.036346 -1.0493835 -0.21977183 -0.026287997 -0.6786909
0.36842176 -0.8986501 -0.116508104 -0.12931435 -0.6609026 0.041518293 -0.25849307 -0.32498503
-0.2518837 0.37016398 -0.512867 -0.7225867 -0.42630988 -0.121913515 -0.4865258 -0.57150924
-0.8075652 -0.23093086 -0.6802578 -0.44967812 -0.061069798 -0.58399934 -0.71749675 -0.6819912
-0.47080576 -0.5333911 -0.072582886 -0.32981873 -1.5479913 -0.35617045 -0.41719323 0.011611081

weight f4 [4, 40]
00000000: a4dc 0f3f 9a4e 79be 79a2 5bbe 5d51 0ebf
00000010: e752 92be 9e0e e6bd 4dbb 463e 1847 20be
00000020: 7493 9b3d 7d15 a4be 4848 debd d320 733e
00000030: 55b2 c53e eb8b cc3e 4f88 4bbe 6d4e 273e
00000040: 44ce 1c3e 7adb 8cbd 1f98 843e f04e 393e
00000050: 8375 dc3e e7b5 0bbf b9d3 383e 1ce1 033e
00000060: 61df 94be 02d0 e73e 10a1 3dbe 09d3 96bd
00000070: 33ff 3d3f ba3f 21bf 1eca 663d 3d46 57be
00000080: acbf da3e 45b6 bc3d 3974 ac3e 2de1 a93d
00000090: 9a70 a4bc 996a 9c3d 801f cbbe a6b7 9fbe
000000a0: db4b 863d 681b eabe 056e f7be 2392 2abf
000000b0: 93b4 1ebf a625 ccbd c218 a0bd b50b c3be
000000c0: 15c8 3fbd c866 43bf 8a9b 383e 53a6 4abd
000000d0: 2bb7 083e 4661 d3bd 0e38 12be 4217 8b3d
000000e0: 2693 e23a 5bac c2bd f4e6 6e3d d731 10bf
000000f0: 26a2 1c3e c4e0 f4be 2e14 97bf cde0 7ebe
00000100: e9b8 21bf 00ba 4bbe 0abb 10bf 72e5 693e
00000110: 92c6 cabd 743d e8be 6413 29bf d2b5 f6be
00000120: 7563 bcbb dcff 353e 2789 c7bc 7be0 50bf
00000130: 882a 45bf 8bc2 6f3d 067f cbbd 03c8 78bd
00000140: bfdd d6bd 0cf2 4ebf 34bb eabe bda1 14bf
00000150: 1be6 c4be 03de 343f 5962 063f b05b 5bbf
00000160: 5bfb 223e d32d e9be 1bce 033d f1b4 ed3e
00000170: fa00 d93e 167a 283e a4ac 18bf 2275 17be
00000180: baad 303e 2bb3 233e f9f4 c8bd 3611 18bf
00000190: 1986 c53e 461a debe 1419 03bf 5b45 2dbe
000001a0: 2168 f9be 5d5c adbd 3b44 89be c856 61be
000001b0: fd3f 003f 2aff a3be 0fb3 89bf bacf 79be
000001c0: 50fb 76be ac2b 9d3e c5f9 7cbc d5f9 89be
000001d0: ea5c 8ebf b6e2 d5bc 36e6 99be 5088 09be
000001e0: 0e9b 95be 567c 56bf 874d 6c3c 5642 7fbe
000001f0: 2e1b 6d3c c670 dfbd bc76 103e 5d40 d8be
00000200: cb4c 99bc 53a5 17be 1b08 223f 0c48 533e
00000210: e066 653d 5fae 0c3e 1c64 d03c cf0e 8f3e
00000220: 3bae 573e e357 3ebc 870c 823d 6bd8 d2be
00000230: 6744 293d 51f2 e1be dea7 70be b062 13bf
00000240: 061c 2ebf 1d75 a63c 4555 34bf e40f bfbb
00000250: bdd8 a53e bd24 c7be 267a 0dbf 6aa8 89be
00000260: 08be d3bd 14a1 c93e 3704 4a3e 7479 4cbe
00000270: 673d 32be bb0a ffbe 2d47 ddbd 9d3b 013e
0.56196046 -0.2434639 -0.21448697 -0.555929 -0.28578874 -0.11233257 0.19407387 -0.1565212
0.07596484 -0.32047644 -0.1085363 0.2374299 0.3861262 0.399505 -0.19876216 0.16338511
0.15313059 -0.06877799 0.2589731 0.18096519 0.43058404 -0.54574436 0.18049516 0.12878841
-0.29076675 0.45275885 -0.18518472 -0.073644705 0.7421753 -0.62987864 0.056345098 -0.21022888
0.4272436 0.09214453 0.3368242 0.08294902 -0.020073224 0.076375194 -0.3967247 -0.311948
0.06557437 -0.45724034 -0.48326126 -0.66629237 -0.61994284 -0.09968118 -0.07817222 -0.3809487
-0.046821672 -0.76328707 0.18028083 -0.049475025 0.13351123 -0.10321288 -0.14279196 0.067915455
0.0017286285 -0.095055304 0.058325723 -0.5632605 0.1529623 -0.47827733 -1.1803033 -0.24890442
-0.63172776 -0.19895172 -0.565354 0.22841433 -0.099011555 -0.45359385 -0.6604521 -0.48185593
-0.005749161 0.17773384 -0.024357392 -0.8159253 -0.7701802 0.05853514 -0.09936337 -0.06073762
-0.104915135 -0.80838084 -0.4584595 -0.58059293 -0.38456807 0.70651263 0.52493817 -0.8568678
0.15916197 -0.45542774 0.03217898 0.4642711 0.42383558 0.16452822 -0.5963843 -0.14790776
0.17253771 0.15986316 -0.0981235 -0.5940126 0.3857887 -0.4337942 -0.5121014 -0.16920988
-0.48712257 -0.084648825 -0.26809868 -0.2200576 0.5009764 -0.32030612 -1.0757769 -0.24395648
-0.24119306 0.30697381 -0.015440409 -0.2694842 -1.1122105 -0.02610908 -0.3005845 -0.13430905
-0.2921986 -0.8378347 0.014422781 -0.24927649 0.014471812 -0.10910182 0.14107794 -0.42236605
-0.018713376 -0.1480916 0.6329362 0.20632952 0.056006312 0.13738392 0.02543836 0.27940986
0.21062557 -0.0116176335 0.06350046 -0.4118074 0.041325 -0.44130185 -0.23501536 -0.5757246
-0.6801151 0.020319516 -0.7044261 -0.0058307517 0.3239192 -0.38895217 -0.5526451 -0.26886302
-0.1033898 0.39380705 0.1972817 -0.19968206 -0.17406236 -0.49812874 -0.10804591 0.12620397

bias f4 [4]
00000000: 9a5a 823c 9529 793f 0b21 563f c58a 18be
0.015912343 0.97329074 0.8364417 -0.14896686

weight f4 [60, 2]
00000000: d784 5d3e 7d8a 143e 8fc8 5cbf 212b 01c0
00000010: 1a57 1bbf 1dac 67bf 58cd dbbb fe38 b7bd
00000020: 3e8b 703e f447 9bbe 19aa 2dbf 13c1 36be
00000030: 8085 b13e 8e27 d7bd d8a3 a63e 897b a73f
00000040: cc11 493e 57a7 00be 7fd2 1e3e 6c39 3c3e
00000050: e140 60be 10fb bbbe 31d2 18bf 1a8f 1dbe
00000060: 99fe be3f 3159 293e 4972 c93d 74ad 6bbe
00000070: 576c 8e3e c1c3 8f3f 9f3f 283b 66a6 fb3f
00000080: 79d8 18be 66c9 cfbe 4e7e 4a3f 040c dcbf
00000090: 03fa 31bf 7452 92bf 77c7 40bf 2436 e8bd
000000a0: 6811 06be 2a44 963e b55f 32bf 732e 30bf
000000b0: 7e6d b43e 08ae 35be 76c9 aa3e 82e0 ad3e
000000c0: 6a2f 4c3e ac49 66bf 4728 8cbd 880e 563f
000000d0: 9aac 7bbf 6a99 98bf d956 4dbf a304 8dbf
000000e0: 25ed 4abf 57c2 c3bf d644 4dbf 23fc f9be
000000f0: 4631 033f 9b29 ac3f 9e3e 2ebf d1fe 733f
00000100: 3729 743e 9d05 823e 7eab 773f 80f6 6a3f
00000110: 618f aabd 7d53 ecbf 8a81 45be 5ad2 d1bd
00000120: 06f6 80bd 42c9 8c3f 33d7 d2bd 1563 4d3f
00000130: ab8b 06bf 443e 263e 785f a6be a986 c1be
00000140: 5360 03bf 8bc4 efbf 3c9c 48bf 2c5c abbb
00000150: bcef 2bbf 5313 0dc0 f347 4fbe 2271 4a3e
00000160: a536 5bbf be69 56bf 9d97 1dbf b2b0 043e
00000170: f219 0d3e 48af 2d3e 679e a73d 8881 953e
00000180: 3214 903d 79f8 bbbd add7 98bf 00ab a2be
00000190: 5cad 02be 5d7e ec3e e2a9 653f 31bc b4be
000001a0: 700a 38be c962 703f 8c7a 3a3e f830 d83d
000001b0: 8674 bbbd 8d35 183e de64 babd a421 05bf
000001c0: 0977 15bf a578 11c0 4860 823e 2b42 053e
000001d0: 900d 34bd 4433 27be dfd6 73bf f03a 5fbf
0.21632706 0.14505954 -0.8624353 -2.0182574 -0.6067978 -0.90497 -0.0067078285 -0.08946417
0.23490617 -0.30328333 -0.67837673 -0.1784709 0.34672165 -0.10505591 0.32546878 1.3084575
0.19635695 -0.12563835 0.15509985 0.1838128 -0.2189975 -0.36714983 -0.59695727 -0.1538662
1.4921447 0.1653793 0.09836251 -0.23015386 0.27817032 1.1231614 0.0025672687 1.9660156
-0.14926328 -0.40583342 0.79098976 -1.7191167 -0.6952211 -1.1431413 -0.7530436 -0.113384515
-0.13092577 0.2934888 -0.6967729 -0.68820876 0.35239786 -0.17742169 0.33356827 0.33960348
0.19939962 -0.89956164 -0.0684362 0.8361592 -0.98310244 -1.1921818 -0.80210644 -1.101704
-0.79268104 -1.5293683 -0.8018316 -0.48825178 0.5124706 1.3450197 -0.68064296 0.95310694
0.23843847 0.25394908 0.9674605 0.9178238 -0.083281286 -1.8462979 -0.19287696 -0.102451995
-0.06296925 1.0998919 -0.10294952 0.8022931 -0.52556866 0.1623469 -0.32494712 -0.3779805
-0.51318854 -1.8731855 -0.78363395 -0.0052294936 -0.6716268 -2.2043045 -0.2024229 0.19769719
-0.85630256 -0.837551 -0.6155947 0.12958029 0.13779429 0.16961396 0.0818451 0.29200387
0.07035102 -0.09178252 -1.1940819 -0.31771088 -0.12761444 0.46190158 0.89712346 -0.3529983
-0.17972732 0.93900734 0.1821081 0.10556215 -0.091530845 0.14864178 -0.0910127 -0.52004457
-0.5838476 -2.2729886 0.25464082 0.13013522 -0.043958247 -0.1632815 -0.9524974 -0.87199306

bias f4 [60]
00000000: 6fb7 3fbf 876e b33f 0c07 1a3e fd63 04be
00000010: f93e 24bf a8ee 363d b667 2ebf 44f8 1d3e
00000020: 739a c5be 7f9e c3be f2be ca3e 3f76 793e
00000030: d8bc b53f d628 e9be 8a8d 9b3e 0be8 9abd
00000040: f19e 06bf fa1e c53e e6d5 be3f ccf6 7a3e
00000050: e354 6d3e cb25 de3e c98d 31bf 8a80 27bf
00000060: 2aa1 6fbf 1f60 40bf 0120 90bc 4355 943f
00000070: d64a a93f ff39 a53e 2589 8abe e107 15bf
00000080: 0e45 0ebf 97b7 343f c255 9e3f 8021 02bf
00000090: 6ca8 903b e5a8 4dbf 0a02 d33e 28c7 68bf
000000a0: bf18 ad3f c215 243e 2744 c83f fa8b b9bd
000000b0: 25e3 7d3e 28dc 483d 85f3 96be b1ff c23e
000000c0: 78a4 abbe afae a73e 275e 25bf a08a 8ebb
000000d0: 1415 62bf 38e0 30bf 5544 70bc 4ad9 49bf
000000e0: 4c87 b63f 340c 28bf fe9c 34bf 636b dc3e
-0.7488927 1.4018105 0.1504175 -0.12928768 -0.6415859 0.044661194 -0.68127 0.15426737
-0.38594398 -0.3820686 0.39598805 0.24361514 1.4198256 -0.45538968 0.30381423 -0.0756379
-0.52586275 0.38500196 1.4909027 0.24508208 0.23176913 0.4338821 -0.6935697 -0.6543051
-0.9360529 -0.7514667 -0.017593386 1.158852 1.3225963 0.3227081 -0.27057758 -0.5821515
-0.5557412 0.70592636 1.2369921 -0.50832367 0.0044146087 -0.8033584 0.41212493 -0.9092889
1.3523177 0.16023925 1.5645798 -0.090599015 0.2479368 0.049038082 -0.29482666 0.38085702
-0.33523917 0.3275046 -0.6459679 -0.0043500215 -0.8831341 -0.6909213 -0.014664729 -0.7884718
1.4260039 -0.6564362 -0.7055205 0.4305068

weight f4 [60, 60]
00000000: e507 943e d5d2 ebbd 5175 cd3e 748e d63b
00000010: 2aa5 3c3e 9ede b53e 2741 36bd 1894 efbe
00000020: e51b fabd 52fd ffbc c654 e3be c65f cabe
00000030: 812e cbbe 10a9 04bd abc4 02bf 3dea d5be
00000040: 9725 e8bd 3ec2 0abf abbb 46be 946e df3e
00000050: c763 b6be cee0 f43e 302d f03c e916 c5bd
00000060: 123a 43bd e31f bd3e 4d2c d93e 1e81 583e
00000070: b3f2 0fbe 8a8c fdbe 5d02 acbe 0da4 a93e
00000080: 6c8d 3d3d 1c1d ccbe b99c 44bf bcb9 173e
00000090: 7dd4 bdbe 739e bc3e cb57 b2be 8ff9 533e
000000a0: f8ac 78be 6c71 fcbe 5e43 3dbf c32f 8bbe
000000b0: 4cbc a03e 8aff 8fbe 4f59 bb3d 0f8c cfbe
000000c0: 373f a6bd caf8 793e 43ec 703c 4923 f1be
000000d0: 4fa2 973e 8425 053d 5503 febe 6478 21bd
000000e0: 1d0c 1fbf 1dab 693e a8b4 dabc 7198 cfbe
000000f0: 1967 1bbf 7695 36bf 73b2 e9be de66 88bc
00000100: 3572 c6be 4ef9 0d3e 31d5 493d 3c1b 61bf
00000110: f1c9 003e bf66 38be 6170 acbe 7762 b2be
00000120: e93f 48bf 2500 4cbe a074 4d3c 3edf 543f
00000130: f583 88bf c957 b4be 3041 66bf 5b4e 81be
00000140: 9894 4bbf f720 73be 9adf 89bd e0a2 8ebc
00000150: c36b 51bf 33f4 ba3e 73c5 2fbe 7c9b fabe
00000160: 7abe eabe 0467 173e 4232 99be 0179 db3e
00000170: a6d9 563c cb05 b5be eaad 06bf 1174 82bd
00000180: 9a0d 0fbf ca48 053f 096f 00bf 49a7 22bf
00000190: 86c2 31bf a8cb 78be 2c04 46bf 8574 e6be
000001a0: 3da5 a4bc 896c 7dbe c5ae 86be b7a3 20bf
000001b0: ed1d f1bb b90a 4f3d 7ec2 81be 564b 5ebf
000001c0: c385 9a3e eae2 fe3d ae62 d6be 2fbe b3bd
000001d0: 4121 4dbf 5eb6 a7bd c84f 5b3d c38f 673e
000001e0: 47a4 643e 236a aebf 528c 83be 1e01 eabc
000001f0: aefb efbd 97ba 2bbf 8da1 4d3d 7ec7 1cbf
00000200: ae37 edbd 51af 48bd 514e 0cbf 8929 04bf
00000210: 8502 aebe 854b 30bd f983 babe 86b9 d7be
00000220: dace e8bd 2a34 a1be 532c 96bf 8c5c 19bf
00000230: adbb d7be 94fd dbbe f66c dc3d 9433 c53d
00000240: fc40 1f3e 9c11 dbbd 8471 f9be 4f9c a9bf
00000250: 81bd e3bf 3a4c 10bf 470b 6dbe 5b37 b83c
00000260: f187 183e 0237 0dbf a3d8 7ebf 8a1b 03bd
00000270: 0ea1 07bf 18b2 25be 4318 c5be 30a5 94bd
00000280: bba7 bcbf 0b35 22bf 90e7 11c0 4298 f8be
00000290: 32db 29bf d08b f3be d1c1 4e3e e15c a6be
000002a0: cfb1 90bd 4bb6 26bf dcc7 60bd 6276 18be
000002b0: 4b2a a8bd 205d 823b 9cae 20bf 133a 183e
000002c0: 1acb d1bf c5e4 20bd b664 c0bd ced1 35bf
000002d0: 46a5 35bf c9aa 08bf 0c5f b7be f84b 493d
000002e0: 7954 14be f9d1 c3be 8860 2d3e aaea 1bbf
000002f0: 9039 4a3e afe2 aebd 2fd9 24bf 9063 05bf
00000300: 1b76 19bf f852 f7bc 11dd c9be 23ee 60bf
00000310: 0e87 13bf 4550 2bbf 7e38 a1be 49f0 043d
00000320: 2a14 28bf b300 1bbe 002b dd3c 80c1 ec3a
00000330: 05dd 6ebe 48e6 0cbe eca0 b5bd ec00 f3be
00000340: c7b9 15bf c54f 42bf 3f88 09bf c05c a7be
00000350: d530 853d e7a5 21bf 0d11 48bf d1be 9abd
00000360: 2cb0 2dbf 3e14 2bbe 3c1b 26bf ea9f a73d
00000370: a123 bcbd 8689 30bf 3606 49bf 888a 43bf
00000380: 65e5 e5be 4c56 30bf fb99 8fbe 26f5 2ebf
00000390: b940 623c 0832 64be f534 1bbe 0c70 efbe
000003a0: 36f5 b2be a04a d1bc bbb3 efbe 53cf 45be
000003b0: d16c 2abf c729 aabe 2493 1c3d 7c65 3cbf
000003c0: df7a 3c3e 4375 123f 679a 153f d692 0fbe
000003d0: ce00 ad3d 73c9 813e 059f 89bd 89ad 9ebe
000003e0: 6985 23be 7b36 d73c 2bc5 f63e 7b41 a93e
000003f0: 35f1 47be 4890 30bd 3e5b 58be 4ab0 d23e
0.28912273 -0.115148224 0.40128568 0.0065477435 0.1842238 0.35521406 -0.044495728 -0.46792674
-0.12212352 -0.031248722 -0.44400615 -0.39526194 -0.39683917 -0.032387793 -0.5108134 -0.41780272
-0.11335295 -0.5420264 -0.19407527 0.43639052 -0.35623 0.47827762 0.029318422 -0.096235104
-0.047662802 0.3693839 0.4241661 0.21143004 -0.14057426 -0.49521285 -0.33595553 0.33132973
0.04627745 -0.3986596 -0.7680164 0.14816946 -0.37076178 0.36839637 -0.34832606 0.20700668
-0.24284732 -0.49305284 -0.7393092 -0.27184877 0.3139366 -0.28124648 0.09147894 -0.40536544
-0.08117526 0.24411312 0.014704767 -0.47097233 0.2961602 0.03250648 -0.49611917 -0.039421454
-0.6212786 0.22819181 -0.026697472 -0.4054599 -0.6070419 -0.7132181 -0.45643958 -0.016650613
-0.38759008 0.13864633 0.04927558 -0.8793218 0.12577035 -0.18007945 -0.33679488 -0.34840748
-0.7822252 -0.1992193 0.012540013 0.8315314 -1.066527 -0.35223225 -0.8994322 -0.25255093
-0.7952361 -0.23743044 -0.06732102 -0.01741165 -0.81805056 0.36514434 -0.17165165 -0.4894675
-0.45848447 0.14785391 -0.29921156 0.42865756 0.013113415 -0.35355982 -0.5260912 -0.06369794
-0.5588013 0.5206419 -0.50169426 -0.63536507 -0.69437444 -0.24296439 -0.77350116 -0.45010772
-0.020098323 -0.24748434 -0.26305214 -0.6274981 -0.0073583038 0.050547335 -0.25343698 -0.86833704
0.30180177 0.12445624 -0.41872162 -0.08776509 -0.80128866 -0.08189081 0.053542882 0.22613434
0.22328292 -1.362614 -0.25692993 -0.028564986 -0.11717926 -0.6708159 0.050202895 -0.612419
-0.11582886 -0.04899532 -0.54807 -0.5162588 -0.33986297 -0.04304077 -0.36428812 -0.4213373
-0.11367579 -0.3148511 -1.1732277 -0.5990684 -0.42135373 -0.42966902 0.1076297 0.09628978
0.15552133 -0.10696718 -0.48719418 -1.3250827 -1.7792207 -0.5636631 -0.23148833 0.022487333
0.14895608 -0.5516206 -0.9954931 -0.032008685 -0.52980125 -0.16181219 -0.38495073 -0.072580695
-1.4738687 -0.6336219 -2.2797585 -0.48553663 -0.6635009 -0.47567606 0.20191123 -0.32492736
-0.07065164 -0.65121907 -0.0548781 -0.1488891 -0.08211192 0.0039783865 -0.6276643 0.14865904
-1.6390107 -0.03928067 -0.09394209 -0.7102326 -0.7095531 -0.533856 -0.35814703 0.049144715
-0.14485349 -0.38246134 0.16931355 -0.60904944 0.19748521 -0.0853933 -0.64393896 -0.52105045
-0.5994584 -0.03019093 -0.39426473 -0.8786337 -0.5762795 -0.66919357 -0.31488413 0.032455716
-0.6565577 -0.15136985 0.026998043 0.0018063039 -0.233265 -0.1375972 -0.08868584 -0.4746164
-0.584866 -0.7590297 -0.5372352 -0.3268795 0.065034546 -0.6314377 -0.7815102 -0.075559266
-0.6784694 -0.1670694 -0.64885306 0.08184798 -0.09186483 -0.68959844 -0.785251 -0.76383257
-0.44901577 -0.6888168 -0.28047165 -0.68342817 0.013809376 -0.2228471 -0.1515692 -0.46765172
-0.34952706 -0.02554828 -0.4681681 -0.19317369 -0.6657229 -0.33235 0.03822626 -0.7359235
0.18406247 0.5721018 0.58438724 -0.14020857 0.08447419 0.25349006 -0.06719784 -0.30991772
-0.1596886 0.026271095 0.48197302 0.3305777 -0.19525607 -0.043106347 -0.21128556 0.41150123

bias f4 [60]
00000000: ab41 e8be e374 7dbf ca60 ecbe cf84 28bf
00000010: 5a65 fbbd 5db0 ecbe 6bf2 8dbe 4cac 1bbf
00000020: 4adc 02bf 6d83 003e 0ff6 fcbe 49ff 8c3e
00000030: 43ff c7be 31b7 ab3e 56ce 043f 09f2 3bbf
00000040: 335d fdbe b5b3 bc3e 6b62 40bf 2be9 0fbf
00000050: 4e77 2fbf 926a db3e c0a1 bcbe 35d7 653f
00000060: 167b cdbe ba9b f73e 7621 103f 2192 26bf
00000070: 9646 e1be e6db 08be c4d6 1cbf 1c0a eb3e
00000080: 03e8 20bf c087 2a3f 42d1 13bf 2599 22bf
00000090: 625d fd3e 3ab6 a6be a5f8 1abf ed05 9bbd
000000a0: 0955 33be d0a1 433f 7c5b ccbd 6c30 d9be
000000b0: 7a3b 4b3f 72f1 f13e f7e5 a53e 3fbf 75be
000000c0: a381 5dbf 6130 fdbe b31a 7bbe 336a 283f
000000d0: 74ae d13e cea9 99bc f197 36bf c298 f53e
000000e0: 25f8 b8be 8a6b 173f 83b4 db3e ddc0 093f
-0.453626 -0.9900648 -0.46167594 -0.6582765 -0.12275191 -0.46228305 -0.27724013 -0.6080978
-0.51117384 0.12550135 -0.49406478 0.27538517 -0.39061937 0.335382 0.51877344 -0.7341619
-0.49485168 0.36855856 -0.75150174 -0.5621516 -0.6854142 0.42854744 -0.36842155 0.89781505
-0.4013297 0.48360997 0.5630106 -0.65066725 -0.43999165 -0.13365135 -0.61265206 0.4590615
-0.6285402 0.6661339 -0.5774118 -0.6351493 0.49485308 -0.32560903 -0.6053565 -0.0756949
-0.17512907 0.7641878 -0.09978387 -0.42419755 0.7938763 0.4725452 0.32402012 -0.23998736
-0.86525935 -0.49450973 -0.24521904 0.6578705 0.4095341 -0.018757727 -0.71325594 0.47968107
-0.3612682 0.59148467 0.42911157 0.5380991

weight f4 [60, 60]
00000000: ce24 9dbe 6553 173f af8a 533e 26dd a63e
00000010: 01f5 51be 396c 803e ed58 a2be 02c7 d53e
00000020: 1d02 253f 1ca6 2dbf e5e6 d93e ce9b 533e
00000030: 541d 963e b64f a9be 62d8 56be bef0 353f
00000040: d6a3 1b3f 7b7d 0abf a073 403f ac7b cb3e
00000050: 2360 4a3e 0f46 dd3e 858b 2b3f df28 ebbe
00000060: 81db afbe 852e 2dbf 3943 84be 3beb b23e
00000070: 694d 22bf 98cc 7bbe 636b e53e 1ae4 d8be
00000080: eb91 033f fedd 9fbe 787d 063f b569 0b3f
00000090: 7a7f 83be bcd2 723e 8ed4 353e e342 803e
000000a0: ac1e 863e 3c58 ebbe 1775 a1be b5b4 923e
000000b0: f71d a4be be3c 873e 27f4 853e 30ff 853e
000000c0: 3285 213f 868c 053f b8ef d23e 1509 b2be
000000d0: 58d7 84be 3909 a6be 6c77 bebe b388 aabe
000000e0: 570c ffbe c911 acbe 4151 20bf 1b57 abbe
000000f0: fb89 35bc a871 f93d 5f62 ec3e 223f 133f
00000100: 95b3 fabe b863 263f 2436 03bf ff7e 1f3f
00000110: 6260 173e 8b21 5abd 52be 1b3f 5eb3 1cbd
00000120: 6016 013f 2b42 b9be 8faf 09bf 7aea a63e
00000130: 86d9 323f f8d1 83be d25a b43e aa49 963e
00000140: 1da7 ea3e 3018 9abe 41de 373e f26b ddbe
00000150: 9ec0 c6be 13b5 b6bc 1ed7 e4be cfc5 ab3e
00000160: 1575 6a3e 5a94 22bf b6b8 053f cc5a 20bf
00000170: 6f4f 913e 03ff fbbe 211b 623e 95e8 fe3e
00000180: ee33 2abf 0ec7 b53d db9a fc3e 6e41 e53e
00000190: 0299 c5be c6fe fdbe c2e8 9dbe 9b38 1f3f
000001a0: e888 2abf 8df4 cdbe 1276 a73e a434 043f
000001b0: 6afc de3d 122a 0f3f 5592 4b3e 17f1 9abe
000001c0: f210 ccbe 7b10 383e ef8e 7e3e 1a73 96be
000001d0: fee9 42be 2c03 ff3d ad38 15bf 928f e1bd
000001e0: 1c3f 323d 6a20 19bf 51ca 0dbf 5369 e9be
000001f0: 5929 1e3f 20ed 49bf b918 1d3f 7f25 f8be
00000200: dd1a 05be c09f 4f3d e0f2 35bf c3bd 043e
00000210: 0b64 42bf 1a30 af3e a606 1d3f 9d46 a93d
00000220: 23e0 8ebc 15eb 303f 4625 01bf e031 1cbf
00000230: 72a6 2bbf e16a d03c ea18 9d3d f8d3 f73e
00000240: b008 193f 067c 14bf 2c5d d43e 60c8 8fbe
00000250: 5322 dcbe a03c be3e 8da4 fdbe 00d2 1d3f
00000260: 189b 08bf 1a3b 023f 99dc 4fbf ac36 13bf
00000270: 14a2 013f 2351 cdbd 5d8b 01bf c6ef 03bf
00000280: 90ba de3d e25c e53e 2174 a2bd 35e4 09bf
00000290: 680e 243f 2a65 f33d 4fd4 04bf 5175 38bf
000002a0: 5276 0c3d 2950 18bf d024 04be be6e 02be
000002b0: dc2f 133f 9193 12bf 4ee3 96bd a021 ab3e
000002c0: b497 823e cbc1 053f 6f7e 1e3f d93f b83e
000002d0: 28c5 88bc 0f7b 5e3e 343f 273f 2551 653e
000002e0: 74af c2bd dcce 693e c20d 513c 13ef a63e
000002f0: 0c91 3fbe 87c6 193e e892 623e 6f72 5b3d
00000300: baf7 5f3e 2992 30be aedf debe 17ae a4bc
00000310: ec0a 41be d1e6 c4be 6ad2 f43d 4e96 2abc
00000320: 0516 113e 1287 003e 5f5a 633d ae55 77bd
00000330: ba26 f2bd c9bd 27be 2373 84be 0bd8 033f
00000340: 5aa0 e73e 8e7a e9bd b507 a53e 0cfe ebbd
00000350: a8c7 1b3e 04d4 e7bd ecf7 9c3c fafb 753e
00000360: 5424 01be d632 233d de29 f23e 8558 103f
00000370: 016e 2eb9 ef4f 79be 5531 09be 7ee8 c23e
00000380: e86f d6be 6629 23be 4e3f b63e 53a6 4f3e
00000390: f035 a1be 049f e93b 69db 943e efa5 96bd
000003a0: 70a9 5dbf 5e54 503e 06a2 693d 550f 2ebf
000003b0: 58e3 c3be e725 59be 4651 a6be 6531 843e
000003c0: 2db3 413e 5309 50be 9b84 41be a76e 8dbe
000003d0: 9a3a d0bc f24f bcbe 7d1c a73e def7 ecbe
000003e0: 546b 7bbe ded3 9c3d 4dc7 74be 5772 4dbd
000003f0: 5b64 d4be 755e 003f 276e b43e aa4f febe
-0.30692142 0.59111625 0.20658372 0.32590598 -0.20503618 0.25082567 -0.3170847 0.41753393
0.6445635 -0.6783159 0.4255897 0.20664904 0.2931925 -0.33068627 -0.20980981 0.7107047
0.6079687 -0.5409772 0.7517643 0.39742792 0.19763236 0.43217513 0.67009765 -0.4592962
-0.34347156 -0.6764911 -0.25832537 0.34945092 -0.6339937 -0.24589765 0.44808492 -0.42361528
0.5139453 -0.31224054 0.525352 0.5445817 -0.25683194 0.23713201 0.17756864 0.2505103
0.26195276 -0.45965755 -0.31534645 0.28653494 -0.3205411 0.2641353 0.26162836 0.26171255
0.63093865 0.52167547 0.41198516 -0.34772554 -0.25945544 -0.3242891 -0.37200487 -0.33307418
-0.49814102 -0.3360732 -0.62623984 -0.33464894 -0.01108026 0.12179881 0.461688 0.5751821
-0.48965135 0.6499591 -0.5125449 0.62303156 0.14782861 -0.053254645 0.6083728 -0.038256995
0.50424767 -0.36183295 -0.53783506 0.32600766 0.69863164 -0.2574613 0.3522554 0.29353076
0.45830622 -0.3009658 0.17955877 -0.43246418 -0.3881883 -0.02230314 -0.4469537 0.33549353
0.22896226 -0.63507617 0.5223497 -0.62638545 0.28380916 -0.49217996 0.22080661 0.4978682
-0.6648549 0.08875857 0.49336895 0.4477648 -0.38593298 -0.4960844 -0.30841643 0.6219575
-0.6661515 -0.4022564 0.32707268 0.51642823 0.10887988 0.5592357 0.1988004 -0.30262062
-0.39856678 0.17975037 0.24859212 -0.2938469 -0.19034573 0.12451777 -0.58289605 -0.11013712
0.043517217 -0.59815085 -0.55386835 -0.45588169 0.6178184 -0.7887745 0.6136585 -0.48466107
-0.12998529 0.05068946 -0.7107372 0.12963013 -0.75933903 0.34216386 0.6133827 0.082654215
-0.017440861 0.69108707 -0.504475 -0.61013603 -0.6705085 0.025441589 0.076707676 0.48403907
0.5977888 -0.58001745 0.41477334 -0.28082561 -0.42994937 0.37155628 -0.49539605 0.6164856
-0.53361654 0.5087143 -0.8119598 -0.575053 0.50637937 -0.10025241 -0.50603276 -0.5153774
0.10875428 0.44797426 -0.07932306 -0.5386384 0.6408448 0.1188453 -0.5188646 -0.7205401
0.034292527 -0.59497315 -0.12904668 -0.12737557 0.574949 -0.5725642 -0.07367574 0.3342409
0.25506365 0.5224883 0.6191167 0.35986212 -0.016695574 0.2172663 0.65330815 0.22394235
-0.09506121 0.22832817 0.012759628 0.32604274 -0.18707675 0.15017138 0.22126353 0.05357593
0.21871844 -0.17243256 -0.4353003 -0.020102544 -0.18851823 -0.3845735 0.11954196 -0.010411812
0.14168556 0.12551525 0.055506106 -0.060384445 -0.11823793 -0.16380991 -0.25869092 0.5150153
0.45239526 -0.114003286 0.32232442 -0.11523065 0.15212882 -0.11319736 0.019161187 0.24021903
-0.12611514 0.039843403 0.47297567 0.5638507 -0.00016634913 -0.24346898 -0.13397725 0.38068002
-0.41882253 -0.15933761 0.35595173 0.20278291 -0.31486464 0.007129552 0.29073647 -0.07355868
-0.86586666 0.20344684 0.057039283 -0.67992145 -0.38259387 -0.21205865 -0.32483882 0.25818935
0.18916006 -0.20316057 -0.18898241 -0.27623484 -0.025418568 -0.36779743 0.32638922 -0.46282858
-0.24552661 0.07657598 -0.23904152 -0.05015787 -0.41482815 0.5014413 0.3524029 -0.49670154

bias f4 [60]
00000000: 9b34 6bbe 0918 2bbf 19d8 ea3e 0ff6 cbbd
00000010: c82a fe3e 0d8f bcbd 7f57 14bf 62f3 0dbf
00000020: f430 53be f42f cf3d ce0f d33e fd23 04bf
00000030: bd4c 2b3f acb7 ce3e 36f3 02bf ccbb 923e
00000040: fd52 88be 35f0 b93c c6f1 d23e 0146 f63e
00000050: 3a2f 9ebe c207 1abe 842d 25bf 2597 e13e
00000060: a7f0 ca3e 97f3 403e 6470 bdbe 625a 89be
00000070: c4ef bcbe 4353 0c3f f033 0dbf 05d4 30bf
00000080: 38fa aa3e 854f 1a3f bc95 d0be 0ab6 f8be
00000090: 32e5 c4be 485c 203f 2a07 07bf ed79 13bf
000000a0: c20e 1ebf be28 193f c43c 9abe dd27 fabd
000000b0: cd4a eb3e 784a b53e 3479 11bf 7737 bd3e
000000c0: 4e8b 013f f5f9 8fbe fc01 093f d589 653f
000000d0: 1b03 863e a762 ce3d 1e45 eebe 328d e63e
000000e0: a52b 283f bf89 f4bd 3729 9bbe d32d 72be
-0.22969286 -0.6683355 0.45867994 -0.09959041 0.49642015 -0.09206972 -0.5794601 -0.554495
-0.20624143 0.10116568 0.41222996 -0.51617414 0.6691397 0.40374506 -0.5115236 0.28658903
-0.26625815 0.022697547 0.41200083 0.48100284 -0.30895406 -0.15042022 -0.64522576 0.44060627
0.39636728 0.18842922 -0.3699981 -0.2682677 -0.36901677 0.5481455 -0.55157375 -0.69073516
0.33394027 0.6027759 -0.40739238 -0.48576385 -0.38456112 0.6264081 -0.52745306 -0.5760792
-0.6174127 0.5982779 -0.30124485 -0.122146346 0.45955506 0.35408378 -0.56825566 0.3695638
0.5060319 -0.2812039 0.5351865 0.8966344 0.26174244 0.1007741 -0.46537107 0.45029598
0.65691596 -0.119403355 -0.30304882 -0.23650293

weight f4 [60, 60]
00000000: f7af 343d a759 b83e 355e d6be efc3 833e
00000010: 58e5 87bd f51e 563d 0d39 db3e 528f f63e
00000020: 5e29 d03e fe32 24be 63be 0c3e 6346 f33e
00000030: 8236 b8be 217a b4be 1fe9 7e3e ada1 963c
00000040: 2deb 883e e0ec aa3e 5b4e e5be 5b85 06bf
00000050: afcc 02be 905a 113e f450 d43e 5dc7 d1be
00000060: 9c70 c7be f178 da3d fee3 243f 7cd1 103e
00000070: 64a1 283f 58c1 adbe ac33 273f e5c1 cb3e
00000080: f65c b5bd 0e1b 48bf 68d3 003d 1ebf e33e
00000090: 8002 e33e c620 adbe f368 fb3e b30e e73e
000000a0: 29f7 ee3e 46a5 3bbf 786d d23d e693 8c3e
000000b0: ffe5 8ebe 7a65 e93c c5e2 e63e bb73 d5be
000000c0: 6a27 38bf b795 023f 2a51 b5be cde4 96be
000000d0: c7c2 b1be 49c6 f63e 0ad2 483f e8a2 b6be
000000e0: 08fd e8be 82e2 f83d 2135 58bd 5f6e b6bd
000000f0: 5c18 a2be bbce 833e c08a 1ebe 6fad b33e
00000100: 36a5 2dbf dc31 71be 360e 6f3e dc6c 473e
00000110: 4e80 e33e 3128 48bf ed93 783e e6cb 8b3e
00000120: 9ba2 adbe 25d1 d2be 2e11 0e3f 33e4 403f
00000130: 7bbe 2b3f 60b5 233e 3fce eabd b9f3 aebe
00000140: d761 64be 8526 9fbe 3ab9 a73e 2a79 18be
00000150: 6875 a6be b2c8 043f 343d 2b3e 0472 563f
00000160: f080 733e d7f5 f6bd 3796 8b3e 4c1f cc3e
00000170: 1839 6dbf 1c98 adbe 1fb5 2a3f 16fb cb3e
00000180: 39a6 b83e 1c8e 8abe 5b83 c53e ea4e 903e
00000190: 76fc d23e 78aa bfbe 5f6a babe 13ce 113f
000001a0: 04b3 dabe a104 9e3e fa28 703e 4f47 ddbe
000001b0: c5fd b4be 0a0a 553e 1815 423f 2c58 abbe
000001c0: 403d 88be 1288 973e 0fe7 e43d 22ba a9be
000001d0: 6b54 89be f8a7 02be 7bab 533f 743a 5ebd
000001e0: f7b6 4cbd 6b3b 01bf 1b6b 243f e63a 0bbf
000001f0: 3d0e 1abe af21 91bc 0ff0 19bf 0b0e 11bf
00000200: 9824 21bf b217 db3d d7fa 6b3e 572e 30bf
00000210: d161 2f3f 5229 8d3e 7dad bbbe 0729 163f
00000220: 04fd e53d f507 29bf fe95 1e3f 95e7 203f
00000230: 8327 1abe fe8c 2abd 2e79 e7be 1eb2 2f3f
00000240: f221 263f 282e c73e 4059 14bf 939f f3bd
00000250: 957d 48bf 44ee 0b3f 40f1 4dbf aa3b 1ebf
00000260: f9a4 a53d 7b80 063f edaf 0b3e fb8e 1cbf
00000270: 4569 08bf c43d 1e3f 594e aebe 483d 0fbf
00000280: 7f60 0dbf 2b2b 1a3f 5a20 5dbd ffdc 84be
00000290: bde2 f53e 95c1 853e 52b9 debe 05ff 123f
000002a0: c5ed 413f 769e 05bf 695b 303f d442 203f
000002b0: d4f3 303f 30cc a6bd 77c6 0ebf 69df 9a3e
000002c0: 9864 0b3f b842 813d 98c7 e83d 606e b53d
000002d0: 3f79 6fbf 878f c2be 4505 813e 1d97 01bf
000002e0: d097 6c3f 2baa 4cbf 41f4 39be f871 babe
000002f0: 3fca adbe a505 4f3f ae28 623f 950d adbe
00000300: 9095 7b3e 31bf ea3e 41e0 fcbe f22c 4c3f
00000310: a397 21bf bde6 553f 9c6e 473e 72d8 033f
00000320: f443 8abf dba9 66bf a145 44be ae72 a83e
00000330: f40b a03e fda3 1c3f 51d3 02be 3da1 87bf
00000340: d2ed 66be d430 363e 0fc5 73bd 0306 c6be
00000350: 6b04 793f 7c1e b23e 3d5c 61bf abff 47be
00000360: 791d babe de86 893e de40 38be 888f 0dbe
00000370: 5ebd 83be d2ae 3c3e 1134 67bf c759 48bf
00000380: 1dde dc3e c89d 0d3f d90d 5dbe 7f72 963e
00000390: 19bf 833e b21f 4fbe add1 a63e fdd9 243e
000003a0: e99e 693e 9a5c 5d3f ef77 95be 5c54 9c3e
000003b0: 43e7 ff3d 6dab 69bf c1d3 3ebf 881a 7abf
000003c0: 6181 3e3e 733d 9bbe beb8 a23e b138 9fbe
000003d0: e490 803e 342f f63e 1e97 99be c8c2 d6be
000003e0: 4369 02bf e012 eb3d 416b 57bd 767f b9be
000003f0: daaf b43e 4007 ef3e 173a dcbe 9b44 94bd
0.044113126 0.360059 -0.4186875 0.25735423 -0.06635541 0.052275617 0.42816964 0.4815622
0.4065656 -0.16035077 0.13744502 0.47514638 -0.35979086 -0.35249427 0.24893616 0.01838764
0.26741925 0.33383846 -0.44786343 -0.52547234 -0.12773393 0.14194703 0.41468012 -0.40972415
-0.38953102 0.10667599 0.6441039 0.14142412 0.6587126 -0.33936572 0.6531322 0.39796367
-0.088556215 -0.7816628 0.031451613 0.44481748 0.44337845 -0.33814067 0.49103507 0.45128402
0.46672943 -0.7329906 0.10274786 0.27456588 -0.27909848 0.02849077 0.45094886 -0.41689858
-0.7193514 0.51009697 -0.35413486 -0.29471436 -0.34718916 0.48198155 0.78445494 -0.35671163
-0.45505548 0.12152578 -0.052785043 -0.0890777 -0.3165921 0.2574366 -0.15482616 0.35093257
-0.67830217 -0.23554176 0.23345265 0.1947512 0.44433826 -0.7818633 0.24275179 0.27304
-0.3391312 -0.4117519 0.55494964 0.75348204 0.67087525 0.15987158 -0.114651196 -0.3417032
-0.22302948 -0.31084076 0.32758504 -0.1488997 -0.3251145 0.51868737 0.16722566 0.83767724
0.23779655 -0.12058609 0.27263042 0.39867628 -0.92665243 -0.33905113 0.6668262 0.3984
0.36064318 -0.27061546 0.3857678 0.28185207 0.41208237 -0.37434745 -0.3640928 0.5695507
-0.42714703 0.30862907 0.23453131 -0.43218467 -0.3534986 0.20804611 0.75813437 -0.33465707
-0.2660923 0.29596 0.111768834 -0.3314982 -0.26822218 -0.12759387 0.82683533 -0.054254964
-0.049979176 -0.5048129 0.6422593 -0.54386747 -0.15044494 -0.017716257 -0.60131925 -0.5666205
-0.6294646 0.10697879 0.23044907 -0.6882071 0.6850863 0.27570587 -0.366558 0.5865635
0.112298995 -0.66027766 0.6194762 0.62853366 -0.15054135 -0.041638367 -0.4520964 0.6863116
0.64895546 0.38902402 -0.57948685 -0.11895671 -0.7831662 0.5466044 -0.80446243 -0.6180979
0.08088107 0.52539796 0.13641329 -0.6115567 -0.5328563 0.61812997 -0.3404415 -0.5595288
-0.55225366 0.6022212 -0.05398593 -0.25949857 0.4802455 0.26124254 -0.43500763 0.5742038
0.7575343 -0.5219492 0.6888948 0.6260197 0.6912205 -0.081444144 -0.55771583 0.30248573
0.5445037 0.06311554 0.113661945 0.08858943 -0.9354438 -0.38000128 0.25199333 -0.50621206
0.9241915 -0.79947156 -0.18159582 -0.36415076 -0.33943364 0.8086799 0.8834332 -0.33799425
0.24568772 0.45848992 -0.49389842 0.7975608 -0.63122004 0.83555204 0.19475788 0.51502144
-1.0801988 -0.9010293 -0.19167186 0.32899994 0.3125912 0.61187726 -0.12775923 -1.0596081
-0.22551659 0.17792064 -0.0595141 -0.38676462 0.97272366 0.34788883 -0.8803137 -0.19531123
-0.3635061 0.26860708 -0.17993495 -0.13824284 -0.25730413 0.18426064 -0.9031382 -0.7826199
0.4313821 0.5531888 -0.21587314 0.2938423 0.25731733 -0.20226935 0.32581845 0.16098781
0.22814526 0.86469424 -0.29193065 0.3053311 0.124952815 -0.912772 -0.7454186 -0.97696733
0.18604042 -0.3032032 0.31781572 -0.3109794 0.25110543 0.48082888 -0.29998106 -0.4194548
-0.50941867 0.114782095 -0.05259252 -0.36230057 0.35290414 0.4668522 -0.4301307 -0.07239648

bias f4 [60]
00000000: 939e fcbe 124d 2abe dffa 353f a5bc 893e
00000010: f601 c03e 4127 13bf 36f5 ef3e 93b6 87be
00000020: 7d0f 7dbe ea89 27bf 52c2 133f 25d2 363f
00000030: 19ec 18bf e316 e83e f45f f9be 4fce 1cbf
00000040: dec8 163f 24b5 393f 2fe8 023f c937 033f
00000050: add0 fdbe 323d e83e 005c 27bf f253 0d3f
00000060: 3e07 033f dc1f dabe 4d4e 6a3e 414f 0f3f
00000070: 915b a73e 85f4 00bf 56c7 aebe a947 003f
00000080: de83 bd3e 5a8e d7be 35ac 0e3f fb0a 043f
00000090: e4b9 c5be 4d88 333f 3871 0c3f 7a01 273f
000000a0: 0838 21bf cf35 05bf b549 1c3f 3719 1fbf
000000b0: a15f 0bbf e4c5 0cbf 5cc6 9cbe 2b13 20bf
000000c0: b145 b6be 115d 92be d8dc b1be 7eca 06bf
000000d0: c873 19bf ec0b 1cbf 6add 06bf 7d10 f7be
000000e0: bbc3 063f de2d 03bf dade b73e d53b e73e
-0.49339733 -0.16630962 0.71085924 0.26901737 0.37501496 -0.5748177 0.4686677 -0.2650648
-0.2471294 -0.65444815 0.57718384 0.71414405 -0.59735256 0.4532996 -0.4870602 -0.612523
0.5890025 0.72542024 0.51135534 0.51256996 -0.4957327 0.45359188 -0.65374756 0.55206215
0.51182926 -0.42602432 0.22881432 0.55980307 0.32687047 -0.5037311 -0.34136456 0.50109345
0.3701467 -0.42100793 0.5573152 0.51579255 -0.38618386 0.70129853 0.5486026 0.6523663
-0.6297612 -0.5203523 0.6104997 -0.6214785 -0.54442793 -0.5498946 -0.30620086 -0.6252925
-0.35600045 -0.2858663 -0.34738803 -0.5265273 -0.59942293 -0.6095569 -0.526816 -0.48254767
0.5264241 -0.5124186 0.3591221 0.45162836

weight f4 [1, 60]
00000000: dbb9 1bbf b36a 0fbe 63f7 e93e 0cb4 c1be
00000010: f5a6 263f 152b c3be 8696 0b3f 29b1 f3be
00000020: ab60 bfbe d711 3ebf 3445 ea3e 1d3e 083f
00000030: e26b e1be ac2d e13e 0e53 99be 9b85 e0be
00000040: 2516 ec3e 2efb 083f 3c13 da3e a22e dc3e
00000050: 87e7 05bf b949 fe3e 1fe8 02bf 8743 073f
00000060: 4c97 413f de08 14bf a228 263e eff0 1d3f
00000070: 71b0 b33e c8ce 32bf 011d d9bd 5491 393f
00000080: 2675 f83e 03cc e5be bd34 253f 2f4b 8e3e
00000090: f6da 44bf d6f5 fb3e 77b7 3c3f b996 f13e
000000a0: 6f6e c6be 02ad 80bf bc82 b73e fbec ecbe
000000b0: dd6c 0abf 9f68 b8be f023 d4be 12c6 f2be
000000c0: af18 38bf 0f18 efbd 5ce2 43bf e62b c4be
000000d0: 2922 a83e b488 09bf 54a9 34bf 5450 3dbf
000000e0: 3e70 ec3e 00f2 41bf f11d 213f fc2a bf3e
-0.6083047 -0.14005546 0.45696554 -0.37832677 0.65098506 -0.38118806 0.54526556 -0.475961
-0.3737844 -0.7424597 0.45755923 0.5321978 -0.4402762 0.43980157 -0.29946178 -0.43851933
0.46110645 0.5350827 0.425928 0.43004328 -0.5230641 0.4966562 -0.5113544 0.52837414
0.75621486 -0.5782603 0.16226438 0.6169576 0.35095552 -0.69846773 -0.10601235 0.7248738
0.48526877 -0.4488221 0.645336 0.27791736 -0.7689661 0.49210995 0.73717445 0.47185305
-0.3875613 -1.0052798 0.3584193 -0.46274552 -0.5407236 -0.3601732 -0.41433668 -0.4741674
-0.71912664 -0.11674511 -0.7651727 -0.38314742 0.32838562 -0.5372422 -0.70570874 -0.73950696
0.46179384 -0.7575989 0.6293631 0.37337482

weight f4 [60, 2]
00000000: 2244 7bbe 622d 213e dd44 623e 0452 d63e
00000010: 0bb6 51be c9b7 5b3e 1838 893f 47ec 833f
00000020: f497 6abe 0f70 ddbf c388 ef3e 915b 453f
00000030: 7a66 763e be9f 423f 887d 2abe e0e9 29bd
00000040: b515 bd3d f2a7 133f 45a6 493e 4021 353f
00000050: 1cac 933e 40d8 0c40 445d f9be 0072 e23c
00000060: 601c 29be 861e cabf d856 c1be 8a5b ddbf
00000070: 27ea 9c3c 872a 98bf f75e 453d 927d c5bf
00000080: 9211 933e 843c 88be 463b 813f 7f55 9f3f
00000090: 5b55 e33d a720 b53e 271a 823e aaf8 cfbf
000000a0: 54c3 813e 3dc1 163f c38f 2d3e 7f29 99bf
000000b0: 3199 7ebd d937 fc3e 8480 e93d cf4e 0c3f
000000c0: c900 753d c352 0cc0 61c2 b43e 6e05 17be
000000d0: c953 ddbe e4b4 38bf 4922 01be 8a86 1240
000000e0: 97eb 0a3f 1065 5ebd c068 5f3d 8edd f93e
000000f0: 244d 95be 371f c8bf 40fc 343e 9a7b bebe
00000100: fd56 0e3e 1537 3e3e 2c65 b7be 06d9 cbbf
00000110: 4b29 8f3e 11af c93d 9bc7 fabe 002a f03a
00000120: 65c4 c73c 01c2 f3bf b1d0 d9be 932b c7be
00000130: 76ec 74bd 0ac8 0240 7f66 27bd dbf8 b4bc
00000140: 8ebb 093f c8ac 4f3e 394e 833d d3d5 02bd
00000150: 15ac d43e 3446 08bd 2469 653e 1147 fd3e
00000160: 4460 fc3e 825a 9b3d b53b 173d 60f6 013e
00000170: 1ad9 4d3d b528 693d 1cd5 22bd 21cc fabf
00000180: dea9 f1be 9cab f6bf a4e9 fc3e a1bd 0b3f
00000190: 898f ae3e 7746 64bf 079d 613f 80b1 6f3f
000001a0: 284f ffbd b7d3 0740 8058 843e 360e 343e
000001b0: d1fb 8a3c b3d8 ddbf e9d9 e1bd 6c2d 94bd
000001c0: daac 4f3d d5a7 f33e effe 17be 1d27 0940
000001d0: 6a42 3abe 7f8f 943e f2c8 053d 59e1 103f
-0.2453771 0.15739968 0.22096582 0.41859448 -0.204796 0.21456827 1.0720243 1.0306481
-0.22909528 -1.7299823 0.46784028 0.77092844 0.24062529 0.76025 -0.16649449 -0.041482806
0.09232656 0.5767814 0.19692333 0.7075386 0.28842247 2.2006989 -0.4870397 0.02764225
-0.1651473 -1.5790565 -0.3776157 -1.729356 0.019154621 -1.1887978 0.04818627 -1.5428946
0.28724343 -0.2660867 1.0096214 1.2447966 0.11100265 0.35376474 0.25410578 -1.6247761
0.25344336 0.5888861 0.16949372 -1.1965789 -0.062157813 0.49261358 0.114014655 0.5480775
0.059815202 -2.1925514 0.3530455 -0.14748165 -0.43227986 -0.7215102 -0.12610735 2.2894616
0.5426573 -0.0542956 0.054543257 0.48801845 -0.29160416 -1.5634526 0.1767435 -0.37203676
0.13900371 0.185757 -0.35819376 -1.5925605 0.27961192 0.098478444 -0.48980412 0.0018323064
0.02438564 -1.904358 -0.4254203 -0.38900432 -0.05979582 2.0434594 -0.040869232 -0.02209132
0.5380181 0.20280755 0.06411404 -0.0319422 0.41537538 -0.033270076 0.22403389 0.49468282
0.49292195 0.07585622 0.036922175 0.12691641 0.050255872 0.056923587 -0.03975402 -1.9593545
-0.4719991 -1.9271121 0.49397004 0.54586226 0.34093884 -0.8917002 0.8813023 0.9363022
-0.1246627 2.122297 0.2584877 0.17583546 0.016965779 -1.7331756 -0.11027891 -0.07235226
0.050701953 0.47588983 -0.14843343 2.1430123 -0.18189397 0.2901573 0.03266234 0.56593853

bias f4 [60]
00000000: bc68 1abf 5127 1dbf 1baf 07bf 9dc3 d53e
00000010: ff2b 453f 16db cfbd 683a 89bf 041c 94be
00000020: a9c5 2bbf 2630 6cbf 4cee 503f 8c64 14bf
00000030: 12e4 55bd bcb4 743f cebb c53e 109b 503e
00000040: 24b5 08bf 65c6 ad3e 296b 06bf bcd8 863f
00000050: a991 62bf 8cce 453e eedf 5bbf b31a 45bf
00000060: a202 2d3f 8883 2cbf 471f 14bf b6a1 3d3f
00000070: 09be 1fbf a088 10bf 2df8 713f f2d0 15bf
00000080: cb13 cdbe 84cc 623f 381b 873f 83f9 1abf
00000090: af72 8f3f ffd4 40bf 27f0 333f e083 813f
000000a0: ffdb 6abf d3a9 973f 2c2f e5be 2b98 51bf
000000b0: 7c70 29bf 3489 b9be ad00 673f 49ca 123f
000000c0: 0094 543f 7310 803f c3b2 823f 94b6 6b3f
000000d0: a26e 693f 5e12 2fbf 546f 963f c165 913f
000000e0: 44e7 07bf 6c34 1b3f ea1c f2be 4edc 22bf
-0.6031606 -0.6138812 -0.53001565 0.41750804 0.7702026 -0.10149209 -1.0720949 -0.28927624
-0.6709848 -0.9226097 0.8161361 -0.5796592 -0.052219458 0.9558828 0.38619846 0.20371652
-0.534014 0.33940426 -0.52507263 1.0534892 -0.8850351 0.19317073 -0.85888565 -0.76993865
0.6758214 -0.673882 -0.57860225 0.74074876 -0.62399346 -0.56458473 0.9451931 -0.5852195
-0.40054163 0.88593316 1.0555182 -0.60536975 1.1206874 -0.75325006 0.7028832 1.011837
-0.9174194 1.1848701 -0.44762552 -0.81872815 -0.6618726 -0.3623749 0.90235406 0.5733991
0.8303833 1.000502 1.0210804 0.9207547 0.9118444 -0.683874 1.1752725 1.1359178
-0.5308726 0.60626864 -0.47287685 -0.6361741
