[Fly_Func]/min_func_ScaleMetric_Fly_4.pt (torch_old, 55614 bytes, 136 tensors)

weight f4 [2, 2]
0	0x3f52b366	0.8230499
1	0xbef07e83	-0.4697152
2	0x3f16c480	0.58893585
3	0x3f1ca044	0.61182046

bias f4 [2]
0	0x3f81aa75	1.0130144
1	0xbf91b38f	-1.1382922

weight f4 [2, 2]
0	0x3f208f20	0.6271839
1	0xc00d0376	-2.2033362
2	0x3ecd9386	0.40151614
3	0x3f3d0ed5	0.73850757

weight f4 [1, 2]
0	0x3df20198	0.1181671
1	0x3dfa24a8	0.12214023

weight f4 [2, 2]
0	0xb9614a5b	-0.00021485372
1	0x3a4a163d	0.0007709002
2	0xbb4ed0e1	-0.0031557607
3	0x3b027091	0.001990352

bias f4 [2]
0	0xbeaf2cfc	-0.34214008
1	0xbd4051c1	-0.046952967

weight f4 [2, 2]
0	0x3e2e08e5	0.1699558
1	0x3e54d319	0.20783652
2	0x3e7d179c	0.24716038
3	0x3c68b8b1	0.01420419

weight f4 [1, 2]
0	0xbe485368	-0.19563067
1	0xbe9c822f	-0.30568072

weight f4 [2, 2]
0	0xbf794976	-0.9737772
1	0x3fcd2195	1.6025873
2	0xbd6ae8fe	-0.057351105
3	0x3cef7e7a	0.029235113

bias f4 [2]
0	0xbecfe571	-0.40604737
1	0x3ea0cf01	0.3140793

weight f4 [2, 2]
0	0xbc56ed10	-0.013118044
1	0x3f3c7866	0.73621213
2	0xbbd15b08	-0.0063890256
3	0x3dfb822a	0.12280686

weight f4 [1, 2]
0	0xbf2070a9	-0.62671906
1	0xbea5c8cb	-0.32379755

weight f4 [2, 2]
0	0x3d36e697	0.0446535
1	0x3daffc4b	0.08593043
2	0xbe06b66f	-0.1315553
3	0xbe1309d4	-0.14359218

bias f4 [2]
0	0x3fad9f47	1.3564233
1	0x3ef12716	0.47100133

weight f4 [2, 2]
0	0xbfbe020c	-1.4844375
1	0xbe931ec8	-0.28734422
2	0x3f4f4c8b	0.8097617
3	0x3f1ce937	0.6129336

weight f4 [1, 2]
0	0x3f1cb1c5	0.61208755
1	0xbde122d8	-0.10992974

weight f4 [2, 2]
0	0xbfc16d47	-1.5111474
1	0xc01a551b	-2.4114444
2	0xc0032029	-2.048838
3	0x3fabdbf5	1.34265

bias f4 [2]
0	0xbe021fb1	-0.12707402
1	0xbe794102	-0.24341205

weight f4 [2, 2]
0	0x3f86af19	1.0522186
1	0x3f5c2bec	0.8600452
2	0xbff600a5	-1.9218947
3	0x3ecd2850	0.40069818

weight f4 [1, 2]
0	0xbed0917a	-0.4073599
1	0x3f10e3bf	0.5659751

weight f4 [2, 2]
0	0xbf1143d2	-0.5674411
1	0x3f6fe0e6	0.9370254
2	0xbec6c77c	-0.3882407
3	0x3e8417fe	0.25799555

bias f4 [2]
0	0xbe010a4e	-0.12601587
1	0xbfdf9549	-1.7467433

weight f4 [2, 2]
0	0x3e472071	0.19445969
1	0x3d7a90d9	0.061173294
2	0x3f62aee4	0.8854811
3	0x3f46aae0	0.77604485

weight f4 [1, 2]
0	0x3ecd0f0a	0.40050536
1	0x3daf09d8	0.085467994

weight f4 [2, 2]
0	0xbf250a6f	-0.64469045
1	0x3f9b877e	1.2150724
2	0xbd5ff053	-0.05467255
3	0xc01d7612	-2.4603314

bias f4 [2]
0	0xbee58d3c	-0.44834316
1	0xbead80b1	-0.33887246

weight f4 [2, 2]
0	0xbf96fe3d	-1.1796337
1	0x3ee1127f	0.43959424
2	0xbf951cf3	-1.164946
3	0x3ee16162	0.4401961

weight f4 [1, 2]
0	0xbea93655	-0.33049265
1	0xbeefafe0	-0.4681387

weight f4 [2, 2]
0	0xbfa467ab	-1.2844137
1	0x3ec89fe5	0.3918449
2	0xbf985206	-1.1900032
3	0x3f81a3b2	1.0128081

bias f4 [2]
0	0x3fa2fe0e	1.2733781
1	0xbf2f31f9	-0.6843563

weight f4 [2, 2]
0	0x3f116497	0.5679411
1	0x3f15044a	0.5820967
2	0x3f2ebd4d	0.682576
3	0x3f4eb94e	0.807515

weight f4 [1, 2]
0	0xbea8563c	-0.32878292
1	0x3e713aec	0.23557633

weight f4 [2, 2]
0	0x3d992f78	0.07479757
1	0x3ff3f7e6	1.9060028
2	0xbf3942f3	-0.7236778
3	0xbe971d57	-0.29514572

bias f4 [2]
0	0xbf2ae63a	-0.6675755
1	0x3fc80a54	1.5628152

weight f4 [2, 2]
0	0x3f6a3220	0.91482735
1	0xbf18065a	-0.5938469
2	0x3e2f9d0c	0.17149752
3	0x3f64a8f1	0.89320284

weight f4 [1, 2]
0	0xbe98a469	-0.29812935
1	0x3ee14116	0.4399497

weight f4 [2, 2]
0	0xc114ac22	-9.292025
1	0x4017d048	2.3720875
2	0x3f1a95a1	0.60384566
3	0xbebc5312	-0.36782128

bias f4 [2]
0	0x3fee72b1	1.8628751
1	0xbf8b4213	-1.0879539

weight f4 [2, 2]
0	0xbdefd93f	-0.11711358
1	0xc0044d6c	-2.0672255
2	0xbe276fd9	-0.1635126
3	0x40102ecb	2.252856

weight f4 [1, 2]
0	0x3f190c3b	0.5978429
1	0xbe272ac8	-0.16324914

weight f4 [2, 2]
0	0x3ef6ecb0	0.48227453
1	0xbf18c3b6	-0.5967363
2	0xbe4e9d0a	-0.20177093
3	0x3ec2bfd0	0.38036966

bias f4 [2]
0	0x3f958388	1.1680765
1	0x3f34a1be	0.705593

weight f4 [2, 2]
0	0x3fb5b506	1.4195869
1	0x3f9cb599	1.2242919
2	0x3fef982f	1.8718318
3	0xbfe783b3	-1.8087066

weight f4 [1, 2]
0	0xbeaa23ec	-0.3323053
1	0x3ec626c6	0.38701457

weight f4 [2, 2]
0	0xbd01997b	-0.03164051
1	0x3c90123d	0.017586822
2	0x400cb4ee	2.198543
3	0xc00d9d38	-2.2127209

bias f4 [2]
0	0x3f575464	0.84113145
1	0x3edbbbdc	0.42916763

weight f4 [2, 2]
0	0xbef1a4ec	-0.47196138
1	0x3f004729	0.5010858
2	0x3f9478ce	1.1599367
3	0x3d9742b5	0.0738577

weight f4 [1, 2]
0	0xbd4c1a20	-0.049829602
1	0xbf1c4487	-0.61042064

weight f4 [2, 2]
0	0xbefdeb74	-0.495937
1	0x3f02195d	0.5081995
2	0xbfd7fbb4	-1.6873689
3	0xc00122d8	-2.0177517

bias f4 [2]
0	0xbfc06fd1	-1.5034124
1	0xbe1d8992	-0.1538451

weight f4 [2, 2]
0	0x3f728775	0.9473794
1	0x3db2ec17	0.08736437
2	0x3f1991d0	0.5998812
3	0x3f742e28	0.9538293

weight f4 [1, 2]
0	0x3e9d6e0e	0.30748028
1	0x3e4b0cfc	0.19829172

weight f4 [2, 2]
0	0xbfab5d48	-1.3387842
1	0x402ceff1	2.7021449
2	0x3ee23a05	0.4418489
3	0xbeca18bb	-0.39471993

bias f4 [2]
0	0xbe7f9675	-0.24959739
1	0x3f9568b2	1.1672575

weight f4 [2, 2]
0	0xbf0ad762	-0.542349
1	0x40285593	2.630223
2	0xbf33f1da	-0.7029091
3	0xc04786c0	-3.1175995

weight f4 [1, 2]
0	0x3cdac860	0.026706874
1	0xbe8e2abe	-0.27766985

weight f4 [2, 2]
0	0x3f50e40c	0.8159797
1	0xbbb2cbf5	-0.0054564425
2	0xbe56c791	-0.20974566
3	0x3d00797e	0.031365864

bias f4 [2]
0	0xbf9f1a40	-1.2429886
1	0x3fdb51c4	1.7134328

weight f4 [2, 2]
0	0xbee440b3	-0.44580612
1	0xbeaeb2b5	-0.34120718
2	0x3d76a7cc	0.060218617
3	0x3fb92b2c	1.44663

weight f4 [1, 2]
0	0xbf10da34	-0.5658295
1	0x3f17dd9f	0.5932254

weight f4 [2, 2]
0	0xbf937402	-1.1519778
1	0xbf214db2	-0.6300918
2	0xbf9dbaed	-1.232267
3	0xbf4da5a9	-0.803309

bias f4 [2]
0	0xbf266453	-0.6499683
1	0x3f742245	0.9536479

weight f4 [2, 2]
0	0x3efab3cb	0.48965296
1	0xbe91e410	-0.2849431
2	0x3f24b83f	0.6434364
3	0x3f20df2a	0.6284052

weight f4 [1, 2]
0	0x3e2b9024	0.16754204
1	0x3da8c950	0.08241522

weight f4 [2, 2]
0	0xbfc1f516	-1.5152919
1	0x3d0a6f00	0.033797264
2	0x3fcc25f6	1.5949085
3	0xbe737f18	-0.23778951

bias f4 [2]
0	0xc018187d	-2.3764946
1	0x3f6dbd8b	0.92867345

weight f4 [2, 2]
0	0xbf420beb	-0.75799435
1	0x3fcfce80	1.6234894
2	0xbf90514a	-1.1274807
3	0x3f7db514	0.9910443

weight f4 [1, 2]
0	0x3f1434f3	0.57893294
1	0x3e679bac	0.22617978

weight f4 [2, 2]
0	0xbf0bbd04	-0.5458529
1	0xbc27cf9a	-0.010242367
2	0x40437e54	3.0545855
3	0x3f91f125	1.1401716

bias f4 [2]
0	0x3fb4f4ee	1.4137247
1	0xbf18dae0	-0.59708977

weight f4 [2, 2]
0	0x3f5200af	0.82032293
1	0x3e200472	0.15626696
2	0x40384e2a	2.8797708
3	0xbf91f5b5	-1.1403109

weight f4 [1, 2]
0	0x3eee0eca	0.46495658
1	0xbd143320	-0.03618157

weight f4 [2, 2]
0	0xbf998db9	-1.1996375
1	0x3fb8b5fb	1.4430536
2	0xbe6f3786	-0.23361024
3	0xbb149f1b	-0.0022677842

bias f4 [2]
0	0x3f5e450e	0.8682412
1	0x3fc34ce5	1.5257841

weight f4 [2, 2]
0	0xbf4b4daa	-0.7941538
1	0x3f93d875	1.1550432
2	0xc0161a55	-2.3453572
3	0x3fba0b1d	1.4534642

weight f4 [1, 2]
0	0x3d9fc208	0.078006804
1	0x3ee0b6ee	0.43889564

weight f4 [2, 2]
0	0xbe1c96d8	-0.15291917
1	0xbe31fcf7	-0.17381655
2	0x3d832fd6	0.06405608
3	0xbe2a76a9	-0.16646828

bias f4 [2]
0	0xbf8b01b9	-1.0859901
1	0xbf976418	-1.1827421

weight f4 [2, 2]
0	0x3f55407e	0.8330153
1	0x3f552439	0.83258396
2	0x3fa28a35	1.2698427
3	0x3f831f2f	1.0243891

weight f4 [1, 2]
0	0x3ee4f766	0.4472
1	0xbf1a0ac0	-0.60172653

weight f4 [2, 2]
0	0x3ec9229a	0.3928421
1	0xbf64cb38	-0.8937259
2	0xbf5ce648	-0.8628888
3	0x3e15844b	0.14601247

bias f4 [2]
0	0x3f723a69	0.94620377
1	0xbf839c47	-1.0282067

weight f4 [2, 2]
0	0xc07d1192	-3.9541974
1	0xbfd33b66	-1.6502502
2	0x3fb4dbfd	1.4129635
3	0x3ebd3da4	0.3696109

weight f4 [1, 2]
0	0xbf0eb7ae	-0.5574902
1	0x3e8292ce	0.25502628

weight f4 [2, 2]
0	0x405fb415	3.4953663
1	0xc081a384	-4.0512104
2	0xc02f3260	-2.7374496
3	0x3f2c29f5	0.6725152

bias f4 [2]
0	0xbe49c912	-0.19705608
1	0x3f891aff	1.0711364

weight f4 [2, 2]
0	0xbe6f21bf	-0.23352717
1	0x3f76614c	0.96242213
2	0xbe0a0f1a	-0.13482323
3	0x3e21452b	0.15749042

weight f4 [1, 2]
0	0x3f0237c7	0.5086636
1	0xbdd87778	-0.10569662

weight f4 [2, 2]
0	0xbc7aaa62	-0.0152994115
1	0x3de6c8e8	0.112687886
2	0x3f249f03	0.6430513
3	0x3f9667b9	1.1750404

bias f4 [2]
0	0xbe8c5458	-0.274081
1	0x3f164713	0.587022

weight f4 [2, 2]
0	0xbe7a8006	-0.244629
1	0x3ac10a9b	0.0014727892
2	0x3f10f743	0.5662729
3	0xbb7f5ca2	-0.0038965126

weight f4 [1, 2]
0	0xbce94080	-0.028473139
1	0xbcf2a240	-0.029618382

weight f4 [2, 2]
0	0xbdee8b34	-0.11647645
1	0x3d7d2fa7	0.061813023
2	0x3f73126a	0.9494997
3	0x401b1d18	2.4236507

bias f4 [2]
0	0x3fa926f1	1.3215009
1	0x3f9f0f1b	1.2426485

weight f4 [2, 2]
0	0x3fbe08ce	1.4846437
1	0x3d888764	0.06666449
2	0x40207fc1	2.5077975
3	0xbe5d76cb	-0.21627347

weight f4 [1, 2]
0	0x3ebb02d2	0.3652559
1	0xbf23ef28	-0.640368

weight f4 [2, 2]
0	0x3f743f1d	0.95408803
1	0x40027464	2.038354
2	0x3f23b103	0.63941973
3	0x3eb74f66	0.35802764

bias f4 [2]
0	0x3dfa218a	0.12213428
1	0x3fc667d7	1.550044

weight f4 [2, 2]
0	0x3ed123dd	0.40847674
1	0x3f086c7b	0.5329053
2	0x3ddad810	0.10685742
3	0x3f9297b9	1.1452552

weight f4 [1, 2]
0	0x3ea9c562	0.33158404
1	0x3e1932bc	0.1496076

weight f4 [2, 2]
0	0x4062f386	3.5461135
1	0xbec529a8	-0.38508344
2	0xbeb63da5	-0.35593906
3	0x3de00acf	0.109395616

bias f4 [2]
0	0xc004de04	-2.0760508
1	0x3f907829	1.128667

weight f4 [2, 2]
0	0x3c9d87bc	0.019229762
1	0x3fa453f2	1.2838118
2	0xbed53b24	-0.41646683
3	0x3f7dd44e	0.99152076

weight f4 [1, 2]
0	0x3c8a2e20	0.016867697
1	0xbf2dadde	-0.67843425

weight f4 [2, 2]
0	0xbea80903	-0.32819375
1	0xbdf41f5d	-0.119200446
2	0x3f68e45c	0.9097345
3	0x3f8f81f2	1.1211531

bias f4 [2]
0	0xbfba0b7c	-1.4534755
1	0x3e742bee	0.23844883

weight f4 [2, 2]
0	0x3f5235c6	0.821133
1	0x3e79c4c4	0.24391466
2	0x3fc94b52	1.5726111
3	0x3d282e34	0.041059688

weight f4 [1, 2]
0	0xbf13785c	-0.5760553
1	0x3e11dcb4	0.14244348

weight f4 [2, 2]
0	0xbf7ee64d	-0.9957016
1	0x3f2b5c72	0.66937935
2	0xbce828bc	-0.028339736
3	0x3d6f9191	0.058488432

bias f4 [2]
0	0x3e3fa632	0.18715742
1	0x4003bf60	2.0585556

weight f4 [2, 2]
0	0xbf04c019	-0.5185562
1	0xbfb84995	-1.4397455
2	0x3fb14a29	1.3850757
3	0x3f90853f	1.1290663

weight f4 [1, 2]
0	0x3e043e54	0.12914401
1	0x3d8b48a0	0.068009615

weight f4 [2, 2]
0	0x40590368	3.390833
1	0xbf8afc38	-1.0858221
2	0x3e0921ad	0.13391753
3	0xbe26e074	-0.1629656

bias f4 [2]
0	0xbffb2b49	-1.9622585
1	0xbf9bd421	-1.2174112

weight f4 [2, 2]
0	0xbebd048f	-0.3691754
1	0xbc4e77a0	-0.012601763
2	0xbe247028	-0.16058409
3	0x3fdcaa55	1.7239481

weight f4 [1, 2]
0	0x3c830b80	0.015996695
1	0xbf031188	-0.51198626

weight f4 [2, 2]
0	0xbe048eef	-0.1294515
1	0x3f70861c	0.93954635
2	0xc00ea5e2	-2.2288747
3	0x4007c725	2.1215298

bias f4 [2]
0	0x3f404e45	0.7511943
1	0x3e48da62	0.19614556

weight f4 [2, 2]
0	0xc0404521	-3.0042193
1	0x3fba0cc5	1.4535147
2	0x3f84d6d7	1.0378064
3	0x3e3b8842	0.18313697

weight f4 [1, 2]
0	0xbec14af8	-0.3775251
1	0xbe393668	-0.1808716

weight f4 [2, 2]
0	0xc0087c64	-2.1325922
1	0xc000fb31	-2.0153315
2	0x3df9b4e0	0.12192702
3	0xbe1b9d97	-0.15196835

bias f4 [2]
0	0xb8e15594	-0.00010744776
1	0xbd2bbe1c	-0.04192935

weight f4 [2, 2]
0	0x3e97e9b9	0.29670504
1	0x3ecc0bb2	0.39852673
2	0xbc5a4574	-0.013322223
3	0x3d96c5de	0.07361959

weight f4 [1, 2]
0	0xbf10fd69	-0.56636673
1	0x3ebd161e	0.36930937

weight f4 [2, 2]
0	0xbfdd5caf	-1.729391
1	0xbe93eb1d	-0.28890315
2	0x3c31d0f8	0.010853045
3	0x3dba6996	0.0910217

bias f4 [2]
0	0xbf70e7b5	-0.94103557
1	0xbf60461c	-0.8760698

weight f4 [2, 2]
0	0x3b6ce721	0.0036148506
1	0x3ea5fa2e	0.32417434
2	0x3cb93db7	0.022612436
3	0x3f3a0bb7	0.72674125

weight f4 [1, 2]
0	0xbef1618a	-0.4714473
1	0xbde60b78	-0.11232656

weight f4 [32, 2]
0	0x3fd588b6	1.6682346
1	0x3ee9e9c1	0.45686153
2	0xc042c78c	-3.0434294
3	0xbf992f7c	-1.1967616
4	0x4030797f	2.7574155
5	0xbf854244	-1.0410848
6	0x3e27a92b	0.16373126
7	0xc02fc66a	-2.7464852
8	0xbed67647	-0.41887113
9	0xbfdd2e2d	-1.7279717
10	0x4032c3d3	2.7932022
11	0x3e85d624	0.2613994
12	0xbe19d2a7	-0.15021764
13	0x3e184fb7	0.14874159
14	0x3e8e0628	0.27739072
15	0x3ea0b28b	0.31386217
16	0x3e4bb682	0.1989384
17	0xbe7ec87a	-0.24881163
18	0x3f844420	1.033329
19	0xbd6b7434	-0.057483867
20	0xbd9932a8	-0.07480365
21	0x4010f932	2.2652097
22	0xc011c262	-2.2774892
23	0x401dbeb2	2.464764
24	0xc098262e	-4.7546606
25	0xbf47a8e1	-0.77992064
26	0xc030892a	-2.7583718
27	0xbfc63998	-1.5486326
28	0x3e9cd8b2	0.30634075
29	0xbea58dda	-0.32334787
30	0x3f702f96	0.9382261
31	0x3f41e85a	0.75745165
32	0xc029acc2	-2.6511693
33	0x3db5e3be	0.08881329
34	0x407cae3b	3.9481342
35	0xbf478a08	-0.77944994
36	0x3e91edc0	0.285017
37	0xc00f1348	-2.2355518
38	0x402e833b	2.7267597
39	0xbf903f29	-1.1269275
40	0x3ea24475	0.31692854
41	0x3a974302	0.0011540356
42	0x3feb4da3	1.8383068
43	0x3f3d1c01	0.73870856
44	0x3efbea32	0.49202114
45	0x3e265d73	0.16246586
46	0x3f3c709f	0.73609346
47	0x3f2b7e1b	0.66989297
48	0xbf7be13f	-0.98390573
49	0xbf9b3749	-1.2126247
50	0xbfda5526	-1.7057235
51	0x3fb0c09c	1.380878
52	0xbfbdf4a0	-1.4840279
53	0x408298ea	4.0811663
54	0xbd4d2a96	-0.05008944
55	0xc00f5d28	-2.2400608
56	0x3f9db194	1.2319818
57	0x3f97e132	1.1865599
58	0xbfdfe9f9	-1.7493278
59	0xbd8de9aa	-0.069293335
60	0xc00293fc	-2.0402822
61	0xbfe5e7c1	-1.7961351
62	0xbf8c0b3b	-1.0940927
63	0xbfe0cdda	-1.7562821

bias f4 [32]
0	0x3e269fed	0.16271944
1	0x3e327018	0.17425573
2	0xbf2b9f10	-0.67039585
3	0xbd22101a	-0.039566137
4	0x3ebca627	0.36845514
5	0xbef7e923	-0.48420057
6	0xbf42db74	-0.7611611
7	0x3eb49cec	0.35275972
8	0x3ec19fa8	0.3781712
9	0x3f1b2fdd	0.6061991
10	0xbeb79048	-0.35852265
11	0x3f1ccf55	0.61253864
12	0x3c9064e4	0.017626233
13	0x3e9f4877	0.31109974
14	0x3f4bae66	0.79562986
15	0x3f04d8bf	0.5189323
16	0xbf26ef27	-0.6520867
17	0xbf189b71	-0.59612185
18	0xbddee8d5	-0.10884253
19	0xbf35fc09	-0.710877
20	0x3ee8f02f	0.45495746
21	0x3f0a018f	0.5390863
22	0x3f48fb47	0.7850842
23	0x3ee54e2a	0.44786197
24	0x3ed17a69	0.40913704
25	0x3e60183d	0.21884246
26	0x3ea0f790	0.31438875
27	0x3e28a48d	0.16469021
28	0xbeea51b1	-0.4576545
29	0xbeefd5ea	-0.4684289
30	0x3efd4b81	0.49471667
31	0x3f2dc2f3	0.67875594

weight f4 [32, 32]
0	0xbf4a02ca	-0.78910506
1	0x3e7da035	0.24768145
2	0x3f0f59f7	0.5599665
3	0xbebe7b27	-0.37203333
4	0xbcb4939a	-0.022043038
5	0x3c36082a	0.011110345
6	0x3f514b21	0.8175526
7	0xbf576dcb	-0.84151906
8	0xbf74a9f4	-0.9557183
9	0xbfe317ea	-1.7741673
10	0x3e93c850	0.28863764
11	0xbd99959a	-0.07499237
12	0x3e9a08be	0.30084795
13	0x3e27c426	0.16383418
14	0xbf68d1f3	-0.9094536
15	0xc085bfac	-4.1796474
16	0x401f4db1	2.489117
17	0x3f038a9d	0.5138338
18	0xbeb8cf8a	-0.3609584
19	0x3f04811c	0.51759505
20	0xbf6d24e7	-0.92634434
21	0xc04fa7ff	-3.2446287
22	0xbf655ed2	-0.8959781
23	0xc0103c51	-2.2536814
24	0x3e7955f0	0.24349189
25	0x3ed8d2da	0.42348367
26	0x3f8c6b39	1.0970222
27	0xbec4654c	-0.38358533
28	0x3cf1c387	0.02951218
29	0x401a458b	2.4104946
30	0x3d6b4080	0.05743456
31	0x3e55f7d0	0.20895314
32	0xbf4a8384	-0.79106927
33	0xbebe5d89	-0.37180737
34	0xbfc031c7	-1.5015191
35	0xbf310b4d	-0.6915787
36	0xbf473af5	-0.77824336
37	0xbf2615c9	-0.6487699
38	0x3f3ccc62	0.73749363
39	0xbf4bdf9c	-0.79638076
40	0xbe16b65f	-0.14718007
41	0xbe818257	-0.25294754
42	0xbf3585d5	-0.70907336
43	0xbff3791f	-1.9021338
44	0xbf52e5e9	-0.82382065
45	0xbef1d834	-0.47235262
46	0xbebbdf1f	-0.36693665
47	0xbf7e9cea	-0.9945818
48	0xbe37551c	-0.1790356
49	0xbef527fe	-0.47882074
50	0xbef948b7	-0.4868829
51	0xbfc1f5ff	-1.5153197
52	0xbf07bb1d	-0.5301989
53	0xbf0cc0e3	-0.5498182
54	0xbed7bf14	-0.4213797
55	0xbf1632c4	-0.5867121
56	0xbf065281	-0.5246964
57	0xbfa44f43	-1.2836689
58	0xbfdb03c4	-1.7110524
59	0xbf26a129	-0.6508966
60	0x3e52530f	0.20539497
61	0xbc15772a	-0.009122649
62	0xbf6df1a0	-0.92946815
63	0xbf57d19a	-0.843042
64	0xbedf4058	-0.43603778
65	0xbdb11fca	-0.086486414
66	0x3f45392c	0.7704036
67	0xbe976866	-0.29571837
68	0xbe58dcf7	-0.21178041
69	0x3e7acbeb	0.24491851
70	0x3f471abc	0.7777517
71	0xbf61e4b0	-0.88239574
72	0xbf182d1f	-0.5944385
73	0xbf41e874	-0.7574532
74	0x3e92c0e1	0.2866278
75	0xbeb073af	-0.3446326
76	0xbdbb2a38	-0.09138912
77	0x3d332c3b	0.043743353
78	0xbf50ab42	-0.8151132
79	0xbf9cc859	-1.2248641
80	0x3f58b64e	0.84653175
81	0x3ec71977	0.38886616
82	0x3e00c3fd	0.12574764
83	0x3f2752ca	0.653607
84	0xbf2b2f48	-0.6686902
85	0xbf97b189	-1.1851054
86	0xbf320e11	-0.69552714
87	0xbf4bb2a0	-0.79569435
88	0xbdb69105	-0.08914379
89	0xbe4860f3	-0.19568233
90	0x3ddda46d	0.10822377
91	0xbe89b37e	-0.26894754
92	0x3e8dedb3	0.27720413
93	0x3f66b81c	0.9012468
94	0xbed4f360	-0.4159193
95	0xbe99ee6a	-0.30064708
96	0xbedcb298	-0.43105006
97	0xbf8be47d	-1.0929104
98	0xbdf24deb	-0.11831268
99	0xbfed0d36	-1.8519657
100	0xbfd26a03	-1.6438602
101	0xbf2ecf26	-0.68284833
102	0x3f83282d	1.0246636
103	0xbf2bddd4	-0.6713536
104	0xbf829f4a	-1.0204861
105	0xbf62fd79	-0.8866802
106	0xbde30fa0	-0.110869646
107	0xbf78d40b	-0.9719855
108	0xbf0a36f6	-0.53990114
109	0xbfbbf2db	-1.4683489
110	0xbf8164a9	-1.0108844
111	0xbea6f458	-0.32608294
112	0x3f10ebd3	0.5660984
113	0xbfc3d4d6	-1.5299327
114	0xbfa86123	-1.3154644
115	0xbe7eaa14	-0.24869567
116	0xbf68df2e	-0.90965545
117	0xbe865e85	-0.26243988
118	0xbf16cbe8	-0.58904886
119	0xbee96b3d	-0.4558963
120	0xbf8a4eb8	-1.0805273
121	0xbedbe7e7	-0.42950365
122	0xbf7088e8	-0.939589
123	0xbffbc1a3	-1.9668468
124	0x3f098e58	0.53732824
125	0x3ee57d34	0.44822085
126	0xbfdf6c4c	-1.7454925
127	0xbfd275ed	-1.6442238
128	0xbeef7c8d	-0.46774712
129	0xbd61f3e7	-0.055164244
130	0xbfeb666a	-1.8390629
131	0xbf19d43b	-0.60089463
132	0xbeff89ce	-0.49909824
133	0xbfbc0d1d	-1.4691502
134	0x3e3165c8	0.17323983
135	0xbe393ed8	-0.18090379
136	0x3ca075f9	0.019587504
137	0xbe9fe87e	-0.31232065
138	0xbf44cb8e	-0.768731
139	0xbfd5b2ca	-1.6695187
140	0xbfb04e91	-1.3773977
141	0xbdc059de	-0.09392141
142	0xbcdda5f6	-0.027056675
143	0xbeed0789	-0.4629481
144	0xbeeb39b2	-0.45942456
145	0xc00d90d7	-2.2119653
146	0xbefae78b	-0.49004778
147	0xbfe22c78	-1.7669821
148	0xbe22d834	-0.15902787
149	0xbecc20cc	-0.39868772
150	0x3d878cf9	0.06618685
151	0xbe678246	-0.22608289
152	0x3e9f8386	0.31155032
153	0xbf5a2caa	-0.852244
154	0xbffdb5f1	-1.9821149
155	0xbe928167	-0.2861435
156	0xbf1e3352	-0.6179706
157	0xbeaa64c2	-0.33279997
158	0xbe811833	-0.25213775
159	0xbda02bb6	-0.07820837
160	0x3e4178d5	0.1889375
161	0xc008ddda	-2.1385407
162	0xbfd49309	-1.6607372
163	0xbfdb1711	-1.7116414
164	0xbf668647	-0.9004864
165	0xbf5e4e6f	-0.8683843
166	0x3ec2f436	0.38076943
167	0xbe494111	-0.19653727
168	0xbf139892	-0.5765468
169	0xbedf034a	-0.43557197
170	0xbf3c0409	-0.7344366
171	0xbf9b83d2	-1.2149603
172	0xbffb3343	-1.9625019
173	0xc01a5dd4	-2.4119768
174	0xbeec4f1f	-0.46154115
175	0xbde43eb6	-0.11144774
176	0xbf2dd6c4	-0.6790583
177	0xc031c35e	-2.7775493
178	0xbfa13a9d	-1.2596012
179	0xbfb2a4b7	-1.3956517
180	0xbe879984	-0.2648431
181	0xbe33d42a	-0.17561403
182	0xbe245f5c	-0.16052002
183	0x3de25ce3	0.11052873
184	0xbf9f19aa	-1.2429707
185	0xbf7a9fe2	-0.9790021
186	0xbfbd2060	-1.4775505
187	0xbfb25e5e	-1.3935049
188	0xbd8dd399	-0.06925125
189	0xbec0b33c	-0.37636745
190	0xc00edc75	-2.2322056
191	0xbf2a833b	-0.6660649
192	0xbd3b0ebe	-0.045668356
193	0xbe30c763	-0.1726356
194	0x3fea2ce6	1.8294952
195	0x3f1cbc80	0.6122513
196	0x3a6170f8	0.00085999025
197	0x3f3f7642	0.7478982
198	0x3f6bf9ac	0.92177844
199	0xbf8c7d59	-1.0975753
200	0xbf1e8bc9	-0.61932045
201	0xbee12242	-0.4397145
202	0x3be2df18	0.0069235675
203	0xbf039d9c	-0.5141237
204	0x3d678e03	0.056531917
205	0xbf003f57	-0.5009665
206	0xbf7ee239	-0.9956394
207	0xbf63216b	-0.88722867
208	0x3f364a39	0.71207005
209	0x3fc711fb	1.5552362
210	0x3f729db9	0.94771916
211	0x3ff3df14	1.9052453
212	0xbf46d7d0	-0.77673054
213	0xbf12ce57	-0.573461
214	0xbf91d1e1	-1.1392175
215	0xbf600e38	-0.87521696
216	0xbe99507c	-0.29944217
217	0xbe71b015	-0.23602326
218	0xbede0390	-0.43362093
219	0x3e54759a	0.20747986
220	0x3d6ae2fc	0.057345375
221	0x3f10d448	0.56573915
222	0x3f375b14	0.7162335
223	0xbf230841	-0.6368447
224	0x3d36dddf	0.044645187
225	0xbfc8d86c	-1.5691047
226	0xc013a927	-2.3071992
227	0xbfa0830e	-1.2539995
228	0xbf7562b5	-0.9585374
229	0xc00a77e4	-2.1635675
230	0x3e0316fb	0.12801735
231	0xbcb44ae8	-0.022008374
232	0xbe353146	-0.17694578
233	0xbdf9fa3a	-0.1220593
234	0xbf8a1c84	-1.0789952
235	0xc00226e2	-2.0336232
236	0xc02e65f3	-2.7249725
237	0xbf96c1d1	-1.1777898
238	0xbd35054c	-0.044194505
239	0xbcd3d5ac	-0.025858723
240	0xbf54df60	-0.83153343
241	0xc041c66c	-3.0277357
242	0xbf8b5c4f	-1.0887545
243	0xc00a0736	-2.1566901
244	0xbead5592	-0.33854347
245	0x3e3a2834	0.18179399
246	0xbe0b9049	-0.13629259
247	0x3cd71424	0.026254721
248	0xbed7df87	-0.42162725
249	0xbfa0b5bc	-1.2555461
250	0xc0229502	-2.5403447
251	0xbf3f8891	-0.7481776
252	0xbf221ca1	-0.63324934
253	0xbf1c6372	-0.6108924
254	0xbf2d287d	-0.67639905
255	0xbf177870	-0.5916815

bias f4 [32]
0	0xbf3d2314	-0.7388165
1	0xbe864efc	-0.26232135
2	0xbf1c4263	-0.610388
3	0xbf675207	-0.9035954
4	0x3df50fe6	0.11965923
5	0xbe557c82	-0.20848277
6	0xbf9b3681	-1.2126008
7	0x3b60371e	0.003421254
8	0xbf3df046	-0.74194753
9	0x3e064b59	0.1311468
10	0xbf3fb1e1	-0.74880797
11	0xbef3d4c9	-0.4762328
12	0x3c24d31e	0.0100601
13	0x3f11e5ec	0.5699146
14	0x3da856a2	0.08219649
15	0xbeb7a287	-0.35866186
16	0xbf54c83e	-0.83118045
17	0xbf7b0438	-0.9805331
18	0xbed6727a	-0.41884214
19	0xbeb089ab	-0.34480032
20	0xbed258be	-0.4108333
21	0x3da57998	0.08079833
22	0xbf14ee92	-0.5817653
23	0xbf790bdd	-0.97283727
24	0x3f3ddb7a	0.7416302
25	0xbf6c3be6	-0.922789
26	0xbdff136f	-0.124548785
27	0x3e610361	0.21973945
28	0xbeefc00c	-0.46826208
29	0xbe48e7cb	-0.19619672
30	0xc013d2c0	-2.3097382
31	0xbf031d09	-0.5121618

weight f4 [32, 32]
0	0x3ec31343	0.38100633
1	0x3f26e886	0.6519855
2	0x3eae3c58	0.34030414
3	0x3e92bb59	0.2865856
4	0x3f90e350	1.131937
5	0x3f1a3475	0.60236293
6	0x3e3b3fcb	0.18286054
7	0x3fb4b526	1.4117782
8	0xbf9865fc	-1.1906123
9	0x3e62a551	0.22133376
10	0x3ed08191	0.4072385
11	0xbfd512af	-1.6646327
12	0x3f647877	0.89246315
13	0xbe8a979f	-0.27068803
14	0xc0197b32	-2.3981442
15	0xbf760429	-0.961001
16	0x3f20606c	0.6264713
17	0x3eb29436	0.348787
18	0xbf345534	-0.7044251
19	0xbff773dc	-1.9332232
20	0x3ec93d6c	0.39304674
21	0x3f02528d	0.5090721
22	0xbe305d26	-0.17223033
23	0x3f11f3af	0.57012457
24	0x3e536a92	0.20646122
25	0x3f0853d9	0.5325294
26	0x3f6ef956	0.93349206
27	0x3e63e371	0.22254731
28	0x3f351972	0.7074195
29	0x3e366f52	0.17815903
30	0xbfdf6d42	-1.7455218
31	0x3dc78f1e	0.09744094
32	0xbd5f4fd1	-0.05451948
33	0x3eac1720	0.33611393
34	0xbd90c362	-0.07068516
35	0x3e94f905	0.29096237
36	0x3f940c55	1.1566263
37	0x3e73eaf9	0.23820104
38	0xbd4e1c07	-0.050319698
39	0x3fba0125	1.4531599
40	0x3e203b61	0.15647651
41	0xbf3d6946	-0.7398876
42	0xbd871231	-0.065952666
43	0xbebe7903	-0.372017
44	0xbe0a3e0d	-0.13500233
45	0x3c1e4dfb	0.009662147
46	0xbe936466	-0.28787535
47	0x3f3c93a8	0.73662806
48	0x3ebe8667	0.37211916
49	0xbe27f224	-0.16400963
50	0xbd5cee38	-0.05393812
51	0x3ec9afed	0.39392033
52	0x3eb3a54d	0.35087052
53	0x3e5b9950	0.21445203
54	0xbf525837	-0.82165855
55	0xbe196251	-0.14978911
56	0x3bd0f3df	0.006376728
57	0x3d44f8db	0.04808889
58	0x3ec4a9b6	0.3841073
59	0xbe40a638	-0.18813407
60	0x3eda9a7f	0.42695996
61	0x3c5939d1	0.013258413
62	0x3f297646	0.66196096
63	0xbf0a245b	-0.53961724
64	0xbe79813e	-0.24365708
65	0x3e9a07b5	0.30084005
66	0xbed2193b	-0.41034874
67	0xbc29b4fb	-0.0103580905
68	0x3f617991	0.8807612
69	0x3e316e92	0.17327335
70	0xbf22eb65	-0.63640434
71	0x3e910e10	0.2833104
72	0xbedac244	-0.42726338
73	0x3da79443	0.081825756
74	0xbee57d84	-0.44822323
75	0xbe53e37a	-0.20692244
76	0x3f0ccd86	0.55001104
77	0x3f2e2906	0.68031347
78	0xbe8c0615	-0.2734839
79	0xbf47b9d1	-0.7801791
80	0x3e738c0c	0.23783892
81	0xbf032a3e	-0.5123633
82	0x3e48bdc4	0.1960364
83	0xbf4e8fc3	-0.8068811
84	0x3ee6ba13	0.45063838
85	0x3ca905e4	0.020632692
86	0xbf034c78	-0.5128856
87	0xbe9a8848	-0.301821
88	0x3d0b8b87	0.03406861
89	0xbf0fc2ed	-0.5615681
90	0x3f009691	0.50229746
91	0xbe03c69e	-0.12868735
92	0x3f0d0c24	0.5509665
93	0x3f020546	0.50789297
94	0xbf70c54c	-0.9405105
95	0x3de8aede	0.11361478
96	0x3e80e4ca	0.25174552
97	0x3f76caa7	0.9640297
98	0x3e860382	0.2617455
99	0x3f31a26d	0.6938847
100	0x3f1eb5a0	0.6199589
101	0x3efa68f2	0.48908192
102	0xbbca7049	-0.006177936
103	0x3f6a48b4	0.91517186
104	0xbf64b18c	-0.89333415
105	0x3ec382be	0.38185686
106	0x3e62461d	0.22097059
107	0xbf33d126	-0.7024101
108	0x3f56b1eb	0.8386523
109	0x3ecbf58c	0.39835775
110	0x3d6651d1	0.05623037
111	0xbf4ba9a3	-0.7955572
112	0x3ec92c2e	0.3929152
113	0x3eadef33	0.33971557
114	0xbd63291e	-0.055459134
115	0xbfc285a9	-1.519704
116	0x3f133da9	0.5751596
117	0x3e9a1db8	0.301008
118	0xbf17cead	-0.5929974
119	0x3e36a08d	0.17834683
120	0xbec75e2b	-0.38939032
121	0x3e951a96	0.29121846
122	0x3f96d0e4	1.1782498
123	0x3f001680	0.5003433
124	0x3f48e49a	0.7847382
125	0x3ea49267	0.32142946
126	0xbe8c987b	-0.27460083
127	0xbca151b3	-0.019692278
128	0x3f4e7208	0.8064275
129	0xbe2aa2cc	-0.16663665
130	0x3f6e6982	0.9312974
131	0x3eec5de6	0.4616539
132	0x3f33e55e	0.7027186
133	0x3e8fc166	0.2807724
134	0x3f5208b1	0.8204451
135	0x3f92b149	1.1460353
136	0x3ebaa838	0.36456466
137	0x3edb143f	0.42788884
138	0x3f850816	1.0393093
139	0x3dd6ec09	0.10494239
140	0x3e258350	0.16163373
141	0xbf08e875	-0.534797
142	0xbf059680	-0.5218277
143	0x3ef809a8	0.48444867
144	0x3e1e202d	0.15441962
145	0x3f9bdc43	1.2176594
146	0x3e875aec	0.26436555
147	0x3e4cf445	0.20015056
148	0x3ddbcc4d	0.10732327
149	0x3d08241e	0.03323757
150	0x3f5cab70	0.8619909
151	0x3f2b8f7b	0.6701581
152	0xc01de701	-2.4672244
153	0x3f3346c9	0.70029885
154	0x3e18a1ce	0.14905474
155	0x3ddc0b7b	0.10744377
156	0x3e49e930	0.1971786
157	0x3d1a1372	0.0376162
158	0x3e50c0c4	0.20386034
159	0x3ccd3df2	0.025053952
160	0xbe40f0bd	-0.18841834
161	0xbf58c948	-0.8468213
162	0xbe6b3bc2	-0.22972015
163	0xbdf6f508	-0.12058455
164	0xbe750a34	-0.23929673
165	0xbd38d639	-0.045126174
166	0xbea86179	-0.32886866
167	0xbf29a60c	-0.6626899
168	0xbeab3ec5	-0.33446327
169	0x3ce3d4c1	0.02781141
170	0xbd1c056f	-0.03809112
171	0x3e20eac6	0.15714559
172	0xbe9c5c44	-0.30539143
173	0x3f30a5ec	0.69003177
174	0xbecddcbe	-0.40207475
175	0xbfef9773	-1.8718094
176	0xbea6b3ad	-0.32558957
177	0xbe042932	-0.1290634
178	0xbe919612	-0.28434807
179	0xbf2404d3	-0.6406986
180	0xbe4d8ff3	-0.20074444
181	0xbe254c57	-0.16142403
182	0xbd9f62d4	-0.07782522
183	0xbea29bcd	-0.31759492
184	0xbe895223	-0.26820478
185	0xbecbb39e	-0.39785475
186	0xbe40c34e	-0.18824503
187	0xbf552ba9	-0.83269745
188	0xbd6248d4	-0.055245236
189	0x3d2c7e3e	0.04211258
190	0x3d667c66	0.05627098
191	0x3c2d983d	0.0105953785
192	0x3e646cd5	0.22307141
193	0x3f071f8b	0.52782506
194	0x3eb31daf	0.34983584
195	0x3ee8180d	0.4533085
196	0x3e50bebd	0.20385261
197	0xbe2d5de3	-0.16930346
198	0x3f07f7eb	0.5311267
199	0x3f959784	1.1686864
200	0x3ecd3b0b	0.4008411
201	0xbf104b43	-0.5636484
202	0x3ead31ba	0.33827
203	0xc08b6d95	-4.3571267
204	0xbcf6b702	-0.030116562
205	0x3eafe2ee	0.3435282
206	0xbf7d68fd	-0.98988324
207	0x3fa75da8	1.3075457
208	0x3d4bc129	0.04974476
209	0x3e93af62	0.28844744
210	0xbf38adf0	-0.7214041
211	0x3f53f7d6	0.8280004
212	0x3ec597b3	0.385923
213	0x3e3a68e1	0.1820407
214	0xbef4d37d	-0.47817603
215	0x3ea52f72	0.3226276
216	0x3d2d0bf3	0.042247724
217	0x3e078e92	0.1323798
218	0x3edb60f3	0.42847404
219	0xbe2dc6f9	-0.16970433
220	0x3e44cd4e	0.19218943
221	0xbf24b06c	-0.643317
222	0x3efb0a6a	0.49031383
223	0xbf2dd92f	-0.6790952
224	0x3f9101e4	1.1328702
225	0x3f117a26	0.5682701
226	0x3f93d9c7	1.1550835
227	0xbfa22025	-1.266606
228	0x3f8077f3	1.0036606
229	0xc000e475	-2.013944
230	0x3fc183a7	1.5118302
231	0x3f9e58a9	1.2370807
232	0x3ec34ad0	0.38143015
233	0x3edab420	0.4271555
234	0x3faba7b9	1.341056
235	0xbfea6b1a	-1.8313935
236	0x3f4e508e	0.80591667
237	0x3ef77703	0.48332986
238	0x3f4b09bf	0.79311746
239	0xbd6273a6	-0.055286072
240	0xbf71afc4	-0.9440882
241	0x3f8c43e8	1.0958223
242	0xc005eabf	-2.0924528
243	0xbecc81ef	-0.3994288
244	0xbf85195a	-1.0398362
245	0x4013eff4	2.3115206
246	0xbf292a29	-0.66079956
247	0x3fb7c13c	1.4355845
248	0xbf76b5ed	-0.96371347
249	0x3f9fb7c3	1.2477955
250	0x3f89a516	1.0753505
251	0xbe68b3e5	-0.22724874
252	0x3e84b4d9	0.25919226
253	0xc009d216	-2.1534476
254	0x3ef51d62	0.4787398
255	0xbf3a4b02	-0.727707

bias f4 [32]
0	0xbe6476c2	-0.22310928
1	0xbdd12a17	-0.10213106
2	0x3ee6f5bf	0.45109364
3	0xbd911117	-0.07083338
4	0xbf2d48b9	-0.6768909
5	0x3e1a490c	0.15066928
6	0xbe31d328	-0.17365706
7	0xbf924c7d	-1.1429592
8	0x3ec8fb86	0.39254397
9	0xbf4cafd0	-0.7995577
10	0xbdf57deb	-0.119869076
11	0x3ec23b61	0.37935928
12	0xbe991bd6	-0.2990405
13	0xbddd4f5e	-0.10806154
14	0xbe208224	-0.15674645
15	0xbe959fd1	-0.29223493
16	0x3d430824	0.047615185
17	0xbecb942b	-0.3976148
18	0x3ea4cd23	0.32187757
19	0xbf033a08	-0.51260424
20	0x3f14c096	0.5810636
21	0xbf569d79	-0.83834034
22	0xbf613b3a	-0.87981
23	0xbe016a27	-0.1263815
24	0xbedf00db	-0.4355534
25	0xbed1cb62	-0.4097548
26	0xbee6b01d	-0.4505624
27	0xbf1ecd4e	-0.6203202
28	0xbef105fc	-0.47074878
29	0xbf0f4a87	-0.55973095
30	0xbf3d648a	-0.73981535
31	0xbf0055da	-0.50131

weight f4 [2, 32]
0	0x3f20b281	0.62772375
1	0x3e128359	0.14307918
2	0x3d9a1f68	0.075255215
3	0x3f071a86	0.52774847
4	0xbe2b5bbd	-0.16734214
5	0x3ebd1b83	0.36935052
6	0xbca6cbfa	-0.020360935
7	0xbf7877ef	-0.97058004
8	0x3e38b77f	0.18038748
9	0xbded2661	-0.11579586
10	0x3ee99b1a	0.45626146
11	0x3debfdb9	0.11523003
12	0xbda440cd	-0.08020172
13	0xbe0799ad	-0.13242216
14	0x3ee4d8a8	0.44696546
15	0x3d928dda	0.07155962
16	0x3cfec6f4	0.031100728
17	0xbe456b61	-0.19279243
18	0x3e49c8c8	0.19705498
19	0x3f67972a	0.90465033
20	0xbe54b73d	-0.20773025
21	0xbf7bc3ff	-0.9834594
22	0xbf9fd7d4	-1.248774
23	0x3b4c1202	0.0031138663
24	0x3d34553b	0.044026595
25	0x3fb87e9b	1.4413637
26	0x3fb2d8c7	1.3972405
27	0xbc78c8e1	-0.015184612
28	0xbe9b0da3	-0.30283841
29	0xbc7280bd	-0.014801201
30	0x3d004f42	0.031325586
31	0xbb460ae0	-0.0030218884
32	0x3d8d60e4	0.06903246
33	0x3cd9d490	0.026590616
34	0x3cbed8b4	0.023296691
35	0x3d1b734d	0.037951756
36	0xbeeef692	-0.46672493
37	0xbe378494	-0.17921668
38	0x3f53f8e9	0.8280168
39	0xbfbc5f4f	-1.4716586
40	0x3bb606a7	0.0055549922
41	0xbe963bf1	-0.29342607
42	0xbe90495f	-0.28180978
43	0x3ee5e2c3	0.44899568
44	0x3db22116	0.08697717
45	0xbf05b7fe	-0.52233875
46	0x3f22604c	0.6342819
47	0xbed37bd9	-0.41305426
48	0x3f013f47	0.5048718
49	0xbe36dd01	-0.17857744
50	0x3e63b10e	0.2223551
51	0x3eb38019	0.35058668
52	0x3ddd3431	0.1080097
53	0xbd6e3f0e	-0.058165602
54	0x3f973895	1.1814142
55	0x3e94e0c7	0.29077742
56	0xbefd13d3	-0.49429187
57	0xbe817928	-0.25287747
58	0xbe586ba7	-0.21134816
59	0xbf1e9c66	-0.61957395
60	0x3e83e339	0.25759295
61	0xbf4f459f	-0.8096561
62	0xbfb94e03	-1.4476932
63	0x3f8ad34a	1.084573

bias f4 [2]
0	0x3f171b03	0.5902559
1	0x3e8b7844	0.27240193
