[Fly_Func]/min_func_ScaleMetric_Fly_2.pt (torch_old, 55614 bytes, 136 tensors)

weight f4 [2, 2]
0	0x3f458ad3	0.77164954
1	0x3ff08915	1.8791834
2	0xbf57c8e5	-0.84290916
3	0xbf5bd196	-0.8586668

bias f4 [2]
0	0xbec8adee	-0.39195198
1	0xbdc5df1d	-0.09661696

weight f4 [2, 2]
0	0x3f879913	1.059359
1	0x3fa160fc	1.2607722
2	0x3e8edd55	0.27903238
3	0xbe0a1156	-0.13483176

weight f4 [1, 2]
0	0xbf12ff8e	-0.57421196
1	0x3f1f9e8b	0.6235129

weight f4 [2, 2]
0	0x3fa25370	1.2681713
1	0xbf84b5e3	-1.0368007
2	0x3ef7de8e	0.48411983
3	0xbde42953	-0.111406945

bias f4 [2]
0	0xbfb6c63b	-1.4279245
1	0xbfaf7a7c	-1.3709254

weight f4 [2, 2]
0	0xbed2b392	-0.41152626
1	0x3f5df522	0.8670217
2	0xbef6a12c	-0.4816984
3	0x3f8458f4	1.0339646

weight f4 [1, 2]
0	0x3f23e6a1	0.64023787
1	0x3f14ec79	0.5817333

weight f4 [2, 2]
0	0x3f8f6858	1.1203718
1	0x3fe95144	1.8227925
2	0xbe5f0b64	-0.21781689
3	0xbf2fd485	-0.68683654

bias f4 [2]
0	0xbf01000e	-0.5039071
1	0xbfb0c832	-1.3811095

weight f4 [2, 2]
0	0x3f28571d	0.65757924
1	0x3ef94b25	0.48690143
2	0x3f296970	0.6617651
3	0x3ef3fa6b	0.4765199

weight f4 [1, 2]
0	0x3d280d10	0.041028082
1	0x3f1daf89	0.6159597

weight f4 [2, 2]
0	0x3fa74eeb	1.3070959
1	0xc0101f79	-2.251921
2	0x3e594514	0.21217757
3	0xbee5fa33	-0.4491745

bias f4 [2]
0	0x3eae5f53	0.34057102
1	0xbf553328	-0.83281183

weight f4 [2, 2]
0	0x3d9936bb	0.07481142
1	0x3ff38b24	1.9026837
2	0x3f0fb0e4	0.5612929
3	0x3f894c13	1.0726341

weight f4 [1, 2]
0	0x3d6dc030	0.058044612
1	0xbed35f80	-0.41283798

weight f4 [2, 2]
0	0xbfdc2ee1	-1.7201806
1	0xbe8ab5e1	-0.27091888
2	0xbfda0587	-1.7032937
3	0xbebbb4ca	-0.3666137

bias f4 [2]
0	0xbe5e4da0	-0.21709299
1	0x3fc2e427	1.5225877

weight f4 [2, 2]
0	0x40045949	2.0679495
1	0x3f53187b	0.8245923
2	0xbf8c10fa	-1.0942681
3	0x3ef9fdb8	0.48826385

weight f4 [1, 2]
0	0xbd7fc4c0	-0.062443495
1	0x3f041015	0.5158704

weight f4 [2, 2]
0	0xbfbdd461	-1.4830438
1	0x4062c986	3.54355
2	0xbf60411f	-0.87599367
3	0x400ce43d	2.2014306

bias f4 [2]
0	0xbf9a694d	-1.2063385
1	0xbf0489dc	-0.51772857

weight f4 [2, 2]
0	0xbf43aab2	-0.76432335
1	0x401d9048	2.4619312
2	0xbfe9d0ab	-1.8266805
3	0xbf2610f5	-0.64869624

weight f4 [1, 2]
0	0xbd62e380	-0.055392742
1	0x3dd76748	0.10517746

weight f4 [2, 2]
0	0xbf860092	-1.0468924
1	0x3ea3876e	0.31939262
2	0x4026e550	2.6077461
3	0x3f8b07e1	1.086178

bias f4 [2]
0	0xbef1bebb	-0.47215828
1	0x3f1a93d6	0.6038183

weight f4 [2, 2]
0	0xbf198271	-0.5996466
1	0x3e99ac69	0.3001435
2	0x404e0759	3.2191985
3	0xbe6d4034	-0.23169023

weight f4 [1, 2]
0	0xbf0c5092	-0.5481044
1	0xbf0bf9b2	-0.5467788

weight f4 [2, 2]
0	0x3e41dad9	0.1893114
1	0x3c0df66f	0.008664711
2	0x4058ce94	3.3876085
3	0xc0ce1a76	-6.44073

bias f4 [2]
0	0xbf89682e	-1.0734918
1	0xbe64af8e	-0.22332594

weight f4 [2, 2]
0	0x3ee2fbbe	0.4433269
1	0xbb3760c6	-0.0027981265
2	0x3f62f4ff	0.88655084
3	0xbeae697c	-0.34064853

weight f4 [1, 2]
0	0x3c871b60	0.016492546
1	0xbf33edf9	-0.7028499

weight f4 [2, 2]
0	0xbfc665da	-1.5499833
1	0x3fa70831	1.3049375
2	0xbde7cf3b	-0.11318823
3	0xbf2c31fa	-0.6726376

bias f4 [2]
0	0xbe2fc635	-0.17165454
1	0xbe73a509	-0.23793425

weight f4 [2, 2]
0	0x3fbb6edb	1.4643205
1	0xbdb2c4a2	-0.08728911
2	0x3e758c02	0.2397919
3	0x3d843b44	0.064566165

weight f4 [1, 2]
0	0xbe7439f0	-0.23850226
1	0x3e28b90c	0.1647684

weight f4 [2, 2]
0	0xbe21e4e4	-0.15809971
1	0x3e9ebe56	0.3100459
2	0xbe272b98	-0.16325223
3	0x3f4715e6	0.7776779

bias f4 [2]
0	0xbe385d79	-0.18004407
1	0x3fcbf940	1.593544

weight f4 [2, 2]
0	0x3e31603d	0.17321868
1	0xc06de6aa	-3.7172036
2	0xbdf2fae7	-0.11864262
3	0x3ef34427	0.47512934

weight f4 [1, 2]
0	0xbebcdb1f	-0.36885926
1	0x3ec3feca	0.38280326

weight f4 [2, 2]
0	0x3e02ae93	0.12761907
1	0x3f0e9c71	0.5570746
2	0x3f970c6f	1.180067
3	0xbf243548	-0.641438

bias f4 [2]
0	0xbf96698d	-1.1750962
1	0x3f984ea4	1.1898999

weight f4 [2, 2]
0	0xc0cc9991	-6.393746
1	0xbf43d9ad	-0.7650402
2	0x3f45773d	0.7713507
3	0x3f4e08d7	0.8048224

weight f4 [1, 2]
0	0xbc9b0ba0	-0.018926442
1	0x3e9920b2	0.29907757

weight f4 [2, 2]
0	0xbead1c95	-0.3381087
1	0xbec051df	-0.37562463
2	0x3faa1f18	1.3290739
3	0x3f764ef5	0.9621423

bias f4 [2]
0	0x3f8c71cf	1.0972232
1	0x3ff82c0a	1.938844

weight f4 [2, 2]
0	0x3fecc05b	1.8496202
1	0x3e0768b3	0.13223533
2	0x4032add4	2.7918596
3	0xbe5f0510	-0.21779275

weight f4 [1, 2]
0	0xbee5cb7c	-0.4488181
1	0x3e384878	0.17996395

weight f4 [2, 2]
0	0x3f856a66	1.0423095
1	0x3edf2f0b	0.43590578
2	0x3f3e25d3	0.74276465
3	0xbecb592d	-0.39716473

bias f4 [2]
0	0xbf7457f6	-0.9544672
1	0x3f84993d	1.0359265

weight f4 [2, 2]
0	0xc01db0f7	-2.463926
1	0x3e379198	0.17926633
2	0x3f58cf3a	0.846912
3	0xbe415118	-0.18878591

weight f4 [1, 2]
0	0x3def9368	0.116980374
1	0x3f0aac55	0.5416921

weight f4 [2, 2]
0	0xbf535b87	-0.82561535
1	0x3f058ddb	0.5216958
2	0xbeea8997	-0.45808098
3	0x3ee49e06	0.44651812

bias f4 [2]
0	0xbf9fb385	-1.247666
1	0xbe8bd523	-0.27311048

weight f4 [2, 2]
0	0xbe06bb95	-0.13157494
1	0x3f54d826	0.83142316
2	0x3f8f1264	1.1177487
3	0x3d50a013	0.05093391

weight f4 [1, 2]
0	0xbebf0425	-0.3730785
1	0x3f1d0501	0.6133576

weight f4 [2, 2]
0	0x3fe765a8	1.8077898
1	0xbe4c87ec	-0.19973725
2	0x3db2263a	0.086986974
3	0xbda08a0c	-0.0783883

bias f4 [2]
0	0xbea1456b	-0.31498274
1	0xbfbb78b3	-1.464621

weight f4 [2, 2]
0	0x3f367e31	0.712863
1	0x3f98d53a	1.1940072
2	0xbe5e9158	-0.21735132
3	0xbeab9033	-0.33508453

weight f4 [1, 2]
0	0x3ea946ca	0.3306182
1	0xbde12230	-0.10992849

weight f4 [2, 2]
0	0xbfad27e3	-1.3527797
1	0x3fea48ae	1.830343
2	0x3fe8ae09	1.8178111
3	0xbfe27a5b	-1.769359

bias f4 [2]
0	0x3b99910c	0.0046864804
1	0x3db75065	0.08950881

weight f4 [2, 2]
0	0xbedc41c3	-0.43018922
1	0xbf61f76c	-0.8826816
2	0x3f30b48c	0.6902549
3	0x3f4e41e8	0.80569315

weight f4 [1, 2]
0	0xbf0b29db	-0.5436074
1	0xbebacb66	-0.36483306

weight f4 [2, 2]
0	0x3f4c7c28	0.7987695
1	0x3b9fc0c2	0.0048752734
2	0x3ebb971c	0.36638725
3	0xbe3e5dd3	-0.18590479

bias f4 [2]
0	0xbf74a8b1	-0.955699
1	0x3fbd6221	1.4795572

weight f4 [2, 2]
0	0x3f8ed8a9	1.115987
1	0x3ed7a996	0.4212157
2	0xbe10745d	-0.14106889
3	0xbfbee642	-1.4914019

weight f4 [1, 2]
0	0x3ebd10e6	0.36926955
1	0x3dcec198	0.10095519

weight f4 [2, 2]
0	0x3f142b6b	0.5787875
1	0x3ffe1829	1.9851123
2	0x3d80ee03	0.06295397
3	0xbeecf3f7	-0.4627988

bias f4 [2]
0	0xbf3b6572	-0.7320167
1	0xbf838899	-1.0276061

weight f4 [2, 2]
0	0x3ef3f2ec	0.47646272
1	0xbf677716	-0.90416086
2	0xbeb6e4b9	-0.35721377
3	0x3fdbdd36	1.7176883

weight f4 [1, 2]
0	0x3e71edf0	0.23625922
1	0x3f128cf5	0.57246333

weight f4 [2, 2]
0	0x3f1aef27	0.6052117
1	0x3fbe5f04	1.4872746
2	0x3e638e4b	0.22222249
3	0x3c201cbd	0.009772477

bias f4 [2]
0	0x3f9d58f0	1.2292767
1	0x3e4f7838	0.20260704

weight f4 [2, 2]
0	0x3f22de6d	0.63620645
1	0x3e141520	0.14461184
2	0x3f582786	0.8443531
3	0x3ea5f296	0.3241164

weight f4 [1, 2]
0	0xbe3d6988	-0.18497288
1	0x3eff86ee	0.4990763

weight f4 [2, 2]
0	0xbf559826	-0.83435285
1	0x3ecc2ea6	0.3987934
2	0xbfe7e781	-1.8117524
3	0x3f3695d4	0.7132237

bias f4 [2]
0	0x3fb313e4	1.3990445
1	0x3f76026a	0.96097434

weight f4 [2, 2]
0	0x3f3357ae	0.70055664
1	0x3f29ee2b	0.6637904
2	0x40268a33	2.602185
3	0xc04363aa	-3.052958

weight f4 [1, 2]
0	0x3e030c38	0.1279763
1	0x3e570bf0	0.21000648

weight f4 [2, 2]
0	0x3ef0466d	0.4692873
1	0xbf66fbac	-0.9022777
2	0x40164e98	2.348547
3	0xbf543aa7	-0.82901996

bias f4 [2]
0	0x3ebd81ee	0.3701319
1	0x3e3ae946	0.18253049

weight f4 [2, 2]
0	0x3f3c2c23	0.7350485
1	0x3e931a4a	0.28730994
2	0xbee7f76b	-0.45305952
3	0xbf4caad8	-0.79948187

weight f4 [1, 2]
0	0x3f020cb1	0.50800616
1	0xbe250dd0	-0.1611855

weight f4 [2, 2]
0	0x3fc75056	1.5571392
1	0xbda7f97d	-0.08201883
2	0x3ea1d47a	0.3160742
3	0xbeb9ac6a	-0.36264354

bias f4 [2]
0	0xbf744ade	-0.9542674
1	0x3f98829e	1.1914861

weight f4 [2, 2]
0	0x3fcaf7a6	1.5856826
1	0x3dffaba3	0.12483909
2	0x3f06bed4	0.5263493
3	0x3faa2c60	1.3294792

weight f4 [1, 2]
0	0x3e79aa5c	0.24381393
1	0xbe1ed7f8	-0.15512073

weight f4 [2, 2]
0	0x3fa24d19	1.2679778
1	0x3f4f2d9e	0.8092898
2	0xbf5d5f4c	-0.86473536
3	0xbfa56a1e	-1.2923009

bias f4 [2]
0	0x3ea55412	0.32290703
1	0xbefe76ef	-0.49700114

weight f4 [2, 2]
0	0x4095323f	4.6623836
1	0xc0b23c2a	-5.5698442
2	0x3fa33cbd	1.2752911
3	0x3e966080	0.293705

weight f4 [1, 2]
0	0x3d1a3c90	0.037655413
1	0xbdabc468	-0.08387071

weight f4 [2, 2]
0	0xbe637a7f	-0.22214697
1	0x3fb0cfdf	1.3813437
2	0x3ea7124d	0.3263115
3	0xbf8bcaaf	-1.0921229

bias f4 [2]
0	0x3fb2fbba	1.3983071
1	0x3f7f96ee	0.99839675

weight f4 [2, 2]
0	0x3eed87c0	0.46392632
1	0x3f7ae5c8	0.9800687
2	0x3f6486d1	0.89268214
3	0x3f2d105d	0.67603093

weight f4 [1, 2]
0	0x3ed0020e	0.40626568
1	0xbdd2a810	-0.10285962

weight f4 [2, 2]
0	0x3eb32e40	0.34996223
1	0x3fae59f1	1.3621198
2	0xbe76c428	-0.24098265
3	0x3f179cf5	0.5922387

bias f4 [2]
0	0x402a81d9	2.6641753
1	0x3fb649ae	1.4241235

weight f4 [2, 2]
0	0xbf2d7a90	-0.6776514
1	0x3fc3c303	1.5293888
2	0xbfba307b	-1.4546045
3	0xbf444705	-0.7667087

weight f4 [1, 2]
0	0x3e00e5f0	0.12587714
1	0xbe2d9adc	-0.16953605

weight f4 [2, 2]
0	0x4017a20e	2.369266
1	0xbfdb3c7c	-1.7127833
2	0xbd8c3312	-0.068456784
3	0xbdacd30c	-0.084386915

bias f4 [2]
0	0x3ed7211b	0.42017445
1	0xbd5eea37	-0.054422583

weight f4 [2, 2]
0	0xbd857e53	-0.06518235
1	0x3ed78ef7	0.4210126
2	0x3eef315b	0.46717343
3	0x3f0298c5	0.5101436

weight f4 [1, 2]
0	0xbeb0eb43	-0.3455449
1	0xbe46e058	-0.19421518

weight f4 [2, 2]
0	0x406443ed	3.5666459
1	0x40453562	3.0813832
2	0x3f95c271	1.1699964
3	0x3f93cc4a	1.1546719

bias f4 [2]
0	0x3feb3868	1.8376589
1	0x4008331a	2.128119

weight f4 [2, 2]
0	0x3f00a3b6	0.50249803
1	0xbf796971	-0.97426516
2	0xbf4cc52a	-0.7998835
3	0x40175245	2.3643963

weight f4 [1, 2]
0	0x3ea2d58a	0.31803542
1	0xba952200	-0.0011377931

weight f4 [2, 2]
0	0xbf98417d	-1.1894985
1	0x3f09ab78	0.53777266
2	0x3fb657b3	1.4245514
3	0xbfa6ae2a	-1.3021901

bias f4 [2]
0	0x3e3bac34	0.18327409
1	0xbe2677a9	-0.16256584

weight f4 [2, 2]
0	0x3ffca0f4	1.9736619
1	0x3f5001d3	0.81252784
2	0x3f24140a	0.6409308
3	0x3fb44d8f	1.4086169

weight f4 [1, 2]
0	0xbbfbde00	-0.0076863766
1	0xbf0342cc	-0.512738

weight f4 [2, 2]
0	0xbecd0997	-0.4004638
1	0xbedbce9b	-0.42931065
2	0x3fbec8e6	1.4905059
3	0x3fae51c0	1.3618698

bias f4 [2]
0	0x3fd70713	1.6799034
1	0xbd4452b4	-0.047930434

weight f4 [2, 2]
0	0xbf98d054	-1.1938577
1	0x3f4e0c3e	0.8048743
2	0x3f3f5d7e	0.7475203
3	0x3ea72016	0.32641667

weight f4 [1, 2]
0	0x3e0320ac	0.12805432
1	0x3f1c63e9	0.6108995

weight f4 [2, 2]
0	0x3e562b74	0.20915014
1	0xbc4965c3	-0.012292328
2	0xbf2c8d29	-0.67402893
3	0x3f738214	0.9512036

bias f4 [2]
0	0x3fd733ce	1.6812685
1	0x3f151d2b	0.5824763

weight f4 [2, 2]
0	0x3f7d9ed7	0.99070495
1	0x3f3928a1	0.7232762
2	0x3f8e0d3b	1.1097788
3	0x3f5e5c9b	0.86860055

weight f4 [1, 2]
0	0x3e83168c	0.2560314
1	0x3f03d57b	0.5149762

weight f4 [2, 2]
0	0xbcf2c8e8	-0.029636815
1	0x3d2c7965	0.04210796
2	0xbf45fca8	-0.7733865
3	0xbfd3a0aa	-1.6533406

bias f4 [2]
0	0x3fadfc5a	1.3592637
1	0xbed6b934	-0.41938174

weight f4 [2, 2]
0	0x407892eb	3.8839672
1	0xbe7edbc6	-0.24888524
2	0x3f901f7e	1.1259611
3	0x3f90fd07	1.1327218

weight f4 [1, 2]
0	0x3b2dbd00	0.0026510358
1	0xbe386888	-0.18008626

weight f4 [2, 2]
0	0x3f521b0d	0.82072526
1	0xbf19b71f	-0.60045046
2	0xc03eb720	-2.979927
3	0x4067dc38	3.622816

bias f4 [2]
0	0x3eba2bf0	0.36361647
1	0x40070345	2.1095746

weight f4 [2, 2]
0	0x3f97b187	1.1851052
1	0xbfc69bdc	-1.5516315
2	0x4013d4ca	2.3098626
3	0x3db67df7	0.08910745

weight f4 [1, 2]
0	0xbd4bd630	-0.049764812
1	0x3e66d984	0.22543913

weight f4 [32, 2]
0	0x3fb4f6e3	1.4137844
1	0x3edc0c62	0.42978197
2	0x3f37761b	0.7166459
3	0x3f93f5c5	1.1559378
4	0xc0800f01	-4.0018315
5	0x3e5b1a96	0.2139686
6	0x3ff33f29	1.900365
7	0x3e3952b3	0.18097953
8	0xbeeddb69	-0.4645646
9	0x40250700	2.5785522
10	0xc03b1311	-2.9230387
11	0xbfbf7f44	-1.4960713
12	0xc0187f36	-2.3827643
13	0xbf5e5eef	-0.8686361
14	0x3e76677e	0.24062917
15	0xc00c9892	-2.1968122
16	0xc02b9797	-2.6811273
17	0x3fdbcd01	1.7171937
18	0x3f912705	1.1340033
19	0xbfb13397	-1.3843869
20	0xbf0f407c	-0.5595777
21	0xbf992b8e	-1.1966417
22	0xbf2f6016	-0.6850599
23	0xc0453eac	-3.0819502
24	0x3ff5ec3b	1.9212717
25	0x3f8e1547	1.1100243
26	0xbf9acb53	-1.20933
27	0xc0162809	-2.3461936
28	0x3fab622a	1.3389332
29	0x3f328225	0.69729835
30	0xbec661e8	-0.38746572
31	0x3f153503	0.58284014
32	0x402573da	2.585196
33	0x3e9cde92	0.30638558
34	0xbfbb53f8	-1.4635
35	0xbf95027b	-1.1641382
36	0x3f5d22aa	0.8638102
37	0x3f97d5bf	1.1862105
38	0xbfa1a069	-1.2627078
39	0xbf0ba384	-0.5454638
40	0x3f8005c2	1.0001757
41	0x3fd9a0cc	1.7002196
42	0xbf65d94b	-0.8978469
43	0xc014141c	-2.3137274
44	0xc0308744	-2.758256
45	0x3fcbd166	1.5923278
46	0xc0438ecd	-3.0555909
47	0x3f4d63c3	0.8023035
48	0x3facc173	1.3496536
49	0x3f0df69d	0.55454427
50	0xbf3617ae	-0.7112988
51	0x3f92478a	1.1428082
52	0x3fc6d79e	1.5534551
53	0x3fb515f9	1.414733
54	0x3fa80e67	1.3129395
55	0xbee2f520	-0.4432764
56	0x3faa3524	1.3297467
57	0x3ea90f45	0.33019462
58	0xbfa851e5	-1.3149992
59	0x3f4bb72b	0.7957637
60	0xbfe8d58a	-1.8190167
61	0x4019c16f	2.4024312
62	0x4026cbd1	2.60619
63	0xbf079d7d	-0.52974683

bias f4 [32]
0	0xbea2a326	-0.31765097
1	0x3eae8d49	0.34092167
2	0x3de43f94	0.11144939
3	0x3ec883b6	0.39162987
4	0x3e12cf63	0.14336924
5	0x3e92b013	0.2864996
6	0xbca470b6	-0.020073276
7	0xbf1be030	-0.6088896
8	0xbeceff39	-0.40429094
9	0x3eaf9c67	0.34299013
10	0xbf1102b7	-0.5664477
11	0x3e3be509	0.18349089
12	0xbf088af5	-0.5333703
13	0x3e3cedcf	0.18450092
14	0x3f1c5cb2	0.6107894
15	0xbee39afa	-0.44454175
16	0xbef05148	-0.46937013
17	0xbf43450f	-0.7627725
18	0x3dec3724	0.11533955
19	0x3e205669	0.15657963
20	0x3eecccad	0.46249905
21	0x3e1b8ae1	0.15189697
22	0x3e9216ed	0.28533116
23	0xbe3e4741	-0.18581869
24	0x3ef50028	0.47851682
25	0xbef61f52	-0.4807077
26	0xbe0c0188	-0.13672459
27	0x3f1b0d2d	0.6056698
28	0x3f0c9636	0.54916704
29	0xbf0aa3b0	-0.5415602
30	0x3ddf8859	0.10914678
31	0xbe841dcf	-0.25803992

weight f4 [32, 32]
0	0xbf1f697f	-0.6227035
1	0xbed9d0e0	-0.4254217
2	0xbf37b0d2	-0.7175418
3	0xbe948fa1	-0.2901583
4	0xbf9d9212	-1.2310202
5	0xbea13e24	-0.31492722
6	0x3d5d828d	0.05407958
7	0xbf6ba4aa	-0.9204813
8	0xbf82cb3b	-1.0218271
9	0x3cfce245	0.030869612
10	0x3d460a5e	0.04834973
11	0xbf864d62	-1.0492365
12	0xbf21ce2d	-0.63205224
13	0xbf2f3021	-0.68432814
14	0xbe1d8104	-0.15381247
15	0xbdf8f029	-0.12155182
16	0xbf7e949b	-0.99445504
17	0xbe700aaf	-0.23441575
18	0xbf1a440e	-0.60260093
19	0x3e000416	0.12501559
20	0xbec0f1cf	-0.37684485
21	0xbf2018c2	-0.6253778
22	0xbf983aa0	-1.1892891
23	0xbf34e596	-0.7066282
24	0xbe975ed9	-0.2956455
25	0xbea577fa	-0.32318097
26	0xbf0cc4a2	-0.5498754
27	0x3dc2aa3a	0.095051244
28	0x3d230b90	0.03980595
29	0xbecbf25f	-0.39833352
30	0xbf91709c	-1.1362491
31	0xbef58ec6	-0.4796049
32	0xbf90c112	-1.130892
33	0xbe77a301	-0.24183275
34	0xbfe1bada	-1.7635148
35	0xbf3f205b	-0.74658746
36	0xbf18e803	-0.5972902
37	0xbf9e7dcb	-1.2382139
38	0xbf20d9c1	-0.62832266
39	0xbf7fc38c	-0.99907756
40	0xbf846974	-1.0344682
41	0xbf9d7c6b	-1.2303594
42	0x3e70f576	0.23531136
43	0xc021a7f1	-2.5258753
44	0xbfeccfaf	-1.850088
45	0xbff230d5	-1.8921152
46	0xbee2e097	-0.44311973
47	0x3e2a1edb	0.16613333
48	0xbfc8c827	-1.5686082
49	0x383cd09c	4.5016975e-05
50	0xbe9bbe66	-0.304187
51	0xbe41c5ff	-0.18923186
52	0xbd3369ba	-0.043802
53	0xbff2d2f2	-1.8970625
54	0xbf5eefa9	-0.8708444
55	0xbf136023	-0.5756857
56	0xbf36b6e4	-0.7137282
57	0xbe8ebe5e	-0.27879614
58	0xbe0bad40	-0.13640308
59	0xbf59814b	-0.8496291
60	0xbf2dae2b	-0.67843884
61	0xbde7f63a	-0.11326261
62	0xbf650162	-0.89455235
63	0xbff0976f	-1.8796214
64	0x3eacbde4	0.33738625
65	0x3e6b7929	0.22995438
66	0x3ec1d331	0.3785644
67	0xbe800bb3	-0.25008926
68	0x3f62753f	0.88460153
69	0x3ebfb452	0.3744226
70	0x3e590a35	0.211953
71	0x3ec0ad21	0.37632087
72	0x3f098868	0.53723764
73	0xbf832f48	-1.0248804
74	0x3ea7053e	0.32621187
75	0xbefff40d	-0.49990883
76	0x3e7fdf11	0.24987437
77	0xbf06510d	-0.52467424
78	0xbdb50580	-0.0883894
79	0x3e99f76e	0.30071586
80	0x3e93f0ce	0.28894657
81	0x3db74327	0.08948355
82	0x3e66e141	0.22546865
83	0x3c857452	0.016290817
84	0x3ec94879	0.39313105
85	0xbec10956	-0.37702435
86	0x3ec20441	0.3789387
87	0x3e89195c	0.2677716
88	0xbe04d39b	-0.12971346
89	0x3ee85eb6	0.4538476
90	0xbd9dcb52	-0.07704796
91	0xbf1f8feb	-0.62328976
92	0xbebc5f3c	-0.36791408
93	0x3e9a0023	0.3007823
94	0x3f53b6c6	0.82700765
95	0x3d5a1ed0	0.05325204
96	0xbf741794	-0.9534848
97	0xbf0b1563	-0.5432951
98	0xbf8e2b33	-1.1106933
99	0xbf848f58	-1.0356245
100	0xbedf5cff	-0.43625638
101	0xbf868377	-1.050887
102	0xbf091845	-0.5355266
103	0xbf25b2be	-0.64725864
104	0xbf15b42c	-0.58478045
105	0xbf9f3169	-1.2436954
106	0x3e240d6a	0.16020742
107	0xc01a878b	-2.414523
108	0xc017a23e	-2.3692775
109	0xc00fa2aa	-2.2443032
110	0xbf176f57	-0.59154266
111	0x3e62d992	0.22153309
112	0xbfe6d122	-1.8032572
113	0x3cba71b3	0.022759294
114	0xbee95be0	-0.45577908
115	0xbe241c88	-0.16026509
116	0x3db68362	0.08911778
117	0xbff43026	-1.9077194
118	0xbf58770f	-0.8455667
119	0xbeb324e2	-0.34989077
120	0xbf3b886d	-0.73255044
121	0xbdee8b59	-0.11647672
122	0xbe068c1e	-0.13139388
123	0xbf55bfce	-0.83495796
124	0xbf2de857	-0.6793265
125	0xbb6b8ebe	-0.0035943235
126	0xbf41543d	-0.7551916
127	0xbfd19a04	-1.6375127
128	0xbf203418	-0.6257949
129	0xbe6a103a	-0.22857752
130	0xbfb94a3e	-1.4475782
131	0xbf499d71	-0.7875586
132	0xbee38375	-0.4443623
133	0xbf96e2e2	-1.1787989
134	0xbf4f605a	-0.81006396
135	0xbf87e0b4	-1.0615449
136	0xbf6e9b02	-0.93205273
137	0xbf662162	-0.8989469
138	0x3dd48fdb	0.10379001
139	0xc02b3b52	-2.6754956
140	0xbfb7720c	-1.4331679
141	0xc00a114d	-2.157306
142	0xbf05773d	-0.5213507
143	0xbcb56de1	-0.02214712
144	0xbfabb456	-1.3414409
145	0x3b922e05	0.0044610524
146	0xbc827339	-0.015924083
147	0xbec97b7c	-0.39352024
148	0x3e60309a	0.2189354
149	0xbfe8844f	-1.8165377
150	0xbf84ba05	-1.0369269
151	0xbf05741d	-0.521303
152	0xbebf82da	-0.3740452
153	0xbe7d978c	-0.24764842
154	0x3d210e5b	0.03932033
155	0xbf3d1e90	-0.7387476
156	0xbef5a8c5	-0.47980323
157	0xbdde7e15	-0.10863892
158	0xbf482ac2	-0.78190243
159	0xbfbd257a	-1.4777062
160	0xbf0a0b1d	-0.5392321
161	0xbfad96ee	-1.3561685
162	0x3f98cda2	1.1937754
163	0xbe9e2756	-0.30889386
164	0x3d05beaf	0.032652553
165	0x3f27cb53	0.65544623
166	0x3ea48cf9	0.32138804
167	0x3efafa9f	0.49019334
168	0x3eddefd9	0.43347052
169	0x3e0c68d9	0.13711871
170	0xbe1120d2	-0.14172676
171	0x3eb72b58	0.35775256
172	0xbf9ef05d	-1.2417103
173	0x3f07cb72	0.5304481
174	0xbf0f18eb	-0.55897397
175	0xbef37095	-0.4754683
176	0xbf6d38c9	-0.9266477
177	0x3e9929d0	0.29914713
178	0xbf96852e	-1.1759393
179	0x3eb9cc1a	0.3628853
180	0xbfa71bb8	-1.3055334
181	0x3ea78e8d	0.32725945
182	0x3f91f33a	1.1402352
183	0x3f15614c	0.5835159
184	0xbf31aedd	-0.69407445
185	0xbe458ec8	-0.19292748
186	0xbf82552e	-1.0182245
187	0x3e1a2424	0.15052849
188	0xbe31dc46	-0.17369184
189	0xbe4cb863	-0.19992213
190	0x3f08c1a4	0.5342047
191	0xbf0b6829	-0.5445581
192	0x3d08593d	0.03328823
193	0xbf0231e2	-0.50857365
194	0xbe0a97e5	-0.13534506
195	0xbe5797d8	-0.21054018
196	0x3dde0479	0.10840697
197	0xbcae9ee7	-0.021316005
198	0xbda52fab	-0.080657326
199	0x3f3aabf1	0.7291861
200	0x3c880693	0.016604697
201	0xbeb35b4a	-0.35030586
202	0x3ed47530	0.41495657
203	0xbeedf3a4	-0.46474946
204	0x3d94f7bf	0.07273816
205	0xbdb82abe	-0.089925274
206	0xbf17ffaf	-0.5937452
207	0x3eb27888	0.34857583
208	0x3e2f68c7	0.17129813
209	0x3f32feea	0.6992022
210	0xbdfc049a	-0.12305565
211	0x3da70b98	0.08156508
212	0xbed9b095	-0.42517534
213	0xbc84c521	-0.01620728
214	0x3e34f58c	0.17671794
215	0xbe570cc9	-0.21000971
216	0xbf13d96b	-0.5775363
217	0x3ebcfa45	0.3690969
218	0xbdc817a4	-0.09770134
219	0xbf0336f7	-0.51255745
220	0xbf34638b	-0.7046439
221	0x3ebbd163	0.36683187
222	0x3ca04efe	0.019568916
223	0xbdf340e9	-0.11877615
224	0xbd166c18	-0.03672418
225	0x3fa0e23c	1.2569041
226	0xbdda9d50	-0.10674536
227	0xbde89158	-0.11355847
228	0x3f918ad0	1.1370487
229	0xbe902e55	-0.2816035
230	0xbf072331	-0.5278807
231	0xbf929729	-1.145238
232	0x3ef50a01	0.47859195
233	0xbf14bdce	-0.5810212
234	0xbf0afc2a	-0.5429102
235	0xbf869c01	-1.0516359
236	0xbea6e2db	-0.32594952
237	0xbf697fc8	-0.91210604
238	0x3ebf28cb	0.3733581
239	0xbde645f0	-0.11243808
240	0xbed82c7a	-0.42221433
241	0xbf8053a2	-1.0025523
242	0x3f6e250d	0.93025285
243	0xbecb7cb7	-0.39743587
244	0x3fac348c	1.3453536
245	0xbf339a16	-0.7015699
246	0x3eb1efe7	0.34753343
247	0xbd38cf66	-0.045119666
248	0x3ed2a50a	0.4114154
249	0xbcf5f988	-0.030026212
250	0x3e43dc70	0.19127059
251	0xbe7f8c20	-0.24955797
252	0x3e3ae1b9	0.18250169
253	0xbe0d7ffa	-0.1381835
254	0x3f720af3	0.9454796
255	0xbf65952c	-0.89680743

bias f4 [32]
0	0x3ecfd826	0.40594596
1	0xbe29ea7d	-0.16593356
2	0xbf21cd00	-0.6320343
3	0xbe53e62d	-0.20693274
4	0xbe5b7cb0	-0.21434283
5	0x3ea1e0eb	0.3161691
6	0xbf33b9f3	-0.7020561
7	0x3e39b009	0.18133558
8	0xbe55d071	-0.20880295
9	0xbbcf12da	-0.006319386
10	0xbf044b7e	-0.5167769
11	0x3f5c6a41	0.8609963
12	0xbf0541de	-0.5205363
13	0xbe104583	-0.14089017
14	0xbf12ddf8	-0.5736995
15	0xbf6b69ea	-0.9195849
16	0xbda9a3b5	-0.08283178
17	0x3ee60610	0.449265
18	0x3ea0dfb3	0.3142067
19	0x3f16a539	0.5884586
20	0xbf24d213	-0.6438305
21	0xbf32611f	-0.69679445
22	0xbec6587c	-0.38739383
23	0xbe16ccc5	-0.14726551
24	0xbf18e4b4	-0.59723973
25	0xbda2e1a5	-0.079531945
26	0xbd8cc3ed	-0.068733074
27	0x3e913e31	0.2836776
28	0xbe4af112	-0.19818524
29	0xbe16380f	-0.14669822
30	0xbe8577b1	-0.2606788
31	0x3e945710	0.28972673

weight f4 [32, 32]
0	0x3d59241e	0.05301296
1	0xbf310517	-0.6914839
2	0x3e9489e1	0.29011443
3	0xbf5fbe88	-0.874001
4	0xbf0603a8	-0.5234933
5	0xbf718a22	-0.943514
6	0x3eb0cd88	0.34531808
7	0xbfbd9b0d	-1.4812943
8	0x3d9d10a3	0.07669189
9	0xbf19a523	-0.60017604
10	0x3e34cdb1	0.1765659
11	0xbeae6a1b	-0.34065327
12	0x3e37c47f	0.17946051
13	0xbec8ce21	-0.39219764
14	0x3d554a1b	0.052072626
15	0x3ed31b87	0.4123194
16	0xbf105cf1	-0.5639182
17	0x3ec5d676	0.38640183
18	0x3f1b4a8d	0.6066063
19	0x3d9b1e92	0.0757419
20	0x3eaa8fbb	0.33312783
21	0x3e95bb63	0.29244527
22	0x3e8cd0d2	0.27503067
23	0xbf3d208c	-0.7387779
24	0x3ef0b81d	0.47015467
25	0xbf7a4b47	-0.97771114
26	0xbf8ed333	-1.1158203
27	0xbdf10157	-0.11767834
28	0xbec4b822	-0.38421732
29	0x3e3a91b3	0.18219642
30	0xbf1aa2fd	-0.6040495
31	0xbebcd6c1	-0.36882594
32	0x3ea5e36d	0.32400075
33	0xbd9cc1b9	-0.07654137
34	0x3e9d84b3	0.30765304
35	0xbe285778	-0.16439617
36	0x3dc47ed2	0.095945016
37	0xbf68383b	-0.907108
38	0x3ddb520f	0.10709011
39	0xbf8e2af2	-1.1106856
40	0x3d51e4ee	0.051243715
41	0x3e6c41d7	0.23071991
42	0x3e0abf93	0.13549642
43	0xc0298508	-2.6487446
44	0xbd94e962	-0.07271077
45	0xbe0eb6e4	-0.13936955
46	0xbd40e616	-0.047094427
47	0x3dfd5280	0.12369251
48	0xbf34f950	-0.7069292
49	0xbf1280ed	-0.57227975
50	0x3f129718	0.572618
51	0x3ed3fef4	0.4140545
52	0x3e95f28d	0.29286614
53	0x3dc34eec	0.095365375
54	0x3e320836	0.17385945
55	0x3cb9acf5	0.02266548
56	0x3eae74b6	0.34073418
57	0xbeaa34ce	-0.33243412
58	0xbeaffd66	-0.34373015
59	0x3e7b21c6	0.24524602
60	0xbefee3ec	-0.49783266
61	0x3e1262b0	0.14295459
62	0xbea6e36a	-0.32595378
63	0xbf592548	-0.8482251
64	0x3f69260c	0.9107368
65	0xc013886b	-2.3052013
66	0x3c8964be	0.01677167
67	0xbfeb9c60	-1.8407097
68	0xbfc0087a	-1.5002587
69	0xc004a75a	-2.0727143
70	0xbea735a1	-0.32658103
71	0xc0179823	-2.3686607
72	0xbecdd2a1	-0.4019976
73	0xbe95257d	-0.29130164
74	0xbef3fbfd	-0.4765319
75	0xbfda880b	-1.7072767
76	0xbe93f544	-0.2889806
77	0xbf811f4e	-1.0087678
78	0xbedfccb5	-0.43710867
79	0xbee0ebec	-0.43929994
80	0xc0131643	-2.2982337
81	0xbf8ed280	-1.115799
82	0x400da15d	2.2129738
83	0x3e539f72	0.20666292
84	0xbe82d788	-0.25555062
85	0xbe0cdbc6	-0.13755712
86	0x3f930eab	1.1488851
87	0xbfef7b47	-1.8709496
88	0xbe1521c9	-0.1456367
89	0xbfae2ada	-1.3606827
90	0xbff58458	-1.9181013
91	0x3f06ee15	0.52707034
92	0xbf14b5a3	-0.58089656
93	0x3fa0645f	1.2530631
94	0xbfc384ce	-1.5274904
95	0x3d33509a	0.04377804
96	0x3f200f59	0.6252342
97	0x3c245e5c	0.010032263
98	0xbf0da8e8	-0.55335855
99	0xbe03c6d7	-0.1286882
100	0xbe15af58	-0.1461767
101	0xbe17942b	-0.14802615
102	0xbf1a587a	-0.60291255
103	0xc027515a	-2.6143403
104	0xbf25feca	-0.648419
105	0xbec32aa5	-0.38118473
106	0xbf0390de	-0.51392925
107	0x3ea29c22	0.31759745
108	0xbf04b10c	-0.5183265
109	0xbee47023	-0.44616804
110	0xbf083ffb	-0.53222626
111	0xbf11c299	-0.5693756
112	0xbff47cac	-1.9100547
113	0xbf430054	-0.76172376
114	0x3f87d7d6	1.0612743
115	0x3f338b3e	0.7013434
116	0xbf08640a	-0.5327765
117	0xbf3160a3	-0.6928808
118	0xbf0d684e	-0.5523728
119	0xbee51b60	-0.44747448
120	0xbd14a796	-0.036292635
121	0xbecbe66a	-0.3982423
122	0xbefe6345	-0.49685112
123	0x3f17c227	0.5928063
124	0xbf653cd0	-0.8954592
125	0x3f12cf09	0.5734716
126	0xc0088ceb	-2.133601
127	0xbe41a8ba	-0.1891202
128	0x3ef592f2	0.47963673
129	0xbe15841d	-0.14601178
130	0x3e4f1afe	0.2022514
131	0xbe7c4728	-0.24636519
132	0xbd50dc9b	-0.050991636
133	0xbf3cebfe	-0.73797596
134	0x3ec283c8	0.37991166
135	0xbf97e2b4	-1.1866059
136	0x3e0fd592	0.14046314
137	0x3e7c9baa	0.24668756
138	0x3ed57761	0.4169264
139	0xbffbd98f	-1.9675769
140	0x3ec91bf5	0.39279142
141	0xbeabb755	-0.3353831
142	0x3e5b34c6	0.2140685
143	0x3f0cf08b	0.5505454
144	0xbef7e4d9	-0.48416784
145	0xbf00f1db	-0.5036904
146	0x3f14a727	0.58067554
147	0x3e89c908	0.26911187
148	0x3ee52f51	0.44762662
149	0x3e880938	0.26569533
150	0x3ea098d4	0.313666
151	0x3e59ed7f	0.21282004
152	0x3ebe864b	0.37211832
153	0xbe67b6a5	-0.22628267
154	0xbd2a9bc4	-0.041652456
155	0x3eef62e3	0.46755132
156	0xbe751d17	-0.23936878
157	0x3e179c7d	0.1480579
158	0xbec22e02	-0.37925726
159	0xbf26d01c	-0.651613
160	0x3f074f50	0.52855396
161	0xbee24c67	-0.44198915
162	0xbdefac8c	-0.117028326
163	0xbeebc471	-0.4604831
164	0xbdba5ccf	-0.09099733
165	0xbf78d08e	-0.9719323
166	0xbe1b09f6	-0.15140519
167	0xbf36f858	-0.7147269
168	0xbeae01ed	-0.33985844
169	0x3d7a08d7	0.061043587
170	0xbe56eb52	-0.20988205
171	0xc041ab49	-3.0260794
172	0xbeacdec3	-0.33763704
173	0xbf17d839	-0.59314305
174	0xbe0f9110	-0.1402018
175	0xbe6501ed	-0.22364016
176	0xbf9407c6	-1.1564872
177	0xbf766ce6	-0.96259916
178	0x3e842692	0.25810677
179	0x3f2b2368	0.668509
180	0xbdae623e	-0.08514832
181	0xbe196698	-0.14980543
182	0x3e7a4a27	0.2444235
183	0xbf29fc39	-0.66400486
184	0x3dbed7e3	0.09318521
185	0xbeecfd45	-0.4628698
186	0xbecde6bc	-0.402151
187	0x3eebb217	0.4603431
188	0xbf3e462e	-0.74325836
189	0x3e1bb41d	0.15205427
190	0xbf0da35f	-0.5532741
191	0xbf3aa4d5	-0.72907764
192	0x3ec65380	0.3873558
193	0x3e6f1415	0.23347504
194	0xbf01782a	-0.5057398
195	0x3f02eb82	0.51140606
196	0x3e8baacb	0.27278742
197	0x3eb13094	0.34607375
198	0xbec82178	-0.39088035
199	0xbe479ce9	-0.1949345
200	0xbea7e522	-0.32792002
201	0x3dc6c25e	0.09705041
202	0xbec91cf2	-0.39279896
203	0xbc138bf3	-0.009005534
204	0xbed7804d	-0.42090073
205	0xbed86b91	-0.42269567
206	0xbe90dc20	-0.28292942
207	0xbfa814b5	-1.3131319
208	0xbf6beb7a	-0.92156184
209	0x3e3b44fc	0.18288034
210	0x3f7667ec	0.9625232
211	0x3eeac7bb	0.45855507
212	0xbf8d9219	-1.106021
213	0xbed10867	-0.40826723
214	0xbf32184e	-0.69568336
215	0x3ea39318	0.3194816
216	0xbecb4840	-0.3970356
217	0x3e8c2695	0.27373186
218	0x3e91d35b	0.28481564
219	0x3ee14a5e	0.4400205
220	0xbdd397df	-0.103317015
221	0x3ed81f9a	0.4221161
222	0xbff730b7	-1.9311742
223	0xbd9160b3	-0.07098522
224	0xbd1815ee	-0.03713029
225	0xbfdddd4e	-1.7333162
226	0xbe644236	-0.22290882
227	0xbfe95097	-1.8227719
228	0xbfcd3944	-1.6033101
229	0xbf9cb2a5	-1.2242018
230	0xbe2cbd0a	-0.16868988
231	0xbf196569	-0.59920365
232	0xbef4da78	-0.47822928
233	0xbd4521e4	-0.048128024
234	0xbeb383da	-0.35061532
235	0xbf3ab40e	-0.7293099
236	0xbe767ce9	-0.24071087
237	0xbfae2697	-1.3605527
238	0xbe5c5a72	-0.21518877
239	0xbe82d455	-0.2555262
240	0x3ce4f100	0.027946949
241	0xbe6570df	-0.22406338
242	0x3fb46b7f	1.4095305
243	0xbe571faf	-0.2100818
244	0xbe6b9ef4	-0.23009855
245	0xbcc07213	-0.023491895
246	0xbd7eb065	-0.06217994
247	0xbffead31	-1.9896604
248	0xbe3649fb	-0.17801659
249	0xbfca9b8b	-1.5828718
250	0xbff02471	-1.8761121
251	0xbe0b005d	-0.13574357
252	0xbf1dd274	-0.6164925
253	0x3f174016	0.5908216
254	0x3f92439f	1.1426886
255	0x3e8e43eb	0.27786192

bias f4 [32]
0	0xbec396c7	-0.3820097
1	0xbe02a361	-0.12757637
2	0x3dcab418	0.098976314
3	0x3ed9facd	0.42574158
4	0xbed3cb34	-0.4136597
5	0x3dd4f217	0.103977375
6	0x3eab4f46	0.33458918
7	0xbdaeaa82	-0.085286155
8	0xbe427599	-0.18990172
9	0xbe83b3bf	-0.25723073
10	0xbf196022	-0.5991231
11	0x3f234d66	0.63789976
12	0xbe687305	-0.22700126
13	0xbdff1c66	-0.124565884
14	0x3e82fb3f	0.2558231
15	0x3ebc0008	0.36718774
16	0xbdc86d10	-0.09786427
17	0x3e4d94d5	0.20076306
18	0x3f0704a0	0.5274143
19	0x3ef0750c	0.469643
20	0x3ed4a3af	0.4153113
21	0xbf08df52	-0.5346576
22	0x3f5c772e	0.86119354
23	0x3ed39a8a	0.4132884
24	0x3ee90a43	0.45515642
25	0xbd9874c7	-0.074441485
26	0xbdcf0884	-0.10109046
27	0xbe87caaf	-0.26521823
28	0x3ea027b8	0.31280303
29	0xbdfcd0c3	-0.12344506
30	0x3f182320	0.59428596
31	0x3f28327f	0.6570205

weight f4 [2, 32]
0	0xbee85f12	-0.45385033
1	0xbed49682	-0.41521078
2	0xbf21bcac	-0.63178515
3	0x3ed35379	0.41274622
4	0xbec49664	-0.3839599
5	0xbe8977d4	-0.26849234
6	0x3eac9a52	0.33711487
7	0xbf51bbc4	-0.8192713
8	0x3ea652f8	0.32485175
9	0xbf00de9f	-0.5033969
10	0xbf27f134	-0.6560242
11	0x3ef0d1e6	0.4703514
12	0x3f2e4c4a	0.6808516
13	0x3e8a6ab9	0.27034548
14	0xbe95de99	-0.2927139
15	0x3f368ed0	0.71311665
16	0x3d6198c2	0.05507732
17	0xbe880a54	-0.2657038
18	0x3f56a1df	0.83840746
19	0x3e52039b	0.20509188
20	0x3f3e55d4	0.74349713
21	0xbdcf3c95	-0.10118977
22	0x3fa1595c	1.2605395
23	0x3e5b67d7	0.2142633
24	0x3ea0b58b	0.31388506
25	0xbe918008	-0.28417993
26	0xbe5b8ef3	-0.2144125
27	0x3f1d0225	0.613314
28	0x3e6631e1	0.22479965
29	0xbeb0d52a	-0.3453763
30	0x3e86d5e2	0.26335055
31	0x3f302523	0.68806666
32	0x3eff4ea4	0.49864686
33	0xbf6c2bbd	-0.9225424
34	0x3f8a759a	1.0817139
35	0x3eb8f80d	0.36126748
36	0xbf288e21	-0.6584187
37	0xbf6e5359	-0.9309593
38	0x3da06e4f	0.0783354
39	0xbee23c16	-0.44186467
40	0x3fa92832	1.3215392
41	0xbf95250e	-1.1651933
42	0xbe3bd63f	-0.18343447
43	0x3f7b86a5	0.98252326
44	0x3ef405cf	0.47660682
45	0xbdf66a05	-0.1203194
46	0xbf571148	-0.84010744
47	0x3c83c14d	0.016083384
48	0x3f4b376b	0.79381436
49	0xbf4e2159	-0.80519634
50	0xbf07789b	-0.52918404
51	0x3fb9891a	1.4494965
52	0xbc56406b	-0.013076882
53	0xbe949bbf	-0.29025075
54	0xbe157727	-0.14596234
55	0x3de2db1a	0.110769466
56	0x3f4a95e4	0.79134965
57	0xbf585c12	-0.8451549
58	0xbf19b11a	-0.6003586
59	0x3ef25366	0.47329253
60	0x3f57d817	0.843141
61	0xbf5b74ac	-0.857249
62	0x3e851d86	0.25999087
63	0x3f170996	0.58999

bias f4 [2]
0	0x3e626f98	0.22112882
1	0xbe45170f	-0.19247077
