[Fly_Func]/min_func_ChevMetric_Fly_7.pt (torch_old, 54341 bytes, 136 tensors)

weight f4 [2, 2]
0	0xbf6285fd	-0.884857
1	0xbf75b391	-0.9597712
2	0x3fb63eae	1.4237878
3	0xbeed73b2	-0.4637733

bias f4 [2]
0	0x3f1a64a5	0.6030982
1	0xbf496df2	-0.7868339

weight f4 [2, 2]
0	0xbed587f1	-0.41705278
1	0x3f973c30	1.1815243
2	0x3e5b44c4	0.21412951
3	0xbf33f945	-0.7030223

weight f4 [1, 2]
0	0x3f1c04af	0.60944647
1	0xbef62235	-0.48072973

weight f4 [2, 2]
0	0xbdab6d78	-0.08370489
1	0x3de7d6c9	0.11320264
2	0xbeebf843	-0.46087846
3	0x3e986991	0.2976804

bias f4 [2]
0	0xbf83b430	-1.0289364
1	0xbd0ea6dc	-0.0348271

weight f4 [2, 2]
0	0x3f91c3bc	1.1387858
1	0x3f593d12	0.8485881
2	0x3f357837	0.7088656
3	0x3f1edff3	0.6206047

weight f4 [1, 2]
0	0xbe912046	-0.28344935
1	0x3eb00b9e	0.34383863

weight f4 [2, 2]
0	0x3ef42e50	0.47691584
1	0xbf840338	-1.0313482
2	0x3f80d5cf	1.0065249
3	0xbf72923b	-0.9475438

bias f4 [2]
0	0xbfc135b6	-1.5094516
1	0x3e5500cb	0.20801084

weight f4 [2, 2]
0	0x3ea864ca	0.32889396
1	0x3ff32613	1.8995994
2	0xbc2070da	-0.009792531
3	0x3dfb6ba0	0.12276387

weight f4 [1, 2]
0	0x3e65251c	0.22377437
1	0xbedc82d5	-0.43068567

weight f4 [2, 2]
0	0xbf0f37d9	-0.5594459
1	0x3f906ded	1.1283547
2	0xc000f21c	-2.0147772
3	0xbf4c25da	-0.79745257

bias f4 [2]
0	0xbecb542a	-0.3971265
1	0x4008798a	2.1324182

weight f4 [2, 2]
0	0xbf122fbb	-0.5710408
1	0xbfc02a97	-1.5012997
2	0x3f8c6ac5	1.0970083
3	0xbea016b4	-0.3126732

weight f4 [1, 2]
0	0xbf18e52f	-0.59724706
1	0x3ecac6de	0.3960485

weight f4 [2, 2]
0	0xbf0ba7e2	-0.54553044
1	0x3ebca63e	0.36845583
2	0x3ff504e4	1.9142118
3	0xbf5814ba	-0.84406626

bias f4 [2]
0	0xbebdb012	-0.37048393
1	0x3f34c562	0.7061368

weight f4 [2, 2]
0	0x3f818139	1.0117561
1	0xbd450d83	-0.04810859
2	0xbfc1f8f1	-1.5154096
3	0xbf0c6c2e	-0.5485257

weight f4 [1, 2]
0	0xbef96695	-0.48711076
1	0x3f1dcc7b	0.6164014

weight f4 [2, 2]
0	0xbab5faaa	-0.0013883908
1	0xbc6aaa39	-0.014322811
2	0xbe762882	-0.2403889
3	0x3dd247d7	0.102676086

bias f4 [2]
0	0x3e887e89	0.2665904
1	0x3f10834e	0.56450355

weight f4 [2, 2]
0	0x3f56a6b9	0.8384815
1	0x3ccebbea	0.025236089
2	0x3eeff4cf	0.46866462
3	0xbece5947	-0.40302488

weight f4 [1, 2]
0	0xbe17b2f0	-0.14814353
1	0x3de7e4f0	0.11322963

weight f4 [2, 2]
0	0x3f498729	0.78721863
1	0x3ed1f051	0.4100366
2	0x3d9813fa	0.07425685
3	0xbe552720	-0.20815706

bias f4 [2]
0	0x3e4b892f	0.1987655
1	0x3f910a90	1.1331348

weight f4 [2, 2]
0	0x3f953ca2	1.1659129
1	0xbf21001b	-0.62890786
2	0x3d150e0c	0.03639035
3	0x3e910b54	0.28328955

weight f4 [1, 2]
0	0x3e15d518	0.1463207
1	0xbea317f3	-0.3185421

weight f4 [2, 2]
0	0x402fb4ce	2.7454104
1	0x3f821264	1.0161862
2	0xbee6b16b	-0.45057234
3	0xbf0d4b98	-0.5519347

bias f4 [2]
0	0xbfe66fd8	-1.8002882
1	0x3fa0e002	1.2568362

weight f4 [2, 2]
0	0xbf90e98a	-1.132127
1	0xbf7730f4	-0.9655907
2	0xbe5a5d24	-0.21324593
3	0x3f4ff07f	0.8122634

weight f4 [1, 2]
0	0x3d8e2908	0.0694142
1	0xbee12b4d	-0.43978348

weight f4 [2, 2]
0	0x3e51ee32	0.2050102
1	0x3d57a5ba	0.052648284
2	0xbef53668	-0.4789307
3	0x3ec2c2dc	0.3803929

bias f4 [2]
0	0x3e9a2082	0.30102926
1	0xbf3498b2	-0.70545495

weight f4 [2, 2]
0	0xbb538060	-0.0032272562
1	0x3eedb2cd	0.46425477
2	0xbe6309b7	-0.22171675
3	0xbf799bcc	-0.9750335

weight f4 [1, 2]
0	0x3dacf3d0	0.08444941
1	0x3f26f693	0.6521999

weight f4 [2, 2]
0	0x3fbbcd8e	1.4672105
1	0xbfcc719e	-1.5972173
2	0x3f8511e9	1.0396091
3	0x3ddd678c	0.108107656

bias f4 [2]
0	0xbfdb7860	-1.714611
1	0x3f8d6cfe	1.1048887

weight f4 [2, 2]
0	0xbf3727e2	-0.7154523
1	0x3f1e3ab4	0.61808324
2	0x3c99795c	0.018734626
3	0xbef6c829	-0.48199585

weight f4 [1, 2]
0	0x3e865bf0	0.26242018
1	0xbe7fb502	-0.24971393

weight f4 [2, 2]
0	0x3f688113	0.9082195
1	0x3f93aa9a	1.1536438
2	0x3faa9dcf	1.3329409
3	0xbfe265e9	-1.768735

bias f4 [2]
0	0x3cb802cc	0.022462271
1	0x3e192c37	0.14958273

weight f4 [2, 2]
0	0x3e7285b4	0.23683816
1	0x3f481bd1	0.78167444
2	0xbc6ad287	-0.01433242
3	0x3f76daab	0.9642741

weight f4 [1, 2]
0	0x3eda0ef6	0.4258954
1	0x3d01dbc0	0.03170371

weight f4 [2, 2]
0	0x3ec39eed	0.38207188
1	0x3f70f268	0.9411988
2	0x3e8279c4	0.25483525
3	0xbfdec11b	-1.7402681

bias f4 [2]
0	0x3f2d8ee1	0.6779614
1	0xbf043b0d	-0.51652604

weight f4 [2, 2]
0	0x3f4a774a	0.7908827
1	0x3f07316c	0.52809787
2	0xbdf7817b	-0.12085243
3	0xc0866f80	-4.201111

weight f4 [1, 2]
0	0x3e9a2786	0.3010828
1	0x3d631d50	0.055447876

weight f4 [2, 2]
0	0x3f9ccaca	1.2249386
1	0x3f42ae21	0.7604695
2	0x3f92dd96	1.1473873
3	0x400e5646	2.2240157

bias f4 [2]
0	0x3f6800cc	0.90626216
1	0xbd4f35f0	-0.05058855

weight f4 [2, 2]
0	0x3e844125	0.2583095
1	0x3e46138d	0.19343396
2	0xbcb18014	-0.021667518
3	0x3f94f4ff	1.1637267

weight f4 [1, 2]
0	0x3f2a7e2f	0.6659879
1	0x3e7b50a8	0.24542487

weight f4 [2, 2]
0	0x408359d3	4.104715
1	0x4078cab2	3.8873715
2	0x41072c43	8.448306
3	0xbf947a5f	-1.1599845

bias f4 [2]
0	0xbdfe1ef6	-0.12408249
1	0xbe02347f	-0.12715338

weight f4 [2, 2]
0	0xc18c6a4b	-17.5519
1	0xc0cef9a4	-6.4679737
2	0x3e5cfd46	0.21580991
3	0xbe2da24f	-0.16956447

weight f4 [1, 2]
0	0x3d74a6f0	0.059729517
1	0xbee08df5	-0.43858305

weight f4 [2, 2]
0	0xbc2080ae	-0.009796305
1	0xbd920ad7	-0.07130974
2	0x3de18e67	0.11013489
3	0xbd54c938	-0.05194971

bias f4 [2]
0	0xbfa575f0	-1.2926617
1	0xbf2ac07a	-0.66699946

weight f4 [2, 2]
0	0x3f93912b	1.1528677
1	0x3ea477f5	0.3212277
2	0x3f74a3dd	0.95562536
3	0x3f4b5ad0	0.79435444

weight f4 [1, 2]
0	0x3e2114c8	0.15730584
1	0xbed2e137	-0.4118745

weight f4 [2, 2]
0	0xbedaf35e	-0.427638
1	0x3e539e26	0.20665798
2	0x3eb00980	0.34382248
3	0x3ba9eb60	0.0051855296

bias f4 [2]
0	0x3ed229f8	0.41047645
1	0xbf1f63d5	-0.62261707

weight f4 [2, 2]
0	0x3f521d3b	0.8207585
1	0x3f8622ce	1.0479372
2	0x3f92268a	1.1418011
3	0xbf0cc5ec	-0.54989505

weight f4 [1, 2]
0	0xbebe86fa	-0.37212354
1	0x3ee5d7ce	0.44891208

weight f4 [2, 2]
0	0x3f51692b	0.818011
1	0x3f460b77	0.77361244
2	0x3f6e5ed2	0.93113434
3	0xbf6b482b	-0.91906995

bias f4 [2]
0	0xc00db938	-2.2144299
1	0x3f5fa6ed	0.87364084

weight f4 [2, 2]
0	0xbfc3d67f	-1.5299834
1	0xc00895da	-2.1341462
2	0xbf690ac0	-0.9103203
3	0x3f7323c3	0.94976443

weight f4 [1, 2]
0	0xbef3466b	-0.47514662
1	0x3e8c67e2	0.27423006

weight f4 [2, 2]
0	0xbdb1d5e8	-0.086833775
1	0x3d22f199	0.039781187
2	0xbdf38512	-0.118906155
3	0x3c88bd00	0.016691685

bias f4 [2]
0	0xbeca5bcb	-0.39523157
1	0x3d5bf0bb	0.053696375

weight f4 [2, 2]
0	0x3e84f9b1	0.2597175
1	0xbf01503d	-0.5051306
2	0x3e41759d	0.18892522
3	0x3efe621d	0.4968423

weight f4 [1, 2]
0	0xbe88d417	-0.26724312
1	0xbf2372e8	-0.6384721

weight f4 [2, 2]
0	0xbbafd477	-0.005365904
1	0xbedfa033	-0.4367691
2	0x3e1b2ebb	0.15154545
3	0x3d83b755	0.06431452

bias f4 [2]
0	0xbf6b91be	-0.9201926
1	0xbf24fcc2	-0.6444818

weight f4 [2, 2]
0	0x3dec904b	0.11550959
1	0x3ef66ad9	0.48128393
2	0x3d87e656	0.0663573
3	0x3ead0684	0.33794034

weight f4 [1, 2]
0	0xbf31baab	-0.6942546
1	0xbefbb15e	-0.49158758

weight f4 [2, 2]
0	0x3f5344ff	0.82527155
1	0x3e059240	0.13044071
2	0x3ef2fe39	0.47459581
3	0xc00680e2	-2.1016164

bias f4 [2]
0	0x3eba877f	0.364315
1	0xbe9185d4	-0.28422415

weight f4 [2, 2]
0	0x3fd525a7	1.6652116
1	0xbfa61fd3	-1.2978462
2	0x3f817bdb	1.0115923
3	0x3efa1a43	0.4884816

weight f4 [1, 2]
0	0x3e6687dc	0.22512764
1	0xbe31fd80	-0.17381859

weight f4 [2, 2]
0	0x4034e8d1	2.82671
1	0xbfb3a685	-1.4035193
2	0x3f867e80	1.0507355
3	0x3ea0dc04	0.3141786

bias f4 [2]
0	0xbf1f6091	-0.62256724
1	0xbf9e0372	-1.2344801

weight f4 [2, 2]
0	0xbf915246	-1.1353233
1	0x3f971681	1.1803743
2	0x3f48ec4e	0.7848557
3	0xbf8a5725	-1.0807844

weight f4 [1, 2]
0	0x3e6bc570	0.23024535
1	0xbe5b77e6	-0.21432456

weight f4 [2, 2]
0	0x3e84fad3	0.25972614
1	0xbe3226bc	-0.17397588
2	0x3f1237a1	0.5711613
3	0xbeaaadb1	-0.3333564

bias f4 [2]
0	0x3fb22cec	1.3919959
1	0xbeb8d85e	-0.36102575

weight f4 [2, 2]
0	0xbf8974db	-1.0738786
1	0x3eda8e6d	0.42686787
2	0x3f31cbca	0.6945158
3	0xbf0da8e8	-0.55335855

weight f4 [1, 2]
0	0xbf187a34	-0.5956147
1	0xbda46ab8	-0.080281675

weight f4 [2, 2]
0	0x3fbce259	1.4756576
1	0xbfb2ffe9	-1.3984348
2	0xbfc20fd9	-1.5161086
3	0x3fb31a8e	1.3992479

bias f4 [2]
0	0xbfce744c	-1.6129241
1	0x3fd70f14	1.6801476

weight f4 [2, 2]
0	0xbf68c25c	-0.9092157
1	0xbfa5bff3	-1.2949203
2	0xbeba6f54	-0.36413062
3	0x3d3e72a9	0.046496067

weight f4 [1, 2]
0	0x3f17523d	0.5910986
1	0xbf1116e2	-0.5667554

weight f4 [2, 2]
0	0xbf1c8a48	-0.611485
1	0x3f77e394	0.9683163
2	0x3e05651d	0.13026853
3	0xbdafd2ac	-0.08585104

bias f4 [2]
0	0xbf11d066	-0.56958616
1	0x3f50b9e9	0.81533676

weight f4 [2, 2]
0	0x3e3c2f52	0.18377426
1	0x3f7fe610	0.9996042
2	0x3f0c79af	0.54873174
3	0x3f8077e8	1.0036592

weight f4 [1, 2]
0	0xbebc51f1	-0.36781266
1	0x3e1c3968	0.15256274

weight f4 [2, 2]
0	0xbd63e831	-0.055641357
1	0xc02bcd66	-2.6844115
2	0xbe8c3b8a	-0.27389175
3	0xbe440b77	-0.19144998

bias f4 [2]
0	0xbdb15b93	-0.086600445
1	0xbf77d5bc	-0.9681051

weight f4 [2, 2]
0	0x3ecdbfd0	0.40185404
1	0x3f990eca	1.1957638
2	0x3e56c969	0.2097527
3	0x3ec21c21	0.37912086

weight f4 [1, 2]
0	0x3f1804e3	0.59382457
1	0xbf05a190	-0.5219965

weight f4 [2, 2]
0	0xbf8d31bc	-1.1030803
1	0x3f0e616c	0.55617404
2	0x3e377d7b	0.17918961
3	0xbe77b200	-0.24188995

bias f4 [2]
0	0xbf7ab9e8	-0.9793992
1	0xbf2abce0	-0.6669445

weight f4 [2, 2]
0	0xbd40612e	-0.046967678
1	0xbd45abf4	-0.04825969
2	0x3e0f196d	0.13974543
3	0x3df8cd21	0.121485

weight f4 [1, 2]
0	0xbe17b030	-0.14813304
1	0xbe1a6208	-0.15076458

weight f4 [2, 2]
0	0x3bb9fa62	0.0056756
1	0x3c544875	0.012956728
2	0x3cd4baaf	0.025967924
3	0xbee80db4	-0.45322955

bias f4 [2]
0	0x3f9475dc	1.1598468
1	0x3e27b5b4	0.16377908

weight f4 [2, 2]
0	0x3f80f328	1.0074205
1	0x3ef8d863	0.4860259
2	0xbe41a99c	-0.18912357
3	0xbf3d7e80	-0.7402115

weight f4 [1, 2]
0	0xbf0049f6	-0.50112855
1	0x3eb09232	0.34486538

weight f4 [2, 2]
0	0xbe39141f	-0.18074082
1	0x3e3133b7	0.17304884
2	0xbd8c9774	-0.06864825
3	0x3e830556	0.25590008

bias f4 [2]
0	0xbfb6563c	-1.4245067
1	0xbf767d3f	-0.9628486

weight f4 [2, 2]
0	0xbfb8d79d	-1.44408
1	0x3f8b6096	1.0888851
2	0x3dd5dd60	0.104426146
3	0x3ef38a71	0.4756656

weight f4 [1, 2]
0	0xbf29a4f2	-0.6626731
1	0x3efdc656	0.4956538

weight f4 [2, 2]
0	0xbeb0d10b	-0.34534487
1	0x3df5d9ee	0.120044574
2	0x3e98e276	0.29860276
3	0xbf6bce6f	-0.9211187

bias f4 [2]
0	0x3f637e4c	0.8886459
1	0xbf6d533d	-0.92705137

weight f4 [2, 2]
0	0x3ee76d05	0.45200363
1	0x3f74bd63	0.9560148
2	0x3f2bf02c	0.6716335
3	0x3f118403	0.5684206

weight f4 [1, 2]
0	0x3e9cee76	0.3065068
1	0xbea11bc2	-0.3146649

weight f4 [2, 2]
0	0x3f13cbeb	0.5773303
1	0x3f949e08	1.1610727
2	0xbf6893ef	-0.9085073
3	0x3fe624ee	1.798002

bias f4 [2]
0	0x3e238607	0.15969096
1	0x3e0fdf40	0.14050007

weight f4 [2, 2]
0	0x3fbbfde3	1.4686855
1	0x3f9d88bc	1.2307353
2	0xbf36ecc1	-0.7145501
3	0xbec4e2e3	-0.3845435

weight f4 [1, 2]
0	0xbed07534	-0.4071442
1	0xbc32b300	-0.010906935

weight f4 [2, 2]
0	0xbbf44682	-0.0074546942
1	0xbc215f50	-0.009849384
2	0x3e39c79d	0.18142553
3	0x3d0ef75f	0.03490388

bias f4 [2]
0	0xbf2ef0dc	-0.6833627
1	0x3ea5f402	0.32412726

weight f4 [2, 2]
0	0xbe97d3f3	-0.29653892
1	0x3e0e3281	0.13886453
2	0x3ff9a4ed	1.9503456
3	0x3e28b4c8	0.16475213

weight f4 [1, 2]
0	0xbf01d9ca	-0.50722945
1	0xbe80e15f	-0.25171944

weight f4 [2, 2]
0	0x3f718119	0.9433761
1	0xbe96c787	-0.29449102
2	0x3fe7d781	1.8112642
3	0xbfaa2623	-1.3292888

bias f4 [2]
0	0x3f75c469	0.96002823
1	0xbf81bab2	-1.01351

weight f4 [2, 2]
0	0x3f071a7c	0.52774787
1	0xc013a7cc	-2.3071165
2	0x3ecec7a1	0.4038668
3	0xc019f870	-2.4057884

weight f4 [1, 2]
0	0x3e753c9c	0.23948902
1	0x3edf4dba	0.43613988

weight f4 [32, 2]
0	0xc00144b7	-2.019819
1	0x3e8baddd	0.27281085
2	0xbfc7e97d	-1.561813
3	0x3f16e37a	0.5894085
4	0xbd31ac15	-0.043377
5	0xbea66076	-0.3249547
6	0xbeb6c821	-0.3569956
7	0xbf802894	-1.0012383
8	0x3f9f82ab	1.2461752
9	0x3f491a75	0.78555995
10	0x3f1cd76f	0.61266226
11	0x3fa92517	1.3214444
12	0x3f2fd7c8	0.6868863
13	0xbe04b66b	-0.12960212
14	0xbfc1d5b2	-1.514334
15	0x3ec067c1	0.37579158
16	0x3f8c4231	1.09577
17	0xbd8b73ae	-0.068091735
18	0xbe94ea4b	-0.29085
19	0x3f914b31	1.1351072
20	0xbfc7fc80	-1.5623932
21	0x3f9a138c	1.2037215
22	0x3bb7681a	0.0055971267
23	0xbec59475	-0.38589826
24	0x3ec35bb8	0.38155913
25	0x3fef8eee	1.8715494
26	0xbf97d07c	-1.1860499
27	0x3f5915a1	0.8479863
28	0x3fdf57c1	1.7448655
29	0x400483b7	2.0705392
30	0x3f5a6760	0.8531399
31	0xbf36ebc1	-0.7145348
32	0x3f381b99	0.7191711
33	0xbf2a0c41	-0.6642495
34	0xbf2073eb	-0.62676877
35	0xbf9d4315	-1.2286097
36	0x3e04fd3d	0.12987228
37	0x3f4c9e3b	0.7992894
38	0x3f87d34d	1.0611359
39	0xbe327865	-0.1742874
40	0xbf2a4135	-0.6650575
41	0xbf8f7e2c	-1.121038
42	0xbfee47a1	-1.861561
43	0xbe5faf54	-0.21844226
44	0x3fa6d2d8	1.3033094
45	0x3f8d1283	1.1021274
46	0xbf87102e	-1.0551813
47	0xbfa6fab9	-1.3045264
48	0x3ff7abc4	1.9349294
49	0x3f86cb80	1.0530853
50	0xbfc623aa	-1.5479634
51	0x3f309c5d	0.6898859
52	0x3fd6407b	1.6738428
53	0xbf9e6539	-1.2374641
54	0xbf095c77	-0.53656715
55	0x3f295a92	0.66153824
56	0xc02d621e	-2.7091136
57	0xbf03b6cc	-0.514508
58	0x3ef90f00	0.48644257
59	0xbfe4cd1e	-1.7875097
60	0xbf66c1d7	-0.90139526
61	0x3ec63477	0.38711902
62	0xbf9888eb	-1.1916784
63	0x3ea38404	0.31936657

bias f4 [32]
0	0xbed1cfa3	-0.40978727
1	0xbf0c75eb	-0.5486743
2	0xbef8df60	-0.48607922
3	0xbf011e88	-0.5043721
4	0x3f04ab2d	0.51823694
5	0xbe95783f	-0.29193303
6	0x3ed2522d	0.4107832
7	0xbed09e3f	-0.40745732
8	0xbea315be	-0.31852525
9	0xbedb90cf	-0.42883918
10	0xbed1fc37	-0.41012737
11	0xbeaac344	-0.333521
12	0xbecc7685	-0.39934173
13	0xbeb97018	-0.36218333
14	0xbe9d52e3	-0.307273
15	0xbf00b5ac	-0.5027721
16	0x3ee531fe	0.44764704
17	0x3f1596ce	0.58433235
18	0x3ef3b637	0.47599956
19	0xbeb16862	-0.3464995
20	0x3f13540e	0.5755013
21	0xbca4030d	-0.020020986
22	0xbe385b9f	-0.180037
23	0x3f28ef40	0.65990067
24	0x3e12f3f0	0.14350867
25	0xbf0029b0	-0.5006361
26	0xbde02223	-0.10944011
27	0x3ee3c64a	0.4448722
28	0xbe621864	-0.22079617
29	0xbe8d1239	-0.27552965
30	0x3f16ec98	0.58954763
31	0x3d2ddaaf	0.04244488

weight f4 [32, 32]
0	0xbdaab183	-0.08334639
1	0x3e09efcd	0.13470383
2	0x3d7052df	0.058672782
3	0x3e8927b0	0.26788092
4	0xbe4cf107	-0.2001382
5	0xbeac9cab	-0.33713278
6	0xbe9d94ec	-0.3077768
7	0x3d160e8e	0.036634974
8	0xbd662a12	-0.056192465
9	0xbd9216e4	-0.07133272
10	0x3d8400fb	0.064454995
11	0x3dbcfa5b	0.09227439
12	0xbe1bd968	-0.15219653
13	0x3d572585	0.052526016
14	0xbeed3876	-0.4633214
15	0x3e664e71	0.2249086
16	0xbe8ca27f	-0.27467725
17	0xbdfa6f65	-0.12228278
18	0xbe07414d	-0.13208504
19	0xbde1a3df	-0.11017584
20	0xbd6f1c95	-0.058376867
21	0x3ebbbf2c	0.3666929
22	0xbe610676	-0.21975121
23	0xbe14d778	-0.1453532
24	0xbe5b184e	-0.2139599
25	0x3e8248b9	0.25446108
26	0xbf5a1965	-0.85195
27	0x3bccc8c4	0.006249519
28	0xbed3dc4d	-0.41379014
29	0xbf5dbe54	-0.8661854
30	0xbdcae1ab	-0.09906324
31	0x3f0a3e23	0.54001063
32	0xbd53768f	-0.05162674
33	0x3e4c173b	0.19930737
34	0x3e895a06	0.26826495
35	0xbde78eb2	-0.11306514
36	0xbe21ff8d	-0.15820141
37	0xbdaae955	-0.08345286
38	0xbd4f1b63	-0.050563227
39	0x3d2ffaed	0.04296391
40	0x3d81bde6	0.063350484
41	0xbe56da36	-0.20981678
42	0xbe53b446	-0.20674238
43	0xbce82a5d	-0.028340513
44	0xbe81af16	-0.25328892
45	0xbe7141d2	-0.23560265
46	0xbf540efe	-0.82835376
47	0xbcd1c5e9	-0.025607066
48	0xbe26c5f2	-0.16286448
49	0xbd83e902	-0.06440927
50	0xbdd0671d	-0.10175917
51	0x3d53ef78	0.051742047
52	0xbe2ace70	-0.16680312
53	0xbe00815e	-0.1254935
54	0xbe9bf076	-0.30456895
55	0xbd8a4a41	-0.06752444
56	0xbe5d474f	-0.21609233
57	0x3e05a22f	0.1305015
58	0xbf177ddd	-0.5917643
59	0xbd58fb17	-0.052973833
60	0xbeb6ffe1	-0.35742095
61	0xbf65946a	-0.89679587
62	0xbe5ea5ec	-0.21742982
63	0xbd33a629	-0.043859635
64	0xbe0ed48b	-0.13948266
65	0xbdf0545f	-0.117348425
66	0xbdefa399	-0.11701126
67	0x3d4884e5	0.048954863
68	0xbd0022b7	-0.031283107
69	0xbc1aa38b	-0.009438406
70	0xbdfcfd46	-0.123529956
71	0xbdabfc70	-0.08397758
72	0x3d5864e0	0.052830577
73	0x3da6e5b4	0.08149281
74	0xbd0add1f	-0.033902284
75	0x3e3e18d1	0.18564154
76	0xbe55ef4e	-0.20892069
77	0xbda82513	-0.08210196
78	0x3c9bf76c	0.019038878
79	0xbe1a0f5a	-0.15044919
80	0xbbf51939	-0.0074798134
81	0x3e0c195a	0.13681546
82	0x3e1a861a	0.15090218
83	0xbd4f2abc	-0.050577864
84	0x3daa90cf	0.08328401
85	0xbe417cb0	-0.18895221
86	0x3df319ce	0.11870156
87	0xbe394195	-0.18091424
88	0xbcecb858	-0.028896496
89	0xbe14bded	-0.14525576
90	0xbde5e4de	-0.112252936
91	0x3d439cb0	0.04775685
92	0xbe81c9d7	-0.25349304
93	0xbeb9cea6	-0.36290473
94	0x3e0b6a4a	0.13614765
95	0xbd04088c	-0.032234713
96	0x3c01ca64	0.007921789
97	0x3e2e9507	0.17049037
98	0x3e20dbed	0.15708895
99	0xbe8719bc	-0.2638682
100	0xbe65add9	-0.22429599
101	0xbf39df7f	-0.7260665
102	0xbeaa29e7	-0.33235094
103	0x3e50e7e6	0.20400962
104	0xbba3723a	-0.004987982
105	0xbea27ba3	-0.31734952
106	0xbe89d26f	-0.2691836
107	0x3e39d6ff	0.18148421
108	0xbf29cab4	-0.66324925
109	0xbe9d1f90	-0.30688143
110	0xbfa85a54	-1.3152566
111	0xbddcf0ba	-0.107881024
112	0xbead4e52	-0.33848816
113	0xbe024a52	-0.12723663
114	0xbd26e451	-0.040745083
115	0xbe96720e	-0.29383892
116	0xbd592ea6	-0.053023003
117	0x3e8a35de	0.26994222
118	0xbf3f0427	-0.7461571
119	0x3dae359e	0.085063204
120	0xbf6d82dd	-0.92777807
121	0x3e0fb641	0.14034368
122	0xbf8944f6	-1.072417
123	0xbda5608a	-0.08075054
124	0xbf0e908b	-0.55689305
125	0xbfb566a7	-1.4171952
126	0x3dbda68d	0.09260283
127	0x3e60cd10	0.21953225
128	0x3e4d7fe9	0.20068325
129	0x3e333cf7	0.17503725
130	0x3ca158e7	0.019695712
131	0x3d7dd8b2	0.061974235
132	0xbefcf27a	-0.49403745
133	0xbe14b445	-0.14521892
134	0x3d71cbe1	0.059032325
135	0x3e31ff56	0.17382559
136	0xbec14b52	-0.37752777
137	0x3be74774	0.0070580784
138	0x3d3abfcc	0.045593068
139	0xbcca3bae	-0.02468666
140	0xbe9ccfdb	-0.3062733
141	0x3e392f72	0.18084505
142	0xbf4c12c8	-0.7971616
143	0xbe13085e	-0.1435866
144	0x3cc699b9	0.024243223
145	0x3e3aa9cf	0.1822884
146	0xbe302158	-0.1720022
147	0xbe3eaf20	-0.18621492
148	0x3e407ed2	0.18798378
149	0x3f50f28e	0.8162011
150	0xbec38b9e	-0.38192457
151	0x3d839d95	0.06426541
152	0xbf291570	-0.66048336
153	0x3dc072b6	0.093968794
154	0xbf3dba87	-0.74112743
155	0x3d0a7162	0.033799537
156	0xbd9252e3	-0.07144716
157	0xbf0db243	-0.5535013
158	0x3e1bc224	0.15210778
159	0x3f44655e	0.76717174
160	0xbd965955	-0.073412575
161	0xbe279298	-0.16364515
162	0x3d0a5bd4	0.03377898
163	0xbd1c62f3	-0.038180303
164	0xbe3134a3	-0.17305236
165	0x3d481f4a	0.048857965
166	0x3c450fc6	0.012027686
167	0xbd34e1f3	-0.044160794
168	0xbcde1b8e	-0.027112748
169	0xbdd238f6	-0.10264771
170	0xbcf0a8b2	-0.029377315
171	0x3e3e2824	0.1857
172	0xbe2e7a94	-0.17038947
173	0x3d947eb7	0.072507314
174	0xbe48bf39	-0.19604196
175	0x3dc81697	0.09769934
176	0x3d610a68	0.054941565
177	0xbdc791ac	-0.097445816
178	0x3d2d785a	0.042351104
179	0xbdef7e97	-0.11694067
180	0xbe7e736b	-0.24848716
181	0xbed89113	-0.42298183
182	0x3d1d8e93	0.038466047
183	0x3db613c3	0.08890488
184	0xbe9037a5	-0.28167453
185	0xbe2560f1	-0.16150261
186	0xbe7487ae	-0.23879883
187	0xbbef74ae	-0.0073076105
188	0xbd8e893d	-0.0695977
189	0xbed98e30	-0.42491293
190	0x3da96cd4	0.082727104
191	0xbdc82c0a	-0.09774025
192	0xbe841357	-0.25796005
193	0xbb0a9568	-0.0021146182
194	0x3e5dca46	0.21659192
195	0x3e459d77	0.1929835
196	0xbe838011	-0.25683644
197	0x3d1120d8	0.035431713
198	0x3b2b15be	0.0026105489
199	0xbd5808f7	-0.052742925
200	0xbed36e1d	-0.41294947
201	0xbd9a37d7	-0.07530182
202	0xbe863af4	-0.26216853
203	0x3e32cd36	0.17461094
204	0x3eac65dd	0.33671466
205	0x3d96332a	0.073339775
206	0x3e701055	0.2344373
207	0xbe064394	-0.13111717
208	0xbd848ac9	-0.06471784
209	0xbdaec961	-0.08534504
210	0xbdaa08f6	-0.083024904
211	0xbe2347e1	-0.15945388
212	0xbd3dd38c	-0.046344325
213	0xbeb134a4	-0.34610474
214	0xbc2ff500	-0.010739565
215	0x3da39d25	0.07988957
216	0xbe693f84	-0.22778136
217	0xbd9bc2f5	-0.076055445
218	0xbf46e253	-0.77689093
219	0x3d886ee9	0.066617794
220	0xbe48bf54	-0.19604236
221	0x3e4b00e5	0.1982456
222	0x3dfd1918	0.12358302
223	0xbd88091a	-0.06642361
224	0x3e799a21	0.24375202
225	0x3ea15829	0.31512573
226	0x3eb87660	0.36027813
227	0x3ee10932	0.43952328
228	0xbedd7f01	-0.4326096
229	0x3bd768ae	0.006573758
230	0xbed8f379	-0.42373255
231	0x3e123d66	0.14281234
232	0x3ece0235	0.4023606
233	0x3e5fc79d	0.2185349
234	0x3e6ec7bf	0.23318385
235	0x3e3c8a01	0.1841202
236	0x3ea17b94	0.31539595
237	0x3dedd130	0.11612165
238	0x3dcc80b0	0.09985483
239	0x3ee2ed71	0.44321778
240	0xbe73d2de	-0.23810908
241	0xbe55ee39	-0.20891656
242	0xbe8bee76	-0.2733037
243	0x3eadeacc	0.33968198
244	0xbdd74ab8	-0.10512298
245	0x3e166c79	0.14689817
246	0xbd38d64d	-0.04512625
247	0xbe4dc422	-0.2009435
248	0xbe81d8b4	-0.25360644
249	0x3ec29f7e	0.38012308
250	0x3c263920	0.010145456
251	0xbed26a89	-0.41096905
252	0x3d1dff50	0.038573563
253	0x3dfac9ab	0.12245496
254	0xbe7eb32b	-0.24873035
255	0x3c4fbb20	0.012678891

bias f4 [32]
0	0xbe8d619f	-0.2761354
1	0xbd5416f1	-0.05177969
2	0x3da78e15	0.08181397
3	0xbe4db678	-0.20089138
4	0xbe320a4f	-0.17386745
5	0x3dcefb98	0.101065814
6	0x3d0043c8	0.03131464
7	0xbed79f0d	-0.42113534
8	0xbefc6f3a	-0.4930361
9	0x3d2e3566	0.042531393
10	0xbcc153f2	-0.023599599
11	0x3d5a87c7	0.053352144
12	0xbbf36d08	-0.007428769
13	0x3d7462c0	0.059664488
14	0xbeb0050e	-0.34378856
15	0xbe9ba964	-0.30402672
16	0xbc9300e6	-0.017944764
17	0x3e96b182	0.29432303
18	0xbe6fc58a	-0.23415199
19	0xbe71018a	-0.23535743
20	0xbeb2521d	-0.34828272
21	0xbf27f488	-0.656075
22	0xbd847ce2	-0.06469132
23	0xbf1dfa95	-0.6171048
24	0xbec538e6	-0.38519973
25	0x3d47b5a3	0.048757207
26	0xbeb8b4dc	-0.36075485
27	0xbe4ca058	-0.19983041
28	0xbf09017a	-0.5351788
29	0xbd22b2dc	-0.039721355
30	0xbe40b14e	-0.18817636
31	0x3e07c1aa	0.1325747

weight f4 [32, 32]
0	0x3e9dc845	0.30816856
1	0x3e981847	0.29706022
2	0xbe8684cc	-0.2627319
3	0x3eff28d2	0.4983583
4	0x3ea7d242	0.327776
5	0xbdac3bc8	-0.0840984
6	0xbe2b4c0c	-0.16728228
7	0x3d7a78e9	0.061150465
8	0x3e6dcba7	0.23222218
9	0xbed16ff8	-0.40905738
10	0xbdce079c	-0.10060045
11	0xbe95ef70	-0.2928424
12	0xbc6eaaaa	-0.014567057
13	0x3e05c95f	0.13065098
14	0xbeb52c0a	-0.35385162
15	0x3dd82153	0.10553231
16	0xbd3a9df6	-0.0455608
17	0x3e85cce8	0.26132894
18	0xbf0d7a13	-0.55264395
19	0x3dd5fb4f	0.10448324
20	0xbf95e1d9	-1.1709548
21	0x3dd0a947	0.10188537
22	0xbf1d058b	-0.6133658
23	0x3eb69aad	0.35664883
24	0x3d82e6c7	0.063916735
25	0xbdc9c335	-0.09851686
26	0x3e730ac9	0.23734583
27	0xbe92a534	-0.28641665
28	0x3e1e00f1	0.15430047
29	0x3eb3115b	0.3497418
30	0x3efce6a7	0.49394724
31	0xbf091bca	-0.5355803
32	0x3ddc2d58	0.10750836
33	0x3e063a03	0.13108067
34	0xbe934390	-0.28762484
35	0x3e08552d	0.13313742
36	0x3e84ba2f	0.25923297
37	0x3def1bfe	0.11675261
38	0x3d69f994	0.057122782
39	0x3ea03863	0.3129302
40	0x3db6744e	0.08908902
41	0xbed32544	-0.4123937
42	0x3e1e2659	0.15444316
43	0xbfaf449f	-1.3692816
44	0x3e0056cf	0.12533115
45	0xbd36b6d1	-0.04460794
46	0x3ea6eb22	0.32601267
47	0x3e0d708c	0.13812464
48	0xbe85cf63	-0.26134786
49	0x3ece009b	0.40234837
50	0x3ed1c2e2	0.40968996
51	0xbe008a6b	-0.12552802
52	0x3dced1f0	0.10098636
53	0xbe0d5188	-0.13800633
54	0xbf9f9f80	-1.247055
55	0xbe435304	-0.19074637
56	0x3e83b7a6	0.2572605
57	0x3d03dbfe	0.032192223
58	0xbe0c0c47	-0.13676558
59	0xbe996a45	-0.2996389
60	0x3ef96e0c	0.48716772
61	0x3eef88ef	0.4678416
62	0x3e2c5404	0.16828924
63	0xbf8d16ff	-1.1022643
64	0x3ce29d5a	0.027662922
65	0x3e2e8a25	0.17044885
66	0xbeafb3d4	-0.34316885
67	0xbe630b21	-0.22172214
68	0xbd4d4f32	-0.050124355
69	0xbed23db9	-0.41062716
70	0x3d8d011b	0.068849765
71	0x3d2bc21f	0.041933175
72	0x3d7f7836	0.0623705
73	0xbdc3acb5	-0.095544256
74	0x3d2b9176	0.04188677
75	0xbf44d96f	-0.7689428
76	0xbe7ce05b	-0.2469496
77	0x3df97ad8	0.12181634
78	0x3d6d70f3	0.057969045
79	0x3e7f3c58	0.24925363
80	0xbc1eec92	-0.009699957
81	0x3f1e4644	0.61825967
82	0x3e4f1709	0.20223631
83	0x3e80a498	0.25125575
84	0xbe5d5d43	-0.21617608
85	0x3dd5b65a	0.104351714
86	0xbeddda58	-0.43330646
87	0xbea536c2	-0.3226834
88	0x3e224f20	0.15850496
89	0xbe7c4f3b	-0.24639599
90	0xbec48695	-0.38383928
91	0xbd9c5e78	-0.07635206
92	0xbd673410	-0.056446135
93	0xbe9a4791	-0.30132726
94	0x3e4ef81c	0.20211834
95	0xbe34eb02	-0.17667773
96	0x3d2e6b78	0.04258296
97	0x3cf2fa00	0.029660225
98	0xbe2966fa	-0.16543189
99	0xbdad0286	-0.08447747
100	0xbca54708	-0.020175472
101	0xbd90ca45	-0.0706983
102	0xbe2c3840	-0.16818333
103	0x3deac879	0.114640184
104	0x3d2aeac8	0.04172781
105	0x3da97772	0.082747355
106	0xbd32586c	-0.043541357
107	0x3ea10a45	0.31453148
108	0xbe18b05e	-0.14911029
109	0x3e72a919	0.23697318
110	0x3ea935f5	0.33048978
111	0xbd26f76c	-0.040763304
112	0xbe37fe82	-0.17968181
113	0x3e41c75c	0.18923706
114	0xbd845ca3	-0.064629816
115	0x3ec0bb55	0.37642923
116	0xbf1b0160	-0.60548973
117	0xbdd566ee	-0.10420023
118	0x3e0a1838	0.13485801
119	0x3f13a9e6	0.5768112
120	0x3d912812	0.07087721
121	0xbd6ff1ec	-0.058580324
122	0xbec797e5	-0.38983074
123	0x3f2a1c0a	0.66449034
124	0x3e4b1d0f	0.19835304
125	0xbd9acfa4	-0.075591356
126	0x3e1727e3	0.1476131
127	0xbea709a9	-0.32624558
128	0x3f0001c1	0.50002676
129	0x3ef745e0	0.48295498
130	0xbe89a9b4	-0.26887286
131	0x3f403e31	0.75094897
132	0x3f694d5f	0.91133684
133	0xbe52ad3b	-0.20573895
134	0xbe9bdbc6	-0.3044111
135	0x3daaf8c8	0.083482325
136	0x3e1631bf	0.14667414
137	0xbe0494c7	-0.12947379
138	0xbee8018b	-0.45313677
139	0xbecd0d44	-0.40049183
140	0xbdb55b45	-0.08855299
141	0x3f747cde	0.9550303
142	0xbec21375	-0.3790547
143	0x3e73198a	0.23740211
144	0xbd97bd65	-0.07409171
145	0x3eaea7aa	0.34112293
146	0xbf1cd030	-0.6125517
147	0x3e66c182	0.22534755
148	0xbf97a4e1	-1.1847192
149	0xbdce224a	-0.10065134
150	0xc022b7ae	-2.542461
151	0x3f86c8a4	1.0529981
152	0xbea356a4	-0.3190204
153	0xbe97404d	-0.29541245
154	0x4043d1ac	3.0596724
155	0xbebe5e78	-0.3718145
156	0x3e7f1594	0.24910575
157	0x3f968983	1.1760715
158	0x3ee052e9	0.43813255
159	0x3e665fdf	0.2249751
160	0x3e385f55	0.18005116
161	0x3de2c10a	0.110719755
162	0xbff378b7	-1.9021214
163	0xbfb1fd13	-1.3905357
164	0xbe4de987	-0.20108615
165	0xbf8d3a11	-1.1033345
166	0xbc7c8639	-0.015412861
167	0x3f969737	1.1764897
168	0x3f9688c7	1.1760491
169	0xbf2d2de1	-0.6764813
170	0xbca2a3ca	-0.019853491
171	0x40063bfc	2.0974112
172	0xbf5109db	-0.81655663
173	0x3f180f1e	0.59398067
174	0x3fcd7624	1.6051679
175	0x3f43ef91	0.76537424
176	0xbf0b8dc5	-0.545132
177	0xbf29e3c0	-0.66363144
178	0x3fc6ac61	1.5521356
179	0x4013a90f	2.3071935
180	0x3f494742	0.78624356
181	0x3f9bbe7c	1.2167506
182	0x3f1ad42e	0.6048001
183	0x3f4ef582	0.80843365
184	0x3f962502	1.1730044
185	0xbf01eeaf	-0.5075483
186	0x3de536fd	0.11192129
187	0x3f7bf377	0.9841837
188	0x3fd91def	1.696226
189	0xbe97a279	-0.29616144
190	0x3f43307c	0.76245856
191	0xc0269a51	-2.6031687
192	0x3f428613	0.7598583
193	0x3ecc01d8	0.39845157
194	0xbed02e0a	-0.40660125
195	0x3ef77752	0.48333222
196	0x3e7408f3	0.23831539
197	0xbe8eda2d	-0.2790083
198	0xbe8f8fb9	-0.2803934
199	0x3f1ae454	0.6050465
200	0x3f29c688	0.6631856
201	0x3e0d7975	0.13815863
202	0xbe777ce0	-0.2416873
203	0xbf3f12d5	-0.7463811
204	0xbda677e5	-0.08128337
205	0x3f282e3d	0.65695554
206	0xbf02d905	-0.51112396
207	0x3f0d2029	0.551272
208	0xbed3bf7e	-0.41357034
209	0xbd7d17a1	-0.061790112
210	0xbd2f9f79	-0.042876694
211	0x3e877650	0.26457453
212	0xbd730f7c	-0.05934094
213	0x3f19a985	0.6002429
214	0xbfd088a0	-1.6291695
215	0x3eaa9a94	0.3332106
216	0x3f4d6cee	0.8024434
217	0xbe94a38a	-0.2903102
218	0xbd9ca378	-0.07648367
219	0x3f9b22ee	1.2120035
220	0xbd5f21e6	-0.054475687
221	0x3d5479d1	0.051873986
222	0x3eeca276	0.46217698
223	0xbea60dcc	-0.324324
224	0xbecfea9b	-0.40608677
225	0xbcecda65	-0.028912732
226	0xbe7d873f	-0.24758624
227	0xbf70ac3e	-0.9401282
228	0x3ea9abd7	0.33138916
229	0xbe1438f0	-0.14474845
230	0xbe9e4946	-0.30915278
231	0x3cd593f7	0.026071532
232	0xbd1ac9a5	-0.03778996
233	0x3f3c3aa9	0.7352701
234	0xbe9c9208	-0.30580163
235	0xbf0ca8c7	-0.54945034
236	0xbdc9f5c9	-0.09861333
237	0xbe81e1b8	-0.25367522
238	0x3ec37367	0.38173983
239	0x3e31ca00	0.17362213
240	0xbe785eac	-0.24254864
241	0x3f555dab	0.8334605
242	0x3ede2b40	0.43392372
243	0x3e366de4	0.17815357
244	0x3e2e18ff	0.17001723
245	0x3e46f4dd	0.19429345
246	0xbe95b53c	-0.29239833
247	0xbf847a3c	-1.0349803
248	0xbb9fbe78	-0.0048750006
249	0xbe148e91	-0.1450751
250	0x3f2ac9f5	0.6671441
251	0x3e043111	0.12909342
252	0x3ea4c12a	0.32178622
253	0x3ebb5682	0.36589438
254	0x3e9b59ce	0.30341953
255	0x3e1fc90b	0.15604036

bias f4 [32]
0	0x3d0a4ca2	0.03376449
1	0xbe57efd4	-0.21087581
2	0x3dd0a4ec	0.10187706
3	0xbe320790	-0.17385697
4	0xbe7aea98	-0.24503553
5	0xbf85ca64	-1.045239
6	0xbefce821	-0.4939585
7	0xbdacbc40	-0.08434343
8	0xbf4fac32	-0.81122124
9	0x3dabaf06	0.083829924
10	0xbea7f8ad	-0.32806912
11	0xbe299a7e	-0.1656284
12	0x3cfecda4	0.031103916
13	0x3e848dbd	0.25889388
14	0xbd8b74b9	-0.068093725
15	0xbf0d001c	-0.5507829
16	0x3e0555b2	0.13020971
17	0xbf1ac0cf	-0.6045045
18	0xbe911a87	-0.2834055
19	0x3e3f7da6	0.18700275
20	0xbe8d0bcb	-0.2754806
21	0x3d041e8f	0.032255705
22	0xbd40fb68	-0.04711476
23	0xbedf9490	-0.43668032
24	0xbf2070f9	-0.6267238
25	0xbeda4ec1	-0.4263821
26	0xbe72e277	-0.23719202
27	0xbe945999	-0.28974608
28	0xbe923efa	-0.28563672
29	0xbf5e4db0	-0.8683729
30	0xbcf35184	-0.029701956
31	0xbe3fa5f3	-0.18715648

weight f4 [4, 32]
0	0xbe04240f	-0.1290438
1	0xbdb1abfc	-0.086753815
2	0xbd8a30f3	-0.067476176
3	0x3e8310ed	0.2559885
4	0xbf0c39b3	-0.5477554
5	0x3eccc6e2	0.39995486
6	0xbeff2461	-0.49832442
7	0xbd943efa	-0.07238574
8	0x3ec0b49b	0.3763779
9	0xbdd501ac	-0.104007095
10	0x3ea6ee27	0.3260357
11	0xbea50843	-0.32232866
12	0x3de8d95e	0.113695845
13	0x3e0cb687	0.13741504
14	0xbe1beda3	-0.1522737
15	0xbe916f9d	-0.28405467
16	0xbb1aee32	-0.002364051
17	0x3ebd7f9f	0.3701143
18	0x3f01d42e	0.50714386
19	0x3dac15ab	0.0840257
20	0x3e660fd5	0.22466977
21	0x3d405853	0.046959233
22	0x3eab8a58	0.33503985
23	0xbe2c096b	-0.16800468
24	0xbf063f76	-0.52440584
25	0xbdbcb31b	-0.09213849
26	0x3d36056a	0.044438757
27	0x3e8abac2	0.2709561
28	0xbe2f159f	-0.17098092
29	0xbea9df6b	-0.33178267
30	0x3d9a4b67	0.07533913
31	0xbf033bd6	-0.5126318
32	0x3e0d149a	0.1377739
33	0x3ca3224a	0.019913811
34	0xbe75e8e1	-0.24014618
35	0x3e26f00a	0.16302505
36	0xbf0d0aad	-0.55094415
37	0x3eb127e9	0.34600762
38	0xbc9fe03e	-0.019516107
39	0xbbb60de6	-0.005555856
40	0x3ebe7abd	0.37203017
41	0xbe7e167b	-0.24813263
42	0xbdf13e2e	-0.11779438
43	0x3d4f3751	0.050589863
44	0xbcc11513	-0.02356962
45	0x3ddf4a40	0.10902834
46	0xbe032ae2	-0.12809327
47	0x3ec1891b	0.37799916
48	0xbe42abd6	-0.19010863
49	0x3efe31f7	0.49647495
50	0xbe602bdb	-0.2189173
51	0x3ed31250	0.4122491
52	0xbd465bec	-0.048427507
53	0xbe116797	-0.14199673
54	0x3ea81ce2	0.32834536
55	0x3e199af7	0.1500052
56	0x3e08f169	0.1337334
57	0x3e42ab52	0.19010666
58	0x3eaabbd8	0.33346438
59	0xbda22a03	-0.07918169
60	0xbd93108d	-0.07180891
61	0x3f12566b	0.57163113
62	0x3d36f94c	0.04467134
63	0x3e928eda	0.28624612
64	0x3ec5e142	0.3864842
65	0xbe7d12c5	-0.24714191
66	0x3e43ff52	0.19140366
67	0xbe514bc9	-0.20439066
68	0xbf1ab95a	-0.60439074
69	0xbe69639f	-0.22791909
70	0x3edb2c87	0.4280741
71	0xbe3714a9	-0.17878975
72	0x3e23f0f1	0.1600988
73	0x3dd767f2	0.10517873
74	0xbdcd138e	-0.100134954
75	0xbe8abb0b	-0.27095827
76	0x3d9fa147	0.07794433
77	0x3e08d65f	0.13363026
78	0x3d399a8c	0.045313403
79	0xbf091c1b	-0.5355851
80	0x3e1cb28f	0.1530249
81	0x3e58aad9	0.21158923
82	0xbf080c49	-0.53143746
83	0xbe2c0d4d	-0.16801949
84	0x3e15c09f	0.1462426
85	0xbe128a50	-0.14310575
86	0xbd8875b1	-0.06663073
87	0x3e1d8b0e	0.15385076
88	0xbf2e3ad0	-0.6805849
89	0xbe1465da	-0.14491978
90	0xbe118964	-0.14212567
91	0x3e835742	0.2565251
92	0x3e5c7c6b	0.21531837
93	0xbe1959f4	-0.1497572
94	0xbc14b84f	-0.009077146
95	0x3ea20f1e	0.31652158
96	0x3eca8cdd	0.39560595
97	0xbebf0798	-0.3731048
98	0xbc6cd64d	-0.01445539
99	0x3df5d78c	0.12004003
100	0xbf254f30	-0.64573956
101	0x3e2ec028	0.1706549
102	0x3e8eb6a3	0.27873716
103	0xbbfce968	-0.007718254
104	0x3e5d73b2	0.21626166
105	0x3e12b63a	0.14327326
106	0x3e77abf5	0.2418669
107	0x3da3baea	0.079946354
108	0xbdc8004b	-0.09765681
109	0xbd9e61e8	-0.07733518
110	0xbe8d6cb7	-0.27622005
111	0xbf0f45cc	-0.55965877
112	0xbc460d92	-0.012088196
113	0x3ec1a11f	0.37818238
114	0xbedfaed4	-0.4368807
115	0xbd46a01a	-0.04849253
116	0x3ccb3fd8	0.024810717
117	0x3e758040	0.23974705
118	0x3dc21d6e	0.094782695
119	0x3d1fdc69	0.03902856
120	0xbe92ceb9	-0.28673342
121	0xbe1da35c	-0.15394348
122	0x3ddb4a49	0.10707528
123	0xbd266d96	-0.040631853
124	0xbea75794	-0.32684004
125	0x3bb0ae9d	0.0053919093
126	0x3e101815	0.14071687
127	0xbe9c7ee7	-0.3056557

bias f4 [4]
0	0xbd0716c9	-0.032980714
1	0xbe47859f	-0.19484566
2	0x3ca7c878	0.020481333
3	0x3de4b665	0.111676015
