[Fly_Func]/min_func_ScaleMetric_Fly_6.pt (torch_old, 55614 bytes, 136 tensors)

weight f4 [2, 2]
00000000: 4099 2ebc e6fe 3a3c 6050 f6bc 4e1d 8fbc
-0.010656655 0.011413312 -0.030067623 -0.017470028

bias f4 [2]
00000000: 3b1f 19bf f0c2 e03d
-0.5981328 0.109746814

weight f4 [2, 2]
00000000: 882a 283f d039 90be 1d44 3dbf ee53 cabe
0.656899 -0.28169107 -0.7393206 -0.39517158

weight f4 [1, 2]
00000000: c0a9 00bd e82e 693e
-0.031411886 0.227718

weight f4 [2, 2]
00000000: 9ea9 683e 3eb8 e4be 77e3 48bf 42dc 3e3f
0.22720954 -0.44671816 -0.78472084 0.74554837

bias f4 [2]
00000000: 4615 533e 5577 bebd
0.20613584 -0.093001045

weight f4 [2, 2]
00000000: cf90 b63e 333d 253f de45 b3bd 28db 08bf
0.35657355 0.6454651 -0.087535605 -0.53459406

weight f4 [1, 2]
00000000: c6f7 833e e47a 0cbe
0.25774974 -0.13718754

weight f4 [2, 2]
00000000: e886 d4be a44c 0a3f 2f54 96bd 5e85 c03d
-0.41509175 0.54023194 -0.073402755 0.09400438

bias f4 [2]
00000000: 174e 13bf ae77 e13e
-0.5754103 0.4403662

weight f4 [2, 2]
00000000: 5ceb 753f 8cfa f3bd 67e3 69bd 3c2f 5fbe
0.96062255 -0.119130224 -0.057101633 -0.21795362

weight f4 [1, 2]
00000000: e0aa 3f3e 28fe 8dbd
0.18717527 -0.06933242

weight f4 [2, 2]
00000000: b1bc ea3e 06c3 9bbd c150 a9bc 2a16 8c3e
0.45847085 -0.07605557 -0.02066839 0.2736066

bias f4 [2]
00000000: 7f3b 3bbe 49ec 41be
-0.18284415 -0.18937792

weight f4 [2, 2]
00000000: 4545 af3e 2995 a5be ec58 b3bd aedc b73e
0.34232536 -0.32340363 -0.08757195 0.35910553

weight f4 [1, 2]
00000000: dfa1 0dbf fbec dbbe
-0.5532512 -0.4295424

weight f4 [2, 2]
00000000: 46f8 65bf 9c40 033f 93c4 74bf eab7 a1bf
-0.8983196 0.5127046 -0.9561245 -1.2634251

bias f4 [2]
00000000: dc0c 57bf 8551 aa3f
-0.84003997 1.3306128

weight f4 [2, 2]
00000000: 785b 86bb 0268 28bd 9f33 e53e 8be4 84bf
-0.0041002594 -0.041114815 0.44765946 -1.0382246

weight f4 [1, 2]
00000000: 129c a2be 6075 fa3c
-0.31759697 0.030573547

weight f4 [2, 2]
00000000: ed3a 083f c80b 1cbe 81d2 833f ab79 ab3f
0.53214914 -0.15238869 1.0298616 1.3396505

bias f4 [2]
00000000: 7bbc e23d de29 d53e
0.11071106 0.41633505

weight f4 [2, 2]
00000000: 4d19 41be b57d 953e 656e fbbe b965 a83f
-0.18857308 0.2919747 -0.49107662 1.3156043

weight f4 [1, 2]
00000000: 2bfa 2b3f c898 f6be
0.671786 -0.48163438

weight f4 [2, 2]
00000000: 4a7d 8abd 674b 2a3e ab87 ea3c ffb7 853e
-0.06762178 0.16630326 0.028629145 0.2611694

bias f4 [2]
00000000: aeb3 81be cf3d 413f
-0.25332397 0.7548494

weight f4 [2, 2]
00000000: 8004 af3e 4a6f 633d 27ec 90bc 74d0 83bb
0.3418312 0.055526055 -0.017690731 -0.0040226523

weight f4 [1, 2]
00000000: 8463 2fbf e270 1bbf
-0.68511224 -0.6071912

weight f4 [2, 2]
00000000: dbc1 98bf 2bef ba3e 7cbf 7f3e 6006 0b40
-1.193416 0.36510596 0.24975389 2.172264

bias f4 [2]
00000000: 3e16 93be d738 363e
-0.28727907 0.1779512

weight f4 [2, 2]
00000000: faaf e43f ebc8 723f 41e1 783e 9024 c03f
1.7866204 0.94837826 0.24304678 1.5011158

weight f4 [1, 2]
00000000: a0bb 1fbf d016 89be
-0.6239567 -0.26775217

weight f4 [2, 2]
00000000: 7a66 2abe dd2c 243f 4e02 27bf 5f75 15bd
-0.16640654 0.64130956 -0.6523789 -0.036488887

bias f4 [2]
00000000: 293e a1bf 5783 a2bf
-1.2597095 -1.2696332

weight f4 [2, 2]
00000000: a139 383f 428d 4c3f 7219 3ebf 876f b4bd
0.71962935 0.7990304 -0.74257576 -0.08810335

weight f4 [1, 2]
00000000: a922 2d3f 3702 333f
0.6763101 0.69925255

weight f4 [2, 2]
00000000: 437f 84bc 3f16 903d 9fa5 443f ba81 073f
-0.016173964 0.07035493 0.7681522 0.5293232

bias f4 [2]
00000000: bf68 a9be 58c0 8abe
-0.33087727 -0.27099872

weight f4 [2, 2]
00000000: f09b 42bb c94a 463d 2d54 e7bb c826 44bb
-0.0029694997 0.048411164 -0.007059595 -0.0029930342

weight f4 [1, 2]
00000000: c711 0fbf 70fa 85bd
-0.558865 -0.06541908

weight f4 [2, 2]
00000000: b690 cbbc ac93 973b b9d5 8f3d 727e a5bc
-0.024849277 0.004625758 0.07023186 -0.020201895

bias f4 [2]
00000000: d8f6 c6be 3deb a23e
-0.38860202 0.31820098

weight f4 [2, 2]
00000000: 7037 57bf d8ac 32bf 52a2 323e 5e28 64be
-0.84068966 -0.6979499 0.17444733 -0.22281024

weight f4 [1, 2]
00000000: 4720 1a3f b26f eabe
0.602055 -0.45788342

weight f4 [2, 2]
00000000: 2e48 0a3e f3fa 83bd ddf9 1f3d eec4 87bd
0.13504097 -0.06444349 0.039056648 -0.06629358

bias f4 [2]
00000000: 8515 6fbf 1b16 a8be
-0.9339221 -0.32829365

weight f4 [2, 2]
00000000: 1a89 843e 15f4 16be bf7c 3dbf 476b 3ebf
0.2588585 -0.14741547 -0.7401847 -0.7438244

weight f4 [1, 2]
00000000: dcbf 0cbe 31dc 073f
-0.13745064 0.5307036

weight f4 [2, 2]
00000000: 7f2c 3e3d fe3c 073e d654 cc3d 0ab1 e4bd
0.046429154 0.1320686 0.09977119 -0.1116658

bias f4 [2]
00000000: 287b ae3e 12c2 6a3e
0.34078336 0.22925594

weight f4 [2, 2]
00000000: 64f4 6f3c aef9 7b3e cba1 3fbc 6834 2d3e
0.01464567 0.24606964 -0.011696289 0.16914523

weight f4 [1, 2]
00000000: d305 e7be a0eb 9ebc
-0.4512163 -0.019399464

weight f4 [2, 2]
00000000: e24c 66bf 5b25 783f fdf5 983f 8101 bc3f
-0.89961064 0.96932 1.195007 1.4687959

bias f4 [2]
00000000: e614 13bf f496 603c
-0.57453763 0.013707865

weight f4 [2, 2]
00000000: 7433 f43e 618a 61bd 1e02 e63f 0e5b 22bf
0.47695506 -0.05506361 1.7969396 -0.6342019

weight f4 [1, 2]
00000000: 1e77 ea3e 0518 d2be
0.45794004 -0.4103395

weight f4 [2, 2]
00000000: 3c6f 633f 4a54 a8be aec1 11bf a837 533e
0.88841605 -0.32876807 -0.56936157 0.206267

bias f4 [2]
00000000: eb29 e83e 6ed6 e5be
0.4534448 -0.4489016

weight f4 [2, 2]
00000000: cf55 2c3f bc9a e23e d341 5dbf 2429 12bf
0.67318434 0.44258678 -0.86428565 -0.57094026

weight f4 [1, 2]
00000000: a47d 813e eb09 2c3f
0.2529117 0.67202634

weight f4 [2, 2]
00000000: b400 5fc0 645b 9dbd 1438 16bf b0de 95be
-3.484418 -0.07683447 -0.5867932 -0.2927146

bias f4 [2]
00000000: 46a6 b83f 09b8 8b3f
1.4425743 1.0915538

weight f4 [2, 2]
00000000: d40b d4be 60f8 1140 093e a3be 380b d13f
-0.41415274 2.2807846 -0.31883267 1.6331549

weight f4 [1, 2]
00000000: a4fb 1fbf b914 adbe
-0.6249335 -0.33804873

weight f4 [2, 2]
00000000: 8107 96bf 54e1 173f 4e8b 79bf e2e7 3140
-1.172104 0.593282 -0.9747819 2.779778

bias f4 [2]
00000000: 6109 92bf e3ea 8cbe
-1.1409112 -0.27522954

weight f4 [2, 2]
00000000: af8a 1c3f f167 cebf a154 953d 2178 2b3d
0.61149114 -1.612547 0.07291532 0.04186261

weight f4 [1, 2]
00000000: c96a 013f 1055 32be
0.50553566 -0.17415261

weight f4 [2, 2]
00000000: 777e eebd e907 30bf 6274 123f fdeb f2be
-0.11645215 -0.6876207 0.57208836 -0.4744567

bias f4 [2]
00000000: ccff 433f ab42 6a3f
0.7656219 0.9150798

weight f4 [2, 2]
00000000: 7e9e 623d 7eef 513f 9b28 3c3d 9080 903d
0.05532693 0.8200606 0.045937162 0.07055771

weight f4 [1, 2]
00000000: e7ef 293f 10fd 38be
0.66381687 -0.18065286

weight f4 [2, 2]
00000000: 335e 993e 60e3 05bf af6a 873f d8c4 9cbf
0.2995468 -0.5230007 1.0579432 -1.2247572

bias f4 [2]
00000000: ae12 cb3f 8788 343f
1.5865076 0.70520824

weight f4 [2, 2]
00000000: 0468 c03f adc1 00bf 406d 20c0 6219 0ebf
1.5031743 -0.50295526 -2.506668 -0.5550748

weight f4 [1, 2]
00000000: 52e3 c13e f060 c83d
0.37868744 0.09784114

weight f4 [2, 2]
00000000: ca03 dd3e 9063 21bf 5b58 893e d03a a1be
0.43166953 -0.63042545 0.26825222 -0.31490183

bias f4 [2]
00000000: f9b8 113f d972 183f
0.5692287 0.59550244

weight f4 [2, 2]
00000000: 9212 f9be 4496 3ebf 19bc 303f ccb2 2c3f
-0.4864698 -0.7444804 0.69037014 0.6746032

weight f4 [1, 2]
00000000: 12d0 d43e 2c45 053e
0.41564995 0.13014668

weight f4 [2, 2]
00000000: 8a18 ae3e 70e9 edbd ff92 babe 828a 433e
0.34003097 -0.1161679 -0.36440274 0.19095805

bias f4 [2]
00000000: b5e4 8a3f 0384 89bf
1.0851046 -1.0743412

weight f4 [2, 2]
00000000: 38c5 1cbe 76c6 04bf 97b8 773f b898 a13f
-0.15309608 -0.5186533 0.96766037 1.2624731

weight f4 [1, 2]
00000000: 1be4 0f3f 4083 073c
0.56207436 0.0082710385

weight f4 [2, 2]
00000000: d31d 8abf 866e 9f3f 9cf9 19be db7b fd3e
-1.0790352 1.2455604 -0.15036625 0.49508557

bias f4 [2]
00000000: f411 b83f 79d8 52bf
1.4380479 -0.8236156

weight f4 [2, 2]
00000000: fd21 0cc0 c089 993e b58f 233c 9514 ce3d
-2.1895745 0.29987907 0.009982993 0.100625195

weight f4 [1, 2]
00000000: b888 833e 001f 2ebf
0.25690246 -0.6801605

weight f4 [2, 2]
00000000: e868 40bd fbd8 6f3d 7221 febd 348c 96bd
-0.046975046 0.058556538 -0.12408723 -0.073509604

bias f4 [2]
00000000: c089 923e 2856 f6be
0.2862072 -0.48112607

weight f4 [2, 2]
00000000: 306f c33d 247c 063d 8009 80bf 257a 8abf
0.09542692 0.032833233 -1.0002899 -1.0818526

weight f4 [1, 2]
00000000: 1e1f 30bf 2586 233f
-0.6879748 0.63876563

weight f4 [2, 2]
00000000: 4bdc 30bd 129b b13d 9741 163e b9bb c6bf
-0.043178838 0.086721554 0.14673458 -1.5526038

bias f4 [2]
00000000: 47ae 013e 8178 623f
0.12664138 0.88465124

weight f4 [2, 2]
00000000: 7e1a b33e 3895 77bb 3c6b 713e 21ab dcbf
0.3498115 -0.003777815 0.23576063 -1.7239724

weight f4 [1, 2]
00000000: 8846 96be 20e4 8a3d
-0.29350686 0.06781793

weight f4 [2, 2]
00000000: 9259 acbf f558 783f 0dfc 22be bc87 4bbd
-1.3464835 0.9701074 -0.15916462 -0.049689993

bias f4 [2]
00000000: d95b a8bd bcc8 06bf
-0.082206436 -0.52650046

weight f4 [2, 2]
00000000: 8c1c 9ebe ef46 eebe cfa1 75be 0486 523f
-0.30881155 -0.46538493 -0.23987506 0.8223574

weight f4 [1, 2]
00000000: 503c dbbd a136 0abf
-0.10704863 -0.5398961

weight f4 [2, 2]
00000000: beef 6ebd 935d d2bd 7cb9 863e fa6a c13f
-0.058334105 -0.10271754 0.26313388 1.5110772

bias f4 [2]
00000000: 2691 8c3f 0f81 72bf
1.0981796 -0.9472818

weight f4 [2, 2]
00000000: 4919 243f 4882 b3bb 385e e4be 9974 8dbf
0.6410108 -0.005478177 -0.44603133 -1.1051208

weight f4 [1, 2]
00000000: ebb6 1abf d02d ec3d
-0.6043536 0.115321755

weight f4 [2, 2]
00000000: 0d59 893c 2f2e 82bc abfc a6bf 4808 a43f
0.016766096 -0.015891163 -1.3045858 1.2815027

bias f4 [2]
00000000: febf b4be eeb8 47bf
-0.35302728 -0.78016555

weight f4 [2, 2]
00000000: 6fa9 ef3e 7703 90bd 3781 e83e cf95 db3e
0.46808955 -0.07031911 0.45411083 0.42887732

weight f4 [1, 2]
00000000: 8c35 f7be f850 51be
-0.4828304 -0.20441043

weight f4 [2, 2]
00000000: b28e a2be bc2b 7a3f c258 d7be b486 8c3f
-0.31749493 0.97722983 -0.42059904 1.0978608

bias f4 [2]
00000000: d398 3f3f 6407 83bf
0.74842566 -1.023663

weight f4 [2, 2]
00000000: 228e 4039 5ac4 433a 7de4 923f 805d 853f
0.00018363495 0.00074679183 1.1475979 1.0419159

weight f4 [1, 2]
00000000: 1cc0 3bbe e4a4 773e
-0.18335003 0.24183995

weight f4 [2, 2]
00000000: 0014 f23c f7d8 0c3e dd5b 12bf 689f 413f
0.029550552 0.1375464 -0.5717142 0.7563386

bias f4 [2]
00000000: 6881 25bd aa51 19bf
-0.040406615 -0.59890234

weight f4 [2, 2]
00000000: 4816 09bf 8b6d 0f3f 57aa 94bf 5d34 b83e
-0.53549623 0.56026524 -1.1614484 0.3597745

weight f4 [1, 2]
00000000: a068 33bd e977 1b3f
-0.04380095 0.60729843

weight f4 [2, 2]
00000000: 0689 133c 7c94 0abc e802 3b3c bb84 e4bc
0.009004837 -0.008458253 0.011414267 -0.027895322

bias f4 [2]
00000000: bea9 c83e f7f3 043f
0.39192003 0.5193476

weight f4 [2, 2]
00000000: 8800 8bbf b86a 5cbb bede 3abf 39e7 44bf
-1.0859537 -0.0033632945 -0.7299613 -0.7691532

weight f4 [1, 2]
00000000: 28e2 cd3d c68a 9b3e
0.100529015 0.30379313

weight f4 [2, 2]
00000000: 6b25 323e 427d 74bd 6e75 083d 3464 dbbc
0.17397086 -0.059689768 0.033315115 -0.026781179

bias f4 [2]
00000000: 8e9f 28bf 9a4e 01bf
-0.6586846 -0.5051056

weight f4 [2, 2]
00000000: 7b5d 1dc0 c6f5 64bf 76a6 dfbd 644e 163f
-2.4588306 -0.8943752 -0.10920422 0.58713365

weight f4 [1, 2]
00000000: 64e2 503e fa63 21bf
0.20398861 -0.6304318

weight f4 [2, 2]
00000000: ef7d 5b3e 6722 0d3f 4965 29bd 40cf 8bbe
0.21434759 0.5513062 -0.04135636 -0.27306557

bias f4 [2]
00000000: c4ea 04bf 01d4 02c0
-0.51920724 -2.0441897

weight f4 [2, 2]
00000000: b7d4 d23f 12a2 923f d6d8 99be c6e7 d73c
1.6471165 1.145571 -0.30048245 0.026355635

weight f4 [1, 2]
00000000: 36d7 a33e e021 eebd
0.3200013 -0.11627555

weight f4 [32, 2]
00000000: afd0 60be 9bc0 773f bf2d 4a3d 92c0 5cbf
00000010: a84e 093f cd5f 243e 44a4 9abf 46a7 ad3e
00000020: 62fd f83e 9e5c 193e 58b7 b53e bfc9 1e3f
00000030: 03d1 c53f 9c38 923d 7793 163f 78e9 94bf
00000040: f1fb 363e f004 e6bf 8d01 6b3f c38f 393d
00000050: 005f 563f d536 87bf 166e 853f 06a0 41be
00000060: 7140 143e f970 0d3f f915 3a3e d6cb 563f
00000070: 3cec 62be 377d 5ebf 9356 c23e 877e 46bd
00000080: 04bb 143f 03c4 29bf 449d 913f 113a b8bf
00000090: f113 593e 1220 d1bc eed6 103f 5d98 663f
000000a0: dd19 b1bf 5d97 e2be 9192 55be 0616 9abf
000000b0: 1f38 b63f 0ed2 1b3e b988 41bf 57f8 623f
000000c0: 6f19 89bf 6522 493f 849a b53f 6fb4 08bf
000000d0: 0ab4 f1bc 3b1b b5bf 28c1 7c3f 07ca d9be
000000e0: ecfc 9a3f f024 35be ae78 683e 415e 593f
000000f0: 765b d0bf c244 c73d 096e d23f 0534 243e
-0.21954606 0.9677827 0.049360033 -0.8623134 0.53635645 0.1605217 -1.208138 0.33916682
0.48630816 0.14976737 0.35491443 0.6202659 1.545441 0.07139704 0.58818763 -1.1633749
0.17869546 -1.7970257 0.9179924 0.045303117 0.8373871 -1.0563608 1.042422 -0.189087
0.14477707 0.5525051 0.18172444 0.8390478 -0.22160429 -0.8690981 0.37956676 -0.04846051
0.58097863 -0.66314715 1.1376119 -1.439272 0.21199013 -0.025527988 0.56577957 0.9007624
-1.3836018 -0.44256106 -0.20856692 -1.2037971 1.4235877 0.15216848 -0.7559925 0.88660187
-1.0710887 0.78568107 1.418778 -0.5340032 -0.029504795 -1.4148935 0.98732233 -0.42536947
1.2108436 -0.17689872 0.22702286 0.84909445 -1.6277912 0.097299114 1.643983 0.16035469

bias f4 [32]
00000000: 51c4 713f 8a80 9b3d 69a9 443e 164e 6ebe
00000010: a48b 013f a4e3 3f3f b0a0 d33c 4d25 36bf
00000020: d1bf 1abf ad08 0b3f 8956 03bf c232 b93e
00000030: 0b5b 153e d3aa bebe f476 8cbd 8412 85bd
00000040: e084 4fbd 92ab 41bf 30d7 8439 3691 803f
00000050: 08a1 17bf 60a9 423d 0e87 dd3e 81b5 f63e
00000060: d241 893f fe8c 003f de22 36bf 2ed7 97be
00000070: 036b 26bf 3bc8 963e ca19 5a3d 2c10 2e3d
0.9444018 0.07592876 0.1920525 -0.23271975 0.506037 0.7495673 0.025833458 -0.71150666
-0.6044894 0.54310113 -0.5130392 0.36171538 0.14585511 -0.37239704 -0.06858626 -0.06497672
-0.05066383 -0.7565242 0.0002533733 1.0044315 -0.5923009 0.04752481 0.432671 0.48185351
1.0723212 0.50215137 -0.71146953 -0.29656357 -0.65007037 0.2944964 0.05324725 0.04249589

weight f4 [32, 32]
00000000: 8177 ff3e 8e9d 58be 9324 5a3d 2473 813d
00000010: ca0c 25bd 61c4 0e3d fc55 00bf e7c5 ccbe
00000020: c628 91be b041 2ebe 9452 57bf 97d2 95be
00000030: 9a92 90bd 33e1 1b3b b7f9 f73d 4a3a d93d
00000040: 2032 85be 8b77 edbe 2d6a 073a 8e9c 093e
00000050: 4606 083d 7800 43be 6b96 35be 2e45 3c3f
00000060: 413c 433f f660 c2be 2630 ecbe 4e3f 2ebf
00000070: 8b47 29bf 158b d43c 1a9b 053e 458e 18bf
00000080: 712d 8e3e 8d30 0fbe 856f 023e 4fa4 66be
00000090: 9d76 cf3c fcd2 383e e547 a6be 22c4 f8be
000000a0: 3f43 cebe 97a0 693e c22f 3abf b041 723c
000000b0: 95c5 f0bc 2ec5 38be a77d b4bd 7be1 9dbd
000000c0: a7cb e7be 1ad8 55bf 9965 17be 7f73 963e
000000d0: 44db 8fbe 145f 4ebe 5695 edbd 5ff2 413f
000000e0: e3f9 573f dcbe cd3d d128 4fbe a038 7ebf
000000f0: 5eed edbe 99b3 493d 0515 893d 17fa b9be
00000100: 436e 6bbe baef 6b3e a1e7 b23e a351 b1be
00000110: 166a 1e3e 411e 8bbd b408 113f 5f4f a13e
00000120: e335 df3e 96a4 ab3e 1393 7e3f 6500 923e
00000130: 2c86 68be 0627 60be c61d 033f 5d5a c03e
00000140: 42fe 203f 6040 143f 8c9f 323e 3a3e 24bc
00000150: 18e9 3dbd ad68 073f 5e36 be3e 89b5 7bbf
00000160: 7aef 36bf 8c3c d93e 6b8d 503e ebce 543f
00000170: a791 da3c 5fce a4be 85f6 03bf 2c8f 083f
00000180: fc86 cbbe 0890 fbbe 464b 42bd 707d 37be
00000190: 1c4a 22be 48be 31be d011 293f bd28 f53e
000001a0: 432a 9abe aa83 9ebd 22e6 0f3f a359 763e
000001b0: 48fc 4e3e a84a 983e ddc7 53bf c7f4 c63e
000001c0: da58 003e 126b de3e 3eb6 92bd fa43 ccbc
000001d0: 59ca 70be 74dc 54bf 76b1 ba3e 98fa c2be
000001e0: 9410 5bbf a2a0 653e 8b6f 393e 880e 593f
000001f0: 3408 793f bb2a fb3d 6265 84be 2dd0 123f
00000200: 1e77 bf3e f7e6 30be f789 b5bd ead9 993e
00000210: 1af9 ffbb da42 4e3d 6345 f7be ef1c bcbe
00000220: b1fd e1be fc1a 49bd 8e12 31bf 2ab3 a0bd
00000230: f2f6 393e b26e 12bd 53b3 933c 53a3 2fbe
00000240: e854 89be 68a2 1dbf c0b9 643e 3345 563e
00000250: 5f0e 893c dd1b 91be e3cd a0be b7a8 443f
00000260: 0b91 493f c530 7fbe 3154 bebe 5cbd 3ebf
00000270: d843 eebe f74f 743e b86e 783e 7d96 1dbf
00000280: 67fb f73e 8d20 59bd 91e1 5b3d 8a86 b1be
00000290: e8d8 3a3e 7db1 f73e d478 d53e d561 27bf
000002a0: 15e1 7abf fd15 ef3e af21 67bf 77a3 243e
000002b0: 1497 a23e 5ecb e8be 594c c0bd 00c7 ed3d
000002c0: 3c89 353e 09a0 7abf b4b4 a93e 8b10 e93e
000002d0: 3495 d7be 5958 e2bd 55f2 d13e 90c1 083f
000002e0: c37a 583f f813 223e e83c 15bf 11db 3c3c
000002f0: 6ee2 ffbe 2434 ca3e 74c0 83be 5d06 163e
00000300: ae02 3c3f 1cd7 2f3e 9cf0 e03d a32f f5be
00000310: 9c7b ae3e b81b 183f a403 c23e 9275 65bf
00000320: e67f 7bbf a82d 8d3e 13a6 45bf d4fa 813e
00000330: 0063 243e 81b1 bcbe fba7 a4be 0481 7a3d
00000340: 7219 eabd f625 3ebf 4329 5d3e d093 393f
00000350: d35d 24bf f499 14bb d2e0 7c3e 3634 573e
00000360: a35b 283f 70eb 583e d6af d7be 59d4 f03d
00000370: 4583 9bbe 8e3a 873e 63a6 c3be 7383 fb3e
00000380: 779f 2a3f 9bc9 c63d 9c43 e13d 3674 94be
00000390: a13e b33e 7164 bf3e eed0 973e dfde 57bf
000003a0: dc47 45bf 64be dc3e ce31 80bf 21db 223d
000003b0: 228c 953d c67c 97be 9c0c 20be 5ae9 513e
000003c0: b748 ef3d 3902 2bbf d157 013e 06ff d93e
000003d0: dab2 ecbe 534e 67be 1942 f73e 38f1 323e
000003e0: 2694 1b3f 5941 993e 369d 1abf 8970 0ebe
000003f0: ea9d 78be 1413 c13e 2ab6 00bf 3a89 f93e
0.49895862 -0.21153852 0.053257536 0.063207895 -0.0402954 0.03485525 -0.501312 -0.39994738
-0.2835142 -0.17017245 -0.8411038 -0.2926223 -0.07059212 0.0023785352 0.12108176 0.10606821
-0.26014805 -0.46380267 0.0005165663 0.13438627 0.033209108 -0.19043148 -0.17733161 0.7354306
0.76263815 -0.379646 -0.46130484 -0.68065345 -0.6612479 0.025945226 0.13047448 -0.59592086
0.27769044 -0.13983364 0.12737854 -0.22523616 0.025325114 0.18049234 -0.32476726 -0.48587137
-0.4028568 0.22815166 -0.7272912 0.014786169 -0.02939109 -0.18043968 -0.08813029 -0.077090226
-0.45272562 -0.8353287 -0.1478485 0.29384992 -0.28096974 -0.20153457 -0.11600749 0.75760454
0.8436567 0.10046169 -0.20230414 -0.9930515 -0.4647016 0.049243543 0.06693462 -0.36323616
-0.2299128 0.23040667 0.34942344 -0.34632596 0.15470156 -0.0679288 0.56653905 0.31505868
0.435958 0.33524007 0.9944317 0.28515926 -0.22707433 -0.21889886 0.51217306 0.37568942
0.62887967 0.5791073 0.17443675 -0.010024602 -0.046364874 0.528941 0.37150854 -0.98323876
-0.7145916 0.42429006 0.20366447 0.8312823 0.02668078 -0.321887 -0.51548034 0.5334346
-0.39751422 -0.49133325 -0.047435068 -0.17918944 -0.15848583 -0.17357743 0.66042805 0.47882643
-0.30110368 -0.07739957 0.5621053 0.24057631 0.20213425 0.29744458 -0.8272684 0.38858625
0.12533894 0.43441063 -0.07163666 -0.024934758 -0.2351469 -0.83148885 0.36463517 -0.38081813
-0.8557217 0.22424558 0.18108957 0.847878 0.9727814 0.122640096 -0.258586 0.573489
0.37395567 -0.17275606 -0.08864205 0.30049068 -0.0078116776 0.050356723 -0.48295125 -0.36740825
-0.44138864 -0.049098 -0.6916894 -0.07846673 0.18160608 -0.0357501 0.018029844 -0.17152147
-0.2682259 -0.6157594 0.22336483 0.20924835 0.016730485 -0.2834157 -0.3140708 0.7681994
0.78736943 -0.24920948 -0.37173608 -0.7450769 -0.46536136 0.23858629 0.24260986 -0.6155775
0.48433992 -0.05300956 0.053681914 -0.34672958 0.18246806 0.483776 0.41693747 -0.65383655
-0.979997 0.46696463 -0.9028577 0.16077982 0.31755888 -0.45467657 -0.09389562 0.11610222
0.17728132 -0.97900444 0.33145678 0.45520434 -0.4210602 -0.11052007 0.41005197 0.5342035
0.8456232 0.1582793 -0.5829606 0.011526839 -0.4997744 0.39492905 -0.25732768 0.14650865
0.7344159 0.17171901 0.109833926 -0.47887906 0.3407868 0.59417295 0.37893403 -0.89632523
-0.9824203 0.27573895 -0.77206534 0.2538668 0.1605339 -0.36854175 -0.3215941 0.061158195
-0.114306346 -0.74276674 0.21597771 0.7249117 -0.64205664 -0.002267477 0.24695137 0.2101601
0.65764827 0.21183562 -0.4212634 0.11759252 -0.30373588 0.2641186 -0.3821288 0.49123725
0.66649574 0.09706422 0.109992236 -0.28994912 0.3500872 0.37381318 0.29651588 -0.8432445
-0.77062774 0.43114007 -1.0015199 0.03975976 0.07302119 -0.29587382 -0.1562981 0.20499173
0.11683791 -0.66800267 0.12631156 0.4257738 -0.46230203 -0.22588472 0.48292616 0.1747483
0.6077293 0.2993267 -0.60396135 -0.13910116 -0.2427899 0.37709868 -0.5027796 0.48737508

bias f4 [32]
00000000: 3f3a 063e e53d d23e 9c9d d2bd 8a2e f4be
00000010: a679 713e 56d5 db3e d4cd 883e ea01 903e
00000020: a61e d03e 54b7 783e 2d3e 8e3e 073a 0c3f
00000030: f4c8 e33e fa39 1e3e 0e25 953e cb2e 8e3e
00000040: eca6 113e 0f1c 3e3e 6f62 6cbd 6420 b73e
00000050: 4310 ddbe 3313 053f 26ac b43e 9643 d73d
00000060: eda1 05bf c565 ddbc 5227 653e 403c a93e
00000070: cebd e9bc 0851 b9be 69ab 833d 55d4 0ebe
0.13108157 0.41062847 -0.10283968 -0.47691756 0.23581561 0.429362 0.26719534 0.2812646
0.40648383 0.24288684 0.2778181 0.5477604 0.44489253 0.15451804 0.29129833 0.27770075
0.14223832 0.18565391 -0.05771106 0.357669 -0.4317647 0.5198242 0.3528759 0.10510938
-0.52200204 -0.027026067 0.22378281 0.3305378 -0.028532889 -0.36194634 0.06429178 -0.13948186

weight f4 [32, 32]
00000000: 688f 3f3f 5523 a83e e60d f4be e01d 05bf
00000010: 0569 f13e bd24 ba3e ca9e ec3e 29c4 ba3e
00000020: 5ead 223f f48d b83e 0aed eb3e 9997 c53e
00000030: 0e84 ad3e e998 323f f9ea ea3e 2052 093f
00000040: 52bd c1be 5946 fd3e 81dc 16bd 01e1 9a3e
00000050: 56bd b6be 7509 0c3f ce53 0f3f 0f8f f93e
00000060: 92cb 08bf 0c78 4cbe 066d 0dbe 9ac8 423f
00000070: 9fa2 88be b1be f7be 9ebd e03e 9c0d 84be
00000080: 90c5 013d 6a9b 6d3d 2d3b 8bbe d9ec 67be
00000090: e639 9dbd e08f 173f b512 203f 3e40 c83e
000000a0: f9b2 763c 28ab a53e 6dbc f6bc 7fad b23e
000000b0: 220a 013f db5d 21be 4ff8 113f 3450 11be
000000c0: fdcd 03bf 8830 69be 39a2 0b3e 4dc2 1a3f
000000d0: 5a0e f8bd 2d24 98be b531 89be 7aae de3c
000000e0: b63a e03d 794c aa3e 9222 8a3e e021 52bb
000000f0: b55d fd3e 58eb f8bd 98a6 efbd 41cf 61bf
00000100: b86b 73b8 2078 c3be 2336 be3e cadb 9d3e
00000110: 4fe3 76be 1705 b8be ab80 d2be 4802 4bbe
00000120: 4e26 06bf 86fe 33be df4c 66be 9257 bdbe
00000130: 52a4 e7be 40d2 f4bb 9e5b f0be d0a6 97be
00000140: 8c9f 613e 6bfc fcbd 167c 1cbe f77d 7dbe
00000150: e3e1 c63e c81e fc3d fd32 70be 2c9a babd
00000160: 97da 813d 00a9 c4bd 067a 6dbe 4d1d 09be
00000170: d284 403e 24f8 dfbd d253 dc3c 174a b63e
00000180: b5ef 023f 52c8 1b3f d26c 05bf 0c0b 1cbf
00000190: febe 303f 0dc1 c63e 7ae9 bb3e 9e8c cc3e
000001a0: f694 fa3e eb56 a53e aee1 203f 4b09 8d3e
000001b0: 5aa7 993e 9ca5 323f 430e be3e ea44 163f
000001c0: 47ae efbe cfe1 f83e 540d a6be 6549 e63e
000001d0: 8658 a9be 91b2 b33e 054a ec3e c2a6 1b3f
000001e0: 6b69 1abf 2473 a3be f3c0 d53d 1775 f63e
000001f0: d847 4ebe 217f f2be 88ed 053f a674 d0bd
00000200: d477 763d dcde a0be 0738 393d 019b 2e3d
00000210: 6b31 fa3d 0459 a7be a76d b6be d4eb b0be
00000220: a133 b6be 5391 d2be 16f5 c3bd 91b5 f9be
00000230: 5eb0 01bf 9793 db3d 0bbc bcbe 6f49 9ebe
00000240: e5b1 8e3e 9206 19be 0983 82be e296 04bf
00000250: d65d 683d de53 003e 57fc e5bd d2ba e43d
00000260: be2c 43bc 0a0e b93d 1113 b1be bb09 0ebe
00000270: df3a 653d d65a 27bd 58ae 193d 411a f93d
00000280: 6576 33be b299 06bf a864 cf3e bae4 233f
00000290: 1fd5 97be c618 ffbe ee14 c0be e394 e6be
000002a0: ad75 2ebf 8159 40be 679b e3be 47fa cbbe
000002b0: 5845 e9be 3575 04bd bb96 e4be 07df 48bf
000002c0: 32f3 8a3e 13c4 2fbf 210c dd3c e84c b7be
000002d0: a4fb 3a3f dc2a 8a3e 8c49 95be 1460 d0be
000002e0: a2f3 a13c 37f9 d33e 7954 5dbb 4ead 64be
000002f0: d3a6 8c3e dcfc 043e 9745 c3be 0e99 283e
00000300: f549 32be 0701 bebd c2f5 dabe a9dd 5c3e
00000310: 53cb 30be a25d c33e 3676 bc3e 6de8 103f
00000320: d766 afba 71ed bb3e c7bd 45bc 183a d83e
00000330: 8723 de3e 4c23 82be 5706 133f f446 c0bd
00000340: 1117 18bf e373 d1bd 0083 803e d7d1 f73e
00000350: a9b9 d2bd d71f ddbe 2ca5 23be a675 70be
00000360: 3667 973e c3b8 0a3f 83a1 983e cd21 e83b
00000370: f222 213f a51a 803e 667c 08be 51f8 78bf
00000380: 3c88 213f f5c7 ce3e 4dc8 f7be 85e2 afbe
00000390: 5ff8 233f 5e30 053f d1df cf3e d79a 503e
000003a0: b3c3 d43e 4be9 bc3e f61d 343f 65ad 913e
000003b0: d153 7c3e 1754 433f 1798 503e c4bd 2a3f
000003c0: 104f e8be e4b8 f03e a622 03be da36 013f
000003d0: 6577 c9be c3d6 173f a9cc 2d3f ca90 f43e
000003e0: 2b27 b4be cc1d f5be 383e bfbc 37a9 293f
000003f0: 3f45 c8be 9835 09bf 0b7b a03e a936 f0be
0.74828196 0.32839456 -0.47666854 -0.5199871 0.47150436 0.36356154 0.46214896 0.36477783
0.6354579 0.36045802 0.46079284 0.38592222 0.33889812 0.6976457 0.45882395 0.5364094
-0.37839752 0.49467734 -0.036831383 0.3024979 -0.35691327 0.5470193 0.5598725 0.48741958
-0.53435624 -0.19967669 -0.1381112 0.76087344 -0.2668657 -0.48387673 0.43894666 -0.25791633
0.03168255 0.058009543 -0.27193585 -0.22648944 -0.07677059 0.5920391 0.62528545 0.39111513
0.015057319 0.32357144 -0.030119145 0.34897992 0.50406086 -0.1575846 0.57019514 -0.14190751
-0.5148619 -0.2277242 0.13636102 0.6045273 -0.12112112 -0.297151 -0.26795736 0.027182806
0.10948698 0.3326147 0.269795 -0.0032063648 0.49485555 -0.12154263 -0.11701697 -0.8820687
-5.8036036e-05 -0.38177586 0.37150678 0.30831748 -0.24110149 -0.35941383 -0.4111379 -0.19825089
-0.524022 -0.17577562 -0.22490261 -0.36980873 -0.45242554 -0.007471353 -0.46944898 -0.29619455
0.22033519 -0.123528324 -0.1528171 -0.24755083 0.38844213 0.123105586 -0.2345695 -0.09111437
0.06340521 -0.09602547 -0.2319108 -0.13390084 0.18800667 -0.10936001 0.026895437 0.356034
0.51147014 0.6085254 -0.5211917 -0.60954356 0.6904143 0.3881916 0.36701566 0.39951032
0.48941773 0.32292876 0.6284436 0.27546152 0.30010492 0.6978395 0.37120256 0.58698905
-0.4681265 0.48609778 -0.32432044 0.4497787 -0.3307535 0.35097173 0.46150222 0.6080133
-0.60317105 -0.31923783 0.10437193 0.48136207 -0.20144594 -0.47362617 0.5231557 -0.10178499
0.06017287 -0.31420028 0.045219447 0.042628292 0.12216457 -0.326851 -0.35630533 -0.34554923
-0.35586265 -0.411265 -0.09568231 -0.48771337 -0.5065974 0.1072151 -0.36862215 -0.309154
0.27870098 -0.14943913 -0.25490597 -0.5179273 0.056730114 0.12531993 -0.11229771 0.11168446
-0.011912523 0.09035881 -0.3458486 -0.138709 0.055964347 -0.040858112 0.037519783 0.12163211
-0.17525633 -0.5257827 0.40506482 0.64020884 -0.29654786 -0.49823588 -0.37515968 -0.45035467
-0.6814831 -0.18784143 -0.444545 -0.39839384 -0.45560718 -0.03233834 -0.44646248 -0.7846531
0.27138668 -0.6865856 0.026983323 -0.35800862 0.73040223 0.26985824 -0.29157674 -0.40698302
0.019769493 0.41401073 -0.0033772273 -0.22331735 0.27471027 0.12987083 -0.3813903 0.16464636
-0.17411025 -0.0927754 -0.42765623 0.21568932 -0.17265062 0.38157374 0.36808938 0.56604654
-0.0013382089 0.3670459 -0.012069172 0.42231822 0.4338648 -0.25417554 0.5743155 -0.09388533
-0.59410197 -0.10227182 0.25099945 0.48402283 -0.10289318 -0.43188354 -0.15980977 -0.2348238
0.2957093 0.54188174 0.29810724 0.0070841075 0.6294395 0.25020328 -0.13328704 -0.972539
0.630985 0.4038693 -0.48395005 -0.34352508 0.6405086 0.5202693 0.40600446 0.20371567
0.41555557 0.36896738 0.70358217 0.28452602 0.24641348 0.76300186 0.20370518 0.6669581
-0.4537282 0.4701606 -0.12806186 0.5047432 -0.39348903 0.59312075 0.6789041 0.47766715
-0.35186133 -0.47874296 -0.023345098 0.66273826 -0.3911533 -0.535974 0.31343874 -0.46916702

bias f4 [32]
00000000: 6d09 dc3e 5421 773e 01ad 71bd 3dd1 423e
00000010: d38e 82be a413 eabd 6df2 923e d7fa 603e
00000020: 15b0 a53e 459a 193d 5bf0 543e a4cf 9a3e
00000030: 872a 063d 1aa7 813e 22d4 9a3d d4d6 ab3e
00000040: b7bf 843e af8d a63d f0f2 a13e 9b48 e03e
00000050: 71af c0be a4d6 f1bd c1b2 77be ff91 b8be
00000060: 759e 663e 8818 f9bd cc06 363e 02d2 b43e
00000070: 3e64 933e e24c cb3d a5e1 6abe 2a52 c93e
0.4297594 0.24133807 -0.05900288 0.1902513 -0.2549959 -0.114295274 0.2870058 0.21970688
0.32360902 0.03750064 0.20794813 0.30236542 0.0327554 0.253228 0.075599924 0.33562338
0.25927517 0.08132493 0.3163066 0.43805394 -0.3763385 -0.118085176 -0.24189283 -0.36048886
0.22521384 -0.12162882 0.1777603 0.35316473 0.28787416 0.099267736 -0.22937639 0.393205

weight f4 [2, 32]
00000000: e270 563f 785c fbbc 6aa1 b1be 474b 5f3f
00000010: 726c b2be 51b4 87be 4da2 a2bd 07f0 403f
00000020: 58f5 623e 4acf e93e 9770 193f 1cda 143d
00000030: 0634 ee3e aa8b 493f be73 663f eeca 503f
00000040: c8e2 423f 2f73 433e be9c 693f 7659 f43c
00000050: 37ca 8bbe 213d abbe c058 62be 45ed b1be
00000060: d037 893d 3666 cabe fac7 5d3e ea2d a7bc
00000070: 50bd 653e a3c1 b3be f626 9abe 3ab4 423c
00000080: e95c 55be fea3 013f b55a b6be 150b 85be
00000090: 6f05 f5be bb43 91be c676 db3e e9c6 1fbe
000000a0: 9e50 133f 09dd abbe 638c 32be 2f2e 1a3f
000000b0: 4582 dabe 52d7 18be b87e aabe 77ce aabd
000000c0: 0586 4cbe 5dff cebe 0124 7fbe 8650 073f
000000d0: 9570 eebe 8c9c a33f 7c14 06bf befd 66be
000000e0: db9a 083f ad67 7cbe fce9 023f 0a84 013f
000000f0: a192 2d3f b1f1 a23f 3495 f8be 154d 0a3f
0.83765996 -0.030683741 -0.34693462 0.8722424 -0.34848362 -0.26504758 -0.07941113 0.7536625
0.22163904 0.45665962 0.59937423 0.036340818 0.46524066 0.78728735 0.9002036 0.81559646
0.7612729 0.19086908 0.91254795 0.029827815 -0.27302715 -0.33445075 -0.22104168 -0.34751335
0.067000985 -0.39531106 0.21658316 -0.020407636 0.22435498 -0.3510867 -0.3010785 0.01188379
-0.20836224 0.5064086 -0.3561608 -0.25985017 -0.47855708 -0.28371987 0.42864054 -0.15603222
0.5754489 -0.33567074 -0.17436366 0.6022672 -0.42677513 -0.14925888 -0.33299804 -0.08340161
-0.19973 -0.40429202 -0.24916078 0.52857244 -0.46570268 1.2782149 -0.52375007 -0.22557732
0.5336129 -0.24648924 0.5113828 0.505921 0.6780186 1.2730008 -0.48551333 0.5402387

bias f4 [2]
00000000: 18f6 633e a914 633e
0.22261846 0.2217585
