[Fly_Func]/min_func_ChevMetric_Fly_5.pt (torch_old, 54341 bytes, 136 tensors)

weight f4 [2, 2]
0	0x3fdbdc5f	1.7176627
1	0x3c73d046	0.014881199
2	0xbf05ecd2	-0.52314484
3	0x3f9c9b5a	1.223491

bias f4 [2]
0	0xbf01ccb6	-0.5070299
1	0x3e05c7d2	0.13064507

weight f4 [2, 2]
0	0xbf153ab6	-0.5829271
1	0x4002dad2	2.0446057
2	0xbf34f2e7	-0.7068314
3	0x3fd58983	1.668259

weight f4 [1, 2]
0	0xbe49a1d4	-0.19690639
1	0xbf1a9f86	-0.60399663

weight f4 [2, 2]
0	0x3f18d1af	0.5969495
1	0x3d90174f	0.07035696
2	0x3f2aca5a	0.66715014
3	0xbfd95ad7	-1.6980847

bias f4 [2]
0	0x3f1a5115	0.6027997
1	0x3f7b3e49	0.98141915

weight f4 [2, 2]
0	0x3ece8d80	0.4034233
1	0xbf2922df	-0.66068834
2	0xbf154fe1	-0.5832501
3	0xbe5a7192	-0.21332386

weight f4 [1, 2]
0	0x3f010261	0.50394255
1	0x3f0e33fb	0.55548066

weight f4 [2, 2]
0	0x3f174d6f	0.5910253
1	0x3cadc2b2	0.021211002
2	0xbe562285	-0.20911606
3	0xbf622ca4	-0.88349366

bias f4 [2]
0	0xbeeca6e4	-0.46221077
1	0xbe49e2b3	-0.19715385

weight f4 [2, 2]
0	0x3f0f08e0	0.5587292
1	0x3ec1cba8	0.3785069
2	0x3f4bb1f6	0.7956842
3	0xbf39a897	-0.7252287

weight f4 [1, 2]
0	0x3f1a97c3	0.6038782
1	0xbee7b0a8	-0.45251966

weight f4 [2, 2]
0	0xbf1a40a8	-0.6025491
1	0xbfbbb0a0	-1.4663277
2	0xbeb28643	-0.3486806
3	0x3d647daa	0.055783905

bias f4 [2]
0	0xbe0c31b5	-0.13690837
1	0xbe8b9784	-0.27264035

weight f4 [2, 2]
0	0x3faad7e0	1.334713
1	0xbf017346	-0.5056652
2	0x3dfbac3f	0.12288713
3	0x3e12e7d9	0.14346255

weight f4 [1, 2]
0	0x3ec19746	0.37810725
1	0xbedcecb0	-0.43149328

weight f4 [2, 2]
0	0xbe11a0fc	-0.14221567
1	0x3f61e65f	0.88242143
2	0xbf8750e7	-1.0571564
3	0x3f7536b1	0.9578658

bias f4 [2]
0	0x3f5d3d1c	0.8642137
1	0xbe10f0db	-0.14154379

weight f4 [2, 2]
0	0x3cb14ec9	0.021644013
1	0xbfc8826f	-1.5664805
2	0x3e10e22a	0.14148775
3	0x3fc94163	1.572308

weight f4 [1, 2]
0	0x3efc8b42	0.49324995
1	0x3e9308cc	0.2871765

weight f4 [2, 2]
0	0xbf8af302	-1.085541
1	0xbd1a4bf6	-0.0376701
2	0x3f3cf9fe	0.7381896
3	0xbee7d2ed	-0.4527811

bias f4 [2]
0	0xbed4e6e4	-0.41582406
1	0xbeb0fc38	-0.34567428

weight f4 [2, 2]
0	0x3f12e432	0.5737945
1	0x3ecb4601	0.39701846
2	0x3e973e60	0.29539776
3	0x3f3d960a	0.74057066

weight f4 [1, 2]
0	0x3ed6b44a	0.41934425
1	0x3f056629	0.5210901

weight f4 [2, 2]
0	0x3ebd7450	0.37002802
1	0x3ed1ad32	0.4095245
2	0x3fdd83b4	1.7305818
3	0xbf5b0dff	-0.8556823

bias f4 [2]
0	0xbf2eff21	-0.68358046
1	0x3ee10112	0.4394613

weight f4 [2, 2]
0	0x3ea057e2	0.3131705
1	0xbfa9767a	-1.3239281
2	0x3ea9663e	0.33085817
3	0xbf58f704	-0.84751916

weight f4 [1, 2]
0	0xbe0db838	-0.13839805
1	0xbe9c821e	-0.30568022

weight f4 [2, 2]
0	0x3f0d9e50	0.5531969
1	0xbd2c2343	-0.042025816
2	0xbe6c4045	-0.23071392
3	0xbf5abb27	-0.8544182

bias f4 [2]
0	0xbf0a4954	-0.5401814
1	0x3e35aeda	0.17742482

weight f4 [2, 2]
0	0x3e6dc1b4	0.23218423
1	0xbf2a14bb	-0.6643788
2	0xbf7f9fb2	-0.9985305
3	0x3d887852	0.06663574

weight f4 [1, 2]
0	0xbdd89820	-0.105758905
1	0x3e363e10	0.17797112

weight f4 [2, 2]
0	0xbf02d6b4	-0.5110886
1	0xbf947f63	-1.1601375
2	0x3f1022ee	0.563033
3	0x3f46b239	0.77615696

bias f4 [2]
0	0x3d9b64c2	0.075875774
1	0xbf3a7e07	-0.7284855

weight f4 [2, 2]
0	0x3d53d43c	0.051716074
1	0x3f364e13	0.7121288
2	0xbdff8653	-0.12476792
3	0x3f08a653	0.5337879

weight f4 [1, 2]
0	0xbedfc47d	-0.43704596
1	0x3ef8d5d2	0.48600632

weight f4 [2, 2]
0	0x3fd319b7	1.6492223
1	0xbf762d96	-0.9616331
2	0xbf00ac1c	-0.5026262
3	0xbe22f227	-0.15912686

bias f4 [2]
0	0x3ef43e00	0.47703552
1	0x3ea1f6d6	0.31633633

weight f4 [2, 2]
0	0xbf0e2f0c	-0.5554054
1	0x3da26a77	0.07930463
2	0xbfdc9462	-1.7232783
3	0x3f8d2a53	1.1028541

weight f4 [1, 2]
0	0xbf285fcc	-0.65771174
1	0x3dd46f38	0.10372776

weight f4 [2, 2]
0	0x3f2fda57	0.68692535
1	0x3eab1cee	0.3342051
2	0x3e28394a	0.16428104
3	0x3eb773d0	0.35830545

bias f4 [2]
0	0xbed9f32f	-0.42568347
1	0x3eec2d33	0.46128234

weight f4 [2, 2]
0	0xbe4a5365	-0.19758375
1	0x3ebce342	0.36892134
2	0xbd184cf9	-0.03718278
3	0x3f2c1ab5	0.6722825

weight f4 [1, 2]
0	0xbecf2fb1	-0.40466073
1	0x3e691914	0.22763473

weight f4 [2, 2]
0	0x3fb83b8a	1.439317
1	0xbf078ee9	-0.5295244
2	0x3f80f5ea	1.0075047
3	0xbf720e30	-0.945529

bias f4 [2]
0	0x3dd0e49e	0.10199855
1	0xbe059950	-0.13046765

weight f4 [2, 2]
0	0x3e6cf912	0.23141888
1	0xbf55b624	-0.8348105
2	0x3f97e8f9	1.1867973
3	0x3f303980	0.6883774

weight f4 [1, 2]
0	0xbf113003	-0.56713885
1	0xbed288b2	-0.41119915

weight f4 [2, 2]
0	0x3f2f7511	0.68538004
1	0xbd8014eb	-0.0625399
2	0x3f4d46cb	0.80186146
3	0xbf1d6542	-0.6148263

bias f4 [2]
0	0x3e3a653e	0.18202683
1	0xbd5ac9cf	-0.053415116

weight f4 [2, 2]
0	0xbf58093a	-0.8438908
1	0x3f46a44c	0.7759445
2	0xbcc30f15	-0.023810903
3	0x3eecd6f2	0.4625774

weight f4 [1, 2]
0	0xbe297ea8	-0.16552222
1	0x3f2bd9a3	0.6712896

weight f4 [2, 2]
0	0xbf18f9e5	-0.5975631
1	0xbec076f5	-0.37590757
2	0xc02171b7	-2.5225656
3	0xbea453fc	-0.32095325

bias f4 [2]
0	0xbe739244	-0.23786265
1	0x3eb2b366	0.34902495

weight f4 [2, 2]
0	0x3c53e5a0	0.012933165
1	0xbf949e30	-1.1610775
2	0xbef1b032	-0.4720474
3	0xbed5f736	-0.4179017

weight f4 [1, 2]
0	0xbda65628	-0.08121902
1	0x3befb880	0.0073156953

weight f4 [2, 2]
0	0xbe0916bc	-0.13387579
1	0x3f52cc5a	0.82343066
2	0xbe27471d	-0.16335721
3	0x3ed3658c	0.41288412

bias f4 [2]
0	0xbf4a9410	-0.79132175
1	0x3f476634	0.77890325

weight f4 [2, 2]
0	0x3ee2d0a5	0.44299808
1	0x3e826622	0.25468546
2	0xbe10bbc5	-0.14134128
3	0xbebd4836	-0.36969155

weight f4 [1, 2]
0	0xbd3aa7b0	-0.045570076
1	0xbf0cb4d8	-0.54963446

weight f4 [2, 2]
0	0x3f401ed2	0.7504703
1	0x3d20917b	0.03920124
2	0xbf0dc138	-0.55372953
3	0x3dc2d9ce	0.09514199

bias f4 [2]
0	0xbca1f486	-0.019769918
1	0x3ec55c26	0.38546866

weight f4 [2, 2]
0	0xbfd5bb79	-1.6697837
1	0xbf942d6f	-1.1576365
2	0xbfbe9cf5	-1.489165
3	0xbf59792f	-0.84950536

weight f4 [1, 2]
0	0x3eead8ba	0.45868474
1	0x3f27e099	0.65577084

weight f4 [2, 2]
0	0x3f0802fc	0.53129554
1	0x3e899eb4	0.26878893
2	0xbfc2098a	-1.5159161
3	0xbe864b96	-0.26229542

bias f4 [2]
0	0xbe7244c9	-0.23659052
1	0x3f05b864	0.5223448

weight f4 [2, 2]
0	0xbee25d30	-0.4421172
1	0xbf5c6871	-0.86096865
2	0xbeec2d2c	-0.46128213
3	0xbf6a67b2	-0.91564476

weight f4 [1, 2]
0	0xbd2bbe60	-0.041929603
1	0xbd578a70	-0.05262226

weight f4 [2, 2]
0	0xbf2a8b8b	-0.66619176
1	0xbea09fe5	-0.3137199
2	0xc02171a4	-2.522561
3	0x3e8e82d3	0.27834186

bias f4 [2]
0	0xbe9c6b1c	-0.30550468
1	0xbf996065	-1.1982542

weight f4 [2, 2]
0	0x3c97193a	0.018444646
1	0xbfd4c2c3	-1.6621937
2	0x3e868a58	0.26277423
3	0xbf995d2b	-1.1981558

weight f4 [1, 2]
0	0xbeae984f	-0.34100577
1	0xbeefb9c4	-0.46821415

weight f4 [2, 2]
0	0x3d97bb18	0.07408732
1	0x3f836914	1.0266442
2	0xbf9f9a6c	-1.2469001
3	0x3ec1c2d9	0.3784397

bias f4 [2]
0	0xbc43759c	-0.011929896
1	0x3eea18cd	0.45722046

weight f4 [2, 2]
0	0x401eac8e	2.479282
1	0x3f08a242	0.53372586
2	0x3ee052bc	0.4381312
3	0xbf2ffcee	-0.68745315

weight f4 [1, 2]
0	0x3eaae1b2	0.33375317
1	0x3e8e0e8c	0.27745473

weight f4 [2, 2]
0	0x3cac3f84	0.02102638
1	0x3bf1f04a	0.007383381
2	0xbed51433	-0.41616973
3	0xbe67bb6f	-0.22630094

bias f4 [2]
0	0x3ebd2538	0.36942458
1	0x3ee0be7f	0.43895337

weight f4 [2, 2]
0	0x3ec7dcac	0.39035547
1	0x3e2deeb8	0.16985595
2	0x3eb63eae	0.35594696
3	0x3ee519e0	0.44746304

weight f4 [1, 2]
0	0xbeb74176	-0.3579213
1	0x3daf2ef8	0.085538805

weight f4 [2, 2]
0	0x3f687ed0	0.908185
1	0x3ec49537	0.38395092
2	0x3fabf242	1.3433306
3	0xbe07b9d1	-0.13254477

bias f4 [2]
0	0xbeabab7d	-0.33529273
1	0x3f5b5b2a	0.8568598

weight f4 [2, 2]
0	0xbe4ab524	-0.19795662
1	0xbf6e8def	-0.93185323
2	0x3f165844	0.5872843
3	0xbf6a2cdd	-0.91474706

weight f4 [1, 2]
0	0x3ebd8626	0.3701641
1	0x3f16b151	0.58864313

weight f4 [2, 2]
0	0x3fa2d7ea	1.2722142
1	0xbe60e55f	-0.21962498
2	0xbf48681c	-0.7828386
3	0x3ea0d39b	0.31411442

bias f4 [2]
0	0x3f2b6985	0.66957885
1	0x3f45b496	0.7722868

weight f4 [2, 2]
0	0xbe6c385a	-0.23068371
1	0x3d3003df	0.04297244
2	0x3f53fd92	0.8280879
3	0xc0047c4b	-2.0700862

weight f4 [1, 2]
0	0xbc0ba700	-0.008523703
1	0x3ef9b00a	0.4876712

weight f4 [2, 2]
0	0x3f9a1321	1.2037088
1	0xbef558ec	-0.47919405
2	0x3f4c92ed	0.7991169
3	0x3e57561e	0.21028945

bias f4 [2]
0	0xbf496d6a	-0.7868258
1	0x3eb8c2f4	0.36086237

weight f4 [2, 2]
0	0x3f197815	0.59948856
1	0x3f2821cc	0.6567657
2	0x3ef3ef18	0.47643352
3	0xbe248ddd	-0.16069742

weight f4 [1, 2]
0	0x3ec1894a	0.37800056
1	0x3e095514	0.13411361

weight f4 [2, 2]
0	0x3f940948	1.1565332
1	0xbf22fe7f	-0.6366958
2	0xbfb7fc82	-1.4373934
3	0x3f767399	0.9627014

bias f4 [2]
0	0xbee7f087	-0.45300695
1	0x3f028754	0.50987744

weight f4 [2, 2]
0	0xbe583038	-0.21112144
1	0xbeab3047	-0.3343527
2	0xbf244422	-0.6416646
3	0xbf5dcc52	-0.86639893

weight f4 [1, 2]
0	0xbf227894	-0.6346524
1	0x3ce35280	0.0277493

weight f4 [2, 2]
0	0x3e0f21d4	0.13977748
1	0xbf67d3e2	-0.9055768
2	0xbe426646	-0.18984327
3	0x3daf83f5	0.08570091

bias f4 [2]
0	0x3eaffd75	0.3437306
1	0xbecfc371	-0.40578797

weight f4 [2, 2]
0	0x3e8510d6	0.25989407
1	0xbf8f0a31	-1.1174985
2	0xbca83c8d	-0.020536685
3	0x3db32941	0.08748103

weight f4 [1, 2]
0	0x3f17c969	0.592917
1	0x3ea75332	0.3268066

weight f4 [2, 2]
0	0x3f50eae4	0.81608415
1	0x3e36c790	0.17849565
2	0x3f83987b	1.0280908
3	0x3f263af5	0.6493371

bias f4 [2]
0	0x3e4b9ca2	0.1988397
1	0xbe5a6502	-0.21327594

weight f4 [2, 2]
0	0xbfef5d14	-1.870028
1	0x3f0379fb	0.51358
2	0x3f9efc72	1.242079
3	0xbf1b6c68	-0.6071229

weight f4 [1, 2]
0	0x3e83201e	0.2561044
1	0x3f212d4d	0.6295975

weight f4 [2, 2]
0	0x3f85d868	1.0456667
1	0xbfb4ba0a	-1.4119275
2	0xbf6d8212	-0.92776597
3	0x3f42b824	0.76062226

bias f4 [2]
0	0xbed3f6af	-0.41399142
1	0xbe6590a8	-0.22418463

weight f4 [2, 2]
0	0xbd216ffa	-0.03941343
1	0x3f7b1a40	0.9808693
2	0xbf23ead5	-0.640302
3	0xbe4627cd	-0.1935112

weight f4 [1, 2]
0	0x3dc72060	0.09722972
1	0xbe359f2c	-0.177365

weight f4 [2, 2]
0	0xbfa2eb57	-1.272807
1	0x4018f87f	2.390167
2	0x3ff9720e	1.9487932
3	0xbf3fb856	-0.7489065

bias f4 [2]
0	0x3d4bc821	0.049751405
1	0xbee19723	-0.4406062

weight f4 [2, 2]
0	0xbf8f9c9f	-1.1219672
1	0x3fab4be3	1.3382534
2	0x3d83ccee	0.064355716
3	0xbc933448	-0.017969266

weight f4 [1, 2]
0	0xbe5623de	-0.2091212
1	0x3ebe5782	0.37176138

weight f4 [2, 2]
0	0xbf2356c8	-0.6380429
1	0xbf22af0e	-0.6354836
2	0xbeb27ffa	-0.34863263
3	0x3ed7c4fd	0.42142478

bias f4 [2]
0	0x3ee0046a	0.43753368
1	0x3dd71411	0.10501874

weight f4 [2, 2]
0	0xbf9737a1	-1.1813852
1	0x3f768752	0.9630023
2	0xbfa47f89	-1.2851421
3	0x3f81bb3e	1.0135267

weight f4 [1, 2]
0	0xbf13af0e	-0.5768899
1	0xbeaa5afa	-0.33272535

weight f4 [2, 2]
0	0xbfac0db8	-1.3441687
1	0x3e20ba7e	0.15696141
2	0x3f9b3c74	1.2127824
3	0xbf0bcb45	-0.5460704

bias f4 [2]
0	0x3f228232	0.6347991
1	0x3e9898d2	0.29804093

weight f4 [2, 2]
0	0x3f449b38	0.76799345
1	0x3e5cc53b	0.21559612
2	0xbf3c04ca	-0.7344481
3	0x3f66e97a	0.90200007

weight f4 [1, 2]
0	0x3ed728fe	0.42023462
1	0x3eb41e96	0.35179585

weight f4 [2, 2]
0	0xbdc2e587	-0.09516435
1	0xbf06d629	-0.5267053
2	0xbe843ae3	-0.25826177
3	0x3dec9511	0.1155187

bias f4 [2]
0	0x3f18acfe	0.59638965
1	0x3f12232c	0.5708492

weight f4 [2, 2]
0	0x3e248ab0	0.1606853
1	0x3d8b617e	0.068057045
2	0xbf39c16b	-0.7256076
3	0x3db98778	0.09059042

weight f4 [1, 2]
0	0xbe090260	-0.13379812
1	0xbf2b2f3f	-0.66868967

weight f4 [2, 2]
0	0xbf51024d	-0.81644136
1	0x3f6639a1	0.89931685
2	0x3f81dbd6	1.0145214
3	0x3fa24ff2	1.2680647

bias f4 [2]
0	0xba82a46a	-0.0009967212
1	0x3e044257	0.12915932

weight f4 [2, 2]
0	0xbea3b625	-0.31974903
1	0x3db730e2	0.089448705
2	0xbf5ddda2	-0.8666631
3	0xbe2361b3	-0.15955238

weight f4 [1, 2]
0	0x3d8f6af8	0.070028245
1	0xbf187384	-0.5955126

weight f4 [32, 2]
0	0x3d70b597	0.058766928
1	0x3b95e800	0.0045747757
2	0x3f89f447	1.0777673
3	0xbfbe1824	-1.4851117
4	0xbf7d960a	-0.99057066
5	0xbffc6f68	-1.9721498
6	0xbe9d0d1d	-0.30674067
7	0x3ef57390	0.4793973
8	0xbfbbc286	-1.4668739
9	0x3e7474ad	0.23872633
10	0x3f02410f	0.5088052
11	0x3ffe724e	1.9878633
12	0xbfe5db09	-1.7957469
13	0x3f619018	0.88110495
14	0xbebd89ad	-0.370191
15	0x3f811472	1.0084364
16	0x3f0a0185	0.5390857
17	0xbfbb06e9	-1.4611484
18	0x3f9e0d73	1.2347854
19	0xbe956756	-0.29180402
20	0xbeb8efa0	-0.3612032
21	0xbf90176a	-1.1257145
22	0xbf8af95f	-1.0857352
23	0xbe0295be	-0.12752435
24	0xbffd6cff	-1.9798888
25	0x3eecf0ac	0.46277368
26	0x3f30f38e	0.69121635
27	0xc0059dfb	-2.0877674
28	0xbfbf3111	-1.4936849
29	0xbf13af93	-0.5768978
30	0x3f1fd4b1	0.62433916
31	0xbfcdc47a	-1.6075585
32	0xbf5ac35e	-0.85454357
33	0xbfcabc9c	-1.5838809
34	0x3faab6fe	1.3337095
35	0x3f050995	0.51967746
36	0xbfc405ab	-1.531423
37	0xbf7fb50e	-0.9988564
38	0xbf416331	-0.7554198
39	0xbf881042	-1.0629961
40	0xbf725fb7	-0.946773
41	0x3f1cca0f	0.61245817
42	0xbfcdc9c0	-1.6077194
43	0xbf66a92f	-0.90101904
44	0xbfa267e9	-1.2687961
45	0xbeb96301	-0.36208346
46	0x3fa3ab1e	1.2786596
47	0x3e968c37	0.2940385
48	0xbfbb7547	-1.4645165
49	0x3f5a7330	0.8533201
50	0x3f80501a	1.0024445
51	0x3fb7ba72	1.4353774
52	0x3f3b0aed	0.73063546
53	0x3f9fe25b	1.2490953
54	0x3f83ee4d	1.0307099
55	0x3f32bf99	0.69823605
56	0xbf0c7825	-0.54870826
57	0x3f14f0c4	0.5817988
58	0xbf8a3195	-1.0796381
59	0x3f877c64	1.0584836
60	0xbed07fa2	-0.40722376
61	0xbfb6e5a8	-1.4288836
62	0x3f1fd076	0.6242746
63	0x40008132	2.0078855

bias f4 [32]
0	0x3e53f1b0	0.20697665
1	0x3e8a57c3	0.27020082
2	0x3eb18d1c	0.3467797
3	0xbef21c68	-0.47287297
4	0xbea02ee8	-0.31285787
5	0x3e82259d	0.25419322
6	0xbf1859fa	-0.59512293
7	0x3f343347	0.70390743
8	0x3d186ac4	0.037211195
9	0xbe889b1b	-0.26680836
10	0x3f09eb8b	0.53875035
11	0xbeca5d2a	-0.39524204
12	0xbf096da4	-0.53682923
13	0x3d197ef0	0.037474573
14	0xbe606bfe	-0.21916196
15	0x3db75653	0.08952012
16	0x3d44b7a8	0.04802671
17	0xbf0aff94	-0.5429623
18	0x3e523333	0.20527343
19	0x3f14fa4c	0.5819442
20	0x3f28b171	0.65895754
21	0xbf198834	-0.59973454
22	0xbf189bf6	-0.5961298
23	0x3d63b73c	0.055594668
24	0x3ba8938f	0.0051445435
25	0x3e299330	0.16560054
26	0x3e252cd0	0.16130376
27	0x3f1907c5	0.5977748
28	0x3ee802cc	0.45314634
29	0x3e419460	0.18904257
30	0x3e918082	0.28418356
31	0xbeda91f7	-0.42689487

weight f4 [32, 32]
0	0xbdf36dd3	-0.11886182
1	0xbf07f110	-0.5310221
2	0xc0455ee5	-3.083917
3	0x3eb08576	0.34476823
4	0x3eb61c52	0.35568482
5	0x3f60545e	0.87628734
6	0x3f469454	0.7757008
7	0x3ee0ec98	0.43930507
8	0xbf5665d4	-0.8374913
9	0xbe03bfc1	-0.12866117
10	0xbfa33e44	-1.2753377
11	0x3e821040	0.25403023
12	0x3e8580db	0.2607487
13	0xbf89c89e	-1.0764349
14	0xbe4d1fbc	-0.20031637
15	0xbf2f4436	-0.68463457
16	0xbfd44220	-1.658268
17	0x3f53eb0b	0.8278052
18	0xbfcf92ca	-1.6216671
19	0xbf87fd75	-1.0624224
20	0x3e3928c3	0.18081956
21	0xbe8193f1	-0.25308183
22	0xbd89c480	-0.067269325
23	0xbe0e6b90	-0.1390822
24	0x3efbae64	0.49156487
25	0x3f82d61d	1.0221592
26	0x3f7b01b3	0.9804947
27	0x3e343a6a	0.17600408
28	0x3ec4ab63	0.38412008
29	0x3f8b87e4	1.0900846
30	0xc0107f56	-2.257772
31	0x403e68e5	2.9751523
32	0x3dc46be6	0.095908925
33	0x3c9c67bd	0.019092435
34	0x3dd5bb2c	0.10436091
35	0xbe551dc0	-0.2081213
36	0xbe7bbae0	-0.24583006
37	0x3da265e7	0.079295926
38	0xbea591b8	-0.32337737
39	0x3db49539	0.088175245
40	0x3dec3268	0.11533052
41	0xbed845f8	-0.42240882
42	0x3dc477f1	0.095931895
43	0xbe9878ab	-0.29779562
44	0xbe805db9	-0.25071505
45	0x3c81dcf9	0.015852438
46	0xbe8cb106	-0.27478808
47	0x3e3e9297	0.18610607
48	0x3c273726	0.0102060195
49	0xbee43baf	-0.44576785
50	0x3cb573c3	0.022149926
51	0x3e45f119	0.19330253
52	0x3ea0dd6d	0.31418934
53	0xbdebfbbb	-0.11522623
54	0xbeaba5e1	-0.33524993
55	0xbca2cc75	-0.019872883
56	0xbd899e07	-0.067195944
57	0xbe17385e	-0.14767596
58	0x3d99c42c	0.0750812
59	0x3e2f9b45	0.17149074
60	0x3e823d8b	0.2543758
61	0x3ead10d7	0.3380191
62	0xbd80adae	-0.06283127
63	0xbe9e1ff4	-0.30883753
64	0xbe7d0ae2	-0.24711183
65	0xbe9e9601	-0.3097382
66	0xbbe1fc64	-0.0068965424
67	0xbcf50ee5	-0.029914329
68	0x3ebc3282	0.36757284
69	0xbf19b0a9	-0.60035187
70	0x3eaef0b5	0.3416802
71	0xbe100aab	-0.1406657
72	0xbd6e3963	-0.058160197
73	0x3e83a3b5	0.25710836
74	0xbe1f956f	-0.15584348
75	0x3ebc1c44	0.36740315
76	0x3ee827f2	0.45342976
77	0xbea6e706	-0.32598132
78	0x3e80d94d	0.25165787
79	0xbdd4cb3c	-0.103903264
80	0xbc8432ce	-0.016137507
81	0x3cb46b0e	0.022023704
82	0x3e8907fc	0.26763904
83	0x3d47fd4e	0.048825555
84	0xbdc9845d	-0.098396994
85	0x3f076e89	0.5290304
86	0x3ee6b4d0	0.45059824
87	0xbe58dbde	-0.21177623
88	0x3df8ec42	0.121544376
89	0xbe3da58d	-0.18520184
90	0xbe1da95b	-0.15396635
91	0xbea2fc47	-0.31833097
92	0xbc007735	-0.007840921
93	0xbeacfbfa	-0.33785993
94	0x3db871a3	0.090060495
95	0xbe743fac	-0.23852414
96	0x3dd2f5c8	0.10300785
97	0xbe745855	-0.23861821
98	0xbf9c20e9	-1.2197543
99	0xbc4a9c57	-0.012366376
100	0xbf15d1ca	-0.5852324
101	0x3f46b94b	0.77626485
102	0xbed891be	-0.42298692
103	0x3e810a90	0.2520337
104	0xbe85b34a	-0.2611335
105	0xbd8fcfba	-0.070220426
106	0xbec21bcf	-0.3791184
107	0xbe41cfee	-0.18926975
108	0xbeffc5a7	-0.49955484
109	0xbf6d4ab6	-0.92692125
110	0xbf7d6723	-0.989855
111	0xbe8e2b3e	-0.27767366
112	0xbfb4c8d8	-1.4123793
113	0x3db44a68	0.08803254
114	0xbf9b52d8	-1.2134657
115	0xbddc37c0	-0.10752821
116	0x3ea022b6	0.31276482
117	0xbee59608	-0.44841027
118	0xbe87d02e	-0.26526016
119	0x3ea62fb6	0.32458276
120	0x3e4167c0	0.18887234
121	0x3f49c2de	0.7881297
122	0x3f432643	0.7623026
123	0x3e9f2c03	0.31088266
124	0x3dac057b	0.08399483
125	0x3ebb231c	0.36550224
126	0xbf312f9b	-0.69213265
127	0x3da48b98	0.08034438
128	0xbe3cac1d	-0.18425031
129	0x3e14bf19	0.14526023
130	0x3ce5e8ef	0.028065173
131	0x3d0f5a70	0.034998357
132	0x3d3f89c8	0.046762258
133	0x3e34b458	0.1764692
134	0xbd0d8ea6	-0.03455987
135	0x3d36c252	0.044618912
136	0x3e125daa	0.14293543
137	0xbc3e35c3	-0.0116094975
138	0xbe680064	-0.22656399
139	0xbda38028	-0.07983428
140	0xbde91768	-0.113814175
141	0xbd813c8b	-0.06310376
142	0x3d0f29c1	0.03495193
143	0x3e1918d7	0.14950882
144	0xbe257686	-0.16158494
145	0xbe0e781f	-0.1391301
146	0xbcf33055	-0.029686132
147	0x3db2cd74	0.08730593
148	0x3dbf4acf	0.093404405
149	0xbe415900	-0.18881607
150	0xbde9d5b2	-0.11417712
151	0xbe859cd0	-0.260962
152	0xbd5758c0	-0.052574873
153	0xbe081898	-0.13290632
154	0x3df970d4	0.121797234
155	0x3c0db90e	0.0086500775
156	0xbe100bc0	-0.14066982
157	0x3c8b8a9d	0.01703387
158	0xbbe82e01	-0.007085562
159	0x3cf2701f	0.02959448
160	0xbdec506a	-0.11538775
161	0x3d48cb70	0.049022138
162	0x3eafff04	0.3437425
163	0x3d5c623b	0.053804617
164	0x3df482de	0.119390234
165	0xbda375aa	-0.07981427
166	0x3c9878a1	0.018612208
167	0xbe63b194	-0.2223571
168	0xbe0045a7	-0.1252657
169	0xbf429abf	-0.76017374
170	0x3d8ec3aa	0.06970914
171	0xbd7bcaef	-0.06147283
172	0xbe715725	-0.23568399
173	0xbe7248ea	-0.23660627
174	0x3e7a759b	0.24458925
175	0xbdc497e0	-0.0959928
176	0x3ef8d4c0	0.48599815
177	0xbe080628	-0.13283598
178	0x3f43b35d	0.7644556
179	0x3e321b77	0.1739329
180	0x3e887c94	0.26657546
181	0x3f0124af	0.504466
182	0x3db34f5d	0.08755372
183	0xbf592acf	-0.84830946
184	0x3f0f902a	0.5607935
185	0xbf0534ab	-0.5203349
186	0xbf1127d0	-0.56701374
187	0xbe92fad9	-0.28707007
188	0x3d1e3b1e	0.038630597
189	0x3f6e225f	0.93021196
190	0x3e480602	0.19533542
191	0xbeab6e34	-0.33482516
192	0xbe466dd6	-0.19377837
193	0xbe5901eb	-0.21192138
194	0xbc84be7c	-0.016204111
195	0xbd57740b	-0.0526009
196	0xbdbe8366	-0.09302406
197	0xbe9006cd	-0.2813019
198	0xbe85c7e3	-0.26129064
199	0x3dfec630	0.12440145
200	0xbdf64ed4	-0.12026754
201	0xbf2b8077	-0.66992897
202	0x3e2b69f6	0.1673964
203	0xbddb35f6	-0.107036516
204	0xbe76d308	-0.2410394
205	0xbdf75a97	-0.120778255
206	0x3d55d37a	0.052203633
207	0xbd79f393	-0.061023306
208	0xbd848b47	-0.064718775
209	0xbebf77f3	-0.37396201
210	0x3df4f0b0	0.1195997
211	0xbdf4199a	-0.119189456
212	0x3e86cc07	0.26327536
213	0xbdec283b	-0.11531111
214	0x3c2a0fb5	0.010379721
215	0xbde44e53	-0.11147752
216	0xbdcf3694	-0.10117832
217	0xbe1a286f	-0.15054487
218	0xbe6ac07e	-0.22924992
219	0xbdf29404	-0.11844638
220	0x3b3d4ecd	0.002888608
221	0x3e71aac5	0.236003
222	0xbc956377	-0.018235905
223	0xbeada8fc	-0.33917987
224	0xbd8aa681	-0.06770039
225	0x3efb735b	0.49111447
226	0x3f1dde0b	0.61666936
227	0x3a10fa99	0.0005530506
228	0x3a72efb1	0.0009267284
229	0xbf70f304	-0.9412081
230	0xbe84ce3f	-0.25938603
231	0xbf585bda	-0.84515154
232	0x3ec44fba	0.38342077
233	0x3f93edb1	1.1556913
234	0x3ed1a43a	0.40945607
235	0x3e225162	0.15851358
236	0x3ddb9ea1	0.107236154
237	0x3f79e892	0.976205
238	0x3ec6563c	0.38737667
239	0x3f0a5996	0.5404295
240	0x3fa163ad	1.2608544
241	0x3ee056e6	0.43816298
242	0x3f325538	0.69661283
243	0xbc70b028	-0.014690436
244	0xbf6d49d2	-0.92690766
245	0x3eaec918	0.34137797
246	0x3d40c913	0.04706676
247	0x3ec13a19	0.37739637
248	0xbf4e0718	-0.80479574
249	0xbf116ed3	-0.5680973
250	0xbf50929a	-0.81473696
251	0xbda51f8f	-0.0806266
252	0xbf597f3b	-0.84959763
253	0xbf53e8f9	-0.82777363
254	0x3eb4c5f0	0.35307264
255	0xbde490ba	-0.11160417

bias f4 [32]
0	0xbdca5ac1	-0.09880591
1	0x3e0646f3	0.13113002
2	0xbe86f80e	-0.26361126
3	0x3e0a2794	0.1349166
4	0x3e1d1f2d	0.15343924
5	0x3d010836	0.03150197
6	0x3d3864e0	0.045018077
7	0xbe8e7e30	-0.27830648
8	0x3e3a20c0	0.18176556
9	0x3e5698a4	0.20956665
10	0x3afa5c08	0.0019100914
11	0x3e852d96	0.26011342
12	0xbecf2991	-0.404614
13	0x3e27fac0	0.16404247
14	0xbe6e10d2	-0.23248604
15	0x3e0bc95e	0.13651034
16	0x3d4e7800	0.05040741
17	0x3e5a6c82	0.21330455
18	0x3d140074	0.036133245
19	0xbe0d1728	-0.13778365
20	0x3e802123	0.2502528
21	0x3dc8ac71	0.097985156
22	0x3e20b85e	0.1569533
23	0x3dab3c6f	0.08361136
24	0x3e076143	0.13220696
25	0x3e825fdc	0.2546376
26	0xbe70dfc8	-0.23522866
27	0xbc24eaf1	-0.01006578
28	0x3e1b653e	0.1517534
29	0x3ed71852	0.42010742
30	0xbd9a1a1a	-0.0752451
31	0xbdc51d45	-0.09624723

weight f4 [32, 32]
0	0xbfd2bf56	-1.6464641
1	0x3e3c838c	0.18409556
2	0xbeab173c	-0.33416164
3	0x3f79044e	0.97272193
4	0x3dfc16ae	0.12309013
5	0x3eeb7c4a	0.45993263
6	0x3e0419ea	0.1290051
7	0xbe1b2fc0	-0.15154934
8	0x3d40e3e3	0.04709233
9	0x3f78a530	0.97127056
10	0xbff0b3ae	-1.8804834
11	0x3d91b94a	0.07115419
12	0xbe917984	-0.28413022
13	0x3e4572cb	0.19282071
14	0x3f3a141b	0.7268693
15	0xbb84f309	-0.0040572924
16	0xbe7f7f5e	-0.2495093
17	0xbd083ab4	-0.03325911
18	0xbee3a7f5	-0.4446408
19	0x3f6ff6b5	0.9373582
20	0x3e05a739	0.13052072
21	0xbeeb713c	-0.45984828
22	0x3dac5464	0.08414534
23	0x3d4979e7	0.04918852
24	0xbede6169	-0.43433693
25	0xbac8321d	-0.0015273724
26	0x3ea212f2	0.3165508
27	0xbf89c1c9	-1.0762264
28	0x3e550de6	0.20806083
29	0x3d93173b	0.07182165
30	0x3f156ffe	0.5837401
31	0x3e4a151e	0.19734618
32	0x3ebe9585	0.3722345
33	0xbf43a39f	-0.7642154
34	0x3eb632af	0.35585544
35	0x3e1b09fa	0.15140525
36	0xbea9b27f	-0.33143994
37	0xbf359a2f	-0.7093839
38	0xbfad2885	-1.352799
39	0x3ff74db7	1.9320592
40	0xbf135412	-0.57550156
41	0x3f00bce3	0.5028822
42	0x3f28e74a	0.6597792
43	0xbf4f7e11	-0.8105174
44	0x3fc66d74	1.5502152
45	0xbeb63d74	-0.3559376
46	0x3f8964ec	1.0733924
47	0xbf4b366d	-0.7937992
48	0x3f55e921	0.8355885
49	0xbf5cc97c	-0.8624494
50	0x3f53e475	0.8277047
51	0x3ef94797	0.4868743
52	0xbf1e0e6d	-0.6174076
53	0xbe17585e	-0.14779803
54	0xbed13066	-0.40857238
55	0xbf262cc7	-0.64912075
56	0xbe038fc8	-0.12847817
57	0xbef9dfd8	-0.48803592
58	0x3ec9cd08	0.3941424
59	0x3f1e4ff8	0.6184077
60	0xbf803974	-1.0017533
61	0xc0221b3e	-2.5329127
62	0x3eae5970	0.3405261
63	0x3ea08d70	0.31357908
64	0xbd98a627	-0.07453566
65	0x3dfa8f3f	0.12234353
66	0xbd72aac1	-0.059244875
67	0xbef6e83c	-0.48224056
68	0x3d8be4ee	0.06830774
69	0x3d3ebd70	0.04656738
70	0x3dc863dd	0.097846724
71	0xbe1752d5	-0.14777692
72	0x3daa64aa	0.083199814
73	0xbdc0a19d	-0.09405825
74	0xbfa8d17a	-1.3188927
75	0xbe56de7c	-0.20983309
76	0x3ba444c6	0.0050130812
77	0xbe5669f4	-0.20938855
78	0xbe9f4007	-0.31103536
79	0x3eb5200d	0.35376015
80	0xbdb4ebf1	-0.08834065
81	0x3cc707c3	0.024295693
82	0x3e8ffe95	0.28123918
83	0xbcf7c291	-0.030244144
84	0xbd9b0608	-0.0756951
85	0xbe4ff7e6	-0.2030941
86	0xbce0350b	-0.027369043
87	0x3e67c72e	0.22634575
88	0xbf264780	-0.6495285
89	0x3d1cefbe	0.038314573
90	0x3f0d69d6	0.5523962
91	0xbf688759	-0.90831524
92	0x3d141560	0.036153197
93	0x3e3ba78a	0.1832563
94	0xbe50f629	-0.20406403
95	0x3e977141	0.29578593
96	0xbf10ad77	-0.56514686
97	0x3e066774	0.13125402
98	0xbe895a95	-0.2682692
99	0xbf9462a5	-1.1592604
100	0xbdef9292	-0.11697878
101	0x3ea412d6	0.3204562
102	0x3e5cad48	0.21550477
103	0xbef67d4d	-0.48142472
104	0x3d923df9	0.071407266
105	0xbef9c92b	-0.4878629
106	0xbfa4db0d	-1.2879349
107	0x3e0c0654	0.13674289
108	0xbe01ebb1	-0.12687565
109	0xbdd37baa	-0.103263214
110	0xbec60c45	-0.38681236
111	0xbe3857e4	-0.18002278
112	0xbe328162	-0.17432168
113	0xbcbe4388	-0.02322556
114	0xbf3bbae4	-0.7333205
115	0xbdb9863f	-0.090588085
116	0x3ce22ad5	0.027608315
117	0xbf794408	-0.9736943
118	0x3b982035	0.0046425113
119	0xbd646cad	-0.055767704
120	0xbf3b6082	-0.73194134
121	0xbdda5174	-0.10660067
122	0x3eaae3c4	0.33376896
123	0xbf3a6e06	-0.7282413
124	0xbe12d20c	-0.14337939
125	0x3e93d17d	0.28870764
126	0xbd7baffd	-0.061447132
127	0x3ee39f1e	0.44457334
128	0xbf81f9ba	-1.0154335
129	0xbdcd54e4	-0.10025957
130	0xbdf29480	-0.118447304
131	0xbead8367	-0.33889315
132	0xbe85eac5	-0.26155677
133	0x3e69ec4a	0.22844043
134	0xbc04bebc	-0.008102115
135	0xbde67552	-0.11252846
136	0x3d2d0b1f	0.042246934
137	0xbe8dd43f	-0.27700993
138	0x3cf4c5b2	0.029879425
139	0xbe77fb13	-0.24216871
140	0xbe96e86f	-0.29474208
141	0xbd64206f	-0.055694994
142	0xbf6c9135	-0.9240907
143	0x3de90f96	0.11379926
144	0x3ebed92f	0.37275073
145	0x3df92054	0.12164369
146	0x3f5c7c8d	0.8612755
147	0x3db406f5	0.087903894
148	0x3cb614cb	0.022226712
149	0xbda9b92f	-0.08287274
150	0xbe00b060	-0.12567282
151	0x3ea89256	0.32924145
152	0xbeab2e97	-0.33433983
153	0x3e11ad7b	0.14226334
154	0x3ecc4587	0.39896795
155	0xbf39223e	-0.72317874
156	0x3e03b46c	0.12861794
157	0x3ecdc080	0.40185928
158	0x3e0071b5	0.12543376
159	0x3f19c280	0.6006241
160	0xbd1aa8a5	-0.03775849
161	0xbe1e0272	-0.1543062
162	0x3e674741	0.22585775
163	0xbe364a6f	-0.17801832
164	0xbcd908a7	-0.026493384
165	0x3e69b37b	0.22822373
166	0xbe2d1b18	-0.16904867
167	0xbf42d8cf	-0.76112074
168	0x3aa17782	0.0012318941
169	0xbed397d2	-0.41326767
170	0xbd9036c5	-0.070416965
171	0x3afb7bac	0.0019186637
172	0x3e771ef4	0.24132901
173	0xbe5ee8f2	-0.21768549
174	0xbe0bd787	-0.13656436
175	0xbdff5f8b	-0.12469395
176	0x3e476943	0.19473748
177	0x3bc045d4	0.005867699
178	0xbf48e7a4	-0.78478456
179	0x3f843b8b	1.0330671
180	0xbe85b151	-0.26111844
181	0x3e00410f	0.12524818
182	0xbd97f813	-0.07420363
183	0xbd2a5c9c	-0.041592225
184	0x3e901df6	0.28147858
185	0xbdab9dc6	-0.08379702
186	0x3f346cbe	0.7047843
187	0x3e89bf5c	0.26903808
188	0xbd8cee95	-0.068814434
189	0x3c939774	0.018016554
190	0x3f4122c3	0.7544367
191	0x3eb3e304	0.35134137
192	0xbe9b913c	-0.30384243
193	0x3d87f609	0.06638724
194	0xbdc00bd5	-0.09377257
195	0xbf87c7ac	-1.060781
196	0xbe03e52f	-0.12880395
197	0x3ecf4ef1	0.40489915
198	0xbba9a8ed	-0.005177608
199	0xbcd30463	-0.025758928
200	0x3e0ca345	0.13734157
201	0xbf041f6d	-0.5161045
202	0xbec65d63	-0.38743123
203	0xbd096066	-0.0335392
204	0xbdd037d7	-0.101669006
205	0x3c6c0262	0.014404865
206	0xbe9180fd	-0.28418723
207	0xbb23e41b	-0.0025007788
208	0xbe27e7e9	-0.1639706
209	0xbca01d93	-0.019545352
210	0xbef77afb	-0.48336014
211	0xbe163224	-0.14667565
212	0x3c90b714	0.017665423
213	0xbe695042	-0.22784522
214	0xbdd65793	-0.10465922
215	0xbd0fdc3c	-0.03512214
216	0xbe92f38f	-0.28701445
217	0xbd99911e	-0.07498382
218	0x3d1e1152	0.038590737
219	0xbc8fbc52	-0.017545853
220	0xbd4cf95f	-0.050042506
221	0xbd5ad8f1	-0.053429548
222	0xbd4fff8d	-0.05078082
223	0xbdf5bbc3	-0.11998703
224	0xbf0e16a5	-0.555033
225	0x3e4fba62	0.20285943
226	0x3cd8be65	0.026457975
227	0xbe391df0	-0.18077826
228	0xbe3656ce	-0.17806551
229	0x3f81195b	1.0085863
230	0x3e0ddeda	0.13854542
231	0xbeab9907	-0.33515188
232	0x3e2e4b58	0.17020929
233	0x3c6d2686	0.014474517
234	0xbfc0da75	-1.5066668
235	0x3e048ece	0.129451
236	0xbf5b7d74	-0.857383
237	0x3d4917a8	0.049094826
238	0xbef74162	-0.4829207
239	0xbe7bb159	-0.24579372
240	0xbf46d107	-0.776627
241	0xbd2bbae8	-0.041926295
242	0xbcc77d0a	-0.024351615
243	0x3f82f3c6	1.0230644
244	0x3e2eaa20	0.17057085
245	0xbf9b72ee	-1.2144449
246	0xbe42be79	-0.19017972
247	0xbd95d3aa	-0.07315762
248	0xbee50743	-0.44732103
249	0xbe5b80df	-0.21435879
250	0x3f6eb9de	0.9325236
251	0xbf6eceb5	-0.9328416
252	0x3d8d1654	0.068890244
253	0x3e9b62c6	0.30348796
254	0x3f51296d	0.81703836
255	0x3eedbafe	0.46431726

bias f4 [32]
0	0xbe1e0df8	-0.15435016
1	0xbf2f9c3b	-0.68597764
2	0xbc95dd52	-0.01829401
3	0x3d0ea180	0.034821987
4	0xbdc3b8d7	-0.0955674
5	0xbe032e19	-0.12810554
6	0x3e6602b8	0.22461975
7	0x3de2ae6a	0.11068423
8	0xbec19783	-0.37810907
9	0x3e9ec931	0.31012872
10	0xbe9926a8	-0.29912305
11	0xbf3cae56	-0.73703516
12	0x3e7927b2	0.24331549
13	0xbf2a8b55	-0.66618854
14	0x3e0deff7	0.1386107
15	0xbf0db034	-0.5534699
16	0xbcb4cd1b	-0.022070458
17	0xbe8a62b8	-0.2702844
18	0xbe1880bc	-0.14892858
19	0x3ddb01a6	0.10693674
20	0xbea92ae5	-0.33040538
21	0x3cc54680	0.024081469
22	0x3ca7b6e0	0.020472944
23	0x3ead1a4f	0.33809134
24	0x3d0e537b	0.034747582
25	0x3e12ae80	0.14324379
26	0xbdd4b072	-0.10385217
27	0x3d70d92b	0.058800858
28	0x3e27c851	0.16385008
29	0xbd1d2cf9	-0.038372967
30	0xbd85018f	-0.06494438
31	0x3e120090	0.14258027

weight f4 [4, 32]
0	0x3eb1f30a	0.34755737
1	0x3f44a63a	0.7681614
2	0x3ce664c0	0.028124213
3	0x3ee3d97c	0.44501865
4	0xbccb7047	-0.024833811
5	0xbe9ec2f1	-0.31008103
6	0x3ed66cdc	0.41879928
7	0xbe0f0c67	-0.13969575
8	0xbd70ed51	-0.058820073
9	0x3cca07a3	0.024661845
10	0x3d745064	0.05964698
11	0x3ee81a26	0.4533245
12	0x3d4cd4fb	0.0500078
13	0x3dd9fbd9	0.10643739
14	0xbd96c747	-0.07362228
15	0x3f11deca	0.56980574
16	0xbe7680b1	-0.2407253
17	0xbed2e884	-0.4119302
18	0x3e27ef16	0.16399798
19	0x3dfc2398	0.123114765
20	0x3a2d003e	0.00065994624
21	0x3e2ba41d	0.16761823
22	0x3e25c78c	0.16189402
23	0x3d5b4563	0.05353297
24	0xbdead28e	-0.11465941
25	0x3e84d607	0.2594454
26	0xbcdecebd	-0.02719819
27	0x3d6a3d49	0.057187352
28	0xbd848da7	-0.064723305
29	0x3e0f4dce	0.13994524
30	0x3d972c22	0.073814645
31	0x3e90420c	0.2817539
32	0xbf839314	-1.027926
33	0xbf150243	-0.58206576
34	0x3ea0cdf2	0.31407124
35	0xbe7a06d4	-0.24416667
36	0x3e400fa9	0.18755974
37	0xbd3fce6b	-0.046827715
38	0x3e2f60ac	0.17126721
39	0x3ea4b4fe	0.32169336
40	0xbef1f6a4	-0.47258484
41	0x3e435a19	0.19077338
42	0xbc217050	-0.009853438
43	0xbf4d3e95	-0.8017362
44	0x3de30e3f	0.110867016
45	0xbf83f749	-1.030984
46	0x3d0e8db8	0.034803122
47	0x3e3106ff	0.17287825
48	0x3d1d4736	0.03839799
49	0xbd8c2223	-0.068424486
50	0xbe010105	-0.12598045
51	0x3dcc26a5	0.09968308
52	0xbd9ff3db	-0.078101836
53	0x3cfc3bed	0.030790294
54	0x3e1beaf7	0.1522635
55	0x3ec98d4f	0.39365622
56	0xbe6a0b3d	-0.2285585
57	0x3dcab773	0.098982714
58	0x3eb546b9	0.3540552
59	0x3d162d14	0.036664084
60	0x3daef1a9	0.08542187
61	0xbe7b6a36	-0.24552235
62	0x3e1d4480	0.15358162
63	0x3e1953f9	0.1497344
64	0xbf000be8	-0.5001817
65	0xbf38aec7	-0.7214169
66	0xba92c92f	-0.0011198873
67	0x3f1f7420	0.6228657
68	0xbeea457c	-0.45756137
69	0xbe15427e	-0.14576146
70	0x3ec60632	0.38676602
71	0x3f0ef2b6	0.558391
72	0xbe82ce59	-0.25548056
73	0x3cfe3c5b	0.03103464
74	0xbe96ed16	-0.29477757
75	0xbf52aedb	-0.8229806
76	0x3cdae34b	0.02671971
77	0x3e08da33	0.13364486
78	0xbd84fa1d	-0.06493018
79	0xbf16d44c	-0.5891769
80	0xbe5170a0	-0.2045312
81	0xbe843b9f	-0.25826737
82	0x3e23770d	0.15963383
83	0x3e58b73c	0.21163648
84	0xbf7d318d	-0.98903733
85	0x3eb77f96	0.35839528
86	0x3eb130b3	0.34607467
87	0xbdf20c59	-0.118187614
88	0xbd9509dc	-0.07277271
89	0xbcce6127	-0.02519281
90	0xbda4d16b	-0.08047756
91	0xbbf52651	-0.0074813743
92	0x3d21f8b7	0.039543834
93	0x3d9d1e89	0.0767184
94	0xbe8c32b9	-0.27382448
95	0x3ddf3525	0.108988084
96	0x3dcc4056	0.099732086
97	0xbf1245a0	-0.5713749
98	0xbd69b0a1	-0.057053212
99	0x3ed93a73	0.42427406
100	0xbd80e77f	-0.062941544
101	0x3ea10c2c	0.314546
102	0xbc4a4a7c	-0.01234686
103	0xbd2c3a5e	-0.04204785
104	0x3e0ebf73	0.1394022
105	0xbe29b90a	-0.16574493
106	0x3c15412c	0.0091097765
107	0xbf049bd8	-0.518003
108	0x3d8d0fbd	0.068877675
109	0x3e95a0fa	0.29224378
110	0xbd08b353	-0.033374142
111	0x3dd5e3d6	0.10443847
112	0x3f0a9e4a	0.5414778
113	0x3dea6a44	0.1144605
114	0xbec610ed	-0.38684788
115	0xbe964a65	-0.29353634
116	0xbecc8cf2	-0.39951283
117	0xbd86f4c3	-0.06589653
118	0x3e4c133e	0.19929215
119	0x3b8423b6	0.0040325774
120	0x3d27aee0	0.04093826
121	0x3c8fbfa4	0.017547436
122	0xbf5e8831	-0.8692656
123	0xbe81c8ba	-0.25348455
124	0x3ea3751a	0.3192528
125	0xbf1433ef	-0.57891744
126	0x3e354841	0.17703344
127	0xbe00f17c	-0.12592119

bias f4 [4]
0	0xbcaf0b4b	-0.02136769
1	0x3e80348f	0.250401
2	0x3eb91d3c	0.36155117
3	0x3c94d038	0.018165693
