[NewFlyModels]/min_func_ScaleMetric_Fly_4.pt (torch_old, 54341 bytes, 136 tensors)

weight f4 [2, 2]
-0.38594532 -0.07642727 -1.4269872 0.34090632
00000000: a09a c5be e785 9cbd 84a7 b6bf 468b ae3e

bias f4 [2]
-0.98604965 -0.39383954
00000000: c06d 7cbf 56a5 c9be

weight f4 [2, 2]
5.4710997e-36 -4.49109e-36 -0.78502965 0.90192026
00000000: 00b7 e804 a407 bf84 b4f7 48bf 3fe4 663f

weight f4 [1, 2]
-0.45765626 0.22743642
00000000: ec51 eabe 18e5 683e

weight f4 [2, 2]
-0.53774256 -0.89447 -0.13280103 1.0140635
00000000: 7fa9 09bf fcfb 64bf fefc 07be d5cc 813f

bias f4 [2]
-0.32531065 0.748944
00000000: 1e8f a6be cbba 3f3f

weight f4 [2, 2]
0.06945316 0.20913641 -0.117784485 0.45568588
00000000: 753d 8e3d db27 563e fe38 f1bd a94f e93e

weight f4 [1, 2]
-0.51842636 -0.13227874
00000000: 97b7 04bf 1474 07be

weight f4 [2, 2]
0.016029013 -0.14223552 0.19140282 -3.0519004
00000000: 474f 833c 30a6 11be 1aff 433e 5652 43c0

bias f4 [2]
-0.08638111 -1.5082899
00000000: 94e8 b0bd a50f c1bf

weight f4 [2, 2]
-0.16622418 -0.76093256 -0.5714145 -0.7601565
00000000: ac36 2abe 7acc 42bf 3848 12bf 9e99 42bf

weight f4 [1, 2]
0.33982462 0.43529874
00000000: 7efd ad3e 7adf de3e

weight f4 [2, 2]
-0.063043 1.1460438 1.0165848 1.4493426
00000000: b01c 81bd 90b1 923f 731f 823f 0f84 b93f

bias f4 [2]
0.8739073 -1.0288621
00000000: 64b8 5f3f c1b1 83bf

weight f4 [2, 2]
-0.7840202 0.5657624 -0.5043202 -2.0393643
00000000: 8cb5 48bf ced5 103f 211b 01bf f284 02c0

weight f4 [1, 2]
0.0696764 -0.43415678
00000000: 80b2 8e3d cc49 debe

weight f4 [2, 2]
0.8137763 1.0173202 1.0966364 -0.38421652
00000000: a553 503f 8c37 823f 955e 8c3f 07b8 c4be

bias f4 [2]
0.52755857 0.4898481
00000000: 140e 073f 5fcd fa3e

weight f4 [2, 2]
-2.782497e-05 3.2660555e-06 -0.11282125 -0.36909008
00000000: ab69 e9b7 682e 5b36 d40e e7bd 60f9 bcbe

weight f4 [1, 2]
-0.5519463 -0.23870161
00000000: 5a4c 0dbf 326e 74be

weight f4 [2, 2]
0.10141684 -0.61309177 -8.877267e-05 -1.8660201e-05
00000000: a2b3 cf3d 95f3 1cbf 772b bab8 7a88 9cb7

bias f4 [2]
-0.25889587 -0.11893921
00000000: 008e 84be 6796 f3bd

weight f4 [2, 2]
2.7696626e-07 0.40582854 -2.686013e-07 -0.62174726
00000000: f4b1 9434 c2c8 cf3e 4834 90b4 d42a 1fbf

weight f4 [1, 2]
0.12829518 0.17591918
00000000: d05f 033e 2824 343e

weight f4 [2, 2]
0.9982848 1.1163387 -0.64167064 -0.5850646
00000000: 988f 7f3f 30e4 8e3f 8744 24bf cbc6 15bf

bias f4 [2]
-0.11056133 -0.43280098
00000000: fb6d e2bd 1798 ddbe

weight f4 [2, 2]
0.9302432 -0.3895579 -0.85659474 0.5473902
00000000: 6b24 6e3f 2274 c7be cb49 5bbf c421 0c3f

weight f4 [1, 2]
0.381059 0.53552586
00000000: 2a1a c33e 3918 093f

weight f4 [2, 2]
1.277616 -1.1637833 -0.080797255 0.077208325
00000000: ec88 a33f daf6 94bf 0879 a5bd 661f 9e3d

bias f4 [2]
-1.0856735 0.93393207
00000000: 59f7 8abf 2c16 6f3f

weight f4 [2, 2]
-0.98997074 -0.649909 -0.05721554 0.9418681
00000000: b96e 7dbf 7060 26bf d85a 6abd 451e 713f

weight f4 [1, 2]
0.37567562 -0.6010618
00000000: 8e58 c03e 30df 19bf

weight f4 [2, 2]
0.4379855 -1.4548186 -1.1179184 0.83206785
00000000: a33f e03e 7f37 babf f317 8fbf 6602 553f

bias f4 [2]
0.57149047 0.53736407
00000000: 334d 123f b190 093f

weight f4 [2, 2]
-1.1049614 1.4480685 0.28320512 -1.169079
00000000: 606f 8dbf 4f5a b93f 4300 913e 61a4 95bf

weight f4 [1, 2]
0.5813113 -0.05095017
00000000: d1d0 143f 20b1 50bd

weight f4 [2, 2]
-0.6041849 0.79112756 0.32728806 1.0615577
00000000: ddab 1abf 5687 4a3f 4d92 a73e 1fe1 873f

bias f4 [2]
-0.4257507 0.6107713
00000000: fffb d9be 825b 1c3f

weight f4 [2, 2]
-0.97051495 -1.0561714 1.0078495 0.7532801
00000000: ab73 78bf a030 87bf 3601 813f f7d6 403f

weight f4 [1, 2]
0.328551 0.6356972
00000000: d637 a83e 0dbd 223f

weight f4 [2, 2]
0.07122563 0.07894023 0.37560648 -0.2423048
00000000: bede 913d 6aab a13d 7e4f c03e c01e 78be

bias f4 [2]
-0.44040665 0.1972391
00000000: fb7c e1be 0cf9 493e

weight f4 [2, 2]
1.1308206 1.108741 -0.13132694 0.22265962
00000000: bbbe 903f 3aeb 8d3f 927a 06be e200 643e

weight f4 [1, 2]
0.023079097 -0.39681107
00000000: 6010 bd3c d22a cbbe

weight f4 [2, 2]
-0.43292996 1.3949776 -0.7158164 0.97551465
00000000: ffa8 ddbe a08e b23f be3f 37bf 54bb 793f

bias f4 [2]
0.28793222 0.6303932
00000000: da6b 933e 7361 213f

weight f4 [2, 2]
-1.2595228 0.2598092 -0.09991912 0.32977337
00000000: 0b38 a1bf b605 853e 65a2 ccbd 0ed8 a83e

weight f4 [1, 2]
-0.5766168 -0.39089322
00000000: 299d 13bf 2823 c8be

weight f4 [2, 2]
-0.009899975 0.006502903 -0.11405248 0.050820988
00000000: 8133 22bc 4e16 d53b 5994 e9bd ab29 503d

bias f4 [2]
-0.2524179 0.5429567
00000000: eb3c 81be 36ff 0a3f

weight f4 [2, 2]
-0.030111646 0.010962104 0.18777546 0.28616104
00000000: b3ac f6bc 669a 333c 3648 403e b383 923e

weight f4 [1, 2]
-0.030769646 -0.049723744
00000000: a010 fcbc 20ab 4bbd

weight f4 [2, 2]
0.009220787 0.01344363 0.0062933373 0.0012974119
00000000: c912 173c ac42 5c3c 5738 ce3b eb0d aa3a

bias f4 [2]
-0.017961876 -0.64501417
00000000: c924 93bc a61f 25bf

weight f4 [2, 2]
0.29746777 -0.27483368 0.34641612 0.574544
00000000: b24d 983e 00b7 8cbe 745d b13e 5115 133f

weight f4 [1, 2]
-0.42786595 -0.25933427
00000000: 3f11 dbbe 76c7 84be

weight f4 [2, 2]
0.0943731 0.16681013 0.0018205639 -0.0102165425
00000000: af46 c13d 46d0 2a3e fd9f ee3a 4963 27bc

bias f4 [2]
0.1882626 0.14769123
00000000: e9c7 403e 5f3c 173e

weight f4 [2, 2]
0.085831285 0.20764546 0.31340396 -0.79399574
00000000: 50c8 af3d 03a1 543e 7c76 a03e 4e43 4bbf

weight f4 [1, 2]
-0.6064332 0.19702339
00000000: 353f 1bbf 80c0 493e

weight f4 [2, 2]
0.12563942 -0.47059152 -0.7024316 -0.07035338
00000000: 9fa7 003e 5ff1 f0be 8fd2 33bf 6f15 90bd

bias f4 [2]
0.15073542 -0.34911668
00000000: 635a 1a3e 6cbf b2be

weight f4 [2, 2]
0.44005087 0.22120477 0.3823115 0.43641508
00000000: 594e e13e 8183 623e 55be c33e cc71 df3e

weight f4 [1, 2]
-0.49214756 0.3108284
00000000: c4fa fbbe e624 9f3e

weight f4 [2, 2]
-0.16660939 -0.07088364 0.5610626 -0.8030799
00000000: a79b 2abe 712b 91bd cca1 0f3f a596 4dbf

bias f4 [2]
0.2741602 -0.24689409
00000000: ba5e 8c3e ced1 7cbe

weight f4 [2, 2]
-0.81754875 -0.5631444 0.1224771 0.3684436
00000000: e04a 51bf 3b2a 10bf 46d5 fa3d a4a4 bc3e

weight f4 [1, 2]
0.096554875 0.43906003
00000000: 90be c53d 7acc e03e

weight f4 [2, 2]
-0.040242612 0.84123343 0.04583593 -0.109546244
00000000: 70d5 24bd 135b 573f 75be 3b3d c859 e0bd

bias f4 [2]
-0.11587741 0.86630374
00000000: 2351 edbd 15c6 5d3f

weight f4 [2, 2]
0.8725973 -0.3581576 0.007761273 0.6682578
00000000: 8962 5f3f 6f60 b7be 4752 fe3b f112 2b3f

weight f4 [1, 2]
-0.50581723 -0.70123655
00000000: 3d7d 01bf 3d84 33bf

weight f4 [2, 2]
-0.7926549 0.2957267 -1.2751156 1.1211997
00000000: 6eeb 4abf 7d69 973e fd36 a3bf 7983 8f3f

bias f4 [2]
0.7361731 -0.518635
00000000: d775 3c3f 43c5 04bf

weight f4 [2, 2]
0.5972946 -1.0215913 0.7250582 0.028453356
00000000: 4de8 183f 81c3 82bf 6a9d 393f 0317 e93c

weight f4 [1, 2]
0.41487485 -0.02877289
00000000: 7a6a d43e 20b5 ebbc

weight f4 [2, 2]
0.55328304 -0.4501431 0.2790105 -0.86800534
00000000: f5a3 0d3f 2879 e6be 77da 8e3e 9935 5ebf

bias f4 [2]
-0.6588077 -0.7235436
00000000: 9fa7 28bf 273a 39bf

weight f4 [2, 2]
0.34895635 0.3127023 0.26724982 0.21396762
00000000: 68aa b23e 841a a03e f8d4 883e 541a 5b3e

weight f4 [1, 2]
0.19986093 0.012397587
00000000: 58a8 4c3e 401f 4b3c

weight f4 [2, 2]
-0.4990843 -0.90815115 -0.32376117 -0.566616
00000000: fa87 ffbe 987c 68bf 06c4 a5be bf0d 11bf

bias f4 [2]
-0.2359139 0.26109347
00000000: 6a93 71be 0bae 853e

weight f4 [2, 2]
0.82508415 0.021857403 -0.18357344 0.058816317
00000000: b738 533f 4c0e b33c adfa 3bbe 61e9 703d

weight f4 [1, 2]
-0.68438387 -0.12860817
00000000: c833 2fbf dcb1 03be

weight f4 [2, 2]
-0.038181495 0.02041105 -1.0959156 -0.84008074
00000000: 3364 1cbd 1335 a73c f646 8cbf 880f 57bf

bias f4 [2]
0.038463023 -0.09484078
00000000: 678b 1d3d e23b c2bd

weight f4 [2, 2]
0.8712241 -1.1919369 -1.1783799 -0.40547237
00000000: 8b08 5f3f 6391 98bf 27d5 96bf 139a cfbe

weight f4 [1, 2]
-0.60151416 0.20118934
00000000: d5fc 19bf 9404 4e3e

weight f4 [2, 2]
1.4352665 -0.9421428 -0.051335275 -0.021934683
00000000: d0b6 b73f 4530 71bf f044 52bd 5db0 b3bc

bias f4 [2]
-0.048052 -0.8780646
00000000: 2dd2 44bd d7c8 60bf

weight f4 [2, 2]
0.47449282 0.94197863 0.58659655 0.73320186
00000000: b9f0 f23e 8325 713f 312b 163f 1eb3 3b3f

weight f4 [1, 2]
-0.25204793 -0.051244915
00000000: 6d0c 81be 30e6 51bd

weight f4 [2, 2]
-0.027659403 -0.017063987 -0.1202676 0.44755384
00000000: f995 e2bc c6c9 8bbc dc4e f6bd c725 e53e

bias f4 [2]
-0.05973582 0.13646616
00000000: 8cad 74bd c9bd 0b3e

weight f4 [2, 2]
0.3404665 0.04159323 0.40421653 0.10079806
00000000: a051 ae3e aa5d 2a3d 78f5 ce3e 376f ce3d

weight f4 [1, 2]
-0.42553017 -0.2599412
00000000: 17df d9be 0317 85be

weight f4 [2, 2]
-2.8007143 -0.8729139 -0.0061850175 -1.8390571
00000000: e73e 33c0 4977 5fbf b0ab cabb 3966 ebbf

bias f4 [2]
-0.6894159 1.6313245
00000000: 8f7d 30bf 3ecf d03f

weight f4 [2, 2]
-1.7067517 -0.46776086 -0.14794713 0.017911557
00000000: d776 dabf 5a7e efbe 747f 17be 42bb 923c

weight f4 [1, 2]
0.6676206 -0.29945284
00000000: 2fe9 2a3f e251 99be

weight f4 [2, 2]
-1.3973501 0.87843484 -0.82691824 -0.47207177
00000000: 5edc b2bf 1be1 603f eab0 53bf 64b3 f1be

bias f4 [2]
0.57474464 -0.3884816
00000000: 7722 133f 0fe7 c6be

weight f4 [2, 2]
1.1737541 0.49045375 -0.4850796 0.9062478
00000000: 933d 963f c11c fb3e 5a5c f8be dbff 673f

weight f4 [1, 2]
-0.35346344 0.6765966
00000000: 29f9 b4be 6f35 2d3f

weight f4 [2, 2]
1.6286321 -0.6278463 0.3749871 -0.3215601
00000000: 0477 d03f 89ba 20bf 4ffe bf3e 87a3 a4be

bias f4 [2]
0.7423277 0.6094895
00000000: 3009 3e3f 8107 1c3f

weight f4 [2, 2]
0.06594625 0.18309179 -1.116118 0.7690155
00000000: d40e 873d 6a7c 3b3e f4dc 8ebf 33de 443f

weight f4 [1, 2]
-0.22605065 0.17665201
00000000: d279 67be 44e4 343e

weight f4 [2, 2]
0.12922381 0.09069758 0.13446191 0.313892
00000000: 3f53 043e a7bf b93d 62b0 093e 74b6 a03e

bias f4 [2]
-0.05194925 -0.41473192
00000000: bdc8 54bd be57 d4be

weight f4 [2, 2]
0.09281807 0.008609117 0.001191786 -0.00010573539
00000000: 6617 be3d 410d 0d3c b435 9c3a 41be ddb8

weight f4 [1, 2]
-0.1971026 -0.32248744
00000000: 44d5 49be 131d a5be

weight f4 [2, 2]
-2.0850143 0.7750024 -0.011577149 -0.010715419
00000000: e070 05c0 8f66 463f 15ae 3dbc ba8f 2fbc

bias f4 [2]
1.4600891 0.11294352
00000000: 33e4 ba3f ef4e e73d

weight f4 [2, 2]
0.00010968275 0.4121686 -0.9782179 0.05099011
00000000: 7a05 e638 c307 d33e 7d6c 7abf 01db 503d

weight f4 [1, 2]
-0.1856429 0.09148353
00000000: 2c19 3ebe b85b bb3d

weight f4 [2, 2]
-0.8730706 0.73960096 -0.03556085 -0.3993661
00000000: 8e81 5fbf 7d56 3d3f 41a8 11bd b779 ccbe

bias f4 [2]
0.38433102 -0.4729405
00000000: 09c7 c43e 4225 f2be

weight f4 [2, 2]
0.23501833 0.11178244 0.32077244 -0.6864535
00000000: a5a8 703e 31ee e43d 493c a43e 6bbb 2fbf

weight f4 [1, 2]
-0.20666951 0.5402213
00000000: 2ca1 53be f14b 0a3f

weight f4 [2, 2]
0.4809563 -0.9517975 -0.24163398 0.6702543
00000000: e73f f63e 00a9 73bf e66e 77be c995 2b3f

bias f4 [2]
-0.5331326 1.1957362
00000000: 617b 08bf e20d 993f

weight f4 [2, 2]
0.43307394 -0.8074151 0.45927227 -0.16403343
00000000: debb dd3e c2b2 4ebf bc25 eb3e 61f8 27be

weight f4 [1, 2]
0.3295514 0.16368443
00000000: f6ba a83e e49c 273e

weight f4 [2, 2]
0.0060940864 -0.39377293 0.5252613 0.0554476
00000000: e7b0 c73b 9b9c c9be 8677 063f 061d 633d

bias f4 [2]
-0.47162244 -0.24931976
00000000: 7f78 f1be ae4d 7fbe

weight f4 [2, 2]
-0.9864359 0.62104195 -3.5616395e-05 -0.0002789649
00000000: 1087 7cbf 9bfc 1e3f d062 15b8 0942 92b9

weight f4 [1, 2]
0.05588442 -0.6331019
00000000: 10e7 643d f712 22bf

weight f4 [32, 2]
0.23293419 2.2645142 -1.9019574 -0.6770909 -0.7973836 -0.9090145 -0.20459749 -0.500907
-1.3741643 0.67291874 1.2436432 -1.2354379 -0.8897581 -0.115773864 1.6864098 0.79809034
-0.4298068 0.46265906 1.3355582 0.6212991 -2.7399864 1.0877459 -1.7384708 0.7503586
-1.459634 1.3800112 0.21916041 -1.8134818 -0.28025863 -0.6183542 0.73748803 0.42368367
-0.19787186 3.6045787 1.0057144 1.7312703 1.3777512 -1.3715192 0.98236537 2.0405965
-0.035564363 1.3247961 0.085416235 1.4154541 2.1806793 0.42522046 -0.5039062 -0.30318063
0.08980908 -0.9488891 0.22318318 -2.625492 0.8306468 -1.2379495 -1.7432684 -0.7530299
1.2790194 0.2091684 1.143009 -0.25350586 1.2639332 0.18855053 1.4053783 0.80842376
00000000: 4d86 6e3e cded 1040 5773 f3bf d455 2dbf
00000010: 5521 4cbf 2db5 68bf 0182 51be 713b 00bf
00000020: 9ee4 afbf 6744 2c3f b32f 9f3f d422 9ebf
00000030: 30c7 63bf d91a edbd 47dc d73f a64f 4c3f
00000040: a30f dcbe a6e1 ec3e 92f3 aa3f 750d 1f3f
00000050: f05b 2fc0 423b 8b3f 3686 debf 8017 403f
00000060: 49d5 babf 35a4 b03f 966b 603e 2c20 e8bf
00000070: 0f7e 8fbe 764c 1ebf 04cc 3c3f 11ed d83e
00000080: ec9e 4abe 6bb1 6640 40bb 803f 449a dd3f
00000090: 275a b03f f18d afbf 4c7c 7b3f 2299 0240
000000a0: f0ab 11bd eb92 a93f b5ee ae3d 9a2d b53f
000000b0: 4090 0b40 7fb6 d93e ffff 00bf 7e3a 9bbe
000000c0: d3ed b73d 65ea 72bf 228a 643e 1008 28c0
000000d0: 45a5 543f 2175 9ebf 6b23 dfbf 91c6 40bf
000000e0: e8b6 a33f 3e30 563e 1e4e 923f 85cb 81be
000000f0: 90c8 a13f 6413 413e 70e3 b33f dcf4 4e3f

bias f4 [32]
-0.35327712 -0.454943 0.6076588 -0.4064731 0.11117561 -0.17234251 0.58432287 0.5409075
0.59089136 0.15451415 -0.9178221 -0.61231595 0.115747534 -0.2211295 0.3608271 0.5118765
0.15640159 -0.70591444 -0.12481193 -0.37217438 0.41459888 0.34599087 0.20525734 -0.49818918
0.66660875 0.05246407 -0.6175126 -0.48182294 0.13319357 -0.49457082 -0.46225682 -0.11206762
00000000: bde0 b4be 4aee e8be 878f 1b3f 3e1d d0be
00000010: 0ab0 e33d 8e7a 30be 2f96 153f ea78 0a3f
00000020: a844 173f f538 1e3e 64f6 6abf bdc0 1cbf
00000030: 0b0d ed3d c66f 62be 54be b83e 570a 033f
00000040: bd27 203e cfb6 34bf 669d ffbd a48d bebe
00000050: 4e46 d43e b725 b13e fb2e 523e a712 ffbe
00000060: dfa6 2a3f 91e4 563d 4e15 1ebf 7fb1 f6be
00000070: e563 083e 6338 fdbe edac ecbe b583 e5bd

weight f4 [32, 32]
-0.4253242 0.059672352 0.115280434 -0.35649335 -0.8032064 0.6448921 -0.26940468 0.40102917
0.063069336 -0.22551478 -0.29229054 -0.29197553 -0.778399 1.0173963 0.43459925 0.41067845
-0.92720306 -0.0061838063 1.2421716 0.022238525 -0.46593803 -0.6956117 0.46921742 -0.32966527
0.60209376 0.55790263 0.28736466 0.16010334 0.021097649 0.07562124 0.20831245 0.35316423
0.326839 -0.71241784 -0.41008392 -0.32412228 -1.6063952 1.1550156 -0.37081975 1.0368857
-0.041774068 0.9068721 -0.4931267 -0.436252 -1.2826235 0.5028683 -0.039356768 0.59377044
0.090194926 0.26345628 1.2727315 0.9250538 -0.029458607 -0.11383106 1.2160578 -0.36770028
0.24949802 0.13372543 0.059025213 -0.742511 1.089423 0.35169917 0.48832923 1.2410054
-0.8947734 -0.26179194 0.32862273 0.044918958 -1.0358249 0.1465547 0.28425848 -0.44450483
-0.071009055 -0.36399078 -0.4438168 -0.3917938 -1.4116689 0.10865322 0.30976176 0.103557155
-1.2042513 -0.23603122 -0.025747651 -0.9208743 -0.807039 -0.54767704 -0.10888331 -0.170927
0.5600872 0.4857429 -0.015448241 -0.19630948 0.3243498 -0.06039037 -0.12516099 -0.35557133
-1.0982059 0.6466586 0.30229548 0.26328433 1.1020371 -1.188071 0.29418167 -1.2397032
0.15791197 -1.4867921 1.0380515 1.1320366 0.8313946 -0.7755483 0.10921685 -0.46736947
-0.6727141 -0.99397016 -1.3663478 -1.7286178 -0.16258292 -0.030538987 -2.1493654 0.43708783
-0.35667455 -0.8260225 -0.50822794 0.7164198 -1.512736 -0.44400105 -0.66974103 -2.1455324
-0.19665594 -0.047845207 0.09587283 -0.08655158 0.44871792 -0.40747717 0.16389653 -0.31663302
0.101086296 -0.37507918 0.11727617 -0.036322065 0.3182357 -0.19257747 -0.16480434 -0.16736571
-0.07041511 -0.2180465 -0.43372992 -0.3506794 0.022574939 0.17662907 -0.2179637 -0.08383893
0.07140545 -0.059475828 -0.25285885 0.03156713 -0.21462399 -0.24975462 -0.34658572 -1.003872
0.028507525 0.29805407 0.067285724 0.121806316 -0.2797775 0.48238248 -0.14176586 -0.3360303
-0.38489792 -0.2022998 -0.047503408 0.05984431 -0.47288296 0.5212065 -0.08706821 -0.30457664
-0.07614385 0.16202426 0.4019467 0.040354375 -0.92312944 -0.94379497 0.020636415 0.35262418
-0.017423771 0.23171413 2.2309742 0.31000248 -0.000100121215 0.5576638 0.38512397 0.0011734086
-0.092247665 0.43092328 -0.3415522 0.4801628 -0.37347364 0.81553376 -0.61457986 -0.28056854
-0.62462956 -0.11887025 0.117797755 -0.03968992 -0.42976198 0.99673617 -0.18805927 -0.07376189
-0.25668225 0.45626524 0.7391036 0.060970135 -1.918459 -1.555359 0.11924474 0.29391095
0.08405264 0.21063942 3.1909637 0.5667419 0.20594208 1.689287 1.0961679 0.7819102
-0.17604122 1.2001264 0.4198814 0.36770278 1.2597351 -0.461547 0.35550722 -1.5901672
-0.061570875 -2.1564 0.21428835 0.24016081 0.9115888 0.53509533 0.32284838 -0.4433669
0.2825569 -0.22178224 -0.45116872 -0.698797 -0.6773477 -1.1812861 -1.8987516 0.13472646
0.28229478 -0.23766828 0.102449596 1.3251687 -1.5861975 -0.41758358 -0.46159494 -1.0200408
00000000: 18c4 d9be ff6a 743d 2618 ec3d 4c86 b6be
00000010: ef9e 4dbf a617 253f 69ef 89be b253 cd3e
00000020: 7f2a 813d 59ed 66be 1ba7 95be d17d 95be
00000030: 2845 47bf 0b3a 823f cb83 de3e 7244 d23e
00000040: 2e5d 6dbf 87a1 cabb 7bff 9e3f 912d b63c
00000050: 6e8f eebe 9c13 32bf 443d f03e e3c9 a8be
00000060: d122 1a3f b5d2 0e3f 7621 933e 21f2 233e
00000070: fad4 ac3c 4fdf 9a3d dc4f 553e f1d1 b43e
00000080: 7157 a73e 0461 36bf 85f6 d1be 5bf3 a5be
00000090: 5c9e cdbf 8dd7 933f 16dc bdbe acb8 843f
000000a0: 491b 2bbd c528 683f 1a7b fcbe 6c5c dfbe
000000b0: 022d a4bf fabb 003f 9034 21bd 5701 183f
000000c0: 1eb8 b83d bee3 863e dee8 a23f 53d0 6c3f
000000d0: 2d53 f1bc 4220 e9bd c8a7 9b3f 3643 bcbe
000000e0: 697c 7f3e 52ef 083e 6cc4 713d 3315 3ebf
000000f0: 3672 8b3f ea11 b43e 4a06 fa3e 44d9 9e3f
00000100: df0f 65bf 9809 86be 3d41 a83e f1fc 373d
00000110: e995 84bf 6f12 163e 548a 913e 2396 e3be
00000120: 326d 91bd 005d babe f53b e3be 3299 c8be
00000130: 91b1 b4bf 9485 de3d 1899 9e3e c615 d43d
00000140: e824 9abf 2bb2 71be bdec d2bc 6bbe 6bbf
00000150: 1c9a 4ebf 9034 0cbf 36fe debd 7d07 2fbe
00000160: e061 0f3f 4bb3 f83e 9e1a 7dbc 5a05 49be
00000170: 2d11 a63e e55b 77bd 342a 00be 720d b6be
00000180: 0392 8cbf 6b8b 253f 79c6 9a3e 34cd 863e
00000190: 8d0f 8d3f b612 98bf fb9e 963e 98ae 9ebf
000001a0: adb3 213e 344f bebf dfde 843f 93e6 903f
000001b0: 47d6 543f 558a 46bf 15ad df3d 0d4b efbe
000001c0: fe36 2cbf d474 7ebf 7ce4 aebf 5943 ddbf
000001d0: 237c 26be e62c fabc 348f 09c0 fac9 df3e
000001e0: 0c9e b6be 3676 53bf 3a1b 02bf 4a67 373f
000001f0: 55a1 c1bf 1b54 e3be 2674 2bbf 6750 09c0
00000200: 2d60 49be 56f9 43bd f958 c43d f441 b1bd
00000210: 5bbe e53e d9a0 d0be 7ed4 273e b91d a2be
00000220: 5506 cf3d 610a c0be 7d2e f03d 72c6 14bd
00000230: caef a23e 0733 45be 78c2 28be eb61 2bbe
00000240: cc35 90bd 9547 5fbe d911 debe 408c b3be
00000250: 14ef b83c 40de 343e e031 5fbe bfb3 abbd
00000260: 053d 923d ed9c 73bd b776 81be 894c 013d
00000270: 64c6 5bbe adbf 7fbe af73 b1be e17e 80bf
00000280: 9d88 e93c 8b9a 983e 19cd 893d 9775 f93d
00000290: ff3e 8fbe d6fa f63e 122b 11be 2a0c acbe
000002a0: 5711 c5be ae27 4fbe ef92 42bd 4f1f 753d
000002b0: b71d f2be ca6d 053f d150 b2bd 78f1 9bbe
000002c0: 4ff1 9bbd b0e9 253e f5cb cd3e a14a 253d
000002d0: 3652 6cbf 8c9c 71bf b30d a93c 288b b43e
000002e0: 4cbc 8ebc 7846 6d3e 48c8 0e40 a5b8 9e3e
000002f0: 2bf8 d1b8 0ec3 0e3f f82e c53e 0fcd 993a
00000300: 58ec bcbd faa1 dc3e eedf aebe e6d7 f53e
00000310: f037 bfbe d2c6 503f 1b55 1dbf aea6 8fbe
00000320: b9e7 1fbf 3f72 f3bd f33f f13d e691 22bd
00000330: c309 dcbe 1a2a 7f3f 9c92 40be 7910 97bd
00000340: db6b 83be 999b e93e e535 3d3f d2bb 793d
00000350: 1190 f5bf 0116 c7bf 9636 f43d 7f7b 963e
00000360: ca23 ac3d dcb1 573e c038 4c40 ff15 113f
00000370: 7be2 523e 8e3a d83f 3b4f 8c3f 442b 483f
00000380: 2644 34be be9d 993f b2fa d63e 8a43 bc3e
00000390: 003f a13f e34f ecbe 0b05 b63e 998a cbbf
000003a0: be31 7cbd 7502 0ac0 686e 5b3e b7ec 753e
000003b0: e25d 693f 02fc 083f 624c a53e fc00 e3be
000003c0: 4cab 903e e21a 63be 96ff e6be 5ce4 32bf
000003d0: a966 2dbf 6234 97bf 4b0a f3bf bcf5 093e
000003e0: f188 903e 505f 73be 18d1 d13d 219f a93f
000003f0: 8508 cbbf 84cd d5be 2c56 ecbe b290 82bf

bias f4 [32]
0.24655445 0.13453667 0.072874665 0.025498942 0.16476962 -0.2773149 -0.35762468 0.007050531
-0.16870205 -0.073893644 -0.04229236 0.26289284 -0.11846013 0.1632333 -0.20251922 0.3172264
-0.44964495 0.0726356 -0.04676826 -0.1704123 -0.50641805 0.42604664 0.21821658 -0.5988362
0.20731038 -0.4734305 0.19681028 0.2685172 0.09287234 0.3450548 -0.25133732 0.0648148
00000000: c578 7c3e fbc3 093e 503f 953d 28e3 d03c
00000010: 5eb9 283e 38fc 8dbe 951a b7be 2408 e73b
00000020: 3bc0 2cbe 8d55 97bd c13a 2dbd e499 863e
00000030: 3a9b f2bd a126 273e 3361 4fbe 806b a23e
00000040: dd37 e6be f9c1 943d 1390 3fbd 9080 2ebe
00000050: 9da4 01bf c922 da3e 2b74 5f3e 544d 19bf
00000060: 2c49 543e 7c65 f2be a288 493e 167b 893e
00000070: da33 be3d 06ab b03e 49af 80be 9fbd 843d

weight f4 [32, 32]
0.13732442 0.02971793 0.15286368 0.18586536 -0.304005 0.15023515 0.657527 -0.09615419
-0.32801968 -0.0019895555 -0.24495375 -0.30699253 0.014332301 -0.24426833 -0.041590292 -0.07084235
-0.5343537 0.086620614 -0.17109643 -0.050008647 -0.123561576 -0.24554715 -0.20716123 0.36199382
-0.33389592 0.24446146 -0.3706537 -0.10206595 -0.17074859 -0.15834455 -0.63631946 -0.25963655
-0.4119386 -0.12004131 -0.6663359 0.54540825 0.11932026 0.24554709 0.3524378 0.30654037
0.29896185 -0.19404754 -0.43231758 -0.18104088 0.36066636 -0.14873844 0.15135239 -0.26478225
-3.464021 -0.5144529 -0.117522165 -0.008333866 0.47951597 -0.3275235 -0.30218023 0.94517356
-0.13518313 0.45834416 -0.082064785 -0.3807111 -0.36053997 -0.26475132 -0.45439366 -0.15050295
-0.013524347 -0.32429907 -0.37511563 0.07983876 0.036514986 -0.36338624 -0.33354837 -0.15849225
-0.15998544 0.1546404 -0.041776747 0.25285894 -0.5448113 0.013831361 -0.3007276 0.25333574
0.14688353 0.20506716 -0.10060561 0.13035673 -0.2344099 0.21501037 0.2579689 -0.15172198
0.18031262 -0.14383237 0.13329703 0.053143617 0.04934001 0.27048457 -0.11835701 0.24673215
0.3383724 0.43343857 0.092684224 -0.90250903 -0.8703336 -0.058480702 -0.382778 0.24908291
0.3041673 -0.032570098 -0.00071815413 -0.36740667 -0.44714475 -0.06164809 0.14613679 -0.2231989
0.33236524 0.15628988 0.20571323 -0.21003273 -0.36400083 0.052597363 -0.32146245 -0.027783297
-0.24540645 -0.11575564 -0.17134944 -0.11501192 -0.1608168 -0.3548684 0.39526397 -0.15325257
-1.1928004 -1.03711 0.24240033 0.50015825 0.25580946 0.2692841 0.43729666 -0.20661345
-0.2674242 -0.05715079 -0.17920814 0.16482762 0.1861413 0.042162172 0.020190736 0.23336563
-0.95854783 0.048723966 -0.26125616 0.04535094 -0.026547013 0.055626374 0.09953533 0.73265845
-0.014987406 -0.008151978 0.095654175 0.07597651 0.1409588 0.37043235 -1.1120181 0.041843347
-0.78738713 -0.79688025 0.7173912 0.62295526 -0.0059894053 0.2430627 0.7092702 -0.21537352
0.53066844 -0.12479609 0.13889371 -0.18113719 -0.10253486 -0.1215592 0.09038473 -0.15351382
0.080247045 0.26174065 0.23247 -0.054104045 0.24076214 0.13903308 0.050228126 -1.4944186
0.081429906 0.21879818 -0.29976895 -0.37513185 0.01904849 0.15450199 -0.3402731 0.08771398
-0.3615873 -0.08264962 0.30359298 0.0248467 -0.14326303 0.35148785 1.032105 -0.3877283
0.052348945 -0.051368695 -1.9705211 0.013319096 0.6041088 0.13777833 0.13489322 -0.24416015
0.032820858 0.066937685 -0.24549331 -0.080823414 1.775136 -0.067217365 -0.14325367 0.10329384
0.13692337 0.50523823 -0.4691326 -0.3176686 -0.14111984 -0.4638511 -0.74049205 -0.11879455
-0.82403654 -0.8050044 0.3633918 0.50745356 -0.2968708 0.7065938 1.0752974 0.38367498
3.441426 -0.16612576 0.25066015 -0.7205978 0.48113972 -1.2523264 0.97895175 -1.8625352
0.56441253 -0.39798874 0.38733894 -0.7853778 1.5685828 -0.25627512 -0.29136187 0.3193561
-0.45563877 1.0053176 -1.2454431 -1.7836671 -0.4693471 -0.2783867 0.32212415 -0.40190154
00000000: c69e 0c3e 0473 f33c 4c88 1c3e 7d53 3e3e
00000010: 8ba6 9bbe 3ed7 193e b153 283f 7dec c4bd
00000020: 32f2 a7be 3463 02bb 28d5 7abe 202e 9dbe
00000030: 07d2 6a3c 7a21 7abe 955a 2abd cb15 91bd
00000040: 67cb 08bf 2666 b13d e733 2fbe ded5 4cbd
00000050: da0d fdbd b670 7bbe 1322 54be 4157 b93e
00000060: 68f4 aabe 1b54 7a3e 52c6 bdbe f407 d1bd
00000070: b8d8 2ebe 1325 22be d5e5 22bf 15ef 84be
00000080: 9ee9 d2be 38d8 f5bd fd94 2abf e09f 0b3f
00000090: 2e5e f43d b270 7b3e ba72 b43e dcf2 9c3e
000000a0: 8711 993e 66b4 46be bb58 ddbe c862 39be
000000b0: 43a9 b83e e44e 18be 1ffc 1a3e 8a91 87be
000000c0: 85b2 5dc0 2fb3 03bf 76af f0bd c48a 08bc
000000d0: 1e83 f53e 29b1 a7be 5eb7 9abe e5f6 713f
000000e0: 726d 0abe 16ac ea3e 9511 a8bd 91ec c2be
000000f0: b298 b8be 7c8d 87be 49a6 e8be 721d 1abe
00000100: 3995 5dbc 870a a6be 280f c0be 8182 a33d
00000110: bd90 153d c30d babe dac6 aabe cb4b 22be
00000120: 39d3 23be 0e5a 1e3e 181e 2bbd ba76 813e
00000130: c178 0bbf ef9c 623c f8f8 99be 39b5 813e
00000140: a368 163e 20fd 513e 500a cebd 3c7c 053e
00000150: 2609 70be ae2b 5c3e 8014 843e 025d 1bbe
00000160: dfa3 383e cb48 13be 047f 083e 1fad 593d
00000170: c018 4a3d f47c 8a3e 2965 f2bd 5aa7 7c3e
00000180: 263f ad3e a9eb dd3e 3ad1 bd3d d50a 67bf
00000190: 2fce 5ebf 7689 6fbd 7afb c3be 970f 7f3e
000001a0: d1bb 9b3e 3968 05bd 8242 3cba ba1c bcbe
000001b0: 28f0 e4be b582 7cbd e2a4 153e 418e 64be
000001c0: c72b aa3e 740a 203e 7da6 523e d212 57be
000001d0: 515e babe 5570 573d ba96 a4be cc99 e3bc
000001e0: d44b 7bbe 4b11 edbd 3a76 2fbe 5f8b ebbd
000001f0: 29ad 24be 50b1 b5be 0a60 ca3e 3eee 1cbe
00000200: afad 98bf 05c0 84bf cb37 783e 5f0a 003f
00000210: 75f9 823e 9bdf 893e 59e5 df3e 7a92 53be
00000220: d3eb 88be f216 6abd 5782 37be 92c8 283e
00000230: d39b 3e3e 3eb2 2c3d 0b67 a53c 66f7 6e3e
00000240: 6463 75bf c892 473d 5ec3 85be e8c1 393d
00000250: 1f79 d9bc 7bd8 633d 2ed9 cb3d 818f 3b3f
00000260: bd8d 75bc e08f 05bc 56e6 c33d 9399 9b3d
00000270: 8157 103e 4fa9 bd3e 9c56 8ebf ee63 2b3d
00000280: 3492 49bf 5800 4cbf f3a6 373f ff79 1f3f
00000290: c642 c4bb 6ee5 783e bb92 353f e08a 5cbe
000002a0: e3d9 073f 1895 ffbd 273a 0e3e 077c 39be
000002b0: ccfd d1bd 08f4 f8bd a11b b93d ba32 1dbe
000002c0: 9058 a43d df02 863e 9e0c 6e3e 349c 5dbd
000002d0: 5a8a 763e b05e 0e3e 02bc 4d3d 1c49 bfbf
000002e0: b9c4 a63d a10c 603e 517b 99be 4811 c0be
000002f0: 940b 9c3c c535 1e3e 4738 aebe 63a3 b33d
00000300: f821 b9be 3444 a9bd 8a70 9b3e 4e8b cb3c
00000310: 8bb3 12be 37f6 b33e 041c 843f 5384 c6be
00000320: d96b 563d fb67 52bd 093a fcbf 5638 5a3c
00000330: e0a6 1a3f c315 0d3e 7321 0a3e 1e05 7abe
00000340: 2a6f 063d a016 893d 9962 7bbe bf86 a5bd
00000350: a837 e33f 42a9 89bd 17b1 12be b98b d33d
00000360: a435 0c3e 4b57 013f 2632 f0be 75a5 a2be
00000370: b881 10be e47d edbe e390 3dbf 8f4a f3bd
00000380: 0ff4 52bf c514 4ebf 7d0e ba3e 7ae8 013f
00000390: 73ff 97be 55e3 343f 58a3 893f 0c71 c43e
000003a0: 5340 5c40 df1c 2abe 8756 803e 1979 38bf
000003b0: f257 f63e 3b4c a0bf 959c 7a3f 8e67 eebf
000003c0: 577d 103f 2ec5 cbbe 4a51 c63e 850e 49bf
000003d0: 52c7 c83f 7e36 83be 622d 95be a582 a33e
000003e0: 7c49 e9be 3fae 803f ae6a 9fbf 344f e4bf
000003f0: 434e f0be b488 8ebe 75ed a43e 0ac6 cdbe

bias f4 [32]
-0.13056967 -0.41662306 0.22244668 -0.08743095 -0.11773826 -0.22915898 -0.13696328 -0.70308745
-0.12275333 -0.008846022 0.26315102 -0.31536028 0.07423473 0.15007398 -0.69611603 -0.15197548
0.23436835 -1.3344663 -0.3158753 0.11823777 0.14651275 0.24628483 -0.23329294 -0.46079007
-0.1293153 0.009225792 -0.04894832 -0.08904404 -0.37535888 -0.8568714 -0.13260506 -0.7983229
00000000: 0eb4 05be 9e4f d5be 10c9 633e ff0e b3bd
00000010: c220 f1bd a7a8 6abe 1a40 0cbe 8afd 33bf
00000020: 1966 fbbd e8ee 10bc bbbb 863e e776 a1be
00000030: 6108 983d feac 193e a934 32bf 769f 1bbe
00000040: 42fe 6f3e cbcf aabf 68ba a1be a526 f23d
00000050: 7007 163e 1732 7c3e 58e4 6ebe adec ebbe
00000060: 3b6b 04be c727 173c 097e 48bd b95c b6bd
00000070: 0a2f c0be ed5b 5bbf 9fc9 07be e45e 4cbf

weight f4 [4, 32]
0.10694749 0.26918894 -0.15461612 -0.00059226906 0.17394184 0.5845746 0.107945636 0.629294
0.25597006 0.2265636 0.18472217 0.18434273 0.32117105 0.05133385 1.4104906 0.075076506
-0.19000556 -0.11088117 -0.8683036 0.27764863 0.61884135 -0.67264086 -0.067365624 0.16019814
-0.2530208 -0.3185286 0.09322365 -0.05570234 0.33399034 0.4496611 0.054812636 -0.3821832
0.0659509 0.13054836 0.22626954 0.12086564 -0.37723175 -0.19136716 -0.010826885 -0.43342432
-0.18235707 -0.53453684 0.026208501 -0.24742763 -0.07135215 -0.16115987 0.25425988 -0.642733
0.19466637 0.1075447 -0.18891297 0.16477206 -0.05448062 -0.09257142 -0.44347212 -0.35355577
0.15547818 0.046603832 -0.016222563 0.24775125 -0.09248473 -0.009107389 0.19487582 0.08943757
-0.08664306 0.23233376 0.20072904 -0.25830102 -0.40687746 0.1041192 -0.18019421 -0.5148987
0.017091617 -0.27176228 -0.017512199 -0.4563567 -0.0038518878 -0.252226 0.71981835 0.07388935
0.11009075 -0.20599072 0.6114577 0.5516457 0.036232196 0.6753078 0.16113764 0.12838723
0.20344433 -0.2653456 -0.7467112 -0.15890275 0.15734415 -0.38019714 -0.04031425 0.60090536
-0.28070882 0.24889949 -0.06450115 0.2849326 0.44201237 0.31474265 -0.11973856 0.6938016
-0.13359961 -0.30322167 -0.21463218 0.78047645 -0.47530603 0.011208119 0.28708702 0.18857986
-0.11412576 1.0581666 0.18686071 -0.028943012 -0.21207616 -0.020395644 0.1420286 0.20350258
0.12401356 -0.16786583 -0.083041444 0.6843697 0.19921613 0.8240695 0.1272534 0.59782594
00000000: 4907 db3d 22d3 893e b053 1ebe 8142 1bba
00000010: cf1d 323e aea6 153f 9a12 dd3d 6919 213f
00000020: 820e 833e 4a00 683e cf27 3d3e 57c4 3c3e
00000030: 8870 a43e 7143 523d f58a b43f b6c1 993d
00000040: d190 42be ab15 e3bd 2549 5ebf f627 8e3e
00000050: 636c 1e3f 3132 2cbf fdf6 89bd fb0a 243e
00000060: f18b 81be 2e16 a3be 0aec be3d 2328 64bd
00000070: c800 ab3e fb39 e63e 3783 603d 84ad c3be
00000080: 4411 873d 78ae 053e 34b3 673e 6888 f73d
00000090: 8524 c1be c1f5 43be 3f63 31bc cbe9 ddbe
000000a0: d0bb 3abe 68d7 08bf 36b3 d63c ab5d 7dbe
000000b0: 1321 92bd 1807 25be 5a2e 823e 268a 24bf
000000c0: 9f56 473e 6540 dc3d 6772 41be 02ba 283e
000000d0: 1227 5fbd 1696 bdbd c70e e3be 4305 b5be
000000e0: ac35 1f3e a9e3 3e3d 2ee5 84bc 81b2 7d3e
000000f0: a268 bdbd 2837 15bc 878d 473e 0b2b b73d
00000100: eb71 b1bd e7e8 6d3e ea8b 4d3e 0840 84be
00000110: 3e52 d0be 723c d53d d584 38be 67d0 03bf
00000120: b803 8c3c 6d24 8bbe be75 8fbc 96a7 e9be
00000130: f46f 7cbb c423 81be 0446 383f 4d53 973d
00000140: 4277 e13d 3bef 52be 7e88 1c3f a738 0d3f
00000150: 3668 143d f9e0 2c3f 4401 253e f177 033e
00000160: b653 503e 61db 87be 7728 3fbf 67b7 22be
00000170: d31e 213e 33a9 c2be 8e20 25bd efd4 193f
00000180: 11b9 8fbe 82df 7e3e 2e19 84bd b0e2 913e
00000190: 724f e23e f325 a13e 7d39 f5bd fb9c 313f
000001a0: 56ce 08be df3f 9bbe 8ac8 5bbe 4ecd 473f
000001b0: 505b f3be 42a2 373c 12fd 923e 141b 413e
000001c0: c4ba e9bd 0172 873f 6a58 3f3e e519 edbc
000001d0: 7e2a 59be c414 a7bc f26f 113e fb62 503e
000001e0: d2fa fd3d 05e5 2bbe a211 aabd da32 2f3f
000001f0: 50ff 4b3e 38f6 523f b74e 023e 1f0b 193f

bias f4 [4]
-0.11446596 0.31489253 -0.0025723148 -0.17120333
00000000: 216d eabd 9839 a13e 4894 28bb ed4f 2fbe
