[NewFlyModels]/min_func_ScaleMetric_Fly_0.pt (torch_old, 54341 bytes, 136 tensors)

weight f4 [2, 2]
0.29812604 -0.07610309 -0.7160453 0.3547192
00000000: faa3 983e f0db 9bbd bf4e 37bf c19d b53e

bias f4 [2]
-0.0028550941 -0.30021995
00000000: 881c 3bbb 6eb6 99be

weight f4 [2, 2]
-0.03881348 0.0115798125 -0.08805396 0.00671503
00000000: e2fa 1ebd 41b9 3d3c a255 b4bd c109 dc3b

weight f4 [1, 2]
0.3515702 0.08927739
00000000: 0201 b43e 10d7 b63d

weight f4 [2, 2]
-0.023953918 1.3038384 0.96950626 0.75224876
00000000: 023b c4bc 2de4 a63f 9031 783f 6093 403f

bias f4 [2]
-0.8181296 0.025107263
00000000: f170 51bf bfad cd3c

weight f4 [2, 2]
-0.99547756 -0.6128937 -0.570468 1.3482888
00000000: 9ed7 7ebf 9ae6 1cbf 310a 12bf ba94 ac3f

weight f4 [1, 2]
0.016697586 -0.2691141
00000000: 60c9 883c 53c9 89be

weight f4 [2, 2]
-0.54578793 0.45799047 0.44075197 -0.4467593
00000000: c2b8 0bbf ba7d ea3e 3eaa e13e a3bd e4be

bias f4 [2]
-0.21811803 -0.06620061
00000000: 555a 5fbe 2f94 87bd

weight f4 [2, 2]
0.24584857 0.6806444 -0.4832345 -0.84414655
00000000: babf 7b3e b63e 2e3f 836a f7be fd19 58bf

weight f4 [1, 2]
0.5424393 -0.555248
00000000: 4ddd 0a3f bc24 0ebf

weight f4 [2, 2]
-0.5294542 -0.6490524 -0.5433649 0.848606
00000000: 4f8a 07bf 4c28 26bf f619 0bbf 3e3e 593f

bias f4 [2]
-0.2711909 -0.092742614
00000000: 89d9 8abe d7ef bdbd

weight f4 [2, 2]
0.11138147 -1.040301 0.3986643 1.6231434
00000000: f81b e43d 9528 85bf ba1d cc3e 2ac3 cf3f

weight f4 [1, 2]
-0.30325213 0.2226054
00000000: dd43 9bbe acf2 633e

weight f4 [2, 2]
1.1888437 -0.7218174 0.10223646 -0.70376956
00000000: 082c 983f 06c9 38bf 5961 d13d 3e2a 34bf

bias f4 [2]
0.50738704 -0.36545202
00000000: 1ee4 013f 871c bbbe

weight f4 [2, 2]
-0.11897512 0.88387144 -0.015107662 -0.5649856
00000000: 3aa9 f3bd 6645 623f 2186 77bc e5a2 10bf

weight f4 [1, 2]
-0.2859892 0.03583896
00000000: 2d6d 92be e0cb 123d

weight f4 [2, 2]
0.17389373 0.2791235 0.29747146 -0.43047255
00000000: 3311 323e 47e9 8e3e 2e4e 983e e666 dcbe

bias f4 [2]
-0.04304223 -0.9967545
00000000: 0d4d 30bd 4e2b 7fbf

weight f4 [2, 2]
-0.26638907 -0.044283636 -0.05022355 -0.66619164
00000000: 2664 88be c262 35bd 36b7 4dbd 898b 2abf

weight f4 [1, 2]
0.4372608 -0.63131535
00000000: a6e0 df3e e29d 21bf

weight f4 [2, 2]
0.47869408 -0.6328788 0.070029065 -0.7347102
00000000: 6417 f53e 5804 22bf 666b 8f3d f815 3cbf

bias f4 [2]
0.25418293 -0.05394113
00000000: 4424 823e 60f1 5cbd

weight f4 [2, 2]
-0.49575827 0.8999694 0.7011159 0.83699906
00000000: 07d4 fdbe 6564 663f 557c 333f 9245 563f

weight f4 [1, 2]
-0.66722244 0.29716426
00000000: 17cf 2abf ea25 983e

weight f4 [2, 2]
-0.8307813 0.023317374 0.5585504 1.000025
00000000: 15ae 54bf 1404 bf3c 29fd 0e3f d200 803f

bias f4 [2]
-0.32235128 0.7078812
00000000: 3a0b a5be b437 353f

weight f4 [2, 2]
-0.30603823 0.46964508 0.23332506 -0.23608345
00000000: 0bb1 9cbe 5275 f03e c4ec 6e3e dcbf 71be

weight f4 [1, 2]
0.1598661 0.09753221
00000000: f0b3 233e f8be c73d

weight f4 [2, 2]
-0.46523845 1.7829547 0.6602855 -0.9923109
00000000: bc33 eebe dc37 e43f 7808 293f 1608 7ebf

bias f4 [2]
0.31658795 -0.21701057
00000000: d117 a23e 0538 5ebe

weight f4 [2, 2]
0.38807663 1.0870367 -0.31075296 -0.8758424
00000000: fbb1 c63e 0524 8b3f 031b 9fbe 3537 60bf

weight f4 [1, 2]
-0.2807292 -0.18114328
00000000: bdbb 8fbe a07d 39be

weight f4 [2, 2]
0.4680013 -0.35733178 0.5602596 -1.5348403
00000000: de9d ef3e 31f4 b6be 2c6d 0f3f a675 c4bf

bias f4 [2]
-0.1771825 0.44060144
00000000: 546f 35be 8396 e13e

weight f4 [2, 2]
0.30664128 -0.009048595 0.12325249 -1.5265449
00000000: 1600 9d3e 8f40 14bc cd6b fc3d d365 c3bf

weight f4 [1, 2]
-0.22399068 0.40224046
00000000: d05d 65be 76f2 cd3e

weight f4 [2, 2]
0.3990478 -0.2532041 -0.40002608 -0.48719528
00000000: fe4f cc3e f8a3 81be 38d0 ccbe a971 f9be

bias f4 [2]
0.33023152 0.615828
00000000: 1b14 a93e e7a6 1d3f

weight f4 [2, 2]
0.050383374 0.02323934 -0.15186328 0.514496
00000000: cc5e 4e3d 6e60 be3c 0c82 1bbe 03b6 033f

weight f4 [1, 2]
0.24321151 0.11504251
00000000: 700c 793e 689b eb3d

weight f4 [2, 2]
-0.08356632 -0.39272672 -0.00029588956 -0.15019083
00000000: d224 abbd 7a13 c9be a021 9bb9 a0cb 19be

bias f4 [2]
-0.7066331 -0.4705086
00000000: e8e5 34bf 81e6 f0be

weight f4 [2, 2]
0.70754576 -0.26878998 0.20955925 0.37065107
00000000: b821 353f d79e 89be b396 563e fac5 bd3e

weight f4 [1, 2]
0.54418975 0.12475145
00000000: 0550 0b3f b07d ff3d

weight f4 [2, 2]
0.07091494 -0.482512 0.5813798 -0.5418545
00000000: da3b 913d d00b f7be 4ed5 143f fab6 0abf

bias f4 [2]
-0.40549508 0.91663265
00000000: 0d9d cfbe 70a8 6a3f

weight f4 [2, 2]
0.18149146 -0.40541604 0.08647763 0.5901161
00000000: e6d8 393e b192 cfbe 2f1b b13d d911 173f

weight f4 [1, 2]
-0.30512556 0.08729571
00000000: 6b39 9cbe 18c8 b23d

weight f4 [2, 2]
0.19009201 -0.28547245 0.9323938 -0.49984825
00000000: 7ba7 423e 7229 92be 5cb1 6e3f 1cec ffbe

bias f4 [2]
-0.1096271 0.104982674
00000000: 2c84 e0bd 2801 d73d

weight f4 [2, 2]
0.036324777 -0.0006684135 0.028994478 0.5022801
00000000: 4ac9 143d 7838 2fba d485 ed3c 6e95 003f

weight f4 [1, 2]
-0.6099323 -0.6964585
00000000: 8624 1cbf 1b4b 32bf

weight f4 [2, 2]
-0.869588 -1.2317185 1.0894514 -2.8720431
00000000: 529d 5ebf f4a8 9dbf 2573 8b3f 8ecf 37c0

bias f4 [2]
0.066205904 0.2308567
00000000: f696 873d b365 6c3e

weight f4 [2, 2]
-1.5960227 -0.8353744 -0.79256886 -1.5725019
00000000: 794a ccbf 19db 55bf cbe5 4abf be47 c9bf

weight f4 [1, 2]
-0.50165606 -0.36442205
00000000: 886c 00bf 8795 babe

weight f4 [2, 2]
0.42063227 0.2519417 -0.456851 -0.2628524
00000000: 1d5d d73e 81fe 803e 60e8 e9be 9794 86be

bias f4 [2]
-0.120335355 -0.24786632
00000000: 6272 f6bd abd0 7dbe

weight f4 [2, 2]
0.03928967 0.38675016 -0.20357046 -0.32397515
00000000: 34ee 203d 1e04 c63e c674 50be 12e0 a5be

weight f4 [1, 2]
-0.67551535 -0.13026738
00000000: 93ee 2cbf d064 05be

weight f4 [2, 2]
0.43808374 2.4016962 -0.7539224 0.85239005
00000000: 834c e03e 64b5 1940 0f01 41bf 3c36 5a3f

bias f4 [2]
1.8357422 0.42442578
00000000: 9af9 ea3f 564e d93e

weight f4 [2, 2]
-0.03352291 0.31766084 -1.2400291 -0.7038821
00000000: 524f 09bd 71a4 a23e 46b9 9ebf 9e31 34bf

weight f4 [1, 2]
-0.0007327795 0.21789455
00000000: 0018 40ba c01f 5f3e

weight f4 [2, 2]
-0.067694336 1.291811 -0.47935787 1.2470226
00000000: 54a3 8abd 105a a53f 656e f5be 709e 9f3f

bias f4 [2]
0.07383982 0.21771686
00000000: 5539 973d 2bf1 5e3e

weight f4 [2, 2]
1.0473472 -0.5930545 -0.5843211 -0.34878984
00000000: 790f 863f 6bd2 17bf 1196 15bf 9594 b2be

weight f4 [1, 2]
0.5537018 0.48930413
00000000: 67bf 0d3f 1286 fa3e

weight f4 [2, 2]
-0.43297687 -0.5561058 0.7295495 0.3205862
00000000: 25af ddbe f35c 0ebf c2c3 3a3f e023 a43e

bias f4 [2]
-0.1594207 -0.14441995
00000000: 2e3f 23be d3e2 13be

weight f4 [2, 2]
0.06424281 -0.20062706 -0.7454166 -0.080430664
00000000: bc91 833d 2e71 4dbe 9fd3 3ebf d5b8 a4bd

weight f4 [1, 2]
-0.5952809 0.12431443
00000000: 5464 18bf 9098 fe3d

weight f4 [2, 2]
-0.123137794 0.02065368 -0.12103965 0.2751927
00000000: ab2f fcbd e831 a93c a3e3 f7bd 0fe6 8c3e

bias f4 [2]
0.30924425 0.09957164
00000000: 4355 9e3e 37ec cb3d

weight f4 [2, 2]
-0.167349 -0.40424958 0.120340735 -0.14424276
00000000: 895d 2bbe cdf9 cebe 3475 f63d 60b4 13be

weight f4 [1, 2]
0.0011719465 -0.5689244
00000000: 009c 993a 08a5 11bf

weight f4 [2, 2]
-0.07039618 -0.16277279 -0.5620268 0.9944731
00000000: df2b 90bd e9ad 26be fde0 0fbf ca95 7e3f

bias f4 [2]
-0.60722256 0.06608348
00000000: f072 1bbf c756 873d

weight f4 [2, 2]
-0.17519401 -2.0763762 0.22376914 -0.14425923
00000000: 0f66 33be 59e3 04c0 bd23 653e b1b8 13be

weight f4 [1, 2]
-0.38204736 0.33495218
00000000: b69b c3be da7e ab3e

weight f4 [2, 2]
0.23372877 -0.11243723 -0.09936991 -0.22869027
00000000: 9856 6f3e 7e45 e6bd 7482 cbbd c82d 6abe

bias f4 [2]
-0.19135566 -0.39125845
00000000: bdf2 43be 0753 c8be

weight f4 [2, 2]
-0.8240569 -0.53418547 -0.091708936 0.4404791
00000000: 65f5 52bf 61c0 08bf e5d1 bbbd 7a86 e13e

weight f4 [1, 2]
0.1383599 -0.3361416
00000000: 38ae 0d3e c01a acbe

weight f4 [2, 2]
0.55157954 1.2173637 -0.36998296 -0.46643227
00000000: 5134 0d3f 93d2 9b3f 686e bdbe 36d0 eebe

bias f4 [2]
0.36366445 0.61472505
00000000: 3a32 ba3e 9f5e 1d3f

weight f4 [2, 2]
-0.20988329 0.10545136 -5.7023065e-21 1.8542083e-21
00000000: a5eb 56be e2f6 d73d 536d d79d 9b19 0c1d

weight f4 [1, 2]
-0.4096152 -0.23198873
00000000: 15b9 d1be 748e 6dbe

weight f4 [2, 2]
0.3433419 0.1572646 0.25433525 0.29397348
00000000: 82ca af3e f909 213e 3b38 823e b183 963e

bias f4 [2]
0.38621464 0.5195092
00000000: edbd c53e 8efe 043f

weight f4 [2, 2]
0.22844388 -0.83724487 0.35415298 0.25723508
00000000: 31ed 693e ae55 56bf 8a53 b53e 51b4 833e

weight f4 [1, 2]
0.13646072 0.4972021
00000000: 5cbc 0b3e 4691 fe3e

weight f4 [2, 2]
-1.6492218 1.7088003 -0.1794795 0.63710445
00000000: b319 d3bf f8b9 da3f 79c9 37be 4719 233f

bias f4 [2]
1.1627439 -0.21195745
00000000: cbd4 943f 600b 59be

weight f4 [2, 2]
-0.20873827 -1.2387065 -2.035459 1.2181753
00000000: 7cbf 55be ef8d 9ebf f644 02c0 2bed 9b3f

weight f4 [1, 2]
0.5434726 -0.40002382
00000000: 0521 0b3f eccf ccbe

weight f4 [2, 2]
1.1287726 -1.3343152 -1.9280101 -0.80880606
00000000: 9f7b 903f d7ca aabf 09c9 f6bf ea0d 4fbf

bias f4 [2]
0.2296256 -0.23805335
00000000: f922 6b3e 42c4 73be

weight f4 [2, 2]
-1.033079 -2.7972088 1.1185718 0.11895919
00000000: ef3b 84bf 7805 33c0 5c2d 8f3f e0a0 f33d

weight f4 [1, 2]
-0.46068436 -0.15982598
00000000: d2de ebbe 6ca9 23be

weight f4 [2, 2]
0.5135014 -0.72843665 -1.06611 -0.7443903
00000000: d474 033f d37a 3abf 4b76 88bf 5d90 3ebf

bias f4 [2]
0.13142374 -1.0273678
00000000: f293 063e ca80 83bf

weight f4 [2, 2]
-1.0297846 -0.04063815 0.046922047 -1.1257912
00000000: fbcf 83bf 3074 26bd 5531 403d ed19 90bf

weight f4 [1, 2]
-0.65725756 0.17185152
00000000: 0842 28bf d8f9 2f3e

weight f4 [2, 2]
-0.2485207 -0.6869613 0.44521645 0.20987768
00000000: 367c 7ebe b2dc 2fbf 69f3 e33e 2dea 563e

bias f4 [2]
-0.68996245 -0.21585971
00000000: 61a1 30bf 540a 5dbe

weight f4 [2, 2]
-0.1881345 0.043130044 0.61528 -0.81586164
00000000: 55a6 40be 21a9 303d fd82 1d3f 4fdc 50bf

weight f4 [1, 2]
-0.6880225 0.6069657
00000000: 3e22 30bf 1b62 1b3f

weight f4 [2, 2]
-0.39823672 1.4551232 -0.77322143 1.1809893
00000000: afe5 cbbe 7a41 ba3f d7f1 45bf a82a 973f

bias f4 [2]
0.6125327 -0.18160704
00000000: f1ce 1c3f 32f7 39be

weight f4 [2, 2]
-0.13170761 0.45024678 0.55729145 -0.46708444
00000000: 5cde 06be bf86 e63e a7aa 0e3f b125 efbe

weight f4 [1, 2]
0.40818805 0.16249025
00000000: 06fe d03e d863 263e

weight f4 [2, 2]
0.52008975 -0.62415373 0.3007244 -0.6139756
00000000: 9a24 053f 8ac8 1fbf 8cf8 993e 812d 1dbf

bias f4 [2]
0.3658042 0.5336835
00000000: b04a bb3e 7b9f 083f

weight f4 [2, 2]
-0.15058574 -0.64272517 -0.4966319 -0.7036951
00000000: 2633 1abe a389 24bf 8946 febe 5d25 34bf

weight f4 [1, 2]
-0.57796156 0.5478155
00000000: 4af5 13bf a33d 0c3f

weight f4 [2, 2]
0.45979226 0.4100558 -1.0893778 1.3592415
00000000: e469 eb3e d5f2 d13e bb70 8bbf a0fb ad3f

bias f4 [2]
0.6667226 1.2987648
00000000: 55ae 2a3f ed3d a63f

weight f4 [2, 2]
-0.95158136 0.6266526 -0.021878062 -1.4400948
00000000: d69a 73bf 4e6c 203f 9f39 b3bc 0755 b8bf

weight f4 [1, 2]
0.6260621 0.70454925
00000000: 9b45 203f 575d 343f

weight f4 [2, 2]
-0.17946254 0.30216587 0.77835256 -0.7713254
00000000: 07c5 37be 7cb5 9a3e 1d42 473f 9575 45bf

bias f4 [2]
0.5140114 0.14863274
00000000: 4096 033f 2e33 183e

weight f4 [2, 2]
0.25377852 -0.38429978 -0.1237864 1.4254887
00000000: 42ef 813e f1c2 c4be b983 fdbd 6a76 b63f

weight f4 [1, 2]
-0.6511298 0.044614792
00000000: 71b0 26bf 00be 363d

weight f4 [32, 2]
1.5888703 0.36372563 0.44281602 -1.9762787 1.0583191 1.9406313 -0.04321268 1.7369497
0.63117677 -1.1898613 -0.73845834 2.3055186 1.5492836 0.41031823 -0.3743456 1.6398821
0.61039025 -1.626165 0.82882243 1.534477 -1.2534976 0.9891252 1.2231888 0.57198954
-0.16647807 -0.06010177 -0.97326136 1.4810445 -0.50403345 -1.0995632 0.7492147 1.8715919
-1.6812683 -0.7974943 1.2162842 -1.9222994 -0.566642 -0.049587347 0.23878133 -0.928465
1.7261817 1.6416086 1.2249134 0.5046514 -0.6505346 0.6066628 0.636369 -0.6012367
-1.3921577 -0.43312377 -0.4430213 -0.43325192 1.3600293 0.27129355 -0.81634724 0.37479535
-0.54900444 1.1169333 0.78961265 -1.1796288 3.4531007 0.08677462 -0.6653042 1.5322617
00000000: 1a60 cb3f 3f3a ba3e c8b8 e23e b3f6 fcbf
00000010: 0077 873f 9b66 f83f c7ff 30bd 5e54 de3f
00000020: cd94 213f 604d 98bf 9b0b 3dbf 9e8d 1340
00000030: ed4e c63f 3b15 d23e 3aaa bfbe a8e7 d13f
00000040: 8942 1c3f 2d26 d0bf b52d 543f be69 c43f
00000050: 9c72 a0bf 4f37 7d3f 7391 9c3f e86d 123f
00000060: 3a79 2abe 462d 76bd a827 79bf de92 bd3f
00000070: 5608 01bf 7dbe 8cbf 89cc 3f3f 5390 ef3f
00000080: cd33 d7bf 9628 4cbf 33af 9b3f e80d f6bf
00000090: 730f 11bf 1a1c 4bbd 1883 743e e2af 6dbf
000000a0: 86f3 dc3f 3b20 d23f f6c9 9c3f d630 013f
000000b0: 6f89 26bf 414e 1b3f 14e9 223f a6ea 19bf
000000c0: 3932 b2bf 66c2 ddbe b0d3 e2be 32d3 ddbe
000000d0: 7115 ae3f fde6 8a3e 22fc 50bf 2de5 bf3e
000000e0: 8e8b 0cbf acf7 8e3f 0e24 4a3f 14fe 96bf
000000f0: 9aff 5c40 e4b6 b13d 6051 2abf 2721 c43f

bias f4 [32]
0.18122354 -0.5011121 -0.37020913 -0.4833198 0.26915172 0.23494993 0.29898867 -0.40953866
0.3355381 -0.3921906 -0.28612572 0.5383239 -0.09845495 -0.22112288 0.027975056 -0.047837768
-0.58359534 -0.16216585 -0.16943178 0.2218675 0.1797295 0.16716076 -0.41043854 0.40494338
-0.18896924 -0.5662608 0.16464502 -0.26630923 -0.10955223 0.5109487 0.0703902 0.07439668
00000000: aa92 393e e248 00bf 0d8c bdbe b175 f7be
00000010: 41ce 893e b796 703e 0b15 993e 0daf d1be
00000020: a6cb ab3e 35cd c8be 127f 92be 98cf 093f
00000030: c0a2 c9bd 096e 62be f22b e53c 89f1 43bd
00000040: 8166 15bf ce0e 26be 867f 2dbe 3c31 633e
00000050: 030b 383e 312c 2b3e 0025 d2be bd54 cf3e
00000060: 2781 41be 78f6 10bf b498 283e af59 88be
00000070: eb5c e0bd 89cd 023f bd28 903d 495d 983d

weight f4 [32, 32]
-0.99032867 0.18437669 -0.7378778 -0.06936368 -0.71220756 0.35469645 -0.61727875 0.12951782
-0.04012329 -0.07354544 0.3089189 -0.67075944 0.23281258 0.9315808 -0.11907614 -0.6153601
0.68244183 -0.46164936 0.21221383 -0.74590266 -0.5114625 -0.5708232 0.78032476 -0.43252617
0.41982895 1.0745732 -0.9935847 0.71671 0.936837 -0.5042185 -0.26663858 0.57486075
-0.8559458 -0.13019831 -0.23991506 0.17582984 -0.13177292 -0.18210824 -0.67335695 0.28128588
-0.08589282 0.00833255 0.27444437 -0.3762795 0.059733003 -0.04401587 -0.16355537 -0.18466677
-0.11872217 -0.1625216 0.39034265 0.092112966 -0.36861795 -0.5080594 0.024706144 -0.2368784
0.18019114 0.029723028 -0.77510434 -0.17480795 0.13023579 -0.09137274 -0.42227083 0.18971941
0.23407629 0.02100985 0.6780458 0.8818521 -0.28286603 0.8161872 0.2214227 0.7765478
-0.6914952 0.35495487 0.9856846 0.21814233 0.15530124 0.7761169 -0.12933642 0.92322284
0.06467755 -0.760114 0.008301818 -0.39944977 0.88156205 0.3284697 0.25919095 -0.25308505
-0.12917691 0.4432344 0.19604006 0.4655062 0.5583287 -1.1762828 -0.016360406 0.51274467
-1.4198637 0.22757985 -0.022537952 -0.1528918 -0.06829921 0.28546682 -0.6287718 -0.07024795
0.21568467 -0.25873196 0.37918735 -0.6997607 0.15347135 0.55269307 0.7330171 -0.5426899
1.1518656 -0.13201357 -0.031581886 0.03224864 -0.60293275 -0.8533244 1.1202452 0.20630357
1.1898108 1.4058429 -1.4316514 1.0088665 0.46980172 0.14580745 -0.24655642 0.27766103
0.004596575 -0.5132167 -0.05760857 -0.0260289 -0.41898426 0.2796128 0.043760005 0.4869434
-0.7345667 -0.43193224 0.5157511 0.51432604 0.23864704 0.38030985 0.13870867 0.23764178
-0.33586556 -0.58271646 -0.46131438 -0.4209504 0.2292965 -0.2187551 0.4322475 0.45382518
-0.33831915 0.12859216 0.0137167275 0.33301342 0.5900482 -0.6321977 -0.78798103 0.5197587
0.564749 1.0152717 0.85295 0.45458817 0.73472816 -0.9030247 0.30314475 0.06994128
-0.06168426 0.6186417 -0.2558283 0.021759467 0.16208693 -0.4187548 0.08923077 0.23302479
0.2527821 0.49038985 -0.047592543 0.5472002 0.98994076 0.2401571 -0.25249302 -0.09946616
-0.050096635 -0.17785513 0.5535268 -0.28124458 -0.5392686 0.1650198 1.2929716 -0.59033686
0.46334648 -0.6002007 0.39040473 0.5285864 -1.1353904 1.3901327 0.76580447 0.68008554
-0.64948213 -0.576993 0.8347907 0.5816655 0.6820767 0.89633095 -0.07757053 1.0169846
-0.52933496 -1.3900654 -0.40522292 -0.9100921 0.6591013 0.6089883 0.8778297 0.34100136
-0.4701646 0.6420938 0.40442756 0.8703408 0.90508157 -0.76803106 -0.6298292 1.0108248
-0.74651384 -0.42517662 -0.23438275 0.36263865 -0.3036061 0.30265298 -1.1906221 0.3833729
-0.39729315 -0.68988824 0.6102422 0.010069841 0.40230048 0.40680328 0.35077843 -0.33441734
-0.07857102 -0.3374681 -0.15015693 -0.37055987 -0.89182687 -0.75091976 0.1517695 0.0008576009
1.0308815 0.58311534 -0.7696122 0.28388613 0.27011767 -0.39462364 -0.9805439 0.3410566
00000000: 2e86 7dbf 3ecd 3c3e 8fe5 3cbf 8c0e 8ebd
00000010: 3c53 36bf c69a b53e fb05 1ebf 52a0 043e
00000020: 5258 24bd fe9e 96bd 9e2a 9e3e e4b6 2bbf
00000030: 6c66 6e3e 147c 6e3f 31de f3bd 3d88 1dbf
00000040: 82b4 2e3f 4e5d ecbe 954e 593e 7af3 3ebf
00000050: 35ef 02bf 7821 12bf 5dc3 473f 1274 ddbe
00000060: d2f3 d63e 9d8b 893f 915b 7ebf 4e7a 373f
00000070: 8dd4 6f3f 7714 01bf da84 88be 132a 133f
00000080: 441f 5bbf b552 05be 4bac 75be bd0c 343e
00000090: 7bef 06be 957a 3abe 1f61 2cbf b404 903e
000000a0: 93e8 afbd 3f85 083c f983 8c3e b5a7 c0be
000000b0: 98aa 743d fc49 34bd 0f7b 27be 4919 3dbe
000000c0: 9c24 f3bd 106c 26be feda c73e b9a5 bc3d
000000d0: 7ebb bcbe 2e10 02bf 8a64 ca3c 4090 72be
000000e0: 0784 383e b57d f33c 3d6d 46bf db00 33be
000000f0: 885c 053e a221 bbbd e233 d8be ce45 423e
00000100: b2b1 6f3e d91c ac3c 6994 2d3f 0fc1 613f
00000110: d1d3 90be a5f1 503f a2bc 623e d6cb 463f
00000120: d405 31bf a5bc b53e d355 7c3f b460 5f3e
00000130: 4a07 1f3e 99af 463f c470 04be 5558 6c3f
00000140: aa75 843d d596 42bf 5904 083c ae84 ccbe
00000150: 0dae 613f 2e2d a83e adb4 843e 5d94 81be
00000160: f446 04be 9fef e23e babe 483e d456 ee3e
00000170: a1ee 0e3f 6f90 96bf 4206 86bc 3c43 033f
00000180: 18be b5bf b10a 693e 83a1 b8bc ab8f 1cbe
00000190: 75e0 8bbd b528 923e 30f7 20bf 28de 8fbd
000001a0: 71dc 5c3e 8478 84be d824 c23e 8423 33bf
000001b0: 9827 1d3e 4b7d 0d3f 02a7 3b3f baed 0abf
000001c0: 5570 933f 912e 07be 025c 01bd 2617 043d
000001d0: cd59 1abf 7873 5abf 3264 8f3f 3e41 533e
000001e0: b84b 983f a9f2 b33f 5a40 b7bf 8a22 813f
000001f0: da89 f03e 8c4e 153e 4979 7cbe 9629 8e3e
00000200: de9e 963b 2b62 03bf f7f6 6bbd 8f3a d5bc
00000210: 1b85 d6be 6929 8f3e b13d 333d a550 f93e
00000220: 900c 3cbf 3926 ddbe 4408 043f dfaa 033f
00000230: e45f 743e f9b7 c23e a509 0e3e 5e58 733e
00000240: 92f6 abbe e82c 15bf 6631 ecbe d086 d7be
00000250: b4cc 6a3e 5601 60be 8b4f dd3e c65b e83e
00000260: 2b38 adbe aaad 033e 20bc 603c bc80 aa3e
00000270: 660d 173f b5d7 21bf 20b9 49bf e80e 053f
00000280: 6493 103f 6cf4 813f ee5a 5a3f c8bf e83e
00000290: 2517 3c3f a02c 67bf ca35 9b3e 603d 8f3d
000002a0: a2a8 7cbd 4d5f 1e3f edfb 82be e940 b23c
000002b0: 1efa 253e 0767 d6be 9fbe b63d 0d9e 6e3e
000002c0: a86c 813e 6114 fb3e 66f0 42bd 5015 0c3f
000002d0: c26c 7d3f beeb 753e c446 81be eab4 cbbd
000002e0: 2132 4dbd a81f 36be efb3 0d3f 4aff 8fbe
000002f0: 820d 0abf f3fa 283e 1880 a53f 5120 17bf
00000300: c03b ed3e c1a6 19bf 21e3 c73e 7051 073f
00000310: 7954 91bf deef b13f c30b 443f 161a 2e3f
00000320: 7644 26bf d0b5 13bf d8b4 553f 08e8 143f
00000330: 949c 2e3f f275 653f 4cdd 9ebd 8d2c 823f
00000340: 7f82 07bf aaed b1bf 6179 cfbe ccfb 68bf
00000350: ddba 283f a8e6 1b3f 72b9 603f bb97 ae3e
00000360: 6ab9 f0be 4260 243f 2111 cf3e a8ce 5e3f
00000370: 6db3 673f af9d 44bf 7d3c 21bf b562 813f
00000380: 881b 3fbf c0b0 d9be 0802 70be c6ab b93e
00000390: 4272 9bbe 55f5 9a3e 4e66 98bf 7449 c43e
000003a0: 026a cbbe 849c 30bf d538 1c3f f9fb 243c
000003b0: 54fa cd3e 8548 d03e 3b99 b33e c038 abbe
000003c0: d8e9 a0bd 9ec8 acbe bdc2 19be 06ba bdbe
000003d0: c44e 64bf 473c 40bf 7769 1b3e 9fd0 603a
000003e0: edf3 833f 0c47 153f 4e05 45bf 8659 913e
000003f0: dd4c 8a3e 1c0c cabe ed04 7bbf f89e ae3e

bias f4 [32]
-0.24171247 -0.07927672 -0.2585576 0.008213385 0.47408012 -0.34440294 0.23396759 0.2939724
-0.4796849 -0.43050057 -0.2428684 -0.08005811 -0.73791796 0.0034469888 -0.19353354 -0.17041695
0.66837585 0.37819272 0.16819528 -0.90982056 -0.27029106 -0.35757905 -0.18383437 -0.13785733
-0.35320637 -0.1440323 0.43042296 0.33006197 -0.055200785 -0.06870206 -0.20745856 -1.08136
00000000: 7983 77be d55b a2bd a961 84be 6f91 063c
00000010: a1ba f23e 9555 b0be 3395 6f3e 8d83 963e
00000020: 4299 f5be 926a dcbe 7eb2 78be 82f5 a3bd
00000030: 31e8 3cbf e0e6 613b a82d 46be c881 2ebe
00000040: ae1a 2b3f 7aa2 c13e 623b 2c3e 00ea 68bf
00000050: 9763 8abe 9a14 b7be 143f 3cbe 792a 0dbe
00000060: 77d7 b4be 347d 13be 6660 dc3e e2fd a83e
00000070: 381a 62bd aab3 8cbd 0470 54be 016a 8abf

weight f4 [32, 32]
0.05837681 0.42069516 -0.18955256 0.07118662 -0.24372192 -0.2673917 0.0108972285 0.20812683
0.097616315 0.0642802 0.26324067 0.17086977 0.28074685 -0.36441448 0.29052907 0.30598027
0.07651921 0.24090707 -0.4185601 0.30976135 -0.2136542 0.07842586 -0.66795397 0.2699719
-0.24135435 0.14817862 -0.3445768 -0.67251617 0.0057354267 0.034053195 0.22787315 -0.042426046
-0.86340076 0.4385608 -0.041326094 -0.37962627 -0.018358763 -0.22725645 -1.2089818 -0.100793034
0.06679452 -0.43588704 -0.59486496 -0.2501608 -0.13488056 0.24218175 0.2044985 0.47193867
0.060731445 0.17185995 0.07010644 -1.0933607 -0.51232827 0.31634897 -0.09148424 0.11620523
-0.7016735 0.37619582 -1.1502142 0.08573355 -0.44510862 -0.0038054052 -0.14505172 -0.49793464
-0.24104945 -0.13571142 -0.8037992 -0.3197945 -0.4126821 -0.111785494 -1.862363 -0.13653968
-1.5006746 -0.7672431 -0.9875377 0.0023528468 -0.138356 -0.37130472 -0.13592672 0.33247477
-0.24385437 -0.86411226 -1.1402297 -0.42008433 0.05281758 0.4384024 0.17988665 0.24160163
0.069201246 0.15733528 -0.9835941 0.040680237 -0.38617346 -0.21092139 -0.57777625 0.025210466
-0.16119324 -0.10430228 -0.41680688 -0.15265773 -0.20222571 0.056585222 -0.60501444 -0.39693236
0.16076845 0.06194783 -0.22649717 -0.37031558 0.34011298 -0.021689434 0.051357914 0.04825517
-0.2523043 0.091074616 -0.08011062 0.086111166 -0.25675845 0.57555294 -0.6023855 -0.00041449125
-0.14511237 0.04360807 -1.0238525 -0.05236679 -0.21109776 -0.25754398 0.007107726 0.5213405
0.002704288 -0.39536604 0.060423676 -0.044055544 -0.62764204 -0.2939074 -0.6625634 -0.6002044
0.010975782 0.33309698 0.36160007 0.5463473 0.0753374 -0.5196078 -0.5072993 -0.055605862
-0.7776172 0.47919336 0.0055987644 -0.14546615 0.13314702 0.38905174 0.13576482 0.051140975
-0.2810291 -0.34262887 -0.2520675 -0.41057092 0.17681977 -0.814288 -0.29046276 0.4403525
0.3804652 0.5893652 -0.1762981 -0.6128795 -0.34027532 -0.17489892 0.17333828 0.32090175
-0.33804822 0.3322337 0.48986286 -0.4591813 -0.05752475 -0.26291084 0.27067158 0.36151704
0.25932866 -0.4152727 -0.7533419 -0.19420703 -0.70759684 0.3781679 -0.56017405 0.41453385
0.14580312 0.5112449 -0.3016814 -0.30472264 -0.70142925 0.47643673 -0.40660945 -0.5199065
-0.56796324 -0.41939235 0.11537365 -0.0068844343 -0.29898873 -0.15671186 -0.8747486 -0.56909204
0.3694749 0.66481334 0.69247514 0.23804358 0.11744633 -0.47190112 -0.2545228 -0.16044775
-0.72424406 0.51249725 0.22005819 0.31054965 -0.05955777 0.2391915 0.3483957 0.13203114
-0.4537967 -0.32709637 0.16164249 -0.6582409 0.19852008 -0.64069456 0.15796633 1.1853433
0.32230473 0.96981925 -0.255266 -0.5664904 0.032245938 -0.30848387 -0.122268185 0.6589883
-0.33381683 -0.008309824 -0.1501789 -0.42094934 0.10873026 -0.16402763 0.5200019 0.17636545
0.36098838 0.00072602555 -0.28860542 -0.35014525 -0.85455763 -0.10176911 -0.98895633 -0.048988625
0.22724552 0.2982801 -0.9012254 -0.21373008 -0.12566441 0.40778548 -0.381206 0.16311702
00000000: 861c 6f3d 5b65 d73e 111a 42be 4aca 913d
00000010: 3d92 79be 91e7 88be 4a8a 323c 331f 553e
00000020: 10eb c73d 56a5 833d 7bc7 863e 7cf8 2e3e
00000030: 0dbe 8f3e 8994 babe 3ac0 943e 72a9 9c3e
00000040: 1bb6 9c3d 58b0 763e 824d d6be 0a99 9e3e
00000050: 2bc8 5abe bd9d a03d 08ff 2abf c239 8a3e
00000060: 9825 77be 23bc 173e 5f6c b0be 052a 2cbf
00000070: 3ff0 bb3b 5d7b 0b3d 9457 693e efc6 2dbd
00000080: d507 5dbf 0b8b e03e 8d45 29bd 605e c2be
00000090: 1e65 96bc eab5 68be eabf 9abf 946c cebd
000000a0: 91cb 883d 962c dfbe 1249 18bf 1415 80be
000000b0: 211e 0abe 7efe 773e 0e68 513e f2a1 f13e
000000c0: 89c1 783d 0efc 2f3e f793 8f3d 3ef3 8bbf
000000d0: f227 03bf 7ef8 a13e 175c bbbd 02fd ed3d
000000e0: e0a0 33bf bd9c c03e 383a 93bf 1295 af3d
000000f0: 47e5 e3be 1b64 79bb 7088 14be 4af1 febe
00000100: abd5 76be eff7 0abe c9c5 4dbf 1bbc a3be
00000110: 114b d3be cbef e4bd e961 eebf 0fd1 0bbe
00000120: 1b16 c0bf 0b6a 44bf 45cf 7cbf 3832 1a3b
00000130: 32ad 0dbe a71b bebe 6030 0bbe 223a aa3e
00000140: f6b4 79be 7636 5dbf 0cf3 91bf 4b15 d7be
00000150: 3f57 583d 4876 e03e 3534 383e 6b66 773e
00000160: 62b9 8d3d 801c 213e d3cc 7bbf 52a0 263d
00000170: 87b8 c5be c7fb 57be 25e9 13bf 2e86 ce3c
00000180: d70f 25be 6f9c d5bd b667 d5be 4f52 1cbe
00000190: 4214 4fbe e8c5 673d 3ae2 1abf b83a cbbe
000001a0: 7ca0 243e 02bd 7d3d e0ee 67be 019a bdbe
000001b0: 4a23 ae3e 0aae b1bc ad5c 523d 37a7 453d
000001c0: 072e 81be 5485 ba3d 0911 a4bd 0d5b b03d
000001d0: d875 83be 7057 133f f035 1abf 1350 d9b9
000001e0: 5698 14be 609e 323d 990d 83bf 8f7e 56bd
000001f0: 032a 58be cedc 83be ede7 e83b 9276 053f
00000200: 6d3a 313b 6b6d cabe d17e 773d 9673 34bd
00000210: 26ad 20bf 087b 96be c19d 29bf ffa6 19bf
00000220: c4d3 333c b08b aa3e a523 b93e 6bdd 0b3f
00000230: 7f4a 9a3d 0405 05bf 5ede 01bf f9c2 63bd
00000240: ec11 47bf d558 f53e d775 b73b 14f5 14be
00000250: b157 083e ca31 c73e ef05 0b3e 3379 513d
00000260: 0ce3 8fbe 0d6d afbe fe0e 81be 5a36 d2be
00000270: 3e10 353e 2e75 50bf 89b7 94be e275 e13e
00000280: 56cc c23e a3e0 163f 7d87 34be ace5 1cbf
00000290: 9138 aebe b418 33be 977f 313e 3c4d a43e
000002a0: a814 adbe 891a aa3e 4ecf fa3e d019 ebbe
000002b0: 129f 6bbd 409c 86be 7795 8a3e c318 b93e
000002c0: bac6 843e a09e d4be 04db 40bf 35de 46be
000002d0: 1125 35bf 399f c13e 9167 0fbf c83d d43e
000002e0: 6a4d 153e f2e0 023f fc75 9abe 9b04 9cbe
000002f0: de90 33bf 84ef f33e 1d2f d0be 9818 05bf
00000300: 0a66 11bf 98ba d6be 0549 ec3d d296 e1bb
00000310: 0d15 99be 1379 20be 86ef 5fbf 04b0 11bf
00000320: d02b bd3e 3531 2a3f 0d46 313f b2c1 733e
00000330: b487 f03d 069d f1be d050 82be 6a4c 24be
00000340: 0f68 39bf 0533 033f ef56 613e 5d00 9f3e
00000350: d9f2 73bd 9eee 743e ec60 b23e 2c33 073e
00000360: 0b58 e8be 2d79 a7be 9c85 253e 7a82 28bf
00000370: d948 4b3e 8f04 24bf edc1 213e 54b9 973f
00000380: 2005 a53e 1346 783f 3ab2 82be 8405 11bf
00000390: 5114 043d 99f1 9dbe be67 fabd 75b3 283f
000003a0: 0aea aabe ee25 08bc 7fc8 19be ac86 d7be
000003b0: f8ad de3d dcf6 27be d81e 053f 2599 343e
000003c0: 78d3 b83e c052 3e3a 17c4 93be 3d46 b3be
000003d0: 4ac4 5abf 536c d0bd 3e2c 7dbf 4ca8 48bd
000003e0: 0db3 683e 2bb8 983e b5b6 66bf 0fdc 5abe
000003f0: 2cae 00be 42c9 d03e 6f2d c3be 2608 273e

bias f4 [32]
-0.15175189 0.07758941 -0.06965949 -0.2190015 -0.31067592 0.336709 -0.26923898 0.17805481
0.5734035 0.2075206 -0.066276655 -0.6328666 -0.2770645 0.052759085 0.014207738 -0.5177021
-0.23193702 0.0849529 -0.15063104 -0.11520173 -0.19652036 0.11150419 -0.24595033 0.69081974
0.47771034 -0.41058093 -0.1958602 -0.23977537 -0.7419396 -0.01909267 -0.35810181 -0.15673119
00000000: d964 1bbe 32e7 9e3d a2a9 8ebd ee41 60be
00000010: ea10 9fbe 1f65 ac3e b1d9 89be 0054 363e
00000020: 92ca 123f 4880 543e 0ebc 87bd 8c03 22bf
00000030: 66db 8dbe e919 583d 93c7 683c 2088 04bf
00000040: e680 6dbe c9fb ad3d 063f 1abe e2ee ebbd
00000050: a23c 49be 4f5c e43d 67da 7bbe 90d9 303f
00000060: 7396 f43e aa37 d2be 948f 48be ad87 75be
00000070: c1ef 3dbf 3b68 9cbc 1f59 b7be 247e 20be

weight f4 [4, 32]
0.14203753 0.19781873 -0.27398905 -0.10435496 0.12803723 -0.0034314208 -0.8712056 -0.26959035
-0.032548755 0.28330615 0.05549608 -0.122821495 -0.253591 0.21199797 -0.0009754966 -0.40242836
-0.2739605 -0.07220841 0.035277117 0.12240129 0.084144816 0.014993545 -0.68125206 -0.11795043
0.08666083 0.23740514 0.27834657 0.05087697 -0.36502853 0.26401663 -0.42880732 -0.13841547
-0.1639001 0.18891145 -0.26011983 0.25860804 -0.012628128 -0.3238898 -0.60528547 0.2872021
-0.26925194 0.55739254 -0.11951842 0.38999408 0.2692838 -0.24321403 -0.10342194 0.27124158
0.1718409 -0.62830925 -0.3368738 -0.44071656 0.026843961 0.02795914 -0.3236082 0.04722371
0.122784466 -0.12683456 -0.028438762 0.08195775 -0.49331096 0.08267343 0.034749098 -0.2991949
0.15079108 -0.49066064 -0.54970264 -0.51193464 0.36186445 0.45615095 0.2877426 0.022592288
0.2018303 -0.5121457 0.23111178 -0.5360695 0.2552297 0.1878499 0.077452905 -0.5156855
-0.2979091 0.28823292 0.5344327 -0.12294375 -0.45007512 -0.121011466 -0.8869009 0.9513274
-0.18861742 0.5433381 0.054869458 -0.37204504 -0.58960795 0.27282777 0.15325627 0.37197685
-0.0321227 -0.6176663 -0.3687528 0.2577109 0.08387222 -0.36341202 0.92722505 0.17327772
-0.54777974 -0.10113566 -0.47396025 -0.01084987 -0.1644817 -0.016049303 0.034078088 0.5579698
0.2210588 0.19945319 -0.2610235 -0.04120932 -0.11412638 -0.32853258 0.38879943 -0.036634125
0.6928655 0.24879862 -0.09491455 0.3438257 -0.4493868 0.45735726 0.09707391 0.061879862
00000000: 4972 113e fe90 4a3e 4b48 8cbe 0eb8 d5bd
00000010: 311c 033e b0e1 60bb 5507 5fbf bf07 8abe
00000020: d851 05bd 810d 913e dc4f 633d d689 fbbd
00000030: aed6 81be ff15 593e 78b8 7fba 170b cebe
00000040: 8d44 8cbe 01e2 93bd bd7e 103d 87ad fa3d
00000050: 1e54 ac3d 7ca7 753c 8966 2ebf ff8f f1bd
00000060: 3c7b b13d 551a 733e 7183 8e3e 5f64 503d
00000070: 05e5 babe 302d 873e a28c dbbe c9bc 0dbe
00000080: 6ed5 27be 0172 413e 6d2e 85be 4668 843e
00000090: 35e6 4ebc e2d4 a5be fdf3 1abf 270c 933e
000000a0: 64db 89be 47b1 0e3f 13c6 f4bd 4ead c73e
000000b0: 91df 893e 190d 79be e2ce d3bd 2de0 8a3e
000000c0: 10f7 2f3e e0d8 20bf b97a acbe 9aa5 e1be
000000d0: dee7 db3c 910a e53c f9af a5be a66d 413d
000000e0: 6c76 fb3d ebe0 01be 68f8 e8bc 77d9 a73d
000000f0: 4193 fcbe b050 a93d 1255 0e3d 1330 99be
00000100: fa68 1a3e df37 fbbe 50b9 0cbf 260e 03bf
00000110: 4c46 b93e 9e8c e93e 0053 933e 7613 b93c
00000120: 9aac 4e3e fb1b 03bf 91a8 6c3e da3b 09bf
00000130: 78ad 823e b95b 403e a19f 9e3d f703 04bf
00000140: 8b87 98be 4493 933e 95d0 083f efc9 fbbd
00000150: 3f70 e6be dcd4 f7bd f00b 63bf 318a 733f
00000160: ed24 41be 3518 0b3f ccbe 603d b07c bebe
00000170: 8cf0 16bf 15b0 8b3e 36ef 1c3e c073 be3e
00000180: 1893 03bd 611f 1ebf 2bcd bcbe aff2 833e
00000190: 33c5 ab3d 2411 babe 9f5e 6d3f b76f 313e
000001a0: 4b3b 0cbf 3720 cfbd ebaa f2be a7c3 31bc
000001b0: e46d 28be d479 83bc 7795 0b3d 1cd7 0e3f
000001c0: 3d5d 623e 753d 4c3e dfa4 85be 1bcb 28bd
000001d0: 17bb e9bd 6c35 a8be b810 c73e aa0d 16bd
000001e0: a25f 313f 11c5 7e3e 8f62 c2bd ec09 b03e
000001f0: 0716 e6be bb2a ea3e b0ce c63d bd75 7d3d

bias f4 [4]
-0.18842754 0.07314035 0.42855367 -0.24131866
00000000: 26f3 40be 9cca 953d 636b db3e 3d1c 77be
