[NewFlyModels]/min_func_ChevMetric_Fly_8.pt (torch_old, 54341 bytes, 136 tensors)

weight f4 [2, 2]
0	0xbf52c7fb	-0.82336396
1	0xbf4fee34	-0.81222844
2	0x3f70d430	0.9407377
3	0xbf9d0969	-1.2268497

bias f4 [2]
0	0xbeab144f	-0.33413932
1	0x3dd616f1	0.104535945

weight f4 [2, 2]
0	0x3ea54d2b	0.32285437
1	0x3f3140a7	0.69239277
2	0xbd4e96d2	-0.050436802
3	0xbf5629a7	-0.83657306

weight f4 [1, 2]
0	0x3f325709	0.69664055
1	0x3ccece60	0.025244892

weight f4 [2, 2]
0	0x3ce571f1	0.028008433
1	0xbe8c60cd	-0.27417603
2	0xbda2a2db	-0.079412185
3	0xbd0a7396	-0.033801638

bias f4 [2]
0	0x3ef081da	0.4697407
1	0x3f4a40d3	0.79005164

weight f4 [2, 2]
0	0xbf59ca96	-0.85074747
1	0xbfa91e1c	-1.3212314
2	0x3eb797e5	0.35858074
3	0x3d23a137	0.03994867

weight f4 [1, 2]
0	0x3c6ad100	0.014332056
1	0xbf03dbe2	-0.5150739

weight f4 [2, 2]
0	0xc0237d03	-2.554505
1	0x3ffba5e0	1.9659996
2	0x3ece5bda	0.40304452
3	0xbe9415c2	-0.2892285

bias f4 [2]
0	0x40019bc4	2.0251322
1	0xbf7817d3	-0.9691135

weight f4 [2, 2]
0	0xbe524c05	-0.20536812
1	0x3fdef708	1.7419138
2	0xbe499c32	-0.1968849
3	0x3fcf278c	1.6183944

weight f4 [1, 2]
0	0xbe4100c0	-0.18847942
1	0xbeed1d7e	-0.46311563

weight f4 [2, 2]
0	0xbfa93e7d	-1.3222195
1	0x3f827ff5	1.0195299
2	0x3efff936	0.4999482
3	0x3e0b099e	0.13577887

bias f4 [2]
0	0xbe230796	-0.15920863
1	0x3ee2c9ec	0.4429468

weight f4 [2, 2]
0	0x3f7a5744	0.97789407
1	0xbf03db73	-0.5150673
2	0xbf2a641f	-0.6655902
3	0x3f5e94bc	0.869457

weight f4 [1, 2]
0	0x3f150e1d	0.5822466
1	0x3f2620e9	0.64893967

weight f4 [2, 2]
0	0xbea1557b	-0.3151053
1	0xbf327640	-0.69711685
2	0x3e749ae9	0.23887219
3	0xbeff8865	-0.49908748

bias f4 [2]
0	0xbd35c492	-0.044376917
1	0xbebbad02	-0.36655432

weight f4 [2, 2]
0	0xbf67a470	-0.90485287
1	0xbfaaefd3	-1.3354439
2	0xbdb36bcc	-0.08760795
3	0xbe9df477	-0.30850574

weight f4 [1, 2]
0	0xbed17245	-0.40907493
1	0x3edac126	0.42725486

weight f4 [2, 2]
0	0x3f77e9e9	0.96841294
1	0x3f1f62af	0.62259954
2	0x3f0a3a26	0.5399498
3	0xbfb14ad0	-1.3850956

bias f4 [2]
0	0xbf23d831	-0.64001757
1	0xbe56be20	-0.20970964

weight f4 [2, 2]
0	0xbfbf0686	-1.4923866
1	0x3e3c0fd7	0.18365417
2	0xbf266749	-0.6500135
3	0xbf0d9be2	-0.55315983

weight f4 [1, 2]
0	0x3df37750	0.118879914
1	0xbe72ef58	-0.23724115

weight f4 [2, 2]
0	0x3eabecca	0.33579093
1	0x3e02a785	0.12759216
2	0x3e903511	0.28165486
3	0xbe6efb64	-0.23338085

bias f4 [2]
0	0x3ebfff19	0.37499312
1	0x3dfe8a9d	0.12428782

weight f4 [2, 2]
0	0x3e242cd2	0.16032723
1	0x3f001458	0.5003104
2	0xbdaf05f3	-0.085460566
3	0xbec4f699	-0.3846939

weight f4 [1, 2]
0	0x3e17c100	0.14819717
1	0x3e611a48	0.21982682

weight f4 [2, 2]
0	0xbf1f036d	-0.621146
1	0x3f886158	1.0654707
2	0xbfabd3e2	-1.3424037
3	0x3f71d29c	0.9446199

bias f4 [2]
0	0xbcc87e11	-0.024474176
1	0xbee40cc9	-0.44541004

weight f4 [2, 2]
0	0x3f44c995	0.7687009
1	0x3f2bd0a8	0.6711526
2	0x3f9fc699	1.2482482
3	0x3fb02a2b	1.3762869

weight f4 [1, 2]
0	0x3ef00b16	0.46883458
1	0xbe20973c	-0.15682691

weight f4 [2, 2]
0	0x3f8e2602	1.1105349
1	0xbe8dfb23	-0.27730665
2	0xbeee125a	-0.46498376
3	0x3eb4cb87	0.3531153

bias f4 [2]
0	0xbf081ff4	-0.53173757
1	0xbf3af629	-0.7303186

weight f4 [2, 2]
0	0xbfb3e4e0	-1.4054222
1	0x3f57c5b4	0.84286046
2	0x3f38ee5a	0.72238696
3	0xbdf5c4ab	-0.12000402

weight f4 [1, 2]
0	0x3e835ec8	0.2565825
1	0x3f2ac5d3	0.66708106

weight f4 [2, 2]
0	0xbf6b1773	-0.91832656
1	0x3e13ea67	0.14444886
2	0xbe84bc7d	-0.25925055
3	0x3f4ee6ae	0.8082074

bias f4 [2]
0	0x3d077dd0	0.03307897
1	0xbf9666f5	-1.175017

weight f4 [2, 2]
0	0xbfa588a7	-1.2932328
1	0xbf704742	-0.9385873
2	0x3f3aca18	0.7296462
3	0xbf4a9050	-0.79126453

weight f4 [1, 2]
0	0xbe0d2e90	-0.13787293
1	0x3f22390d	0.633683

weight f4 [2, 2]
0	0xbe1c5abc	-0.15268987
1	0x3f90aa0f	1.1301898
2	0xbedd3206	-0.43202227
3	0x3fc331bd	1.5249554

bias f4 [2]
0	0x3f073e14	0.528291
1	0x3fb04ad1	1.3772832

weight f4 [2, 2]
0	0xc0251de1	-2.5799487
1	0xbf5a210a	-0.85206664
2	0x3fb70e9b	1.4301332
3	0xbee789cf	-0.45222327

weight f4 [1, 2]
0	0x3f02cc49	0.51092964
1	0xbeb79b6e	-0.3586077

weight f4 [2, 2]
0	0xbf91f0a8	-1.1401567
1	0x3f61ac61	0.88153654
2	0x3ed0d315	0.40786043
3	0xbf6ddbd3	-0.9291355

bias f4 [2]
0	0xbf36b302	-0.71366894
1	0xbfbd91ae	-1.4810083

weight f4 [2, 2]
0	0x3fba7c2c	1.4569144
1	0xbf8999ae	-1.0750024
2	0xbfa9f120	-1.327671
3	0xbe96b54c	-0.29435194

weight f4 [1, 2]
0	0x3d90afa8	0.07064754
1	0xbe4fa470	-0.20277572

weight f4 [2, 2]
0	0x3f02a103	0.51026934
1	0xbf509b3a	-0.81486857
2	0x3f7f1908	0.9964757
3	0xbe0e509c	-0.13897938

bias f4 [2]
0	0x3f279341	0.65459067
1	0x3e8be8c2	0.27326018

weight f4 [2, 2]
0	0x3eeeef47	0.4666693
1	0x3e96708d	0.29382744
2	0x3e84beee	0.25926918
3	0xbf935446	-1.1510093

weight f4 [1, 2]
0	0x3daf7660	0.085675
1	0xbe809aac	-0.25118005

weight f4 [2, 2]
0	0x3f33c079	0.70215565
1	0x3f9df944	1.2341695
2	0xbe962c4c	-0.2933067
3	0x3e67eb2d	0.22648306

bias f4 [2]
0	0xbda18b12	-0.07887854
1	0x3f05897d	0.52162915

weight f4 [2, 2]
0	0xbf51d544	-0.8196604
1	0xbf1f9710	-0.6233988
2	0xbf8b2408	-1.0870371
3	0x3e4f6b86	0.2025586

weight f4 [1, 2]
0	0x3dabba08	0.08385092
1	0xbede1089	-0.4337199

weight f4 [2, 2]
0	0xbd93e501	-0.072214134
1	0x3d7b0ac3	0.06128956
2	0x3e9bf57e	0.30460733
3	0xbfa22396	-1.266711

bias f4 [2]
0	0x3ece4993	0.40290508
1	0x3f1395e7	0.5765061

weight f4 [2, 2]
0	0x3eb5c0c0	0.3549862
1	0x3f29578f	0.6614923
2	0x3ee5f54a	0.44913703
3	0xbcaaeba9	-0.020864325

weight f4 [1, 2]
0	0xbd4bd190	-0.0497604
1	0xbedaa0df	-0.4270086

weight f4 [2, 2]
0	0x3ea510b0	0.32239294
1	0xbf23bb4b	-0.6395766
2	0x3eff877e	0.4990806
3	0xbf3995f8	-0.7249446

bias f4 [2]
0	0x3fb6b31d	1.4273411
1	0x3f92c490	1.1466236

weight f4 [2, 2]
0	0x3f6b64ff	0.9195098
1	0xbf73e698	-0.95273733
2	0xbf290691	-0.66025645
3	0x3f7cf9b7	0.98818535

weight f4 [1, 2]
0	0x3e355594	0.17708427
1	0x3ec3fad2	0.38277298

weight f4 [2, 2]
0	0xbed29a63	-0.41133413
1	0xbf8b9add	-1.0906636
2	0xbf3a606e	-0.7280339
3	0x40225b58	2.5368252

bias f4 [2]
0	0xbfbb2769	-1.4621402
1	0x3f898117	1.074252

weight f4 [2, 2]
0	0xbf37f03d	-0.7185095
1	0xbf9ff850	-1.2497654
2	0xbf2d0557	-0.6758627
3	0xbfbe14dc	-1.4850116

weight f4 [1, 2]
0	0x3cd81dc0	0.026381373
1	0x3f11bb3b	0.56926316

weight f4 [2, 2]
0	0xbef1f470	-0.47256804
1	0x3fa7cf41	1.3110124
2	0xbeefd843	-0.46844682
3	0x3e8ff6e1	0.2811804

bias f4 [2]
0	0xbe1bf20d	-0.15229054
1	0xbdb6368f	-0.08897125

weight f4 [2, 2]
0	0xbe958326	-0.2920162
1	0xbf144a67	-0.5792603
2	0x3fcf043e	1.617317
3	0x3f0beaf6	0.54655397

weight f4 [1, 2]
0	0x3e8d2f50	0.2757516
1	0xbed947ef	-0.42437693

weight f4 [2, 2]
0	0xbd8caabe	-0.06868504
1	0x3e237c3e	0.15965363
2	0xbe6a3f74	-0.22875768
3	0x3e16fd14	0.14744979

bias f4 [2]
0	0x3e53afe1	0.20672561
1	0xbe939c3d	-0.28830138

weight f4 [2, 2]
0	0xbe8c38b4	-0.2738701
1	0xbd2a90fa	-0.041642167
2	0x3ebc1633	0.36735687
3	0x3dfa1c5e	0.12212442

weight f4 [1, 2]
0	0x3f2ec741	0.6827279
1	0x3e75e88c	0.24014491

weight f4 [2, 2]
0	0x3ee22366	0.44167632
1	0xbf638ef8	-0.8889003
2	0x3f481f7d	0.7817305
3	0x3e9ae5be	0.30253404

bias f4 [2]
0	0x3f9ac157	1.2090253
1	0xbf12d383	-0.5735399

weight f4 [2, 2]
0	0x3f8999ad	1.0750023
1	0x3f7fc538	0.99910307
2	0xbdcaa039	-0.09893841
3	0x3fa6092f	1.2971553

weight f4 [1, 2]
0	0x3da51878	0.08061308
1	0xbec60d0f	-0.38681838

weight f4 [2, 2]
0	0x3f4e7ed7	0.8066229
1	0xbfc7f3b7	-1.5621251
2	0xbe757597	-0.23970638
3	0x3ecc07d5	0.39849725

bias f4 [2]
0	0xbea73c98	-0.32663417
1	0x3fa46559	1.2843429

weight f4 [2, 2]
0	0x3d9cbe07	0.07653432
1	0x3f273691	0.65317637
2	0x3fc875e9	1.5660983
3	0xbf8927fb	-1.0715326

weight f4 [1, 2]
0	0xbeecffaa	-0.46288806
1	0xbee1877a	-0.44048673

weight f4 [2, 2]
0	0x3e4487cc	0.19192427
1	0xbf762ed5	-0.9616521
2	0xbfab8d5b	-1.3402513
3	0x3ebe30fd	0.3714675

bias f4 [2]
0	0x3ef40d0b	0.476662
1	0xbbf7cd0f	-0.0075622867

weight f4 [2, 2]
0	0xbeff1d23	-0.49826917
1	0x3c8ae4c0	0.01695478
2	0x3e3cb1a5	0.18427141
3	0xbc2919ef	-0.010321124

weight f4 [1, 2]
0	0x3e2764c0	0.16347027
1	0x3f345187	0.704369

weight f4 [2, 2]
0	0xbd85e2f8	-0.065374315
1	0xbd83e773	-0.0644063
2	0xbf1bd163	-0.60866374
3	0x3f5b3ff2	0.8564445

bias f4 [2]
0	0x3f4bd602	0.79623425
1	0xbf33a6d0	-0.7017641

weight f4 [2, 2]
0	0x3fa4e9dd	1.288387
1	0xbf2edef9	-0.6830898
2	0x3de2699c	0.110553
3	0x3e929d20	0.28635502

weight f4 [1, 2]
0	0x3f0ddaa9	0.55411774
1	0x3f04bf57	0.5185446

weight f4 [2, 2]
0	0xbd510719	-0.05103216
1	0xbdd6fb66	-0.10497169
2	0xbee38c07	-0.4444277
3	0x3bde3f20	0.0067824274

bias f4 [2]
0	0xbfdac732	-1.709204
1	0x3d1df24f	0.03856116

weight f4 [2, 2]
0	0x3f858848	1.0432215
1	0x3fd67650	1.6754856
2	0xbf606383	-0.8765184
3	0xbe251d2c	-0.1612441

weight f4 [1, 2]
0	0xbc5f0540	-0.013612092
1	0xbf162144	-0.5864451

weight f4 [2, 2]
0	0xbe6fce83	-0.23418622
1	0xbf04f861	-0.51941496
2	0xbf7cdbb0	-0.98772717
3	0x3f293a2a	0.66104376

bias f4 [2]
0	0x3f2bc0a1	0.67090803
1	0xbe9575ce	-0.2919144

weight f4 [2, 2]
0	0xbff8a188	-1.9424295
1	0x3f26f835	0.65222484
2	0x3f796bdd	0.9743021
3	0x3ef2ac59	0.47397116

weight f4 [1, 2]
0	0x3e3053d0	0.17219472
1	0xbd86afd8	-0.06576508

weight f4 [2, 2]
0	0xbfc11754	-1.5085244
1	0x3f69ea69	0.91373307
2	0x3f937bb6	1.1522129
3	0xbd7d047c	-0.061771855

bias f4 [2]
0	0x3e948e16	0.29014653
1	0xbd95e5fe	-0.07319258

weight f4 [2, 2]
0	0x3ef51d3b	0.47873864
1	0xbe87a871	-0.26495698
2	0x3f3fc146	0.74904287
3	0xbdb806eb	-0.089856945

weight f4 [1, 2]
0	0x3f1d784b	0.6151168
1	0x3f288d91	0.65841013

weight f4 [2, 2]
0	0xbeb7fc35	-0.35934606
1	0xbf48c1d6	-0.7842077
2	0xbf83ed6e	-1.0306833
3	0x3e9c592f	0.30536792

bias f4 [2]
0	0xbd4e9ad5	-0.050440628
1	0xc0160bac	-2.3444624

weight f4 [2, 2]
0	0x3e56b910	0.20969033
1	0xbf6bca89	-0.9210592
2	0x3f86d8af	1.0534877
3	0xbf8da992	-1.1067374

weight f4 [1, 2]
0	0xbe8ba445	-0.27273765
1	0x3ef2946a	0.47378856

weight f4 [2, 2]
0	0xbd902d71	-0.07039917
1	0xbee9cbaa	-0.45663196
2	0xbf5430ea	-0.82887137
3	0x3fa5b0c6	1.2944572

bias f4 [2]
0	0xbf5d27f6	-0.863891
1	0xbf54f0ce	-0.8317994

weight f4 [2, 2]
0	0x3f7a9249	0.97879463
1	0xbf7dbb7a	-0.9911419
2	0x3de010f2	0.10940732
3	0xbf350939	-0.707172

weight f4 [1, 2]
0	0x3f0ac443	0.5420572
1	0xbe861aaf	-0.26192233

weight f4 [2, 2]
0	0xbd882138	-0.06646961
1	0xbd8f2bf5	-0.06990806
2	0x3da901b1	0.08252276
3	0xbe181fe0	-0.1485591

bias f4 [2]
0	0x3eae6bc1	0.34066585
1	0x3f5e47f1	0.86828524

weight f4 [2, 2]
0	0xbf0d5200	-0.5520325
1	0xbf362fda	-0.71166766
2	0x3f0b4cd7	0.54414123
3	0x3ea94587	0.33060858

weight f4 [1, 2]
0	0x3e1ce37c	0.15321153
1	0xbf08018e	-0.5312737

weight f4 [2, 2]
0	0xbf56edd7	-0.83956665
1	0xbebf482f	-0.3735976
2	0x3f5c8dae	0.86153686
3	0x3fa77bb5	1.3084627

bias f4 [2]
0	0xbd27de93	-0.040983748
1	0x3f076a96	0.5289701

weight f4 [2, 2]
0	0x3f95fc2d	1.1717583
1	0xbfb87014	-1.4409204
2	0xc0029e75	-2.0409214
3	0xbde532a9	-0.11191303

weight f4 [1, 2]
0	0xbe971a8d	-0.29512444
1	0x3d4e0650	0.05029899

weight f4 [2, 2]
0	0x3cb12abc	0.021626823
1	0xbca6fad1	-0.02038327
2	0x3e5f15cf	0.21785663
3	0xbf0ba6c4	-0.5455134

bias f4 [2]
0	0xbeadf503	-0.33975992
1	0x3f39e785	0.72618896

weight f4 [2, 2]
0	0xbff35e8a	-1.9013226
1	0xbfcd5728	-1.6042223
2	0xbfc63953	-1.5486244
3	0xbd99683d	-0.07490585

weight f4 [1, 2]
0	0xbe28448c	-0.16432399
1	0x3f283e0d	0.6571968

weight f4 [2, 2]
0	0xbf33ba93	-0.70206565
1	0x3ec0b3d9	0.37637213
2	0xbf8fa7bf	-1.1223067
3	0x3f768f28	0.9631219

bias f4 [2]
0	0x3efb9c45	0.49142662
1	0xbec5208a	-0.38501388

weight f4 [2, 2]
0	0x3f532ee6	0.82493436
1	0x3ded5f00	0.115903854
2	0x3edc8138	0.43067336
3	0x3e482983	0.19547085

weight f4 [1, 2]
0	0xbe8930c7	-0.26795027
1	0x3f1caca1	0.6120091

weight f4 [32, 2]
0	0x3eff5f33	0.4987732
1	0xbedaf715	-0.42766634
2	0x3ef6febb	0.4824122
3	0xbf52042a	-0.82037604
4	0x3f690016	0.91015756
5	0xbe178c64	-0.14799649
6	0xbfadf314	-1.3589807
7	0xbdd22b55	-0.10262171
8	0x3f78b779	0.9715496
9	0x3fc6fe7d	1.5546414
10	0xbf9c740f	-1.2222918
11	0xbf9c9764	-1.2233701
12	0x3f75a77c	0.95958686
13	0xbf376811	-0.7164317
14	0xbeca93c6	-0.39565867
15	0xbeb45f92	-0.35229164
16	0x3e98d0e2	0.29846865
17	0x3f8ade95	1.0849177
18	0xbffa17a8	-1.9538469
19	0xbe26ee81	-0.1630192
20	0x3fa742ee	1.30673
21	0x3fa9b87d	1.3259426
22	0xbfae1e96	-1.3603084
23	0x3f871a69	1.0554935
24	0x3fd884ff	1.6915587
25	0x3e5e4e69	0.21709599
26	0xbf3f2a2c	-0.74673724
27	0xbf94600e	-1.1591814
28	0xbea3bc53	-0.31979617
29	0xbfad5cb8	-1.354392
30	0xbfb569df	-1.4172934
31	0xbd8dd1fc	-0.06924817
32	0x3e4eca97	0.2019447
33	0xc00fd112	-2.2471356
34	0x3a6e1c39	0.0009083185
35	0xbfe05449	-1.7525722
36	0xbf1eff4a	-0.6210829
37	0xbf9562ef	-1.1670817
38	0xbf41aa79	-0.75650746
39	0x3f0947e4	0.5362532
40	0x3faca123	1.3486675
41	0x3e1f2c0c	0.15544146
42	0x3fa56b91	1.2923452
43	0xbfc1965f	-1.5124015
44	0x3f765c73	0.96234816
45	0xbf14cac9	-0.58121926
46	0xbede0a44	-0.43367207
47	0xbf7fb9de	-0.99892986
48	0xbef4f8fd	-0.47846213
49	0x3fbcf5a3	1.4762462
50	0xbf211921	-0.6292897
51	0xbec7d328	-0.39028287
52	0x3fbb6f31	1.4643308
53	0x3f6f353b	0.934406
54	0x3f35d7f5	0.7103265
55	0xbf9a686c	-1.2063117
56	0x3f700e86	0.9377216
57	0x3fa931f0	1.3218365
58	0x3ec906b6	0.39262933
59	0x3fcebe04	1.6151738
60	0xbfe24d76	-1.7679889
61	0xbd74d8d1	-0.059777085
62	0x3f198e8c	0.59983134
63	0x3f4739e6	0.7782272

bias f4 [32]
0	0x3dc56f63	0.09640386
1	0x3e0020d1	0.12512518
2	0x3eeb1540	0.4591465
3	0x3d2de11a	0.042451
4	0x3ce8ae0c	0.028403305
5	0xbf0dfed2	-0.5546695
6	0x3e95ff9f	0.29296586
7	0x3e9e6747	0.3093817
8	0xbf05ce2e	-0.5226773
9	0xbe006151	-0.12537123
10	0xbed04bb1	-0.40682748
11	0xbed8cd53	-0.4234415
12	0x3e693900	0.2277565
13	0xbe943597	-0.28947136
14	0xbdeff150	-0.117159486
15	0xbee7ea2f	-0.45295855
16	0xbe300956	-0.17191061
17	0xbdf9a0bc	-0.12188861
18	0xbf24c5c6	-0.6436428
19	0x3efadc6e	0.489963
20	0x3ad6330f	0.0016342121
21	0xbd6c34fb	-0.057667714
22	0x3f03c174	0.5146706
23	0xbd9148c4	-0.07093957
24	0x3d99b12e	0.075044975
25	0x3eadeba1	0.33968833
26	0xbe0b65c5	-0.13613041
27	0xbc8d2bab	-0.017232737
28	0xbf003e2b	-0.5009486
29	0x3c0e9676	0.008702865
30	0x3e3aa007	0.18225108
31	0x3ef99a84	0.487507

weight f4 [32, 32]
0	0xbc6d9129	-0.014499941
1	0xbda60910	-0.08107197
2	0x3e4997cc	0.19686812
3	0x3e98d711	0.29851583
4	0xbeb0e8b6	-0.34552544
5	0xbd824319	-0.06360454
6	0x3dd4d37a	0.103918985
7	0x3e64e8cf	0.22354434
8	0xbe9e02e7	-0.3086159
9	0x3c474d66	0.012164449
10	0xbf340ffb	-0.70336884
11	0xbf01cc38	-0.5070224
12	0x3d0dc8af	0.034615215
13	0xbdf25820	-0.11833215
14	0xbd95669a	-0.0729496
15	0xbdac688e	-0.0841838
16	0xbebdc233	-0.37062225
17	0xbe822f27	-0.254266
18	0xbe87791f	-0.26459596
19	0x3df6ad67	0.120447926
20	0xbf08a56c	-0.53377414
21	0xbeb2d11c	-0.34925163
22	0x3c0b558f	0.0085042855
23	0xbe064427	-0.13111936
24	0xbe762aca	-0.2403976
25	0x3e180293	0.14844732
26	0xbf019a07	-0.5062565
27	0xbe12c008	-0.14331067
28	0xbf0c9a27	-0.5492272
29	0xbe9f94d5	-0.31168237
30	0x3e817297	0.25282738
31	0x3d7ac9f9	0.061227772
32	0x3beb6168	0.0071832426
33	0xbcbc506e	-0.02298757
34	0x3ed9f2ce	0.42568058
35	0x3e84094c	0.25788343
36	0xbe6552a5	-0.22394808
37	0xbec7b170	-0.39002562
38	0x3e5ab59c	0.21358341
39	0x3ef8f1b0	0.48621893
40	0xbf96477a	-1.1740563
41	0x3e1ea8e5	0.15494116
42	0xbf4b19d8	-0.7933631
43	0xbf688f2f	-0.9084348
44	0xbdfe08e1	-0.12404037
45	0xbeb772aa	-0.3582967
46	0xbdf1b683	-0.118023895
47	0xbeb406a7	-0.35161325
48	0xbee8ce5e	-0.45469946
49	0xbd5185d8	-0.051153034
50	0xbe931c5d	-0.28732577
51	0x3eaffea8	0.34373975
52	0xbf030a65	-0.51187736
53	0xbdf5feab	-0.12011465
54	0x3f085019	0.5324722
55	0xbd3add86	-0.045621417
56	0xbd94eaf3	-0.072713755
57	0x3eed4922	0.46344858
58	0xbf0c6c65	-0.54852897
59	0x3c7e6bfa	0.015528673
60	0xbf818299	-1.011798
61	0xbe3b528f	-0.18293212
62	0x3e93bfcb	0.28857264
63	0x3d72ff20	0.059325337
64	0xbdacef68	-0.084441006
65	0x3db51078	0.08841032
66	0x3d9a7c6a	0.07543261
67	0x3e79ac30	0.2438209
68	0xbe7cf819	-0.24704017
69	0xbe3096a3	-0.17244963
70	0xbe147b21	-0.14500095
71	0x3d1f0bac	0.03882949
72	0xbe2293b8	-0.15876663
73	0x3d7309de	0.059335582
74	0xbe311168	-0.17291796
75	0xbdb8ea1c	-0.09029028
76	0xbca976ba	-0.020686496
77	0x3b003081	0.001956016
78	0xbe0b8bcb	-0.13627546
79	0x3d21a882	0.039467342
80	0xbe87b5e1	-0.2650595
81	0xbe0b0122	-0.13574651
82	0xbc46252f	-0.012093826
83	0xbc9468fa	-0.018116463
84	0xbed355f8	-0.41276526
85	0xbdd15349	-0.102209635
86	0x3db618da	0.08891459
87	0xbe41e921	-0.18936588
88	0xbe46775a	-0.19381467
89	0xbc0ee636	-0.008721879
90	0xbdb7e48f	-0.08979141
91	0x3c11872c	0.008882325
92	0xbe88b46e	-0.26700157
93	0xbe06f354	-0.1317876
94	0x3cd6fb46	0.026242863
95	0xbd17b0bf	-0.037033793
96	0xbdca02f2	-0.09863843
97	0xbe3d66c3	-0.18496232
98	0xbbced465	-0.0063119405
99	0x3ed248b8	0.41071105
100	0x3dc33329	0.095312424
101	0x3e2471d9	0.16059054
102	0xbe0d1f4a	-0.13781467
103	0x3d2a3677	0.041555848
104	0x3e6d2be0	0.23161268
105	0x3e734ac3	0.23758988
106	0xbccca54c	-0.024981163
107	0x3d8dc151	0.06921638
108	0xbd2945c2	-0.04132629
109	0x3d13030a	0.03589157
110	0xbe247b96	-0.1606277
111	0xbe34a97f	-0.17642783
112	0xbf21f2af	-0.6326093
113	0xbd06ede1	-0.032941703
114	0x3d33bd1a	0.043881513
115	0xbe3d2bf9	-0.18473805
116	0xbf1239eb	-0.57119626
117	0xbe35e27e	-0.17762181
118	0xbe8f7321	-0.28017524
119	0x3d329d58	0.043607086
120	0xbdce6862	-0.10078503
121	0xbcf2fb70	-0.02966091
122	0xbed1f9c4	-0.4101087
123	0xbe46f586	-0.19429597
124	0x3e1caa55	0.15299352
125	0xbd8e752c	-0.069559425
126	0x3e987b18	0.29781413
127	0xbdb81fea	-0.08990462
128	0xbe907e29	-0.28221253
129	0xbeca860a	-0.3955539
130	0xbea27eb6	-0.31737298
131	0x3f53c794	0.8272641
132	0xbea780b9	-0.32715395
133	0x3ec17162	0.37781817
134	0xbeb6fa67	-0.35737917
135	0x3d801932	0.062548056
136	0xbd69955d	-0.05702721
137	0x3f56041b	0.83600014
138	0xbeb00529	-0.34378937
139	0x3eb7c60b	0.35893282
140	0xbf3a55b1	-0.72787005
141	0xbbadd0e8	-0.0053044446
142	0x3de2d9e8	0.110767186
143	0x3f01e8cb	0.5074584
144	0xbefeb80a	-0.49749786
145	0xbd8820ee	-0.06646906
146	0x3e11c186	0.1423398
147	0x3cce42a1	0.025178256
148	0xbf1cd0cb	-0.6125609
149	0xbed50205	-0.41603103
150	0xbf0d6342	-0.5522958
151	0xbdf22edc	-0.11825344
152	0x3e7f5a7a	0.24936858
153	0x3da35412	0.079750195
154	0xbf1f295f	-0.621725
155	0xbe672303	-0.2257195
156	0xbe1e89d0	-0.15482259
157	0xbdf6def4	-0.12054244
158	0x3f00c4ca	0.50300276
159	0xbe67054c	-0.22560614
160	0x3db01738	0.085981786
161	0x3d745862	0.0596546
162	0x3d74011c	0.05957137
163	0x3bf762c5	0.007549616
164	0x3cd14a52	0.025548134
165	0xbcd66985	-0.026173363
166	0x3dd2e229	0.10297043
167	0x3caf08c3	0.021366483
168	0x3d507548	0.050893098
169	0xbe01b756	-0.12667593
170	0xbb2630bd	-0.002535864
171	0xbc91e7b8	-0.017810687
172	0x3d9ececd	0.07754288
173	0xbc745129	-0.014911928
174	0xbe735748	-0.23763764
175	0xbddc1867	-0.10746842
176	0xbeb97efd	-0.36229697
177	0xbe014a9f	-0.12626122
178	0xbca2db98	-0.019880101
179	0xbe0b79d2	-0.1362069
180	0x3e1c62ed	0.15272112
181	0x3d1d6d84	0.03843452
182	0xbda51876	-0.08061306
183	0xbe8a7e36	-0.27049416
184	0xbd80ce71	-0.062893756
185	0xbda94baa	-0.08266385
186	0xbdb1da09	-0.08684165
187	0xbd5f6e86	-0.054548763
188	0x3d3e14e6	0.04640665
189	0xbe1170ce	-0.14203188
190	0xbd9f7c29	-0.077873535
191	0x3ce25406	0.027627956
192	0x3e5adcb5	0.21373256
193	0x3e711efb	0.23546974
194	0xbe593c00	-0.21214294
195	0x3e4d14ce	0.20027468
196	0xbf07895d	-0.52943975
197	0x3f80d215	1.0064112
198	0xbd9ee525	-0.077585496
199	0xbd8186b8	-0.06324524
200	0x3dfb688e	0.122758016
201	0x3f0a01dd	0.53909093
202	0xbd43f24c	-0.047838494
203	0x3e83f774	0.2577473
204	0xbec2795e	-0.3798322
205	0x3f4ff367	0.8123078
206	0x3f291343	0.66045016
207	0x3e78175d	0.24227662
208	0x3f313e2e	0.69235504
209	0x3f5da3e1	0.86578184
210	0x3f2e847d	0.6817091
211	0xbeb81fb1	-0.3596168
212	0xbe8c756d	-0.2743334
213	0x3e6866f3	0.22695522
214	0x3d9df164	0.07712057
215	0x3f43df53	0.7651264
216	0xbf3d9e37	-0.7406954
217	0xbd34294b	-0.043984693
218	0xbf005562	-0.50130284
219	0x3e206e04	0.15666968
220	0xbe08182d	-0.13290472
221	0xbecfc8cb	-0.4058288
222	0x3e48f7fa	0.19625846
223	0xbf2ab2ba	-0.66678965
224	0xbf527295	-0.8220609
225	0xbfa06e2f	-1.2533625
226	0xbe010cc7	-0.1260253
227	0x3f1d4f3a	0.61449015
228	0x3f978d09	1.1839916
229	0xbd261a29	-0.040552292
230	0xbf0bcf77	-0.5461344
231	0xbec6dcc8	-0.38840318
232	0x3f6d7b52	0.92766297
233	0x3ef91edd	0.4865636
234	0x3f2ef5b2	0.6834365
235	0x3f45b16d	0.77223855
236	0xbc61e519	-0.013787531
237	0xbec67dec	-0.38767946
238	0xbf4d689b	-0.8023774
239	0x3e545c14	0.2073825
240	0xbfa2998a	-1.2703106
241	0xbfd0b481	-1.6305085
242	0xbe567948	-0.20944703
243	0x3e9ecaf8	0.31014228
244	0x3e1b8921	0.1518903
245	0xbf9e9bd5	-1.2391306
246	0xbec0a883	-0.37628564
247	0xbf82d587	-1.0221413
248	0x3f6090f5	0.87721187
249	0xbe49d23a	-0.19709101
250	0x3f260587	0.64852184
251	0xbfa7be35	-1.3104922
252	0x3f63ae3c	0.88937736
253	0x3f888930	1.0666866
254	0x3f020bca	0.5079924
255	0x3e913531	0.28360894

bias f4 [32]
0	0x3e98e265	0.29860225
1	0x3e824b66	0.2544815
2	0x3d5ab339	0.053393576
3	0xbe2320c6	-0.15930471
4	0xbea55516	-0.32291478
5	0x3dc33312	0.09531225
6	0xbe9dcf79	-0.30822352
7	0xbdab8210	-0.08374417
8	0x3dce2c68	0.100670636
9	0x3e03f383	0.12885861
10	0xbe4d05dd	-0.20021768
11	0x3c8934a9	0.016748743
12	0xbf06be92	-0.5263454
13	0xbf08ef9f	-0.5349063
14	0xbe872dbd	-0.26402083
15	0xbe46e691	-0.19423892
16	0xbdd99182	-0.106234565
17	0x3e1ca472	0.15297106
18	0xbe561d42	-0.20909598
19	0xbefffde7	-0.499984
20	0x3d92abe2	0.0716169
21	0x3e3a98c1	0.18222333
22	0xbcad4559	-0.021151232
23	0xbe9312f6	-0.28725404
24	0x3c9b74e5	0.018976638
25	0x3bfc14d8	0.0076929145
26	0x3d6157a1	0.05501521
27	0xbf0308ca	-0.51185286
28	0x3d9ca287	0.07648187
29	0x3e66d55e	0.2254233
30	0x3e57d391	0.210768
31	0xbd8e30e8	-0.06942922

weight f4 [32, 32]
0	0xbe074cab	-0.1321284
1	0xbef48440	-0.4775715
2	0xbe46ef07	-0.19427119
3	0x3ee0626c	0.4382509
4	0x3f661939	0.89882237
5	0xbf090f43	-0.5353891
6	0x3e967e26	0.2939312
7	0x3e92fa8c	0.28706777
8	0x3d1a4130	0.037659824
9	0xbeef19d5	-0.46699396
10	0x3e6ed332	0.23322752
11	0x3ed5e86d	0.4177889
12	0x3f746095	0.9545987
13	0x3f9a010b	1.2031568
14	0x3ee3567f	0.4440193
15	0x3eaac970	0.3335681
16	0x3e5c78ed	0.21530505
17	0xbe8e0300	-0.27736664
18	0xbf3744c5	-0.7158931
19	0x3ea7173b	0.3263491
20	0xbef9a03c	-0.48755062
21	0xbfc641bd	-1.5488812
22	0xbea368e8	-0.31915975
23	0x3f17b372	0.59258187
24	0xbf13a13f	-0.57667917
25	0x3da11b00	0.07866478
26	0x3d56501d	0.052322496
27	0x3f311c96	0.69184244
28	0xbe0353cb	-0.12824933
29	0xbc9d4542	-0.019198064
30	0xbf23ee8d	-0.64035875
31	0xbdfec46e	-0.1243981
32	0xbf5c8f92	-0.8615657
33	0xbfbb398f	-1.462694
34	0xbdb05b02	-0.08611108
35	0xbe1c7dd9	-0.15282382
36	0x3e346b25	0.17618997
37	0xbde8e3ef	-0.113716
38	0x3ea82cff	0.3284683
39	0x3da5613b	0.08075186
40	0x3e43b984	0.19113737
41	0xbf37517d	-0.71608716
42	0x3f02568e	0.5091332
43	0xbb5a47c3	-0.0033306933
44	0x3eba99d3	0.36445484
45	0x3ef34b2a	0.47518283
46	0xbdf87745	-0.12132124
47	0x3e86ce88	0.26329446
48	0xbd5ce39a	-0.053927995
49	0xbf919e57	-1.1376446
50	0x3ebfeb6b	0.37484297
51	0x3f2aacb7	0.6666979
52	0xbf791e66	-0.9731201
53	0xbf275ff7	-0.65380806
54	0xbdfc710c	-0.123262495
55	0x3ec8d1de	0.39222616
56	0xbe97385b	-0.29535183
57	0x3c0ee43f	0.00872141
58	0x3e4a4e21	0.19756366
59	0x3e686a70	0.22696853
60	0xbede95d3	-0.43473682
61	0x3df391d4	0.11893049
62	0xbeb4605d	-0.3522977
63	0xbe462f49	-0.19353975
64	0xbdfb29c8	-0.122638285
65	0x3c3b8f15	0.011447688
66	0x3cd43385	0.025903473
67	0xbd9d8bd4	-0.07692686
68	0xbe8613e7	-0.2618706
69	0x3cb0dc23	0.021589344
70	0xbf0f6d06	-0.5602573
71	0xbe32b800	-0.17453003
72	0x3e08599e	0.13315436
73	0xbd853190	-0.06503594
74	0xbeb0c87b	-0.34527954
75	0x3f644d69	0.8918062
76	0xbb907363	-0.0044082864
77	0x3dd66b07	0.104696326
78	0xbf1f1748	-0.621449
79	0xbe007f99	-0.12548675
80	0xbb18b689	-0.0023302159
81	0x3dc0f43d	0.09421585
82	0xbed80beb	-0.42196593
83	0x3d799c61	0.06094015
84	0x3e25a08d	0.16174527
85	0x3f11f6bb	0.57017106
86	0xbc836d5a	-0.016043354
87	0xbe3e1104	-0.18561178
88	0x3e306a4d	0.1722805
89	0xbf16eb86	-0.5895313
90	0xbec2d9fb	-0.3805693
91	0xbdc243b6	-0.09485571
92	0x3ea5fe6b	0.32420668
93	0xbf895948	-1.0730371
94	0xbdac1478	-0.084023416
95	0xbe470ea3	-0.19439177
96	0x3d677ff7	0.05651852
97	0xba8dc51e	-0.0010816192
98	0x3d6e1967	0.058129694
99	0xbe3ef023	-0.18646292
100	0xbf160169	-0.585959
101	0x3d832cde	0.06405042
102	0xbe8fe6d5	-0.28105798
103	0x3d86ae51	0.06576217
104	0x3dde79c4	0.10863069
105	0x3e53f6ed	0.20699663
106	0xbe896360	-0.2683363
107	0xbe5653f8	-0.20930469
108	0xbe75eb72	-0.24015597
109	0xbeb86b0b	-0.36019167
110	0xbeb68e6e	-0.3565554
111	0xbf048cc8	-0.51777315
112	0xbf19614c	-0.5991409
113	0x3d6133d5	0.05498107
114	0xbe9d9260	-0.30775738
115	0xbf0c8d21	-0.54902846
116	0xbd7c1881	-0.061546806
117	0xbbf5ab85	-0.0074972534
118	0xbb18a0db	-0.0023289237
119	0xbf1d3350	-0.6140642
120	0xbdeb2f8d	-0.11483679
121	0xbe2cd88e	-0.16879484
122	0x3d7ec373	0.062198114
123	0x3d40e7e9	0.047096167
124	0x3e1a40dd	0.15063806
125	0xbe4a427d	-0.19751926
126	0xbe0178a2	-0.12643674
127	0xbe0b64ce	-0.13612673
128	0xbdfda060	-0.12384105
129	0xbd828462	-0.06372906
130	0x3d1bc6dd	0.038031448
131	0x3e2f8b1c	0.1714291
132	0x3eac1865	0.33612362
133	0x3d8123a9	0.0630563
134	0x3c42edfe	0.011897562
135	0xbb839599	-0.004015636
136	0x3c1cbf36	0.009567073
137	0x3e35e1e9	0.17761959
138	0xbe81d9d4	-0.25361502
139	0xbe997c3b	-0.29977593
140	0xbdfdcf5c	-0.12393066
141	0x3f0a42e1	0.540083
142	0x3e6bd2cc	0.23029631
143	0x3dd02888	0.10163981
144	0xbe8885e6	-0.26664656
145	0xbcadbfc6	-0.021209609
146	0x3def0b4f	0.11672079
147	0xbeac5db4	-0.3366524
148	0xbd42c998	-0.047555536
149	0x3e1314ea	0.14363447
150	0xbd62736b	-0.055285852
151	0x3e8c28a7	0.27374765
152	0x3e8009a8	0.25007367
153	0xbfe6c149	-1.8027736
154	0xbcae6b8b	-0.021291515
155	0xbe08a326	-0.13343486
156	0x3d381c79	0.04494903
157	0xbfadebaf	-1.358755
158	0xbd2a3500	-0.04155445
159	0xbe617730	-0.22018123
160	0x3e24fd9c	0.1611237
161	0xbe459cab	-0.19298045
162	0x3e3fa5c8	0.18715584
163	0xbdac7516	-0.0842077
164	0x3df43d15	0.11925713
165	0xbb9dcc82	-0.004815639
166	0xbf3832e0	-0.7195263
167	0xbcbbe063	-0.022934144
168	0x3d0980f1	0.033570234
169	0x3d01b8ea	0.03167049
170	0x3d9aa0dc	0.07550213
171	0x3e80db65	0.25167385
172	0xbec9eb56	-0.3943736
173	0x3e4aac74	0.19792348
174	0xbfa42e25	-1.2826582
175	0x3cea1bdb	0.028577736
176	0x3e1fbee2	0.1560016
177	0xbdf6ee24	-0.120571405
178	0x3e927726	0.28606528
179	0x3d66cd87	0.05634835
180	0x3dd0b7db	0.10191318
181	0x3e44f627	0.19234525
182	0x3e876b13	0.2644888
183	0xbdf71d7f	-0.12066173
184	0x3e2fb969	0.17160572
185	0xbdf13732	-0.11778106
186	0xbeab84f5	-0.33499876
187	0xbe5848a4	-0.2112146
188	0x3e933fe7	0.2875969
189	0xbec7cd56	-0.39023846
190	0xbe22d9ad	-0.15903349
191	0xbe053cd3	-0.13011484
192	0xbcf6c336	-0.03012238
193	0x3ddaa6a9	0.10676319
194	0xbd841ffc	-0.06451413
195	0xbe7c0b75	-0.24613746
196	0x3e341917	0.17587696
197	0x3e29fac8	0.16599572
198	0xbe765eef	-0.24059652
199	0xbdf1ce55	-0.11806933
200	0x3d91bb6c	0.07115826
201	0x3df908f9	0.121599145
202	0xbd1bb67d	-0.03801583
203	0xbeadd0b8	-0.33948302
204	0xbeb06354	-0.3445078
205	0xbd5c0a89	-0.053720985
206	0xbeafa1d5	-0.34303156
207	0xbe1b59c3	-0.1517096
208	0xbecc4e4c	-0.39903486
209	0x3c8fc56c	0.017550193
210	0x3cfacd18	0.030615374
211	0xbec23f84	-0.37939084
212	0x3caaf495	0.020868579
213	0x3e28dda3	0.16490798
214	0x3d3030e0	0.04301536
215	0x3ea0a1c4	0.31373417
216	0xbba32f01	-0.0049799685
217	0xbfaba58b	-1.3409895
218	0xbd7fa585	-0.06241371
219	0xbe4bb4dc	-0.19893211
220	0x3e98af59	0.2982128
221	0xbf1ca3b0	-0.6118727
222	0xbe085eec	-0.1331746
223	0x3e139037	0.14410482
224	0x3e4e758f	0.20162033
225	0x3e37c419	0.17945899
226	0x3e0deffe	0.13861081
227	0x3ec1845d	0.37796298
228	0x3ebe02e0	0.37111568
229	0xbe553288	-0.20820057
230	0xbe944e29	-0.2896588
231	0xbf685348	-0.9075208
232	0x3d688224	0.056764737
233	0x3d3e0c04	0.046398178
234	0xbd3142e9	-0.0432767
235	0x3ef44f45	0.47716728
236	0x3d91791d	0.07103179
237	0xbecf9fc1	-0.4055157
238	0xbf153f1e	-0.58299434
239	0x3e9a2ed4	0.30113852
240	0x3f04db64	0.51897264
241	0x3d36a2d5	0.044588882
242	0xbf80ce6e	-1.0062997
243	0x3ed4e0ec	0.41577852
244	0x3dd064bd	0.10175464
245	0xbf0de439	-0.55426365
246	0xbdd40459	-0.10352392
247	0x3e9edfc5	0.31030098
248	0x3d9ff721	0.07810808
249	0x3e4c412f	0.1994674
250	0xbfa9e74f	-1.3273715
251	0x3e9fadf6	0.3118741
252	0xbd80e963	-0.06294515
253	0xbc7b1e39	-0.01532703
254	0x3d05aba7	0.032634404
255	0xbd1e4269	-0.038637552

bias f4 [32]
0	0xbeb341c6	-0.3501112
1	0xbe8e7f90	-0.27831697
2	0x3daf2840	0.08552599
3	0x3d60ee3f	0.05491471
4	0xbdb83546	-0.08994536
5	0x3d57d86a	0.052696623
6	0xbd3eea02	-0.046609886
7	0xbd38b461	-0.045093898
8	0xbdc699b6	-0.09697287
9	0xbf3c047c	-0.7344434
10	0xbea20d3f	-0.3165073
11	0xbf52fec5	-0.8242
12	0xbf1b9793	-0.6077816
13	0x3d8650fc	0.06558415
14	0xbe8ea9e9	-0.27864006
15	0xbe06d796	-0.13168177
16	0xbe2b12c0	-0.16706371
17	0xbf20cf15	-0.6281598
18	0xbdd1cf5e	-0.1024463
19	0xbef4c514	-0.4780661
20	0xbed02567	-0.40653536
21	0x3dd895ba	0.10575433
22	0xbdebde29	-0.11516983
23	0x3e812a25	0.25227466
24	0xbecd95a4	-0.4015323
25	0x3e098ddb	0.1343302
26	0x3e7fabc8	0.24967873
27	0xbde1d6bc	-0.110272855
28	0xbdfc6e57	-0.12325733
29	0xbdacfe05	-0.08446888
30	0xbec9a433	-0.39383087
31	0x3d201eed	0.039091993

weight f4 [4, 32]
0	0xbe5afe43	-0.21386056
1	0xbe6f2d9f	-0.23357247
2	0x3e3c8b97	0.18412624
3	0x3da64034	0.081177145
4	0x3e67c651	0.22634245
5	0x3dd78229	0.10522873
6	0x3e6a8917	0.22903858
7	0xbe954a33	-0.29158172
8	0x3e4b4b12	0.19852856
9	0xbeaf1674	-0.34196818
10	0x3dacb969	0.08433802
11	0xbf58df0d	-0.8471535
12	0xbe11c024	-0.14233452
13	0x3e0e740c	0.13911456
14	0xbdf1fb36	-0.11815493
15	0xbda078f1	-0.07835568
16	0xbe87a3b6	-0.2649209
17	0x3d669018	0.056289762
18	0xbe95ac36	-0.2923295
19	0xbdd23747	-0.102644496
20	0x3d6330c4	0.05546643
21	0x3e8dc6fa	0.2769087
22	0x3e488cea	0.19585004
23	0x3eb6e3a8	0.35720563
24	0xbea4c1c7	-0.3217909
25	0x3e507e7a	0.20360747
26	0x3b767a14	0.0037609385
27	0x3dfbac27	0.12288695
28	0xbe3cd7bb	-0.1844167
29	0x3ca8b6d6	0.020594995
30	0x3e25f22f	0.16205667
31	0x3de39fdf	0.11114477
32	0x3e334760	0.17507696
33	0xbd7f05a9	-0.062261257
34	0x3e916f21	0.28405097
35	0x3e38da92	0.18052128
36	0xbd364fc4	-0.044509664
37	0x3dcfd424	0.101478845
38	0x3db9da15	0.09074799
39	0xbe654f78	-0.22393596
40	0x3ec35695	0.38151994
41	0x3f3871d4	0.7204869
42	0xbe142dcf	-0.144706
43	0xbedd561c	-0.4322976
44	0x3e82e9cd	0.25569
45	0x3d8c01d6	0.06836288
46	0x3cb6b90c	0.022305034
47	0x3d8591dd	0.06521962
48	0xbcd4d476	-0.025980216
49	0x3db1ba6e	0.08678137
50	0x3e2d24d3	0.16908579
51	0x3da46aea	0.08028205
52	0xbe382443	-0.17982583
53	0x3e1dd4ac	0.15413159
54	0x3e36ae26	0.1783987
55	0x3e37c201	0.179451
56	0xbd76ec6d	-0.060284067
57	0xbd8bc91d	-0.06825469
58	0xbef875e0	-0.4852743
59	0x3e058f0b	0.13042848
60	0xbe268f9f	-0.16265725
61	0x3d811509	0.0630284
62	0x3e8c9885	0.27460113
63	0x3d9d50b8	0.076814115
64	0xbd40b7c2	-0.047050245
65	0xbf00a6ce	-0.50254524
66	0x3e25c78a	0.161894
67	0x3db96120	0.09051728
68	0x3ed91d05	0.42404953
69	0x3ebd74a0	0.3700304
70	0x3e7ab089	0.24481405
71	0x3f153a63	0.58292216
72	0x3c7b7f40	0.015350163
73	0xbf2947d8	-0.6612525
74	0x3a64d6a6	0.0008729495
75	0xbe79395b	-0.24338286
76	0x3f3bc3ff	0.7334594
77	0x3dcaacba	0.09896226
78	0xbf0f8eae	-0.56077087
79	0xbea4e13c	-0.3220309
80	0x3e34a087	0.17639361
81	0x3d4a1d90	0.0493446
82	0xbe7b3260	-0.24530935
83	0x3e05de7b	0.13073151
84	0x3dffcf8a	0.12490757
85	0x3d91b232	0.07114066
86	0xbea37549	-0.3192542
87	0xbe173483	-0.14766125
88	0x3ea8e17b	0.32984528
89	0x3e608329	0.21925034
90	0x3d5d129d	0.05397283
91	0xbdfec6da	-0.12440272
92	0xbea5e465	-0.32400814
93	0x3eaf2a0b	0.34211764
94	0x3f39fd16	0.72651803
95	0xbda91f59	-0.08257932
96	0xbe897ede	-0.26854604
97	0xbe2bd887	-0.16781817
98	0x3e1a5ac2	0.15073684
99	0x3e79e194	0.24402457
100	0xbdafeba6	-0.08589868
101	0x3e3b3ae4	0.18284184
102	0xbea1918b	-0.31556353
103	0xbe885647	-0.26628324
104	0x3d3c9171	0.04603714
105	0x3e4fdb61	0.2029853
106	0xbf092740	-0.53575516
107	0xbf500d18	-0.8126998
108	0x3e670b00	0.2256279
109	0xbd8f79fe	-0.0700569
110	0xbb029ddc	-0.0019930517
111	0x3ef86e09	0.4852145
112	0xbcac1ece	-0.021010783
113	0xbea5d30a	-0.32387573
114	0xbf54c5b7	-0.8311419
115	0xbdfe661c	-0.124218196
116	0xbe8f1fb6	-0.2795388
117	0x3e3e1fb0	0.18566775
118	0x3d694d42	0.056958444
119	0x3e2e2de6	0.17009696
120	0x3d08c401	0.03339005
121	0x3c9e0c90	0.0192931
122	0xbe024c38	-0.12724388
123	0x3eae3016	0.34021062
124	0xbf03c4c5	-0.5147212
125	0x3e7aada3	0.244803
126	0x3e331492	0.17488316
127	0xbec423f5	-0.38308683

bias f4 [4]
0	0x3e845e2c	0.25853097
1	0xbe300fb4	-0.1719349
2	0x3e89025d	0.26759616
3	0xbd5aac97	-0.05338725
