[NewFlyModels]/min_func_Fly_ChevMetric.pt (torch_old, 54341 bytes, 136 tensors)

weight f4 [2, 2]
000000 32 e7 b0 be a5 cc 45 bf 9d fb 8b 3e 1c 9c 24 be
       -0.34551388 -0.7726539 0.27340403 -0.16075176

bias f4 [2]
000000 99 72 e6 be 35 fb 11 3d
       -0.45009306 0.03563996

weight f4 [2, 2]
000000 a2 f2 bf 3c ce 61 74 3e 33 e0 8b be 8e 5a ca 3e
       0.023431126 0.23865435 -0.27319488 0.39522213

weight f4 [1, 2]
000000 11 d6 08 3f 5b e6 2e bf
       0.5345164 -0.68320245

weight f4 [2, 2]
000000 39 54 70 3f a1 bc a2 bf 02 91 9a bf 9c da 82 3e
       0.93878514 -1.2713815 -1.2075503 0.2555741

bias f4 [2]
000000 d3 f4 3d 3f fd 09 03 bf
       0.742017 -0.51187116

weight f4 [2, 2]
000000 50 ce 58 bf 7c c5 cd be d3 b2 a5 3c ff 4b d2 bb
       -0.8468981 -0.4018973 0.020226872 -0.006417751

weight f4 [1, 2]
000000 69 ea cd be 40 9d d0 3c
       -0.40217903 0.025465608

weight f4 [2, 2]
000000 2d af 51 3e b4 71 3d bf 6c ed 3b 37 54 f1 43 bf
       0.2047698 -0.7400162 1.1201348e-05 -0.7654011

bias f4 [2]
000000 40 db 39 bf af 97 e9 3e
       -0.72600174 0.45623538

weight f4 [2, 2]
000000 2f ae 74 be 93 97 ec bb 7b 49 a7 3e 93 0e d1 3e
       -0.23894571 -0.0072202175 0.3267325 0.40831432

weight f4 [1, 2]
000000 64 5d 27 3e b8 d1 10 be
       0.1634422 -0.14142501

weight f4 [2, 2]
000000 c7 c7 91 be 69 e6 4c bf de a5 19 3f 09 65 95 3e
       -0.2847273 -0.8003908 0.6001872 0.29178646

bias f4 [2]
000000 05 33 a4 bd 41 86 01 3d
       -0.08017544 0.031622175

weight f4 [2, 2]
000000 cb 7b 1b bf a8 ac 68 bf e7 9d d5 3e a4 56 9c bf
       -0.6073577 -0.9088845 0.41722032 -1.2213941

weight f4 [1, 2]
000000 da 99 01 bf d7 e3 31 bf
       -0.50625384 -0.6948828

weight f4 [2, 2]
000000 d7 96 09 bf fc 89 79 be 93 57 8e bf 5d 69 1a 3f
       -0.5374579 -0.24369043 -1.1120476 0.6031702

bias f4 [2]
000000 0b 0d aa 3c 55 ff 45 3e
       0.020758172 0.19335683

weight f4 [2, 2]
000000 6a 11 9f bf 7d 5c be bf d4 2c 44 c0 be 8d 81 3f
       -1.2427189 -1.4871975 -3.065236 1.0121381

weight f4 [1, 2]
000000 60 1c 7b bd 0b dc 03 3f
       -0.061306357 0.51507634

weight f4 [2, 2]
000000 8c 09 16 3e f6 4d ec 3e 57 d2 21 3e 4f 05 45 3e
       0.1465208 0.4615323 0.15802895 0.19240306

bias f4 [2]
000000 54 d9 0f 3f 85 7a 08 3f
       0.5619099 0.5331195

weight f4 [2, 2]
000000 4f 29 3e 3f d8 48 b0 3d 4f d5 65 bf e4 43 b5 bc
       0.7428178 0.08607644 -0.8977861 -0.0221271

weight f4 [1, 2]
000000 eb b5 84 be 54 0d 22 3e
       -0.25920042 0.15825397

weight f4 [2, 2]
000000 18 65 cc 3c 77 41 12 bf 74 48 26 bf f1 3e 38 3f
       0.024950549 -0.5713114 -0.64954305 0.7197104

bias f4 [2]
000000 12 87 63 be e8 2e 18 3f
       -0.22219494 0.59446573

weight f4 [2, 2]
000000 fc dd 3f 3f 89 6b 7c bf 3e f9 1c 3f 3c c6 7b bf
       0.74948096 -0.98601586 0.61317813 -0.98349357

weight f4 [1, 2]
000000 c0 24 01 bf 57 6f 95 be
       -0.504467 -0.29186508

weight f4 [2, 2]
000000 bd c4 c1 3d d9 86 12 3f 75 a2 b0 3c fd 7d 30 bf
       0.09461353 0.5723701 0.02156184 -0.6894224

bias f4 [2]
000000 d1 1c 7e 3e b7 4e 10 3f
       0.2481568 0.5637011

weight f4 [2, 2]
000000 46 3b 8b 3f 69 8f 68 3c b4 7a 8d bd 45 bb ba be
       1.0877464 0.014194348 -0.069081694 -0.36471

weight f4 [1, 2]
000000 56 67 20 bf c0 6c 73 3e
       -0.6265768 0.23771954

weight f4 [2, 2]
000000 fa 0a 44 3f 2d 7f 1e 3e 64 d3 26 3f be e2 b8 3e
       0.7657925 0.15478201 0.65166306 0.3611049

bias f4 [2]
000000 27 d7 45 3e ca 2d 44 be
       0.19320355 -0.19158092

weight f4 [2, 2]
000000 a7 2b ed 3e 8a 20 60 bf fe 2b dd be ae c3 8a bf
       0.46322367 -0.8754965 -0.43197626 -1.0840967

weight f4 [1, 2]
000000 00 8b 32 3d 21 af 2f bf
       0.043589592 -0.686266

weight f4 [2, 2]
000000 ae 82 4c 3c ff 6a 76 bf 58 fa 17 3f fa 72 62 3f
       0.012482328 -0.96257013 0.5936637 0.8845669

bias f4 [2]
000000 28 4b c3 be e3 a5 04 3e
       -0.38143277 0.12953906

weight f4 [2, 2]
000000 ec 74 5b be 47 57 33 bf a0 30 e0 bd 91 5e e9 be
       -0.21431321 -0.7005505 -0.109467745 -0.4557996

weight f4 [1, 2]
000000 ac ab 1d be f0 15 5b 3d
       -0.15397519 0.053487718

weight f4 [2, 2]
000000 e8 a8 1a 3f a9 64 95 3f 4f 30 4d be 0c 93 da bd
       0.6041398 1.1671344 -0.2003796 -0.10672578

bias f4 [2]
000000 41 00 35 3f 87 7a 29 bf
       0.7070351 -0.66202587

weight f4 [2, 2]
000000 da 60 89 3c bc 0f 56 bf 2b ce f4 3e d7 6a 82 3d
       0.016769815 -0.8361776 0.47813544 0.06368034

weight f4 [1, 2]
000000 c3 a8 2a 3f 14 3c 04 3e
       0.6666376 0.12913543

weight f4 [2, 2]
000000 c4 ad 94 3e 70 b7 73 3f f8 72 b8 be 11 d8 95 3d
       0.29038823 0.9520178 -0.36025214 0.07316602

bias f4 [2]
000000 06 08 ea 3d 69 de 42 bf
       0.114273116 -0.7612062

weight f4 [2, 2]
000000 e2 8e b7 be 72 27 63 bf b1 b9 d1 3e 8d 60 1c 3e
       -0.35851198 -0.88732064 0.40961984 0.15271206

weight f4 [1, 2]
000000 35 7e 2f 3f 85 49 18 3f
       0.6855195 0.5948718

weight f4 [2, 2]
000000 3f a7 80 3f 5a 4c 36 be 8d 20 a6 3e d7 23 9d 3e
       1.005104 -0.17802563 0.3244671 0.30691406

bias f4 [2]
000000 96 44 21 3f b5 ea f4 be
       0.6299528 -0.47835317

weight f4 [2, 2]
000000 60 86 9e be 2f 0c 7b be ed 16 c4 be c0 ce 8c bd
       -0.30961895 -0.24516366 -0.3829874 -0.06875372

weight f4 [1, 2]
000000 20 98 ee be ad 87 08 bf
       -0.46600437 -0.53332025

weight f4 [2, 2]
000000 8f 29 9d 3f f1 4d b5 bf 21 3e ea 3e f0 92 59 bf
       1.2278308 -1.4164411 0.45750526 -0.84989834

bias f4 [2]
000000 a2 84 72 bf fd 14 26 3f
       -0.9473363 0.64875776

weight f4 [2, 2]
000000 5e 40 6e be c0 76 34 3e 57 6b 84 bf 46 31 92 3e
       -0.23266742 0.17623425 -1.0345258 0.28553218

weight f4 [1, 2]
000000 5f 28 80 be f6 64 ad 3e
       -0.250308 0.3386609

weight f4 [2, 2]
000000 d3 38 8b be ea 3e ce be a4 0d 95 3e a1 65 3b 3f
       -0.2719179 -0.40282375 0.2911197 0.7320195

bias f4 [2]
000000 bb 3f 3b bf 5e 1a 23 bf
       -0.7314412 -0.6371211

weight f4 [2, 2]
000000 75 ec 47 30 4e 94 6e 2f c5 ee 20 3e 6d 7e 3d bf
       7.2731804e-10 2.1698662e-10 0.15716083 -0.74021035

weight f4 [1, 2]
000000 ca 42 f4 be 30 52 70 3d
       -0.47707206 0.05867213

weight f4 [2, 2]
000000 2b c9 f3 3f d7 06 39 bd f9 93 03 c0 43 f3 2d be
       1.9045767 -0.04517254 -2.0559065 -0.16987328

bias f4 [2]
000000 59 6f 46 bd ca 4f 13 bd
       -0.048446033 -0.035964765

weight f4 [2, 2]
000000 91 65 ac bf 92 af 77 bf 03 dd d4 be 54 48 a5 3e
       -1.3468496 -0.96752274 -0.4157487 0.32281744

weight f4 [1, 2]
000000 20 47 a4 bd e0 1c d9 3c
       -0.080213785 0.026503026

weight f4 [2, 2]
000000 61 30 43 bf 0a 04 01 40 0f e7 8c 3e d8 8a e7 bf
       -0.76245695 2.0158715 0.27520034 -1.8089247

bias f4 [2]
000000 fd b2 b8 3d 29 2a 81 be
       0.09018514 -0.25227478

weight f4 [2, 2]
000000 4e 93 c3 bf c9 02 13 bf 7b f2 fe be e3 14 01 3f
       -1.5279329 -0.57426125 -0.49794373 0.50422496

weight f4 [1, 2]
000000 2c 77 95 be 66 74 e6 3e
       -0.29192483 0.4501068

weight f4 [2, 2]
000000 27 4d 28 3f b0 dc 54 3f 2a 74 66 3e ed 70 f0 be
       0.65742725 0.8314924 0.2250525 -0.46961156

bias f4 [2]
000000 25 fe 0a 3f 16 06 cf 3e
       0.54294044 0.4043433

weight f4 [2, 2]
000000 bf 7f 6d 3e 05 6b 13 3f cd a1 6a be 50 7e aa 3b
       0.23193263 0.57585174 -0.22913285 0.005203046

weight f4 [1, 2]
000000 80 e3 f2 3b fd 71 9e be
       0.007412374 -0.3094634

weight f4 [2, 2]
000000 8a 56 27 bb 47 14 21 3f 46 4c 7c bf bd 4d 5d bf
       -0.002553376 0.62921566 -0.98553884 -0.86446744

bias f4 [2]
000000 25 15 24 bf d7 09 55 bb
       -0.64094764 -0.0032507086

weight f4 [2, 2]
000000 29 f6 b5 3e b6 b7 76 be 5f 56 29 3f 94 50 1a bf
       0.35539368 -0.24093518 0.66147417 -0.602792

weight f4 [1, 2]
000000 44 36 46 3e 0f 6f a4 be
       0.19356638 -0.3211598

weight f4 [2, 2]
000000 80 65 22 3f f6 9a 70 3d 30 c8 4a bf 9d 25 6e bf
       0.63436127 0.058741532 -0.7921171 -0.93026143

bias f4 [2]
000000 47 1e 06 3f 5e 34 b0 be
       0.5238995 -0.34414953

weight f4 [2, 2]
000000 32 c3 35 bf f1 fb 10 bf a1 7c 13 3f 51 c1 7e 3f
       -0.7100097 -0.5663443 0.57612044 0.9951373

weight f4 [1, 2]
000000 db d1 0d 3f 44 da 2f be
       0.5539834 -0.17173105

weight f4 [2, 2]
000000 a4 0f 17 3f 9f 3b 17 3e 6a b5 4f bd f7 f5 16 bf
       0.5900824 0.14768837 -0.05071012 -0.5896906

bias f4 [2]
000000 c3 3b 7c be a1 55 47 3f
       -0.24632172 0.77865034

weight f4 [2, 2]
000000 7f 32 87 3e 6c 10 ac 3e ab e7 4a 3f 02 43 fb 3e
       0.26405713 0.3360628 0.7925975 0.4907456

weight f4 [1, 2]
000000 a0 18 88 bc 8c 38 1f be
       -0.016613305 -0.15548915

weight f4 [2, 2]
000000 91 28 1c bf 72 61 c3 3e 0e cc e3 be 4d 67 1e bf
       -0.609994 0.38160282 -0.4449162 -0.61876374

bias f4 [2]
000000 4b ef 20 bc 1e 88 03 be
       -0.009822677 -0.12844893

weight f4 [2, 2]
000000 86 a3 e9 3e 71 05 25 be bb 4e 82 3f 2d db c6 3f
       0.4563257 -0.16115357 1.0180277 1.5535637

weight f4 [1, 2]
000000 d6 41 bd 3e 38 60 c2 bd
       0.3696429 -0.094910085

weight f4 [2, 2]
000000 f3 44 dc be 26 0d 4d 3f 5c b2 13 bf 9c 05 51 3f
       -0.43021354 0.8009819 -0.5769403 0.81649184

bias f4 [2]
000000 21 c7 26 bf a7 25 77 bf
       -0.65147597 -0.9654183

weight f4 [2, 2]
000000 54 1c 33 3f 70 7f 37 3f e8 02 a3 be 9e f9 fd be
       0.699651 0.7167883 -0.31838155 -0.49604505

weight f4 [1, 2]
000000 b8 e6 1b 3e 98 15 88 3e
       0.15224731 0.26578975

weight f4 [2, 2]
000000 fc aa 0f bf e9 95 c1 3f a1 67 85 bf e4 b3 5c 3f
       -0.56120276 1.5123874 -1.042225 0.8621199

bias f4 [2]
000000 1a 5f e4 bd af 83 ed bd
       -0.11150952 -0.11597382

weight f4 [2, 2]
000000 f2 53 22 3f 89 de 8f 3f 65 79 b2 bf f8 7b 25 bf
       0.6340934 1.1239787 -1.3943297 -0.64642286

weight f4 [1, 2]
000000 80 31 bd be 08 f5 74 be
       -0.36951828 -0.23921597

weight f4 [2, 2]
000000 5d 84 0d bf 44 66 d9 bd 23 9b 12 3e 18 18 a6 3b
       -0.55280095 -0.10615209 0.14316992 0.00506879

bias f4 [2]
000000 8b 91 6d bf 6e f0 b4 3e
       -0.92800206 0.35339683

weight f4 [2, 2]
000000 83 2a 0c be 99 be fe 3d 30 ac fb be 3c 41 23 be
       -0.13688092 0.12438697 -0.49154806 -0.15942854

weight f4 [1, 2]
000000 10 88 80 bd 46 82 c7 3e
       -0.06275952 0.38966578

weight f4 [2, 2]
000000 e6 a5 b2 be 58 8c 9b 3e c3 98 8a 3e 57 86 d0 3e
       -0.34892195 0.3038051 0.27069673 0.40727493

bias f4 [2]
000000 8e b0 de 3e 72 77 c6 be
       0.43494076 -0.38763005

weight f4 [2, 2]
000000 d0 0c 80 3e 21 c8 df bc 64 94 fe bc 44 23 b8 bf
       0.25009775 -0.027317109 -0.031076618 -1.4385762

weight f4 [1, 2]
000000 d8 69 a4 be 64 bf 92 3e
       -0.32112002 0.28661644

weight f4 [2, 2]
000000 ba 4b 6d bd 3b e8 21 bf ac b7 29 3e e0 8d 39 bf
       -0.057933547 -0.6324498 0.16573972 -0.7248211

bias f4 [2]
000000 16 43 21 bf 5f da 39 bf
       -0.6299299 -0.7259883

weight f4 [2, 2]
000000 6a 6a 9c 3e ca e7 d9 3d 8d 77 de 3e 61 6a 92 3d
       0.30549937 0.106399134 0.43450585 0.071491964

weight f4 [1, 2]
000000 62 f4 b9 3e 20 40 d2 3c
       0.36319262 0.025665343

weight f4 [2, 2]
000000 15 38 f7 3e 64 da 3b bf d6 c8 72 be cd 66 5f be
       0.48284975 -0.7338011 -0.23709425 -0.21816559

bias f4 [2]
000000 49 9e 19 bf 0c 8a 50 3f
       -0.6000715 0.8146064

weight f4 [2, 2]
000000 be 85 60 3d 5b 13 80 3e 76 5e cc 3d 90 e0 b3 3c
       0.054815046 0.25014767 0.099789545 0.021957666

weight f4 [1, 2]
000000 ec 05 25 bf 28 46 bc 3d
       -0.6446216 0.09193069

weight f4 [2, 2]
000000 8d 16 13 3d e7 3a 18 3e 0a c0 ea bd 13 fd 9f be
       0.035910178 0.1486622 -0.1146241 -0.31247768

bias f4 [2]
000000 64 b7 34 3f 78 2b e8 be
       0.7059233 -0.45345664

weight f4 [2, 2]
000000 8d 4c 1b bf 20 88 15 bf 9e 76 61 3e 32 97 87 3e
       -0.6066368 -0.58410835 0.22017905 0.2648254

weight f4 [1, 2]
000000 fb 42 2b 3f 80 f4 c1 bb
       0.6689908 -0.0059190392

weight f4 [2, 2]
000000 aa c5 32 3c 2a 30 27 3f b7 d7 b2 3d 7c f4 0c bf
       0.010911385 0.6530787 0.087325506 -0.55060554

bias f4 [2]
000000 a6 58 55 bc 2e a3 4f 3f
       -0.013021624 0.8110837

weight f4 [2, 2]
000000 cc 76 12 3f 6e 96 9d 3e af 85 61 bf c1 76 0b bf
       0.5721252 0.3077883 -0.8809461 -0.5447808

weight f4 [1, 2]
000000 08 06 97 3d e7 89 2c 3f
       0.07374197 0.6739792

weight f4 [2, 2]
000000 79 60 84 3e 20 c5 a3 bf 6b 14 0c bf b0 ee 18 3f
       0.25854853 -1.2794533 -0.54718655 0.5973921

bias f4 [2]
000000 c5 b6 5b 3e f8 ef 51 bf
       0.2145644 -0.8200679

weight f4 [2, 2]
000000 58 8c a3 3f b7 f7 38 3e 22 1b be 3f 7b b4 6e 3e
       1.2777205 0.18063246 1.485203 0.23311035

weight f4 [1, 2]
000000 c6 05 e4 be 06 fd d5 3e
       -0.44535655 0.41794604

weight f4 [2, 2]
000000 5b 94 5c 3f f2 11 75 bf f3 54 be 3e 2a e2 ac 3f
       0.8616387 -0.9573051 0.37174186 1.350652

bias f4 [2]
000000 69 6f 06 bf 7f 05 ba 3e
       -0.5251375 0.36332318

weight f4 [2, 2]
000000 67 ca 30 bf a2 61 ad bd d7 e2 aa be 22 9f 1f bf
       -0.6905884 -0.084658876 -0.3337619 -0.6235219

weight f4 [1, 2]
000000 87 1e f6 be 24 a0 1e bf
       -0.48070166 -0.61963105

weight f4 [32, 2]
000000 eb 9c 98 be bf 3f 70 3f 23 df 31 3e ca 73 73 bf
       -0.2980722 0.9384727 0.17370276 -0.95098555
000010 d8 97 b2 be 3f dc 40 bf f8 07 a3 3f ef 38 25 3e
       -0.34881473 -0.7533607 1.2736807 0.16135
000020 2a be 4e bf 1d 66 c0 3f 97 34 03 c0 b0 a1 37 bf
       -0.8075892 1.5031163 -2.0500848 -0.7173109
000030 1c 64 be bf 30 95 9f 3f 8f 3c 4c bf 22 0f 14 3e
       -1.4874301 1.2467403 -0.79779905 0.14458898
000040 46 18 b7 bf 9a cd 7d 3f 25 88 13 c0 5e a0 ae be
       -1.4304283 0.9914185 -2.3051846 -0.34106725
000050 1e dd 8c bf ae 8f d3 be 9f d2 f1 bf 59 2d e8 3e
       -1.100498 -0.41320556 -1.8892401 0.45347098
000060 4c 12 ec bf 29 40 72 3e 65 b8 cc bf 52 b3 56 3f
       -1.8443084 0.23657288 -1.5993773 0.8386737
000070 00 03 04 40 dc 5f 67 bf b0 24 15 bf a1 af d6 3f
       2.062683 -0.90380645 -0.58259106 1.6772348
000080 8b c6 dc be 07 44 9e 3f 48 39 b2 3e ea 38 0e 40
       -0.43120226 1.236451 0.34809327 2.2222238
000090 2c f6 58 be 87 2a 85 3f 43 5b d1 3e ed e2 ae 3f
       -0.21187657 1.0403603 0.4088994 1.3663002
0000a0 78 ef 39 bf b1 fa 27 bf f4 a5 ff 3e 18 2c 90 3f
       -0.72631025 -0.656169 0.499313 1.1263456
0000b0 21 7e 7d bf 2d 7c 65 bf 3e 47 77 3f 44 82 9f bc
       -0.9902058 -0.896426 0.9659308 -0.019471295
0000c0 f8 60 a5 bf 09 dc 69 3e 42 0b c7 3e 0c ef 0e 3f
       -1.2920218 0.22837843 0.38875777 0.55833507
0000d0 0b 6e 3d be 29 24 d7 3f 6e bd 8b 3f a4 ab a9 be
       -0.1849901 1.680791 1.0917184 -0.33138764
0000e0 b0 f8 93 3f 18 ae 89 3f c5 da 40 bf 63 a0 9c 3e
       1.1560268 1.0756254 -0.75333816 0.30591115
0000f0 a5 69 af 3f f0 bb b3 3e ae 25 12 40 18 f2 ff be
       1.3704115 0.35104322 2.2835498 -0.4998939

bias f4 [32]
000000 1c d8 24 3f 4c 21 07 bf af 47 25 3f 59 05 cc 3e
       0.64392257 -0.5278518 0.64562505 0.3984783
000010 fa 4d 44 be 0b 84 f7 be 12 ba d7 be ea 1a 9c be
       -0.1917037 -0.48342928 -0.42134148 -0.30489284
000020 6c 77 d4 be b5 c3 79 be ad 8d d9 3e 9f af 26 3f
       -0.41497362 -0.24391063 0.42490903 0.65111727
000030 01 fd 89 bd ef 3d fd 3e e9 5c 33 bf b7 c3 62 be
       -0.0673771 0.49461314 -0.70063645 -0.22144972
000040 b2 4f 36 3b c8 2a ea bd 88 42 f2 3d 00 f9 28 be
       0.0027818498 -0.11433941 0.11829096 -0.16501236
000050 c7 8c ab 3e 9c 37 e0 3e 9c f0 2d 3e e2 8a 7c 3e
       0.33505842 0.43792427 0.16986316 0.24662355
000060 49 cd 61 be 2e 8c 83 3e eb e4 1f be 86 40 65 bd
       -0.22050966 0.25692886 -0.15614669 -0.055969737
000070 05 4b e8 3e d0 fa 90 be 4f 5f e0 3d 41 de 74 be
       0.45369735 -0.28316355 0.10955679 -0.23912908

weight f4 [32, 32]
000000 95 a2 7a 3d 28 ad 85 3c e8 6c 46 3e 1b 10 54 3e
       0.061190207 0.016317919 0.19377482 0.20709269
000010 2b 65 2c be c5 12 1a be e5 4e 92 be e7 c3 1f be
       -0.16835468 -0.15046223 -0.28575817 -0.15602075
000020 f1 a0 ac bc c6 35 38 be 5b cd 07 be 03 be 38 be
       -0.021072837 -0.17989263 -0.1326193 -0.18041234
000030 05 46 48 be 9a a0 5e be 7d 91 0b 3e 9e 05 1a be
       -0.1955796 -0.21740952 0.13629718 -0.15041205
000040 d8 63 9c bd 23 15 3e 3d 02 33 2f be 49 6c bf bc
       -0.07636231 0.046406876 -0.17109302 -0.023367064
000050 80 81 80 bc c2 5d 19 3e 9d 51 1a 3d fb 39 e1 3d
       -0.01568675 0.14977172 0.03767549 0.10997387
000060 f9 04 62 3d a1 33 8c 3e dd 2a 10 bc da 4f 26 3e
       0.055180524 0.2738314 -0.008799282 0.16241398
000070 fa 58 2e 3d 7c 1e b8 bd 63 5b 68 3e b5 9e c6 3e
       0.042565323 -0.089901894 0.22691111 0.3879296
000080 44 44 ba be b2 02 31 bd 13 4a 39 3e 47 60 ac 3d
       -0.36380208 -0.04321546 0.18094663 0.08416801
000090 ea 66 45 be 76 35 89 be 13 34 83 be 9c e4 90 bd
       -0.1927754 -0.267986 -0.25625667 -0.07074854
0000a0 3c 7d 7d bd 9e 2a f4 bc 43 63 b8 bd a7 a5 f1 be
       -0.06188701 -0.029805478 -0.09003308 -0.47196695
0000b0 db 73 5a be e0 d9 3d bf 10 bd db bc 77 24 d5 3b
       -0.21333258 -0.74160576 -0.02682355 0.006504591
0000c0 10 34 29 bf af 3d 2d be f5 8b 2a bf 5d aa 0c be
       -0.66095066 -0.16918062 -0.6661981 -0.13736863
0000d0 ba d8 0d be 29 3d 40 be 78 47 ed bc ee f8 a0 3d
       -0.13852206 -0.18773331 -0.028964743 0.078599796
0000e0 78 eb 85 be d7 27 57 be 2d 8a aa be d1 83 9e 3e
       -0.2615621 -0.21011291 -0.33308545 0.30959943
0000f0 9f 3e 53 be c0 9f 65 be 8c a4 28 3d c8 ec d6 3e
       -0.20629357 -0.22424221 0.04117255 0.41977525
000100 88 7e ef 3e a6 8d 24 bf 15 da 05 3e ba bd bd 3d
       0.46776223 -0.6427864 0.13071473 0.09264703
000110 10 01 86 bc b8 74 d3 be 3c 2e 96 bd 6e 61 52 be
       -0.016357929 -0.41299987 -0.07333037 -0.20544979
000120 83 a1 98 be 6f ec 6a be 68 1e 01 3e 78 a2 09 3f
       -0.29810724 -0.22941755 0.12609255 0.5376353
000130 50 9d a9 3d 9c 86 1f 3f 6e c6 2f bf e8 86 ae bd
       0.08281958 0.6231477 -0.68662155 -0.08521825
000140 19 3d c4 3e a1 25 16 3e 95 fc ef 3e 8a 85 c9 bd
       0.38327864 0.14662792 0.46872392 -0.09839924
000150 f1 3a 11 3e b1 3c dc 3e b4 93 12 bd 33 82 0c 3e
       0.1418264 0.43015054 -0.035785392 0.13721542
000160 b9 f6 fc 3c 0d 63 87 3e 70 55 4b be 8d 58 15 be
       0.030879365 0.26442757 -0.1985681 -0.1458456
000170 0d 66 c7 3e ac 85 e2 bd 3c 8e 9e bc 8b f8 fb be
       0.38945046 -0.11060652 -0.019354932 -0.4921306
000180 a8 d0 46 3e 46 be a1 be bc 32 92 3e 13 2c b6 be
       0.19415534 -0.3159048 0.28554332 -0.355805
000190 57 cc 91 be ef f8 3d 3e 02 f0 84 be 8b 87 65 3d
       -0.2847621 0.18551992 -0.2596436 0.056037467
0001a0 8b 4f 19 be 68 a8 fe 3e 22 4f 24 3f 0d 61 23 3f
       -0.1497175 0.4973786 0.6418325 0.6381996
0001b0 f4 ef 0f 3f 3f c2 c1 3e 95 a8 47 bf 8c f9 f7 be
       0.56225514 0.3784351 -0.7799161 -0.48432577
0001c0 79 20 e4 be 1a 92 3d bf 8d c6 c1 be ff 24 26 bf
       -0.44556025 -0.7405106 -0.37846795 -0.649002
0001d0 eb 4f 08 3f 73 dc b8 be 82 4f 1a 3f 65 4a fe bd
       0.53246945 -0.3610569 0.6027757 -0.124165334
0001e0 03 93 56 3e 52 40 89 be 2d 08 fd be c5 d9 9d be
       0.20954518 -0.26806885 -0.494203 -0.30830207
0001f0 aa b2 03 bf 9f 0d 8f 3c 90 e1 80 bf b6 5f 9a bf
       -0.51444495 0.01746255 -1.0068836 -1.2060459
000200 7a 06 c2 be 2e 9c ab 3e 38 76 dc 3d 6b 67 07 3e
       -0.37895566 0.33517593 0.10764736 0.13223045
000210 61 db af be 98 28 10 be e6 f0 f9 bd 9e 9e 4c bd
       -0.3434706 -0.14077985 -0.12204151 -0.049955957
000220 30 ec 88 3b 72 07 2a bf b0 c8 b3 be 69 b0 82 bf
       0.0041785464 -0.6641761 -0.3511405 -1.0210086
000230 42 86 d7 be cf 97 c3 bf 2b 7f 72 3f e1 ea 29 be
       -0.42094618 -1.5280703 0.9472529 -0.16593505
000240 07 83 aa be a7 27 cf 3d a9 43 f8 be 8b a9 4b bd
       -0.3330309 0.10114985 -0.4848912 -0.049722236
000250 7e c8 8e be 16 b9 ec 3c 96 d2 1d be 03 ce c5 3e
       -0.27887338 0.02889685 -0.15412363 0.38633737
000260 c9 f7 64 bd 32 bc 3d 3e 24 6c 69 3c cf d7 42 3f
       -0.05590037 0.18528822 0.014246974 0.7611055
000270 1b 5a 88 3e a9 ca 1d be fc a3 65 3f 9a b6 dc 3f
       0.26631245 -0.1540934 0.89703345 1.7243226
000280 d2 2b 20 3e 36 c8 ce be 13 4b 39 3e 36 17 11 bf
       0.15641716 -0.40387124 0.18095045 -0.5667604
000290 26 a9 aa 3d 30 49 82 3f fd c3 b8 3d 90 fc 74 3d
       0.08333044 1.0178585 0.09021757 0.059811175
0002a0 7d 85 04 3d 13 82 c3 3f ec 51 3b 3f 4b 6f 5b 3f
       0.032353867 1.527407 0.7317188 0.85716695
0002b0 50 d5 65 3f d5 df 93 3f 3b 87 3d bf dc 9a a2 bc
       0.89778614 1.1552683 -0.7403447 -0.019849233
0002c0 b1 8e c7 3e 9f f7 f8 bd 5e 24 44 3e a2 40 72 be
       0.38976052 -0.12156605 0.19154498 -0.23657468
0002d0 d3 54 42 3e 9f 0e 26 bf 73 bf ec 3e e0 83 ff be
       0.1897767 -0.6486606 0.46239814 -0.499053
0002e0 02 58 c0 3e 1f f8 47 be f9 5e 56 3d 81 c5 4f bf
       0.37567145 -0.19528244 0.052336667 -0.8116074
0002f0 8e 43 99 bf 58 73 2a 3e 9a 99 fd bf a2 b6 e8 bf
       -1.1973741 0.16645563 -1.98125 -1.8180735
000300 61 96 9d 3e d5 31 4d be 36 29 20 be c0 0b 71 3c
       0.30778793 -0.2003854 -0.1564072 0.014712274
000310 e0 8c b6 3e 52 9a 22 be f3 79 a8 3d a8 cf 04 3c
       0.35654354 -0.15879181 0.08226385 0.00810615
000320 0a 47 63 3e 4a ed 98 be 1f c2 91 be 44 0f 58 bd
       0.22195068 -0.29868537 -0.28468415 -0.052748933
000330 35 5e 31 be 39 b5 6b 3e 3b 42 2b 3e b9 8f b4 3e
       -0.17321093 0.2301835 0.16724484 0.35265902
000340 59 72 bb 3e a3 a7 fb 3e c2 1e 10 3f 6b ce 2d 3e
       0.36610678 0.49151334 0.5629693 0.16973273
000350 30 e4 91 be 82 f1 9b 3e 36 bb a0 be da 34 b5 bd
       -0.28494406 0.30457693 -0.3139283 -0.08847971
000360 cd 1a 1f 3c 35 14 a0 3e 1c 3a e8 3e a8 fa 03 3e
       0.00971098 0.31265417 0.45356834 0.12888587
000370 fd 21 d5 3e d6 9f 16 3e e5 cc 0e 3f 01 4b bf 3e
       0.41627494 0.1470941 0.55781394 0.3736191
000380 fc 71 b1 bc 55 67 ab bc 49 9b 07 3e 10 1f cd bc
       -0.021660797 -0.020923296 0.1324283 -0.025039226
000390 bc f5 ae 3d 2c cf 70 3e 6d 2d 1c bd a2 c2 60 3a
       0.08542964 0.2351653 -0.03812926 0.00085739244
0003a0 51 6a 50 3e 47 b8 66 3e f3 0e 2a 3e 41 ed 87 3e
       0.20353056 0.22531234 0.16607265 0.26548198
0003b0 18 40 06 3e ea 9e 83 3b ab a2 8d be c6 ce 9f 3c
       0.13110387 0.0040167468 -0.27663168 0.019507777
0003c0 d1 f2 a2 be bb fb 3e be e3 11 50 be d0 08 15 3e
       -0.3182588 -0.18650715 -0.20319323 0.14554143
0003d0 c0 21 64 3e 23 ee 86 be 46 ea a9 3e ed fe 18 3d
       0.222785 -0.2635356 0.3318655 0.03735249
0003e0 90 09 0a 3e 2e 76 0a 3e 48 72 17 be d7 70 54 bc
       0.1348021 0.13521644 -0.14789689 -0.012966356
0003f0 9b 03 cc bd 7c d8 28 3e 18 55 01 bf 3a cd 10 bd
       -0.09961625 0.16488832 -0.5052047 -0.03535197

bias f4 [32]
000000 7b bf a6 3d 8e 78 15 be af 7b 02 3e ec 3a 59 3d
       0.08141991 -0.14596769 0.12742494 0.053034708
000010 48 d3 c0 bd bf 9f 77 3d 29 46 16 be 72 4c 05 bd
       -0.09415299 0.06045508 -0.14675201 -0.032543607
000020 47 70 1e bd b8 05 a9 be ce 99 ab bd 7d d4 00 be
       -0.038681295 -0.33012176 -0.08378945 -0.12581058
000030 60 9c e1 bc 26 4b 7a 3d 52 db 15 3e f1 99 ad 3e
       -0.027540386 0.061106823 0.14634445 0.3390651
000040 75 4b 00 3e 48 e8 01 3e 55 47 30 be 84 5f 4f 3e
       0.12528785 0.12686265 -0.17214711 0.2025128
000050 f0 7b 9a be a7 e5 f0 3c a3 de b1 be 94 d7 79 3e
       -0.30172682 0.029406382 -0.3474017 0.24398643
000060 ac e5 df bd 4a 6f 1e 3e 79 3a af 3d 6b ac 0b 3d
       -0.10932478 0.15472141 0.08556075 0.034099977
000070 b8 bc c9 be 1d 00 20 bd 65 2f b5 bd 9f 5e e6 3d
       -0.39401793 -0.039062608 -0.088469304 0.11248516

weight f4 [32, 32]
000000 11 42 87 3d aa 79 1d 3e 62 c1 5c 3b 94 f4 ff bd
       0.06604398 0.15378442 0.00336846 -0.124978215
000010 9b b4 4d 3e 93 0a 3b 3e dc bd 84 3d d0 59 1d 3e
       0.20088427 0.18265752 0.06481525 0.15366292
000020 06 2e a1 3d 18 aa ae bd 5c f6 0c bd c6 a6 86 3d
       0.078701064 -0.085285366 -0.034414634 0.06574778
000030 93 24 b6 bd 32 62 f0 3d d2 90 a3 3d bd 27 0b be
       -0.08893695 0.11737479 0.07986607 -0.13589378
000040 6a 48 22 3e 11 fc 0d be 85 6b 07 be 0a 89 d9 bd
       0.15847936 -0.13865687 -0.13224609 -0.10621841
000050 72 83 92 3c 7e c1 ed 3c 00 77 fc bc e4 d7 2c be
       0.017884944 0.029022928 -0.030818462 -0.1687923
000060 6d 86 59 bd 4a ae c9 3c 80 11 1b be da 3d f8 bb
       -0.053106714 0.02461924 -0.15143394 -0.0075757327
000070 35 85 a4 3d 3d ef 3d 3d 3a b7 22 be db 28 52 3c
       0.0803322 0.046370734 -0.15890208 0.0128271235
000080 3e 13 ad be 77 5c 2a bf c6 a5 16 be d2 96 32 3e
       -0.33803743 -0.6654734 -0.14711675 0.17440346
000090 fd 83 0f bf 1c f8 dd bd 58 6e 96 3d 88 20 81 be
       -0.56060773 -0.10838339 0.07345265 -0.25220132
0000a0 ef 60 52 3a 7c 4b dd bd 21 15 0c bf 1b da f9 be
       0.00080253085 -0.10805413 -0.5471974 -0.48799214
0000b0 f1 e8 13 bf 59 24 a4 be bf 5b e3 bf b4 c8 46 3e
       -0.57777315 -0.3205898 -1.7762374 0.194125
0000c0 1f 42 32 be ed b1 c6 3e 86 c6 73 3d 1d e3 50 be
       -0.17408036 0.38807622 0.0595155 -0.20399137
0000d0 a8 fe 1b 3e a1 e4 5a bf 6a b2 14 be 08 9b 6a be
       0.15233862 -0.8550511 -0.14521185 -0.22910702
0000e0 8c 3e 03 bf 0e 8b b8 bf 0c 28 93 3d 5d d5 43 be
       -0.51267314 -1.4417436 0.07185373 -0.1912436
0000f0 b8 4d 27 3f 18 f6 2e 3e 8f 12 6b 3d e5 38 5e 3e
       0.65352964 0.17086065 0.057390746 0.21701391
000100 8b da e6 bd f1 f2 21 be 5e 4f 82 3e b7 b0 09 3d
       -0.112721525 -0.15815331 0.25451177 0.033615794
000110 ca 18 25 bf 96 f6 ce be 2a 53 d8 3e ce 6f 82 bc
       -0.6449095 -0.40422505 0.4225095 -0.015922453
000120 6a 74 c1 3c 22 cd 45 be 1b ac cb bc d7 84 53 3d
       0.02361508 -0.19316533 -0.02486234 0.051640358
000130 a8 52 34 3e 87 ee 31 be 5b 4c a6 bd 67 f5 e4 3e
       0.17609656 -0.17376147 -0.081200324 0.44718477
000140 4c 10 e9 bc 9b 77 04 3e 3e ea ee bd ab 8b 89 3d
       -0.028450154 0.12936251 -0.11665772 0.06716093
000150 a4 d4 a1 be 46 af 96 bd 74 9e e7 bd 00 9e 8e 3e
       -0.31607544 -0.073576495 -0.113095194 0.2785492
000160 73 23 06 be 47 36 01 be 39 8c e4 3d 62 6f 96 bd
       -0.1309946 -0.12618361 0.11159558 -0.07345463
000170 30 98 cd be d1 e8 8f 3e 8a e3 83 3d 47 a9 c3 be
       -0.40155172 0.28107312 0.06439884 -0.38215086
000180 a4 29 09 bf f3 27 f1 be a4 d2 77 bd 4d a0 ac be
       -0.53579164 -0.4710079 -0.060503617 -0.3371605
000190 bf 6c 02 bf 4e e9 80 3e 75 b7 9b 3e 0a ac 06 bf
       -0.50947183 0.25177997 0.30413404 -0.5260626
0001a0 e1 4e 9d be 88 0a db 3d 10 61 55 3e 46 d4 02 bf
       -0.30724242 0.10695368 0.20837808 -0.51105154
0001b0 6c 03 77 3e f2 10 54 bf 94 1d ed bf 84 47 25 3e
       0.24122399 -0.82838356 -1.8524652 0.16140562
0001c0 14 4f 1c bf 3e 15 c9 bd 49 e8 29 3e 16 4a 6f bd
       -0.61058164 -0.09818505 0.16592516 -0.058420263
0001d0 4e 2c aa 3e 26 63 16 bf b5 b4 86 3e 8e d9 68 be
       0.33236927 -0.5874504 0.26309744 -0.2273924
0001e0 e7 ab c5 be c9 05 93 bf 0c 47 14 bf 17 a2 36 bf
       -0.38607714 -1.148614 -0.5792091 -0.7134108
0001f0 8f a3 86 3f 96 05 20 3e 97 73 96 3e 31 87 92 be
       1.0518664 0.15627131 0.29385063 -0.28618768
000200 c7 da 7c be fb 6d 59 bf 74 77 15 3e 5d b8 30 3e
       -0.24692832 -0.8493344 0.14596349 0.17257829
000210 43 66 40 bf 88 b4 6e 3f 44 30 23 be 5a db 30 be
       -0.7515604 0.9324422 -0.1593638 -0.17271176
000220 7b 36 2b be 34 90 93 bd 44 d8 c0 be af f4 15 bf
       -0.16720001 -0.07205239 -0.37664998 -0.5857648
000230 de 71 29 be fe c9 fc be d2 d6 d9 bf eb a6 90 3e
       -0.16547343 -0.49372858 -1.7018683 0.28252348
000240 a0 ea 3c bd 4b 08 bb 3e a6 84 69 3e f0 e8 c5 3d
       -0.046122193 0.36529765 0.22804508 0.0966357
000250 bf aa ff 3d 4a 0f 2d bf 40 80 d3 3d 97 15 03 be
       0.12483739 -0.67601454 0.10327196 -0.12801205
000260 16 5c 65 bf 47 3e 78 bf 9f f4 a3 be 2c 0e 25 be
       -0.89593637 -0.9697003 -0.3202257 -0.16118687
000270 62 a7 80 3c 8d 3e 59 bc 97 7c d8 bd b7 ed 47 be
       0.015704814 -0.013259542 -0.105706386 -0.19524275
000280 d3 0c 24 be 2e 55 3b bd 53 71 46 3d 06 73 06 bb
       -0.16020517 -0.04573553 0.04844792 -0.0020515337
000290 92 35 bd 3c c5 ea 3a bf 61 26 9a 3c 25 7a 0c be
       0.023096833 -0.7301448 0.018817129 -0.1371847
0002a0 c6 5d 94 3d 88 a1 e2 bd 3c 6c 96 be c9 8d a1 bd
       0.07244448 -0.11065966 -0.2937945 -0.078883715
0002b0 c1 b7 a1 be f2 21 84 bc ab 4b 57 be 6f 3a 37 3d
       -0.31585506 -0.016129468 -0.21024959 0.04473346
0002c0 f4 28 85 3d 95 84 99 bd 5b 12 ac bd d1 ff 43 3e
       0.06501952 -0.07495991 -0.084019385 0.19140555
0002d0 0e cd 49 bd 69 70 72 3d 1b e9 a7 bd 1b 8f 99 3d
       -0.04926782 0.059189234 -0.08198758 0.07497998
0002e0 4d 44 9e 3d 30 62 6d bd 75 95 df 3c 30 c0 1c 3d
       0.07727871 -0.057954967 0.027292946 0.03826922
0002f0 de ec 86 3d 98 d3 26 be b5 04 c1 3c f4 ac 12 be
       0.065881476 -0.16291654 0.023561815 -0.14323789
000300 80 0d 97 3d da ca b1 bc d3 05 ca bd 3a f6 32 bc
       0.07375622 -0.021703172 -0.09864392 -0.010922963
000310 fe d3 4e bd 4d 91 92 be 2f c7 5a be e1 36 3c 3d
       -0.05049514 -0.2862648 -0.21365045 0.045950774
000320 fd 88 e9 bc 75 7c e0 bc 07 aa 4c be ca bf 49 3e
       -0.028507704 -0.027403096 -0.19986735 0.19702068
000330 4c 04 ec bd e1 a9 dd 3d 04 49 a6 bd 93 f0 b1 bd
       -0.11524257 0.108234175 -0.081193954 -0.08688464
000340 22 d6 4e bd be 7b 34 be ba 14 b6 bd a5 bd 66 be
       -0.05049718 -0.17625329 -0.08890672 -0.22533281
000350 40 0c b9 3d aa 25 fb 3d ba 1b 0e 3e d5 5e f5 bd
       0.090355396 0.12263043 0.13877764 -0.119809784
000360 56 f8 81 3e b6 be 3a 3e b1 77 91 3d 32 c7 94 3d
       0.25384778 0.18236813 0.071029074 0.07264556
000370 75 a2 02 be ed 84 a7 3d df 72 c8 3d 2b c7 dd 3d
       -0.12757285 0.081796505 0.09787535 0.10829004
000380 56 a1 2c bf 4f 85 35 bf 31 c8 a5 bd ba a0 4c 3f
       -0.6743368 -0.7090654 -0.08094824 0.7993275
000390 8c 17 65 bf 05 87 1d be d4 e7 63 be 45 77 69 3e
       -0.89489055 -0.15383537 -0.22256404 0.22799404
0003a0 33 36 3d bf 38 2e 08 3e 08 5b 5d be ed 71 8a bd
       -0.73910826 0.13298881 -0.21616757 -0.06760011
0003b0 4d f5 b3 bf c4 89 32 bf 58 4a 4b bf af b1 8e 3e
       -1.4059235 -0.69741464 -0.79410315 0.27869937
0003c0 90 7f 2a bf ef ee 26 3e e5 d1 9d 3d dc 45 0c bd
       -0.66600895 0.16302083 0.0770605 -0.03424631
0003d0 82 21 81 3d a0 c9 22 bf 37 6b 99 bd 07 27 7b 3d
       0.06305219 -0.63588905 -0.07491153 0.061316516
0003e0 08 82 39 bf 5f 7b 01 bf 1e d1 1c be f4 0b c7 be
       -0.72464037 -0.50578874 -0.15314147 -0.38876307
0003f0 f7 6d 8d be db 8c 21 3c db d5 6a 3c 06 0c d0 3e
       -0.2762296 0.009860243 0.014333214 0.40634173

bias f4 [32]
000000 45 92 77 3e 00 f8 d0 bd 8e da ec 3e 47 95 67 be
       0.24176891 -0.10203552 0.46260494 -0.22615539
000010 83 4e e9 bd a0 21 e0 bd 1f 6f 3d 3d a7 06 5f 3d
       -0.11391928 -0.109439135 0.04624855 0.054449704
000020 d7 73 05 bd b0 6c c8 3e 76 0d 19 bd fd 32 fd 3d
       -0.032581177 0.39145422 -0.037366353 0.12363241
000030 30 01 34 3e 3b 85 b7 3e 53 11 63 bd 7b 9e 8a 3e
       0.17578578 0.35843834 -0.055436444 0.27074036
000040 dd 09 25 bd e1 4a a9 be e6 ce f2 be 48 d7 82 bd
       -0.04029261 -0.3306494 -0.47423476 -0.06388718
000050 d6 df 0b bf 90 bc fc 3d 00 84 c6 3d b2 ed 1d bd
       -0.5463842 0.12340653 0.09693146 -0.038556762
000060 21 19 00 bf b1 a2 9e bd 97 e8 9d be 9e aa 9a 3c
       -0.50038344 -0.07745875 -0.30841514 0.018880185
000070 a3 79 1c 3e d8 15 07 be b6 61 7f be 78 ff da be
       0.15280776 -0.13191926 -0.24939618 -0.42773032

weight f4 [4, 32]
000000 51 61 55 be e0 d6 7a 3c df 9c 5c be 90 b0 61 3e
       -0.20837905 0.015310019 -0.21544217 0.2204001
000010 4a 6b b9 be c9 af 34 be e7 97 19 bd 34 5a 15 3f
       -0.36214668 -0.17645182 -0.03749838 0.58340764
000020 a9 d9 85 be d2 26 0c 3e 48 3b e9 be a0 ae b2 bd
       -0.26142624 0.13686684 -0.4555304 -0.08724713
000030 7f 50 91 be 60 ea 55 be 51 98 06 be 00 d5 86 3d
       -0.28381726 -0.20890188 -0.13144042 0.06583595
000040 05 cc 85 bd 79 75 3c 3c 9a 81 d3 3c ca 04 89 bd
       -0.06533054 0.011502617 0.025818635 -0.066903666
000050 56 2d 10 3e 3b 74 d0 bd 4b 79 97 be 5a 5d 95 be
       0.14079794 -0.10178419 -0.29584727 -0.29172784
000060 c5 55 8e 3d 2a 79 69 3e 53 09 72 bc 60 48 24 be
       0.06949953 0.22800127 -0.014772731 -0.16043234
000070 e2 62 fb bd b9 f8 38 be bb f0 3f 3e 86 0f 18 3f
       -0.1227472 -0.1806363 0.18744175 0.59398687
000080 b0 87 35 bd ff e9 2c bc 2c 21 8b 3e 17 b0 09 bc
       -0.044318855 -0.010553836 0.27173746 -0.0084037995
000090 70 75 ee be 11 3c c2 3c 2e 0e 98 3d 28 e0 ac bd
       -0.46573973 0.023710283 0.074245796 -0.08441192
0000a0 7a 5b 04 3c a7 2f 17 bd 4b ac 32 be d6 86 41 be
       0.00807845 -0.03691068 -0.17448537 -0.18899092
0000b0 f1 a7 4d be 10 41 9f 3d 2d e0 6e be 7e 99 35 3e
       -0.20083596 0.077760816 -0.23327704 0.17734334
0000c0 51 99 d1 be 3f 1f 34 be a6 eb 30 be 11 b0 09 bd
       -0.40937284 -0.17590044 -0.17277393 -0.033615176
0000d0 d5 31 7a bf 67 bd 05 3e 99 3a a2 3d b4 8c af 3b
       -0.9773229 0.13060533 0.07921333 0.0053573493
0000e0 1c 79 8f be fe 34 7d be 6f 67 30 bf 4b f3 0a bc
       -0.28022087 -0.24727246 -0.6890783 -0.008480857
0000f0 94 ea c8 bd 4d fa 6d be 2a 44 cf 3d e1 43 9b be
       -0.09810367 -0.23240013 0.10120423 -0.30325225
000100 c9 78 39 3e d4 5c 2d bf 9e b9 a6 3e c5 48 48 bf
       0.18112482 -0.6771977 0.3256349 -0.7823604
000110 17 5a 2c bc cf e3 ef bd eb b6 13 3c 8f 5c 1d 3d
       -0.010519526 -0.11713373 0.009015779 0.03841835
000120 01 4e 24 3d 17 54 fc 3e a4 23 40 be a8 43 02 3f
       0.040113453 0.49282905 -0.18763596 0.50884485
000130 7b a5 1b bf 60 0a 95 3e 0a 7a 03 bf 27 fe ef bc
       -0.6079938 0.29109478 -0.5135809 -0.029295994
000140 ad 80 19 3e 14 38 10 be 75 22 32 bf 40 5c de 3d
       0.14990492 -0.14083892 -0.6958383 0.10857439
000150 07 33 0f bb ea 36 c4 3e 5f f9 82 3e ee 3f ad 3e
       -0.0021850483 0.38323146 0.2558088 0.33837837
000160 41 36 01 bf a0 f2 01 bd 11 9b 05 3e aa 44 2b bf
       -0.5047341 -0.031725526 0.13047434 -0.6690165
000170 ca f7 2c 3e f9 e0 ac 3e b5 af 2b bf 3b fc de be
       0.16891399 0.3376539 -0.6706498 -0.43551812
000180 84 ed f3 3d 13 d4 56 be 9a 3d 5b 3d 22 b7 9b be
       0.11910537 -0.20979337 0.053525545 -0.30413157
000190 d9 fb 4b 3e 7c 36 c7 3d 96 20 12 3e e6 e6 5d bc
       0.19920291 0.09727189 0.14270243 -0.01354382
0001a0 41 3e 60 3e 6a 9a 88 3e 73 57 f6 be fb b4 b7 3c
       0.21898748 0.2668031 -0.48113593 0.022425165
0001b0 75 46 23 be 39 b8 8d 3e ac 00 11 be 36 d4 61 3e
       -0.15944846 0.27679613 -0.14160413 0.22053608
0001c0 9e 71 fe bd f9 f9 16 be ee 75 8b be 85 cf 01 be
       -0.124240145 -0.14743795 -0.2723841 -0.12676819
0001d0 81 59 dd 3d 27 9e 60 3e 7c 41 de 3d 4a 3c ab 3e
       0.10808087 0.2193533 0.10852334 0.33444434
0001e0 45 9d ed bd c3 4e 7f be 67 f4 02 be d4 90 47 bf
       -0.116022624 -0.24932389 -0.12788545 -0.77955365
0001f0 64 37 cd 3d 12 23 96 be d2 2f 9f be 0c 1f ac 3d
       0.100203305 -0.29323632 -0.31091172 0.08404359

bias f4 [4]
000000 87 80 81 be 65 ee 17 3e ba 74 f8 3e 96 04 88 bd
       -0.2529337 0.14837034 0.48526555 -0.066415
