[NewFlyModels]/min_func_ScaleMetric_Fly_9.pt (torch_old, 54341 bytes, 136 tensors)

weight f4 [2, 2]
0	0xbe8fd023	-0.28088483
1	0x3f901484	1.1256261
2	0xbfa3effc	-1.2807612
3	0x3f0572a5	0.5212806

bias f4 [2]
0	0xbdda9f7b	-0.1067495
1	0xbf40fbd5	-0.75384265

weight f4 [2, 2]
0	0x3f91194a	1.1335843
1	0x3eb4581f	0.3522348
2	0xbd62b3af	-0.05534714
3	0xbc198aa8	-0.009371437

weight f4 [1, 2]
0	0xbc474640	-0.012162745
1	0x3f2fee07	0.68722576

weight f4 [2, 2]
0	0xbf86c483	-1.0528721
1	0x3ee773f0	0.4520564
2	0xbf3148aa	-0.692515
3	0x3f307c26	0.68939435

bias f4 [2]
0	0xbf27e307	-0.6558079
1	0x3d28687d	0.041115273

weight f4 [2, 2]
0	0xbce5b33b	-0.028039565
1	0x3f06aa8e	0.52603996
2	0x3e374af9	0.17899694
3	0xbf8db6d0	-1.1071415

weight f4 [1, 2]
0	0x3f2678d5	0.65028125
1	0x3e5f0a2c	0.21781224

weight f4 [2, 2]
0	0x3e2ea300	0.17054367
1	0x3fb243cd	1.3926941
2	0x3e16c7a2	0.14724591
3	0xbee6fa28	-0.4511273

bias f4 [2]
0	0xbe5537c5	-0.20822056
1	0xbe0557dd	-0.13021798

weight f4 [2, 2]
0	0x3e99c912	0.30036217
1	0xbf90c5db	-1.1310381
2	0x3eeeec82	0.46664816
3	0x3eb74a61	0.35798934

weight f4 [1, 2]
0	0x3d4cbca0	0.049984574
1	0x3f0d6c47	0.55243343

weight f4 [2, 2]
0	0xbe75d868	-0.24008334
1	0x3edcf0e1	0.43152526
2	0xbe431e6f	-0.19054578
3	0x3d85fff3	0.06542959

bias f4 [2]
0	0xbf85bf8b	-1.0449079
1	0x3e83acb3	0.25717697

weight f4 [2, 2]
0	0x3ee9abff	0.45639035
1	0x3fb62340	1.4229507
2	0x3ef1a313	0.47194728
3	0xbf8f6d09	-1.120515

weight f4 [1, 2]
0	0xbe6f6ec6	-0.233821
1	0x3eac3eae	0.3364157

weight f4 [2, 2]
0	0xbe5b104a	-0.21392933
1	0xbdbede03	-0.09319689
2	0x3e0d3060	0.13787985
3	0xbf9341be	-1.1504438

bias f4 [2]
0	0xbf03b5bd	-0.51449186
1	0xbf21f558	-0.6326499

weight f4 [2, 2]
0	0x3f81aa64	1.0130124
1	0x3e331c8f	0.17491363
2	0xbfa206c1	-1.2658311
3	0x3e9e6410	0.30935717

weight f4 [1, 2]
0	0x3e370940	0.17874622
1	0x3ec96a9e	0.39339155

weight f4 [2, 2]
0	0xbf1a5f67	-0.6030182
1	0x3ea40759	0.32036856
2	0xbf395ce0	-0.7240734
3	0xbe02392a	-0.12717119

bias f4 [2]
0	0xbf960afa	-1.17221
1	0x3e9c9311	0.30580953

weight f4 [2, 2]
0	0x31883c10	3.9649493e-09
1	0xb120710d	-2.3347326e-09
2	0x3d1be95a	0.03806434
3	0x3caaf1c3	0.020867234

weight f4 [1, 2]
0	0x3f34fbbd	0.7069662
1	0x3f0ae64f	0.54257673

weight f4 [2, 2]
0	0x3fcab64d	1.5836884
1	0x3e92a28a	0.28639632
2	0xbf80aaf8	-1.0052176
3	0x3f9d175c	1.2272754

bias f4 [2]
0	0x3e020613	0.1269763
1	0xbfe932f5	-1.8218676

weight f4 [2, 2]
0	0xbead4c80	-0.33847427
1	0xbfbf495d	-1.4944264
2	0x3d9499ec	0.07255921
3	0xbb1f9941	-0.002435282

weight f4 [1, 2]
0	0xbd99b6c0	-0.0750556
1	0x3e717748	0.23580658

weight f4 [2, 2]
0	0xbf38bdb9	-0.72164494
1	0x3f4fa5a1	0.81112105
2	0x3fb18208	1.3867807
3	0xbed1bdec	-0.4096521

bias f4 [2]
0	0x3f2bc92b	0.6710383
1	0xbf589138	-0.84596586

weight f4 [2, 2]
0	0x3c4f0834	0.012636233
1	0x3ef87758	0.48528552
2	0xc048423a	-3.1290421
3	0xc0322fb3	-2.7841613

weight f4 [1, 2]
0	0x3e3fb6bc	0.18722051
1	0x3dcd8c60	0.1003654

weight f4 [2, 2]
0	0x3ed10aaa	0.4082845
1	0x3eacc950	0.3374734
2	0xbf974c6c	-1.1820197
3	0xbd2c229f	-0.042025205

bias f4 [2]
0	0xbeb4dfaf	-0.35326907
1	0x3f4c1a8f	0.79728025

weight f4 [2, 2]
0	0xbf4fc863	-0.8116514
1	0x3f78f683	0.9725115
2	0xbeb6a09b	-0.35669407
3	0x3ee03857	0.43792984

weight f4 [1, 2]
0	0xbe0ca520	-0.13734865
1	0x3f18237f	0.5942916

weight f4 [2, 2]
0	0xbee9584d	-0.4557518
1	0x3ea7c1d5	0.3276507
2	0x3f76de7f	0.9643325
3	0xbf496b53	-0.7867939

bias f4 [2]
0	0xbecb24bf	-0.39676473
1	0x3f499371	0.787406

weight f4 [2, 2]
0	0x3f458fee	0.77172744
1	0xbd836b3b	-0.06416937
2	0x3f78541a	0.9700333
3	0xbf5d8095	-0.86524326

weight f4 [1, 2]
0	0x3ebd0686	0.3691904
1	0xbedb449c	-0.42825782

weight f4 [2, 2]
0	0x3fbe31d4	1.4858956
1	0x3f909626	1.1295822
2	0x3e6b8f00	0.23003769
3	0x3d8dc004	0.0692139

bias f4 [2]
0	0xbdec4036	-0.11535685
1	0x3ef57443	0.47940263

weight f4 [2, 2]
0	0x3d61e50b	0.055150073
1	0xbcab86f5	-0.020938376
2	0x3d9387f9	0.07203669
3	0x3e226cd4	0.15861827

weight f4 [1, 2]
0	0xbeb9b869	-0.36273506
1	0xbb067a00	-0.0020519495

weight f4 [2, 2]
0	0xbf5ebdcc	-0.8700836
1	0x3dfcc663	0.12342527
2	0xbfd15890	-1.6355152
3	0x3f3a8c14	0.7286999

bias f4 [2]
0	0x3f03db2c	0.51506305
1	0x3d406bec	0.046977922

weight f4 [2, 2]
0	0x3e02c9d9	0.12772311
1	0x3eb513bf	0.35366628
2	0xbf4b14cf	-0.79328626
3	0xbe8e098f	-0.27741668

weight f4 [1, 2]
0	0x3f34a38b	0.70562047
1	0xbdb9ccf0	-0.09072292

weight f4 [2, 2]
0	0x3dd05595	0.101725735
1	0xbde667e4	-0.11250284
2	0xbee3c952	-0.44489533
3	0xbf4fd37e	-0.81182086

bias f4 [2]
0	0x3db49ff8	0.08819574
1	0x3e57ad24	0.21062142

weight f4 [2, 2]
0	0xbe93fcb7	-0.28903744
1	0xbe80c5e2	-0.25150973
2	0xbee43118	-0.44568706
3	0x3f722d9d	0.9460085

weight f4 [1, 2]
0	0xbf0f6cdc	-0.5602548
1	0x3bfe5680	0.0077617764

weight f4 [2, 2]
0	0xbf193a10	-0.5985422
1	0xbe8c24b5	-0.27371755
2	0xbf293e29	-0.66110474
3	0xbd744157	-0.059632625

bias f4 [2]
0	0x3f44872d	0.7676876
1	0xbf0f15cb	-0.5589263

weight f4 [2, 2]
0	0x3eb97b1d	0.3622674
1	0xbb9a299c	-0.0047046673
2	0x3f0c3796	0.5477232
3	0x3f2e0906	0.6798252

weight f4 [1, 2]
0	0x3e51930c	0.2046625
1	0xbe309fd4	-0.1724847

weight f4 [2, 2]
0	0x3f140b7c	0.57830024
1	0xc006c5ca	-2.105822
2	0x3f31e5cd	0.69491273
3	0x3e059cc8	0.13048089

bias f4 [2]
0	0x3fd9bb28	1.701024
1	0xbf2455f0	-0.6419363

weight f4 [2, 2]
0	0xbefb0a88	-0.49031472
1	0x403d8e24	2.9618006
2	0xbf24ac83	-0.6432573
3	0xc003b9a3	-2.0582054

weight f4 [1, 2]
0	0x3de59188	0.112093985
1	0xbec65260	-0.38734722

weight f4 [2, 2]
0	0xbef96091	-0.48706487
1	0x3f5ad1d8	0.85476446
2	0x3f9e6374	1.2374101
3	0xbee29f32	-0.4426208

bias f4 [2]
0	0xbe8ec769	-0.27886513
1	0x3d6d6cf4	0.057965234

weight f4 [2, 2]
0	0x3fea0a70	1.8284435
1	0xbe67534a	-0.22590366
2	0xbf95d3e3	-1.1705288
3	0x3f12b1f0	0.5730276

weight f4 [1, 2]
0	0x3e845b4c	0.25850904
1	0x3f1a0e83	0.60178393

weight f4 [2, 2]
0	0x3eb8ccce	0.36093754
1	0x3f239d67	0.6391205
2	0x3f4b7cc9	0.7948728
3	0xbf13e9e1	-0.57778746

bias f4 [2]
0	0x3ebb1b78	0.36544394
1	0xbeee0bd1	-0.4649339

weight f4 [2, 2]
0	0x40631797	3.5483148
1	0xc063379f	-3.5502698
2	0xbf07eecc	-0.5309875
3	0x3ea911c2	0.3302136

weight f4 [1, 2]
0	0x3c951860	0.0182001
1	0xbec542d6	-0.38527554

weight f4 [2, 2]
0	0xbf6ccbc6	-0.92498434
1	0x3e975dbd	0.29563704
2	0x3ee59d2d	0.44846478
3	0x3f9c3c13	1.2205833

bias f4 [2]
0	0xbf155415	-0.58331424
1	0xbf3db42d	-0.7410305

weight f4 [2, 2]
0	0x37848907	1.5799435e-05
1	0xb370b6a8	-5.604548e-08
2	0x3dd6891f	0.104753725
3	0xbd8b5df7	-0.06805032

weight f4 [1, 2]
0	0xbdadd818	-0.08488482
1	0xbeb6241f	-0.35574433

weight f4 [2, 2]
0	0xbf7bd6e3	-0.98374766
1	0x3fa282f2	1.2696211
2	0x3ce206dd	0.027591163
3	0xbfa14f21	-1.2602273

bias f4 [2]
0	0x3c7cd761	0.01543221
1	0xbde092d9	-0.10965509

weight f4 [2, 2]
0	0xbf02a125	-0.5102714
1	0xbecb111a	-0.39661485
2	0xbe0ba48c	-0.13636988
3	0x3f2a65fb	0.6656186

weight f4 [1, 2]
0	0xbc9237a0	-0.01784879
1	0x3f30cbd7	0.69061035

weight f4 [2, 2]
0	0x3f845fd0	1.034174
1	0x3e81a0d0	0.25318003
2	0xbeecfdc8	-0.4628737
3	0x3fba5508	1.45572

bias f4 [2]
0	0xbf90366f	-1.1266612
1	0xbd67143c	-0.05641578

weight f4 [2, 2]
0	0xbd82050c	-0.06348619
1	0x3f2898db	0.6585824
2	0x3ecb0fb0	0.39660406
3	0xbf97b6a8	-1.1852617

weight f4 [1, 2]
0	0x3e28df1c	0.1649136
1	0xbe9de8e0	-0.30841732

weight f4 [2, 2]
0	0x40396007	2.896486
1	0x3fb6b299	1.4273254
2	0x3edb1cd7	0.4279544
3	0xbe5ab455	-0.21357854

bias f4 [2]
0	0xbf96dd6a	-1.178632
1	0xbfc81947	-1.5632714

weight f4 [2, 2]
0	0xbfd949c1	-1.6975633
1	0xbf91edc7	-1.1400689
2	0xbfea3a10	-1.8298969
3	0xbf2f36e5	-0.6844314

weight f4 [1, 2]
0	0x3ed7dc06	0.42160052
1	0x3e0023c0	0.12513638

weight f4 [2, 2]
0	0xbfda774c	-1.7067657
1	0x3eb54916	0.35407323
2	0xbefedd02	-0.4977799
3	0x3ed473a3	0.41494474

bias f4 [2]
0	0x3f1b51b6	0.60671556
1	0xbe891789	-0.26775768

weight f4 [2, 2]
0	0x3e1c3d47	0.1525775
1	0xbec26e35	-0.37974706
2	0x379fbdf7	1.9042736e-05
3	0xba541080	-0.0008089617

weight f4 [1, 2]
0	0xbefd34c1	-0.4945431
1	0xbe864b30	-0.2622924

weight f4 [2, 2]
0	0xbf99a99b	-1.2004884
1	0x3d26c0ea	0.04071132
2	0xbf4f0735	-0.8087037
3	0x3f4b054c	0.7930496

bias f4 [2]
0	0x3f6dd9a5	0.92910224
1	0x3ef914a5	0.48648563

weight f4 [2, 2]
0	0x3e2d26e5	0.16909368
1	0xbbbe7ace	-0.0058129793
2	0xbd839cd4	-0.06426397
3	0x3cc9ba74	0.02462504

weight f4 [1, 2]
0	0xbd492e20	-0.049116254
1	0xbefc5ffe	-0.49291986

weight f4 [2, 2]
0	0xbf4a2e5d	-0.78976995
1	0x3f7f4746	0.9971813
2	0xbef6041e	-0.48050016
3	0x3f8ca288	1.0987101

bias f4 [2]
0	0x3eb36e5d	0.35045138
1	0xbf46f7de	-0.77721965

weight f4 [2, 2]
0	0xbe6f66dc	-0.23379081
1	0x3f1f6f0c	0.6227882
2	0x3f0e41bc	0.5556905
3	0x3ee9f5cf	0.4569535

weight f4 [1, 2]
0	0xbd9388e8	-0.07203847
1	0x3f0d0bbd	0.55096036

weight f4 [2, 2]
0	0xbea44be7	-0.3208916
1	0xbfa8441a	-1.3145783
2	0xbe5c844b	-0.21534841
3	0x3f0d7865	0.5526183

bias f4 [2]
0	0x3f710391	0.94146067
1	0x3cff6608	0.031176582

weight f4 [2, 2]
0	0xbb8ffe2f	-0.0043943147
1	0x3cc421ff	0.023941992
2	0x3b04f00c	0.002028468
3	0xbd5aea5d	-0.053446162

weight f4 [1, 2]
0	0xbe7d24d6	-0.24721083
1	0xbd995770	-0.074873805

weight f4 [2, 2]
0	0xbf2b4334	-0.6689942
1	0xbd82f128	-0.06393653
2	0x400cc314	2.1994066
3	0x3fdce82d	1.7258354

bias f4 [2]
0	0x3e342c30	0.17594981
1	0xbfbeef7e	-1.4916837

weight f4 [2, 2]
0	0x3f79e081	0.9760819
1	0xbe1231e6	-0.14276847
2	0xbfefdbf5	-1.8739
3	0xbfdc75ac	-1.7223411

weight f4 [1, 2]
0	0xbe4a6b8c	-0.19767588
1	0x3d52da20	0.05147755

weight f4 [2, 2]
0	0xbef40426	-0.47659415
1	0x3f314c00	0.6925659
2	0xbe6d419b	-0.23169558
3	0x3ea0c45f	0.3139982

bias f4 [2]
0	0xbe71272c	-0.23550099
1	0x3ed6cc00	0.41952515

weight f4 [2, 2]
0	0xbed3aff9	-0.41345194
1	0x3dc4a76f	0.09602248
2	0x3e956808	0.29180932
3	0x3ea5993e	0.32343477

weight f4 [1, 2]
0	0xbdc69bc0	-0.09697676
1	0xbf040e96	-0.51584756

weight f4 [2, 2]
0	0xbfd2fea6	-1.6483963
1	0x3f934d32	1.1507933
2	0x3e20411e	0.1564984
3	0xbf843724	-1.0329328

bias f4 [2]
0	0xbba42e22	-0.0050103823
1	0x3edff454	0.43741095

weight f4 [2, 2]
0	0x3f0417a1	0.51598555
1	0xbe159a8e	-0.14609739
2	0x3f706b3d	0.9391363
3	0x3f39d811	0.72595316

weight f4 [1, 2]
0	0xbefef870	-0.49798918
1	0xbe2b94ec	-0.16756028

weight f4 [2, 2]
0	0x3f47ec3e	0.7809485
1	0x400c9bc2	2.1970067
2	0x3f99e545	1.2023093
3	0xbe25a9b3	-0.16178016

bias f4 [2]
0	0xbf90a897	-1.130145
1	0x3edff36c	0.43740404

weight f4 [2, 2]
0	0xbec0c311	-0.37648824
1	0x3ebb0ea6	0.36534613
2	0xbfb6834a	-1.4258816
3	0x3e0b1c89	0.13585104

weight f4 [1, 2]
0	0x3ef50f6e	0.47863334
1	0xbda27f10	-0.079343915

weight f4 [2, 2]
0	0xbe7bea02	-0.24600986
1	0x3fde79dc	1.7380939
2	0x3fdad936	1.7097538
3	0xbeb69fa6	-0.35668677

bias f4 [2]
0	0x3d981060	0.07424998
1	0x3ee52c65	0.44760433

weight f4 [2, 2]
0	0xc000622f	-2.0059927
1	0x3ed7a5a0	0.4211855
2	0x3f807263	1.0034908
3	0xbda7b4c5	-0.08188776

weight f4 [1, 2]
0	0xbdc0c690	-0.09412873
1	0xbe70f5a6	-0.23531207

weight f4 [2, 2]
0	0x40107809	2.2573264
1	0xbf392a3f	-0.7233009
2	0xbe7fd1c2	-0.2498236
3	0x3dbae703	0.09126093

bias f4 [2]
0	0x3efedc1e	0.4977731
1	0xbdec1d41	-0.11529017

weight f4 [2, 2]
0	0xbf20400e	-0.6259774
1	0x3e83ef0d	0.2576832
2	0xbfa2623c	-1.2686229
3	0xbf4057f7	-0.75134224

weight f4 [1, 2]
0	0xbf2c55cb	-0.6731841
1	0x3ebf445e	0.37356848

weight f4 [2, 2]
0	0xbf84776a	-1.0348942
1	0x3f621a91	0.8832179
2	0x3f0778bf	0.5291862
3	0x3e7570e2	0.23968843

bias f4 [2]
0	0xbe36e96b	-0.1786248
1	0xbf55002c	-0.8320339

weight f4 [2, 2]
0	0x3ff4e590	1.9132557
1	0xbed84e12	-0.42247063
2	0xbfb5c7c8	-1.4201593
3	0x3f575be8	0.8412461

weight f4 [1, 2]
0	0x3e49b168	0.19696581
1	0x3e935fae	0.28783935

weight f4 [32, 2]
0	0xbf366f45	-0.71263534
1	0xbf6158b0	-0.8802595
2	0x3f691e1f	0.91061586
3	0x3fdb2507	1.7120675
4	0xbeda840c	-0.4267887
5	0x40089780	2.1342468
6	0xbf6d8a7b	-0.9278943
7	0x3d836601	0.0641594
8	0x3f0e2528	0.55525446
9	0xbeb40111	-0.35157064
10	0x3fde7e4a	1.738229
11	0x3f8f1ba8	1.1180315
12	0x3f34cc88	0.7062459
13	0x3ff79b1a	1.9344208
14	0xbe9f5eb6	-0.31126946
15	0xbdc36327	-0.09540396
16	0xbfeb3495	-1.8375422
17	0xbea0151d	-0.31266108
18	0x3f94ad33	1.1615356
19	0xbf8ec436	-1.1153629
20	0xbf95b54a	-1.169595
21	0xbf856fb8	-1.0424719
22	0xbf07ce5d	-0.5304926
23	0x3f95a23e	1.1690137
24	0x401177dc	2.2729406
25	0x3fbdebbe	1.4837568
26	0xbf82795c	-1.0193286
27	0xbf72a420	-0.94781685
28	0x3ffd2265	1.9776121
29	0x3e4346df	0.19070004
30	0x3e0a40e9	0.13501324
31	0x3f2813b3	0.6565506
32	0x3d52e2cb	0.051485818
33	0x3f917ef1	1.1366864
34	0xbfd2fad2	-1.6482794
35	0x3f6489c1	0.89272696
36	0x3d741f7f	0.05960035
37	0x3f0b6705	0.5445407
38	0x3f538cc5	0.8263667
39	0x401e245b	2.470969
40	0xbff1b9c0	-1.8884811
41	0xbf22d172	-0.6360084
42	0xbf63e424	-0.8901999
43	0x3f8a193a	1.0788949
44	0xbf74e64f	-0.95663923
45	0x3ff78092	1.9336112
46	0xbfb3e2df	-1.405361
47	0x3f02f3e8	0.5115342
48	0xbfaa3ece	-1.3300416
49	0x3fb957b8	1.4479895
50	0x3ff3d173	1.9048294
51	0x3e9b3015	0.3031012
52	0x3e9451cc	0.28968656
53	0x4020140d	2.5012238
54	0xbea81cb3	-0.32834396
55	0x3f5c6225	0.86087257
56	0xbf4257ea	-0.75915396
57	0x3f36e5b7	0.7144427
58	0xbfb64fdf	-1.4243125
59	0x3e95265d	0.2913083
60	0x3f670570	0.9024267
61	0x3f046f2e	0.51732147
62	0xbf84e818	-1.0383329
63	0x401247f7	2.2856424

bias f4 [32]
0	0xbba68012	-0.005081185
1	0xbeef58e9	-0.4674752
2	0x3e6e4b5d	0.23270936
3	0xbe16b8b3	-0.14718895
4	0xbf13e473	-0.5777046
5	0xbe434d36	-0.19072422
6	0xbebf0939	-0.37311724
7	0x3dffa045	0.12481741
8	0x3d90a462	0.070626035
9	0xbf356316	-0.7085432
10	0x3f484c67	0.7824158
11	0x3f082e9f	0.5319614
12	0xbe8746bc	-0.26421154
13	0xbf0659b1	-0.5248061
14	0x3d872964	0.065996915
15	0xbf032abf	-0.512371
16	0x3e808645	0.2510244
17	0xbf010848	-0.5040326
18	0x3f290763	0.66026896
19	0xbf165e9b	-0.58738106
20	0xbef22b4f	-0.47298667
21	0x3f3d9876	0.7406076
22	0x3e08dc34	0.13365251
23	0x3c99bce0	0.01876682
24	0xbea9ce1c	-0.3316506
25	0x3e149733	0.14510803
26	0xbecfb383	-0.40566644
27	0x3eb0e81a	0.3455208
28	0x3f1622d4	0.58646894
29	0xbeddade1	-0.43296722
30	0x3eb32d5c	0.34995544
31	0xbe6dbbd8	-0.23216188

weight f4 [32, 32]
0	0xbea7db40	-0.32784462
1	0xbe56f94b	-0.20993535
2	0x3e9d18d5	0.30683008
3	0x3d4e0a15	0.050302584
4	0xbdfcb576	-0.123392984
5	0x3bd64e49	0.006540094
6	0xbdca5cc4	-0.09880975
7	0x3c876a65	0.016530225
8	0xbdb73ca2	-0.08947112
9	0xbd367600	-0.044546127
10	0xbc9c4cce	-0.019079592
11	0x3edfc3dc	0.43704116
12	0x3da5c472	0.080941096
13	0xbea08bbe	-0.31356615
14	0xbcf5cf5a	-0.0300061
15	0xbe35948e	-0.1773245
16	0x3dd23edf	0.10265898
17	0x3d13bfe9	0.03607169
18	0x3e848eba	0.25890142
19	0xbe5dfc86	-0.21678361
20	0xbdf0b5c5	-0.1175342
21	0x3edc042f	0.42971942
22	0x3e85a0e4	0.26099312
23	0x3e29eb38	0.16593635
24	0xbde2b64b	-0.11069926
25	0x3e410066	0.18847808
26	0xbe48d98e	-0.1961424
27	0x3e29b14d	0.16571541
28	0x3ea4bc8e	0.32175106
29	0xbe195ea7	-0.14977513
30	0x3e6996d0	0.22811437
31	0x3e67c7d3	0.2263482
32	0x3f1cf4ec	0.6131122
33	0xbe810751	-0.25200894
34	0xbeda9248	-0.4268973
35	0x3f3cf018	0.73803854
36	0x3eb9fd6c	0.36326158
37	0xbe841384	-0.2579614
38	0x3b825fc9	0.0039787036
39	0xbe143cea	-0.14476362
40	0x3e902cbe	0.28159136
41	0x3ef1eb55	0.47249857
42	0xbcc460b9	-0.023971902
43	0xbee84920	-0.4536829
44	0xbf2ec8ee	-0.68275344
45	0x400428f7	2.0650003
46	0xbf39d81e	-0.72595394
47	0x3d1d1b70	0.038356245
48	0xbf63a628	-0.8892541
49	0x3f3d5b47	0.73967403
50	0xbecfc79f	-0.40581986
51	0x3cfaa859	0.030597853
52	0x3fce1288	1.6099405
53	0xbedb379c	-0.42815864
54	0xbe881870	-0.26581144
55	0x3f556382	0.8335496
56	0x3f16be1d	0.5888384
57	0xbf4c8377	-0.798881
58	0xbe817fae	-0.25292724
59	0xbeed4b30	-0.46346426
60	0xbdf74762	-0.12074162
61	0x3f86b6b7	1.052451
62	0xc0123ae4	-2.2848444
63	0x3e4f7de1	0.20262863
64	0x3d083216	0.03325089
65	0xbcbb9cdd	-0.022901947
66	0x3e4e4f87	0.20147525
67	0x3da443d6	0.08020751
68	0x3e6cf4f4	0.23140317
69	0xbe0cb544	-0.13741022
70	0xbccfb8af	-0.025356619
71	0x3ca06035	0.019577125
72	0x3eb87d54	0.36033118
73	0x3a0cb8c6	0.00053681096
74	0xbd06ea28	-0.032938153
75	0x3e759a15	0.23984559
76	0xbf3b64af	-0.73200506
77	0x3ea112b2	0.31459576
78	0xbf739f3b	-0.9516484
79	0x3e535d5b	0.20641081
80	0xbe129284	-0.14313704
81	0x3da60517	0.081064396
82	0xbeb5aaf4	-0.3548199
83	0x3da50d7d	0.08059213
84	0xbe8b23df	-0.27175805
85	0x3e92f40c	0.28701818
86	0x3e9a98d2	0.30194718
87	0x3f14df18	0.58152914
88	0x3e403ff0	0.1877439
89	0xbf50ec1b	-0.8161027
90	0xbd7c9b6d	-0.061671663
91	0x3e0c7fd9	0.13720645
92	0x3e84a8ef	0.25910136
93	0x3dc68dfa	0.09695049
94	0xbeb85c7e	-0.36008066
95	0x3dd55471	0.104164965
96	0x3d430689	0.047613654
97	0xbeba497a	-0.36384183
98	0x3de3901b	0.1111147
99	0x3e835108	0.2564776
100	0xbd9f7a74	-0.07787028
101	0xbf5ec068	-0.8701234
102	0xbf101d96	-0.56295145
103	0xbe0f44a8	-0.13991034
104	0x3ede8f6a	0.4346879
105	0xbe86013a	-0.2617281
106	0x3e2f8adb	0.17142813
107	0x3f09e7d1	0.5386935
108	0xbf89b670	-1.07588
109	0x3e0d9dcd	0.13829727
110	0xbff3a266	-1.9033935
111	0x3e95ffec	0.29296815
112	0x3d97168a	0.07377346
113	0x3e24e3d6	0.16102538
114	0xbe3b70e0	-0.18304777
115	0xbeec4114	-0.461434
116	0x3e9346f5	0.28765073
117	0x3f216d0e	0.6305703
118	0x3edabaec	0.42720735
119	0x3f86de00	1.0536499
120	0x3d70c1b7	0.05877849
121	0xbfc0becd	-1.5058228
122	0xbf3a586b	-0.72791165
123	0x3e8cf592	0.27531105
124	0x3e86f308	0.26357293
125	0x3e8c25e4	0.27372658
126	0xbf061c52	-0.52386963
127	0xbe9197a2	-0.28436
128	0xbe5d002a	-0.21582094
129	0xbe0cde0c	-0.13756579
130	0x3db639ef	0.08897769
131	0xbe2b52cd	-0.16730805
132	0xbbd6e08c	-0.00655753
133	0x3d981377	0.074255876
134	0xbd03da72	-0.032190748
135	0xbd1fd51b	-0.039021593
136	0xbe3830e3	-0.17987399
137	0xbe57222d	-0.21009131
138	0xbc94aa30	-0.018147558
139	0x3cbcff6b	0.023071012
140	0x3dd7fe22	0.10546519
141	0x3e14078e	0.14456007
142	0xbe8fc91c	-0.28083122
143	0x3d2436a7	0.040091183
144	0x3d59b587	0.053151634
145	0xbe44c2fc	-0.19215006
146	0x3e0b91cc	0.13629836
147	0x3e031133	0.1279953
148	0x3e51ca5b	0.20487349
149	0x3e6e697b	0.23282425
150	0xbe2a3059	-0.16620006
151	0xbe662620	-0.22475481
152	0x3c72e4bc	0.014825042
153	0xbcc5d7ee	-0.024150815
154	0xbdf9f486	-0.12204842
155	0x3d5d83ec	0.05408089
156	0x3e05eb63	0.13078074
157	0x3e12712b	0.14300983
158	0x3baf5529	0.005350728
159	0x3d4f6e90	0.05064255
160	0xbf6d1471	-0.92609316
161	0x405de0c9	3.4668448
162	0x3e9d5631	0.3072982
163	0x3d60d0a1	0.054886464
164	0x3f95423e	1.166084
165	0x3ff5f345	1.9214865
166	0x403106dd	2.766044
167	0xbf81ea82	-1.0149691
168	0xbfd71935	-1.6804568
169	0x3f35df4f	0.71043867
170	0xc04948a8	-3.1450596
171	0xbf03296d	-0.51235086
172	0x3ff2c9a4	1.8967786
173	0x3ee74985	0.45173278
174	0x3ed8b4f2	0.4232555
175	0x3fd45d80	1.6591034
176	0x3e843958	0.25825
177	0x3f656bba	0.896175
178	0xbf4636d3	-0.77427405
179	0x40414bb0	3.0202446
180	0xbdb7c219	-0.08972568
181	0xbf3dd32f	-0.74150366
182	0x3edf07ea	0.43560725
183	0xbf1be3cb	-0.6089446
184	0x3f336892	0.70081437
185	0x3e93275c	0.28740966
186	0x400fb4c3	2.2454078
187	0xbea34c7a	-0.31894284
188	0xbf6a1097	-0.91431564
189	0x3e9b7f67	0.30370638
190	0xbe62ccd6	-0.22148451
191	0x3f481a59	0.78165203
192	0x3f41ed65	0.7575286
193	0xbe353de5	-0.17699392
194	0xbfc241ea	-1.5176365
195	0xbe02bcee	-0.12767383
196	0xbe1ac67b	-0.15114777
197	0xbe7e4db4	-0.24834329
198	0xbeb2c919	-0.3491905
199	0x3e9f3d67	0.31101534
200	0x3f038ef1	0.51389986
201	0x3ee212bd	0.4415492
202	0x3ef70e0a	0.48252898
203	0xbf6b1cc9	-0.918408
204	0xbe8fce16	-0.2808692
205	0x3ec93286	0.3929636
206	0x3df0f538	0.11765522
207	0xbe977ed9	-0.29588965
208	0xbf7b4215	-0.9814771
209	0xbe798f82	-0.2437115
210	0xbdeec295	-0.11658207
211	0xbf02d234	-0.51101995
212	0x3ea134d9	0.31485632
213	0xbf5b3102	-0.85621655
214	0xbf6059f2	-0.87637246
215	0xbe9d80cd	-0.3076233
216	0xbf188941	-0.5958443
217	0xbdfd754d	-0.12375889
218	0xbf3ef39e	-0.7459048
219	0xbeea4dad	-0.45762387
220	0xbec1f3c1	-0.37881282
221	0x3caeff1b	0.021361878
222	0xbdf49774	-0.1194295
223	0xbef7de30	-0.48411703
224	0x3de68119	0.11255092
225	0x3e023273	0.12714557
226	0xbf13590d	-0.57557756
227	0x3e03908c	0.12848109
228	0x3f3b52d3	0.73173255
229	0x3f4d6829	0.8023706
230	0x3e0e0620	0.13869524
231	0xbede824c	-0.43458784
232	0xbf128b6d	-0.57243997
233	0x4034a588	2.8226032
234	0xbeedefbb	-0.46471962
235	0xc0250399	-2.5783446
236	0x3f23a97a	0.63930476
237	0x3ed63926	0.41840476
238	0x3f116b2e	0.5680417
239	0x3ed99388	0.4249537
240	0xbf928199	-1.14458
241	0x3e09b13e	0.13446519
242	0xbf0c9c1c	-0.54925704
243	0x3e6fff9b	0.2343735
244	0x3d90ac2e	0.07064091
245	0xc0c4c1bd	-6.1486497
246	0x3ae74d16	0.0017646875
247	0xbed92624	-0.4241191
248	0x3b7d4e74	0.0038651498
249	0x3b9e4d8e	0.0048310226
250	0x3dd2b2f8	0.10288042
251	0xbfbeae91	-1.4897023
252	0xc0892abb	-4.286466
253	0x3e978495	0.2959334
254	0xbe8928d4	-0.26788962
255	0x3e0adadf	0.13560055

bias f4 [32]
0	0x3da6c3e7	0.08142834
1	0xbeb30f9f	-0.34972855
2	0xbe3e3a9d	-0.18577047
3	0xbea6694b	-0.32502207
4	0xbdb6737f	-0.08908748
5	0xbf9a0296	-1.2032039
6	0xbbc8cfd1	-0.0061282893
7	0xbe81c0dc	-0.25342453
8	0xbf360827	-0.7110619
9	0x3e015075	0.12628348
10	0xbdbd69ac	-0.09248671
11	0xbdc0e4d0	-0.094186425
12	0xbef787da	-0.48345834
13	0x3dff7bea	0.124748066
14	0x3e01eec7	0.12688743
15	0xbe764d12	-0.24052837
16	0xbbfa0ccb	-0.0076309196
17	0x3ddcfff9	0.107910104
18	0xbe8d4371	-0.27590516
19	0xbde28bf0	-0.11061847
20	0x3c210a0e	0.009829057
21	0xbe427ab6	-0.18992123
22	0x3d86641d	0.06562064
23	0xbf3d4db0	-0.73946667
24	0x3d865d0e	0.065607175
25	0x3e385059	0.179994
26	0xbe4c9d11	-0.19981791
27	0x3e517b7c	0.20457262
28	0x3eb03345	0.34414116
29	0xbedb48e5	-0.42829052
30	0x3e552c96	0.2081779
31	0x3e9b894b	0.30378184

weight f4 [32, 32]
0	0x3dd01f96	0.101622745
1	0xbcf2854f	-0.029604582
2	0xbd522576	-0.051305257
3	0xbedcc3e8	-0.43118215
4	0x3e66cb1b	0.22538416
5	0xbf3eef2f	-0.74583715
6	0xbed85a7f	-0.42256543
7	0xbed6790c	-0.41889226
8	0xbe847eab	-0.2587789
9	0xbf24af6f	-0.6433019
10	0x3daf3c97	0.085564785
11	0x3d029106	0.031876586
12	0xbe8744c3	-0.2641965
13	0xbe66f786	-0.2255536
14	0x3db13b19	0.0865385
15	0x3e95640e	0.29177898
16	0xbe2c6245	-0.16834362
17	0x3e5f3025	0.2179571
18	0x3e8c6b0f	0.2742543
19	0x3d73c51c	0.05951415
20	0xbe236bd2	-0.15959099
21	0xbe643ef2	-0.22289637
22	0xbe00b341	-0.1256838
23	0xbe01c6fc	-0.12673563
24	0x3e3f2961	0.18668129
25	0x3e0fcf8e	0.1404402
26	0xbe244c75	-0.16044791
27	0xbe867276	-0.26259202
28	0x3e86275f	0.26201913
29	0xbe95c61f	-0.29252717
30	0x3e2df844	0.16989237
31	0x3e62de46	0.22155103
32	0x3e067275	0.131296
33	0x3e2e653b	0.17030804
34	0x3f4bfa53	0.7967884
35	0x3f624385	0.88384277
36	0xbe31280f	-0.17300437
37	0xbe9fad0b	-0.3118671
38	0xbed2e0c1	-0.411871
39	0x3e8f0dd8	0.2794025
40	0x3ee43761	0.445735
41	0xbc56495b	-0.013079013
42	0xbec2bda3	-0.38035306
43	0xbeddb793	-0.4330412
44	0x3f12503a	0.57153666
45	0x3d1ef936	0.038811885
46	0xbbb81596	-0.0056178076
47	0x3f6b9210	0.9201975
48	0x3e3de43c	0.18544096
49	0x3d87ea6e	0.06636511
50	0x3f72b87b	0.94812745
51	0x3e5cce53	0.21563081
52	0x3f277b31	0.6542235
53	0xbed8c323	-0.42336378
54	0xbf5ee876	-0.8707346
55	0x3f86538b	1.0494245
56	0xbea15310	-0.31508684
57	0xbcae7634	-0.021296598
58	0xbf4088d5	-0.7520879
59	0xbec13ebf	-0.37743184
60	0xbe3fe82f	-0.18740915
61	0x3e17faaf	0.14841722
62	0x3dad2bfa	0.084556535
63	0x3e0969af	0.13419221
64	0xbebb1032	-0.36535794
65	0x3f28a9ae	0.6588391
66	0x3f5d8ee7	0.86546177
67	0x3f441065	0.76587516
68	0xbec7af90	-0.3900113
69	0x3e98c8bf	0.29840657
70	0x3f13bf42	0.5771371
71	0x3f126703	0.57188433
72	0x3ec44030	0.3833022
73	0x3f0d4e41	0.5519753
74	0x3e8d4983	0.27595147
75	0x3e5dbf9b	0.21655123
76	0xbe830d93	-0.25596294
77	0x3c766133	0.015037823
78	0xbe1b75d5	-0.15181668
79	0x3f2b9b19	0.67033535
80	0x3f2b791f	0.6698169
81	0xbe045824	-0.12924248
82	0x3fa3ab10	1.2786579
83	0x3f0ae342	0.5425302
84	0x3f01273b	0.50450486
85	0x3e7d5ca7	0.24742375
86	0xbf375faa	-0.71630347
87	0xbdecbfc8	-0.11560017
88	0xbf16cdf4	-0.5890801
89	0xbe310d44	-0.17290217
90	0xbcf5b5fa	-0.029994
91	0x3c8ceeea	0.017203767
92	0xbf03b98d	-0.51455003
93	0x3ec34d89	0.38145092
94	0xbeb96423	-0.3620921
95	0xbe1f7e6e	-0.15575573
96	0xbc894379	-0.016755806
97	0x3e934b16	0.28768224
98	0x3ec15051	0.3775659
99	0xbf10dca1	-0.56586653
100	0xbe01ca0a	-0.12674728
101	0x3db43157	0.08798473
102	0xbedad261	-0.4273863
103	0xbe5fb043	-0.21844582
104	0xbdedb2b3	-0.1160635
105	0xbfbdb136	-1.4819705
106	0xbdee8e4a	-0.11648233
107	0x3ed8620d	0.42262307
108	0x3ea77189	0.32703808
109	0xbeb5c751	-0.3550363
110	0x3dfe7930	0.124254584
111	0x3f5d2a6c	0.86392856
112	0x3c61f132	0.013790416
113	0x3cd85c92	0.026411328
114	0x3f062856	0.524053
115	0x3e6f9f2a	0.2340056
116	0x3edb643f	0.4284992
117	0xbea4a681	-0.32158282
118	0xbdf4b0d8	-0.11947793
119	0x3e9be86b	0.30450758
120	0xbd3e8096	-0.046509348
121	0x3defd355	0.1171023
122	0xbdd35514	-0.10318962
123	0x3d88871b	0.06666394
124	0xbe0b017d	-0.13574786
125	0x3ee81aa6	0.4533283
126	0x3d4f19d9	0.05056176
127	0x3e039d8f	0.12853073
128	0xbe6d24d9	-0.23158588
129	0x3f12a181	0.57277685
130	0x3f06ca89	0.52652794
131	0x3ea4d42e	0.3219313
132	0xbe2be3c1	-0.167861
133	0x3ea77136	0.3270356
134	0xbf8a642e	-1.0811822
135	0x3e8759fc	0.2643584
136	0x3d6418b2	0.055687614
137	0xbee1e57a	-0.4412039
138	0xbe0d2d4c	-0.1378681
139	0x3eaa23e9	0.33230522
140	0x3ef780f5	0.48340574
141	0xbef74c36	-0.48300332
142	0xbdcd6616	-0.10029237
143	0x3f33b71a	0.70201266
144	0xbf06ef92	-0.52709305
145	0xbe020550	-0.12697339
146	0x3f07e4b1	0.5308333
147	0xbd0122ae	-0.031527214
148	0x3f7a86ae	0.97861755
149	0x3f0846b3	0.5323288
150	0x3ea634d8	0.32462192
151	0x3e7087e3	0.23489337
152	0xbe8fc85d	-0.28082553
153	0xbeab3c82	-0.334446
154	0xbd9bb4d3	-0.07602849
155	0xbedcb2b4	-0.4310509
156	0xbdec2bb1	-0.11531771
157	0x3eea373d	0.45745268
158	0xbc3ec5ae	-0.01164381
159	0xbe1ebf97	-0.15502773
160	0xbcb2fcb1	-0.021849008
161	0xbd6793a1	-0.056537274
162	0xbeae9c5f	-0.34103677
163	0xbebf20ab	-0.3732961
164	0x3e52bc3e	0.20579621
165	0xbe1ad2da	-0.15119496
166	0xbde2416e	-0.11047636
167	0xbeaa7b94	-0.33297408
168	0xbda856b4	-0.08219662
169	0xbfa0a4a2	-1.2550242
170	0xbdc761cf	-0.097354524
171	0xbf8b4276	-1.0879657
172	0xbe9c6a81	-0.30550006
173	0xbe7a2dbd	-0.2443151
174	0x3cab4403	0.020906454
175	0xbee8e97c	-0.45490634
176	0xbd880109	-0.066408224
177	0x3d693f91	0.056945387
178	0xbe6daa08	-0.23209393
179	0x3e790211	0.24317195
180	0xbe05059d	-0.12990423
181	0xbcd5adc1	-0.026083829
182	0xbea8f542	-0.32999617
183	0xbe8db15d	-0.2767438
184	0xbe222c68	-0.15837252
185	0x3d823dd8	0.06359452
186	0xbfb223bf	-1.3917159
187	0xbf07b263	-0.5300657
188	0x3d096a6e	0.033548765
189	0xbdcb0af6	-0.099142
190	0x3e9c5a3b	0.3053759
191	0x3e1e2d64	0.15447003
192	0x3dfeba01	0.12437821
193	0x3e49ac3f	0.19694613
194	0xbec933df	-0.39297387
195	0xbf99a87b	-1.2004541
196	0xbe4bd755	-0.19906361
197	0xbd436de7	-0.047712233
198	0xbf07b4fc	-0.53010535
199	0xbdc81803	-0.09770205
200	0x3eeae755	0.45879617
201	0xbebb49f9	-0.36579874
202	0xbead9aa9	-0.3390706
203	0xbf0d59ec	-0.55215335
204	0x3f14f723	0.581896
205	0xbefa07bd	-0.4883403
206	0xbe94e4d0	-0.2908082
207	0xbf1f8fbb	-0.6232869
208	0xbd904043	-0.07043507
209	0xbe1a9987	-0.15097629
210	0xbf44e65e	-0.7691401
211	0xbf80a6e4	-1.0050931
212	0xbfb68318	-1.4258757
213	0x3fccc9e7	1.5999116
214	0x3f8df714	1.1091027
215	0x3f01a1a5	0.50637275
216	0x3da10410	0.07862103
217	0xbde23c14	-0.11046615
218	0x3ce1c1d1	0.02755824
219	0x3e109a8b	0.14121453
220	0x3e1f92a2	0.1558328
221	0x3f15ed0c	0.5856483
222	0xbe049242	-0.12946418
223	0xbed1d449	-0.40982273
224	0x3cc78ae0	0.024358213
225	0xbdd694aa	-0.10477574
226	0x3c876381	0.01652694
227	0xbe9bc761	-0.30425552
228	0x3df04edf	0.117337935
229	0xbcc9e175	-0.02464364
230	0xbeb25526	-0.34830588
231	0xbf00ab6b	-0.50261563
232	0xbd10626e	-0.03525012
233	0xbe58726c	-0.21137398
234	0xbd16d5b5	-0.0368249
235	0xbd8fdfbe	-0.07025097
236	0xbebeb048	-0.37243867
237	0xbe117e04	-0.14208227
238	0x3e1cbdf8	0.15306842
239	0x3c378e35	0.011203338
240	0xbed6fdd7	-0.4199054
241	0x3ccdaa73	0.02510569
242	0xbd103a68	-0.03521195
243	0x3eb30ee9	0.34972313
244	0xbe2ca82e	-0.1686103
245	0xbe2906bd	-0.16506477
246	0xbe846bd1	-0.25863507
247	0x3e13c4a2	0.14430478
248	0x3d8fad47	0.07015472
249	0xbcde67aa	-0.02714904
250	0xbe985a4d	-0.29756394
251	0xbe8f4081	-0.279789
252	0x3d293d2f	0.041318115
253	0xbe02b5ad	-0.12764616
254	0x3bc7c547	0.0060965153
255	0x3e4a6cb8	0.19768035

bias f4 [32]
0	0x3e376717	0.1791042
1	0xbe93e77e	-0.28887552
2	0xbe3f9e21	-0.18712665
3	0x3e3238cd	0.1740448
4	0xbda23cf4	-0.07921782
5	0x3d81d91d	0.06340239
6	0xbd36517a	-0.044511296
7	0x3d7b972d	0.06142347
8	0xbe1efdf8	-0.15526569
9	0x3e4be3f3	0.19911174
10	0xbe9f5ac2	-0.3112393
11	0x3e98a29b	0.29811558
12	0xbedb2166	-0.42798918
13	0xbd50a927	-0.050942566
14	0x3e65149d	0.22371145
15	0xbf16c6b5	-0.5889695
16	0xbe3858a0	-0.18002558
17	0x3e899767	0.26873323
18	0xbf66ec77	-0.90204567
19	0x3e7efdb3	0.24901466
20	0x3e4b47d5	0.1985162
21	0xbf3eb6b2	-0.7449752
22	0x3e6a46dc	0.22878593
23	0x3db8ec14	0.09029403
24	0x3ea006e1	0.31255248
25	0x3ce74ea7	0.028235747
26	0xbf44ce23	-0.7687704
27	0xbf8691b7	-1.0513219
28	0x3e165e12	0.14684322
29	0xbeefdcd9	-0.4684818
30	0x3e5f136e	0.21784756
31	0xbeddfb0d	-0.433556

weight f4 [4, 32]
0	0xbe6997c9	-0.22811808
1	0xbf2664d4	-0.649976
2	0x3f2646a9	0.6495157
3	0xbe97a5a4	-0.2961856
4	0x3e3ae15b	0.18250029
5	0x3d6d5475	0.057941873
6	0xbf7bab9d	-0.98308736
7	0xbe0e13f9	-0.13874806
8	0xbd24baa8	-0.04021707
9	0xbdae0ae5	-0.08498172
10	0x3eb50436	0.35354775
11	0x3f10987c	0.5648267
12	0x3e17d36e	0.14826748
13	0xbe5ffa75	-0.21872886
14	0xbd4369c6	-0.047708295
15	0x3ec6bb1e	0.38814634
16	0x3f36edce	0.7145661
17	0xbdfc3b08	-0.12315947
18	0xbe7eb8df	-0.2487521
19	0xbe1c4230	-0.15259624
20	0xbde564b9	-0.11200852
21	0x3f295d20	0.6615772
22	0xbd5a45e9	-0.053289328
23	0xbe3bc79f	-0.18337868
24	0xbdf43fa1	-0.11926199
25	0x3ec7eb8b	0.39046893
26	0x3f1db9f7	0.61611885
27	0x3f20768c	0.6268089
28	0xbf39933f	-0.72490305
29	0xbf0c271f	-0.54747194
30	0x3e724bb1	0.23661686
31	0xbee0b36d	-0.4388689
32	0x3e81ce3b	0.25352654
33	0xbe81d03a	-0.25354177
34	0x3e9a8915	0.3018271
35	0x3ec95288	0.3932078
36	0x3edf5416	0.4361884
37	0xbeaa4c37	-0.33261272
38	0xbf0faec3	-0.5612604
39	0x3e37b739	0.17940988
40	0xbf038d7d	-0.5138777
41	0x3ec9de64	0.39427483
42	0xbe9d9b8c	-0.30782735
43	0x3da95dd0	0.082698464
44	0x3d12d8cc	0.035851285
45	0x3e7b99f4	0.24570447
46	0x3c6717df	0.014104812
47	0xbe44c123	-0.19214301
48	0x3e821010	0.2540288
49	0xbd922c3f	-0.071373455
50	0x3fbdbb4c	1.4822783
51	0xbdb9e5b9	-0.09077019
52	0x3e944ce1	0.28964904
53	0xbf15ebe4	-0.58563066
54	0xbe9cb090	-0.30603456
55	0x3df75923	0.12077548
56	0xbe87e024	-0.26538193
57	0x3ed3443e	0.41263002
58	0x3f0c5e80	0.54831696
59	0x3f49641a	0.7866837
60	0xbed2aeba	-0.4114893
61	0x3dfe7d5e	0.12426256
62	0xbe221ec3	-0.15832047
63	0xbebd37fb	-0.36956772
64	0x3d657acb	0.056025308
65	0xbda7e47d	-0.081978776
66	0xbd58d729	-0.052939568
67	0xbc16f45e	-0.009213535
68	0x3eb2c1da	0.34913522
69	0x3de18ee6	0.11013584
70	0xbe81632b	-0.25270972
71	0xbd96b1fe	-0.07358168
72	0x3dd11b71	0.10210312
73	0x3eb9b347	0.3626959
74	0xbee2d897	-0.4430587
75	0xbd91f5e3	-0.07126977
76	0xbedc74f5	-0.4305798
77	0xbe7e0e3a	-0.24810115
78	0xbd64912c	-0.05580251
79	0xbfb179c9	-1.3865291
80	0x3d98ba24	0.074573785
81	0x3d730558	0.059331268
82	0xbebbd2ae	-0.36684173
83	0xbe231c17	-0.15928684
84	0xbef93287	-0.48671362
85	0x3e4be7c9	0.19912638
86	0x3e78171d	0.24227567
87	0xbd8b966d	-0.06815801
88	0x3ec51efe	0.38500208
89	0x3d1de8e0	0.038552165
90	0xbf3de710	-0.741807
91	0xbc27a292	-0.010231631
92	0xbe119995	-0.14218743
93	0x3ef0aa8c	0.47005117
94	0x3e1dbd23	0.15404181
95	0xbe3a2958	-0.18179834
96	0xbe2f4462	-0.1711593
97	0x3e34a599	0.17641295
98	0x3d5a3413	0.053272318
99	0xbeee0c92	-0.46493965
100	0xbe42a39f	-0.19007729
101	0xbe4ce182	-0.200079
102	0xbe43fec2	-0.19140151
103	0x3c986cd2	0.018606577
104	0x3d85c1a7	0.06531077
105	0x3df91965	0.12163047
106	0x3f22c8e5	0.6358779
107	0x3e05ba13	0.13059263
108	0x3dbf3cfe	0.09337805
109	0x3e0bcd0d	0.1365244
110	0xbe93a3f2	-0.28836018
111	0x3dfb86bd	0.12281559
112	0x3e1995d9	0.14998569
113	0x3e0ed860	0.13949728
114	0x3e815dcc	0.25266874
115	0x3ef52fb7	0.47887966
116	0xbdff0cd9	-0.12453622
117	0x3ecc4079	0.3989294
118	0xbe55973e	-0.20858476
119	0x3d886870	0.06660545
120	0x3e299b55	0.1656316
121	0x3d7fcdd7	0.062452164
122	0x3eb6be03	0.35691842
123	0x3f797429	0.9744287
124	0xbf37ff4c	-0.7187393
125	0x3dd2d1f2	0.1029395
126	0xbe09871b	-0.13430445
127	0xbc796577	-0.015221945

bias f4 [4]
0	0xbe1c0a1c	-0.15238231
1	0xbcd0895d	-0.025456125
2	0xbde2d442	-0.11075641
3	0xbe31a4b0	-0.1734798
