[NewFlyModels]/min_func_ScaleMetric_Fly_6.pt (torch_old, 54341 bytes, 136 tensors)

weight f4 [2, 2]
0	0xbf342380	-0.7036667
1	0x3e753377	0.23945414
2	0x3e5179a9	0.20456566
3	0x3f1a3c53	0.602483

bias f4 [2]
0	0xbee5826a	-0.4482606
1	0xbf25a373	-0.6470253

weight f4 [2, 2]
0	0x3eef7bd7	0.4677417
1	0x3e92aa9b	0.28645787
2	0xbfec274b	-1.8449491
3	0xbfbafd60	-1.4608574

weight f4 [1, 2]
0	0xbec0a33d	-0.3762454
1	0x3eb45fca	0.3522933

weight f4 [2, 2]
0	0x3fa6304b	1.2983488
1	0xbf73d107	-0.95240825
2	0x3f473d33	0.7782776
3	0xbec9ed59	-0.39438894

bias f4 [2]
0	0xbf78e149	-0.9721876
1	0xbd7f31ae	-0.062303238

weight f4 [2, 2]
0	0x3f916b6a	1.1360905
1	0xbf463d96	-0.7743772
2	0xbd605e9c	-0.054777727
3	0xbeaa66d7	-0.33281586

weight f4 [1, 2]
0	0x3ed07b9e	0.40719312
1	0xbf0ad37f	-0.5422897

weight f4 [2, 2]
0	0xbf76da50	-0.9642687
1	0x3ea802bb	0.32814583
2	0x3f8c6d75	1.0970904
3	0xbefa1c00	-0.48849487

bias f4 [2]
0	0x3f3b3ac0	0.7313652
1	0xbf8e2d41	-1.110756

weight f4 [2, 2]
0	0x3f805295	1.0025202
1	0x3f426157	0.7592978
2	0x3e83dfaf	0.25756595
3	0x3f674db5	0.90352947

weight f4 [1, 2]
0	0x3e736284	0.2376805
1	0xbee4fe09	-0.44725063

weight f4 [2, 2]
0	0xbf90da37	-1.1316594
1	0x3ec37635	0.38176122
2	0x3e175e0a	0.14781967
3	0xbf95221e	-1.1651037

bias f4 [2]
0	0x3f33d282	0.70243084
1	0xbe2bf434	-0.16792375

weight f4 [2, 2]
0	0x3f0a54eb	0.54035825
1	0xbe30f0e6	-0.17279395
2	0x3f7a7ef1	0.9784995
3	0x3e0b523f	0.13605593

weight f4 [1, 2]
0	0xbf1706ce	-0.5899476
1	0x3ed751ba	0.4205454

weight f4 [2, 2]
0	0xbf49a1a8	-0.7876229
1	0xbf164bf2	-0.58709633
2	0xbf7128a6	-0.9420265
3	0xbeb9a5af	-0.3625922

bias f4 [2]
0	0x3faca584	1.3488011
1	0xbd609f74	-0.054839566

weight f4 [2, 2]
0	0x3e62a75c	0.22134155
1	0x3fb0ed85	1.3822485
2	0xbfb729ce	-1.4309633
3	0x3f150534	0.58211064

weight f4 [1, 2]
0	0x3e975aca	0.29561454
1	0x3ebe8d86	0.3721735

weight f4 [2, 2]
0	0xbf363d12	-0.71186936
1	0x3fa209c7	1.2659234
2	0xbfba843f	-1.4571608
3	0x3fc3203a	1.524421

bias f4 [2]
0	0x3f5c491c	0.86049056
1	0x3f52e079	0.8237377

weight f4 [2, 2]
0	0x3d544f72	0.051833577
1	0xbd67e615	-0.056615908
2	0x3f1b7b0f	0.6073465
3	0xbf18b0e1	-0.59644896

weight f4 [1, 2]
0	0xbcee63e0	-0.029100358
1	0xbe98e9d7	-0.29865906

weight f4 [2, 2]
0	0x3d1e674d	0.038672734
1	0xbf4d23bf	-0.8013267
2	0x3ec62ff4	0.3870846
3	0xbf26c3df	-0.65142626

bias f4 [2]
0	0xbf14a104	-0.5805819
1	0x3e8da3c8	0.27664018

weight f4 [2, 2]
0	0xbf0dbeaa	-0.55369055
1	0xbe2909c1	-0.16507627
2	0x3f4ef2e7	0.8083939
3	0x3eeaa2f9	0.45827463

weight f4 [1, 2]
0	0xbcae4e20	-0.021277487
1	0x3eb703d2	0.35745102

weight f4 [2, 2]
0	0x3fa24ef0	1.268034
1	0xbf80c500	-1.006012
2	0x3c5ebcd4	0.013594825
3	0xbf90be1d	-1.1308018

bias f4 [2]
0	0xbf2b5870	-0.6693182
1	0xbf550976	-0.8321756

weight f4 [2, 2]
0	0xbe71b889	-0.23605551
1	0x3f90df30	1.1318111
2	0x3fb0780d	1.3786637
3	0xbf25064a	-0.6446272

weight f4 [1, 2]
0	0xbcd51e40	-0.0260154
1	0xbe8def72	-0.27721745

weight f4 [2, 2]
0	0xbf96db2d	-1.1785637
1	0x3fd906d0	1.6955204
2	0x3eb52283	0.35377893
3	0xbf7db3c0	-0.991024

bias f4 [2]
0	0x3e46ce21	0.1941457
1	0xbe01d374	-0.12678319

weight f4 [2, 2]
0	0x3f9e5f05	1.2372748
1	0x3f46c438	0.77643156
2	0xbf011f45	-0.5043834
3	0xbf31aa7f	-0.6940078

weight f4 [1, 2]
0	0xbebe8e6c	-0.37218034
1	0xbf277141	-0.65407187

weight f4 [2, 2]
0	0x3e9c2020	0.3049326
1	0xbf66b19b	-0.90114754
2	0xbe5cb0c0	-0.215518
3	0xbe2e5ac8	-0.17026818

bias f4 [2]
0	0xbf31d006	-0.69458044
1	0x3eaf0ae1	0.34187987

weight f4 [2, 2]
0	0x80096fbe	-8.66605e-40
1	0x800c3662	-1.121535e-39
2	0x92bdb4bf	-1.1972134e-27
3	0x9357a5e3	-2.7218604e-27

weight f4 [1, 2]
0	0xbd095450	-0.033527672
1	0xbec13347	-0.37734434

weight f4 [2, 2]
0	0xbf37d3af	-0.7180738
1	0x3f2d7d95	0.6776975
2	0x3df077e4	0.11741617
3	0x3f3850d3	0.7199833

bias f4 [2]
0	0x3f059af3	0.5218956
1	0xbf34295a	-0.703756

weight f4 [2, 2]
0	0xbf50ff32	-0.816394
1	0x3f0616c2	0.52378476
2	0x3fa84927	1.3147324
3	0xbf1ec02d	-0.62011987

weight f4 [1, 2]
0	0x3f0661d5	0.5249303
1	0x3ea0940e	0.31362957

weight f4 [2, 2]
0	0x3db86205	0.09003071
1	0x3d48ffd9	0.04907212
2	0x3faad948	1.3347559
3	0xbf24a0d3	-0.643079

bias f4 [2]
0	0x3f4e37d2	0.80553925
1	0xbf1b532b	-0.6067378

weight f4 [2, 2]
0	0xbe2ba603	-0.16762547
1	0x3dca8bf1	0.09889973
2	0x3e9991c3	0.2999402
3	0xbdfe9ce7	-0.124322705

weight f4 [1, 2]
0	0xbe28aeb8	-0.164729
1	0xbe6b6b1c	-0.22990078

weight f4 [2, 2]
0	0xbfab71ed	-1.3394142
1	0xbf7a53d6	-0.97784173
2	0xbff4154d	-1.9069
3	0xbfcc4dbc	-1.5961223

bias f4 [2]
0	0xbe38db7e	-0.1805248
1	0xbe59fab5	-0.21287043

weight f4 [2, 2]
0	0x3c0bc15f	0.00852999
1	0xbb76825d	-0.0037614324
2	0x3eff78dc	0.49896896
3	0x3fb6c8a6	1.4279983

weight f4 [1, 2]
0	0xbd185360	-0.037188888
1	0xbc2f3640	-0.010694087

weight f4 [2, 2]
0	0x3f890d2c	1.0707145
1	0xbf27ba40	-0.6551857
2	0xbc5e00ad	-0.013549966
3	0xbedfff84	-0.4374963

bias f4 [2]
0	0xbf56e64b	-0.8394515
1	0xbd77b7fd	-0.0604782

weight f4 [2, 2]
0	0xbedeee9b	-0.43541417
1	0xbd977b22	-0.073965326
2	0x3ef9a672	0.487598
3	0x3ebf9799	0.37420347

weight f4 [1, 2]
0	0xbe007d20	-0.12547731
1	0xbf0634e6	-0.52424467

weight f4 [2, 2]
0	0x3fd59274	1.6685319
1	0xbf418e87	-0.75608104
2	0x403c07a1	2.9379656
3	0xbf964f50	-1.1742954

bias f4 [2]
0	0xbf1919bd	-0.598049
1	0xbfad89c8	-1.3557673

weight f4 [2, 2]
0	0x3dcee6c5	0.101026095
1	0xbfcd44ec	-1.6036658
2	0xbe8ce8cd	-0.27521363
3	0x3ed78256	0.42091626

weight f4 [1, 2]
0	0x3ef939a2	0.48676783
1	0xbebff1db	-0.3748921

weight f4 [2, 2]
0	0xbdccaffb	-0.09994503
1	0x3f8f9909	1.1218578
2	0x3f2dd4eb	0.6790301
3	0xbe3a25a8	-0.18178427

bias f4 [2]
0	0x3f3731ab	0.7156016
1	0xbfd2709c	-1.6440616

weight f4 [2, 2]
0	0xbfaf08bf	-1.3674544
1	0xbfadb38b	-1.3570417
2	0x3f0c7cef	0.54878134
3	0xbfd47b8c	-1.6600204

weight f4 [1, 2]
0	0x3ef464ce	0.47733158
1	0xbe82d1d0	-0.255507

weight f4 [2, 2]
0	0xbfabe83f	-1.3430251
1	0x3e831494	0.25601637
2	0xbcd4f647	-0.02599634
3	0x3f90bfa4	1.1308484

bias f4 [2]
0	0x3e8c60bc	0.27417552
1	0xbffb3e54	-1.9628396

weight f4 [2, 2]
0	0x3e41848d	0.1889822
1	0x3d58c40e	0.052921347
2	0x3f00307e	0.50073993
3	0xbfe480f6	-1.7851856

weight f4 [1, 2]
0	0x3e05363c	0.1300897
1	0xbeecfa04	-0.46284497

weight f4 [2, 2]
0	0x3f4e1088	0.80493975
1	0x3f03e4d2	0.5152103
2	0x3dcd991d	0.1003897
3	0xbe57ead0	-0.21085668

bias f4 [2]
0	0x3de18ea2	0.11013533
1	0x3d459aed	0.048243452

weight f4 [2, 2]
0	0x3f25af46	0.6472057
1	0xbe2f6b37	-0.17130743
2	0xbe030966	-0.12796554
3	0x3e253965	0.16135176

weight f4 [1, 2]
0	0x3f24a791	0.64318186
1	0x3f08d815	0.53454715

weight f4 [2, 2]
0	0xbe327e67	-0.17431031
1	0xbe7cd32c	-0.2468993
2	0x3eb5550a	0.35416442
3	0x3f751bb1	0.9574538

bias f4 [2]
0	0x3e57d58a	0.21077552
1	0x3e65dc21	0.22447254

weight f4 [2, 2]
0	0x3f3249f2	0.6964408
1	0x3c975037	0.018470867
2	0x3d8edb0e	0.06975375
3	0x3ad83bd7	0.0016497326

weight f4 [1, 2]
0	0xbf01b104	-0.5066073
1	0xbf2e09d9	-0.67983776

weight f4 [2, 2]
0	0xbf966d09	-1.1752025
1	0x3e5e2e5a	0.21697369
2	0xbf8f247c	-1.1183009
3	0x3fed01a2	1.8516123

bias f4 [2]
0	0x3fd19a11	1.6375142
1	0x3f088a06	0.5333561

weight f4 [2, 2]
0	0xc0085c0a	-2.1306176
1	0xc00ae35d	-2.1701272
2	0xb6e184ae	-6.7209685e-06
3	0x3938fa82	0.00017640929

weight f4 [1, 2]
0	0x3eeb61ae	0.4597296
1	0xbf0a5bac	-0.5404613

weight f4 [2, 2]
0	0x3df6ea36	0.12056391
1	0xbf1c25c7	-0.60995144
2	0xbf447e97	-0.7675566
3	0x3e55c55b	0.20876066

bias f4 [2]
0	0x3f8b2621	1.0871011
1	0x3e684779	0.22683515

weight f4 [2, 2]
0	0xbe9d300d	-0.30700722
1	0xbf2945b0	-0.6612196
2	0xbf92d1d3	-1.1470283
3	0x3f7a78b3	0.9784042

weight f4 [1, 2]
0	0x3ee84d7a	0.4537161
1	0xbe132a20	-0.14371538

weight f4 [2, 2]
0	0xbfecbf2c	-1.8495841
1	0xbeca3df8	-0.39500403
2	0x3e1500d3	0.14551096
3	0x3f58e6cb	0.8472716

bias f4 [2]
0	0xbe4dbba8	-0.20091116
1	0xbf6fc47e	-0.936592

weight f4 [2, 2]
0	0x3f0fb89f	0.56141084
1	0x3ed4c82e	0.41558975
2	0x3eb3eb4f	0.35140464
3	0xbf2c2e8a	-0.6725851

weight f4 [1, 2]
0	0x3f2a0905	0.6642001
1	0x3e29b52c	0.16573018

weight f4 [2, 2]
0	0x3ef875ea	0.4852746
1	0x3e1cecdf	0.15324734
2	0x3f15ff82	0.58593
3	0xbf734638	-0.9502902

bias f4 [2]
0	0x3d9bb4bb	0.07602831
1	0xbe5a588a	-0.21322837

weight f4 [2, 2]
0	0x3f93349c	1.150043
1	0xbe205d56	-0.15660605
2	0x3eb50ac9	0.3535979
3	0x3f210479	0.6289745

weight f4 [1, 2]
0	0xbd4ab6f0	-0.04949087
1	0xbde7fec0	-0.113278866

weight f4 [2, 2]
0	0x3f8de8ae	1.1086633
1	0xbfc4b097	-1.5366391
2	0xbdee57cf	-0.11637842
3	0xbd74a83e	-0.05973076

bias f4 [2]
0	0x3f2fdd89	0.6869741
1	0xbf01edcd	-0.5075348

weight f4 [2, 2]
0	0x3f46ac27	0.77606434
1	0x3dc694c1	0.09696341
2	0xbf3fb2ce	-0.7488221
3	0xbdfe49d4	-0.12416425

weight f4 [1, 2]
0	0x3e033e50	0.12816739
1	0x3f20dc8b	0.6283652

weight f4 [2, 2]
0	0xbf2ef012	-0.6833507
1	0x3f484bb3	0.7824051
2	0xbf43fedc	-0.7656076
3	0x3d3b2e10	0.045698225

bias f4 [2]
0	0x3f7947cf	0.97375196
1	0xbe224d93	-0.15849905

weight f4 [2, 2]
0	0xbf34165b	-0.7034661
1	0xbea939a2	-0.33051783
2	0x3ea0c68f	0.31401488
3	0x3f0ed745	0.55797225

weight f4 [1, 2]
0	0xbb312700	-0.0027031302
1	0xbef22deb	-0.47300658

weight f4 [2, 2]
0	0xbd8ffaa9	-0.070302315
1	0xbe0e02c0	-0.13868237
2	0x3ebe1cfd	0.3713149
3	0x3f30f9c5	0.6913112

bias f4 [2]
0	0xbd062201	-0.032747272
1	0xbf6d9ba5	-0.9281562

weight f4 [2, 2]
0	0x3ec2f52d	0.3807768
1	0xbeade3a2	-0.33962733
2	0x3df99f75	0.12188617
3	0x3f27673d	0.65391904

weight f4 [1, 2]
0	0xbe8db5ea	-0.27677852
1	0x3ec7ae9e	0.3900041

weight f4 [2, 2]
0	0xbf996793	-1.1984733
1	0x3e4bc8c9	0.19900812
2	0x3edb8413	0.42874202
3	0xbfa4d89c	-1.2878604

bias f4 [2]
0	0x3f1c3827	0.6102318
1	0xbf6c6ded	-0.92355233

weight f4 [2, 2]
0	0xa96e45ee	-5.290727e-14
1	0x27d73932	5.97365e-15
2	0xa2ec80c6	-6.4104272e-18
3	0xa29f4d4d	-4.317888e-18

weight f4 [1, 2]
0	0xbed60565	-0.4180099
1	0xbeeb1ad7	-0.45918915

weight f4 [2, 2]
0	0x3f1d5d83	0.6147081
1	0x3ea68aaf	0.32527682
2	0xbf3d8883	-0.74036425
3	0xbc38e050	-0.011283949

bias f4 [2]
0	0xbe242fe2	-0.16033891
1	0x3ea01c12	0.31271416

weight f4 [2, 2]
0	0x3ea85c1d	0.32882777
1	0x3f2abaa9	0.6669107
2	0xbf57225a	-0.8403679
3	0x3fb908c8	1.4455805

weight f4 [1, 2]
0	0xbc9dde60	-0.019271076
1	0x3c190080	0.009338498

weight f4 [2, 2]
0	0x3da053b7	0.07828467
1	0xbe0acb27	-0.13554059
2	0x3ea6fc79	0.32614496
3	0xbe924358	-0.28567004

bias f4 [2]
0	0xbd87cb39	-0.066305585
1	0x3f3d19c5	0.73867446

weight f4 [2, 2]
0	0xbf95fb91	-1.1717397
1	0xbfc7f696	-1.5622127
2	0x3e9abe96	0.3022353
3	0x3e085718	0.13314474

weight f4 [1, 2]
0	0x3ecc37ca	0.39886314
1	0xbe8f76d4	-0.28020346

weight f4 [2, 2]
0	0xbec0bfaa	-0.37646228
1	0x3e303317	0.17206989
2	0xbf0c29bc	-0.5475118
3	0x3f4c3e7d	0.7978285

bias f4 [2]
0	0x3f6b6a29	0.9195886
1	0x3f5993e2	0.84991276

weight f4 [2, 2]
0	0x3f170ab1	0.5900069
1	0x3d8fbcfe	0.07018469
2	0x3f827f0f	1.0195025
3	0x3f9b0f48	1.2114038

weight f4 [1, 2]
0	0xbf2e7efc	-0.6816251
1	0x3d8cb720	0.06870866

weight f4 [2, 2]
0	0x3f92df7f	1.1474456
1	0x3eb5c170	0.35499144
2	0xbfc5d8b8	-1.5456762
3	0x3f7470e3	0.9548475

bias f4 [2]
0	0xbe98a0b4	-0.29810107
1	0xbd48a5e0	-0.048986316

weight f4 [2, 2]
0	0xbf21032f	-0.6289548
1	0xbf213c72	-0.6298286
2	0x3f3bcdbd	0.73360807
3	0x3ed98f22	0.42492014

weight f4 [1, 2]
0	0x3d8c4a30	0.06850088
1	0x3ead3fee	0.33837837

weight f4 [2, 2]
0	0xbf13be65	-0.57712394
1	0xbea24570	-0.31693602
2	0x3f30e9c4	0.691067
3	0xbec70b40	-0.3887577

bias f4 [2]
0	0x3ee896a9	0.45427445
1	0xbe6e1eb0	-0.23253894

weight f4 [2, 2]
0	0xbcfaf871	-0.030636044
1	0xbe1df73f	-0.15426348
2	0xbd9ee78a	-0.07759006
3	0x3f29be1a	0.66305697

weight f4 [1, 2]
0	0x3d3e7f50	0.046508133
1	0x3d0fb270	0.03508228

weight f4 [32, 2]
0	0x3f8f0037	1.117194
1	0xbf2f9aca	-0.68595564
2	0xbed057ec	-0.4069208
3	0x3f4ed369	0.80791336
4	0x3f98827a	1.1914818
5	0x4047deb6	3.1229682
6	0x3f42e5d3	0.76131934
7	0xbfe424e4	-1.7823758
8	0x3f88131c	1.0630832
9	0xbf969fe6	-1.1767547
10	0x3f432873	0.76233596
11	0x4029039f	2.640846
12	0x3fb7c7e7	1.435788
13	0x3f869dcd	1.0516907
14	0xbea36eda	-0.3192051
15	0xbf804bcb	-1.002313
16	0xc02fe6f4	-2.7484713
17	0xbf186b01	-0.59538275
18	0xbf531d4e	-0.8246659
19	0x3f17bfb9	0.5927692
20	0x3d8a0dd7	0.06740921
21	0x3fb4ea6e	1.4134042
22	0x3f63c5f3	0.8897392
23	0x3f87ec0b	1.061891
24	0xbf9bb6a1	-1.2165109
25	0x3f94bd0a	1.162019
26	0xbf909b74	-1.129744
27	0x3f21d2ec	0.63212466
28	0xbf53c623	-0.8272421
29	0xbed8984b	-0.4230369
30	0x3f6fd97c	0.9369123
31	0x3f2daa24	0.6783774
32	0x3f37a91c	0.71742415
33	0xbf9d0419	-1.2266876
34	0x3f57f0d4	0.8435185
35	0xbf4972cd	-0.786908
36	0x3f5a9afa	0.85392725
37	0xbf7082d2	-0.93949616
38	0xbe21e3b9	-0.15809526
39	0xbf98374f	-1.1891879
40	0xbf62e713	-0.8863384
41	0x3f131f77	0.57469887
42	0x4024dfb5	2.576154
43	0x3e8a45b4	0.27006304
44	0x3f032e8c	0.512429
45	0xbfadad0f	-1.3568438
46	0x3f07e826	0.53088605
47	0xbf1d647d	-0.6148146
48	0x3fcbc576	1.5919635
49	0xbf1da607	-0.6158146
50	0xbe696c84	-0.22795302
51	0xbfb50dba	-1.4144814
52	0x3f8c6226	1.0967453
53	0xbfe68834	-1.8010316
54	0x3f7e7c0a	0.9940802
55	0x3e5bd8df	0.21469449
56	0x3fbfb5fa	1.497741
57	0xbb391b4e	-0.0028245035
58	0x3e726936	0.23672947
59	0xbf2f9258	-0.6858268
60	0x3f684d4f	0.90742964
61	0x40220687	2.5316484
62	0xc02cc860	-2.69973
63	0xbf167de7	-0.5878586

bias f4 [32]
0	0xbf23ff73	-0.6406166
1	0x3e3358b6	0.1751431
2	0xbf8343ff	-1.0255126
3	0x3da5c60a	0.080944136
4	0xbe8c3997	-0.27387688
5	0xbdf46374	-0.11933032
6	0x3f3bad59	0.7331138
7	0xbf134049	-0.57519966
8	0x3e2b9779	0.16757001
9	0xbeff7b4d	-0.4989876
10	0x3e7d12c5	0.24714191
11	0xbf17438c	-0.59087443
12	0xbf4a3a9f	-0.789957
13	0x3e2aad14	0.16667587
14	0x3effbc71	0.49948457
15	0x3eedf7ef	0.4647822
16	0x3e342c52	0.17595032
17	0xbf24477d	-0.6417158
18	0xbf31830a	-0.69340575
19	0xbe72dbb4	-0.23716623
20	0x3f129588	0.57259417
21	0x3e77bf0d	0.24193974
22	0x3dd14b39	0.10219426
23	0x3f099405	0.53741485
24	0x3f0c9dbb	0.5492818
25	0xbbd0ed39	-0.0063759354
26	0x3e8c2cee	0.2737803
27	0x3e9af213	0.30262813
28	0x3eae6b44	0.34066212
29	0x3f0d0c34	0.55096745
30	0xbf3ca246	-0.7368511
31	0x3b80a1f9	0.0039255586

weight f4 [32, 32]
0	0xbe568e50	-0.20952725
1	0xbe21d78f	-0.15804885
2	0xbf9969ef	-1.1985453
3	0xbf29ba6b	-0.66300076
4	0xbf434a94	-0.7628567
5	0xbf960e27	-1.1723069
6	0xbf7e2cb8	-0.99286985
7	0x3ba102bd	0.0049136565
8	0x3ff0805a	1.878917
9	0xbe70e566	-0.23525009
10	0xbf310f3f	-0.6916389
11	0xbe48686e	-0.19571087
12	0xbf342249	-0.70364815
13	0x3ea6a904	0.32550824
14	0x3e9a3a4a	0.30122596
15	0xbf4f82e0	-0.81059074
16	0xbeaa5311	-0.332665
17	0xbd192e66	-0.037397765
18	0xbd3f97b1	-0.046775524
19	0xbde010c3	-0.10940697
20	0x3e50c307	0.20386897
21	0xbf5ddec6	-0.8666805
22	0xbe0c09c9	-0.13675608
23	0x3e0ac6ff	0.13552473
24	0xbe5f8857	-0.21829353
25	0xbd3c5ae6	-0.045985125
26	0xbed12d53	-0.40854892
27	0xbea62457	-0.324496
28	0xbe3ac736	-0.18240055
29	0x3d132d71	0.03593201
30	0xbf861eae	-1.0478113
31	0x40070097	2.109411
32	0x3ef9cabf	0.48787495
33	0xbdc45b86	-0.09587769
34	0x3fb07a59	1.3787338
35	0x3ea08a41	0.3135548
36	0x3f335714	0.70054746
37	0x3f9e922b	1.2388357
38	0x3f1b6c04	0.60711694
39	0x3d92ebc0	0.07173872
40	0xc01d6d05	-2.459779
41	0x3dbec426	0.09314756
42	0x3f0a27a4	0.53966737
43	0x3f0b1c4f	0.5434007
44	0x3db60dff	0.08889388
45	0xbee7f7ec	-0.45306337
46	0xbeb4e1ae	-0.3532843
47	0x3eb4de26	0.35325736
48	0x3e0b8ea8	0.13628638
49	0x3e90941c	0.28237998
50	0x3e8f9fbc	0.28051555
51	0x3cca784e	0.024715569
52	0xbe8ea756	-0.27862042
53	0x3f38d820	0.7220478
54	0x3ea92b94	0.3304106
55	0x3e3292d6	0.17438826
56	0x3ea5f707	0.3241503
57	0xbde1487b	-0.11000153
58	0x3ec8a89b	0.39191136
59	0x3e351753	0.17684679
60	0x3e7ede47	0.2488948
61	0xbd7e5472	-0.062092252
62	0x3fa11b3f	1.258644
63	0xbfc56dee	-1.5424173
64	0x3eae2f2d	0.34020367
65	0xbfa1b484	-1.2633214
66	0xbe7417fd	-0.23837276
67	0x3ef62ab3	0.48079452
68	0x3f2d3e05	0.6767276
69	0xbf362f4a	-0.7116591
70	0xbf86f72c	-1.0544181
71	0x3f57cb2d	0.84294397
72	0x3e992d65	0.29917446
73	0x3dee042b	0.11621889
74	0xbf8d3087	-1.1030434
75	0x3e1c4ee9	0.15264477
76	0x3cb06e17	0.02153687
77	0xbf85fe92	-1.0468314
78	0xbe0c0c61	-0.13676597
79	0xbf7d018a	-0.98830473
80	0x3e9d444e	0.30716175
81	0x3ee2a318	0.44265056
82	0x3f173ac6	0.59074056
83	0x3f52587b	0.8216626
84	0xbf0788ad	-0.52942926
85	0xbf2e10fe	-0.6799468
86	0x3ef5ed1a	0.48032457
87	0x3ea66c28	0.32504392
88	0x3e8ba147	0.27271482
89	0x3f07741f	0.5291156
90	0x3ebcfd68	0.36912084
91	0xbe465e1f	-0.19371842
92	0xbe8efd1c	-0.27927482
93	0x3e8c179f	0.2736177
94	0xbe1cbcee	-0.15306446
95	0x3f30f12b	0.69117993
96	0xbdcc21be	-0.09967373
97	0xbd9ef5d9	-0.077617355
98	0xbf04672b	-0.5171992
99	0xbec7d93d	-0.39032927
100	0x3d018b17	0.031626787
101	0xbf1af66a	-0.6053225
102	0x3d06ce01	0.032911304
103	0xbe12b9ef	-0.1432874
104	0x3e0c8371	0.13722016
105	0x3d6d3275	0.057909448
106	0xbd5e0085	-0.054199714
107	0xbe197d74	-0.14989263
108	0xbc8b7353	-0.017022764
109	0xbd3996b8	-0.045309752
110	0xbd564d1a	-0.052319624
111	0x3b44fecb	0.0030059095
112	0xbe4e8065	-0.20166166
113	0xbd8b8bb7	-0.06813758
114	0xbd263ddd	-0.04058634
115	0xbe6c962f	-0.23104165
116	0x3dac1729	0.08402855
117	0x3d7d6bea	0.061870493
118	0xbea6d25c	-0.32582366
119	0x3d8506b5	0.0649542
120	0xbd07f2f2	-0.033190675
121	0xbd13b88a	-0.036064662
122	0xbd85bc9f	-0.06530117
123	0xbe148975	-0.1450556
124	0xbdfbec87	-0.123009734
125	0xbc8c5329	-0.017129498
126	0xbf25ced1	-0.647687
127	0xbdfadc68	-0.122490704
128	0xbe0dc4ae	-0.13844559
129	0x3d344189	0.04400781
130	0xbe911f1f	-0.28344056
131	0x3dd5c740	0.104383945
132	0x3cbe5781	0.023235084
133	0xbe01d7ff	-0.12680052
134	0xbdcbc106	-0.09948926
135	0xbe4528a2	-0.19253781
136	0xbce9a22b	-0.02851971
137	0xbe2df449	-0.16987719
138	0xbe464d6c	-0.19365472
139	0xbeac0212	-0.3359533
140	0x3d9daa95	0.076985516
141	0x3da4c7cf	0.08045923
142	0x3cb18527	0.021669937
143	0x3d1939a8	0.0374085
144	0xbe167f72	-0.14697054
145	0xbe402ba9	-0.18766655
146	0xbe3fb195	-0.18720086
147	0xbdf237f2	-0.11827077
148	0x3e04363b	0.12911312
149	0x3e25cff1	0.16192605
150	0x3d254a05	0.040353794
151	0x3e2f904f	0.17144893
152	0x3e203379	0.15644635
153	0xbe0d539d	-0.13801427
154	0x3cc161a0	0.023606122
155	0x3d6d07b4	0.057868674
156	0xbcc24a95	-0.023717204
157	0xbd569e08	-0.052396804
158	0xbe1eca29	-0.15506805
159	0xbe2888d4	-0.16458446
160	0x3cdfd35a	0.02732246
161	0x3eb997fd	0.3624877
162	0xbe841249	-0.257952
163	0x3e3fe1b1	0.18738438
164	0xbc71fa9a	-0.014769221
165	0x3e5e5d9f	0.21715401
166	0x3db66b71	0.089072116
167	0xbc6ba525	-0.014382635
168	0xbdd6fb39	-0.10497136
169	0x3cbfce3e	0.023413774
170	0x3d47f3db	0.048816543
171	0x3ca32cf3	0.019918894
172	0xbda728fd	-0.08162115
173	0x3e03ba81	0.12864114
174	0xbe149b58	-0.14512384
175	0x3e11fa87	0.14255725
176	0x3cbd4337	0.02310334
177	0x3da9a694	0.082837254
178	0xbd1a7cbe	-0.03771662
179	0xbe65c021	-0.22436573
180	0x3e38fdbd	0.18065543
181	0xbdc56b8d	-0.09639654
182	0xbe3d4c82	-0.18486217
183	0xbe23e1c4	-0.16004092
184	0x3c3b3b8f	0.011427774
185	0xbe909bee	-0.28243965
186	0x3cbfd562	0.023417179
187	0xbb0687de	-0.002052776
188	0x3d1cd6b6	0.0382907
189	0x3d87c548	0.06629425
190	0xbe188d69	-0.14897694
191	0xbe348698	-0.17629468
192	0xbd1d623e	-0.03842377
193	0xbe24f058	-0.16107309
194	0xbdd3e727	-0.10346823
195	0xbb838c82	-0.0040145526
196	0x3cd9ca60	0.026585758
197	0xbeb4b7a5	-0.3529636
198	0xbe10515f	-0.1409354
199	0xbe1778d8	-0.14792192
200	0xbf14a785	-0.58068115
201	0xbd8972f1	-0.067113765
202	0xbe666d8f	-0.22502731
203	0xbda503a5	-0.08057336
204	0xbd4bfc8d	-0.049801398
205	0xbe2f8776	-0.17141518
206	0xbe151a1c	-0.14560741
207	0x3d857945	0.06517271
208	0x3d7312ad	0.059343982
209	0xbd689638	-0.056783885
210	0x3e342fe4	0.17596394
211	0xbc98ce15	-0.018652955
212	0xbd979d70	-0.07403076
213	0xbea602f8	-0.3242414
214	0x3e2bbcaa	0.16771188
215	0xbc85b17a	-0.016319979
216	0xbd22bf94	-0.039733484
217	0x3e572faa	0.21014276
218	0xbda93ee2	-0.08263947
219	0xbdbc5c55	-0.091972984
220	0xbaed256c	-0.0018092818
221	0x3df6ea1d	0.12056372
222	0xbe2e57a1	-0.17025615
223	0xbf000545	-0.5000804
224	0x3e379951	0.1792958
225	0x3ed4af23	0.4153987
226	0x3f067aec	0.52531314
227	0xbf11592a	-0.5677668
228	0xbea1b62f	-0.31584308
229	0x3e838614	0.2568823
230	0xbe9d5993	-0.30732402
231	0x3e4f0253	0.2021573
232	0x3f5092cd	0.81474
233	0x3f950ebc	1.1645122
234	0x3e3f53bc	0.18684286
235	0x3de48b8c	0.11159429
236	0x3fd6382a	1.673589
237	0x3f33bba9	0.7020822
238	0xbebb991b	-0.36640248
239	0xbede968a	-0.43474227
240	0xbfaf1409	-1.3677989
241	0x3e48261c	0.19545788
242	0x3dd9cd83	0.106349014
243	0xbe664f3a	-0.2249116
244	0x3e501de3	0.20323901
245	0xbfa7e0e5	-1.3115507
246	0xbf95e13d	-1.1709362
247	0xc000ad9d	-2.0105965
248	0xc0008cfd	-2.0086052
249	0xbf3c98b2	-0.73670495
250	0xbf906924	-1.1282086
251	0xbf52d49f	-0.82355684
252	0xbfbcba42	-1.4744341
253	0xbf8958ab	-1.0730184
254	0x3e2f6771	0.17129304
255	0x3e9445c5	0.2895948

bias f4 [32]
0	0xbe60ecfc	-0.21965402
1	0xbe45ba48	-0.19309342
2	0xbd9d28b3	-0.076737784
3	0x3e4e0cc9	0.20122065
4	0x3e76b2fa	0.24091712
5	0x3d7c5d01	0.061612133
6	0x3d887905	0.06663708
7	0xbf0ced9e	-0.55050075
8	0x3e3c8b69	0.18412556
9	0x3d924591	0.07142175
10	0xbe9bdcf5	-0.30442014
11	0x3ea2d15d	0.31800357
12	0xbece2a3e	-0.40266603
13	0xbde54020	-0.111938715
14	0x3dbc118d	0.09183035
15	0x3e336e28	0.1752249
16	0x3e44eb10	0.19230294
17	0xbed3defb	-0.41381058
18	0x3d65260a	0.05594448
19	0x3ded45c9	0.11585576
20	0xbe81c0fa	-0.25342542
21	0xbed0d6b8	-0.40788817
22	0xbef8772b	-0.48528418
23	0x3dba458a	0.09095295
24	0xbde945fb	-0.11390301
25	0xbe1c28b8	-0.15249908
26	0x3eacf4fe	0.33780664
27	0xbea8fbf3	-0.33004722
28	0xbcb5db01	-0.022199156
29	0xbedcd911	-0.4313436
30	0x3e309937	0.17245947
31	0xbe1cbb36	-0.1530579

weight f4 [32, 32]
0	0x3f122d3f	0.5710029
1	0x3f28f4d9	0.6599861
2	0x3f41b86c	0.7567203
3	0xbf1937cc	-0.59850764
4	0xbed63cc1	-0.41843227
5	0xbede2f02	-0.4339524
6	0xbe6054eb	-0.21907394
7	0x3c214e8a	0.009845385
8	0xbc820376	-0.01587079
9	0x3da9dd2d	0.08294139
10	0x3f1a95c3	0.6038477
11	0xbeaf0c22	-0.34188944
12	0x3f41df44	0.757313
13	0xbea0f255	-0.31434885
14	0xbed8eaac	-0.4236654
15	0xbfd9ff3c	-1.7031016
16	0xbf10dc1b	-0.56585854
17	0x3f29ccef	0.6632833
18	0x3da2e9f9	0.07954783
19	0xbbe8df44	-0.0071066935
20	0x3fe40eb5	1.7816988
21	0x3f30c3c5	0.6904872
22	0x3f2f231b	0.6841294
23	0x3ebee9d7	0.3728778
24	0x3ed0058a	0.40629226
25	0xbea31712	-0.3185354
26	0xbf44b251	-0.7683459
27	0x3f545f9b	0.8295838
28	0xbf220cd3	-0.6330082
29	0x3f3db753	0.74107856
30	0xbf0ffd42	-0.56245816
31	0x3f100d89	0.56270653
32	0x3f709e36	0.9399141
33	0x3efcd8a9	0.4938405
34	0x3ef5dbe8	0.48019338
35	0xbf55780d	-0.8338631
36	0xbf4b031f	-0.7930164
37	0xbf19fa62	-0.6014768
38	0xbdb7b1b1	-0.08969439
39	0x3da0d3e9	0.07852919
40	0x3e5bffd8	0.21484315
41	0x3de48b94	0.11159435
42	0x3f86537e	1.049423
43	0xbe3db5cb	-0.1852638
44	0x3f3ad8c7	0.72987026
45	0xbf0d070e	-0.5508889
46	0xbf236b18	-0.6383529
47	0xbecffcbb	-0.40622506
48	0xbf305675	-0.6888192
49	0x3f6d785d	0.92761785
50	0x3eaa1f39	0.33226946
51	0x3e66db17	0.22544514
52	0x3eff9516	0.4991843
53	0x3f238c5b	0.6388604
54	0x3e18c118	0.1491741
55	0xbe6b0ffc	-0.22955316
56	0xbef29fbb	-0.4738749
57	0xbcce6b0e	-0.025197532
58	0xbf7e366e	-0.99301803
59	0x3e2cd634	0.16878587
60	0x3f9139d1	1.1345769
61	0x3ecdf9a8	0.40229535
62	0xbfa9e509	-1.3273021
63	0x3ef02595	0.46903673
64	0xbf0aefc2	-0.5427209
65	0xbec25502	-0.3795548
66	0xbe6e5c44	-0.23277384
67	0x3d42111c	0.047379598
68	0x3d9c95fc	0.07645795
69	0x3d847158	0.06466931
70	0xbdddbb89	-0.10826785
71	0x3a920c82	0.0011142644
72	0xbe898dd6	-0.26866025
73	0xbe6c1bd8	-0.23057497
74	0xbcb9c5cc	-0.022677325
75	0xbe2fcdd5	-0.17168362
76	0xbea4faf1	-0.32222703
77	0x3d918dde	0.07107137
78	0xbb79cbc8	-0.0038115848
79	0xbe07c59e	-0.13258979
80	0x3e187baa	0.14890924
81	0xbe26aea0	-0.16277552
82	0xbe11c10e	-0.14233801
83	0xbdf6f993	-0.12059321
84	0xbf664f9c	-0.89965224
85	0xbe9b8433	-0.30374297
86	0xbceef8c4	-0.029171355
87	0xbf884ceb	-1.0648474
88	0xbecdd45d	-0.40201083
89	0xbe2e987f	-0.1705036
90	0x3d7d4eef	0.061842855
91	0xbf0fb08d	-0.5612877
92	0xbf00e988	-0.5035634
93	0xbeff4b2f	-0.49862048
94	0x3e2e3ccd	0.17015381
95	0xbe636c47	-0.22209273
96	0xbed28bd7	-0.41122314
97	0xbf81dcf0	-1.014555
98	0xbf7931d9	-0.97341686
99	0x3e87db6f	0.26534602
100	0x3d5c2563	0.053746592
101	0xbde557d5	-0.11198393
102	0x3e128ca8	0.14311469
103	0xbe9cb5f0	-0.30607557
104	0x3dbf6fc0	0.093474865
105	0xbf044f2d	-0.5168331
106	0xbe8e9f52	-0.27855927
107	0x3f2406f1	0.6407309
108	0xbd279e02	-0.040922172
109	0x3e4a2120	0.19739199
110	0x3e581ce6	0.21104774
111	0x3d651fe3	0.055938613
112	0xbca15939	-0.019695865
113	0xbce22fcb	-0.02761068
114	0xbd69f81f	-0.057121392
115	0xbe98c98f	-0.29841277
116	0x3c01f2c4	0.007931415
117	0xbca32aed	-0.01991793
118	0x3e12c091	0.14331271
119	0xbd5b3d99	-0.05352554
120	0xbe92276d	-0.28545704
121	0xbe8ef686	-0.27922457
122	0x3e2f5c15	0.1712497
123	0xbde7e44a	-0.113228396
124	0xbed95458	-0.42447162
125	0x3ea58d98	0.3233459
126	0x3ed84c7a	0.42245847
127	0xbf5e5df5	-0.8686212
128	0x3dbe8cf6	0.0930423
129	0xbeeb4e58	-0.4595821
130	0x3d87682f	0.06611668
131	0x3e426dde	0.18987224
132	0xbe7289b6	-0.23685345
133	0xbbf4450c	-0.00745452
134	0x3e39b3e5	0.1813503
135	0xbe100c1f	-0.14067124
136	0x3e9d7a0b	0.30757174
137	0xbc3d852a	-0.011567393
138	0xbebf47d7	-0.37359497
139	0xbd871c54	-0.065972
140	0x3dbcde34	0.092220694
141	0x3e5385e4	0.20656544
142	0xbc4b2ac0	-0.012400329
143	0xbdc70a5c	-0.09718773
144	0x3db5491d	0.08851836
145	0x3e80cf6a	0.25158244
146	0x3e514ffc	0.20440668
147	0x3cc82792	0.024432931
148	0xbea49883	-0.32147607
149	0x3e9f9271	0.31166413
150	0xbe27ef98	-0.16399992
151	0x3d9a78f7	0.075426035
152	0x3d3b4dca	0.045728482
153	0xbd217787	-0.03942063
154	0x3d7a0158	0.061036438
155	0xbf1848e0	-0.594862
156	0xbedc0034	-0.42968905
157	0x3ea9decc	0.33177793
158	0xbdd5df41	-0.10442973
159	0xbe2c2eef	-0.16814779
160	0x3efabd78	0.48972678
161	0x3f3ec7f1	0.74523836
162	0x3ec100e2	0.37695986
163	0xbebb86af	-0.36626193
164	0xbf5a11e8	-0.8518357
165	0xbf802731	-1.001196
166	0x3f170a7e	0.59000385
167	0x3fb930b9	1.4467994
168	0x3e198219	0.14991035
169	0x3ec207b6	0.37896508
170	0x3f175de9	0.5912767
171	0xbe776516	-0.24159655
172	0x3f6635bf	0.8992576
173	0xbf759542	-0.95930874
174	0xbf8fb74d	-1.1227814
175	0xbf54e9ca	-0.83169234
176	0xbf5758c4	-0.8411982
177	0x3f276eff	0.6540374
178	0x3f0c8001	0.5488282
179	0x3d382bc7	0.044963624
180	0x3f2b3c97	0.6688933
181	0x3fa3e75a	1.2804978
182	0x3f60353a	0.8758122
183	0x3d6f748c	0.058460757
184	0x3eca82d4	0.3955294
185	0xbf335a30	-0.7005949
186	0xbf79545a	-0.97394335
187	0xbdcddb53	-0.100515984
188	0xbd50f81e	-0.051017873
189	0x3f8e1e35	1.1102968
190	0xbf08a72f	-0.533801
191	0x3f6f8880	0.9356766
192	0xbde6cced	-0.11269555
193	0xbee164bd	-0.4402217
194	0xbe8e55c1	-0.277998
195	0x3d4860d9	0.048920486
196	0xbdead0f4	-0.11465636
197	0x3cad7b09	0.021176832
198	0x3e17824b	0.14795797
199	0xbd7d1139	-0.061784003
200	0x3de04a27	0.109516434
201	0xbbe13e0f	-0.006873853
202	0xbe1b8c68	-0.1519028
203	0xbe1b82ae	-0.15186569
204	0xbe0a16da	-0.1348528
205	0xbe4bc5b9	-0.19899644
206	0x3d14b31c	0.036303625
207	0xbd93c097	-0.07214468
208	0xbd7c84c0	-0.061650038
209	0xbbd225e0	-0.0064132065
210	0xbdc1c3a2	-0.09461142
211	0x3c6319f7	0.013861171
212	0xbec2b958	-0.3803203
213	0xbcf50265	-0.029908368
214	0xbd7001ba	-0.058595397
215	0xbf915fcd	-1.1357361
216	0xbe40024d	-0.18750878
217	0xbe6762a4	-0.22596222
218	0xbe2607a7	-0.16213857
219	0xbeaad0c1	-0.33362392
220	0xbe2dced2	-0.16973427
221	0x3de2b701	0.110700615
222	0xbd02e0a6	-0.031952523
223	0xbe5fbd37	-0.21849523
224	0xbe6420e1	-0.22278167
225	0x3f063bde	0.524351
226	0x3dc82d70	0.097742915
227	0xbeb675bc	-0.356367
228	0xbee754e5	-0.45181957
229	0xbea3c1d5	-0.3198382
230	0xbf70cdd4	-0.9406407
231	0x3f170b05	0.5900119
232	0xbf97f04e	-1.187021
233	0xbda21334	-0.07913819
234	0x3f6d73ec	0.9275501
235	0xc02dbb10	-2.7145424
236	0x3ef92fed	0.48669377
237	0xbf367c08	-0.71283007
238	0xbf2d4801	-0.67687994
239	0xbe287522	-0.16450933
240	0xbf0ea0c4	-0.5571406
241	0x3f167791	0.58776194
242	0xbec20600	-0.37895203
243	0xbed748d3	-0.42047748
244	0x3eeff9fc	0.4687041
245	0x3f5651f2	0.8371879
246	0x3e5849e1	0.21121933
247	0xbf6debcd	-0.9293793
248	0x3f0b09fa	0.543121
249	0x3e4ba25c	0.19886154
250	0xbf32a469	-0.6978212
251	0x3e27415e	0.1633353
252	0x3f1372ea	0.5759722
253	0x3ffe6456	1.987437
254	0xbf2033d9	-0.62579113
255	0xbdff7ea5	-0.124753274

bias f4 [32]
0	0xbf505a20	-0.8138752
1	0xbf33eac3	-0.7028009
2	0x3e131ee6	0.14367256
3	0x3e653199	0.22382201
4	0xbd8b5f58	-0.06805295
5	0xbf6a0fc9	-0.91430336
6	0x3db84084	0.089966804
7	0xbf55ebb6	-0.8356279
8	0xbbbf6f52	-0.005842128
9	0xbdfc21d4	-0.1231114
10	0xbec3ea23	-0.3826457
11	0xbedfdb51	-0.43722013
12	0x3dbc439a	0.091925815
13	0x3d4cab87	0.04996827
14	0xbdca9167	-0.098910145
15	0x3da68d46	0.081324145
16	0x3e0c2fc9	0.13690104
17	0xbf7c0bf2	-0.9845573
18	0xbf67bef5	-0.9052575
19	0xbdec8bfe	-0.11550139
20	0xbeca2a56	-0.39485425
21	0xbf418eb5	-0.7560838
22	0xbd9b164f	-0.075726144
23	0x3e882203	0.2658845
24	0xbe4614c1	-0.19343854
25	0xbd830b83	-0.0639868
26	0xbcca7712	-0.02471498
27	0xbecd0e8d	-0.40050164
28	0x3e2a3a50	0.16623807
29	0xbd3cc61d	-0.046087373
30	0x3ea554e5	0.32291332
31	0x3e79a2b1	0.24378468

weight f4 [4, 32]
0	0x3d8c8aa7	0.06862383
1	0xbf0428b1	-0.5162459
2	0x3da1f76b	0.07908519
3	0xbec7ae4e	-0.3900017
4	0x3e842665	0.25810543
5	0xbefa4655	-0.48881784
6	0x3d2ab86d	0.04167979
7	0x3e8e82bb	0.27834114
8	0x3eaade92	0.33372933
9	0x3d5a5268	0.053301245
10	0x3d66232c	0.056185886
11	0x3f8ccd6d	1.1000191
12	0xbd894b1c	-0.06703779
13	0x3d2b8acc	0.041880414
14	0xbe795a3f	-0.24350832
15	0xbf02629a	-0.50931704
16	0xbef5f29f	-0.48036668
17	0x3f17d975	0.5931619
18	0x3f31221b	0.69192666
19	0xbdd541e8	-0.10412961
20	0x3ecd05f3	0.400436
21	0x3f15662e	0.5835904
22	0x3b0d0fd5	0.002152433
23	0x3dd79900	0.10527229
24	0x3e8e9bd0	0.2785325
25	0x3e3f0eac	0.1865794
26	0xbdccfc22	-0.10009028
27	0x3ee0587a	0.43817502
28	0x3e721dd7	0.23644195
29	0xbe803b7f	-0.25045392
30	0x3dc90788	0.098158896
31	0xbe01865d	-0.12648912
32	0xbe0fadf2	-0.14031199
33	0xbea1d102	-0.31604773
34	0xbec87eef	-0.39159343
35	0xbe7c64ee	-0.24647877
36	0x3dfe4223	0.12414958
37	0xbf6dfecd	-0.9296692
38	0x3d982136	0.074282095
39	0xbeeff3b3	-0.46865615
40	0x3d347fba	0.044067122
41	0xbcf45621	-0.029826226
42	0x3e8e6248	0.27809358
43	0x3f421629	0.75815064
44	0x3ea0fd43	0.31443223
45	0x3ea9132f	0.33022448
46	0xbe617a1e	-0.2201924
47	0xbda6f3f5	-0.08152
48	0x3e2b3916	0.16720995
49	0xbedcd9e4	-0.43134987
50	0x3e960b50	0.29305506
51	0xbf24b6c1	-0.6434136
52	0x3f491bec	0.7855823
53	0xbf057aa9	-0.5214029
54	0x3e2e219e	0.17005011
55	0x3e999cff	0.3000259
56	0x3e130e8f	0.14361022
57	0xbeb7737d	-0.35830298
58	0xbdbd3195	-0.09237973
59	0x3d472358	0.04861769
60	0x3dd8fa58	0.10594624
61	0x3df78532	0.12085952
62	0xbd6a370b	-0.0571814
63	0xbc9b70b6	-0.018974643
64	0x3f3a53c5	0.7278407
65	0xbeaaa2a3	-0.33327207
66	0x3e44c971	0.19217469
67	0xbe490063	-0.19629054
68	0xbde16a3b	-0.1100659
69	0xbe12331d	-0.1427731
70	0x3d9b0ff2	0.07571401
71	0xbe4e23e8	-0.20130885
72	0x3e66c5a3	0.2253633
73	0x3ebfd75b	0.3746899
74	0xbca50ae5	-0.020146796
75	0x3e43cbb0	0.1912067
76	0xbd550971	-0.052010957
77	0xbe1739aa	-0.14768091
78	0xbdfe2984	-0.12410262
79	0xbe7687d9	-0.2407526
80	0x3d998fcf	0.074981324
81	0x3ee7a97e	0.452465
82	0x3eb4d403	0.35318002
83	0x3eacaac3	0.3372403
84	0x3ee32777	0.44366047
85	0xbd258a6f	-0.040415224
86	0x3f2fcb90	0.68669987
87	0xbdd0420c	-0.101688474
88	0x3cec6a6e	0.028859343
89	0x3dd00e65	0.101589955
90	0xbe5d59f2	-0.21616343
91	0x3e33a339	0.17542733
92	0xbe6e5dd7	-0.23277985
93	0xbec73328	-0.38906217
94	0x3d4fa301	0.050692562
95	0x3e1b94e4	0.15193516
96	0x3f073473	0.52814406
97	0x3f740dc4	0.95333505
98	0x3ceba333	0.028764343
99	0xbe84f473	-0.2596775
100	0xbd45d453	-0.04829819
101	0x3d8aa30c	0.0676938
102	0xbdba6fb0	-0.09103334
103	0xbdf5d656	-0.12003772
104	0xbd18ee5c	-0.037336692
105	0x3e323f32	0.1740692
106	0x3b61f9ea	0.0034481236
107	0x3f3604f6	0.7110132
108	0x3dac88d6	0.08424537
109	0x3e987819	0.29779127
110	0x3d18768b	0.037222426
111	0x3e143364	0.14472729
112	0xbc96bc90	-0.01840046
113	0xbd3cf607	-0.046133067
114	0xbb96793b	-0.0045920885
115	0xbc2220c0	-0.0098955035
116	0x3df6f8c3	0.12059166
117	0x3da4266c	0.08015141
118	0x3ecb3dd4	0.3969561
119	0x3d706ddb	0.058698516
120	0xbde69b1c	-0.112600535
121	0x3f03c552	0.5147296
122	0xbeb18561	-0.34672073
123	0x3d1f0994	0.038827494
124	0x3dc24cbc	0.09487292
125	0x3d96d9ef	0.07365786
126	0xbe4271a7	-0.18988667
127	0xbe0d7e08	-0.13817608

bias f4 [4]
0	0xbda335dd	-0.07969258
1	0x3dcbe185	0.09955124
2	0xbd9c1da4	-0.07622841
3	0xbe13d2d1	-0.14435889
