[Other models]/min_func_0.pt (torch_old, 66278 bytes, 27 tensors)

weight f4 [40, 2]
000000 8f 46 ec 3f 00 14 72 c1 e7 c4 78 be 06 95 ea c0
       1.8459033 -15.129883 -0.24293862 -7.3306913
000010 cc 73 89 bf 4b 24 88 c1 46 cc 0d c0 6e b0 08 c1
       -1.0738463 -17.017721 -2.2155929 -8.543074
000020 60 b0 e0 3f 43 20 81 41 cc 14 d7 3e f5 be 25 be
       1.7553825 16.140753 0.42008054 -0.16186126
000030 89 94 d5 3f b4 92 88 c1 48 22 07 c1 64 68 01 c0
       1.6685954 -17.071632 -8.445869 -2.0219965
000040 20 84 33 c1 77 3c e6 3f 94 d3 93 3e c5 46 c0 40
       -11.219757 1.7987202 0.2887236 6.008639
000050 44 d6 73 bf 7e 90 aa 3d 87 eb 7e c0 2f 98 f6 40
       -0.9524882 0.08328341 -3.9831254 7.706077
000060 41 a6 5f c1 ad f9 92 40 cb 57 bc 41 a3 b4 70 40
       -13.978089 4.592978 23.542868 3.7610252
000070 3c 58 c9 3f 6f 9f 0a 40 15 ff 4b 40 c9 d8 3e c1
       1.5730052 2.165981 3.187444 -11.927926
000080 6d c9 d4 3e 05 af 9a 3f 7a ff 54 c1 fa f7 ef bf
       0.41559926 1.2084662 -13.312372 -1.8747551
000090 90 0c 5e c1 8c a1 73 40 9f ee c0 40 9a b6 69 c0
       -13.878067 3.806735 6.0291286 -3.65177
0000a0 8b 6b 03 c1 c1 e8 44 c0 85 3c 04 c1 47 31 7f 40
       -8.213756 -3.0767062 -8.264775 3.9873827
0000b0 a0 60 15 c0 e0 e5 b5 3d b7 ec d9 be 78 3c 0f 41
       -2.3340225 0.08881736 -0.42563412 8.952263
0000c0 48 63 01 c1 07 51 9b 40 a6 ab 2b bf 75 81 b7 be
       -8.086739 4.853641 -0.6705879 -0.35840955
0000d0 37 4b 8f c0 ee 72 0d 41 f5 60 87 40 79 96 cc c0
       -4.4779315 8.840559 4.2305856 -6.3933682
0000e0 19 51 02 41 04 0c 9a 41 a3 17 2a c1 a6 fe 9d 40
       8.144799 19.255867 -10.630771 4.937335
0000f0 e0 40 af 41 b7 63 86 40 66 8f a8 c0 84 5a e8 40
       21.906677 4.199672 -5.2675047 7.2610493
000100 4b 0c 8d 41 40 c1 20 40 6f e3 16 c1 01 7b 73 40
       17.631002 2.511795 -9.430526 3.8043826
000110 f2 fc a6 c0 ab df ac bf 89 c6 a6 40 c6 a9 98 41
       -5.218377 -1.3505758 5.2117352 19.082897
000120 05 47 52 c0 86 9f 40 40 25 fa 98 c0 c9 a0 e9 bf
       -3.2855847 3.0097365 -4.780535 -1.8252193
000130 f4 1d cd 40 01 fe 91 c0 f6 70 81 3f 05 89 c5 3f
       6.4099064 -4.5622563 1.0112598 1.543244

bias f4 [40]
000000 dc 41 db 3f 92 0c ec 3f b5 60 28 40 9d ae f0 3f
       1.7129474 1.8441336 2.6309025 1.8803288
000010 a9 b7 99 40 09 75 93 40 1d d7 e6 3f 8a c2 91 3f
       4.8036695 4.6080365 1.8034397 1.1387494
000020 ff 0d d3 3f a6 85 dd 3f f4 14 26 c0 7a 5c c7 3f
       1.6488646 1.7306411 -2.5950289 1.5575097
000030 84 1d 18 40 e1 ca e4 40 f3 6c c7 bf 5e 72 03 40
       2.3768015 7.1497655 -1.5580124 2.0538554
000040 d3 77 18 c0 12 35 f8 3f c7 3e 13 40 6a eb 2f 40
       -2.3823135 1.9391196 2.3007066 2.7487435
000050 36 53 b1 3f 42 0a 8e 3f 67 83 c6 bf 11 d4 88 3f
       1.3853519 1.109688 -1.5508851 1.0689718
000060 93 c2 a7 3f 25 d9 0f c0 c5 d2 45 40 05 af 3c 40
       1.3106254 -2.2476285 3.0909894 2.9481823
000070 4b 73 4d 40 18 89 ee 3f cf 7f a3 40 81 53 c6 3f
       3.210162 1.8635588 5.1093516 1.5494233
000080 e8 79 15 41 b5 a8 b2 3f 8e 9d 93 be 21 39 5d 40
       9.342262 1.3957735 -0.28831142 3.4566119
000090 19 82 3c 3f 94 eb 97 bf 2a c0 18 40 7b 0d 03 c0
       0.73636013 -1.1868768 2.3867288 -2.0476978

weight f4 [40, 40]
000000 30 bf c3 bf 08 ad 16 3f 5b 4a 65 bf 9a 92 bf be
       -1.5292721 0.58857775 -0.8956658 -0.37416536
000010 72 6c b0 bd 61 44 e4 3e c9 b2 08 c0 70 be 97 3e
       -0.08614434 0.4458342 -2.1359122 0.2963748
000020 55 92 18 3f 12 02 26 3f ff f9 6d be 8a c9 e6 3e
       0.59598285 0.6484691 -0.23239897 0.45075637
000030 f9 6a 0d 3d a7 34 f0 3d 8b f1 5f bf 27 cb 04 3c
       0.034525845 0.11728793 -0.8747794 0.008105076
000040 85 cd 54 3f a3 a2 50 3f 9c 4d 2e 3e 5a 09 d0 bd
       0.831261 0.81498164 0.17021793 -0.10158034
000050 03 ea ab 3e 64 a5 9a 3e a8 d7 44 bf 75 3d 4b bd
       0.33576974 0.30204308 -0.76891565 -0.049619157
000060 d4 4d 09 3e d9 83 44 be 8a 36 58 3f 0d 90 a3 be
       0.13408595 -0.19190921 0.8445822 -0.3194584
000070 07 b2 25 3f 6c 22 d5 3c e3 2d 96 3f 74 85 02 be
       0.64724773 0.02601739 1.1732754 -0.12746221
000080 5e d6 0f 3e df d5 13 3c b1 5b ef 3d df e3 b2 3c
       0.14046618 0.009023159 0.116874106 0.021837173
000090 f9 d6 16 3f 5e 38 b9 3e 56 a6 69 be 95 56 70 bf
       0.5892177 0.36175817 -0.22817358 -0.93882114
0000a0 81 59 69 c0 1f a0 9e be cb c1 bf c0 e1 6a 0f c0
       -3.646088 -0.30981538 -5.9924064 -2.2408984
0000b0 94 73 24 41 d7 d3 29 40 7d 1f 9a c0 fe 15 6a 40
       10.278217 2.6535547 -4.816344 3.6575923
0000c0 78 db 6b 40 47 ec 17 40 11 e4 b2 bf 7f 5d 8f 40
       3.6852703 2.3737962 -1.397585 4.480163
0000d0 cb 3e c0 40 3a 1b 4e bf 0f c8 04 c0 3d 08 19 c0
       6.007665 -0.80510294 -2.0747106 -2.3911278
0000e0 18 07 d8 bf 54 2a 52 3f 15 82 80 40 3a a1 77 bf
       -1.6877165 0.8209584 4.015879 -0.9673039
0000f0 17 b6 4b 40 e7 2f c9 40 7c 62 6c 3f 94 bf 6f 3f
       3.182989 6.2870975 0.92337775 0.936517
000100 f9 20 9d 40 58 13 d5 bf d7 a7 89 40 28 df c5 3e
       4.910275 -1.6646528 4.3017383 0.38646817
000110 54 b4 14 40 33 4c b8 40 00 d2 cc be ab 71 f1 40
       2.3235064 5.7593017 -0.40003967 7.5451255
000120 62 66 f7 3f 40 53 b8 40 ed 01 02 3f 76 15 df 3f
       1.932812 5.7601624 0.5078419 1.7428424
000130 7f eb 2a 40 0f f2 9f be 87 43 1a c0 fc 14 e1 bf
       2.6706235 -0.31239364 -2.4103715 -1.7584529
000140 7b 28 f3 3e 6f 98 f8 3d 3d 6f ce bf 01 74 4e c0
       0.47491822 0.121384494 -1.6127697 -3.2258303
000150 a4 22 34 41 96 bd 13 41 98 5d 41 bf 94 61 f8 c0
       11.258457 9.233786 -0.7553344 -7.7619114
000160 c3 db ea c0 40 ed 86 40 4b a2 1a c1 88 60 90 be
       -7.3393264 4.216461 -9.664622 -0.28198647
000170 9e d1 ab c0 04 d6 a8 41 65 01 26 c0 25 34 63 40
       -5.369338 21.1045 -2.593835 3.5500576
000180 2f ca 86 c0 73 65 de c0 81 c3 9d c0 93 4e cb 40
       -4.2121806 -6.949884 -4.930115 6.3533416
000190 3f 30 c6 c0 ad 01 d1 c0 ee 02 ba c0 65 24 9f be
       -6.1933894 -6.5314546 -5.8128576 -0.31082454
0001a0 1d d8 4e c0 e2 b4 c6 c0 c2 5c 04 3f ac 42 a1 40
       -3.2319405 -6.2095804 0.5170404 5.0393887
0001b0 1e 58 50 41 34 6b 90 c0 81 f1 3f 41 2f 3a 17 3f
       13.021513 -4.5130863 11.996461 0.59073156
0001c0 7c 82 8c 41 8d 02 cd c0 10 25 f3 c0 e3 01 24 41
       17.563713 -6.4065614 -7.598274 10.250461
0001d0 90 89 ee be 04 be cf c0 95 f5 9a 40 7b 80 50 c0
       -0.46589327 -6.4919453 4.8424783 -3.2578418
0001e0 58 ac 16 c1 da 44 98 c1 1e f8 07 c1 22 bf ca c0
       -9.417076 -19.033619 -8.4980755 -6.3358316
0001f0 b6 5f d5 40 0b a3 32 bf 83 a1 d5 c0 f8 7b ab c0
       6.6679335 -0.69780034 -6.675966 -5.358883
000200 62 3c 80 c0 dc 88 76 40 ed 3f c7 be 2f 7d ef 40
       -4.007371 3.8521032 -0.3891596 7.484031
000210 2b f9 25 3d 81 dc 31 41 45 7e 53 40 d6 2c 9a c1
       0.04052083 11.116334 3.3045819 -19.271893
000220 ae 07 2c 3f 8b 0d 07 c1 cd d6 17 be 9e 7f b6 be
       0.6719922 -8.440806 -0.14828034 -0.3564424
000230 5f d8 c2 c0 c5 f2 f7 3f 23 1d 4e 3f 32 7b bd 41
       -6.0889125 1.9370962 0.8051321 23.685154
000240 e9 f2 99 40 c9 eb c9 bf 7e 4d 70 40 b8 05 df c0
       4.810902 -1.5775081 3.7547297 -6.969448
000250 2e 2b d0 41 90 93 2f 40 cc 8f 33 40 73 0d c4 40
       26.021084 2.7433815 2.8056517 6.1266418
000260 e8 1d a6 41 21 9f 66 3f 07 de 2b c0 f1 67 c7 41
       20.764603 0.9008656 -2.6854265 24.925753
000270 2d 1d f6 3d 17 e8 8b be c5 ea 8c bf 12 59 b6 3f
       0.120172836 -0.27325508 -1.1009146 1.4245932
000280 6a 07 69 40 d5 dc 52 40 22 ab b9 40 ab 01 bf 40
       3.6410775 3.2947285 5.80214 5.9689536
000290 2d 8e c5 bf 1f f4 9e 40 12 55 81 40 5f 30 9e bc
       -1.5434014 4.9673 4.0416346 -0.019310175
0002a0 6c 12 cf bf d0 c6 d1 bf 62 c8 bf c0 58 c9 40 c0
       -1.6177497 -1.6388798 -5.993211 -3.012289
0002b0 3c 89 e9 bf ec 7f ef 3f 36 f3 cb bf e9 51 25 40
       -1.8245006 1.8710914 -1.5933597 2.5831244
0002c0 35 1d 72 c0 57 63 6b 3e 83 7e b1 bf 09 86 30 40
       -3.7830327 0.22987114 -1.3866733 2.7581809
0002d0 a1 eb 7a 3f 3e 3d 2b c0 5c d6 9e bf e6 cf 16 c0
       0.9801579 -2.675613 -1.2409167 -2.356439
0002e0 c1 43 3d c0 0d 17 41 c0 45 41 52 be f8 09 23 40
       -2.9572604 -3.017032 -0.20532711 2.5474834
0002f0 49 84 ea bf 1b 3e 09 c0 9e a0 07 3f f9 b3 32 c0
       -1.832162 -2.1444156 0.5297946 -2.7922347
000300 f4 38 7b 40 2e 01 15 c0 f0 a1 10 bf 4b 11 ea bf
       3.9253511 -2.328197 -0.56497097 -1.8286527
000310 cb 20 e7 bf c2 99 43 bf a1 a1 2a 40 75 39 d5 bf
       -1.8056883 -0.7640649 2.666115 -1.665816
000320 f3 10 fb c1 4f e6 af c1 45 18 11 c2 47 1b 13 c2
       -31.383276 -21.987455 -36.2737 -36.776638
000330 60 76 38 42 0d b2 23 41 9a 77 f4 c1 7d 3a 29 c2
       46.1156 10.230969 -30.5584 -42.307117
000340 65 c9 34 c2 0c 67 02 42 4b 88 0e c1 b9 a6 06 42
       -45.196674 32.60063 -8.908275 33.662815
000350 f7 2e 13 c2 c0 78 84 42 05 0a fa 40 dd 8c 96 c1
       -36.795864 66.23584 7.813723 -18.81878
000360 95 c5 a6 3f 8a d1 57 c2 cd aa 1e c2 ae 08 b6 41
       1.3029047 -53.954628 -39.666798 22.754238
000370 4c e3 11 c2 34 6d c8 c1 e0 c3 e3 c0 5e 9a 36 42
       -36.47197 -25.053322 -7.1176605 45.65075
000380 f5 ef be c1 75 4d 09 c1 cd 7c 1f 41 75 74 9a 3f
       -23.867167 -8.58141 9.967969 1.206679
000390 d2 65 8b 42 67 d0 0a c2 e1 35 60 42 20 a3 06 42
       69.69887 -34.703518 56.052616 33.6593
0003a0 c3 9d 42 42 45 00 fd c1 19 0b ba c1 39 f0 90 42
       48.654064 -31.625132 -23.255419 72.469185
0003b0 8d 2c 9a c0 c4 94 5e c1 6a f3 b9 41 52 be 68 40
       -4.8179383 -13.91132 23.243855 3.6366162
0003c0 a3 50 a5 40 18 86 26 40 83 0e a6 3f a3 00 0e c0
       5.1660933 2.6019344 1.2973179 -2.2187889
0003d0 7c 6d 5e 40 b0 d9 ad 40 e9 ac 72 40 90 8f cf c0
       3.4754324 5.432823 3.7918036 -6.4862747
0003e0 b4 63 b5 c0 53 f3 a9 3f b7 b9 99 c0 b1 d4 66 c0
       -5.668421 1.3277382 -4.8039203 -3.6067317
0003f0 6c fd 9d c0 80 fc 32 41 42 b1 20 c0 01 90 a7 40
       -4.9371853 11.1866455 -2.510819 5.2363286

bias f4 [40]
000000 2d 56 07 be 54 e6 51 39 93 bf 47 40 de 25 8d bf
       -0.13216467 0.00020017597 3.1210678 -1.1027181
000010 b5 08 78 3f 2d b3 23 40 02 6f 2a 40 e4 29 9b 40
       0.96888286 2.557811 2.6630254 4.8488636
000020 5f 01 d3 3f 65 f2 0f c0 05 08 43 3e 7c 1c b3 3e
       1.6484793 -2.2491696 0.19046028 0.3498267
000030 c4 0d 0b 41 98 f2 92 3f 8f 29 30 40 04 1c 87 40
       8.690861 1.1480284 2.7525365 4.22217
000040 6f e4 a6 3f a3 30 b2 3e 7a 17 9c 3e 6a 4a cd 3f
       1.3038462 0.34802732 0.3048666 1.6038334
000050 c2 03 30 bf 99 13 ab bf dd 24 8c 3f bc a5 e1 3f
       -0.68755734 -1.3365356 1.094875 1.7628703
000060 68 0f 6a bf ab 46 3e 3f 8e 5c e9 be 87 e3 af bf
       -0.9142976 0.7432658 -0.45578426 -1.3741311
000070 3a 88 5b 3f e8 dd 2c 40 de 0b b8 3f 7f c4 db b9
       0.8575474 2.701044 1.4378622 -0.00041917336
000080 72 64 3b 3e 93 18 0e 3f b4 e8 00 bf 51 02 f2 3f
       0.18300036 0.5550625 -0.50355077 1.8906957
000090 5d a9 6a bf be 61 d9 bf 08 36 84 3f e6 1f 93 3f
       -0.9166468 -1.6982954 1.0328989 1.149411

weight f4 [4, 40]
000000 63 99 86 bf cc 37 ca bf ed c2 2f 40 98 15 c9 c0
       -1.051556 -1.5798278 2.7462723 -6.283886
000010 04 0c ab 40 37 8c 89 c1 fe 04 ce 40 7f 21 a7 41
       5.3452168 -17.193464 6.4381094 20.891356
000020 16 27 d3 40 6f 9a 1c c0 23 37 bd be 82 05 b8 bf
       6.598521 -2.4469259 -0.36956128 -1.4376681
000030 0b 50 7b c1 28 e1 cb 40 8d c3 0d c0 c6 cd 3c c0
       -15.707042 6.371235 -2.2150605 -2.9500594
000040 bd 45 de 40 43 05 42 bf 83 eb a7 bf 95 e0 1e 40
       6.946013 -0.7578928 -1.3118747 2.4824574
000050 64 3a 4a c0 fb 05 f1 bf 23 5f 56 c0 58 70 98 40
       -3.159814 -1.882995 -3.3495567 4.763714
000060 8e a5 88 bf 02 b2 36 bf 14 5a 1b c0 e9 0d e0 bf
       -1.0675523 -0.7136537 -2.427373 -1.7504245
000070 ac e2 3a 3f d3 18 e4 40 18 8a 62 3f 51 c1 8b 3f
       0.73002124 7.1280303 0.88491964 1.091837
000080 df 84 0d c1 d1 80 ae 40 02 a5 69 c0 b6 24 da 40
       -8.844939 5.4532247 -3.6506963 6.8169813
000090 25 46 23 c1 ed 60 06 c0 d7 51 cb 40 36 5b 39 40
       -10.204625 -2.0996659 6.35374 2.896192
0000a0 9f 71 00 3f 87 87 02 40 cc 79 48 41 cb ef d7 40
       0.5017337 2.039522 12.529736 6.7480216
0000b0 cf a8 21 bf 2f 9b 0a 42 47 88 af 40 6c a4 d2 41
       -0.63148206 34.651546 5.4853854 26.330284
0000c0 b9 5b 29 c0 8f f4 32 be 65 28 1e bf 8e b7 02 bf
       -2.6462233 -0.17476104 -0.6178039 -0.5106133
0000d0 b4 1d 56 c1 2d 8a 62 bf 02 f4 b7 40 07 19 27 41
       -13.382252 -0.8849209 5.748536 10.44361
0000e0 f3 40 30 bf 8f c1 07 3f a1 12 55 3e 73 5a 34 c0
       -0.68849105 0.5302972 0.20807888 -2.8180206
0000f0 0a 63 c5 40 62 7f 5a be 39 69 da bf e4 c3 fb 3e
       6.1683397 -0.21337655 -1.7063361 0.4917289
000100 3f 00 96 bd cd ca ce 3f fe b7 b7 3f 15 e6 27 3f
       -0.07324266 1.615564 1.4353025 0.6558545
000110 2b 81 e8 bf 07 a7 90 40 6a fc 03 c0 53 cf 1e c0
       -1.8164419 4.520389 -2.0622811 -2.481404
000120 d7 8c e6 40 f0 62 df 3f d4 25 14 40 b0 06 48 c0
       7.2046924 1.7452068 2.3148088 -3.1254082
000130 07 a5 c4 40 74 86 33 3f 87 cc 9a bf 77 26 18 c0
       6.145145 0.70127034 -1.2093667 -2.3773477
000140 95 0c bb be 17 0e 81 bd c4 d7 21 c0 b0 24 f5 c0
       -0.36533037 -0.063015155 -2.5287943 -7.6607285
000150 6a 24 aa 3e 4c b6 17 c2 0f a1 0d c0 2e 7d d9 c1
       0.33230907 -37.928024 -2.2129552 -27.186123
000160 c5 a1 16 40 67 7b 99 be 29 7b 63 3e 21 a7 b4 3f
       2.3536236 -0.2997696 0.2221495 1.4113504
000170 64 0b 88 41 1d 2f 8c 3f 67 91 8f c0 f4 f0 0b c1
       17.005562 1.0951878 -4.4864993 -8.746326
000180 89 dc f6 3e 5a 9f 8e bf 99 bc 90 3e 64 68 d6 3f
       0.4821513 -1.114238 0.2826889 1.6750607
000190 c8 11 b3 bf bd 9f 8f 3e a4 eb 0a 40 74 18 df 3e
       -1.3989801 0.28051558 2.1706324 0.43573344
0001a0 a7 2c 87 be fa f6 3b c0 06 47 17 bf a6 13 ac be
       -0.26401255 -2.9369493 -0.5909275 -0.3360874
0001b0 31 00 8d 3f c2 31 c0 bf aa 1e 99 3f bb c8 ea 3f
       1.1015683 -1.5015185 1.1962483 1.8342508
0001c0 2e ed 1c c1 7a fb df bf e1 02 40 c0 b6 13 03 40
       -9.807905 -1.749862 -3.0001757 2.048078
0001d0 42 35 ea c0 31 b9 50 bf e8 6b 8a 3f 12 1d ff 3f
       -7.319001 -0.8153258 1.081418 1.9930747
0001e0 92 e9 bf 3e 8e c6 3f c0 e4 7d 9a 3e e3 35 3c c0
       0.37482888 -2.9964938 0.30174172 -2.940789
0001f0 56 f8 58 40 06 3f 2e c1 d8 1d 78 3f 1f da c9 41
       3.3901572 -10.890387 0.9692054 25.231504
000200 75 9d 2f 40 aa 61 b2 3f 30 ad 1a c0 bb 80 98 3e
       2.7439854 1.3936055 -2.4168205 0.29785714
000210 e3 12 ad c1 d1 ca 66 40 5c f9 86 c1 89 05 aa c1
       -21.634222 3.606129 -16.871758 -21.252703
000220 a3 cc 33 40 49 58 2a c0 59 0a f1 3e 04 05 10 40
       2.809365 -2.6616385 0.47078207 2.2503061
000230 04 56 75 be 3d 3d 64 3f a1 33 01 c1 35 68 b3 3f
       -0.23958594 0.8915594 -8.075105 1.4016176
000240 14 d9 ff 3e dd 0e 9e bf f1 b5 bf bf 3b 75 6e 3f
       0.49970305 -1.2348286 -1.4977399 0.9314763
000250 74 44 29 bf aa 3c 9c 3f ca ea b6 3f a9 15 3a 40
       -0.66120076 1.2206013 1.4290402 2.907572
000260 fc a8 ca c0 d5 60 2e 40 ad 55 45 c0 d3 f1 58 40
       -6.333128 2.7246602 -3.0833542 3.3897598
000270 55 2a d4 c0 07 c0 45 3f 81 de 87 40 13 7e 24 40
       -6.6301675 0.77246135 4.245911 2.570195

bias f4 [4]
000000 c6 54 cd 3f ba 61 b8 be 16 79 11 3e e9 55 76 bf
       1.6041496 -0.3601206 0.14206347 -0.9622484

weight f4 [40, 2]
000000 ce ae 9c bf 9c fb 47 3f 09 14 df 3f f3 62 46 c0
       -1.2240846 0.781183 1.7427989 -3.0997894
000010 01 67 af be 40 48 e4 bc 57 31 87 bf 29 30 80 bf
       -0.34258273 -0.027866483 -1.0561932 -1.0014697
000020 76 2a 25 3f c6 d6 a1 3f 16 42 5e 3e b2 d3 bf be
       0.64517915 1.2643669 0.21704897 -0.37466198
000030 5f c2 17 40 e2 c1 09 40 2b 09 07 be c0 ea e6 bf
       2.3712385 2.1524587 -0.13187091 -1.804039
000040 77 c1 77 3f 37 ce d8 bd b6 c1 04 bf f7 30 95 bf
       0.9677958 -0.10586207 -0.5185808 -1.1655568
000050 9c 75 1b 3e 40 56 06 3e e3 9b c2 bf 1c e2 bc bf
       0.15181583 0.1311884 -1.5203823 -1.4756503
000060 9f c6 26 c0 3f f1 1f 3e 18 b0 aa 3d 6e 66 66 be
       -2.6058729 0.15619372 0.083343685 -0.22500011
000070 d7 1c 37 40 a2 8f ae 3f 06 01 ec 3e 9f dc 36 3e
       2.8611352 1.3637583 0.4609453 0.17857598
000080 00 e9 7d 3f 6f 13 e0 3e e3 07 3a bf fa ea 78 be
       0.99183655 0.43764827 -0.72668284 -0.24308386
000090 fb 85 5f 3f 44 46 f9 3d 26 b2 0a c0 c7 96 bf 3d
       0.8731381 0.12171605 -2.1671233 0.0935493
0000a0 10 5b bc 3d ac 93 15 be cf 84 04 3f b4 bb 3c bf
       0.09197056 -0.14607114 0.5176515 -0.7372391
0000b0 a5 2f cd bf f5 5c 1b c0 1c a7 97 bf f4 be 09 3f
       -1.6030165 -2.4275486 -1.1847873 0.53806996
0000c0 28 32 49 3f d2 50 d5 be c5 12 d6 bf c7 27 1b 40
       0.7859216 -0.41663224 -1.6724478 2.4243028
0000d0 c4 1a 06 be 16 96 79 bf 2d 12 f2 3f 00 33 ca 3f
       -0.13096148 -0.9749464 1.8911797 1.5796814
0000e0 fe c2 a7 3e 09 b0 16 3f a7 34 de be 6a 66 f6 3e
       0.32765955 0.5886236 -0.43399546 0.4812501
0000f0 d0 b6 4d 3d 40 41 2a 3c 00 31 c1 3d 1e e9 d2 3e
       0.05022317 0.010391533 0.09433174 0.4119348
000100 b3 5d 7b c0 e3 6c 96 3f 88 47 77 be dc af 85 3e
       -3.927594 1.175198 -0.24148381 0.26110733
000110 ec 43 b5 be fd 9a 5f 40 1d 10 02 3f 62 6e d6 3e
       -0.35403383 3.4938347 0.50805837 0.4188109
000120 0d f2 ad be 94 8c 22 40 52 6d e0 bf ca ab 46 bf
       -0.33973733 2.5398302 -1.7533362 -0.7760588
000130 a4 fb c5 3f 05 9d c4 3f 6e e4 9b 3f 8c 3e 00 c0
       1.546742 1.5360419 1.2179086 -2.0038176

bias f4 [40]
000000 c0 3c e4 3e 8b 19 ef 3f 96 eb e6 be 12 97 ab be
       0.445776 1.867967 -0.45101613 -0.33513695
000010 ed 36 89 3e 91 16 c4 3f 28 43 0a be 15 5b a5 3f
       0.26799718 1.5319387 -0.1350218 1.2918421
000020 fd 76 7b 3e bd 32 bd be bc 0f 25 be 16 49 01 be
       0.24557109 -0.36952773 -0.16119283 -0.12625536
000030 d6 ce b7 be be 7b d7 be 1f 1d 18 bf 42 bd 0c 40
       -0.3589999 -0.42086595 -0.59419435 2.1990514
000040 cd 04 9f 3f 20 5c ab 3f 57 be 84 3f 10 ec 4e be
       1.242334 1.3387489 1.0370587 -0.20207238
000050 ad f1 b9 be b3 b9 c8 3f 65 52 45 3f 0e 31 40 3c
       -0.36317196 1.5681671 0.7707885 0.011730446
000060 4b 72 40 bf bd 27 1b 3d 2b b4 5b 3f 50 5e c8 3e
       -0.751744 0.037879694 0.8582179 0.39134455
000070 47 03 2c bf bd 8f fb be 2e 6d 63 be 3c da 04 bf
       -0.671925 -0.491331 -0.22209617 -0.518955
000080 0a 2c 58 3e a5 71 1f bf f1 bb ab 3e b6 72 0f bf
       0.2111055 -0.6228278 0.33541825 -0.5603441
000090 99 9d 13 3f d7 57 9d 3e 52 98 71 3e 44 a6 cf 3e
       0.5766235 0.3073108 0.23593262 0.40556538

weight f4 [40, 40]
000000 95 c4 16 3f 7e 6c ac 3e 02 1e f1 bd c2 68 36 3f
       0.5889371 0.33676523 -0.11773302 0.712536
000010 05 7e 0a 3f 99 7e 00 3f 20 a2 ae 3e a9 9a bf 3e
       0.5409854 0.5019317 0.34108067 0.37422684
000020 4a 6f 12 3f fb 3d 80 3e d6 bf 75 bd 62 3b c4 3e
       0.57201064 0.25047287 -0.059997402 0.38326555
000030 db 53 51 3f ac 0c 75 3d 74 65 13 3f 01 de 53 3f
       0.8176858 0.059826538 0.5757668 0.82760626
000040 0b a3 09 3f f8 bc 04 3f 0a 3a 53 3f 70 c9 21 3f
       0.5376441 0.51850843 0.82510436 0.63197994
000050 eb 5f 99 bd 10 ad 15 3f 34 59 a4 3e d4 04 1f 3f
       -0.07488998 0.584672 0.32099307 0.6211674
000060 08 21 f9 3e ea b6 79 3e cc 66 1c 3e 3c 00 f9 3e
       0.48658013 0.24386182 0.15273589 0.4863299
000070 16 cd bb 3d 18 ab 98 3d 40 3f 21 3c 7c a3 a5 3d
       0.091699764 0.074545085 0.00984174 0.08087823
000080 41 48 f5 3e f8 a3 82 bc 0c 3c a2 3f f7 2d 03 3e
       0.47906688 -0.015947327 1.2674575 0.12810503
000090 92 d0 f4 3e 99 a9 3a 3f fb 70 29 3d ff 2d 1d 3f
       0.47815377 0.72915035 0.041367512 0.6139831
0000a0 4a b1 c2 3e ab 1e 8c 3f 84 7d ae 3d bf fd 5c 3f
       0.38025886 1.0946859 0.08520034 0.86324686
0000b0 8b f0 23 3f df 36 60 3f 75 1d 48 3f 14 62 1d 3f
       0.64038914 0.87583727 0.7816995 0.6147778
0000c0 b7 21 87 3f 09 47 45 3f 6c fc 26 bd b1 6f 95 bf
       1.0557164 0.77061516 -0.040768072 -1.167471
0000d0 ef 6f 96 3e 1e f1 fb 3d 95 cc 0e 3f fd 95 fc bc
       0.29382274 0.12301849 0.5578092 -0.030833239
0000e0 8c 92 75 3f 7c 2c 2d 3f c9 f8 82 3f 3e 8e 8c 3d
       0.9592674 0.67646 1.0232173 0.06863068
0000f0 e0 90 19 bc b2 27 77 3f f0 1c 3f be 77 56 54 3f
       -0.00937292 0.96544945 -0.18663383 0.82944435
000100 16 8f 2f 3f 7a 08 47 3e be 7a 07 40 de 86 70 3f
       0.68577707 0.19436827 2.1168666 0.9395579
000110 40 fa 9f 3c 8f 51 11 be e0 cc fc bc 70 d5 b4 bc
       0.019528508 -0.14191268 -0.03085941 -0.022074431
000120 7d 97 99 bd f0 c2 1a bc 45 15 26 40 7c 3d 60 3d
       -0.07499597 -0.009445891 2.5950482 0.054746136
000130 8e 69 c0 3d 62 42 86 3f 3b 8c 11 3f 1c e2 0c 3f
       0.09395133 1.0489008 0.568546 0.55032516
000140 59 b1 9a be 49 78 48 bf 14 08 4d bd a9 75 a9 be
       -0.3021343 -0.7830854 -0.050056532 -0.3309758
000150 29 2c 4f be 81 4a cd be f5 c8 89 be 97 97 45 bf
       -0.2023169 -0.40095904 -0.2691113 -0.7718443
000160 5c 92 1d 3f 87 5f 13 3e be d1 bf 3d b1 ce e3 bf
       0.6155145 0.1439191 0.09366177 -1.7797452
000170 d1 da cc bf c0 4b b3 bd 2e 38 bb be d4 d6 0e c0
       -1.6004277 -0.087546825 -0.365663 -2.231862
000180 eb 9f 91 be 20 30 c1 be 7d 60 03 bf 61 73 6b bf
       -0.2844232 -0.3773203 -0.51319104 -0.9197293
000190 00 1f 29 3a 19 97 0d bf bb ba 84 bf 9e ae 26 bf
       0.0006451458 -0.5530868 -1.0369486 -0.65110195
0001a0 1a 6f 95 be 87 d3 84 3c 26 99 10 bf 7c 93 a3 bd
       -0.29186326 0.016214145 -0.56483686 -0.07987115
0001b0 17 7f 9d bd 02 c2 b1 3d ea 31 07 be 46 11 8f bd
       -0.07690256 0.08679582 -0.13202634 -0.069857165
0001c0 ff e5 d7 bd 00 0f dd 3c 0e 5b 83 bf 70 67 c0 3c
       -0.10541915 0.026984692 -1.0262163 0.023486823
0001d0 96 0c 11 c0 ef 16 f4 be 37 f4 82 be 8e 40 b1 be
       -2.2663932 -0.47673747 -0.25576946 -0.34619564
0001e0 6c 54 26 3f 28 f7 48 3f 23 3f 1a 3e 74 9c 29 3f
       0.6497257 0.7850213 0.15063147 0.66254354
0001f0 87 d9 95 3e 08 54 ad 3e ce 41 07 3e bc 30 e2 3f
       0.29267523 0.33853173 0.13208696 1.7671123
000200 85 95 90 be b9 0c 83 3f d0 99 8f bd 31 f9 99 3e
       -0.28239074 1.0238258 -0.07011759 0.3007293
000210 e7 b5 73 3f 6f 9b 9a bd 54 fa d8 3e 60 71 e5 3f
       0.95199436 -0.07549178 0.42378485 1.7925224
000220 b2 c0 f5 3e 99 35 32 3f b8 f2 22 3f 59 3e 89 3f
       0.47998577 0.69613034 0.6365161 1.0722152
000230 ce 66 97 3d 13 7a 19 3f 1f 5d 06 3f 18 44 08 3f
       0.07392655 0.59951895 0.5248584 0.532289
000240 4e b3 03 3f cd d8 cb 3e 67 4b 5f be 9f d5 67 3e
       0.5144547 0.39813843 -0.21806107 0.22640084
000250 3e 52 1e be ea fc 10 bd 40 80 29 3b ce 2a dd 3d
       -0.1546106 -0.035397448 0.0025863796 0.1079918
000260 d8 23 e1 3e c0 a6 54 bc 3d f2 84 3f b4 53 62 3d
       0.4397266 -0.012979209 1.0386425 0.055255607
000270 2f a7 bb 3f 57 80 12 3f fb a5 70 be d2 5d 33 3f
       1.4660395 0.5722708 -0.23500817 0.70065033
000280 4f 0e 0c 3f f6 b8 0e 3e e8 ac e1 3c 2a 2d 24 3f
       0.54709333 0.13937744 0.027548268 0.64131415
000290 f8 16 ab 3e b4 59 07 3f 30 31 07 3f b5 b1 65 3f
       0.3341596 0.5287125 0.5280943 0.89724284
0002a0 1d 7c 10 40 22 32 56 3f 3a 56 16 bd ee a0 8a 3d
       2.2575753 0.83670247 -0.036703326 0.06768976
0002b0 95 18 0a 3f 02 4a 86 3d 04 92 ab 3e 42 a5 7d 3f
       0.5394376 0.065570846 0.3350984 0.9908029
0002c0 0f 0f 08 3f d1 e8 2c 3f 57 ae 39 3f dc 98 87 bf
       0.5314798 0.6754275 0.72531646 -1.0593524
0002d0 f8 ef 6c 3d e4 fd 2f 3f da 89 3b bd fe 81 3d 3f
       0.05784604 0.6874678 -0.045785762 0.7402648
0002e0 b5 c9 d3 3e ce 05 7c be 31 e5 54 3e 1e ed 36 3f
       0.41364828 -0.2461159 0.20790555 0.7145556
0002f0 5f 44 1d 3e e7 c6 0a 3e 43 c4 17 3e e8 d0 3a 3d
       0.15358113 0.13552438 0.14820962 0.045609385
000300 be 45 c0 3d 60 a1 b3 3d 97 2c 80 3f 28 ab 58 3d
       0.09388302 0.08771014 1.0013608 0.052897602
000310 20 79 0f 3f b2 f2 1c 3f d2 38 f2 3d f3 f7 c6 3e
       0.560442 0.61307824 0.11827244 0.38861045
000320 a1 84 da be 83 88 08 c0 17 ee 8c bd de e4 ec be
       -0.42679313 -2.133332 -0.068813495 -0.46268362
000330 db ee f6 be 78 21 be be 83 da 9a be b7 0d f0 be
       -0.48229107 -0.3713491 -0.30244836 -0.46885464
000340 3e 42 43 be de 2d 73 3f 72 b2 20 be a5 6e 0c bf
       -0.19068238 0.9499186 -0.15693071 -0.5485633
000350 92 c4 86 be d0 79 8f 3c cc 80 c1 be fe 9e e3 bf
       -0.26321846 0.01751414 -0.37793577 -1.7782896
000360 9d d3 ea be b7 c8 a3 be 11 73 ae be 05 c2 b4 bf
       -0.45864573 -0.3198907 -0.34072164 -1.412171
000370 64 e7 7e 3d 94 33 8a bf 43 96 84 be 38 5c 40 be
       0.06223239 -1.079699 -0.2589589 -0.18785179
000380 29 5b e0 be 35 ad a8 bf 48 1e be 3e 5a 05 a1 bf
       -0.4381955 -1.3177859 0.37132478 -1.2579758
000390 a1 eb 10 3e 83 00 11 3e 8e 0d fc 3d b6 ae ca 3d
       0.14152385 0.14160351 0.12307273 0.09896605
0003a0 01 17 d0 bf 00 30 06 3a a9 f8 06 bf 90 8b f1 bc
       -1.625702 0.0005118847 -0.52723175 -0.029485494
0003b0 b3 46 ec be 8a 53 98 be 94 2e 14 bf 2a 46 ac bf
       -0.4614769 -0.29751235 -0.5788357 -1.3458912
0003c0 bf ec f6 be 1b d7 d9 bf a3 66 0e be 17 c4 24 be
       -0.48227498 -1.701877 -0.1390634 -0.16090427
0003d0 e2 72 ba be f3 9a fd be b5 62 1e bf 87 c0 9c be
       -0.36415774 -0.4953228 -0.61869365 -0.30615637
0003e0 ea a4 78 bf 8e c8 f9 bd e6 3d 9f 3d 5a cb 67 3f
       -0.9712664 -0.12196456 0.07775478 0.90544665
0003f0 41 d4 dc 3e 1d 77 1f 3e e2 43 74 3f 4c 10 5d bf
       0.43130687 0.15572782 0.9541608 -0.8635299

bias f4 [40]
000000 b4 33 1c 3f 0a 70 13 3f 90 7a 18 bf 55 91 4b 3f
       0.6101639 0.57592833 -0.59562016 0.79518634
000010 cd 53 2d 3f 36 dd b2 be 9e 27 f2 be 13 a9 4d 3f
       0.67705995 -0.34934396 -0.4729585 0.8033611
000020 1e 82 2d 3f 2e 70 4e 3f 1f ca 4a 3f 2e bd cb be
       0.6777667 0.8063992 0.7921466 -0.3979277
000030 e9 96 6c bf 20 26 28 bf 01 41 27 bf dd 5d cc be
       -0.9241777 -0.65683174 -0.65333563 -0.39915362
000040 b7 30 99 3d 98 a9 a0 be e0 96 c3 be 12 c2 df 3e
       0.07479995 -0.3137939 -0.38201046 0.4370275
000050 a5 58 30 3f 78 f6 83 be 33 4a 0b 3f b4 45 5a 3f
       0.6888526 -0.25773978 0.54410094 0.8526261
000060 5a 77 47 3f 03 66 00 bf f5 8c ff 3d ea 92 72 be
       0.7791649 -0.5015566 0.12478057 -0.23688856
000070 c0 ca ca be 70 69 14 3f d5 cd 3f 3f 7c 3d 7c 3f
       -0.3960781 0.57973385 0.7492345 0.9853132
000080 85 85 0a 3f cd 50 30 bf e7 8c ef be 88 29 2b bf
       0.54109985 -0.6887329 -0.46787187 -0.66860247
000090 e3 28 16 bf 8f 73 c4 be d2 63 75 3f 62 e6 70 3e
       -0.5865614 -0.38369414 0.9585544 0.23525384

weight f4 [40, 40]
000000 fd 89 9b 3e 22 fd d5 3e 21 5c ba be 5e 93 9b 3e
       0.30378714 0.41794688 -0.36398414 0.3038587
000010 46 18 12 3f eb ca 5c be ba 11 7a be ce 0b 7e bd
       0.5706829 -0.21561782 -0.24420825 -0.062022977
000020 2d c9 23 bd b4 8a 00 bf fa 37 2c be f0 0b a1 be
       -0.039986778 -0.50211644 -0.16818228 -0.3145442
000030 d1 5f 56 be 6f f3 e1 bd e8 59 af be 53 03 73 bd
       -0.20934989 -0.110327594 -0.3424828 -0.059329342
000040 15 80 05 3f eb 10 3b be 40 53 26 be ce 8f ac 3e
       0.5214856 -0.18268172 -0.16242695 0.33703464
000050 5a 4e d2 3e 0e 43 d8 be c6 b9 c1 3e a5 ea d7 3e
       0.41075402 -0.4223866 0.37837046 0.42171207
000060 9b 67 89 3e c0 7a 5c bf c5 e4 8f 3b 5e 7e 9e be
       0.26836857 -0.861248 0.004391285 -0.30955786
000070 4b d7 36 3c 75 03 1a bf d7 c6 c7 bd 2f b4 b1 3e
       0.011159728 -0.60161525 -0.097547226 0.34707782
000080 a6 f0 14 3d 05 90 6f be 89 ee 0d bf a7 13 a4 be
       0.036362313 -0.23394783 -0.554421 -0.32046244
000090 9d 15 01 bf df eb aa be 47 af b4 3e 8e 32 36 be
       -0.50423604 -0.3338308 0.35289976 -0.17792723
0000a0 de 3b 45 bf a6 73 01 bf 00 ab 26 3f 87 1d 5c bf
       -0.77044475 -0.5056709 0.65104675 -0.85982555
0000b0 e3 7f 58 bf 18 64 20 3f 04 c6 a3 3e f1 b3 2d bf
       -0.8457014 0.6265273 0.3198701 -0.67852694
0000c0 62 2b dd be f8 4f 95 bf de d4 a7 3d 76 9d f2 3d
       -0.4319716 -1.166503 0.08194898 0.118464395
0000d0 7c 72 a3 3e 7d e0 86 be 3d 15 0c 3f 2d ad 74 3f
       0.31923282 -0.26343146 0.5471991 0.95576745
0000e0 f3 70 64 3e 82 bb 5a bf 6f 2c 4c 3f 83 51 f4 be
       0.22308712 -0.85442364 0.797553 -0.47718439
0000f0 16 c0 20 bf 32 fa d1 bd 01 bb 65 bf 6b f6 1c bf
       -0.627931 -0.10252799 -0.8973847 -0.61313504
000100 f3 9a 5b bf 38 a2 87 3e f4 e2 3d bf a5 4d d8 bb
       -0.8578331 0.2649095 -0.7417443 -0.006601053
000110 30 b2 0b 3f 16 27 44 3e 35 7d 03 3f 60 70 1f bf
       0.5456877 0.19155535 0.51362926 -0.62280846
000120 61 14 08 be fa d5 74 bc 50 aa 37 3f 54 1f f7 3e
       -0.13289024 -0.014943594 0.7174425 0.4826609
000130 4d 1a 14 be 64 f4 1b 3f 12 eb 28 bf bd b2 43 3f
       -0.14463158 0.60919785 -0.6598369 0.7644461
000140 fb 67 4b bf 2b b7 09 bf b1 b1 1f 3f a1 fc 02 bf
       -0.79455537 -0.5379512 0.6238051 -0.5116673
000150 ba 5a df be 71 00 3b 3f 0c 1e 28 3f 72 b5 30 bf
       -0.43623906 0.7304755 0.6567085 -0.69026864
000160 62 25 52 be fd 57 05 bf 6a 9a 8c 3e e4 8e 19 3f
       -0.20522073 -0.52087384 0.2746156 0.5998366
000170 6a 8a 3e 3f 02 fd 18 be b1 74 3d 3f e0 0a a0 3e
       0.74429953 -0.14940265 0.7400618 0.31258297
000180 75 3c ae 3e d0 06 46 3e a8 12 51 3f 15 98 0e bf
       0.340305 0.19338536 0.8166909 -0.5570081
000190 e7 61 07 bf ba 42 c3 bb 18 06 f2 be 32 b7 25 bf
       -0.5288376 -0.005958882 -0.47270274 -0.6473266
0001a0 c4 14 25 bf d4 a3 d6 bc 6d 6b 22 bf c4 a0 a1 3e
       -0.6448481 -0.026201166 -0.6344517 0.31567967
0001b0 43 b3 99 3e 7c ae d5 3d f6 cc 88 bd c8 54 4b bf
       0.30019578 0.10433671 -0.06679718 -0.7942624
0001c0 b0 d9 78 be 6c 14 a0 3e 94 f8 1d 3f 6a c2 81 3e
       -0.24301791 0.3126558 0.61707425 0.2534364
0001d0 96 35 dc 3e 0b ad 61 3e 8f 3f 49 bf 37 d4 89 3e
       0.43009633 0.22038667 -0.7861261 0.2691972
0001e0 24 00 4d bf 19 f8 d7 be 41 87 41 3f f5 6a 0a bf
       -0.8007834 -0.4218147 0.75597006 -0.54069453
0001f0 e0 31 d8 be db db 34 3f ce e4 0f 3f a7 d5 4c bf
       -0.42225552 0.7064797 0.56208503 -0.8001351
000200 6b a9 e3 3d 35 6a 25 be 02 63 e3 bd 07 14 11 3f
       0.11116298 -0.16153796 -0.111028686 0.56671184
000210 d9 7b 15 3f d2 f3 d3 bd f4 98 3c 3f 41 69 69 3e
       0.583921 -0.103492394 0.7367089 0.22794057
000220 dc c8 ad be e8 66 09 3f 5e cf 29 3f 0f b1 f2 be
       -0.33942306 0.5367265 0.6633204 -0.4740071
000230 a7 e3 4c bf 15 d2 10 3e 4d d4 4d bf 34 da 4a bf
       -0.8003487 0.1414264 -0.8040207 -0.792392
000240 95 9f 22 bf ca e0 21 3f b6 30 e0 be ab 54 04 3f
       -0.6352475 0.63233626 -0.43787163 0.51691693
000250 1e a3 19 3f e0 f2 b3 3d 4e f7 49 bd 15 3a 1d bf
       0.6001452 0.08786559 -0.049308114 -0.6141675
000260 bb 12 8d bc 01 b5 03 3f 25 5b 24 3f c1 57 14 3e
       -0.017220845 0.51448065 0.64201576 0.144866
000270 58 59 d9 3e 17 7e 8b 3e 0a e5 55 bf 3b 28 4e 3e
       0.42450976 0.27244636 -0.8355261 0.20132534
000280 c9 37 cc be 9e 8b 8b be fa 04 20 3f 8c 3f a4 be
       -0.3988631 -0.27254957 0.62507594 -0.32079732
000290 fd df 2c be 1f 1e b4 3e 60 9f f4 3e 08 31 91 be
       -0.1688232 0.3517923 0.47777843 -0.2835772
0002a0 dc b1 88 3e d1 dd b0 bc d4 1b 9f 3e 1f 4e 87 3e
       0.26698196 -0.021590145 0.3107592 0.2642679
0002b0 fd dd 0e 3f 56 9e a7 be 02 e3 e6 3e d6 78 eb bd
       0.5580748 -0.32737988 0.45095068 -0.11497657
0002c0 a5 a5 5a bf af 68 60 3e e7 0f d1 3e d1 9c 69 bf
       -0.85409003 0.21914934 0.40832445 -0.9125491
0002d0 bb 5a fb be ad 28 b9 bd b6 d7 f5 be 70 a7 33 bf
       -0.4909266 -0.090409614 -0.48016137 -0.70177364
0002e0 4a 0e 01 bf 80 ed 2e 3f fe a3 84 be 97 36 18 bd
       -0.5041243 0.68331146 -0.25906366 -0.037161436
0002f0 e7 36 c2 3d 5a 03 b1 3e 32 f2 24 be fd a0 e3 be
       0.09483128 0.3457287 -0.16108015 -0.44458762
000300 d0 73 1e 3d 32 bf 89 3e e4 1b fe 3e 28 79 99 bd
       0.038684666 0.26903683 0.49630654 -0.07493812
000310 87 4e bc be 90 12 ad bb ca 42 11 bf 5f bf 18 3e
       -0.36778662 -0.005281754 -0.5674254 0.14916752
000320 e3 81 26 3f 4b ca e2 3e 31 db 29 bf 1c 70 2e 3f
       0.6504194 0.44294962 -0.66350085 0.68139815
000330 2d 41 08 3e f0 2a 06 bf c5 73 94 be d8 0a 30 3f
       0.13306113 -0.5240927 -0.28994575 0.68766546
000340 d1 a4 8e be c4 c8 86 3e 56 1f 30 be 1f e8 ec be
       -0.2786012 0.26325047 -0.17199454 -0.46270844
000350 cb ed d6 be 04 97 67 3e ed 1a 19 bf 31 11 c3 be
       -0.41978297 0.22616202 -0.5980671 -0.38099054
000360 2d ee df 3e 09 0b 49 be 18 a7 7a bf 71 8b e5 3d
       0.437364 -0.19633116 -0.97911215 0.11208237
000370 08 de f1 3e 7d 09 cf 3d 02 6b 13 3f 4e 3d 14 3f
       0.4723971 0.101092316 0.57585156 0.57906044
000380 2d 26 24 3f 52 8f 73 be 36 df 3d 3f c3 8a 8a 3e
       0.6412075 -0.23785141 0.7416872 0.27058992
000390 50 f2 33 bf bd d5 f8 bd 36 63 b6 3e fc 28 b2 3e
       -0.70291615 -0.12150142 0.35622567 0.34796894
0003a0 65 e1 e0 bd 57 2b fb be e7 f6 c8 be 3b 01 42 3e
       -0.109804906 -0.49056503 -0.39250872 0.18945782
0003b0 27 fb 0b be 4f 8f 82 be 23 e6 e1 3e 11 af 13 bf
       -0.13670026 -0.2549996 0.44120893 -0.57689005
0003c0 ef 57 2e bf 8e 44 03 bf 95 36 17 3f 40 cb f9 be
       -0.68102926 -0.5127648 0.5906766 -0.4878788
0003d0 16 da 5f bf 62 08 06 3f f8 02 2e bf 0f ba 30 bf
       -0.8744215 0.5235654 -0.6797328 -0.690339
0003e0 3e 8b ef bd 46 eb b3 be c9 1d 2d 3e 5b d0 23 3f
       -0.1169648 -0.35140437 0.16905893 0.639898
0003f0 88 6d f5 3e 9d 14 8e bf 90 50 f8 3e 12 31 1d 3f
       0.47935128 -1.1100041 0.48498964 0.61403

bias f4 [40]
000000 7e dd ec 3e fd f5 22 bf f7 96 17 bf eb 9f 10 bf
       0.46262735 -0.636566 -0.5921473 -0.56494015
000010 1f 8c a2 be d7 c7 f7 3e dd 11 24 bf 53 54 d9 be
       -0.3174753 0.48394653 -0.6408976 -0.42447147
000020 14 26 ef be c3 a3 ed 3e ba ec 00 3f eb b3 1d bf
       -0.4670874 0.46414003 0.50361216 -0.6160266
000030 36 c1 1f bf d2 8d 12 bf 42 bb 7b be 9c 65 0c bf
       -0.6240419 -0.5724765 -0.24583152 -0.54842544
000040 21 2d 15 3f 66 5b 23 bf 81 85 23 bf ea 7b 04 3f
       0.58271986 -0.6381134 -0.63875586 0.5175158
000050 9f 3e 27 bf 70 80 d5 3e 7d d9 c9 be 63 43 d3 be
       -0.6532993 0.41699553 -0.39423743 -0.4126235
000060 ae 8b 29 3f 63 a2 ab be 2f 09 1d bf 3e 21 12 3f
       0.6622876 -0.3352233 -0.6134214 0.57081974
000070 cf 3a 08 3f a7 fa d5 3e af 57 80 3e 39 5c 36 3f
       0.53214735 0.41792795 0.25066897 0.7123447
000080 a2 0a 05 3f ec 40 b2 3e 7e fa a4 3e d3 27 2e 3f
       0.5196935 0.34815156 0.3222236 0.68029517
000090 42 bf 2c 3e 92 1b 8c 3e 01 64 ee 3e f4 16 47 3f
       0.16869834 0.27364784 0.46560672 0.777694

weight f4 [1, 40]
000000 43 ed 03 3e 91 80 20 be 59 f1 b5 be af f6 a9 be
       0.12883477 -0.15674044 -0.35535696 -0.33196017
000010 aa f9 bf be d6 77 f7 3e 5f 2c 2b bd 26 3c b8 bd
       -0.37495166 0.48333615 -0.041790362 -0.089958474
000020 02 2b f0 be 46 fa e1 3e d5 c3 40 3f 34 1f dc be
       -0.46907812 0.44136256 0.75298816 -0.42992556
000030 f5 35 e0 be a7 12 b2 be 06 1d bc 3c 43 57 af be
       -0.43791166 -0.34779856 0.022963058 -0.34246263
000040 6e 9a fd 3e 01 70 fa be 9b a8 cf be bd 20 fd 3e
       0.49531883 -0.48913577 -0.40558323 0.4943904
000050 fd 37 c3 be a9 f2 e6 3e 0d ce 13 bf b1 99 09 bf
       -0.38128653 0.4510701 -0.57736284 -0.5375014
000060 46 78 d6 3e 76 fd 82 be 1b 24 f1 be 6b 30 02 3f
       0.41888636 -0.25584 -0.4709786 0.5085513
000070 e7 56 d6 3e 33 5a f7 3e db 8a da 3e 8f 77 e6 3e
       0.41863176 0.48311004 0.42684063 0.4501309
000080 b8 47 fa 3e 4e bd c6 3e b5 31 0d 3f 09 5f d2 3e
       0.48882842 0.38816303 0.5515397 0.4108813
000090 02 ff 18 3e be 13 ca 3e e9 85 d9 3e c0 cd de 3e
       0.14941028 0.39468187 0.42484978 0.4351635

weight f4 [40, 2]
000000 33 6e c7 3f e4 9c f4 3f 4a 1f a4 be e0 c5 b8 3c
       1.5580505 1.9110379 -0.32055122 0.022555292
000010 80 cf 04 bc 3f 44 09 bf 33 7e 15 3f 72 75 2d bf
       -0.0081061125 -0.5361976 0.5839569 -0.6775733
000020 dd e7 2c bf 61 09 4e 40 20 c5 d1 3f 7b ab 5a 3f
       -0.67541295 3.2193224 1.6388283 0.8541791
000030 08 94 b7 3d bf 37 17 bf 74 3c 46 3f b3 71 cd be
       0.089637816 -0.59069437 0.77435994 -0.40125808
000040 07 c9 aa 3e 70 8d 84 3e f4 1b 23 3e f3 2a 44 c0
       0.33356497 0.25889158 0.15928632 -3.0651214
000050 3e 29 e3 3e 88 92 2c be 37 96 be 3f 7c 11 4a be
       0.44367403 -0.16852772 1.4889592 -0.19733232
000060 4a 9f 6e 3f 52 82 98 bf 5d 9e 20 be 7d c9 30 3f
       0.93211806 -1.1914771 -0.15685411 0.69057447
000070 be a0 db be 0c 1b 08 3e d4 ab 6b 3e fa 1a a0 3e
       -0.42896074 0.13291568 0.23014766 0.3127058
000080 24 bb e0 be 07 b1 89 3e 10 11 95 bd 3a e9 2f bf
       -0.43892777 0.26892874 -0.07278645 -0.6871525
000090 36 18 d7 3e f0 b3 c8 3d 93 b6 a8 bf 30 c1 13 3f
       0.4201066 0.09799945 -1.3180717 0.57716656
0000a0 2a ac b9 3e 31 be 22 3f aa c0 64 be db dd 32 3f
       0.36264163 0.6357146 -0.2233912 0.69869775
0000b0 40 31 34 bf e9 b3 6e bf bb 28 02 c0 e3 01 0b c0
       -0.7038765 -0.9324327 -2.033736 -2.1719902
0000c0 cd a2 cd 3d ea c2 b2 3e 9b 29 aa bf ff 62 86 bd
       0.100408174 0.34914333 -1.3293947 -0.06561851
0000d0 08 5f 21 40 a0 20 05 c0 c8 ac d0 3d 80 d8 d2 bb
       2.5214252 -2.0801163 0.101892054 -0.0064345
0000e0 30 ec bd 3f a5 ba 67 bf bc ab 09 c0 d9 08 20 c0
       1.4837704 -0.9051917 -2.1511068 -2.50054
0000f0 30 6a e1 be 7c 9d 60 be 6a a0 c4 bf d5 8d a2 3f
       -0.44026327 -0.21935076 -1.5361454 1.2699534
000100 8d a6 84 c0 86 6b ed 3f 62 03 05 bf 14 f0 1e be
       -4.145331 1.8548439 -0.51958287 -0.1552127
000110 ea 74 0a 40 3d 85 e1 3d a8 40 cc 3d c4 a9 19 be
       2.1633859 0.11011741 0.0997327 -0.15006167
000120 4c 35 32 bf 72 3f 7c be ea ed 12 40 ca 96 fa 3f
       -0.69612575 -0.24633577 2.2957711 1.9577267
000130 f9 32 4b 3e 2c 18 76 40 ec 6e 3e 3f 01 b3 c1 bf
       0.19843663 3.8452253 0.74388003 -1.5132753

bias f4 [40]
000000 80 c1 01 3f d0 ec 1c be 68 7c 1f bf 87 4a 24 bf
       0.5068588 -0.15324712 -0.62299204 -0.6417622
000010 b6 d0 05 3e 8b 05 83 3e c3 b4 12 bf 79 37 db 3e
       0.13067898 0.25590166 -0.5730707 0.4281576
000020 0c 60 b7 3e 9c 3b a2 3f 68 1a 17 bf d5 48 5f 3f
       0.35815465 1.2674441 -0.5902467 0.8722051
000030 eb a8 15 3f 13 7a f8 3e 6e 0e 0d bf 46 15 eb be
       0.58460873 0.48530635 -0.5510014 -0.45914668
000040 c2 78 d7 be 93 50 ff be 1b 44 ac be 1b 8f 90 3f
       -0.42084318 -0.4986616 -0.3364571 1.1293672
000050 06 8a 1d bf ac 21 03 bf 0b ef 5a 3f 73 64 44 3f
       -0.6153873 -0.51223254 0.85521 0.76715773
000060 cf 44 81 be 04 e0 84 3e d0 7c 83 3f 70 f9 25 bf
       -0.2524781 0.2595216 1.0272465 -0.64833736
000070 d0 10 b0 3e 78 d1 65 3e a6 e7 1a bf 80 d0 a8 3e
       0.34387827 0.22443187 -0.6050972 0.32971573
000080 b2 6e 4f 3f cb a9 c6 be 8e c6 a0 3e 37 15 23 bf
       0.8102828 -0.38801417 0.31401485 -0.63704246
000090 01 70 20 bf f9 6a 7d be 71 ad 91 3e 71 e9 c1 3d
       -0.62670904 -0.24747838 0.28452638 0.094683535

weight f4 [40, 40]
000000 78 a6 0d 3f 2e 05 be 3d 70 8a 90 bc 9a 71 0b be
       0.55332136 0.09278332 -0.017644137 -0.13617554
000010 33 64 66 3d 71 72 33 3f e3 93 be bd e6 ab fa 3e
       0.0562479 0.700965 -0.09305551 0.48959273
000020 ec dd 13 3f b1 ca e5 3e df 94 1b be e9 2d 26 3f
       0.577605 0.44881204 -0.15193509 0.64913803
000030 19 f5 b2 3e 44 17 26 3f b4 80 9a 3d 26 e0 20 be
       0.3495262 0.6487925 0.075440794 -0.15710506
000040 88 58 a5 3d 81 96 15 3e e3 2b 0f 3e cc b3 04 3f
       0.080735266 0.14608194 0.13981585 0.5183685
000050 72 de f7 3d 10 92 a8 bd c3 ff 03 3f e4 53 f7 3e
       0.12102975 -0.08230984 0.51562136 0.4830619
000060 1d 58 b1 3d 44 cb 06 3f bb 3b a1 3e 80 bc 86 3b
       0.086593844 0.5265391 0.31490883 0.0041118264
000070 59 db e9 3e 48 27 bb be b0 58 aa bd da ff 16 3f
       0.4567516 -0.36553407 -0.08317697 0.5898415
000080 47 2d d4 3e a4 ba b4 3d c7 94 d4 3e c4 8a 90 3d
       0.41440794 0.088246614 0.41519758 0.070577174
000090 7c ad 6e 3d 30 ec 4b 3e 90 5e 54 3e a1 9d 68 3f
       0.058270916 0.19914317 0.20739198 0.9086552
0000a0 18 2e a1 be f4 82 88 3d 15 6a 20 3e 1c 4d 1c bd
       -0.3148048 0.06665602 0.15665467 -0.038159475
0000b0 74 83 a5 3f bd f9 4b bf 88 c6 81 bd fd 2e 81 be
       1.2930741 -0.79677945 -0.06336695 -0.25231162
0000c0 b8 f9 c7 be 7b 5e f7 be 4b 07 d6 bd 9d ee ab be
       -0.39057708 -0.4831427 -0.1045061 -0.33580485
0000d0 28 42 ac be c0 81 bb be 10 78 0c bc 8a 1c fa 3d
       -0.33644223 -0.3662243 -0.008573547 0.12212475
0000e0 69 6b fc 3d 20 3a e6 3c 0a 1c ff 3d a5 82 09 bf
       0.12325174 0.028103888 0.1245652 -0.5371497
0000f0 d2 d5 d3 bd 11 e5 02 3e 76 28 be be dd c5 bf bd
       -0.10343517 0.12782694 -0.37140244 -0.09363911
000100 3b 9f ed 3d 98 7d 68 bf d2 1b 7d 3e 26 07 c0 3d
       0.116026364 -0.9081664 0.24717644 0.093763635
000110 08 b5 c0 be b5 e1 51 3f b0 f7 4b 3d 74 12 31 bf
       -0.37638116 0.81985027 0.04979676 -0.6916878
000120 a4 37 32 bf 21 e9 03 3e 8d c9 e8 3e 4a 15 b5 3d
       -0.6961615 0.128819 0.4546627 0.08841951
000130 9c 94 ef bd 09 7e 43 3f b1 94 4a bf eb 75 26 bf
       -0.11698267 0.7636419 -0.79133135 -0.6502368
000140 a7 52 cd bf f8 bb 50 3d 78 36 b2 bc 28 39 fc bd
       -1.6040848 0.05096051 -0.021754488 -0.12315589
000150 ae 4e 94 be 97 a5 26 3e b3 56 08 be 31 15 84 be
       -0.28966278 0.16274105 -0.13314323 -0.25797418
000160 e6 36 ee be b2 25 b5 bd 46 16 f9 3d bf fb 58 bf
       -0.4652626 -0.088450804 0.121624514 -0.84759134
000170 83 01 82 bd 4c 66 a4 be 1a ec fc 3d e8 33 ca bd
       -0.063479446 -0.32109296 0.1234972 -0.098731816
000180 a2 b1 81 3d 88 3a e7 3c d8 c7 a3 bc 81 8a 2d bf
       0.06332709 0.028226152 -0.019992754 -0.67789465
000190 94 d7 b2 3d 24 d1 59 3d d8 ef a4 be a7 5a e5 3d
       0.087325245 0.053177968 -0.32214236 0.11198931
0001a0 57 59 93 3e 93 cb 68 bf b5 79 b9 bd 00 88 60 bc
       0.28779098 -0.9093563 -0.09056417 -0.0137043
0001b0 93 97 af be ad ba 87 3e 10 41 8c 3d 1a 75 68 bf
       -0.3429533 0.2650961 0.06848347 -0.9080368
0001c0 2c 9a 8e bf 4b 0d c8 bd db b0 d8 3e 44 99 9d 3d
       -1.11408 -0.097681604 0.4232243 0.07695249
0001d0 62 1f 03 be c4 2a 47 bf 40 60 af bf 39 1a b5 be
       -0.1280494 -0.7779963 -1.3701248 -0.3537157
0001e0 d1 a5 05 3b 6e 37 21 be 87 2e 19 3e 57 cf 98 bd
       0.0020393024 -0.15743801 0.14959155 -0.07461422
0001f0 7e e8 8f be 4b 48 11 bf 00 8b a7 3d 0b bf 8f be
       -0.28107065 -0.56750935 0.08180809 -0.28075442
000200 97 e1 5d be 8e 26 77 be 60 c5 87 bc 0a 80 54 bf
       -0.21668087 -0.24135801 -0.016573608 -0.8300787
000210 30 cd 98 be 73 df 00 3d ed ae 0b be be 1a 91 bd
       -0.29844046 0.031463098 -0.13640948 -0.07085179
000220 ed 25 08 3e 19 c8 df bd fc 87 dc bd 0c e3 f8 bd
       0.13295718 -0.109268375 -0.107681245 -0.12152681
000230 55 74 21 be b5 b3 1c 3e 0d 78 97 be 02 1d cd bf
       -0.15767033 0.15302928 -0.2958378 -1.6024477
000240 1c 81 d1 bd d6 d1 69 bf c4 b2 3e bf c0 a9 5f 3b
       -0.10229704 -0.9133581 -0.74491525 0.0034128278
000250 7e 98 b5 be 95 86 4f bf 96 3a 82 3d da 55 22 be
       -0.35467905 -0.8106473 0.06358831 -0.15853062
000260 3e 23 30 3e 47 a1 a3 bd 64 35 d3 be a6 ec e0 bd
       0.17200944 -0.079897456 -0.4125167 -0.10982637
000270 c0 d8 36 3b 05 b7 0f bf 17 9b fc 3d eb c9 95 3e
       0.002790019 -0.5613864 0.123342685 0.29255614
000280 68 8a ae bf 38 28 85 3d 74 f9 33 3d 45 d4 cb bd
       -1.3635988 0.06501812 0.04393907 -0.099525966
000290 61 bf 1e be 7f 00 5e bf cc 45 0b 3d f2 62 0d 3e
       -0.15502693 -0.86719507 0.03400211 0.13807276
0002a0 c9 69 07 3d 9d 94 f9 be 4e 2d c4 3d cf 05 6c bf
       0.03305987 -0.48746195 0.09578954 -0.92196363
0002b0 dc 4f cb be 3a ba e7 bd f4 50 33 3d dc 80 e2 bd
       -0.39709365 -0.11314817 0.043778375 -0.11059734
0002c0 43 65 fa bc 00 0c ed ba ae c1 ef 3d 6e a8 79 be
       -0.030565863 -0.0018085241 0.11706863 -0.24380657
0002d0 2a 7d 4e bd 66 76 ef 3d c4 ca 2c 3d 41 33 03 3f
       -0.050412335 0.116925046 0.04218556 0.5125008
0002e0 da f7 0d bd 36 c2 19 bf aa 9d 72 be e8 8f 4f 3d
       -0.034660198 -0.6006197 -0.23692957 0.05067435
0002f0 7b 13 52 be 0f f7 1b 3f f0 ce a4 3d 64 7f b9 bd
       -0.20515244 0.60923856 0.08047283 -0.09057501
000300 1d 4f c9 3d 8e a9 ef bd 72 0c 37 bf ac c2 5e 3d
       0.09829543 -0.11702262 -0.71503365 0.054384872
000310 4c 7a 03 3d 20 ec 92 be 2e 48 5f bf 43 ec 2b 3f
       0.032099053 -0.28695774 -0.8721951 0.6715738
000320 9b 91 a3 3f f7 54 1e 3e ec b6 0a be e0 a5 b4 3c
       1.277881 0.15462099 -0.13546342 0.022051752
000330 d1 6d 94 bb b8 9d ff 3e 4c b0 a3 3d 6e 99 10 3f
       -0.0045296927 0.49925017 0.0799261 0.56484115
000340 5e f3 14 3f 66 be d8 3e 9c 07 d1 bd 6d 11 5b 3e
       0.5818385 0.42332762 -0.102065295 0.21393366
000350 29 c2 04 3e 13 e3 27 3d 6e cb d7 3d ba 4d 43 bd
       0.12964691 0.04098804 0.10536848 -0.047681548
000360 6c 3e 2f 3e f0 92 8a 3d 05 c3 10 be ea b6 d7 3e
       0.17113656 0.06766307 -0.14136894 0.4213174
000370 d6 69 85 3d e0 cd 72 3d 09 8a 12 3f 6a 19 f7 3e
       0.06514327 0.05927837 0.57241875 0.48261577
000380 15 67 e8 b9 8f 2a 34 3f b7 3d 03 3e 32 4e c7 bd
       -0.0004432729 0.7037744 0.12816511 -0.097317114
000390 a3 dd 22 3f ed e0 88 3e 14 56 14 3d 7b 80 f3 3e
       0.6361944 0.26734105 0.036214903 0.4755896
0003a0 c3 49 a1 3c 62 73 a4 3d b2 08 71 3f 5e 3c fb bd
       0.019688493 0.0802982 0.94153893 -0.122673735
0003b0 22 88 0a bd 00 7a 33 3e bd 67 43 3e ce 50 68 3f
       -0.033821233 0.17527008 0.19082542 0.907483
0003c0 d8 9f 8b bd 71 2b 1f 3e 06 db aa 3d 88 3e 13 be
       -0.06817597 0.15543915 0.08342557 -0.14379323
0003d0 69 9f d0 3f 97 46 2f 3f 3b 2e 9e bd 8b 10 be bd
       1.6298648 0.68467087 -0.077236615 -0.09280499
0003e0 94 05 8e 3e c7 2c b6 3e d8 74 88 3c b7 ff 42 3f
       0.2773863 0.35581037 0.016657278 0.7617144
0003f0 3d cf 92 3f 4d bf 64 3e e0 e9 d2 bd 20 84 d1 bb
       1.1469494 0.223386 -0.10298514 -0.0063939244

bias f4 [40]
000000 55 f6 29 3f 5a 21 02 bf be 7f 4e bf 1e 32 b8 3d
       0.663915 -0.5083214 -0.8066367 0.08993934
000010 13 81 21 bf ef 2e 12 3f 15 64 52 3e 05 fe 43 3f
       -0.63087577 0.57102865 0.20545991 0.7655948
000020 bb 41 ee 3e f4 4d 83 bc 60 5f 15 3f 85 69 ab bd
       0.46534523 -0.016028382 0.58348656 -0.08369736
000030 15 ed de bd d1 ca 18 3f 19 18 92 3e 9b 09 d4 3f
       -0.108850636 0.59684473 0.2853401 1.6565431
000040 6d 36 ce be 5b ac f7 be 83 d3 9b be b2 6a a8 3c
       -0.402759 -0.48373684 -0.30434808 0.020558689
000050 fd 0f f5 be 91 d4 d5 3e 59 c2 0a bf be 67 df bd
       -0.4786376 0.41763738 -0.542028 -0.10908459
000060 87 bc ba be 63 4d 32 bf 56 b2 55 3f 92 37 10 3f
       -0.3647196 -0.6964933 0.83475244 0.56334794
000070 e4 92 1b bf 4d bb 65 3e 01 7b d2 3e ab 8e 9f 3e
       -0.6077101 0.22434731 0.4110947 0.31163535
000080 d7 3e 2d bf b4 c4 98 be 4e 62 29 bf 57 d0 0e bf
       -0.6767401 -0.29837573 -0.66165626 -0.5578665
000090 b5 e8 54 3e 51 1c 47 3e 20 e4 74 be cd 41 62 3f
       0.20791896 0.19444396 -0.23915148 0.88381654
