[Other models]/min_func_7.pt (torch_old, 66278 bytes, 27 tensors)

weight f4 [40, 2]
1.6657254 -1.7481829 2.920196 0.87797296 -0.37317756 0.9444567 1.731411 -0.82572925
1.5956265 -0.5581388 -3.164458 1.547978 0.766958 -1.1254303 -1.2253425 -0.62090486
-0.7691724 -0.772093 2.7391775 -0.9105911 4.302124 -1.5993428 -1.8894601 1.0145259
0.3750344 -1.2173957 3.0219612 1.281079 -2.3780859 0.6366885 -1.3651837 0.7887375
-0.72251827 -0.69477165 0.93519586 0.049597286 4.5968804 1.1999986 -0.07007903 1.079554
-0.18468884 1.2856038 -0.8630987 0.2058103 1.4710656 -1.372657 -2.109056 1.001256
6.555829 3.4615102 0.40054405 0.522035 -3.3027494 0.52559114 1.2519712 0.1505869
2.7782178 -0.914316 -2.567963 0.82335913 2.10916 -0.84666514 -2.04197 0.7386412
-2.8865557 1.0879173 0.7994724 -0.6181148 1.1340183 -1.1613462 3.188824 0.83570004
-1.1514874 -0.7515169 -3.9122589 1.1247499 -3.6772819 0.73233545 0.8549865 -1.033088
00000000: 7d36 d53f 75c4 dfbf 7ee4 3a40 d6c2 603f
00000010: 2111 bfbe eac7 713f e09e dd3f fe62 53bf
00000020: 7d3d cc3f 2fe2 0ebf 7b86 4ac0 2524 c63f
00000030: 5c57 443f 1a0e 90bf 06d8 9cbf 9ff3 1ebf
00000040: 7be8 44bf e3a7 45bf af4e 2f40 801c 69bf
00000050: 00ab 8940 44b7 ccbf d4d9 f1bf fcdb 813f
00000060: 8204 c03e 9fd3 9bbf d067 4140 66fa a33f
00000070: 8f32 18c0 04fe 223f 57be aebf b3ea 493f
00000080: f5f6 38bf 8edc 31bf ff68 6f3f 8626 4b3d
00000090: a519 9340 8e99 993f 9885 8fbd d32e 8a3f
000000a0: 121f 3dbe aa8e a43f 09f4 5cbf efbf 523e
000000b0: e14b bc3f 39b3 afbf c6fa 06c0 2829 803f
000000c0: 5ac9 d140 6289 5d40 1c14 cd3e 16a4 053f
000000d0: 3f60 53c0 248d 063f 9840 a03f 7433 1a3e
000000e0: 52ce 3140 9d10 6abf 8159 24c0 aac7 523f
000000f0: 7afc 0640 0cbf 58bf a3af 02c0 9717 3d3f
00000100: 54bd 38c0 e040 8b3f 39aa 4c3f c63c 1ebf
00000110: 8327 913f fea6 94bf b115 4c40 70f0 553f
00000120: f063 93bf 6963 40bf 7362 7ac0 cef7 8f3f
00000130: 9658 6bc0 567a 3b3f 65e0 5a3f 3a3c 84bf

bias f4 [40]
0.31611583 -0.4207114 -0.9575185 0.65238804 1.3336146 1.108241 0.8072273 1.087985
1.323189 -0.38736662 -0.23529688 -0.4110288 0.82952434 1.9977114 0.37622893 -0.98632455
1.020035 -1.2097604 -0.11978638 -1.144043 -0.9872897 -1.4358299 0.18173179 -0.21988967
0.90871173 2.792111 0.3538773 1.3356977 0.42780453 0.14891963 0.4866385 0.2728874
-0.31866583 1.1759504 0.61562985 -0.0016564943 -1.4141738 0.80844474 0.84999377 0.7955414
00000000: efd9 a13e 7c67 d7be ef1f 75bf e702 273f
00000010: e2b3 aa3f d7da 8d3f 73a6 4e3f 1843 8b3f
00000020: 425e a93f eb54 c6be aaf1 70be 5e72 d2be
00000030: b55b 543f 02b5 ff3f 14a1 c03e c47f 7cbf
00000040: 8290 823f 6ed9 9abf 9052 f5bd 0070 92bf
00000050: 05bf 7cbf 46c9 b7bf e617 3a3e c22a 61be
00000060: 55a1 683f f2b1 3240 682f b53e 24f8 aa3f
00000070: 3209 db3e 637e 183e ae28 f93e e6b7 8b3e
00000080: 2b28 a3be 8b85 963f eb99 1d3f ba1e d9ba
00000090: a603 b5bf 3cf6 4e3f 3199 593f 9aa8 4b3f

weight f4 [40, 40]
2.3292806 -1.4225285 -4.326101 0.12629683 0.03328668 -2.6053784 1.000651 1.6152534
1.9011275 1.250526 2.613323 -0.36584583 1.2200915 -2.3866162 -1.4522848 -0.16797078
1.384443 0.6915819 -2.4349966 -1.1059659 -1.3908176 0.054875355 1.1271107 -1.4756219
-4.486594 -1.4449955 -2.3089254 -0.43742394 0.46291122 -1.4930826 1.2096142 -1.3140211
-1.2727765 0.2331706 0.99241406 -0.42204458 1.2369353 -2.7203865 -0.47078142 0.6720734
0.68785846 0.49706623 -1.3264173 0.31021848 -0.40899238 -7.174828 0.9658729 0.6975074
1.0708046 1.863822 4.612311 -0.11815595 1.0360032 -0.4983448 -1.609293 0.20811222
0.33240464 0.7957062 6.041272 -0.88663036 -1.1125487 0.6674025 1.6052835 -0.72102684
3.1014113 -0.9251263 -1.7902342 -0.37498605 0.71807945 -1.2301232 0.9330616 -1.7278489
-0.46552205 0.062207725 0.8486128 8.576878 1.026581 -3.539672 -7.5999255 0.4649533
-0.62449884 -0.13451195 0.5289316 -0.31784394 -1.0106529 -1.0746896 0.15384637 -0.1289244
-0.061101742 -0.24408151 0.089576274 0.2672888 0.042327344 -0.8680979 0.05119874 0.32482904
-0.023905477 0.2937428 -0.09156149 -0.026221285 -0.07773093 0.71361274 -0.09367149 0.18804754
0.111840196 0.43672317 0.28043574 -0.7459944 -0.42550203 0.1536374 -0.2676033 0.12519799
0.36182883 -0.39282602 -0.47499105 -0.4551971 0.96501935 -0.23412046 -0.6175607 0.0947461
-0.009427024 -4.925966 -2.6142657 1.0289586 0.859807 4.1839857 7.211734 7.2295094
6.851868 -6.3095217 -6.8392844 -0.58663946 6.9562097 1.4735858 4.0665407 -2.236569
7.176169 -5.544329 -4.609735 -4.7264447 -4.723751 -2.0040362 -0.5303185 2.4435642
-2.2148573 6.7032976 4.352779 2.0592651 -1.1574601 3.7451305 -3.9303436 0.50099283
2.078843 3.391121 2.6815007 -4.0477176 -1.8343234 3.423871 6.4991345 7.377653
0.052394077 -0.6686829 0.66047484 -0.48880658 -0.651603 -1.4469103 0.29543927 0.5483992
0.098691255 -0.24477416 -0.0029672892 0.5828271 0.303601 -0.89120126 0.5477215 0.66836727
0.64620477 0.37130633 0.4021619 -0.14326952 -0.11774563 0.57220745 0.024509722 0.40200025
0.71092486 -0.7500387 0.5588264 -0.43459797 -0.5563914 0.27847645 -0.21693344 0.059144992
0.4006522 -0.46117726 -0.11623654 -0.35230434 0.79613787 -0.8768021 -1.0296568 0.00064259913
1.5664508 0.060805973 -0.14251126 1.7888838 3.5342898 1.8856982 1.0952576 0.81507933
0.8711463 0.895177 1.8074126 -1.5368026 1.0965321 3.3740513 -0.21855165 -1.5815369
0.7254328 -0.24004827 2.4343753 -0.8947681 -0.9398012 -0.9249726 0.8619931 -0.95631444
4.1559 2.6562645 -1.5201036 1.6915456 2.2300134 -0.8586576 1.9193275 -1.21454
-1.8726928 1.7830566 1.7077196 2.2392845 -1.275426 0.13267937 0.28255108 1.3311259
0.70767546 3.023666 0.19272545 1.2348703 1.237655 -4.478704 0.55681336 -2.4903507
-2.0401046 3.1991377 6.867208 -1.3676127 -0.42580414 1.8061427 -2.4972034 -0.764744
00000000: ef12 1540 6a15 b6bf 6b6f 8ac0 f553 013e
00000010: 9d57 083d 85be 26c0 5515 803f a0c0 ce3f
00000020: 2558 f33f 3c11 a03f af40 2740 2550 bbbe
00000030: f52b 9c3f 52be 18c0 78e4 b9bf 8800 2cbe
00000040: 6e35 b13f 830b 313f fcd6 1bc0 4a90 8dbf
00000050: 5006 b2bf fbc4 603d 2a45 903f 2ee1 bcbf
00000060: 2e92 8fc0 9df5 b8bf 6fc5 13c0 08f6 dfbe
00000070: b302 ed3e 551d bfbf a3d4 9a3f d831 a8bf
00000080: 57ea a2bf 46c4 6e3e d90e 7e3f 3a16 d8be
00000090: e553 9e3f d01a 2ec0 430a f1be 010d 2c3f
000000a0: 7e17 303f 777f fe3e 0bc8 a9bf f5d4 9e3e
000000b0: 7367 d1be 3198 e5c0 7243 773f d88f 323f
000000c0: 2010 893f b891 ee3f 0d98 9340 bffb f1bd
000000d0: c19b 843f 0d27 ffbe 50fd cdbf 5f1b 553e
000000e0: f130 aa3e 67b3 4b3f 1a52 c140 35fa 62bf
000000f0: ff67 8ebf e4da 2a3f ee79 cd3f 3795 38bf
00000100: 867d 4640 14d5 6cbf 6526 e5bf 2cfe bfbe
00000110: 0ed4 373f ad74 9dbf 20dd 6e3f 272a ddbf
00000120: e858 eebe 87cd 7e3d b03e 593f e43a 0941
00000130: 0267 833f fc89 62c0 9732 f3c0 5c0e ee3e
00000140: 28df 1fbf 80bd 09be 1068 073f 71bc a2be
00000150: 135d 81bf 6e8f 89bf e789 1d3e c204 04be
00000160: d245 7abd 81f0 79be c473 b73d 14da 883e
00000170: 705f 2d3d aa3b 5ebf c5b5 513d fe4f a63e
00000180: 6bd5 c3bc 7565 963e 9784 bbbd 05ce d6bc
00000190: 6531 9fbd 53af 363f d7d6 bfbd 898f 403e
000001a0: 790c e53d 2e9a df3e 4695 8f3e 7df9 3ebf
000001b0: 67db d9be 1f53 1d3e 4d03 89be e733 003e
000001c0: a141 b93e 7e20 c9be 0732 f3be 980f e9be
000001d0: 820b 773f 46bd 6fbe 7518 1ebf 3e0a c23d
000001e0: ce73 1abc 83a1 9dc0 2150 27c0 eab4 833f
000001f0: 501c 5c3f 36e3 8540 86c6 e640 2458 e740
00000200: 8142 db40 9ae7 c9c0 6bdb dac0 012e 16bf
00000210: 4599 de40 769e bc3f 1a21 8240 f223 0fc0
00000220: 2da3 e540 256b b1c0 f382 93c0 093f 97c0
00000230: f828 97c0 2142 00c0 f4c2 07bf 5b63 1c40
00000240: 39c0 0dc0 6a81 d640 f749 8b40 00cb 0340
00000250: a727 94bf 38b0 6f40 c08a 7bc0 1141 003f
00000260: c40b 0540 2008 5940 b59d 2b40 e786 81c0
00000270: 1ccb eabf b420 5b40 e9f8 cf40 bc15 ec40
00000280: 2c9b 563d cd2e 2bbf e114 293f db44 fabe
00000290: 74cf 26bf 5b34 b9bf d143 973e e463 0c3f
000002a0: a41e ca3d 14a6 7abe da76 42bb 2834 153f
000002b0: 9771 9b3e c425 64bf 7a37 0c3f 1e1a 2b3f
000002c0: ad6d 253f dd1b be3e 2ae8 cd3e 3fb5 12be
000002d0: 9f24 f1bd 307c 123f 9dc8 c83c fad2 cd3e
000002e0: 2cff 353f 8902 40bf 3f0f 0f3f a083 debe
000002f0: ab6f 0ebf 7794 8e3e cd23 5ebe 0542 723d
00000300: 4922 cd3e 6d1f ecbe 6c0d eebd 3c61 b4be
00000310: b1cf 4b3f 1a76 60bf cbcb 83bf 1974 283a
00000320: 7681 c83f af0f 793d 79ee 11be 25fa e43f
00000330: ce31 6240 8f5e f13f 6731 8c3f 0aa9 503f
00000340: 7203 5f3f 522a 653f 4c59 e73f f3b5 c4bf
00000350: 2a5b 8c3f 75f0 5740 01cc 5fbe cd6f cabf
00000360: f7b5 393f 37cf 75be cecc 1b40 860f 65bf
00000370: d096 70bf 01cb 6cbf 94ab 5c3f 06d1 74bf
00000380: 22fd 8440 3d00 2a40 c192 c2bf 9184 d83f
00000390: 8ab8 0e40 fcd0 5bbf 86ac f53f 0c76 9bbf
000003a0: 66b4 efbf 333b e43f 8e96 da3f 7050 0f40
000003b0: 2941 a3bf 1add 073e 89aa 903e 5562 aa3f
000003c0: 382a 353f be83 4140 d259 453e 3b10 9e3f
000003d0: 7b6b 9e3f 8b51 8fc0 528b 0e3f e861 1fc0
000003e0: 1391 02c0 acbe 4c40 2bc0 db40 ef0d afbf
000003f0: 0003 dabe af2f e73f 2ed2 1fc0 43c6 43bf

bias f4 [40]
-0.22210333 -0.779153 -0.6300182 1.5177745 -0.7709932 0.76297593 0.17869261 -0.69452953
2.1195762 1.7903798 0.99994516 1.4832166 0.93451285 0.5399568 -1.0132868 1.773932
-1.3894436 -1.0781493 0.33842638 0.92785555 1.2311162 0.17857869 -0.08542151 -0.64693016
0.40958887 -0.37056977 0.7035054 0.97560656 1.0917797 0.7126803 -1.0495002 -0.7435601
-0.20214497 0.45857006 -0.6343396 1.1445066 1.6721345 0.35782287 -1.2229785 0.4440071
00000000: 0e6f 63be 9276 47bf df48 21bf 6f46 c23f
00000010: cf5f 45bf 6452 433f 32fb 363e b0cc 31bf
00000020: 23a7 0740 2a2b e53f 68fc 7f3f 0bda bd3f
00000030: 3c3c 6f3f 9c3a 0a3f 62b3 81bf 3410 e33f
00000040: 4ad9 b1bf cc00 8abf 3946 ad3e f187 6d3f
00000050: 3795 9d3f 55dd 363e 79f1 aebd 379d 25bf
00000060: a2b5 d13e 52bb bdbe ee18 343f 5ac1 793f
00000070: 70bf 8b3f 3772 363f 0656 86bf f459 3ebf
00000080: 17ff 4ebe b2c9 ea3e 1464 22bf 317f 923f
00000090: 8108 d63f 8f34 b73e 8f8a 9cbf e654 e33e

weight f4 [4, 40]
-1.0351331 -1.1860725 0.2742285 4.402442 -0.48892522 -0.22203575 -3.990285 0.17612216
-1.3666885 -1.6302543 -1.168864 4.672538 5.298575 2.1511495 0.6016915 -1.5186492
-0.10185051 0.06336355 -1.4140116 -0.9357799 -1.5240924 -1.003388 0.25100094 0.046495628
-0.32052866 0.12731248 -2.013182 -1.0416148 4.7949843 0.34468278 0.23770809 -0.022707572
-0.7624021 -9.550506 -0.16543594 -0.3396967 3.3648078 -2.4287786 0.12097886 -1.1315607
-0.109523565 -1.3953428 -0.35722023 1.3318756 -0.85105866 0.2636409 -0.60655516 -0.09262404
0.61219305 0.60221547 0.27952465 3.720777 3.608013 1.8996524 -0.83999896 0.836628
-1.4720302 -1.0703322 0.10605055 0.3595534 0.6599198 0.4860116 -0.37701064 -0.8070467
-0.3963566 -0.8322828 1.2035991 0.3729991 3.0932713 0.85191834 -1.3101639 -0.7112477
-0.9324004 -4.5295563 -0.4446449 1.3030272 2.359105 0.4701405 -0.9587995 0.29367727
2.0346184 -0.41271767 -0.006691865 1.2268927 0.18377355 0.14625406 0.35998636 -0.34162924
1.712652 0.35085157 -0.20032166 1.955193 2.1154742 0.8275196 -0.22994071 0.7479345
-0.4425455 -0.47461635 0.2338435 -0.25184676 0.04145053 1.3293427 0.4007262 -0.112220824
0.46880862 0.8024705 0.6365987 -0.24837643 1.6541574 1.2233834 -0.48824713 0.0715477
0.022428976 6.113634 0.07658885 0.41819778 1.7702205 0.99113053 -0.52652216 1.1817551
-1.5609872 0.62569064 1.3504142 -1.6058854 0.9370071 -2.2584772 -3.6710136 1.681801
-2.6907165 -3.067554 -2.082471 -5.187325 -3.5478702 0.041416172 1.4142115 -4.0793314
1.17225 1.2878377 -1.4632527 -2.3725007 -2.368807 -0.44365028 -0.95204425 1.5045655
-1.5642034 -1.0841216 -1.4947871 -2.163343 -3.7109244 -1.9713231 0.76526 1.4377992
-0.42000362 -20.85696 -0.47485366 -2.1105175 -2.4276679 -2.2681837 0.59801716 -1.0581157
00000000: 3e7f 84bf 39d1 97bf ae67 8c3e cee0 8c40
00000010: 6854 fabe 575d 63be d460 7fc0 5e59 343e
00000020: a6ef aebf 2cac d0bf 569d 95bf 6e85 9540
00000030: ed8d a940 6fac 0940 7408 1a3f 1963 c2bf
00000040: 0097 d0bd c0c4 813d 55fe b4bf 468f 6fbf
00000050: 7615 c3bf 056f 80bf 3283 803e 3372 3e3d
00000060: 551c a4be 345e 023e f9d7 00c0 a253 85bf
00000070: 8370 9940 437a b03e c069 733e 3b05 babc
00000080: c92c 43bf dfce 18c1 0a68 29be baec adbe
00000090: 0359 5740 1c71 1bc0 c4c3 f73d fbd6 90bf
000000a0: e44d e0bd 989a b2bf 92e5 b6be e67a aa3f
000000b0: fbde 59bf f1fb 863e 3347 1bbf acb1 bdbd
000000c0: afb8 1c3f cb2a 1a3f db1d 8f3e 3621 6e40
000000d0: afe9 6640 cf27 f33f 2c0a 57bf 412d 563f
000000e0: 7c6b bcbf a500 89bf 0831 d93d 6217 b83e
000000f0: 81f0 283f 83d6 f83e 8a07 c1be 9d9a 4ebf
00000100: 41ef cabe 7c10 55bf 890f 9a3f bdf9 be3e
00000110: 28f8 4540 5217 5a3f 73b3 a7bf 5414 36bf
00000120: cbb1 6ebf 20f2 90c0 7fa8 e3be 98c9 a63f
00000130: 94fb 1640 41b6 f03e e273 75bf de5c 963e
00000140: 3037 0240 bb4f d3be 6f47 dbbb d20a 9d3f
00000150: 222f 3c3e a0c3 153e 2250 b83e 07ea aebe
00000160: 2e38 db3f d1a2 b33e 1f21 4dbe c443 fa3f
00000170: ee63 0740 53d8 533f 9475 6bbe a378 3f3f
00000180: 5395 e2be ea00 f3be ac74 6f3e 0ff2 80be
00000190: 08c8 293d e727 aa3f fc2b cd3e 08d4 e5bd
000001a0: af07 f03e b56e 4d3f 22f8 223f 6456 7ebe
000001b0: 6ebb d33f d497 9c3f 87fb f9be 9a87 923d
000001c0: f9bc b73c e4a2 c340 9dda 9c3d 051e d63e
000001d0: 9696 e23f bbba 7d3f 28ca 06bf c043 973f
000001e0: 6ece c7bf 432d 203f 5fda ac3f a78d cdbf
000001f0: b3df 6f3f e48a 10c0 e3f1 6ac0 4145 d73f
00000200: b334 2cc0 ce52 44c0 3447 05c0 91fe a5c0
00000210: 4e10 63c0 01a4 293d e204 b53f e289 82c0
00000220: 4a0c 963f ded7 a43f dd4b bbbf 0dd7 17c0
00000230: 899a 17c0 2126 e3be 2cb9 73bf 9a95 c03f
00000240: d137 c8bf 7fc4 8abf 2f55 bfbf 3674 0ac0
00000250: c97f 6dc0 5154 fcbf 14e8 433f ce09 b83f
00000260: b70a d7be 0edb a6c1 0520 f3be b812 07c0
00000270: e95e 1bc0 ec29 11c0 a717 193f 5670 87bf

bias f4 [4]
-0.48211423 1.2319219 0.7365853 -0.82880855
00000000: add7 f6be 9eaf 9d3f db90 3c3f cc2c 54bf

weight f4 [40, 2]
0.12961578 -0.8002321 0.37190318 0.87410665 0.2600646 -0.09740008 0.24135737 -0.7272838
0.7415644 0.22824338 -0.28396702 -0.24392593 0.57930297 -0.14349186 -1.6777008 0.54168475
0.7013313 0.3990993 -0.24780585 -0.3335118 1.2572998 -0.96025425 -0.28383872 0.093233995
1.5010355 0.6383768 -0.63068205 0.9605768 -0.34441155 0.014489889 0.5506438 0.5228307
-0.64650667 -0.75925946 -0.23770332 0.04105775 -0.13947317 0.09688189 0.80654114 0.37916583
0.5597751 0.298679 -0.379756 -0.5859217 0.9748037 -0.7760601 -0.54549795 -0.5239604
-0.53600997 -0.026261194 0.4234991 -0.49262866 -0.25109026 -0.6784836 0.46831253 0.58422476
-0.11653184 0.22574812 0.2135135 -0.16960669 0.90660363 -2.0906422 0.6014227 -0.49670684
-0.098484576 0.19262157 0.067747615 0.26324913 1.2238263 -1.2570467 -0.49259475 0.10934607
-0.013801127 -0.15974501 0.06750146 0.602772 1.7801454 -0.8394317 0.45664203 -0.017031593
00000000: 00ba 043e 03dc 4cbf 186a be3e 74c5 5f3f
00000010: 3027 853e b179 c7bd 6326 773e 452f 3abf
00000020: 2ad7 3d3f a2b8 693e 2064 91be b8c7 79be
00000030: 334d 143f 88ef 12be e6be d6bf daab 0a3f
00000040: 738a 333f be56 cc3e d1c0 7dbe 0fc2 aabe
00000050: 33ef a03f 39d3 75bf 4f53 91be 77f1 be3d
00000060: ee21 c03f a96c 233f 6174 21bf 5ce8 753f
00000070: b656 b0be 0067 6d3c fef6 0c3f 3cd8 053f
00000080: 7681 25bf d45e 42bf 8068 73be 2c2c 283d
00000090: 0ed2 0ebe 036a c63d 7b79 4e3f 0622 c23e
000000a0: 6c4d 0f3f 74ec 983e 616f c2be f7fe 15bf
000000b0: bc8c 793f e0ab 46bf c1a5 0bbf 4522 06bf
000000c0: f337 09bf b721 d7bc e0d4 d83e d339 fcbe
000000d0: e78e 80be 1ab1 2dbf a9c6 ef3e c18f 153f
000000e0: 3fa8 eebd 842a 673e 48a3 5a3e 60ad 2dbe
000000f0: 2d17 683f 15cd 05c0 d7f6 193f 5c50 febe
00000100: 48b2 c9bd 973e 453e 43bf 8a3d 97c8 863e
00000110: 57a6 9c3f e8e6 a0bf 6135 fcbe d5f0 df3d
00000120: 1f1e 62bc 3294 23be 353e 8a3d 444f 1a3f
00000130: cedb e33f ffe4 56bf fccc e93e d785 8bbc

bias f4 [40]
1.8062447 -0.3597512 0.54910517 2.8887432 -0.6675415 -0.46915743 -0.6472103 0.6576125
0.40091604 -0.2806336 -0.27943343 -0.36545017 -0.6866114 2.083186 -0.37485585 -0.49587768
-0.5475401 1.3996601 -0.1051876 2.9060922 3.1418123 -0.59893733 1.3721759 -0.5434719
2.5743008 -0.4034194 -0.6094693 0.45531636 -0.23292045 -0.67566806 0.91463953 -0.52007926
-0.25061035 2.0821953 -0.114878945 -0.28826374 -0.37278226 0.3099652 1.1119637 2.2168548
00000000: 0733 e73f 4f31 b8be 2892 0c3f 2be1 3840
00000010: 00e4 2abf 6735 f0be 93af 25bf 4b59 283f
00000020: de44 cd3e 35af 8fbe e611 8fbe 491c bbbe
00000030: c4c5 2fbf eb52 0540 1bed bfbe aee3 fdbe
00000040: 972b 0cbf 1028 b33f 996c d7bd 6afd 3940
00000050: 7413 4940 f553 19bf 76a3 af3f f920 0bbf
00000060: 58c1 2440 fd8c cebe 2e06 1cbf 3a1f e93e
00000070: b382 6ebe 95f8 2cbf d125 6a3f ea23 05bf
00000080: 0050 80be b042 0540 a745 ebbd 4e97 93be
00000090: 51dd bebe c2b3 9e3e d454 8e3f f3e0 0d40

weight f4 [40, 40]
0.67181265 0.52849555 0.66084427 0.8184932 0.12900095 -0.05629114 -0.13024384 0.55844116
0.34706008 0.36543044 0.9362272 0.3035064 0.09210258 0.56278056 0.010476172 0.3453341
0.047159534 0.66363114 0.38601458 0.5499656 0.8627463 0.0023194128 0.32128316 -0.06251767
0.5173527 0.1706726 -0.044505775 0.2380744 0.5643257 -0.06324749 -0.71156543 -0.07810739
0.12491488 0.7806289 0.3025494 0.48890212 0.22243623 0.417462 0.23908228 0.65932864
-0.26966268 -0.02022248 -0.20985958 -0.24475029 -0.23661451 0.017181974 0.014445141 -1.4284384
-0.11168176 0.13529539 -0.4191123 -0.03277434 -0.8569862 -0.6827993 -0.09821061 0.005301648
0.85487735 -1.0883951 -0.38976467 -0.618342 -0.58148265 0.49119538 -0.20709562 -0.03267722
-0.87621224 0.70953554 0.12057181 -0.2424654 -0.20885417 0.09805457 -1.0490562 -0.06414382
0.09948805 -0.26971412 0.2451343 -0.051246446 0.3406191 -0.19041422 -0.8006198 -0.50611794
-0.0849974 -0.31045735 0.11014692 0.045603026 0.07763649 0.23100802 0.0406415 -0.23933338
0.16579485 0.12563093 0.266875 0.26681295 0.09917225 -0.29677123 -0.09498744 -0.007346691
-0.7328215 0.119205125 -0.07562615 0.12787607 -0.021666965 0.15595475 -0.08874223 0.12663068
0.19449408 0.043356635 -0.014289677 -0.27242574 -0.031466074 0.05472146 1.1513063 0.093026236
-0.109595336 -0.02720041 0.040316276 0.2592511 0.027000727 -0.18833034 0.9489594 0.021488862
0.39701587 0.4216529 0.319767 0.33021164 0.07914742 0.14896321 -0.14749691 1.4597834
0.083858654 0.08743043 0.37979662 0.165249 0.7959197 0.5927577 0.15195198 0.0027516284
-0.110882364 0.823937 0.31062734 0.5667554 0.27515864 0.0112954 0.14491364 -0.11482624
0.9517566 0.12198977 0.145613 0.30384427 0.31690487 -0.10898489 0.6255509 0.00029416382
0.054600187 0.48697898 0.08496294 0.33325747 0.109452054 0.46294057 0.5545307 0.54304117
0.12304603 -0.38264394 -0.19975299 0.017673515 -0.82654023 -0.22281212 -0.1406114 -0.12115365
-0.47429645 -0.17826499 -0.9838938 -0.037610352 -0.73995 -0.095720656 -0.07241272 -0.48869938
0.049549464 0.19279018 -0.3091098 0.012008498 -0.09872417 -0.3075914 0.0002738547 -0.067855455
0.16390148 -0.33873984 -0.08207253 -0.13326706 -0.33839273 0.09443875 -0.15556583 0.047400042
0.1491455 0.13167481 -0.21065795 -0.18817946 -0.14575425 -0.3001562 0.07544399 0.15997885
0.6896736 -0.40443996 -0.130352 0.45071226 -0.58311296 0.1999346 0.118547514 2.9681025
-0.12357524 0.11911912 -0.22570807 0.15703887 0.32605368 0.73767966 0.11459212 -0.2061279
-1.1145036 1.6866697 -0.028508117 0.32965928 0.47544536 0.14655808 0.4946824 0.0814845
1.706512 -0.5130576 0.015702501 -0.24627759 0.01836938 0.07510801 0.8328649 -0.06879787
-0.19545086 0.34638596 -0.29738006 0.118073195 0.012838699 0.06879112 0.19676124 0.29997098
-0.40643668 -0.49183044 -0.5239204 -0.47733328 -0.5070122 -0.27201748 0.108229116 -0.5333539
-0.41047782 -0.11006264 -0.40054795 -0.39022756 -0.5006388 -0.5991864 -0.036256142 -0.402288
00000000: eafb 2b3f 7c4b 073f 172d 293f c588 513f
00000010: d318 043e 8a91 66bd a45e 05be 00f6 0e3f
00000020: dcb1 b13e b319 bb3e 96ac 6f3f 3165 9b3e
00000030: 47a0 bc3d 6312 103f 40a4 2b3c a2cf b03e
00000040: 5b2a 413d bbe3 293f b4a3 c53e 8cca 0c3f
00000050: f1dc 5c3f 4a01 183b 3a7f a43e 4409 80bd
00000060: 3a71 043f ccc4 2e3e b04b 36bd c7c9 733e
00000070: a677 103f e687 81bd 2729 36bf c4f6 9fbd
00000080: 5fd3 ff3d 4cd7 473f c1e7 9a3e 6151 fa3e
00000090: 53c6 633e 94bd d53e fcd1 743e c3c9 283f
000000a0: 3a11 8abe 9da9 a5bc 6ee5 56be d29f 7abe
000000b0: 134b 72be 36c1 8c3c 50ab 6c3c 12d7 b6bf
000000c0: 68b9 e4bd e08a 0a3e e395 d6be 633e 06bd
000000d0: 7363 5bbf efcb 2ebf a522 c9bd 72b9 ad3b
000000e0: 3ed9 5a3f 8850 8bbf 3c8f c7be a94b 1ebf
000000f0: 0cdc 14bf f67d fb3e e010 54be 8cd8 05bd
00000100: 724f 60bf 1fa4 353f 5aee f63d da48 78be
00000110: dedd 55be d6d0 c83d 7947 86bf d65d 83bd
00000120: 64c0 cb3d f817 8abe 7c04 7b3e cbe7 51bd
00000130: a065 ae3e f2fb 42be 6bf5 4cbf f290 01bf
00000140: 1e13 aebd 44f4 9ebe b594 e13d 3dca 3a3d
00000150: e1ff 9e3d 5e8d 6c3e b477 263d cf13 75be
00000160: 20c6 293e 65a5 003e d7a3 883e b59b 883e
00000170: d21a cb3d 66f2 97be c688 c2bd 83bc f0bb
00000180: 319a 3bbf d121 f43d e2e1 9abd f2f1 023e
00000190: eb7e b1bc 9ab2 1f3e 7cbe b5bd 79ab 013e
000001a0: 7529 473e ba96 313d 401f 6abc 637b 8bbe
000001b0: 92e2 00bd 9c23 603d 015e 933f 8a84 be3d
000001c0: 8573 e0bd 65d3 debc ae22 253d 8fbc 843e
000001d0: a130 dd3c abd9 40be 01ef 723f 6909 b03c
000001e0: aa45 cb3e e4e2 d73e 80b8 a33e 8011 a93e
000001f0: 0b18 a23d d089 183e 6e09 17be 2fda ba3f
00000200: 16be ab3d ba0e b33d b474 c23e 0937 293e
00000210: 65c1 4b3f f8be 173f 4d99 1b3e aa54 343b
00000220: 4b16 e3bd 89ed 523f 8c0a 9f3e e216 113f
00000230: 98e1 8c3e 5710 393c 3e64 143e 052a ebbd
00000240: 52a6 733f c6d5 f93d 931b 153e 7a91 9b3e
00000250: 5b41 a23e 7833 dfbd 1b24 203f 003a 9a39
00000260: 72a4 5f3d 4f55 f93e 0d01 ae3d b9a0 aa3e
00000270: 6628 e03d 8c06 ed3e b9f5 0d3f bf04 0b3f
00000280: 8fff fb3d e8e9 c3be 0c8c 4cbe 0cc8 903c
00000290: 2498 53bf dc28 64be 6ffc 0fbe 681f f8bd
000002a0: fcd6 f2be 198b 36be 77e0 7bbf 500d 1abd
000002b0: 5d6d 3dbf 3109 c4bd 1f4d 94bd ce36 fabe
000002c0: 61f4 4a3d ca6a 453e a443 9ebe 4bbf 443c
000002d0: e62f cabd 9f7c 9dbe 2894 8f39 cdf7 8abd
000002e0: cad5 273e 4f6f adbe a515 a8bd 2977 08be
000002f0: d041 adbe 1a69 c13d a64c 1fbe 8c26 423d
00000300: 99b9 183e c3d5 063e b8b6 57be 1eb2 40be
00000310: 9a40 15be 13ae 99be 6182 9a3d 7fd1 233e
00000320: 738e 303f c112 cfbe ff7a 05be c2c3 e63e
00000330: e446 15bf a8bb 4c3e 0ac9 f23d 64f5 3d40
00000340: 0415 fdbd baf4 f33d 0420 67be ccce 203e
00000350: 82f0 a63e 93d8 3c3f 46af ea3d 3113 53be
00000360: 0ea8 8ebf cbe4 d73f db89 e9bc 1ac9 a83e
00000370: 936d f33e 5213 163e 0347 fd3e 58e1 a63d
00000380: fc6e da3f be57 03bf 88a2 803c 3130 7cbe
00000390: 627b 963c 3ad2 993d a236 553f e6e5 8cbd
000003a0: 4524 48be 8059 b13e 3342 98be 5cd0 f13d
000003b0: 6859 523c 5ce2 8c3d c77b 493e cc95 993e
000003c0: 7818 d0be 33d1 fbbe a61f 06bf 0765 f4be
000003d0: 8dcb 01bf e045 8bbe 3aa7 dd3d e289 08bf
000003e0: 262a d2be 8568 e1bd 9f14 cdbe e8cb c7be
000003f0: dd29 00bf 4864 19bf 5281 14bd b1f8 cdbe

bias f4 [40]
0.6683543 -0.36881894 -0.2491528 0.41423127 0.09997521 0.30262235 -0.69228655 -0.3918697
-0.19327734 -0.44193175 0.18995361 -0.38069266 0.56570446 -0.20638996 -0.32853967 -0.44826502
-0.5788987 -0.34698135 -0.38308188 0.29307067 -0.19234924 0.84738714 0.5587407 0.33255082
-0.61620235 0.15403715 0.36640406 -0.13561243 -0.73855746 -0.565471 -0.7619991 -0.8212548
-0.5029698 0.37344345 0.054248013 0.6358802 0.71392035 -0.3020075 -0.10525075 -0.43878073
00000000: 4419 2b3f d6d5 bcbe e921 7fbe 1f16 d43e
00000010: cebf cc3d 51f1 9a3e b139 31bf 25a3 c8be
00000020: 7fea 45be e144 e2be 3383 423e 26ea c2be
00000030: 02d2 103f e457 53be 5a36 a8be fe82 e5be
00000040: b532 14bf 8aa7 b1be 4f23 c4be 5c0d 963e
00000050: 33f7 44be 5dee 583f a109 0f3f 1a44 aa3e
00000060: 70bf 1dbf eabb 1d3e 5099 bb3e fcdd 0abe
00000070: 1a12 3dbf b5c2 10bf 5f12 43bf c13d 52bf
00000080: a1c2 00bf fb33 bf3e 2a33 5e3d 0bc9 223f
00000090: 7cc3 363f baa0 9abe b58d d7bd dea7 e0be

weight f4 [40, 40]
-0.5896357 -0.20175017 -0.34743583 -0.34454298 0.5654855 -0.17997214 0.47648063 0.29313672
-0.28073797 0.5350048 0.025202796 0.246895 -0.34955677 -0.56831807 -0.20415032 0.54321396
-0.5224333 0.42412183 0.33465856 -0.6047096 0.54056656 -0.85375404 -0.03888646 -0.5935282
0.41001415 -0.49460995 -0.57242906 0.022478703 -0.42068312 0.5154147 0.2855523 0.4980846
0.37777138 0.09925691 -0.017965589 -0.41029897 0.32432544 0.1403807 0.60830325 0.40558192
-0.5630429 0.2006978 -0.3009083 -0.5141599 0.5406472 -0.447415 0.31654668 0.4836158
-0.5246716 0.31029782 -0.36279082 -0.13006368 -0.5408885 -0.5374938 -0.4588215 0.5139409
-0.3710767 0.5763512 0.5129007 -0.37153172 -0.42443842 -0.48006576 -0.49957845 -0.4174428
0.24514136 -0.4067534 -0.28733408 0.37796563 -0.25876236 0.3648237 0.58813745 0.58280146
0.5538921 -0.010072224 -0.30825093 -0.49420142 0.29607502 0.36824653 0.6774072 0.5444596
0.5664994 0.23451857 0.21972641 0.51518524 -0.5188942 0.36368266 -0.80090415 -0.47429433
0.4033382 -0.679314 0.37392738 -0.11330469 0.63377005 0.55845636 0.108706035 -0.6306926
0.23876801 -0.52156764 -0.6710699 0.7364869 0.29514325 0.785374 0.50572824 0.6270122
-0.75497323 0.50836366 0.6249269 -0.21620178 -0.14283234 -0.7372759 -0.5249671 -0.8387808
-0.606513 -0.2893483 0.23001713 0.63122976 -0.14644474 -0.3770711 -0.66307807 -0.547309
-0.62474006 0.16484326 -0.23817274 -0.5215942 0.2966932 -0.28383988 0.2557317 0.5509376
-0.18217881 0.2868524 -0.31124133 -0.22186182 -0.65422916 -0.24711317 -0.3703588 0.5829891
-0.48704782 0.22220427 0.64268696 -0.46936718 -0.19193666 -0.40929845 -0.3320405 -0.56394535
0.014939071 -0.27206007 -0.3999566 0.2791015 -0.20055975 0.5733392 0.23305054 0.26918167
0.4074086 -0.0608905 -0.37962097 -0.5578589 0.31833908 0.061144475 0.31007147 0.59871024
-0.31362224 0.44648784 -0.69387096 -0.39144108 0.28694123 -0.26827857 0.32154638 0.48871118
-0.67049074 0.54190516 -0.6885905 0.13740529 -0.3657274 -0.5948478 -0.12900385 0.33382684
-0.4587031 0.48167306 0.38873133 -0.10807793 -0.5515412 -0.20157833 -0.20345818 -0.31983635
0.7816041 -0.5974127 -0.63812196 0.23310672 0.06319322 0.33043966 0.46407458 0.19860071
0.5394525 0.12921473 -0.045638192 -0.52369994 0.34063423 0.27971476 0.39878407 0.55582994
0.48691595 -0.3775415 0.31589884 0.2991263 -0.5680404 0.42530078 -0.4112448 -0.4186585
0.6040291 -0.60223573 0.33345228 -0.37522486 0.45527637 0.38307545 0.18185213 -0.30569726
0.48480222 -0.6673247 -0.35208213 0.35380328 -0.039277323 0.45410627 0.60489655 0.43348128
-0.16046597 0.7600873 0.3716594 -0.4692221 -0.23677868 -0.52459455 -0.67385375 -0.6380353
-0.4245776 0.0057272427 -0.18003918 0.40299594 -0.07456526 -0.5619907 -0.6280153 -0.5019385
-0.2151512 0.58907413 -0.60598797 -0.24762471 0.3192528 -0.53656244 0.13397636 0.42054453
-0.7578701 0.3700039 -0.6399584 -0.37347886 -0.12294186 -0.59895927 0.08907191 0.16349126
00000000: 5ef2 16bf 9997 4ebe 1ce3 b1be f067 b0be
00000010: a8c3 103f 9e4a 38be 45f5 f33e 0416 963e
00000020: e3bc 8fbe 13f6 083f 1876 ce3c 0bd2 7c3e
00000030: 1bf9 b2be 4b7d 11bf c80c 51be 1210 0b3f
00000040: 30be 05bf 7f26 d93e 5e58 ab3e 40ce 1abf
00000050: 9262 0a3f a08f 5abf 6947 1fbd 77f1 17bf
00000060: 60ed d13e 843d fdbe b68a 12bf 4225 b83c
00000070: c763 d7be 38f2 033f e933 923e f204 ff3e
00000080: 406b c13e 3547 cb3d 922c 93bc b512 d2be
00000090: fc0d a63e f5bf 0f3e c3b9 1b3f 6fa8 cf3e
000000a0: 9423 10bf b983 4d3e a710 9abe fc9f 03bf
000000b0: db67 0a3f 9413 e5be 6812 a23e 7d9c f73e
000000c0: e150 06bf 5bdf 9e3e b8bf b9be 6a2f 05be
000000d0: ab77 0abf 3299 09bf a7ea eabe a191 033f
000000e0: c4fd bdbe c18b 133f 764d 033f 6839 bebe
000000f0: fe4f d9be 2ecb f5be bfc8 ffbe 10bb d5be
00000100: 5606 7b3e fb41 d0be 741d 93be b684 c13e
00000110: 807c 84be 2cca ba3e 2d90 163f 7a32 153f
00000120: dfcb 0d3f f805 25bc 11d3 9dbe f807 fdbe
00000130: 2597 973e cf8a bc3e 8f6a 2d3f b461 0b3f
00000140: 1b06 113f a325 703e f6ff 603e 2ee3 033f
00000150: 40d6 04bf 9d34 ba3e 0e08 4dbf b5d6 f2be
00000160: 5882 ce3e 86e7 2dbf 6973 bf3e 4a0c e8bd
00000170: c13e 223f fff6 0e3f 45a1 de3d 1275 21bf
00000180: 9a7f 743e 7585 05bf 3dcb 2bbf 688a 3c3f
00000190: 041d 973e 450e 493f 6877 013f df83 203f
000001a0: ed45 41bf 1f24 023f 36fb 1f3f 0064 5dbe
000001b0: a442 12be 1dbe 3cbf 3e64 06bf 57ba 56bf
000001c0: 7044 1bbf 7625 94be 9c89 6b3e 4698 213f
000001d0: 9cf5 15be 770f c1be 7cbf 29bf 711c 0cbf
000001e0: f7ee 1fbf accc 283e 8ee3 73be 3387 05bf
000001f0: 2ce8 973e 7653 91be 44ef 823e 3f0a 0d3f
00000200: 158d 3abe 51de 923e 065b 9fbe bf2f 63be
00000210: 907b 27bf 3c0b 7dbe ab9f bdbe c63e 153f
00000220: 555e f9be 8489 633e 2287 243f e550 f0be
00000230: 0b8b 44be 918f d1be 3601 aabe b95e 10bf
00000240: 01c3 743c 754b 8bbe 1dc7 ccbe 64e6 8e3e
00000250: 895f 4dbe 5cc6 123f cda4 6e3e 2ed2 893e
00000260: dc97 d03e 5168 79bd ae5d c2be d7cf 0ebf
00000270: 57fd a23e a172 7a3d b0c1 9e3e 1345 193f
00000280: 1893 a0be 0e9a e43e 87a1 31bf f76a c8be
00000290: f6e9 923e cf5b 89be baa1 a43e 5a38 fa3e
000002a0: 48a5 2bbf 4cba 0a3f 7847 30bf f9b3 0c3e
000002b0: 9f40 bbbe f247 18bf 9619 04be 5aeb aa3e
000002c0: 22db eabe da9d f63e cb07 c73e f657 ddbd
000002d0: ce31 0dbf 8d6a 4ebe 5757 50be 97c1 a3be
000002e0: 3517 483f 0af0 18bf f65b 23bf 87b3 6e3e
000002f0: 726b 813d 632f a93e 2f9b ed3e fc5d 4b3e
00000300: 8f19 0a3f de50 043e 1def 3abd 3311 06bf
00000310: 9c67 ae3e c636 8f3e 6d2d cc3e df4a 0e3f
00000320: 0c4d f93e 1f4d c1be 7ebd a13e 1527 993e
00000330: 186b 11bf 06c1 d93e ae8e d2be 685a d6be
00000340: a7a1 1a3f 1f2c 1abf 42ba aa3e 791d c0be
00000350: fc19 e93e 7722 c43e 7237 3a3e 5a84 9cbe
00000360: ff37 f83e cbd5 2abf 1c44 b4be b425 b53e
00000370: 42e1 20bd 9e80 e83e 80da 1a3f 42f1 dd3e
00000380: 3151 24be 1595 423f 244a be3e e13d f0be
00000390: 1c76 72be d44b 06bf ae81 2cbf 4856 23bf
000003a0: 3c62 d9be 98ab bb3b 315c 38be 7c55 ce3e
000003b0: acb5 98bd 9fde 0fbf 9cc5 20bf 0b7f 00bf
000003c0: 9950 5cbe 90cd 163f 0722 1bbf 5591 7dbe
000003d0: 1a75 a33e 285c 09bf 1931 093e 9d51 d73e
000003e0: c603 42bf 2771 bd3e 50d4 23bf 9f38 bfbe
000003f0: f1c8 fbbd 6555 19bf 556b b63d 416a 273e

bias f4 [40]
-0.37760323 -0.4282501 0.59776783 -0.37485602 -0.35724178 0.42208415 -0.103160605 -0.7548245
-0.5324505 0.03727948 0.33678564 -0.53588355 -0.40756965 -0.6586477 0.55523247 -0.8503618
-0.17393523 -0.5251043 0.5174792 -0.4446411 -0.50842196 -0.3457574 0.55521184 0.34869075
-0.4788329 -0.4440485 0.5432751 0.6797743 -0.45924988 0.4353968 -0.26302084 -0.76859593
-0.4488127 0.36617416 0.3108849 -0.38437068 -0.44256604 0.19741309 -0.41344678 -0.47232473
00000000: 3655 c1be 9943 dbbe 5007 193f 21ed bfbe
00000010: 65e8 b6be 6a1b d83e de45 d3bd 2e3c 41bf
00000020: ad4e 08bf 5eb2 183d 2b6f ac3e aa2f 09bf
00000030: f8ac d0be 239d 28bf b723 0e3f 50b1 59bf
00000040: 141c 32be 3c6d 06bf 8479 043f 00a8 e3be
00000050: f127 02bf 1d07 b1be 5d22 0e3f 9887 b23e
00000060: 9629 f5be 535a e3be 1414 0b3f b005 2e3f
00000070: cd22 ebbe 54ec de3e abaa 86be b4c2 44bf
00000080: c7ca e5be 2e7b bb3e 4e2c 9f3e 3ccc c4be
00000090: 0498 e2be a826 4a3e 4caf d3be 8cd4 f1be

weight f4 [1, 40]
-0.82815295 -0.5527767 0.76770484 -0.7221999 -0.5328785 0.6284074 -0.65531695 -0.66867083
-0.6874462 -0.45520422 0.5733752 -0.4458296 -0.6108033 -0.3130884 0.71526843 -0.94566876
-0.39752093 -0.53586143 0.6066683 -0.6507909 -0.7644543 -0.6325701 0.53358567 0.6078807
-0.5479259 -0.8083131 0.729693 0.6673293 -0.6656565 0.61852586 -0.59876686 -0.6584245
-0.524138 0.65098727 0.35746303 -0.57455003 -0.5204804 0.5031012 -0.54617715 -0.58867955
00000000: d501 54bf c682 0dbf 4e88 443f 18e2 38bf
00000010: ba6a 08bf 4fdf 203f dac2 27bf 032e 2bbf
00000020: 79fc 2fbf 8710 e9be b8c8 123f c743 e4be
00000030: 9b5d 1cbf 1f4d a0be d51b 373f 5917 72bf
00000040: dd87 cbbe 372e 09bf 9d4e 1b3f 3c9a 26bf
00000050: 47b3 43bf 1df0 21bf 1299 083f 129e 1b3f
00000060: df44 0cbf 9bed 4ebf 29cd 3a3f 18d6 2a3f
00000070: 7768 2abf b657 1e3f c948 19bf 828e 28bf
00000080: e82d 06bf 1aa7 263f 6505 b73e b615 13bf
00000090: 343e 05bf 3ecb 003f 44d2 0bbf b4b3 16bf

weight f4 [40, 2]
0.8888953 -0.3770455 -0.0012305307 0.20843555 -0.014264011 0.5021321 -0.27119735 -0.27718237
-0.5717306 0.2812159 0.13499492 0.0998736 -3.261558 0.3461959 0.051422 0.5792791
0.07427688 0.71224743 0.18523473 0.049604535 -0.1569604 1.094448 -0.19320273 -0.29889256
0.383939 1.7001481 -0.59798324 -0.05404079 -3.184814 0.3098098 0.020920753 0.034092665
0.25530106 -0.3654757 0.98414356 -0.20360444 -0.08311925 0.39660308 -0.3326462 -0.332855
-1.3086475 2.9128478 -1.8702996 1.0091113 0.5164804 0.009976467 -3.0041738 -1.5787396
0.48598778 -0.5123252 0.24452993 -2.128816 -0.31447044 0.13884473 0.8511875 -0.27688217
-0.29366112 0.35122937 -2.1819255 -0.3024401 -1.933035 0.24783564 0.16730303 -0.46184954
0.20401119 0.04084518 -0.71975523 -0.124951586 1.2841613 -1.2430768 1.6031101 -0.43081936
0.090909824 -0.7418503 -2.1792974 -1.5366671 0.83599615 -1.1286051 0.87610346 0.58417434
00000000: a48e 633f 1c0c c1be c249 a1ba 2170 553e
00000010: 99b3 69bc bb8b 003f 61da 8abe d9ea 8dbe
00000020: f05c 12bf 88fb 8f3e 1c3c 0a3e 888a cc3d
00000030: 5ebd 50c0 9740 b13e e09f 523d a34b 143f
00000040: 7a1e 983d d955 363f 2cae 3d3e 202e 4b3d
00000050: 3aba 20be df16 8c3f f0d6 45be 7208 99be
00000060: a793 c43e 749e d93f 6e15 19bf e059 5dbd
00000070: fed3 4bc0 649f 9e3e 0062 ab3c c0a4 0b3d
00000080: d2b6 823e a21f bbbe d5f0 7b3f af7d 50be
00000090: 6d3a aabd 8f0f cb3e 9a50 aabe f86b aabe
000000a0: c381 a7bf 196c 3a40 fa65 efbf 8f2a 813f
000000b0: 0f38 043f 5674 233c 6244 40c0 2414 cabf
000000c0: 64d3 f83e bf27 03bf 0e66 7a3e 853e 08c0
000000d0: 4502 a1be 502d 0e3e 6de7 593f 80c3 8dbe
000000e0: c05a 96be 56d4 b33e aba4 0bc0 6ed9 9abe
000000f0: b16d f7bf a0c8 7d3e 7c51 2b3e 8b77 ecbe
00000100: 4fe8 503e 474d 273d e141 38bf 9ee6 ffbd
00000110: 665f a43f 241d 9fbf b632 cd3f 5b94 dcbe
00000120: ee2e ba3d e7e9 3dbf 9c79 0bc0 82b1 c4bf
00000130: d803 563f 2276 90bf 5148 603f 738c 153f

bias f4 [40]
0.6433804 0.93169093 0.6253387 -0.6377456 -0.60168993 -0.5799689 0.554059 -0.6254929
0.78692716 -0.18749756 0.35787117 -0.3694548 -0.13210379 -0.67299676 0.4891833 -0.4651808
-0.5694083 0.0048503387 0.7683677 -0.22830155 -0.53692114 -0.66264457 0.85358125 1.5630819
-0.45810384 1.4982984 0.22399409 0.44291022 -0.6888275 0.8690485 0.07594512 -0.6546887
1.4442508 -0.18019596 1.2260607 0.91609573 1.5384989 1.614144 1.261633 0.1825137
00000000: 94b4 243f 4c83 6e3f 3216 203f 4c43 23bf
00000010: 5a08 1abf d878 14bf d0d6 0d3f 4d20 20bf
00000020: 0f74 493f 5cff 3fbe e43a b73e 2e29 bdbe
00000030: 3746 07be 8449 2cbf 3c76 fa3e 2e2c eebe
00000040: bec4 11bf 97ef 9e3b bfb3 443f e2c7 69be
00000050: aa73 09bf 13a3 29bf 4d84 5a3f 1113 c83f
00000060: 968c eabe 3ec8 bf3f b55e 653e 21c5 e23e
00000070: 0057 30bf f679 5e3f 1d89 9b3d ae99 27bf
00000080: 36dd b83f 4a85 38be 8fef 9c3f 4085 6a3f
00000090: 88ed c43f 459c ce3f 317d a13f dfe4 3a3e

weight f4 [40, 40]
0.027058583 0.40535387 0.45796445 -0.08051421 -0.029321045 0.09425397 0.2988892 -0.034304738
0.97201383 -0.076170176 0.38392702 -0.006823957 0.17592566 -0.050711066 0.6051304 -0.012138382
-0.13193166 0.31844184 0.27098405 -0.068875186 0.117684305 0.46581262 0.29805017 0.3910855
0.09140558 0.4096847 0.4216401 0.1702555 0.0087796 1.1248071 1.6761515 0.13556094
0.5197667 1.0066588 0.18377754 0.10402361 0.77648616 0.8560609 0.2296827 -0.105128735
-0.14474437 -0.34474468 -0.20542979 0.13101394 0.112580016 -0.035049804 -0.3437043 -0.010924995
-1.6134777 -0.001897499 -0.19042604 0.06569244 -0.28758052 0.12910594 -0.3587829 -0.09604317
0.15695502 -0.20887429 -0.09401731 0.08675927 -0.061861042 -0.37762412 -0.3273864 -0.33245444
0.1823962 -0.6593334 -0.15287903 -0.6139875 0.14866437 -0.17445855 -1.173935 -0.065218754
-0.1926362 -0.71575063 -0.3246357 -0.32752618 -0.36173984 -0.8824308 -0.32130185 -0.2591055
-0.23395969 -0.35294616 -0.47360134 -0.043569468 0.088204935 0.12709527 -0.7416359 -0.10588691
0.80282485 0.0770531 -0.40257832 0.035369173 0.6354434 0.06355329 -2.0205657 -0.1029007
0.024795875 -0.15958498 -0.4977999 -0.111143306 -0.7279632 -0.47214195 -0.49146503 -0.7768022
0.09864391 -2.1547308 -0.19880515 -0.013052234 0.110475525 -1.6094568 0.072259314 -0.0468126
-0.4326467 -0.36937726 -0.120221235 0.0064956658 -0.57681525 -0.7992442 -0.7559036 0.35822225
-1.0910292 -1.238271 -1.2903248 0.12556495 0.11877529 0.08128621 0.24232386 -0.07746376
-0.54717714 -0.07198014 -0.34803808 -0.016930044 -0.83478075 -0.10763165 -0.08484862 0.021860301
-0.08535503 -0.3875782 -0.91316974 -0.12422018 -0.32968602 -0.23530105 -0.2844693 0.18147245
-0.18298557 -0.77893776 -0.8238261 -0.77978927 0.11952151 -0.101336576 1.4257462 0.013829082
-0.39281464 0.6059946 -0.7629625 -1.0222496 -0.44507822 0.09313466 -0.53429514 -0.025154056
0.58833826 0.63005245 0.46453646 0.0884316 -0.09257385 -0.13219066 0.24174954 -0.045800604
-0.24081844 -0.1401571 0.4312518 0.118055984 0.3670246 -0.12353333 0.56116086 -0.12178634
0.12102093 0.5870049 0.4067688 0.06310743 0.45420235 0.29367822 0.685828 0.2362803
0.24807373 1.7469493 0.52040154 0.43351096 -0.11909708 0.5343633 -0.7678559 0.029288158
0.5656544 0.10588892 0.64436984 0.58128 0.60524434 0.6233404 0.5901234 0.38137063
0.106655784 -0.1103864 0.041345 0.0529567 -0.007313326 -0.024824157 -0.6456279 0.11168377
1.2036293 -0.09318971 -0.24586934 0.11567603 -0.92973644 0.082977414 -0.6168194 0.0593085
0.051807627 -0.28029194 -0.16690336 0.0021255165 0.012749507 -0.17703849 -0.34124762 0.29204142
0.09480979 -2.232064 -0.12232354 -0.06877474 -0.053221993 -0.4148816 -1.8915355 -0.05347833
-0.3068221 -1.1696986 -0.21186312 -0.15204345 -0.1830351 0.23678154 -0.36205873 -0.75761133
0.4405127 0.33850458 0.19499014 0.034361035 -0.060625717 -0.034228474 0.12114578 0.01832822
-1.2300545 -0.053268343 0.551937 0.06914884 -0.4970785 -0.0478457 0.5560926 0.0052214116
00000000: f6a9 dd3c 8b8a cf3e 517a ea3e a2e4 a4bd
00000010: b032 f0bc 3a08 c13d 0108 993e 2083 0cbd
00000020: e6d5 783f 1cff 9bbd 1592 c43e 809b dfbb
00000030: db25 343e 68b6 4fbd d3e9 1a3f 10e0 46bc
00000040: 1819 07be cf0a a33e 6cbe 8a3e 6f0e 8dbd
00000050: 7804 f13d fe7e ee3e 089a 983e 5c3c c83e
00000060: d932 bb3d 31c2 d13e 36e1 d73e 7557 2e3e
00000070: 50d8 0f3c aef9 8f3f 228c d63f 7dd0 0a3e
00000080: 6e0f 053f 32da 803f 2e30 3c3e 550a d53d
00000090: ccc7 463f cf26 5b3f f131 6b3e bc4d d7bd
000000a0: de37 14be 6082 b0be 305c 52be 8528 063e
000000b0: 5a90 e63d 6290 0fbd 03fa afbe c0fe 32bc
000000c0: 7086 cebf 80b5 f8ba 0bff 42be c289 863d
000000d0: c13d 93be 5934 043e 64b2 b7be 48b2 c4bd
000000e0: d1b8 203e 24e3 55be 268c c0bd d8ae b13d
000000f0: 0162 7dbd f357 c1be 319f a7be 7837 aabe
00000100: 12c6 3a3e 13ca 28bf 528c 1cbe 492e 1dbf
00000110: 793b 183e 43a5 32be 8143 96bf 6991 85bd
00000120: 6d42 45be 6f3b 37bf a736 a6be 83b1 a7be
00000130: f735 b9be fce6 61bf ad81 a4be 7aa9 84be
00000140: 2193 6fbe 5cb5 b4be e07b f2be e675 32bd
00000150: caa4 b43d 4325 023e dadb 3dbf 3cdb d8bd
00000160: ee85 4d3f 04ce 9d3d bf1e cebe 44df 103d
00000170: 6bac 223f 3a28 823d f350 01c0 9abd d2bd
00000180: b820 cb3c 3f6a 23be a1df febe 1a9f e3bd
00000190: cc5b 3abf 97bc f1be 4ea1 fbbe 82dc 46bf
000001a0: d105 ca3d 1ce7 09c0 9493 4bbe 0ad9 55bc
000001b0: fe40 e23d ae02 cebf b1fc 933d 92be 3fbd
000001c0: de83 ddbe 041f bdbe 8d36 f6bd 98d9 d43b
000001d0: 2aaa 13bf 459b 4cbf e682 41bf e868 b73e
000001e0: d8a6 8bbf aa7f 9ebf 5d29 a5bf 1994 003e
000001f0: 7640 f33d 6279 a63d bf23 783e 52a5 9ebd
00000200: cd13 0cbf 536a 93bd 0c32 b2be e0b0 8abc
00000210: 31b4 55bf fc6d dcbd 1dc5 adbd 6014 b33c
00000220: 9ece aebd a670 c6be 7ec5 69bf 2667 febd
00000230: 9bcc a8be c2f2 70be f6a5 91be ead3 393e
00000240: 9260 3bbe 7768 47bf 44e6 52bf 45a0 47bf
00000250: b2c7 f43d 8d89 cfbd da7e b63f 6093 623c
00000260: 001f c9be 7622 1b3f 8351 43bf 13d9 82bf
00000270: 4be1 e3be 62bd be3d 91c7 08bf e10f cebc
00000280: 569d 163f 1e4b 213f b9d7 ed3e a01b b53d
00000290: 5c97 bdbd fd5c 07be 318d 773e 6a99 3bbd
000002a0: 1c99 76be 5885 0fbe 09cd dc3e 56c7 f13d
000002b0: a6ea bb3e 0bff fcbd 3da8 0f3f 1e6b f9bd
000002c0: d2d9 f73d f445 163f 0044 d03e 783e 813d
000002d0: 368d e83e fe5c 963e 6c92 2f3f 77f3 713e
000002e0: 0a07 7e3e 099c df3f 0939 053f 26f5 dd3e
000002f0: 2be9 f3bd 09cc 083f 3492 44bf b8ed ef3c
00000300: bace 103f 4adc d83d 6cf5 243f c4ce 143f
00000310: 4bf1 1a3f 3d93 1f3f 5412 173f 0343 c33e
00000320: 596e da3d 4412 e2bd 6059 293d 20e9 583d
00000330: a0a4 efbb 085c cbbc df47 25bf 76ba e43d
00000340: 8610 9a3f 3fda bebd 2cc5 7bbe 8ee7 ec3d
00000350: 3503 6ebf 10f0 a93d e0e7 1dbf 78ed 723d
00000360: 3c34 543d 6d82 8fbe b7e8 2abe 404c 0b3b
00000370: 4fe3 503c 9449 35be 02b8 aebe 7486 953e
00000380: a32b c23d 23da 0ec0 c484 fabd c5d9 8cbd
00000390: 4eff 59bd 5c6b d4be d61d f2bf 180c 5bbd
000003a0: c917 9dbe afb8 95bf a5f2 58be 47b1 1bbe
000003b0: 8e6d 3bbe dc76 723e c35f b9be d1f2 41bf
000003c0: e18a e13e 7950 ad3e 7fab 473e 28be 0c3d
000003d0: ac52 78bd 2833 0cbd 471b f83d 1025 963c
000003e0: 6d72 9dbf e82f 5abd be4b 0d3f e89d 8d3d
000003f0: 1381 febe daf9 43bd 165c 0e3f 6018 ab3b

bias f4 [40]
0.38518542 -0.4442164 -0.2244129 -0.5893956 0.7618748 -0.25351766 0.5733083 0.7366288
0.1397355 0.419648 -0.26103076 -0.18013328 -0.14910233 -0.64521915 0.39236784 -0.1295421
-0.79309684 -0.32304552 0.54449415 -1.1213046 -0.706608 0.4329939 -0.57132643 0.0011416932
0.49712172 0.5832844 0.30071723 0.72603804 0.7079376 -0.72719735 -0.4057941 0.32252204
-0.26619017 0.3081392 -0.5914059 -0.24817891 -0.28467852 -0.46231225 -0.23317543 0.47031376
00000000: 0637 c53e 5570 e3be 7fcc 65be a1e2 16bf
00000010: 3a0a 433f 11cd 81be 55c4 123f b493 3c3f
00000020: d316 0f3e 1adc d63e d3a5 85be dc74 38be
00000030: 48ae 18be 152d 25bf 70e4 c83e afa6 04be
00000040: 6508 4bbf 3966 a5be f863 0b3f e986 8fbf
00000050: 43e4 34bf 60b1 dd3e 7342 12bf dea4 953a
00000060: bd86 fe3e 2052 153f 9cf7 993e a1dd 393f
00000070: 663b 353f 9b29 3abf 3fc4 cfbe 9c21 a53e
00000080: 144a 88be 6cc4 9d3e 6166 17bf 9d22 7ebe
00000090: 62c1 91be 31b4 ecbe 8ac5 6ebe f7cc f03e

weight f4 [40, 40]
-0.16902134 0.41428393 0.26229692 -0.4312707 -0.32082805 0.11870717 -0.25827914 -0.30042526
-0.43350744 -0.3407083 0.32036692 0.123703904 0.029532189 0.16066335 -0.2939454 -0.25862113
0.4269438 0.061857626 -0.38960573 0.41379297 0.2281869 -0.4565207 0.43286037 0.0338112
-0.30632016 -0.41556528 0.2806649 -0.14354624 0.118642434 0.516871 0.39746177 -0.5092909
0.28381827 0.2861932 0.67214435 0.59144914 -0.14565131 -0.24556419 0.37442014 -0.16769826
-0.5938708 0.44512495 0.55986077 0.20788494 -0.25301003 0.43181482 -0.36133197 -0.14135389
-0.90977824 -0.16680579 0.36979875 0.4066534 0.08635254 0.5388842 -0.18954717 -0.13207088
0.082305565 0.41330203 -0.3249449 0.21145841 0.14959095 -0.29655975 0.47512755 0.49170026
-0.13480897 0.069406666 0.21373859 -0.50977707 -0.23068427 0.5502389 0.23237535 -0.33598408
0.10859566 0.23323172 0.41661873 0.35133892 0.2646244 0.560171 0.7007856 -0.56973916
0.10171053 -0.36703855 -0.9196106 -0.06390605 0.43301934 0.1442594 0.30032206 0.44994184
0.029912407 0.5564966 -0.5391596 -0.12110927 0.2712769 -0.6581156 0.2008238 0.11617524
-0.43715444 -0.43296227 0.41408768 -0.32412562 -0.63825333 0.4920065 -0.57947147 -0.11485268
0.45622173 0.2519527 -0.37819377 0.17345032 0.17156424 -0.44020355 -0.42484847 0.21852061
-0.5063762 -0.30332872 -0.2728505 -0.5292853 -0.20591637 -0.3470223 -0.107081614 0.09953013
-0.29901183 0.3306211 0.2748108 -0.21149918 -0.35291997 0.092488684 -0.31076458 -0.32148752
-0.6514431 -0.3664433 0.5815589 0.19903219 -0.0848678 0.4407926 -0.42415673 -0.34566417
0.46686468 -0.03812203 -0.37840402 0.30436057 0.45244986 -0.46628064 0.30072892 0.2092235
-0.22642569 -0.24513213 0.42149752 -0.39455602 -0.3519075 0.5087586 0.43736842 -0.4232622
0.4430337 0.101865634 0.17877616 0.64737153 -0.43588635 0.20525023 0.37000936 -0.356676
0.330237 -0.19382334 -0.2010703 -0.14894725 0.4168076 0.109488346 0.4395919 0.33210573
0.28147823 0.37819076 -0.26252607 -0.03248721 0.1416193 -0.022817949 0.24755758 -0.04071323
-0.23633555 -0.13571566 0.56019294 -0.24624573 -0.2754336 0.20285185 -0.20435894 0.01764811
0.19903295 0.49911493 -0.24554099 0.44514996 0.15871215 -0.3417349 -0.5091971 0.53015685
-0.3592375 -0.14751314 -0.63207036 -0.28879902 -0.0151333995 -0.17053162 -0.6124782 0.5548754
-0.22677366 0.40617833 0.11722184 -0.05632698 -0.41161746 0.0061413716 -0.29244378 -0.4915652
-0.57328403 -0.39157912 0.37911764 -0.054117925 0.049442682 0.53716063 -0.32597032 -0.50309557
0.290591 -0.51625264 -0.35624012 0.28338298 0.21157 -0.55212194 0.3774022 0.44671345
-0.50229657 -0.29312295 0.32457253 0.096756995 -0.37839812 0.3335675 0.51331085 -0.3050435
0.25802267 0.29711974 0.67674863 0.4631481 -0.05868392 -0.056472287 -0.04045728 -0.29614612
0.08929484 0.45985913 0.22322282 0.14564522 -0.5014686 -0.039007057 -0.29885152 -0.30036
-0.5095115 -0.47360107 0.60418546 0.089004435 0.061891608 0.27428323 -0.21932773 -0.046482384
00000000: ee13 2dbe 061d d43e c84b 863e 83cf dcbe
00000010: 9343 a4be bf1c f33d 2a3d 84be 57d1 99be
00000020: b0f4 ddbe 5171 aebe 2207 a43e 7958 fd3d
00000030: 7ded f13c ef84 243e 0380 96be fd69 84be
00000040: 6198 da3e 6c5e 7d3d 677a c7be acdc d33e
00000050: d4a9 693e 15bd e9be e09f dd3e 9d7d 0a3d
00000060: ffd5 9cbe f9c4 d4be 4fb3 8f3e c9fd 12be
00000070: cefa f23d a851 043f 1c80 cb3e e360 02bf
00000080: a150 913e ea87 923e a711 2c3f 3669 173f
00000090: 9e25 15be 2e75 7bbe ffb3 bf3e 18b9 2bbe
000000a0: eb07 18bf 6be7 e33e 0953 0f3f cadf 543e
000000b0: 888a 81be d516 dd3e 8100 b9be 13bf 10be
000000c0: 3ae7 68bf 23cf 2abe 4356 bd3e e034 d03e
000000d0: 9ad9 b03d 51f4 093f a718 42be 973d 07be
000000e0: d28f a83d 539c d33e 2e5f a6be 8e88 583e
000000f0: 5f2e 193e aed6 97be eb43 f33e 23c0 fb3e
00000100: 5d0b 0abe 1525 8e3d 4ade 5a3e c080 02bf
00000110: 7f38 6cbe 75dc 0c3f cef3 6d3e 1b06 acbe
00000120: 6767 de3d 4cd4 6e3e 0d4f d53e b2e2 b33e
00000130: d97c 873e 5e67 0f3f af66 333f 6dda 11bf
00000140: 9c4d d03d 7aec bbbe 9a6b 6bbf 2de1 82bd
00000150: b6b4 dd3e bcb8 133e d0c3 993e c75e e63e
00000160: dd0a f53c 9076 0e3f 5d06 0abf 2308 f8bd
00000170: cee4 8a3e 447a 28bf c1a4 4d3e 49ed ed3d
00000180: b5d2 dfbe 3bad ddbe 4d03 d43e cbf3 a5be
00000190: 9264 23bf 47e8 fb3e 3e58 14bf e237 ebbd
000001a0: e595 e93e f2ff 803e 9da2 c1be f69c 313e
000001b0: 89ae 2f3e 5c62 e1be bd85 d9be dec3 5f3e
000001c0: dfa1 01bf e74d 9bbe 10b3 8bbe 3e7f 07bf
000001d0: bedb 52be e8ac b1be 9b4d dbbd 74d6 cb3d
000001e0: 1418 99be 2b47 a93e 00b4 8c3e 3e93 58be
000001f0: edb1 b4be b56a bd3d 891c 9fbe 039a a4be
00000200: fac4 26bf 759e bbbe 0be1 143f 18cf 4b3e
00000210: 2bcf adbd 91af e13e 122b d9be e5fa b0be
00000220: e308 ef3e d925 1cbd 2cbe c1be 26d5 9b3e
00000230: 82a7 e73e 56bc eebe 24f9 993e af3e 563e
00000240: 23dc 67be eb03 7bbe 86ce d73e 3f03 cabe
00000250: 382d b4be 013e 023f c1ee df3e d3b5 d8be
00000260: 50d5 e23e ee9e d03d 1911 373e 24ba 253f
00000270: 7f2c dfbe 1e2d 523e de71 bd3e 3d9e b6be
00000280: d314 a93e a079 46be 5fe5 4dbe a185 18be
00000290: ce67 d53e 6d3b e03d 3112 e13e c309 aa3e
000002a0: ea1d 903e 38a2 c13e d169 86be 4f11 05bd
000002b0: a604 113e b5ec babc bc7f 7d3e eac2 26bd
000002c0: f201 72be 0cf9 0abe ce68 0f3f d727 7cbe
000002d0: a205 8dbe 65b8 4f3e 7843 51be c592 903c
000002e0: 4bcf 4b3e fe8b ff3e 196f 7bbe b2ea e33e
000002f0: 7085 223e e0f7 aebe be5a 02bf 5cb8 073f
00000300: faed b7be af0d 17be 5dcf 21bf 77dd 93be
00000310: 14f2 77bc d79f 2ebe 5fcb 1cbf 500c 0e3f
00000320: 5b37 68be 9bf6 cf3e 0112 f03d 1fb7 66bd
00000330: 86bf d2be 8f3d c93b 31bb 95be 6fae fbbe
00000340: bec2 12bf 0f7d c8be b51b c23e c2aa 5dbd
00000350: 6984 4a3d 5c83 093f 95e5 a6be dfca 00bf
00000360: 58c8 943e 2229 04bf 1b65 b6be 9317 913e
00000370: cea5 583e dd57 0dbf dc3a c13e a0b7 e43e
00000380: 8296 00bf 3614 96be 5f2e a63e 8828 c63d
00000390: 66bd c1be 5cc9 aa3e 5768 033f a92e 9cbe
000003a0: 8c1b 843e 1420 983e 663f 2d3f bf21 ed3e
000003b0: 8d5e 70bd 7c4f 67bd 88b6 25bd 77a0 97be
000003c0: 37e0 b63d a872 eb3e 8694 643e 0524 153e
000003d0: 3f60 00bf ddc5 1fbd 1103 99be c9c8 99be
000003e0: 586f 02bf d77b f2be e6ab 1a3f f547 b63d
000003f0: 0e82 7d3d da6e 8c3e 7397 60be 5064 3ebd

bias f4 [40]
-0.49711722 -0.144778 0.34490702 -0.2609827 0.27821106 -0.53641385 -0.21564303 -0.4288939
0.28213006 0.19470993 -0.2136671 -0.26814976 0.4693974 0.16076346 -0.4312523 -0.29154128
-0.2611831 -0.15513386 -0.43642274 -0.29094756 -0.4925621 -0.5554132 -0.5879119 -0.48858684
0.5281559 0.25959638 -0.37862304 -0.100134306 0.2528629 0.081454255 -0.19030443 -0.37170297
0.5283635 0.2106575 -0.32273072 0.38535833 -0.39755318 0.18352024 0.20217873 0.4693695
00000000: 2686 febe af40 14be a797 b03e 869f 85be
00000010: ae71 8e3e 6b52 09bf 87d1 5cbe fb97 dbbe
00000020: 5a73 903e 0a62 473e 8ccb 5abe ed4a 89be
00000030: db54 f03e 2d9f 243e 1acd dcbe e644 95be
00000040: cbb9 85be 69db 1ebe cd72 dfbe 14f7 94be
00000050: 1931 fcbe 8f2f 0ebf 6581 16bf 0e28 fabe
00000060: 3a35 073f d1e9 843e e1da c1be 3713 cdbd
00000070: 3f77 813e 7dd1 a63d 2adf 42be da4f bebe
00000080: d542 073f 9ab6 573e f63c a5be b04d c53e
00000090: 178c cbbe bbec 3b3e f107 4f3e 3351 f03e

weight f4 [1, 40]
-0.35900614 -0.16355586 0.16028857 -0.508897 0.16101103 -0.19201165 -0.10441465 -0.47001994
0.23141007 0.55581564 -0.48834062 -0.14542466 0.04916745 0.26842487 -0.38796425 -0.4119463
-0.51466304 -0.24290577 -0.19451609 -0.31620106 -0.14023829 -0.26001668 -0.3065278 -0.24464476
-0.010769245 0.13785207 -0.055521946 -0.4851844 0.24858473 0.12909828 -0.20086893 -0.41737625
0.5909233 0.35396597 -0.7143627 0.34486052 -0.36834198 0.26352555 0.31363693 0.16520485
00000000: a7cf b7be 307b 27be b022 243e 1347 02bf
00000010: 13e0 243e b49e 44be 59d7 d5bd 74a6 f0be
00000020: c3f6 6c3e ef49 0e3f c807 fabe 34ea 14be
00000030: cf63 493d fc6e 893e 40a3 c6be a0ea d2be
00000040: f5c0 03bf 4abc 78be 3a2f 47be 1be5 a1be
00000050: a09a 0fbe e820 85be 36f1 9cbe 2884 7abe
00000060: 7d71 30bc 1829 0d3e fb6a 63bd 176a f8be
00000070: ff8c 7e3e 5732 043e 96b0 4dbe 57b2 d5be
00000080: c046 173f 073b b53e 79e0 36bf 8f91 b03e
00000090: 5297 bcbe d2ec 863e 0595 a03e 762b 293e
