[Other models]/min_func_6.pt (torch_old, 66278 bytes, 27 tensors)

weight f4 [40, 2]
0	0x3fed79b6	1.8552768
1	0xbf144c2d	-0.57928735
2	0x3fd96cba	1.6986306
3	0xbe02c13c	-0.12769026
4	0xbf2603ef	-0.6484975
5	0x3efe8487	0.49710485
6	0xbe86e421	-0.26345924
7	0xbddbc6e1	-0.107312925
8	0xbe8195a0	-0.25309467
9	0x3ecac64d	0.39604416
10	0xbfa0ed07	-1.2572335
11	0x3ea4c155	0.3217875
12	0xbd99601a	-0.07489033
13	0x3e23c3bd	0.15992637
14	0xbf90786a	-1.1286747
15	0x3cf32e58	0.029685184
16	0x3fb40af5	1.4065844
17	0x3d89b193	0.06723323
18	0x3f5d0d2a	0.8634821
19	0xbdc47252	-0.09592117
20	0x3f0f0663	0.5586912
21	0x3f887855	1.0661722
22	0x3dcadeae	0.09905754
23	0x3eaf20f9	0.34204844
24	0xbd81a622	-0.063305154
25	0x3f6e3051	0.93042475
26	0xbeeadc12	-0.45871025
27	0x3e3fa0c0	0.18713665
28	0x3f9e0e36	1.2348087
29	0x3ef48384	0.47756588
30	0x3fc98613	1.5744041
31	0xbf75d1ea	-0.9602343
32	0xbf31efe0	-0.69506645
33	0xbda61b2d	-0.08110652
34	0x3fdaa051	1.7080175
35	0x3ef37206	0.4754793
36	0x3f3c0856	0.7345022
37	0xbf0da2bb	-0.5532643
38	0xbeb0c383	-0.34524164
39	0x3ee6c3a3	0.45071134
40	0x401b39c2	2.4254003
41	0xbfc12931	-1.5090696
42	0x4007849d	2.117469
43	0xbf238b44	-0.6388438
44	0xbdeb90b8	-0.11502212
45	0x3f5b24e3	0.8560316
46	0xbf3af4cb	-0.73029774
47	0x3f359c98	0.7094207
48	0xbe5932ec	-0.21210831
49	0x3f1064d1	0.56403834
50	0xbf4add73	-0.79244155
51	0xbf308cd9	-0.68964916
52	0xbfb79675	-1.4342791
53	0x3edd4070	0.43213224
54	0x3fba980f	1.4577655
55	0xbd7940d1	-0.06085283
56	0x3f002563	0.5005705
57	0x3f67f55c	0.90608764
58	0x3fcaa00e	1.5830095
59	0x3f070e32	0.52756035
60	0x3fe4b671	1.7868177
61	0x3f120638	0.5704074
62	0xbfb55576	-1.4166706
63	0x3f3843fe	0.7197875
64	0xbf9a4e03	-1.2055057
65	0xbed0e0c5	-0.40796486
66	0x4182181f	16.261778
67	0xc032b4b2	-2.7922788
68	0x3f39d010	0.72583103
69	0xbe5794ae	-0.2105281
70	0xbf76b84b	-0.9637496
71	0x3ee206b4	0.4414574
72	0x3d1ca116	0.03823956
73	0x3ea4e7bb	0.32208046
74	0x3e7a6fe3	0.24456744
75	0x3f2b82cd	0.6699646
76	0xbfbae2cd	-1.4600464
77	0x3e55266b	0.20815437
78	0x3f4a2663	0.78964823
79	0xbee01897	-0.4376876

bias f4 [40]
0	0x40082d82	2.1277776
1	0x3fc3f3a1	1.5308725
2	0xbff3e17e	-1.905319
3	0xbfc80eb6	-1.562949
4	0xbfc23f54	-1.5175576
5	0xbf91cd21	-1.1390725
6	0xbfa40c01	-1.2816163
7	0xbf49adcf	-0.78780836
8	0x3fca80a1	1.5820504
9	0x3fac41e7	1.3457612
10	0xbf97656c	-1.1827826
11	0xbfa98df1	-1.3246442
12	0xbfd65425	-1.6744429
13	0xbf9e773c	-1.2380137
14	0x403edf3c	2.9823751
15	0x3ffaec6b	1.9603399
16	0xbfcd7711	-1.6051961
17	0xbf120014	-0.5703137
18	0x400113ae	2.0168262
19	0xbfdd2192	-1.727587
20	0x40187728	2.3822727
21	0x400ee7a9	2.2328894
22	0xbfec3354	-1.8453164
23	0xbfda8adf	-1.707363
24	0xbfbcb338	-1.4742193
25	0xbfcca691	-1.5988332
26	0xbfa99986	-1.3249977
27	0x3fc11415	1.5084254
28	0xbfb0a70b	-1.3800977
29	0xbe86f66b	-0.26359877
30	0x3ffa811f	1.9570655
31	0xbfbcd2b8	-1.4751806
32	0xbfec66e0	-1.8468895
33	0x41ed0c34	29.630959
34	0x400dd7fa	2.2163072
35	0xbfdc236a	-1.7198308
36	0xbf8da779	-1.1066734
37	0xbfd58253	-1.6680397
38	0xc014f38c	-2.327365
39	0x401c410c	2.4414701

weight f4 [40, 40]
0	0x3f6e6b94	0.931329
1	0x3fa58260	1.2930412
2	0xbf97a7e3	-1.184811
3	0xbfc9a16a	-1.5752385
4	0xbe3e75e8	-0.18599665
5	0xbf2db5fd	-0.6785582
6	0xbf81b57d	-1.0133511
7	0xbf5bb09a	-0.8581635
8	0x3f8f3931	1.1189328
9	0x3f9ddaa8	1.2332354
10	0x3f4c3f1f	0.79783815
11	0xbf021d7e	-0.5082625
12	0x3e63ad29	0.22234024
13	0xbf8b03ea	-1.086057
14	0x401931e4	2.39367
15	0x3d21457c	0.039372906
16	0xc011237e	-2.2677913
17	0x3f89072a	1.0705311
18	0x3fc55307	1.5415963
19	0xbf52d8e5	-0.82362205
20	0x3dbc9219	0.092075534
21	0x3f691c82	0.91059124
22	0xbe9579ca	-0.2919448
23	0xbe598f1f	-0.21246003
24	0xbd2f78df	-0.04283988
25	0xc010feae	-2.2655444
26	0xbf144f60	-0.57933617
27	0x3f862a09	1.0481578
28	0x3eab5ab9	0.33467653
29	0x3f80c9fa	1.0061638
30	0x4014d752	2.325642
31	0xbeb71562	-0.357585
32	0xc0300b53	-2.7506912
33	0x41abdaac	21.481773
34	0x3f9beb5d	1.2181202
35	0xbf94dc8d	-1.1629807
36	0xbf6615ca	-0.89877
37	0xbf3fa51c	-0.7486131
38	0xc02c3b22	-2.6911092
39	0x3f968d69	1.1761905
40	0x3fda3a3e	1.7049024
41	0x3f8a08d3	1.0783943
42	0xbfce0e47	-1.6098107
43	0xbfaaec94	-1.3353448
44	0xbfaaf811	-1.3356954
45	0xbfd18e52	-1.6371558
46	0xc0076b3a	-2.1159196
47	0xbeec89ba	-0.46198827
48	0x3fcb22d6	1.5870006
49	0x3f5e8aea	0.86930716
50	0xc00abb16	-2.1676688
51	0xbff3b8a6	-1.9040725
52	0xbfd72b46	-1.6810081
53	0xbfd18242	-1.6367877
54	0x3f8e5e82	1.1122591
55	0x3fa443ee	1.283323
56	0xbfefe419	-1.8741485
57	0xbfa3e4da	-1.2804215
58	0x4004ff4a	2.0780816
59	0xbfbebc4a	-1.4901211
60	0x3fb2fc5b	1.3983263
61	0x3fc62a4f	1.5481662
62	0xbfd58c77	-1.6683491
63	0xbfdca353	-1.7237343
64	0xbfa0001c	-1.2500033
65	0xbf50decc	-0.8158996
66	0xbfc7f33c	-1.5621104
67	0x3f9a3a0b	1.2048963
68	0xbff71d90	-1.9305897
69	0xbf123d78	-0.57125044
70	0x3fbb48fa	1.4631646
71	0xbfd52080	-1.6650543
72	0xbfd8f15c	-1.6948657
73	0x42212549	40.28641
74	0x4001be4d	2.02724
75	0xbfcecfe8	-1.6157198
76	0xbfa70369	-1.3047916
77	0xc007f4b0	-2.1243095
78	0xc09d91a4	-4.9240284
79	0x3fff4d94	1.994555
80	0xbee8a9a5	-0.45441929
81	0xbeceed77	-0.40415546
82	0x3e7c325f	0.2462859
83	0xbed99ee2	-0.4250403
84	0xbe48660b	-0.19570176
85	0x3e9d34a9	0.3070424
86	0x3e889e57	0.26683304
87	0x3e0e9e30	0.13927531
88	0xbe600086	-0.218752
89	0xbf10d92c	-0.5658138
90	0x3d43536b	0.047686975
91	0x3e124d37	0.14287268
92	0xbdfa2978	-0.12214941
93	0x3dd340c5	0.10315088
94	0x3d620cbb	0.055187922
95	0xbf18592a	-0.59511054
96	0x3f44aa12	0.76822007
97	0x3e66bdaf	0.22533296
98	0xbed531d9	-0.41639593
99	0x3ecc866f	0.39946315
100	0xbf4a4627	-0.79013294
101	0xbf239ccf	-0.63911146
102	0x3cf9a4c8	0.030474082
103	0x3f1df70d	0.61705095
104	0xbe8a3d59	-0.2699993
105	0xbdcfd018	-0.101471126
106	0x3ee35306	0.4439928
107	0xbed8a3d5	-0.42312494
108	0xbd047636	-0.032339297
109	0x3e214b2d	0.15751334
110	0xbd375dc1	-0.044767145
111	0x3e9dd505	0.30826584
112	0x3e0759d1	0.13217856
113	0x3d5eb61b	0.054372888
114	0xbed7f1fd	-0.4217681
115	0xbd3be969	-0.045876894
116	0x3f006dfd	0.5016783
117	0x3ed4e9a3	0.415845
118	0xbf012606	-0.50448644
119	0xbe812440	-0.2522297
120	0x3e972f43	0.29528245
121	0x3d8c2b26	0.068441674
122	0xbf93e7aa	-1.1555073
123	0xc00665a6	-2.0999541
124	0xbfb02442	-1.3761065
125	0x3e7deb14	0.24796706
126	0xbf2f022e	-0.683627
127	0x3eb56d0f	0.35434768
128	0xbf954068	-1.166028
129	0x3fc21005	1.5161139
130	0xbff4a69a	-1.9113343
131	0xc08562f5	-4.1683297
132	0xbfe1babf	-1.7635115
133	0xbf1edd4f	-0.6205644
134	0xbf134690	-0.57529545
135	0x3ea983ff	0.33108518
136	0xbf2c549e	-0.67316616
137	0xbfe4d4f4	-1.7877488
138	0x3f460f86	0.77367437
139	0xbfbb4965	-1.4631773
140	0x3e45e211	0.19324519
141	0xbcd1e5f6	-0.02562235
142	0xbfdf772b	-1.7458242
143	0xbf7df3f5	-0.99200374
144	0xbfa37f48	-1.2773218
145	0xbea6fdc7	-0.32615492
146	0x3de305a3	0.110850595
147	0xbf7345c4	-0.9502833
148	0xbff1e414	-1.8897729
149	0xc004aa25	-2.0728848
150	0x3f8018eb	1.0007604
151	0xbecbe234	-0.39821017
152	0x3d6c2481	0.057652
153	0x41f2d822	30.355534
154	0x3f00e81b	0.50354165
155	0xbf0dedcd	-0.5544098
156	0xbf940308	-1.1563425
157	0xc011123a	-2.2667375
158	0x3c774ec1	0.01509446
159	0x3fc1c37d	1.5137783
160	0x3f7ba199	0.98293453
161	0x3f52baa2	0.8231603
162	0xc009abe7	-2.151117
163	0xbffe7a82	-1.9881136
164	0xbf829261	-1.0200921
165	0xbf3860e5	-0.7202285
166	0xbfa17e32	-1.2616637
167	0xbf698270	-0.91214657
168	0x3f5666e3	0.8375074
169	0x3fc26c03	1.5189213
170	0xbf2a7911	-0.6659098
171	0xbf428622	-0.7598592
172	0xbfa45fd2	-1.2841742
173	0x3e4eef5e	0.20208499
174	0x3fd9562b	1.6979421
175	0x3f9372e4	1.1519437
176	0xbfb91d99	-1.4462157
177	0xbee41ece	-0.44554752
178	0x3fcfbf78	1.6230307
179	0xc005b772	-2.0893216
180	0x3f811226	1.0083663
181	0x3fad858a	1.3556378
182	0xc010f2ae	-2.264812
183	0xbfc14206	-1.5098274
184	0xbfca3b7c	-1.5799403
185	0xc0029a57	-2.0406702
186	0xbf6e6d61	-0.9313565
187	0x3f3e2dd5	0.74288684
188	0xbf8b3468	-1.0875368
189	0x3ea0f9bc	0.31440532
190	0x4012f4b5	2.2961857
191	0xbf8eea69	-1.1165286
192	0xbfdc2c7e	-1.7201078
193	0x42025e4c	32.592087
194	0x3f4551ce	0.7707795
195	0xc0004c91	-2.0046732
196	0xbff69446	-1.9264
197	0xbef1a43b	-0.4719561
198	0xc04ba625	-3.1820157
199	0x3f1c82f2	0.61137307
200	0x3f3c9950	0.73671436
201	0xbd72fefc	-0.059325203
202	0xbefe6c67	-0.4969208
203	0xbf6177a2	-0.8807317
204	0x3d31e52d	0.04343145
205	0xbeeb514a	-0.45960456
206	0xbfdc6146	-1.7217185
207	0x3f002135	0.5005067
208	0x3edf5033	0.43615875
209	0x3e00021a	0.12500802
210	0xbf4a5fea	-0.79052603
211	0xbf150513	-0.5821087
212	0xbf48f272	-0.7849494
213	0xbf26fcd8	-0.6522956
214	0x3eea4f7e	0.45763773
215	0xbd211b92	-0.039332934
216	0xbf94356d	-1.1578804
217	0xbfa04690	-1.2521534
218	0x3f75ead7	0.9606146
219	0xbf277d9d	-0.65426046
220	0x3ee6bf37	0.4506776
221	0x3f220e36	0.63302934
222	0xbf17e1d1	-0.59328943
223	0xbea14bcb	-0.31503138
224	0xbed33fa1	-0.41259483
225	0xbf4d57bd	-0.80212003
226	0xbf103a99	-0.5633941
227	0x3e929759	0.28631094
228	0xbf857a80	-1.0428009
229	0xbf92ca85	-1.1468054
230	0x3f351fbd	0.70751554
231	0xbec60ee0	-0.38683224
232	0xbf909ad9	-1.1297256
233	0x417aaa67	15.666602
234	0x3f84fbd8	1.0389357
235	0xbf228b7a	-0.63494074
236	0xbf3f0870	-0.7462225
237	0xbf0f8c3c	-0.56073356
238	0xbfc5a9b0	-1.544241
239	0x3f296b78	0.6617961
240	0x3da5bae5	0.08092288
241	0x3e005232	0.12531355
242	0x3edf7ded	0.4365076
243	0x3dd1c069	0.102417774
244	0x3e919e2e	0.28440994
245	0xbe034561	-0.12819435
246	0x3ebe3134	0.37146914
247	0xbe7655c1	-0.2405615
248	0x3e2f445d	0.17115922
249	0x3d1c3042	0.03813196
250	0x3efed9c5	0.4977552
251	0xbea251d5	-0.31703058
252	0x3eacd2b8	0.33754516
253	0xbe77f007	-0.24212657
254	0xbdf84a0a	-0.12123497
255	0x3e04020f	0.1289141

bias f4 [40]
0	0x3fcd03e0	1.6016808
1	0x3ff20801	1.8908693
2	0xbf450404	-0.7695925
3	0x3ec813a4	0.39077485
4	0x3f119d1d	0.5688036
5	0x3fbabffa	1.4589837
6	0xbe62d314	-0.22150832
7	0x3fe48e71	1.785597
8	0xbf6a558b	-0.9153678
9	0xbf94451b	-1.1583589
10	0x3ea37598	0.31925654
11	0xbe44dae7	-0.1922413
12	0xbf83d5e7	-1.0299653
13	0x4086dcd1	4.214455
14	0xbf4265bd	-0.7593649
15	0xbf669a69	-0.9007936
16	0xbfadd6e0	-1.35812
17	0xbf539072	-0.8264228
18	0xbf0af455	-0.5427907
19	0xbf80f390	-1.0074329
20	0x3d5ea465	0.054355998
21	0xbf998fec	-1.1997046
22	0xbfb12147	-1.383828
23	0x407b8dd3	3.9305313
24	0xbe7586fd	-0.23977275
25	0x3d447afc	0.04796885
26	0x3eca6656	0.395312
27	0x3f804294	1.0020318
28	0xbf0a24ee	-0.539626
29	0xbefbd497	-0.4918563
30	0x3d29e18d	0.041474868
31	0x3e7c5d8e	0.24645063
32	0x3dc2a32a	0.09503777
33	0xbe3d94ac	-0.18513745
34	0x3edad99c	0.42744148
35	0xbecdff67	-0.4023392
36	0x3dec2bc1	0.11531783
37	0x3f87593b	1.0574106
38	0xbe7cedce	-0.2470009
39	0x407feb09	3.9987204

weight f4 [4, 40]
0	0x40366081	2.8496401
1	0x40250ba7	2.5788362
2	0xbe3cfbde	-0.18455455
3	0x40243f6c	2.566371
4	0x40225114	2.5361986
5	0x40005025	2.0048916
6	0xbdec1130	-0.11526716
7	0x400cd5c6	2.2005477
8	0xbef9ede2	-0.48814303
9	0xbf808ef5	-1.0043627
10	0x3eb11b6a	0.34591228
11	0xbde164db	-0.11005565
12	0xbf3756b1	-0.71616656
13	0x40637700	3.5541382
14	0xbef4dcf6	-0.4782483
15	0xbd73a856	-0.05948671
16	0xbe68791f	-0.22702454
17	0xbdaafd69	-0.083491154
18	0x3fe52717	1.7902554
19	0x3e819e2a	0.25315982
20	0xbebd7901	-0.3700638
21	0xbf1df99b	-0.6170899
22	0xbe25e27c	-0.16199678
23	0x406bb92b	3.6831768
24	0x3e10e618	0.14150274
25	0x3fb4887e	1.4104154
26	0xbe338a2d	-0.17533179
27	0x4003581e	2.0522532
28	0xbf8bf699	-1.0934631
29	0xbf81ab5d	-1.0130421
30	0xbef2916a	-0.47376567
31	0x3f941a7f	1.1570586
32	0x3e1a0cf9	0.15044011
33	0xbf3563bc	-0.7085531
34	0x41119a97	9.100242
35	0xbe14d8e9	-0.1453587
36	0xbf15a9fe	-0.5846251
37	0x40344c80	2.8171692
38	0xbf459d91	-0.7719355
39	0x419ce368	19.611038
40	0xc0418b07	-3.0241106
41	0xc07c180e	-3.9389682
42	0x3e076a68	0.13224185
43	0xc038a509	-2.885073
44	0xc00431b0	-2.0655327
45	0xbfc1480c	-1.5100112
46	0x3e26e48b	0.1629812
47	0xbfd4fdf2	-1.6639998
48	0xbe570bcd	-0.21000595
49	0x3f059537	0.5218081
50	0xbe32b421	-0.17451526
51	0x3f391ed1	0.7231265
52	0xbd8d02cc	-0.06885299
53	0xc0c2def2	-6.089715
54	0xbe98b8fe	-0.29828638
55	0x3f1fb841	0.62390524
56	0x3f0250f5	0.5090478
57	0x3f54cab1	0.8312178
58	0xbfafb2e2	-1.3726466
59	0x3f7de535	0.9917787
60	0xbeba9aab	-0.36446127
61	0x3dedcb26	0.11611013
62	0x3f3ba34a	0.73296034
63	0xc02d1114	-2.7041674
64	0x3dfd01b5	0.12353841
65	0xbffc1ace	-1.969568
66	0xbe872b4c	-0.2640022
67	0xbff48f9c	-1.9106326
68	0x3e2d0fca	0.16900554
69	0x3eff612b	0.4987882
70	0xbd3a58c4	-0.04549481
71	0xbfba6f9e	-1.4565313
72	0x3e3c0a6e	0.18363354
73	0x3e1b6323	0.15174536
74	0xc12afb87	-10.686408
75	0x3e12c739	0.1433381
76	0x3d1c91f2	0.03822512
77	0xc05318e9	-3.2983954
78	0x3e7a2596	0.244284
79	0xc14af404	-12.684574
80	0xc0c48b2b	-6.1419883
81	0xc1200159	-10.000329
82	0x3eb001d8	0.34376407
83	0xbfd2daa8	-1.6472979
84	0xbffdb356	-1.9820354
85	0xbf946bc8	-1.1595392
86	0xbded370e	-0.115827665
87	0xbfce9cd7	-1.6141614
88	0x3ee2602f	0.44214007
89	0x3e82489b	0.2544602
90	0x3ea1a286	0.31569308
91	0x3e5f8215	0.21826966
92	0x3e51f76d	0.20504542
93	0xc162a8e7	-14.166236
94	0x3f88d53f	1.0690078
95	0x3e560bcb	0.20902936
96	0x3ee351df	0.443984
97	0x3f8273b3	1.0191559
98	0xbf8bdda9	-1.092702
99	0x3f39e0ea	0.72608817
100	0xbcad021f	-0.021119175
101	0x3e8a7c00	0.2704773
102	0x3ed3c552	0.4136148
103	0xc0cefefc	-6.468626
104	0x3f2781e9	0.654326
105	0xbef47b94	-0.47750533
106	0x3ea6df8c	0.32592428
107	0xc0f3f470	-7.6235886
108	0x3f7132c0	0.94218063
109	0x3fa4bc49	1.286996
110	0xbe54501b	-0.20733683
111	0xbfda8dfa	-1.7074578
112	0x3f164408	0.5869756
113	0x3d3fd818	0.046836942
114	0xc1064c35	-8.393605
115	0x3f10a2dd	0.5649851
116	0xbcf11928	-0.02943094
117	0xc010b99d	-2.261329
118	0x3e2a2268	0.16614687
119	0xc1922fb7	-18.273298
120	0xc0430c0d	-3.0476105
121	0xc0946fe0	-4.6386566
122	0x3f2be5ec	0.6714771
123	0xbfcd5181	-1.6040498
124	0xbfe0395d	-1.7517506
125	0xbf783343	-0.9695322
126	0x3e96a57d	0.29423133
127	0xbf96a755	-1.1769816
128	0x3ed9a04e	0.42505115
129	0x3f1e68ab	0.6187846
130	0xbeb6e885	-0.35724273
131	0x3d192ff7	0.03739926
132	0x3ed3c3f9	0.41360453
133	0xc0e75d71	-7.2301564
134	0x3f735d27	0.95064014
135	0x3f38db6f	0.7220983
136	0x3f68cdca	0.9093901
137	0x3f2021b9	0.62551457
138	0xbf8e88e3	-1.1135525
139	0x3e5a281c	0.21304363
140	0xbf5b8077	-0.85742897
141	0x3f354c93	0.7081997
142	0x3f5dacd5	0.86591846
143	0xc0881461	-4.2524877
144	0xbea0ab53	-0.3138071
145	0xbf1506a2	-0.58213246
146	0x3e2fbded	0.17162295
147	0xc07942e6	-3.8947082
148	0x3e289f5b	0.1646704
149	0x3ebd0344	0.36916554
150	0x3f8ce938	1.1008673
151	0xbe630a42	-0.22171882
152	0x3ea79307	0.3272936
153	0x3dce215c	0.100649565
154	0xc151c8c2	-13.111513
155	0x3f91cc37	1.1390446
156	0x3c5b4fa7	0.01338569
157	0xc014bc62	-2.323998
158	0x3e8469c7	0.25861952
159	0xc16da9d9	-14.853967

bias f4 [4]
0	0x3ede1337	0.43374035
1	0xbf9977cc	-1.1989684
2	0xbf0be749	-0.5464979
3	0xbf2a1c87	-0.6644978

weight f4 [40, 2]
0	0x401ec7a0	2.4809341
1	0x3f639c5c	0.8891046
2	0x3e9f039a	0.31057435
3	0xbf1c6211	-0.6108714
4	0xbead7efd	-0.33885947
5	0x3fc0cdc2	1.5062792
6	0xbe16f958	-0.14743555
7	0x3e7a5ae4	0.24448735
8	0xbf20a9c7	-0.6275906
9	0x3f28051f	0.65632814
10	0x3df3b0b3	0.11898937
11	0x3e87a87a	0.26495725
12	0x3f101d03	0.5629427
13	0x3f0bb0cf	0.54566664
14	0xbcfb7ea0	-0.030700028
15	0x3dcf7f48	0.10131699
16	0x402d507a	2.708037
17	0xbe8b7d8d	-0.27244225
18	0x3f294285	0.66117126
19	0x3f14f569	0.58186966
20	0xbf316dd4	-0.6930821
21	0x3f1e43f9	0.6182247
22	0x3f5e8e04	0.8693545
23	0x3f9e0c2e	1.2347467
24	0x3e609668	0.21932375
25	0xbfaebfef	-1.3652323
26	0xbe42ca33	-0.19022445
27	0x3f710b99	0.9415832
28	0x3e554b34	0.20829469
29	0xbe3774a8	-0.17915595
30	0x3ef5d70a	0.48015624
31	0xbe8084a1	-0.25101188
32	0x40098061	2.1484606
33	0x3f21b7ce	0.6317109
34	0x3e568dbc	0.20952505
35	0xbd127ba0	-0.03576243
36	0xbfa14e00	-1.2601929
37	0x3f3cc187	0.737328
38	0xbebe00d8	-0.3711002
39	0x3f80fba1	1.0076791
40	0xbc86af0b	-0.016440889
41	0x3f303ad9	0.68839794
42	0xbf28173f	-0.6566047
43	0xbffb271c	-1.962131
44	0xbebb6997	-0.36603996
45	0x40751906	3.8296523
46	0xbd94fc7d	-0.07274721
47	0xbfb3f05f	-1.405773
48	0x40118ff9	2.2744124
49	0xbfc36234	-1.5264344
50	0xc00f4c41	-2.2390292
51	0x3f9d788b	1.2302412
52	0xc0426494	-3.0373888
53	0x3d643731	0.055716697
54	0xbf497b9e	-0.7870425
55	0xbf61c4c6	-0.8819088
56	0x4044e7fa	3.0766587
57	0x3f76f7c5	0.96471816
58	0xbf7a079e	-0.9766787
59	0x3f0f5b48	0.5599866
60	0x3fd05e18	1.6278715
61	0xbd8647b6	-0.065566465
62	0x40237af6	2.55438
63	0xbf7ced34	-0.98799443
64	0xbf493675	-0.7859872
65	0x3f6ba959	0.9205528
66	0xbde24ed1	-0.11050189
67	0xbe76034c	-0.24024695
68	0x3e2be727	0.16787396
69	0xc002f74f	-2.0463445
70	0x4017fdff	2.3748777
71	0x3ca24625	0.019808838
72	0xbcc20100	-0.023682117
73	0xbd862708	-0.06550413
74	0xbe925f44	-0.28588307
75	0xbe6f7ade	-0.23386714
76	0xbfa687ef	-1.3010234
77	0xbf7e137c	-0.9924848
78	0xbf98ea9b	-1.1946596
79	0x3f5c928f	0.8616113

bias f4 [40]
0	0x3ef34e5d	0.47520724
1	0xbf07ef15	-0.53099185
2	0x3ecc9964	0.39960778
3	0xbf27299e	-0.6529788
4	0xbf2b553a	-0.6692692
5	0xbe512068	-0.20422518
6	0xbef7c1dd	-0.48390093
7	0xbf0a35a1	-0.5398808
8	0x3fc9179b	1.5710329
9	0xbf05dbd6	-0.5228857
10	0xbf1e10b3	-0.6174423
11	0x3f942c78	1.1576071
12	0x3dd177a6	0.10227899
13	0x3f2a5143	0.66530246
14	0xbefe37b0	-0.4965186
15	0xbf181ede	-0.594221
16	0x3eeacb8a	0.45858413
17	0xbec402d4	-0.38283408
18	0x3ef2021b	0.4726723
19	0x3df78b6e	0.12087141
20	0x3f8fefe5	1.1245085
21	0x3dc205f2	0.0947379
22	0x3fb47a32	1.4099791
23	0x3edc361f	0.4301004
24	0x3f0db94b	0.5536086
25	0xbfb1ed09	-1.3900462
26	0x3ebfb2d7	0.3744113
27	0xbf07cf9e	-0.53051174
28	0x3f7e8a4c	0.99429774
29	0x3f19fb3b	0.6014897
30	0xbf554387	-0.83306164
31	0x3fbf0050	1.492197
32	0x3f3e575a	0.7435204
33	0xbe79db43	-0.24400048
34	0x3f1c94c3	0.6116449
35	0x3fd7f644	1.6872029
36	0xbed74ba8	-0.4204991
37	0xbf3063c6	-0.6890224
38	0x3f3b252c	0.73103595
39	0x3f4a2348	0.78960085

weight f4 [40, 40]
0	0xbf2c9e44	-0.67428994
1	0xbb50bc80	-0.0031850636
2	0xbec5e2d2	-0.38649613
3	0xbda101bd	-0.0786166
4	0xbc804410	-0.015657455
5	0xbdfab57f	-0.12241649
6	0x3da5c570	0.08094299
7	0xbd621d2e	-0.05520361
8	0xbf1d30aa	-0.6140238
9	0xbdf0fd42	-0.11767055
10	0x3db832b6	0.08994047
11	0xbec9732f	-0.3934569
12	0xbf2d9e02	-0.67819226
13	0xbe91d9b8	-0.2848642
14	0x3dcd13b6	0.10013525
15	0xbe17caa5	-0.14823397
16	0xbf1b8f37	-0.60765404
17	0xbdb87da7	-0.09008341
18	0xbf305f1c	-0.68895125
19	0xbeedbad6	-0.46431607
20	0xbf47a438	-0.7798495
21	0xbe9ab21e	-0.30214018
22	0xbe8adada	-0.27120095
23	0xbf059208	-0.5217595
24	0xbf0cd4e7	-0.55012363
25	0xbd037cc7	-0.03210142
26	0x3e3fd7ce	0.18734667
27	0xbe0fbefe	-0.14037701
28	0xbec01b41	-0.37520793
29	0xbf060c02	-0.5236207
30	0xbeee1339	-0.4649904
31	0xbee46b4d	-0.44613114
32	0xbef295f0	-0.47380018
33	0xbd202b91	-0.03910405
34	0xbec50a0e	-0.38484234
35	0xbf2c7d50	-0.6737871
36	0x3cfc94a0	0.030832589
37	0xbd8acb99	-0.067771144
38	0xbeade4d0	-0.33963633
39	0xbf296e18	-0.66183615
40	0x3ebd9193	0.37025127
41	0x3de7252a	0.11286385
42	0x3ee79dca	0.4523757
43	0x3da2d5ae	0.079509124
44	0x3d09fb5c	0.03368698
45	0xbd37bb49	-0.044856343
46	0xbdcfa317	-0.10138529
47	0x3da0f1d6	0.078586265
48	0x3eca9c0f	0.39572188
49	0xbdcd23ed	-0.10016618
50	0xbd8755e7	-0.066081814
51	0x3ed2895d	0.41120425
52	0x3f0f4ad9	0.55973583
53	0x3de9b551	0.114115365
54	0xbe0c7663	-0.13717036
55	0xbcd16950	-0.025562912
56	0x3ec786b6	0.38969964
57	0x3dbb2d12	0.09139456
58	0x3eb73814	0.35784972
59	0x3ee1845f	0.44046304
60	0x3ef3f66d	0.47648945
61	0x3f1cc2f9	0.61235005
62	0x3e3f2538	0.18666542
63	0x3f11a570	0.5689306
64	0x3ef0c7f0	0.4702754
65	0xbe8bdb33	-0.27315673
66	0xbf111275	-0.5666879
67	0x3ec60dbb	0.3868235
68	0x3c08cad3	0.008349138
69	0x3f135b65	0.5756133
70	0x3e57160c	0.21004504
71	0x3ed5ef51	0.41784146
72	0x3ec41e8a	0.3830455
73	0x3c7a2db2	0.015269684
74	0x3f099036	0.53735673
75	0x3ea4331b	0.3207024
76	0xbd681e76	-0.056669675
77	0xbc8d7d70	-0.017271727
78	0x3f062aa7	0.5240883
79	0x3ea07a88	0.31343484
80	0x3f34e66e	0.7066411
81	0x3dcbdc12	0.099540845
82	0x3e885672	0.26628453
83	0x3e1ea4b5	0.15492518
84	0xbd957ec1	-0.07299567
85	0xbe4e497b	-0.20145218
86	0xbd14eb0a	-0.036356963
87	0xbc8fb2a0	-0.01754123
88	0x3e3157ab	0.17318599
89	0xbb840940	-0.004029423
90	0x3cf55a30	0.029950231
91	0x3d2f981f	0.042869683
92	0x3f32efad	0.69896966
93	0x3ea06924	0.31330216
94	0xbe03b853	-0.12863283
95	0xbd3ac192	-0.04559476
96	0x3f875bff	1.057495
97	0xbd239828	-0.03994003
98	0x3e3e5a2a	0.18589082
99	0x3ec8bb71	0.39205506
100	0x3e6db6b2	0.23214224
101	0x3f82cdbf	1.0219039
102	0x3f552c56	0.83270776
103	0x3f0a5e96	0.54050577
104	0x3e6eedf2	0.23332956
105	0xc0226d07	-2.5379045
106	0xbf7ebbae	-0.99505126
107	0x40081192	2.1260724
108	0x3f7ceab5	0.98795635
109	0x3d5aea8c	0.053446338
110	0x3e6799e1	0.22617294
111	0x3e86e5af	0.2634711
112	0x3e337608	0.17525494
113	0x3de5896b	0.11207851
114	0x3f95560d	1.1666886
115	0xbcb03754	-0.021510758
116	0x3dd68486	0.104744956
117	0xbd9aaf6a	-0.07552989
118	0x3f2ac3b3	0.66704863
119	0x3ef91ab1	0.48653176
120	0xbf115a9c	-0.56778884
121	0xbde2f5b6	-0.11082022
122	0xbec2c0e6	-0.38037795
123	0x3e17682f	0.14785837
124	0xbd75d1a0	-0.060014367
125	0x3dcab409	0.0989762
126	0x3e0d28f1	0.13785149
127	0x3dcd8e12	0.100368634
128	0x3d97af5d	0.07406495
129	0xbd47b2d2	-0.04875452
130	0xbccc7090	-0.024956018
131	0xbf295472	-0.6614448
132	0x3e01cfc4	0.12676913
133	0xbf5d6346	-0.86479604
134	0xbd6b1f8c	-0.057403132
135	0xbd2c2f72	-0.042037435
136	0xbf1b6dd0	-0.60714436
137	0x3df2e282	0.11859609
138	0xbf1af036	-0.6052278
139	0xbeab0f2a	-0.33410007
140	0xbed02fc3	-0.4066144
141	0xbe2a0ff5	-0.1660765
142	0xbfe27ce0	-1.7694359
143	0xbe0401c3	-0.12891297
144	0x3e3be369	0.18348469
145	0xc067ebc5	-3.6237652
146	0xbda9b89e	-0.08287166
147	0xbe286b46	-0.16447172
148	0xbf437601	-0.76351935
149	0xbee67bef	-0.4501643
150	0xbfbcf906	-1.4763496
151	0xbc07c7e7	-0.0082874065
152	0xbf5cadfa	-0.8620297
153	0x3e537d64	0.20653301
154	0xbd51b79f	-0.051200505
155	0x3d7a897e	0.06116628
156	0xbd44c960	-0.04804361
157	0x3d8693f0	0.065711856
158	0xbe9542f2	-0.29152638
159	0xbf0e95f6	-0.5569757
160	0xbda99d2e	-0.08281933
161	0xbddfec4a	-0.109337404
162	0x3f13a9a9	0.57680756
163	0xbc9fe280	-0.019517183
164	0x3dbb30c6	0.09140162
165	0x3d884ca7	0.06655245
166	0x3ddd2a66	0.107991025
167	0x3a321b00	0.00067941844
168	0x3f1d2a6c	0.61392856
169	0x3d4fb320	0.050707936
170	0xbd294a9e	-0.041330926
171	0x3f428757	0.7598776
172	0x3edcf2da	0.4315403
173	0x3f2eabce	0.68230903
174	0xbd0428e8	-0.032265574
175	0xbbe39740	-0.0069455206
176	0xbe42a351	-0.19007613
177	0x3e08417d	0.13306232
178	0x3ed27300	0.41103363
179	0x3f165769	0.5872713
180	0x3f5768ca	0.8414427
181	0x3ebe4c8c	0.37167776
182	0x3fa94b03	1.3226017
183	0x3e8c0489	0.2734721
184	0x3eb32812	0.3499151
185	0xbf9847a1	-1.189686
186	0xc000251b	-2.0022647
187	0x3ec9f9c2	0.39448363
188	0x3c87e86f	0.016590325
189	0x3f288046	0.6582073
190	0xbd3bf86e	-0.045891218
191	0x3f052ee9	0.52024704
192	0x3f514797	0.8174986
193	0xbd81c353	-0.06336083
194	0x3ec965cd	0.3933548
195	0x3f6291af	0.88503546
196	0x3d9abe2e	0.07555805
197	0x3e193e0b	0.14965074
198	0x3ea7e687	0.32793066
199	0x3f2d310f	0.6765298
200	0xbda304b3	-0.07959881
201	0x3dd43ba6	0.103629395
202	0xbea8210f	-0.32837722
203	0xbc82a6f8	-0.015948758
204	0x3cf09478	0.02936767
205	0x3cc1fd52	0.023680363
206	0x3d73b020	0.059494138
207	0x3df3ffc2	0.11914016
208	0xbe974ac0	-0.29549217
209	0x3d91e058	0.07122868
210	0x3b190f80	0.0023355186
211	0xbeef2e4c	-0.4671501
212	0xbf3b1399	-0.7307678
213	0xbe4272a8	-0.1898905
214	0x3cf72878	0.030170664
215	0x3d249750	0.040183365
216	0xbe07010f	-0.13183998
217	0xbde3599f	-0.11101078
218	0xbeaef6ec	-0.3417276
219	0xbe7d4eb3	-0.24737053
220	0xbf03d34b	-0.5149428
221	0xbf4ca743	-0.7994272
222	0x3ddeccb2	0.10878886
223	0xbf496161	-0.78664213
224	0xbf39d0cf	-0.7258424
225	0xbed47fa8	-0.41503644
226	0x3f1692b7	0.5881762
227	0xbf6299bb	-0.88515824
228	0x3dfa319c	0.122164935
229	0xbf09624c	-0.53665614
230	0x3e0cd910	0.13754678
231	0xbef7ad65	-0.48374477
232	0xbea38b1a	-0.31942064
233	0xbdda85c5	-0.10670046
234	0xbf44e681	-0.7691422
235	0xbeea5806	-0.45770282
236	0xbdcf0c5a	-0.10109778
237	0xbe1dae2c	-0.15398473
238	0xbef3efb8	-0.47643828
239	0xbf19597e	-0.5990218
240	0x3d13a109	0.036042247
241	0x3de8b6da	0.11363001
242	0x3e660d50	0.22466016
243	0x3de274e2	0.1105745
244	0xb9b2a400	-0.00034072995
245	0x3e52a87b	0.20572083
246	0x3e099de5	0.13439138
247	0x3de8e4f6	0.11371796
248	0x3eec2079	0.46118525
249	0x3cf62730	0.030047983
250	0x3c3ab360	0.011395305
251	0x3ea832af	0.3285117
252	0x3f2f1de0	0.6840496
253	0x3ecc201c	0.39868248
254	0xbbdd32c0	-0.0067504346
255	0x3e063825	0.13107355

bias f4 [40]
0	0xbf3a6cd5	-0.72822315
1	0x3ee1ba40	0.4408741
2	0x3ee8a62a	0.45439273
3	0xbde06dda	-0.109584525
4	0x3efca4d9	0.4934452
5	0xbf1018af	-0.56287664
6	0x3f124b21	0.5714589
7	0x3f66d07a	0.9016186
8	0x3eb4ff4b	0.35351023
9	0x3f22a2eb	0.63529843
10	0x3e4f1e72	0.20226458
11	0xbf0d51ea	-0.55203116
12	0xbd051743	-0.032492887
13	0xbf228635	-0.63486034
14	0xbf0ffd01	-0.5624543
15	0x3f01d061	0.50708586
16	0x3efb0127	0.49024317
17	0x3f10f4d2	0.56623566
18	0x3e75f956	0.24020895
19	0xbe60dee7	-0.2196003
20	0x3f07e30d	0.53080827
21	0xbee6c075	-0.45068708
22	0xbcf37a1c	-0.029721312
23	0xbf1cf42e	-0.6131009
24	0x3eaa738b	0.33291277
25	0xbebb6613	-0.36601314
26	0x3f1880ad	0.59571344
27	0x3f1b4419	0.60650784
28	0xbeec1e2d	-0.46116772
29	0xbf2003da	-0.62505877
30	0xbf029552	-0.51009095
31	0xbede760f	-0.43449447
32	0xbf4ad10d	-0.79225236
33	0x3e9143c6	0.2837202
34	0x3e8c29c7	0.27375624
35	0x3f1be019	0.6088882
36	0xbc63e829	-0.013910332
37	0xbee2faff	-0.4433212
38	0x3f209c9c	0.62738967
39	0xbf10d316	-0.5657209

weight f4 [40, 40]
0	0xbf2b0508	-0.6680455
1	0x3e1cab2b	0.1529967
2	0x3e368bb9	0.17826737
3	0xbf076fa5	-0.5290473
4	0x3d8dda11	0.069263585
5	0xbe89cc04	-0.26913464
6	0x3e6170ab	0.22015636
7	0x3e929f8d	0.28637353
8	0x3f2d9b2f	0.67814916
9	0xbd4bc1d4	-0.049745396
10	0xbea23efd	-0.3168868
11	0xbf15d0ac	-0.58521533
12	0x3d056363	0.032565486
13	0xbe86cc32	-0.26327664
14	0xbeffb0bb	-0.49939522
15	0x3e4801cd	0.19531937
16	0x3e224341	0.15845968
17	0x3f028ad1	0.5099307
18	0x3e8504f0	0.2598033
19	0x3f0a7b5d	0.5409449
20	0x3e7f89da	0.2495493
21	0xbe33a100	-0.17541885
22	0x3ef0f503	0.4706193
23	0x3e9a6ee9	0.30162743
24	0x3ef6777c	0.48138034
25	0xbe3ae91f	-0.18252991
26	0xbe3b0259	-0.18262614
27	0x3e8356fc	0.256523
28	0xbed29cf6	-0.41135377
29	0xbe8be0b4	-0.27319872
30	0xbed1d9f2	-0.40986592
31	0xbf2689c8	-0.6505399
32	0xbf0f2cf0	-0.55927944
33	0x3f038ec5	0.51389724
34	0x3d68ee86	0.0568681
35	0x3ecb46f3	0.39702567
36	0x3f1329fb	0.5748593
37	0x3f8a23a7	1.079213
38	0x3e929a03	0.28633127
39	0xbf2b7e0b	-0.669892
40	0xbea758ed	-0.32685032
41	0x3ecdded1	0.40209058
42	0x3edf5ddb	0.43626294
43	0xbe7360cb	-0.23767392
44	0x3e46faa6	0.19431552
45	0xbef21c12	-0.4728704
46	0x3e57ffd2	0.21093681
47	0x3e367785	0.1781903
48	0x3eefa5ab	0.46806082
49	0xbdad1ed0	-0.08453143
50	0xbf5da4f0	-0.865798
51	0xbf12554c	-0.571614
52	0xbe9254bc	-0.28580272
53	0xbef6d621	-0.48210242
54	0xbed0bcb4	-0.4076897
55	0x3ebcf44b	0.3690513
56	0x3e9d1f14	0.30687773
57	0x3edbbf92	0.42919594
58	0xbf31be75	-0.6943124
59	0x3e64968d	0.22323056
60	0x3e99bfb7	0.3002908
61	0xbe905671	-0.2819095
62	0x3e1484d3	0.14503793
63	0xbec99c77	-0.39377186
64	0x3e08d793	0.13363485
65	0xbee9cdc9	-0.45664814
66	0xbdd8be3f	-0.105831616
67	0x3f213840	0.62976456
68	0xbefaf149	-0.4901221
69	0xbe6ccf8f	-0.23126052
70	0xbf1d586a	-0.61463034
71	0xbe55b8cd	-0.20871277
72	0xbf2b4557	-0.6690268
73	0x3ef760e1	0.483161
74	0x3ee87d12	0.4540792
75	0x3e293478	0.16523921
76	0x3dbd788a	0.092515066
77	0xbc500545	-0.012696569
78	0x3ee62529	0.44950226
79	0xbed91dad	-0.42405453
80	0x3f0e7ef1	0.5566245
81	0xbefc41b5	-0.4926888
82	0xbee96bf7	-0.45590183
83	0x3e571d21	0.21007206
84	0x3f5bf82f	0.85925573
85	0x3f437184	0.76345086
86	0xbeba9047	-0.364382
87	0x3e9a28cb	0.30109248
88	0xbea0d4b4	-0.3141228
89	0xbe844d5a	-0.25840265
90	0x3e43e3d6	0.19129881
91	0x3f324e4e	0.69650733
92	0xbc82600e	-0.015914943
93	0x3f1eda22	0.62051594
94	0x3f35964d	0.70932466
95	0xbf074e80	-0.52854156
96	0xbf2ce8a0	-0.6754246
97	0xbf300548	-0.6875806
98	0xbe941142	-0.28919417
99	0xbda0c266	-0.078495786
100	0xbeed9265	-0.46400753
101	0xbdd18553	-0.10230508
102	0xbeafac08	-0.34310937
103	0xbe3f5690	-0.18685365
104	0xbf24a787	-0.64318126
105	0x3edf4425	0.43606678
106	0xbe866ddf	-0.262557
107	0xbf4d0647	-0.80087703
108	0x3f2b0664	0.66806626
109	0x3f237b3e	0.6385993
110	0x3f2b3e8c	0.66892314
111	0x3ed023b1	0.4065223
112	0x3f08670d	0.53282243
113	0xbf429f3b	-0.76024216
114	0xbefc43a9	-0.4927037
115	0xbe975625	-0.2955791
116	0xbe41abc9	-0.18913187
117	0xbe125987	-0.14291964
118	0xbed5e2e2	-0.4177466
119	0x3e8a7771	0.27044252
120	0xbef04e22	-0.4693461
121	0x3f122973	0.57094496
122	0x3f08a8b9	0.5338245
123	0xbe10ff7e	-0.14159963
124	0xbe460468	-0.19337618
125	0xbebcf116	-0.36902684
126	0x3eefa5cc	0.4680618
127	0xbe75dd2c	-0.24010152
128	0x3ee5f114	0.4491049
129	0x3dba62a7	0.09100848
130	0xbd9cebdd	-0.07662175
131	0xbec6f13b	-0.3885592
132	0x3c8cf4dd	0.017206604
133	0xbf03dcea	-0.51508963
134	0xbecb1874	-0.39667094
135	0x3f56a912	0.8385173
136	0x3f08a31c	0.53373885
137	0x3f203751	0.62584406
138	0x3e583730	0.21114802
139	0x3ec3be06	0.38230914
140	0x3f27d7d6	0.65563715
141	0xbe3c139d	-0.18366857
142	0x3d479f8b	0.048736136
143	0xbca8ba6e	-0.02059671
144	0x3ef42956	0.47687787
145	0xbf2b3fde	-0.6689433
146	0x3e32fcee	0.17479298
147	0x3f20193c	0.62538505
148	0xbf1aabe7	-0.6041855
149	0xbeb1573d	-0.3463687
150	0xbf1cd62a	-0.6126429
151	0xbe8ba7d0	-0.27276468
152	0xbe7fc1c5	-0.24976261
153	0x3f404516	0.75105417
154	0x3ea81aed	0.32833043
155	0x3c78e9eb	0.015192489
156	0x3e4f1ad0	0.20225072
157	0xbe67d679	-0.22640409
158	0x3ec4b341	0.3841801
159	0xbef3f783	-0.47649774
160	0x3ed25272	0.41078526
161	0xbf0ed4b1	-0.5579329
162	0xbeb9f3a8	-0.36318707
163	0xbd2c3a26	-0.042047642
164	0xbe84ebea	-0.25961238
165	0x3e9bdc0f	0.3044133
166	0xbe0931a7	-0.13397847
167	0x3dcb67a4	0.09931877
168	0xbeaaff51	-0.33397916
169	0x3e26cabe	0.16288278
170	0x3eb37d96	0.35056752
171	0x3f05b034	0.5222199
172	0xbda8fa09	-0.082508154
173	0x3e8efbcf	0.2792649
174	0x3edeff56	0.4355418
175	0xbf03c4d8	-0.51472235
176	0xbea8bf53	-0.3295847
177	0xbea13e86	-0.31493014
178	0xbea74c87	-0.32675573
179	0x3d9f93cf	0.07791864
180	0xbec82c25	-0.3909618
181	0x3e388ad5	0.1802171
182	0xbe12ce4a	-0.14336506
183	0xbd4b4c3a	-0.049633242
184	0xbeb016c2	-0.34392363
185	0x3e4b7724	0.19869667
186	0xbdd8d388	-0.105872214
187	0xbf0714bf	-0.5276603
188	0x3e8ef759	0.27923086
189	0x3ecabb2d	0.3959593
190	0x3e843c5d	0.25827304
191	0x3e6ce12e	0.23132774
192	0x3efc1d1e	0.49240965
193	0xbededcb4	-0.43527758
194	0xbe857a0c	-0.26069677
195	0x3d55d611	0.052206103
196	0xbe64e3f2	-0.22352579
197	0xbe0a6407	-0.1351472
198	0xbeb1e576	-0.34745377
199	0x3eeb4ef6	0.4595868
200	0x3ec26bea	0.37972957
201	0xbed981d7	-0.42481872
202	0xbefd7e3f	-0.4951038
203	0x3d7199bf	0.058984514
204	0x3dfeffba	0.1245112
205	0x3f1964c0	0.5991936
206	0xbef283e6	-0.47366256
207	0x3e08654a	0.13319889
208	0xbf0fa62b	-0.5611293
209	0xbe310fc0	-0.17291164
210	0x3e17ae9e	0.14812705
211	0x3f340838	0.7032504
212	0x3e27a522	0.16371587
213	0x3f00a655	0.502538
214	0x3f2a5076	0.66529024
215	0xbf0f7559	-0.56038433
216	0xbf2f304b	-0.68433064
217	0xbf04dfc7	-0.5190396
218	0xba1651da	-0.0005734243
219	0xbea2c7e4	-0.3179313
220	0xbed3ffd8	-0.4140613
221	0x3e83b818	0.2572639
222	0xbe313bf6	-0.1730803
223	0xbdee8a51	-0.116474755
224	0x3dd6c8b2	0.10487498
225	0x3f129d60	0.57271385
226	0xbdbb4be2	-0.09145333
227	0xbf10fcce	-0.5663575
228	0x3f3010d4	0.6877568
229	0x3e01e2b1	0.12684132
230	0x3f317d94	0.6933224
231	0x3eb05942	0.34443098
232	0x3efd06a4	0.4941913
233	0xbf1376d5	-0.576032
234	0xbe8f4530	-0.27982473
235	0xbe0dd039	-0.13848962
236	0xbe2240cd	-0.15845032
237	0xba95ee68	-0.0011438848
238	0xbeda253a	-0.42606527
239	0x3f1b2bd0	0.6061373
240	0x3f0c7278	0.54862165
241	0xbeeef622	-0.4667216
242	0xbea44495	-0.32083574
243	0x3e73f14c	0.23822516
244	0xbe90706c	-0.2821077
245	0x3ecef968	0.40424657
246	0xbe910748	-0.28325868
247	0x3dac0b23	0.08400562
248	0xbf558cd5	-0.8341802
249	0x3e7a457b	0.24440567
250	0x3f980583	1.1876682
251	0x3e3bdd8a	0.18346229
252	0x3c9e337c	0.019311659
253	0x3eddd8ae	0.43329376
254	0x3e2cbad4	0.16868144
255	0xbf1de5ba	-0.6167866

bias f4 [40]
0	0x3ed3dd8f	0.41379973
1	0x3eb4f402	0.35342413
2	0xbeff9952	-0.49921662
3	0x3ef77e43	0.48338518
4	0xbedb4e64	-0.42833245
5	0xbf2379be	-0.6385764
6	0xbebdaf2a	-0.37047702
7	0x3ec140ee	0.3774485
8	0xbede3dad	-0.4340643
9	0x3e5e1eed	0.21691485
10	0x3ed4600f	0.41479537
11	0xbe9c86f0	-0.305717
12	0xbf054674	-0.5206063
13	0x3f219aa3	0.6312658
14	0x3ee469d2	0.44611984
15	0x3f0d7b86	0.55266607
16	0x3e8493d3	0.2589403
17	0x3e912ed4	0.2835604
18	0xbf04b896	-0.51844156
19	0x3f09512b	0.5363948
20	0xbe7fde22	-0.2498708
21	0xbed6fbd0	-0.41988993
22	0xbf0cd6f5	-0.550155
23	0x3f2d27b3	0.676387
24	0xbf1404e0	-0.5781994
25	0x3e975791	0.29558995
26	0xbeb60455	-0.3555018
27	0xbf012c8f	-0.50458616
28	0x3ed4497f	0.41462323
29	0x3eb72ee6	0.35777968
30	0xbf3f5a3c	-0.7474706
31	0xbe555bc8	-0.20835793
32	0xbf08c8c3	-0.5343134
33	0xbeec0eb8	-0.4610498
34	0xbf0ae2f8	-0.54252577
35	0xbede6384	-0.434353
36	0xbeb968f3	-0.36212882
37	0xbee52ba4	-0.44759858
38	0xbdd345d7	-0.10316055
39	0xbedcf127	-0.43152735

weight f4 [1, 40]
0	0x3e179979	0.14804639
1	0x3f5904b3	0.84772795
2	0xbeb9f54e	-0.36319965
3	0x3eaac647	0.333544
4	0xbea7e7c6	-0.32794017
5	0xbe8c749e	-0.27432722
6	0xbdf27e28	-0.11840469
7	0x3e4dabcc	0.20085067
8	0xbe843e59	-0.25828817
9	0x3e9106bd	0.28325453
10	0x3e487827	0.19577084
11	0xbecfcd1b	-0.4058617
12	0xbeab4b99	-0.33456114
13	0x3ebc1ead	0.36742154
14	0x3f17bb29	0.5926996
15	0x3e9a7652	0.30168396
16	0x3e9e93f0	0.30972242
17	0x3e7f298f	0.24918197
18	0xbe8e1a3f	-0.277544
19	0x3e9b1b8d	0.30294457
20	0xbdee3f03	-0.11633112
21	0xbe8c97ab	-0.27459463
22	0xbe47d537	-0.19514929
23	0x3f152845	0.5826457
24	0xbe6f1f9e	-0.23351905
25	0x3f0962fe	0.53666675
26	0xbe738e36	-0.23784718
27	0xbe92d749	-0.28679875
28	0x3eca2fd3	0.39489612
29	0x3ec3284c	0.38116682
30	0xbec0793c	-0.37592494
31	0xbed38b9d	-0.41317454
32	0xbe94418b	-0.28956255
33	0xbe9f6ef0	-0.31139326
34	0xbea88c94	-0.32919753
35	0xbf0df2dd	-0.55448705
36	0xbe5e74d5	-0.21724255
37	0xbf106187	-0.56398815
38	0xbeda0380	-0.42580795
39	0xbef59ad2	-0.4796968

weight f4 [40, 2]
0	0x3fd98d35	1.6996218
1	0xbeb8028f	-0.35939452
2	0xc008e646	-2.1390548
3	0x4041eee5	3.030206
4	0xc056151e	-3.345039
5	0xc0256fa2	-2.5849385
6	0x3ee78a20	0.4522257
7	0xbfbffa54	-1.4998269
8	0x3d615520	0.055012822
9	0xbee7ed04	-0.45298016
10	0xbfcbb18b	-1.5913557
11	0xbf262500	-0.6490021
12	0x3f8478f0	1.0349407
13	0xbef59904	-0.47968304
14	0x3eac3c46	0.33639735
15	0xbfafccb0	-1.3734341
16	0xc034a783	-2.822724
17	0xbfa0a678	-1.2550802
18	0x3f90b0af	1.130392
19	0xbf8de338	-1.1084967
20	0x407a4c76	3.9109168
21	0xbf83ec25	-1.030644
22	0xbf5a6cdd	-0.8532236
23	0x3d533475	0.0515637
24	0xc082a9ca	-4.083226
25	0xc016c3ba	-2.3556962
26	0x3fa2d323	1.2720684
27	0xbf1db2a9	-0.6160074
28	0x3f95a720	1.1691628
29	0xbe5138d5	-0.20431836
30	0x3e17d47c	0.1482715
31	0xbe8e48b7	-0.27789852
32	0xbed8954d	-0.42301407
33	0xbeb3aae0	-0.35091305
34	0x3f9a6cc5	1.2064444
35	0x3d2ba051	0.041900937
36	0x3f85a950	1.0442295
37	0xbf6d3ee3	-0.9267408
38	0x3fb441d7	1.4082593
39	0x3fcb7b92	1.5897086
40	0xbfcb7936	-1.5896366
41	0x3f8315f2	1.0241072
42	0x403ac9ae	2.9185596
43	0xc0577c76	-3.3669715
44	0x4034834e	2.8205142
45	0xbfe3118f	-1.7739733
46	0xc087a5d1	-4.2389913
47	0xc04753e0	-3.1144943
48	0x3e1057a7	0.14095937
49	0x3fbc683a	1.4719307
50	0xbd98a60c	-0.07453546
51	0x3dd6a0cc	0.10479888
52	0xbf662817	-0.8990492
53	0x3fcba071	1.5908338
54	0xbf5a90d8	-0.85377264
55	0x3f460283	0.7734758
56	0xc012293a	-2.2837663
57	0xbdd2a4c4	-0.10285333
58	0xbe938e3d	-0.28819457
59	0x3eeff09e	0.46863264
60	0xbfcb1a6c	-1.5867438
61	0xbf551083	-0.8322832
62	0xbfec1318	-1.8443327
63	0xbecb06be	-0.3965358
64	0xc0354ebe	-2.832931
65	0xbf1b977d	-0.6077803
66	0x3f632a42	0.88736355
67	0x3f5f6ef1	0.8727866
68	0x3f403241	0.7507668
69	0x3e67e9f8	0.22647846
70	0x3ec3b20c	0.38221776
71	0x40817389	4.0453534
72	0x3fa5fca4	1.2967725
73	0x3ebd115e	0.36927313
74	0xbe1e79dc	-0.15476173
75	0x3ea592b6	0.32338494
76	0xbf4d28e2	-0.8014051
77	0x405deccf	3.4675786
78	0xbfed3f07	-1.853486
79	0x3fa221b8	1.266654

bias f4 [40]
0	0x3f979010	1.1840839
1	0x3d854605	0.06507496
2	0x3fc4ba1b	1.5369295
3	0x3fe538c2	1.7907946
4	0xbf33e192	-0.7026607
5	0x3e817dff	0.2529144
6	0x3da750e3	0.08169725
7	0x3f11bcdc	0.569288
8	0x3eba8176	0.36426896
9	0x3fb5a5fe	1.4191282
10	0x3fabe3e5	1.3428923
11	0x3fa0a5d5	1.2550608
12	0x3e83543b	0.256502
13	0xbe8ff97b	-0.28120026
14	0x3ef51f68	0.47875524
15	0xbf329b76	-0.69768465
16	0xbe90692d	-0.28205243
17	0x3f8cc146	1.0996482
18	0x3d73694b	0.059426587
19	0xbe060674	-0.13088399
20	0x3f24429f	0.64164156
21	0x3fbc8df2	1.4730818
22	0x3fab9401	1.3404542
23	0x3fb324a5	1.3995558
24	0xbf7cf8e6	-0.9881729
25	0x3f2e333f	0.68046945
26	0x3f3d5698	0.73960257
27	0xbe40bafc	-0.18821329
28	0x3f29ae0f	0.6628122
29	0xbf2ed488	-0.68293047
30	0x3eea428a	0.4575389
31	0xbecae2b8	-0.39626098
32	0x3e0b96ed	0.13631792
33	0xbf92231c	-1.1416965
34	0x3f7fd4b2	0.9993392
35	0x3e2d82cf	0.16944431
36	0x3f801b4a	1.0008328
37	0xbedee1d4	-0.43531668
38	0x3eb8708b	0.36023363
39	0x3ec65146	0.38733882

weight f4 [40, 40]
0	0x3edde2ec	0.4333719
1	0x3f807eb9	1.0038673
2	0xbe0c8504	-0.13722616
3	0x3e94ebeb	0.2908624
4	0xbd82a433	-0.06378975
5	0x3eaabcb3	0.3334709
6	0x3ea82867	0.32843325
7	0x3e369402	0.17829898
8	0x3f6998b2	0.9124862
9	0x3e24c4de	0.16090724
10	0x3e4ae0dd	0.19812341
11	0x3f86d0f8	1.0532522
12	0x3e86a08d	0.26294366
13	0xbe859810	-0.26092577
14	0x3dade58c	0.08491048
15	0xbdfc8c94	-0.12331501
16	0xbd3c6cd4	-0.046002224
17	0x3f094c40	0.53631973
18	0x3f1a19d1	0.6019564
19	0xbdab7274	-0.083714396
20	0x3f0ff007	0.5622563
21	0x3dce0fc8	0.10061604
22	0x3ebb4917	0.365792
23	0xbd2700f6	-0.0407724
24	0xbf06b85c	-0.5262506
25	0x3f4dcb66	0.80388486
26	0x3f941b68	1.1570864
27	0x3e72eed2	0.23723915
28	0x3fac685d	1.3469349
29	0xbd34f3a6	-0.044177674
30	0x3ee932b9	0.4554651
31	0xbdc31607	-0.09525686
32	0x3f85863a	1.0431588
33	0x3e6527e9	0.22378506
34	0x3f152ca5	0.5827125
35	0x3f763efd	0.9618986
36	0x3f07e211	0.53079325
37	0x3d8ed8e2	0.06974961
38	0x3f0cbf0e	0.54979026
39	0x3f3e680e	0.74377525
40	0xbe0ac8f8	-0.13553226
41	0xbe8e1c36	-0.27755898
42	0xc0129761	-2.2904894
43	0xbeb4dbb0	-0.35323858
44	0x3e029da5	0.12755449
45	0x3cb6fd82	0.022337679
46	0xbe53e198	-0.20691526
47	0xbf697aca	-0.91202986
48	0xbc9f37ff	-0.01943588
49	0xbecd0fc3	-0.40051088
50	0xbefe840e	-0.49710125
51	0xbe63bef0	-0.22240806
52	0xbf3cae46	-0.7370342
53	0xbf9c7c8f	-1.2225512
54	0xbeab0586	-0.33402652
55	0xbd956482	-0.07294561
56	0x3e089bd1	0.13340689
57	0xbe38c19a	-0.18042603
58	0xbf309257	-0.68973297
59	0xbf1c8d85	-0.6115344
60	0x3e0f1c6a	0.13975683
61	0xbf06dce7	-0.5268082
62	0xbf5abd79	-0.8544536
63	0xbf9011f9	-1.1255485
64	0xbf353705	-0.7078708
65	0xbe5af883	-0.21383862
66	0xbeea6ee3	-0.45787725
67	0x3ea1c229	0.31593445
68	0xbec93aff	-0.39302823
69	0x3e1e1167	0.15436326
70	0x3da41042	0.080109134
71	0xbe428f49	-0.18999971
72	0x3ef41c74	0.47677958
73	0xbec7cd56	-0.39023846
74	0xbdfa7b09	-0.12230498
75	0xbf4440e5	-0.7666152
76	0xbe24ac3c	-0.16081327
77	0x3b4eb780	0.003154248
78	0xbe575059	-0.21026744
79	0xbe8c1fdb	-0.27368054
80	0xbe6d5213	-0.2317584
81	0xbeb788bb	-0.35846505
82	0xbf4d895a	-0.80287707
83	0xbeaf454f	-0.34232566
84	0x3d9fd388	0.07804018
85	0xbe9b1727	-0.302911
86	0xbdf633bf	-0.120215885
87	0xbeee3317	-0.46523353
88	0xbe853ef0	-0.2602458
89	0xbeaf0e5c	-0.34190643
90	0xbecef237	-0.4041917
91	0xbf0c6412	-0.54840195
92	0xbe36d5c5	-0.17854984
93	0xbde51dce	-0.111873254
94	0xbec78022	-0.38964945
95	0x3de1d352	0.11026634
96	0xbdb94164	-0.090456754
97	0xbeb1b922	-0.34711558
98	0xbec4b13d	-0.38416472
99	0x3cf5d245	0.03000749
100	0xbef07d73	-0.4697071
101	0xbe89dc10	-0.26925707
102	0xbf80fd03	-1.0077213
103	0xbf68cc79	-0.90937
104	0x3eaf50b2	0.34241253
105	0xbee46e44	-0.44615376
106	0xbf56a79d	-0.8384951
107	0xbe76a9f6	-0.24088272
108	0xbe502c57	-0.20329414
109	0xbd5a1db8	-0.053251
110	0xbead42df	-0.3384008
111	0xbd88a698	-0.066724
112	0xbf7da806	-0.9908451
113	0x3daa42c4	0.08313516
114	0xbeb0184e	-0.34393543
115	0xbf08e4be	-0.5347403
116	0xbea371a1	-0.3192263
117	0xbd586bd6	-0.052837215
118	0xbec69b61	-0.3879042
119	0xbee24866	-0.4419586
120	0x3faca675	1.3488299
121	0x3d693d49	0.05694321
122	0x3f474bd0	0.77850056
123	0x3fe1cd7c	1.7640834
124	0xbdb6f1a3	-0.08932807
125	0x3eae1138	0.33997512
126	0x3f78c2a0	0.97171974
127	0x3fafd967	1.3738221
128	0xbd097c78	-0.03356597
129	0x3f96c16e	1.177778
130	0x3fa3dd9b	1.2802004
131	0x3f439463	0.76398295
132	0x3fa630f6	1.2983692
133	0x4003b04a	2.0576348
134	0x3fc3c6d8	1.5295057
135	0x3d5d6fec	0.054061815
136	0xbd3017fc	-0.042991623
137	0x3f486ea3	0.7829382
138	0x3f3535f9	0.7078548
139	0x3ea1997d	0.31562415
140	0x3f25bcfe	0.64741504
141	0x3f4b2f47	0.79369015
142	0x3f63aa81	0.88932043
143	0x3f8c093e	1.094032
144	0x3f8f7d6f	1.1210154
145	0x3f17ee6a	0.59348166
146	0x3e6726be	0.22573373
147	0x3f2d8dea	0.6779467
148	0x3ea9b48b	0.33145556
149	0x3e0d670f	0.13808845
150	0x3e686128	0.22693312
151	0x3f278272	0.6543342
152	0xbe2872e0	-0.16450071
153	0x3e80c6eb	0.25151762
154	0x3fc1e337	1.5147465
155	0xbe0eef30	-0.1395843
156	0x3f35329c	0.7078035
157	0x3c88f460	0.01671809
158	0x3deb4713	0.11488166
159	0xbc5eb0dd	-0.013591972
160	0x40232ba0	2.5495377
161	0xbfc8346e	-1.5641
162	0x4043d279	3.0597212
163	0x3f9cc525	1.2247664
164	0x3dc167ce	0.09443627
165	0x3eb1b08f	0.34705016
166	0x3f3cdc86	0.7377399
167	0x3fa0100f	1.2504901
168	0x3f138c55	0.57636005
169	0x3f8bd56a	1.0924504
170	0x3eea58ac	0.45770776
171	0x3f3517f7	0.7073969
172	0x40075cbf	2.1150358
173	0x3f78a132	0.97120965
174	0x3f751d4d	0.95747834
175	0x3dcc964e	0.09989606
176	0xbc09d2a0	-0.008412033
177	0x3f35a86d	0.7096012
178	0x3f26c590	0.65145206
179	0x3dfb4334	0.12268677
180	0x3e4eafde	0.20184276
181	0x3de57907	0.11204725
182	0xbf381604	-0.71908593
183	0x4020b8c7	2.511278
184	0x3edd37c9	0.43206623
185	0x3f314ab1	0.69254595
186	0xbf5614e3	-0.8362562
187	0x3ee52980	0.44758224
188	0xbf101692	-0.5628444
189	0x3d8a9a2c	0.06767687
190	0x3f522075	0.82080775
191	0xbf4b0273	-0.7930061
192	0xbf49c3e9	-0.7881456
193	0xbe3dba2d	-0.18528052
194	0x3f405bda	0.75140154
195	0x40178a55	2.367818
196	0x3f0d2ad8	0.551435
197	0x3b638a00	0.0034719706
198	0x3f294b2d	0.66130334
199	0xbacf8b39	-0.0015834338
200	0xbdd813ca	-0.105506495
201	0x3f09d537	0.53840965
202	0xbbee3e99	-0.007270646
203	0x3f1d1314	0.61357236
204	0xbd9c2637	-0.076244764
205	0x3e1361dd	0.143928
206	0x3f003571	0.50081545
207	0x3e7ce1bf	0.2469549
208	0x3da51c28	0.08062011
209	0x3f0a1a57	0.5394644
210	0x3ec13881	0.37738422
211	0x3f5e957b	0.8694684
212	0xbd18145e	-0.0371288
213	0x3e25e66e	0.16201183
214	0x3f273733	0.653186
215	0x3d3d493c	0.04621242
216	0x3cccbd40	0.024992585
217	0x3f33cbfd	0.70233136
218	0x3ee2baf9	0.44283274
219	0x3f3045fe	0.688568
220	0x3e7a492d	0.24441977
221	0x3e842d0d	0.2581562
222	0xbd20bfd6	-0.03924545
223	0xbe36b205	-0.17841347
224	0x3ebb35ae	0.36564392
225	0x3f2a9979	0.6664043
226	0x3f825e95	1.0185114
227	0x3ef31038	0.4747331
228	0x3f548e8c	0.8303001
229	0x3d85ce76	0.0653352
230	0x3eaf60be	0.34253496
231	0x3e929334	0.28627932
232	0x3fc7db95	1.5613886
233	0x3f0bc7a3	0.54601496
234	0x3f4ce22d	0.80032617
235	0x3f92cf0d	1.1469437
236	0x3f3f16a7	0.7464394
237	0x3d0a3744	0.03374411
238	0x3f5bfc48	0.85931826
239	0x3eac1225	0.33607593
240	0xbf8d9475	-1.106093
241	0x40068ecb	2.1024654
242	0x3deb19ed	0.11479554
243	0xbf372ee9	-0.71555954
244	0x3e18f33f	0.14936541
245	0x3f00b780	0.5028
246	0xbf119513	-0.56868094
247	0xbf516384	-0.81792474
248	0x3f6c9707	0.9241795
249	0xbf0b983e	-0.5452918
250	0xbf4a78f5	-0.79090816
251	0xbe65b203	-0.22431187
252	0x3fd8d137	1.6938847
253	0x3ed46dda	0.4149006
254	0xbf6da02a	-0.92822516
255	0x3d6b5060	0.0574497

bias f4 [40]
0	0x3f1c41ab	0.610377
1	0xbe83ed1c	-0.25766838
2	0xbe9259e5	-0.2858421
3	0x3f087c24	0.53314424
4	0x3f2df48b	0.6795127
5	0x3f5de725	0.86680824
6	0xbeb291a9	-0.34876755
7	0xbf0dd9e3	-0.55410594
8	0x3f062f30	0.5241575
9	0xbe48054e	-0.19533274
10	0xbef279d0	-0.4735856
11	0x3e9a1a4b	0.30098185
12	0xbef6e6b9	-0.48222902
13	0xbf23e65e	-0.6402339
14	0xbf682716	-0.9068464
15	0xbf10379e	-0.56334865
16	0xbe931892	-0.28729683
17	0x3f2e44a7	0.68073505
18	0x3f45d70f	0.7728128
19	0xbf1021e6	-0.56301725
20	0x3f31bac6	0.6942562
21	0x3deb86bc	0.11500308
22	0x3f057997	0.52138656
23	0xbf5efe8e	-0.8710717
24	0x3e93417e	0.28760904
25	0x3f03919b	0.5139405
26	0x3f06a0c9	0.5258909
27	0xbf2eb3ac	-0.6824291
28	0x3f10c58f	0.5655145
29	0xbde9d28a	-0.1141711
30	0x3ec26a8e	0.3797192
31	0x3f0decf1	0.5543967
32	0x3f150ea4	0.58225465
33	0x3f3f4691	0.7471705
34	0xbf1319d7	-0.57461303
35	0x3e1122b4	0.14173394
36	0x3f0243d2	0.50884736
37	0x3f34167e	0.7034682
38	0xbf468a76	-0.77555025
39	0x3f13f244	0.57791543
