[Other models]/min_func_5.pt (torch_old, 66278 bytes, 27 tensors)

weight f4 [40, 2]
00000000: e3b7 c63f 478e 91bf 0bfc 6b40 3221 b6be
00000010: 17ae ab3f 418a a3bf fc9b 4ebf 1c22 d0bc
00000020: 1f3e 6dbf aec3 243e 3978 8b3f 3ec7 57bf
00000030: 5141 4ebf 7eb0 4ebd 1e89 593c 6163 743e
00000040: 597c 093d 522c 933e 0d7e 1640 5600 8cbf
00000050: 328e 2d41 a949 9ec0 60df 3abf da57 aabd
00000060: aa37 023f be26 09be 6289 78bf 3702 1b3f
00000070: 3bf0 93bf d117 2f3e 201c f53f 94a6 43bf
00000080: 8da7 99bf 521c 7c3e ac42 57bf 3545 a53e
00000090: 8e8c 0a40 bca9 1abf 543c e1be 1a25 d63d
000000a0: ea7b 813e 4252 9bbe 5f2e 5240 81b8 34bf
000000b0: b572 9540 d525 8fbf 04ac 4740 c271 73bf
000000c0: a077 fe3e 0e82 34bf a1eb 85be 2e3f 613e
000000d0: 308b 5a40 211c 88bf b74a f2bd 44c3 cf3e
000000e0: 9106 6abf c5b7 853e 0c39 263f b822 4ebe
000000f0: 6f85 f03f 98df 1cc0 9250 743f b702 6d3d
00000100: a73f 5a3f 2887 94bf d7a4 2e40 864a 2abf
00000110: a3b5 0bbd fe9c 0d3f 37b1 7c3e d4c4 c43c
00000120: e75e 3840 cf9e b7be d3bd 84bf 1ef7 e13d
00000130: fdf3 3abf 1a52 013f 1fe5 c840 1eab b5bf
1.5524868 -1.1371545 3.6872585 -0.355722 1.3412503 -1.2776567 -0.80706763 -0.02540689
-0.92672914 0.16090271 1.0896064 -0.84288394 -0.80568415 -0.050461285 0.01327732 0.23866035
0.033565853 0.2874475 2.3514435 -1.0937603 10.847216 -4.9464917 -0.72997093 -0.083175376
0.50866187 -0.13393685 -0.9708463 0.60550255 -1.1557688 0.17098929 1.9149208 -0.76426053
-1.2004257 0.24620178 -0.8408611 0.32279363 2.1648288 -0.60415244 -0.4399134 0.10456295
0.2528985 -0.30336195 3.2840803 -0.7059403 4.6702523 -1.118342 3.119874 -0.95095456
0.49700642 -0.7051095 -0.26156333 0.21996757 3.4147453 -1.0633584 -0.11830657 0.40578663
-0.9141627 0.26116768 0.64930797 -0.20130432 1.8790721 -2.451147 0.9543544 0.057863917
0.85253376 -1.1603746 2.728811 -0.66519964 -0.03410877 0.55317676 0.24676977 0.024019636
2.8807924 -0.3586335 -1.037043 0.11033462 -0.73028547 0.505159 6.277969 -1.4192846

bias f4 [40]
00000000: bd0a 8540 bc47 b040 7b29 b140 a6d4 d4bf
00000010: 2474 cbbf ef0b 4440 54d8 e7bf cf9e a6bf
00000020: 50e8 dcbf a19f c040 05db c141 d420 0c3f
00000030: b883 eb3f 7c0d cdbf f7f7 41c0 4b81 9440
00000040: ffa0 8ebf df92 e5bf 5428 9940 aa30 07c0
00000050: 3ffd 9a40 33ab 9e40 98e3 1e41 4a2a ed40
00000060: 1dc7 4640 ab92 01c0 d634 b140 9b6d ebbf
00000070: 89c6 98bf c070 ccbf e187 3740 029a 52bf
00000080: 1ec4 8140 5b3e b740 5798 95be 5efb d1bf
00000090: 95e1 be40 f743 f6bf b56e 2bbf c259 cd40
4.157561 5.5087566 5.5363135 -1.6627395 -1.5894818 3.0632284 -1.8112893 -1.3017215
-1.7258396 6.019486 24.231943 0.5473759 1.8399572 -1.601974 -3.0307596 4.640783
-1.1142882 -1.7935447 4.786173 -2.1123452 4.843414 4.9583983 9.930565 7.4114122
3.105903 -2.024577 5.5376997 -1.8392824 -1.1935588 -1.5971909 2.8676684 -0.8226625
4.05519 5.7263618 -0.2921779 -1.6404836 5.965037 -1.9239491 -0.669658 6.417207

weight f4 [40, 40]
00000000: e0a8 46be b41a 86bf dfef 02bf 4215 bbbe
00000010: acfe 71be 8d50 bc3c 602e b8bd 41b8 7abb
00000020: 68ba 313f e3ff 94bf 5bc1 0f3f bc9a eabe
00000030: 61a5 c23e 6536 54be 5550 a33e 903c 333e
00000040: 6d48 b0be 1156 88be efb9 6abf 16b9 e03e
00000050: 3af5 d2be f6ec c9be 2ae1 1dbd f12e a73c
00000060: 90e5 0b3d 5f34 743d a059 1cbf 3625 343e
00000070: d0b6 a7be 439d 7bbc 1dcd bfbd 4e0c af3e
00000080: a5f3 d6be baf8 143e 02c3 733d b8f0 463f
00000090: 5a5a 4bbe 7a14 0ebe 4a43 adbe c10f 2abf
000000a0: 87c7 5b3e b265 8ebf eefc f93d fa21 eebc
000000b0: 1ee6 f53d 99b8 cbbe 44c7 9e3e 30c6 d8be
000000c0: 8d79 48be 8605 bebe 123c ab3c 6e80 603e
000000d0: b10d 80be ff6e 443f e4f7 763f 42be c03d
000000e0: 5964 b33d 229f 573e 28e2 2dbf f67d bbbd
000000f0: b028 063f 4292 56be c14e 81be 5db8 933e
00000100: b636 353e 5c4f 77be 4528 88be bdc2 243f
00000110: 4c14 003f 7eb9 43bf 2e97 3dbf a196 6abe
00000120: 9a04 863e 3f04 34be 5407 cebe cde3 8cbe
00000130: 366d bcbc bad0 b73e 799f 18be 4eaf a2be
00000140: 310b 3bbd fc2f 9cbe 2c46 b0bd 2c24 b0bd
00000150: 8530 16be 3093 90bd 89d0 bc3e a508 e7bd
00000160: fe5e 703d 186a 04bf 9f3f 7b3e 7960 0d3d
00000170: da50 02bf ad68 4e3f 7a9f 2b3f d83b 723e
00000180: b24f 9dbd eeb9 10be cd5a 6cbe 3d43 853e
00000190: 20ee b53e 18ae 92bd 3584 f0be 8e90 823c
000001a0: e258 093e d9d3 e2be 2c5b 18be fb94 333e
000001b0: 4e39 3d3e 7a84 f6be 3858 0fbf 34aa f4be
000001c0: c310 6a3d b4e9 2dbf 6e1f 18bf 7f1f 8dbe
000001d0: fd6f 81bd ba7c 833e efe9 b53c e86f a9be
000001e0: 4740 1abf dcc3 013f 3409 db3e a67b 5f3f
000001f0: 4473 833f edc4 e3bf ca7b 2b3f 0819 183e
00000200: 0b39 9fbe 31ec 2abe 3623 babe 7858 293f
00000210: a3d3 093f 62e9 e43f 69a6 c83f 8736 43bf
00000220: 1f1f f23f 8bd5 763e bfef 79bf a866 39be
00000230: ac35 233e 66df 87bf d5ca 38bf 443b b0be
00000240: 7dda 83be 23cf 36bf 9101 aabe 0fcd 803f
00000250: 3045 1d3f ebc1 783e 2eca 7dbf c9e5 aabf
00000260: 8b09 933e 22f1 97be 9bb1 a23e 8216 f7be
00000270: 6c29 85bf ddd0 6a3f b0c6 1140 2ebf 3fbe
00000280: d907 533e c7f0 bc3d 8ed5 84be 7ab7 803e
00000290: b525 d73e 2841 f0be e4d6 2c3f 4b76 853e
000002a0: 6d93 b53d cd1a 413e d919 81bf e810 9d3e
000002b0: 104c babe 2f40 3d3f 26f9 073f 2608 413e
000002c0: b1ec cf3f 7c9f 423e ab3c 8dbe 4ae6 753f
000002d0: 913e b3be ae24 023d 98c9 bfbd 7353 68bf
000002e0: 5668 c23e ed1c 313f 39d7 11be c226 38bd
000002f0: 3570 b83e 1a08 4f3e 276f 8fbe 0a05 3dbf
00000300: a3ea 8cbe a42a a2bf 4109 283d 60e2 d9be
00000310: 7bfb dcbf 004a cb3f 1ef5 b53f cfe8 943e
00000320: 4cc7 87bf 9e9c 9cbf 310f 89bf 7ce5 e3be
00000330: e3f1 93be 7e8e ecbc 6097 02be 6fcb d63f
00000340: bd71 0c3f 50f0 8f3e 40f2 1cbe 49fc 03bf
00000350: 73b2 b23f 15c4 483e 8b3c 313f 61ce 80bf
00000360: 9438 bd3d 212a 743f 9d83 5cbb cd55 acbe
00000370: 00c9 6dbf 7db3 8dbf a028 77bf ba47 c63e
00000380: 149b bfbf 87bb 23bf d765 4bbf 274c 9cbf
00000390: 9a4b 03bf 7f86 773f 3656 8f3e 1fdd 8a3e
000003a0: c772 56bf e48f 9c3e c81e b43f bcc3 7d3f
000003b0: 457d 963d ebfa 8bbe 308c 333e 7247 8ebe
000003c0: aadd 34be af66 8cbf 11bd 60bf 0de2 c2be
000003d0: b108 96bd d499 8dbd 6c56 a43c 38b0 1f3f
000003e0: 86b3 063f f2a1 30bf 426c 683e 98e5 16bf
000003f0: e137 de3e 9bb5 b6be 271f ea3c 1aba 98be
-0.19400358 -1.0476899 -0.51147264 -0.36539656 -0.23632306 0.022987628 -0.0899322 -0.0038256797
0.6942506 -1.164059 0.5615441 -0.45821178 0.380168 -0.20723875 0.31897226 0.17503572
-0.34430256 -0.26628163 -0.9168996 0.4389121 -0.41202718 -0.394386 -0.03854481 0.020408126
0.034154475 0.059620257 -0.61074257 0.1759232 -0.32756662 -0.015357318 -0.09365294 0.34189075
-0.4198276 0.14548007 0.059512146 0.7771106 -0.19858685 -0.13874999 -0.338404 -0.6643029
0.21462832 -1.1124785 0.12206446 -0.029068936 0.12006782 -0.39789274 0.31011403 -0.42338705
-0.19577618 -0.3711359 0.020902667 0.21923992 -0.25010446 0.76731867 0.96472 0.09411289
0.08759374 0.21056798 -0.6792321 -0.091548845 0.52405834 -0.2095423 -0.25255397 0.28851596
0.17696652 -0.24151367 -0.26593223 0.6435965 0.5003097 -0.76454914 -0.74058807 -0.22909023
0.26175386 -0.17579745 -0.40239966 -0.27517548 -0.023001295 0.35901433 -0.14904584 -0.31774372
-0.04566497 -0.3050536 -0.08607134 -0.08600649 -0.14666946 -0.07059324 0.3687785 -0.11280946
0.05868434 -0.51724386 0.24535988 0.03451583 -0.5090462 0.8062847 0.67040217 0.23655641
-0.07681216 -0.14133427 -0.23081513 0.2602786 0.35533237 -0.07162112 -0.46975866 0.01593807
0.13412812 -0.44302252 -0.1487853 0.175373 0.18478891 -0.48147947 -0.55993986 -0.47786105
0.05714489 -0.6793473 -0.5942296 -0.27563092 -0.06320188 0.25681096 0.022206275 -0.3309319
-0.6025433 0.5068948 0.4278046 0.8729805 1.0269551 -1.7794472 0.6698576 0.14853299
-0.31098208 -0.16691662 -0.3635499 0.6615062 0.53838557 1.7883723 1.5675784 -0.7625508
1.8915747 0.24104898 -0.9763145 -0.18105567 0.15938443 -1.0615051 -0.721845 -0.34420216
-0.2575263 -0.71409816 -0.3320432 1.0062579 0.61433697 0.24292724 -0.99136627 -1.3351375
0.28718218 -0.29676157 0.31776127 -0.4825936 -1.0403266 0.9172495 2.277752 -0.18725273
0.20608462 0.09225612 -0.2594418 0.25139982 0.42020956 -0.4692471 0.675154 0.26066813
0.0886601 0.1885788 -1.0086013 0.3067696 -0.36386156 0.7392606 0.53114545 0.18850765
1.6244107 0.19006151 -0.27585348 0.9605452 -0.35008672 0.03177326 -0.09364623 -0.90752333
0.37970227 0.6918476 -0.14242257 -0.044958837 0.36023107 0.20217934 -0.2801449 -0.73835814
-0.27522764 -1.2669263 0.04102445 -0.42555523 -1.7264246 1.5881958 1.4215429 0.2908387
-1.0607696 -1.2235296 -1.0707761 -0.4451102 -0.28895482 -0.02887654 -0.12753057 1.6780833
0.5486105 0.2811303 -0.15326786 -0.5155683 1.3960708 0.1960605 0.69233006 -1.0062982
0.09239307 0.95376784 -0.0033647784 -0.3365921 -0.92884827 -1.10704 -0.96546364 0.38726598
-1.4969201 -0.6395802 -0.7945227 -1.221074 -0.51287234 0.966896 0.2799546 0.27121827
-0.83768886 0.3057853 1.4071894 0.9912679 0.07348112 -0.27339873 0.17533946 -0.27788883
-0.17662683 -1.0968837 -0.8778849 -0.38063088 -0.073258765 -0.06914106 0.02006074 0.62378263
0.5261768 -0.6899711 0.22697547 -0.5894408 0.43402007 -0.3568543 0.028579308 -0.29829484

bias f4 [40]
00000000: 858c 34be 1116 09bf f174 80bf 2f78 92bf
00000010: 2c62 61bf 14da 45bf 8575 75be e466 70bf
00000020: f327 0cbf a16b dfbf 8350 5940 b1fc 5bbf
00000030: 737c 89bf b4c5 c1be 6235 26be 47b7 adbe
00000040: e510 8abf 3987 b3bf 9dce 0fbf 67be 76bf
00000050: d5a1 efbd efd2 d0be ad67 4840 a149 8f3f
00000060: 4fbd 993f 9b48 e8bf dd5d 70bf 5c8c 00bf
00000070: 6177 8dbf 2443 9bbf b127 f0be 40a1 78bf
00000080: 7b8a cfbf ff6c 2540 c721 8040 ad8a d3bd
00000090: 8cca c83f db2c 24bf 6569 19c0 b030 e5bf
-0.17631729 -0.53549296 -1.0035688 -1.1442927 -0.88040423 -0.77285886 -0.23970611 -0.93907
-0.5474846 -1.7454721 3.395539 -0.8593245 -1.0741104 -0.37846148 -0.16231301 -0.33928892
-1.0786406 -1.4025642 -0.5617464 -0.9638428 -0.11700789 -0.4078593 3.1313279 1.1194345
1.2010897 -1.8147157 -0.93893224 -0.5021417 -1.1052057 -1.2129865 -0.46905282 -0.9712105
-1.6214136 2.5847776 4.004123 -0.10329185 1.5686812 -0.64130944 -2.3970578 -1.7905483

weight f4 [4, 40]
00000000: 1913 62bf 62c2 4ebd abbd d2bd ee62 773e
00000010: 01d4 e4be 64e3 39bd df4e febe 7d31 d83d
00000020: 2ae5 4cbe 7b20 7abf ae6f 1241 0b3f 7f3b
00000030: a7a9 afbf 5203 acbf e129 97bf 678e 2bbf
00000040: 12a1 80bf 1b20 9ebf d828 82be 7164 b7be
00000050: dba4 86be 5507 dabe d6c6 3841 6c55 9c40
00000060: 7a88 d940 6db8 8fbf 886f ecbe d235 53bc
00000070: c386 21be 13c9 d9bd 847c 1dbf 43a1 21bd
00000080: dbe1 48bf e26b 1341 b7da 0d41 4ed8 693f
00000090: 6d79 0941 384b 83be 48b5 2fbf a712 46bf
000000a0: 73a2 653d 78a6 993e a8a7 463d 1ba2 f13e
000000b0: 4ba6 703e 9536 ed3d f5f8 31be 6e51 9cbd
000000c0: eeb5 953e 77f6 63be f71e b5bf d25d 153e
000000d0: 9306 a4be ddda fdbd ce67 6d3f 726f c73e
000000e0: ee50 cb3d 8589 bdbd a901 013e 3415 813d
000000f0: 14ba 8e3e 8189 0dbe aa6c f3bf 50e9 0fbf
00000100: 0d67 9dbf c30f e63e 000b 893e 05fc cebd
00000110: 057c f23e 1196 da3e dd83 0fbe 3eee 003f
00000120: 488d d0be a697 96bf 0494 acbf a04e bf3d
00000130: 1314 e6bf 45a3 62bd 8872 0dbd c8c7 8cbe
00000140: 9778 1abf 40c6 b33e b7c9 b23e a4dc 083f
00000150: 03e1 2e3f e25c debe b92e 41bf 631e dfbe
00000160: 2c69 8d3d 4bab e73d 1f6b 993f 4a47 82bd
00000170: a3b1 0abf 71e1 39bd 7d5d 5c3f 5f9b f5bd
00000180: 31e7 f23c 91c5 273f ad4a 853e 8d99 a93e
00000190: 2d2b 1fbf 050f bb3e 1ccd e63f 83f6 9b3f
000001a0: 701d 5e3f 022d ad3e 3fb4 7f3e a6ba 043f
000001b0: 0c4d c1be 8795 2d3e 3104 203f ca48 3c3f
000001c0: 4721 893e ceea 813f 0ee9 be3f bc45 913e
000001d0: 459a d53f 3a8a f53e 0f75 db3e 8656 82be
000001e0: 3ad4 04bf 3225 65bf 1ee0 3bbf 056b 18bf
000001f0: 614e e3be ff57 35bf fa1e e7be 124d 4ebf
00000200: d9d7 32bf 5294 a2bf 6292 4c41 9d42 bbbe
00000210: cb9b 7dbf 70bd 2abf a30b 3d3d b24c e5be
00000220: 33c5 02bf 50e1 56bf f1d8 c6be a530 dfbe
00000230: 9505 13bf b363 03bf 132d 8441 8331 0c41
00000240: a7b4 9b40 31ab 43bf 362c 69bf 66a0 8dbf
00000250: 0c83 38bf d38e 17bf 14ee 3fbf 0a97 1cbf
00000260: f0c9 b2bf be22 3b41 edaf 4a41 db18 85bf
00000270: 1367 1341 f396 80bf fde1 97bf 2503 cebf
-0.8831039 -0.050478347 -0.102900825 0.24158832 -0.44692996 -0.045382872 -0.4966955 0.10556314
-0.20009294 -0.9770581 9.152266 0.0038947489 -1.3723649 -1.3438513 -1.1809655 -0.67014164
-1.0049155 -1.2353548 -0.25421786 -0.35818818 -0.2629765 -0.4258372 11.548544 4.8854275
6.7979097 -1.1228157 -0.46178842 -0.01289125 -0.15774064 -0.10634055 -0.6151812 -0.03946043
-0.7846963 9.213839 8.865897 0.9134568 8.592145 -0.25643325 -0.6863599 -0.7737221
0.056063127 0.30009818 0.048499733 0.4719399 0.23500936 0.11582676 -0.17380126 -0.07632719
0.29240364 -0.22261988 -1.4150075 0.14586571 -0.32036266 -0.123952605 0.9273652 0.38952214
0.099275455 -0.092547454 0.1259829 0.06302872 0.2787634 -0.13821985 -1.9017537 -0.5621538
-1.2297074 0.449339 0.26766205 -0.10106663 0.47360244 0.42692617 -0.14015146 0.5036353
-0.4073279 -1.176503 -1.3482671 0.093411684 -1.7974876 -0.055331487 -0.034533054 -0.2749617
-0.60340255 0.3511219 0.3491952 0.5346167 0.6831209 -0.4343024 -0.7546192 -0.4357787
0.069048256 0.113119684 1.1985816 -0.063612536 -0.541773 -0.045381013 0.8608015 -0.11992525
0.029651256 0.6553584 0.26033536 0.33124962 -0.62175256 0.36534896 1.8031344 1.2184604
0.8676367 0.338234 0.24971102 0.518473 -0.37754095 0.16951571 0.62506396 0.7354857
0.267832 1.0149782 1.4914873 0.28373516 1.6687704 0.4795702 0.42862746 -0.25456637
-0.5188633 -0.8950988 -0.7338885 -0.595383 -0.44395736 -0.70837396 -0.4514082 -0.8058635
-0.6986061 -1.2701514 12.785738 -0.3657426 -0.99065846 -0.6669531 0.046153676 -0.44785076
-0.5108215 -0.8393755 -0.38837388 -0.435918 -0.5743039 -0.51324004 16.522009 8.762088
4.8658023 -0.7643309 -0.91083086 -1.1064575 -0.7207496 -0.5920231 -0.74972653 -0.6116797
-1.3967876 11.695982 12.667951 -1.039821 9.212665 -1.0046066 -1.1865841 -1.609471

bias f4 [4]
00000000: 7d95 923f 419a 333f f07a a7be 4cec c93f
1.145187 0.7015725 -0.3271098 1.5775237

weight f4 [40, 2]
00000000: 297b 3dbf 0459 983f 82e7 07bf 3578 0a3f
00000010: ec8d 4b3e 7efb 56be d5bb a53f be4f dd3e
00000020: c98f f2be 1cbd 823e e4f6 08be a0f0 16be
00000030: 3d99 d03f 6228 2a3f 7724 a43f f334 5b3f
00000040: 1b0e 803f 8006 d83e 2f2f 11c0 8d6e e6bf
00000050: 9406 5b3e a49d 873e 36b3 c23e b111 f63e
00000060: 9750 ffbf 4fe7 9abf e683 e8bf 3c23 1ac0
00000070: a932 943e 0e67 bb3d cbee 99bf 1ebb 6fbf
00000080: f408 30be 6eb1 963e 0995 a4be a0b7 3ebe
00000090: e0cc 2dbf 5a19 b53e 90b8 943e 2577 b6bf
000000a0: 9808 6fbe 6766 aabd 77a2 2d3f e9e4 623f
000000b0: 335f 913e 0c92 45be 285d 4cbf 416c c7bf
000000c0: 401c 783d a3ea 2dbf da19 023e c0fd 2e3f
000000d0: c896 25be 5dfc 88be e0ef 28bf d0fe 40bd
000000e0: 1068 fdbe 7855 e53d 68c9 5d3f 18d1 a4be
000000f0: 8107 fc3f b44b 073f 005f 1dbb 8659 be3e
00000100: 9050 323f 202b 00bf b3d7 b9be 666a b1be
00000110: a01c 29be 6c54 84be 3097 15be 5afc 80be
00000120: fa54 69bf 54c5 6e3f 0d94 b4be 6d79 843f
00000130: d859 9c3f 522d 853f e946 7b3f 9d06 a83f
-0.7401605 1.1902165 -0.5308763 0.5408967 0.19878358 -0.20994374 1.2947947 0.432249
-0.47375324 0.25534904 -0.13375431 -0.14740229 1.6296765 0.6646787 1.2823628 0.8562767
1.0004305 0.4219246 -2.2685049 -1.8002487 0.21389228 0.26487458 0.38027352 0.48060372
-1.9946469 -1.210184 -1.8165252 -2.4084005 0.289449 0.091505155 -1.2025999 -0.93644893
-0.17190915 0.29432243 -0.32144955 -0.18624735 -0.6789074 0.35370904 0.2904706 -1.425511
-0.23343122 -0.08320313 0.67826027 0.8863054 0.28392944 -0.19293994 -0.79829645 -1.5579911
0.060573816 -0.6793615 0.12705174 0.6835594 -0.161708 -0.26755038 -0.6599102 -0.047118008
-0.49493456 0.111979425 0.86635447 -0.32190776 1.968979 0.5284989 -0.0024012923 0.37177676
0.6965418 -0.50065804 -0.36297378 -0.34651488 -0.16514826 -0.2584566 -0.14608455 -0.2519253
-0.9114529 0.9326985 -0.35269204 1.0349556 1.2214918 1.0404456 0.98155075 1.3127018

bias f4 [40]
00000000: 8205 12be d25b 12bf 5ff3 22bf ecad 773f
00000010: 66dd 28bf 2eff ebbe f76b 813f 7120 ac3f
00000020: 77ca c33f 9bda d83e c89f 28bf 97a3 15bf
00000030: 3ca1 363e 43d6 c03e ba02 613f 08ea 253e
00000040: ef4d 33bf 0fd0 97be 1466 0bbf 7438 22be
00000050: 38da 593e aad3 513e 6ec3 8a3f 2db2 6ebd
00000060: d954 25bf 940b 8fbe de2f 30bf f552 b4be
00000070: 8bdc e7be cc73 a23f da1c 9b3f 2eb2 27bf
00000080: 78ff 4e3f 49c7 a63f 9148 293e 9c88 60be
00000090: 2ce8 01be a3bc 463f ce15 993f bd15 a83f
-0.14259914 -0.57171357 -0.63652605 0.9674976 -0.6596283 -0.46093124 1.0111073 1.34474
1.5296162 0.42354283 -0.65868807 -0.58452743 0.17834944 0.3766347 0.87894785 0.16202557
-0.7004079 -0.29650924 -0.54452634 -0.15841848 0.2127465 0.204909 1.084089 -0.05827539
-0.6458259 -0.2793852 -0.6882304 -0.3521954 -0.45285448 1.2691588 1.211818 -0.65506256
0.80858564 1.3029567 0.16531588 -0.21927112 -0.12686223 0.77631587 1.1959779 1.3131634

weight f4 [40, 40]
00000000: a366 4a3f b6ea 983d 5e7a e9bd 49c4 963e
00000010: 64a1 723d 4051 d1bd f5ee 9e3e 3ef3 393f
00000020: 8111 453f b91a 443e 7a8e 0dbe ae47 0a3f
00000030: e23c 083e e394 423e 6481 373f d82a 123f
00000040: 66fe 02be df2d 14be e58f 003e 9228 ed3e
00000050: 0057 643f bde3 543f 9cb6 073f fc06 003f
00000060: 6665 b7bd 8c4e 923f 223e 4dbd 0088 253a
00000070: 40c4 9f3b 8523 283e b737 793e 6a1d bf3d
00000080: 2ea2 883e 2a82 1d3f 6086 1f3f 4e94 693e
00000090: 1e46 453f 05f1 0b3f f7c2 d93f bc3e 503f
000000a0: 287c 1cbf e2be a13d 40ad 453b 840b 09bf
000000b0: 3021 e33c 8040 fe3c 1d9d 95be 9c69 1ebf
000000c0: c11e 33bf 43ec 3e3e 0e50 e93d ca34 6ebe
000000d0: 349a 13bf b76e b4be 13e3 35bf 1bb8 e0be
000000e0: a1ac 083e b20e 03be 2131 9dbd 1182 39bf
000000f0: 81e5 1abf 826a 87be 3c49 28bf 18e1 01bf
00000100: e82d 743d 6e7e 063f c8c3 13be 43db 143e
00000110: 32e5 b13d cfa8 85be fdc7 c5be 0acf 0fbd
00000120: a7f1 07bf 8779 0cbf 9c6e debe ebd4 69be
00000130: 2969 d4bc 6c04 57bf c335 e1bd 79e5 c9be
00000140: 18d6 efbd 0574 04be 3a8f 30bd a345 6a3f
00000150: f51e 1ebe 24c4 573d 1f69 3b3f 21c9 ae3e
00000160: 2aeb b63e 93fa 6d3f a6ad 15be f9da e8be
00000170: 9856 4f3e d9a0 0f3f 05e5 e63e 570a ee3e
00000180: 40b9 663b 5e26 45bd 9067 413c 7a26 aa3e
00000190: 1a40 0b3f 933c ba3e 3b3d 153f ac1d 013f
000001a0: 0d14 dbbd cde2 b03e 1997 a6bd dd0a 1ebe
000001b0: 8ec2 16bd 419a 5e3f f4a6 3a3f fe55 923d
000001c0: dc97 633f 3cd0 0d3f 0932 073f c31d 40be
000001d0: a8ba a2be fda7 4c3d 959d a33e 9ebb 1e3f
000001e0: 565a 543e dc2a 91bd 50cb 913d 6de2 afbd
000001f0: ec20 dabd 42a4 cc3d 0b8c 813d 6c32 f13d
00000200: 69ad 5e3e b5cd 863e 1e78 53bd 016d 213f
00000210: d10d 74bd f8b8 833e dfa6 bb3e fab4 8f3e
00000220: a4bf 523d 38df 983d fa19 63bd 861f 723d
00000230: d8b1 f63e 6dd4 bc3e 2df9 a73e cc52 3a3f
00000240: a607 f0bd 33af 563e 802c f1ba 7bf7 11be
00000250: 6ebe d13d 69c0 fd3e 1fc8 243e 1986 1e3e
00000260: 45a2 463e 6da3 1c3f 9b7b bb3e c701 2fba
00000270: c10c 913e 3fb4 923e 61f1 d1bc 3c2f 523e
00000280: 9952 00bd 90f3 db3c caa3 e23d 3436 253f
00000290: 4595 b4bd b899 953c 968d 4b3f 816b 0a3f
000002a0: 0080 ca3e 55fe 713f 3837 debd dcaf abbe
000002b0: 8e52 bd3d 77d0 043f fe2b 523e 9ceb 2c3d
000002c0: 663a 43bd d38d 11be 1065 4d3c 3c60 c73d
000002d0: 9e15 e23c 2ba9 84be 770c 603e 8f43 ff3d
000002e0: 60b7 40bc eb0d acbd 9b9c 0e3e 98c0 ab3d
000002f0: cfc8 173e 9041 433f d374 303f d0f1 f3bc
00000300: 3a0b eb3e 9514 753e 414f 853d 20e0 70be
00000310: 38ee 8dbe 41d4 3c3f 824c 813f 9795 d23e
00000320: c05d 0dbf b104 063e e3d3 11be 6e6f e2be
00000330: 90dd bfbc f8b4 82bd 077b 03be 45bd 80be
00000340: e420 10bf c4ba 61bd de60 a53d a907 80be
00000350: f178 80bd 02cc 10be bb4d 2dbf a9bc dfbe
00000360: 10a8 d5bc 1eef bc3d bf4f 143e 0290 74be
00000370: da4d 45bf 0d14 21bf 3fcd 88be baaf 38bf
00000380: 3c6d 8b3d 5cd6 cdbe 0c4b 0bbd 7e15 0fbd
00000390: 151c 1abe 4f09 91be bfc7 23bd 7479 3d3d
000003a0: 5649 cbbe b879 19bf e2a6 4abf 26a0 9abe
000003b0: 8c44 38bf 5daa eebe 1db0 d6be b806 3cbf
000003c0: f851 26be 1ce0 04bd 16de be3d 3b02 05bf
000003d0: 4e45 49bd 259c 1bbe 8032 07bf b1e7 32bf
000003e0: 996a 10bf 37a0 5ebf d6ed 89bd cc9a 0d3f
000003f0: fd27 16be 1b87 60bf 8950 8ebe d3f9 9fbe
0.7906286 0.074666426 -0.11400293 0.2944663 0.059235945 -0.10220575 0.31041685 0.72636783
0.76979834 0.19150819 -0.13823882 0.54015625 0.13304475 0.19002108 0.7168181 0.57096624
-0.12792358 -0.14470623 0.12554891 0.46320015 0.8919525 0.8316 0.53013015 0.5001066
-0.08954887 1.1430221 -0.050108083 0.0006314516 0.0048756897 0.164198 0.2433766 0.09331782
0.26686233 0.6152674 0.62314415 0.2281048 0.77060115 0.5466464 1.7012624 0.81345725
-0.6112695 0.07897736 0.003016308 -0.53533196 0.027725786 0.031036615 -0.2922143 -0.618799
-0.699688 0.18644814 0.11392222 -0.23262325 -0.5765717 -0.3524072 -0.7104961 -0.4389046
0.13347103 -0.12798575 -0.07675386 -0.7246409 -0.60506445 -0.26448447 -0.65736747 -0.5073409
0.059614092 0.52536666 -0.14430153 0.14536767 0.08686294 -0.26105353 -0.3862914 -0.035109557
-0.5310311 -0.54872936 -0.43443763 -0.22835128 -0.02592905 -0.8399112 -0.10996582 -0.39432886
-0.11710757 -0.12934883 -0.04310534 0.9151251 -0.15441497 0.05267729 0.7320728 0.34137824
0.3572629 0.9296047 -0.14617023 -0.45479563 0.20247877 0.5610481 0.45096603 0.46492264
0.0035205632 -0.048132293 0.011804476 0.3323248 0.54394686 0.3637434 0.58296555 0.504359
-0.10697184 0.34548035 -0.08134288 -0.15433832 -0.036806636 0.8695412 0.72911 0.07145308
0.88903594 0.55395865 0.5281072 -0.18761353 -0.31783032 0.049964894 0.31956163 0.6200503
0.20737585 -0.07088253 0.07118857 -0.08588109 -0.106508106 0.09992267 0.06325539 0.11777195
0.21745838 0.26328817 -0.051628225 0.6305695 -0.05958349 0.25727057 0.3665075 0.28067762
0.051452294 0.074644506 -0.055444695 0.059112094 0.4818256 0.36880818 0.32807294 0.7278259
-0.11720209 0.2096527 -0.0018400103 -0.14254563 0.102414 0.4956086 0.16091965 0.15480842
0.19397838 0.6118687 0.3661774 -0.0006675985 0.28330043 0.28653142 -0.025627794 0.20525831
-0.03132877 0.026849538 0.110663965 0.6453583 -0.088175334 0.018261775 0.7951292 0.5407029
0.3955078 0.94528705 -0.10850376 -0.33532608 0.09244262 0.5188059 0.20524594 0.042216882
-0.047663115 -0.14214258 0.012536302 0.09735152 0.027598199 -0.25910315 0.21879755 0.12464058
-0.01176247 -0.08401092 0.13926928 0.08386344 0.14822696 0.76271915 0.6892826 -0.029778391
0.45907003 0.23933633 0.06509257 -0.23522997 -0.2772081 0.73761374 1.0101473 0.41129753
-0.55221176 0.13087727 -0.14240985 -0.4422564 -0.023421079 -0.06382173 -0.128399 -0.251444
-0.5630019 -0.055109754 0.080751166 -0.25005844 -0.06273068 -0.14140323 -0.6769673 -0.43698624
-0.026081115 0.092252955 0.14483546 -0.2388306 -0.7707192 -0.6292122 -0.2671909 -0.7214314
0.06807944 -0.40202606 -0.034007117 -0.034932606 -0.15049775 -0.28327414 -0.039985415 0.046258405
-0.39704388 -0.59951353 -0.7916089 -0.3020031 -0.71979594 -0.46614352 -0.4193124 -0.7344775
-0.16242206 -0.03244029 0.09319703 -0.5195653 -0.04913836 -0.15196283 -0.5281143 -0.69884783
-0.56412655 -0.8696322 -0.06734817 0.55314326 -0.14663692 -0.87706155 -0.27795818 -0.31245288

bias f4 [40]
00000000: fccd 163f 906d 21bf 71de 333f aeca f43e
00000010: d3e3 79bd 69fc 27bf 5f01 3abe d190 203f
00000020: 2999 323f 9e7c 453f aa78 21bf cba1 453f
00000030: caff 39bf 87a2 4d3f de21 ecbe 34d6 d4be
00000040: b47e 4cbe 3cb1 a0be 21bf 1d3f f6fb 1bbf
00000050: 254e d03e 6b55 38bf b852 22bf 1379 00be
00000060: b02a 173f 2022 253f 7431 9dbe 6dbd 303f
00000070: 23ca 293f bcd3 eabe b6bf f1be 66c2 f93e
00000080: 8b89 c3be 304f d5be 527e 0b3f fd41 ea3e
00000090: 01cb dcbe 8ddc 1bbf 8a58 f83e 1295 24bf
0.5890806 -0.63057804 0.70261294 0.47810882 -0.061008286 -0.6561952 -0.18164586 0.6272097
0.69764954 0.77143276 -0.63074744 0.772 -0.7265593 0.8032612 -0.4611959 -0.41569674
-0.19970208 -0.3138522 0.61619765 -0.60931337 0.4068462 -0.7200534 -0.6340747 -0.12546186
0.5904951 0.64505196 -0.30701792 0.6903904 0.6632406 -0.45864666 -0.47216576 0.48781127
-0.38190874 -0.41661978 0.54489625 0.4575347 -0.4312363 -0.6088341 0.4850505 -0.64289963

weight f4 [40, 40]
00000000: abf5 b43e 756f 99be 7537 9fbe 7295 d63e
00000010: 3d30 4cbe fe89 e5be 8b5c b93e d85f dd3e
00000020: 8123 3e3e daae e63e eafa a4be 4836 623e
00000030: b9a3 eabe 9f12 a83e b724 35be af1b 16be
00000040: 3acd 0fbe 1888 b0be 76cb 053f cd2e c3be
00000050: cd2e 633d 96ca 0ebf 28db b0be efea dd3e
00000060: ee8a 913d fabc e73e 3244 bdbe 81d7 e93e
00000070: 53fc 563e 119c 16bf c90d 35be 62f8 bd3e
00000080: 0afc f4be f1a3 acbe 093b eb3e 2dcd ca3e
00000090: 390f 183e 3743 d1be 1838 19be cbd8 48be
000000a0: 6407 33bf cf9b f03e 4a2f 56bd eb27 22bf
000000b0: 6e58 dbbd 8980 003f 66d9 143e 2678 41bf
000000c0: aa04 b63e 4faf 39bf bfed 003f 9e27 37bf
000000d0: 8727 3a3f fbd9 b53b 0de5 f93e 332b fa3e
000000e0: c23f d93e fe3a 803e 9f91 20bf 9b61 243f
000000f0: 345c 0dbe 84e5 da3e 8172 1c3f bcda b83d
00000100: 8498 7fbe 8893 1cbf 9687 143f 4c19 2ebf
00000110: aa66 3ebf 787d ce3e 8a19 493e 3cdb 35bf
00000120: b0de 1f3f 6876 243f 4768 04bf 853a 98be
00000130: b41f d13d 4160 483f d1e4 cabe 17cf cd3e
00000140: 417a 10bf cde2 003f 30dd 0a3e 4e42 b3be
00000150: 2cfc 9d3e a336 ca3e 81fb f3be 5253 03bf
00000160: 11dd 8ebe 9f34 eabe 0bbe 2b3f 7f21 15bf
00000170: 1342 2a3f 32e9 a4be 1962 0f3e 5beb 3bbe
00000180: 3f51 633e 9dd2 01be 19a0 a0be 2cde 173f
00000190: b74b 11be d740 ce3e cda8 d53e 53fa fdbe
000001a0: 8b56 63be 918b 15bf ea07 af3e 278e 0bbf
000001b0: d265 18bf f641 993e 9619 6f3e d0d6 b7be
000001c0: 11c9 a43e 01a7 263f 4b18 31bd 9983 123f
000001d0: 7f53 34be 2ada d53e 6b5d d4bd d67d 983e
000001e0: 404e 22bf 6873 c53e 23fa f3bd 5959 9ebe
000001f0: 3745 803e 63c6 b63e c551 f2be 1068 dfbe
00000200: 8ce1 bcbe 1ab8 e0be 49e0 c03e 6b88 0dbf
00000210: 9983 be3e c468 80be 7ead 5b3e 9307 0d3e
00000220: b95a 193f feb9 983e f201 03bf c9ae 213f
00000230: 76d3 1bbd fc5c d13e 279e e33e a619 01bf
00000240: 3978 8f3d 8aff a6be 43cd d13e 35cb 19bf
00000250: ac5d 11bf f947 e43e 5e00 583e 8ed1 d6be
00000260: 5595 c23e 4c2f 103f bc6a acbe ba14 ab3d
00000270: 82fc c7be d554 c33e d87d 663e f2c3 313e
00000280: 249a 29bf cdce 253e cec2 df3c 5c3e d9be
00000290: 70dd aebd 2df9 e13e 3e47 d1bd 07d3 e1be
000002a0: b3eb 0abf 118a f7be dcbe ee3e a5e5 15bf
000002b0: 70f1 1a3f bee0 0dbe 4319 9a3e 1980 1dbe
000002c0: d87f a33e ed29 393f ea55 ccbe 82c3 1e3f
000002d0: 7014 eebe 2bb7 163f a5d3 193f 65ce 08be
000002e0: 8557 12bf af28 09bf 7ec7 d93e f1de e8be
000002f0: 0395 d2be 4b24 393f 1dab 663f 4a1e 2cbf
00000300: 2e6e e03e b496 df3e dd4b a0be 0016 b6be
00000310: 8bba 923e 2299 123f aff5 4dbe 683b 383d
00000320: 4ade 003f 0500 0fbf 56b6 98be 8028 d23e
00000330: 787f 69bd 660c fabe 8b71 d93e c779 f03e
00000340: 7cf6 ab3e dce7 ab3e 708d 7dbe caf2 883e
00000350: bd2f e9be a673 313f 3306 ffbe 3332 03bf
00000360: bc2e 4abe 968b ba3e d07c 7a3e 843c 0fbf
00000370: 6f1a a0be 18d7 83be 4fb3 abbe e09e e23e
00000380: 3fdb ec3e 3767 613e 815b 09bf 6b10 cb3e
00000390: 1e56 6a3e 10e2 b1be ff3a 05bd c1f7 a43e
000003a0: 7080 c5be 29c8 cabe 9993 f63e 5dcd bb3e
000003b0: 798b 023f 4657 07bf 58df 54be efa5 0dbf
000003c0: a24c f0be ba10 433e e148 2a3e 6708 21be
000003d0: 48a2 b03e f7fe 863e 4708 8dbe fd57 b3be
000003e0: caf8 10bf 772a a0be 6ce9 073f d6c1 14bf
000003f0: 96b5 eb3e 748e c8be c01c 463e df38 f73d
0.3534368 -0.29967847 -0.31096998 0.41910893 -0.19940276 -0.44831842 0.36203417 0.43237185
0.18568231 0.45055276 -0.32222682 0.22091019 -0.45828035 0.32826707 -0.17689787 -0.14658998
-0.14043131 -0.3447883 0.5226358 -0.38121644 0.055464555 -0.5577787 -0.34542203 0.43343303
0.07106577 0.45261365 -0.3696609 0.4567223 0.20994692 -0.5883189 -0.1768104 0.37103564
-0.4784854 -0.33718827 0.45943478 0.39609662 0.14849557 -0.40871593 -0.14962804 -0.1961395
-0.6993315 0.46993873 -0.052291192 -0.6334216 -0.10710226 0.5019613 0.14536056 -0.75573957
0.35550433 -0.72533125 0.5036277 -0.71544826 0.72716564 0.005549667 0.48807564 0.48861083
0.42431456 0.25045007 -0.627222 0.64211434 -0.13804704 0.42753232 0.6111222 0.09026095
-0.24960524 -0.61162615 0.5801939 -0.6800735 -0.743754 0.403301 0.19638649 -0.7103765
0.6244917 0.64243174 -0.51721615 -0.29732147 0.10211125 0.7827187 -0.39627698 0.4019706
-0.56436545 0.5034607 0.13560939 -0.35011524 0.30856454 0.3949481 -0.4765282 -0.5129901
-0.27903035 -0.45743272 0.6708686 -0.58254236 0.6650707 -0.32209164 0.14002265 -0.183515
0.22198962 -0.12677999 -0.31372145 0.5932338 -0.14189039 0.40283844 0.41730347 -0.49605045
-0.22200982 -0.58416086 0.34185725 -0.5451378 -0.59530365 0.29933137 0.23349604 -0.35906076
0.32184651 0.6509858 -0.04323606 0.5723205 -0.17609976 0.41768008 -0.103693806 0.29783505
-0.6340065 0.3856461 -0.11912944 -0.30927542 0.25052807 0.35698232 -0.4732801 -0.4363408
-0.3689083 -0.43890458 0.37671116 -0.5528628 0.37209776 -0.2507993 0.21452901 0.1377242
0.59904057 0.298294 -0.51174843 0.63157326 -0.03804346 0.40891254 0.44456598 -0.5042976
0.070053525 -0.32616836 0.40976915 -0.60075694 -0.56783557 0.4458616 0.2109389 -0.41956753
0.38004556 0.5632217 -0.33675182 0.08353563 -0.39059836 0.3815066 0.22508943 0.17359903
-0.66250825 0.1619217 0.02731457 -0.4243039 -0.085383296 0.4413542 -0.102186665 -0.44106314
-0.542659 -0.48347524 0.4662999 -0.58553535 0.60524654 -0.13855264 0.30097398 -0.15380897
0.31933475 0.723296 -0.39909297 0.6201707 -0.46499968 0.5887324 0.6008857 -0.13359983
-0.57164794 -0.53577703 0.42535013 -0.4548259 -0.41129312 0.72321004 0.9010485 -0.6723372
0.4383406 0.43669665 -0.3130788 -0.3556366 0.28657946 0.5726491 -0.20113252 0.04497853
0.50339186 -0.55859405 -0.2982661 0.41046524 -0.05700633 -0.48837584 0.4246944 0.4696791
0.3358649 0.33575332 -0.24760985 0.26747733 -0.45544234 0.6931709 -0.49809417 -0.5124847
-0.1974439 0.3643462 0.24461675 -0.55951715 -0.31270167 -0.2575004 -0.3353524 0.44261837
0.46261021 0.2201203 -0.5365525 0.39660963 0.22884414 -0.34742785 -0.032526966 0.3222027
-0.38574553 -0.39605835 0.48159483 0.36680117 0.5099407 -0.52867544 -0.20788324 -0.5533132
-0.46933466 0.1904935 0.16629364 -0.15725861 0.3449881 0.26366398 -0.27545378 -0.35028067
-0.5662962 -0.31282398 0.5309055 -0.5810827 0.46036977 -0.39171183 0.19346905 0.12071394

bias f4 [40]
00000000: d063 f63e 3630 12bf 8147 1bbf e121 ccbe
00000010: 9246 0cbf 300c 703e 2121 a9be 5ba8 b13e
00000020: 2d8e c43e 26b4 e0be cd66 ef3e 0972 f4be
00000030: 3d19 76be df7e 5c3f df88 06bf 611b 9d3e
00000040: 99a6 923e 2060 6a3e 84fe cebe aa6d c83e
00000050: 1abd babe 48fa d23e afd4 fe3e 4cb7 923e
00000060: d99f 993e 313f c9be 44b0 0f3f 42a2 64be
00000070: 7901 e6be 4a97 9cbe 7083 19bf 4a69 dcbe
00000080: 1934 19bf 7911 43bf 7f2e febe e41d b03e
00000090: 0cf4 e8be e88a bf3e 546e 04bf 4bb3 cfbe
0.48123026 -0.57104814 -0.6065598 -0.39869598 -0.5479518 0.23442149 -0.33033088 0.34698758
0.38389722 -0.43887442 0.46758118 -0.47743252 -0.24033065 0.8613109 -0.525526 0.3068495
0.2864273 0.22888231 -0.40428555 0.39146167 -0.36472398 0.41206574 0.4977164 0.2865547
0.30004767 -0.39306024 0.56128335 -0.22327521 -0.44923 -0.30584174 -0.5996618 -0.4304908
-0.5984512 -0.76198536 -0.4964485 0.34397805 -0.45498693 0.37410665 -0.5173085 -0.40566477

weight f4 [1, 40]
00000000: 0b4d 073f 71e7 e9be e0b1 00bf 2985 e0be
00000010: 8e7e 603e 97ac 223f f498 3abf 02ff 073f
00000020: d1ef d83e 3294 dabe 442e 093f fe00 17bf
00000030: f089 0abf 3814 273f a606 d9be e479 fc3e
00000040: 779a e03e 1ded d03e 4c90 03bf 8626 253f
00000050: 645c edbe df84 083f b377 233f fb70 113f
00000060: dcf1 0c3f 24fb eebe cdb0 e83e de0d e6be
00000070: fa27 e8be 0a1f 07bf 5d1b febe 5870 b4bd
00000080: a1ca dcbe 812d 23bf 0490 dfbe 1ab3 1e3f
00000090: 76b2 debe 4b3b 283f c76c f0be 2d6b f9be
0.52851933 -0.45684388 -0.50271416 -0.43851593 0.21923277 0.635446 -0.7288964 0.53123486
0.42370465 -0.4269119 0.5358622 -0.5898589 -0.54116726 0.65265226 -0.42387885 0.49311745
0.43867847 0.40805903 -0.51392055 0.6451191 -0.4635955 0.53327745 0.6385452 0.5681302
0.5505655 -0.4667598 0.45447388 -0.44932455 -0.45343 -0.52781737 -0.49630252 -0.0881049
-0.43123344 -0.6374131 -0.43664563 0.6199204 -0.4349553 0.65715474 -0.4695799 -0.4871458

weight f4 [40, 2]
00000000: fc4e 95be 6f77 49bd 10cd 003f eca6 f63f
00000010: 03da 9dbe 7f9f 92be d949 23c0 4d95 50bf
00000020: 33fb 1a3f a19c a43e 957d 27bf 800c 0cbe
00000030: e61b 95be a634 d93e ade6 a73e 2217 ca3f
00000040: cf2a 3d3f df09 6f3f 8b09 d13f 1b4b 6b3f
00000050: 38a9 2d3e e0b0 b6bc 6e8b 683f 496c d63d
00000060: 60ba 43be aa44 13bf 3509 01bf 867b 083f
00000070: 3bd1 f23e be23 ed3f 6ebd e43e e1cf bbbe
00000080: d270 2a3f 3ab2 293f 007a 043d 84ab 96be
00000090: d040 7e3d 209b e6bc b4b8 1bbf ef78 83ba
000000a0: bd96 48c0 8856 b2bf 51fc 2e3f 524e 96be
000000b0: c32c 2a3f 298f 07bf 1c6a c0bf 5677 d13e
000000c0: ac92 943c fbf8 febe 4265 bd3f 6770 7b3f
000000d0: dcdf 593f b524 c43f 9166 8b3f 9424 423f
000000e0: a7b8 5d3f 63f1 b33f feb2 0d3f d3fa 6c40
000000f0: 3bce 10bf 1629 ad3c 10e4 d6bf 9910 b9be
00000100: f6e5 e53f d50c 363f 0b7d 053f 6dd2 173f
00000110: 00f6 bdba af82 82be 4cf6 54c0 910e 1fc0
00000120: b7e8 d5be 0254 0fbf 0991 e63d 7ff3 a93f
00000130: 7ed9 743f c5a2 893f 4299 12c0 24fd 213f
-0.29161823 -0.049186166 0.503129 1.926969 -0.30830392 -0.2863731 -2.5513823 -0.81477815
0.6053955 0.32150748 -0.65426 -0.13676643 -0.29122847 0.4242298 0.3279318 1.578831
0.73893446 0.9337444 1.6331037 0.91911477 0.16959083 -0.022301137 0.9083775 0.104698725
-0.19114065 -0.5752665 -0.50404674 0.5331348 0.47425255 1.8526533 0.44675773 -0.36682037
0.665784 0.6628758 0.03234291 -0.2942773 0.06207353 -0.028150141 -0.6082871 -0.0010030548
-3.1342003 -1.3932657 0.68353754 -0.2935663 0.6647455 -0.5295282 -1.5032382 0.4091136
0.018136345 -0.49799332 1.4796526 0.9821839 0.8510721 1.5323702 1.0890676 0.75837064
0.8660988 1.405804 0.55351245 3.702809 -0.5656468 0.021137755 -1.6788349 -0.36145476
1.7960804 0.7111333 0.52143925 0.5930546 -0.0014492869 -0.2549033 -3.3275328 -2.485264
-0.4177911 -0.5598756 0.11258132 1.3277434 0.95644367 1.0752798 -2.290604 0.63276887

bias f4 [40]
00000000: 6a9b 5dbe 170d 823f 9fef 8dbe c7db a63f
00000010: eb66 9c3e 327c 91be 8df1 e4be 1c99 5a3f
00000020: c8ba 863f 7d06 9d3e b10f 9dbe 4fcd dabe
00000030: 5170 e8be 4ca5 883f 56ab 8f3f c9ae bebe
00000040: 1edf 483f 24a6 5cbe 6a87 1abf 187c 0b3e
00000050: 0a6f 8a3f 7732 20bf e1a9 fbbe 6349 de3d
00000060: 917e b0be 4d46 de3f 5115 943f 3125 df3e
00000070: 2fa6 943f 1530 c93c fc06 813f 3c79 e53e
00000080: d4e1 c93f 15ed 19bf 9e5d 1fbf 7220 bd3f
00000090: c78d e8be 552b 5c3f ed5b 513f 5cea 8e3e
-0.21641317 1.0160245 -0.2772188 1.3035821 0.3054727 -0.28415066 -0.4471554 0.85389876
1.0525751 0.30669013 -0.30676034 -0.42734763 -0.4539819 1.0675445 1.1224163 -0.37242725
0.7846545 -0.21547753 -0.60362875 0.13621557 1.0815136 -0.62577003 -0.49153045 0.10853841
-0.34471563 1.7365204 1.1569005 0.43583062 1.1613215 0.02455906 1.0080256 0.44819057
1.5772042 -0.60127383 -0.62252223 1.4775527 -0.45420668 0.8600362 0.8178089 0.27913177

weight f4 [40, 40]
00000000: b894 4dbc 769b 0e3e 2791 05be 53dc bcbc
00000010: a73d 973f e0a9 c7bd ba08 4dbd 2a4c 863d
00000020: 83dc 273f 2486 d03f 809a 8d3b fd11 28bf
00000030: 52b6 953d 42b3 453e 5db9 4fba fea9 843d
00000040: ff01 693f 98b6 6f3d 7343 1bbe 4cff c5b9
00000050: ac56 143f 40bb 84bb 5fee d9bd 2527 97bf
00000060: a777 94be 67f0 3a3f e83d b33e 0df6 623f
00000070: 31a8 f63e 8616 e7bf c981 263f 4eb0 e5be
00000080: f99f 843f fa5a 9b3d c229 f63d caee 823e
00000090: 4215 413e 90f7 813e eb05 273f 150c 87bf
000000a0: da10 5d3e d418 4c3e ae48 c13d 5b46 783d
000000b0: 2641 393e 49c1 36be 7c78 8cbd 5f35 c9bd
000000c0: fefb ec3e 741d 8a3e b2ca f53d 791b 343a
000000d0: 9e12 c9bd 76d9 e23e c1ba 853e 5087 f4bd
000000e0: d0ce 8a3e a2ff be3d 00f7 9d3c 19b9 f93e
000000f0: 26fb b23f 4271 b33d 2db7 2abe 25b6 ca3e
00000100: 2467 7bbe 1b13 e13e 728d 973e 9787 8abd
00000110: 8452 a53e dc9a a23f 738a ea3e 0881 353f
00000120: 38f1 e33e cebe bebd dd2e 96bd 3509 f23f
00000130: 5295 33bd daf3 c43d d295 5e3e 5619 4a3e
00000140: 730f 553c e8d0 d43e 7ed9 b93d f206 fd3e
00000150: d4e1 693e 5934 dc3d 3e11 eb3d e812 083f
00000160: 13a3 b33e 03ea 813e 18b2 e53c 23c1 4abe
00000170: 17c4 163e ef3d 173f 7c3e 873e 4082 b03c
00000180: 4f12 513e e4b0 123d 54d5 e0bd 983e 1b3f
00000190: c3b4 803f 8d5e 153e 28f2 373c b3ab ce3e
000001a0: a25a 013f 2a4c c33e 829e e33e cb96 f63e
000001b0: 20f3 a73e 859f d03e d656 143f 35da 443f
000001c0: cce4 633e 9d58 e8bd 2e1f df3d 77d2 723f
000001d0: 9716 743d a297 1b3f 9675 803e fe7e 133f
000001e0: 79b8 60be e164 943e e426 1a3e 547b 613e
000001f0: 7c29 613e d732 8c3e 842e 323d 22ac 883e
00000200: 6aa2 693e b16d 7b3d e624 ca3d 1bbe debd
00000210: 6e5f e23d 66b6 7f3e 84da 943f 6f17 073e
00000220: 7d90 6f3e cec4 fd3d 9d43 94bd 6023 9d3e
00000230: 4e30 803e 4688 853d a2d3 993e ccc6 fb3e
00000240: a12e a8bd da47 943e 696d 7e3e 72a9 fb3d
00000250: 8962 ac3a 9baa c53e bc2e 8c3e d22d 213e
00000260: a794 9e3e 8a17 f43d bc76 6abd e3dc de3f
00000270: 5e90 c0bd f847 f83e f270 943e 0a76 823e
00000280: 364a aa3d bf04 183f f91f 63be 8ff7 283f
00000290: d7b0 0c3f 458f 13bd 4986 043e 95df 023f
000002a0: 3707 273f 9824 783e 9409 96bd ed60 35bf
000002b0: ec93 5fbd e36c 343f ec60 f63e 0ab4 11be
000002c0: ff0d 0d3f 4205 11bd 6083 93bc 2e6a d83e
000002d0: 52c4 c73e 112b 093e 4a18 3fbd e500 283f
000002e0: 4a21 a43b 02d5 333f 4417 1a3f ff0d 073f
000002f0: 3a2e 5b3f 7307 df3e bde4 323f b962 343f
00000300: 4366 403f a05b 3b3d 6405 363d 4f29 8dbf
00000310: f38b ae3d 207d 463f 8ce0 f53e bfe6 e63e
00000320: 895e 123e ecd1 1fbf 3e37 c6bc b9bd 43be
00000330: 0611 dbbb e9f5 9d3e 12a7 ffbd 4b21 1bbf
00000340: 16af 8ebe 8b98 1d3e b6fb dabd ca25 b33e
00000350: 5000 523c 7ce8 18bf e177 3dbf 4eef 813d
00000360: 1c38 f3be e82f 6f3d b1e8 b2bd 15a6 9cbe
00000370: 509a d7be 804e 943b 3e1f 773e f437 a6be
00000380: a488 5fbd cf0d 0cbf e52c f3be ab7c 88be
00000390: 2b3a 20bf 3e19 aabf 475d 1cbf 1506 15be
000003a0: 50c4 c1be 9c24 4f3d aa89 04be 7c21 003e
000003b0: e932 df3d a2a2 67bf 6d11 a4be 5e85 a7be
000003c0: 78c0 5638 bbde b6be ec49 36be 8df4 94be
000003d0: dfb3 353e 6585 4abe a85b 263d e551 08bf
000003e0: 8268 02bf 87a4 e63e a456 63bd b01d 453c
000003f0: 4a0a 70bd 0f18 fcbe c2e6 04bf a005 d93b
-0.012547664 0.13926491 -0.13043652 -0.023054278 1.181569 -0.09749198 -0.05005715 0.06557496
0.6557085 1.6290936 0.0043213964 -0.6565245 0.073101655 0.19306663 -0.00079240446 0.06477736
0.9101867 0.058523744 -0.15162449 -0.0003776498 0.5794475 -0.0040506423 -0.10641169 -1.1808821
-0.28997537 0.73023075 0.35008168 0.88656694 0.48175195 -1.8053749 0.65041786 -0.44861072
1.036132 0.07585712 0.120196834 0.25572807 0.18855765 0.25384188 0.65243405 -1.0550562
0.2158846 0.19931346 0.09437691 0.06061397 0.18091258 -0.1784717 -0.06858918 -0.09824633
0.46286005 0.26975596 0.12001552 0.0006870549 -0.09818004 0.44306535 0.26119044 -0.11939871
0.2711091 0.09326102 0.019282818 0.4877403 1.3982894 0.087618366 -0.16671439 0.3959209
-0.24551064 0.4395989 0.29600102 -0.06764143 0.32289517 1.2703509 0.45808753 0.7090001
0.44519973 -0.09313737 -0.07333157 1.890906 -0.043843575 0.096168235 0.2173684 0.19736227
0.013004172 0.41565633 0.090746865 0.4941936 0.22840053 0.10752172 0.11477898 0.5315385
0.35085353 0.2537385 0.028039023 -0.19800238 0.1472324 0.5907888 0.2641486 0.021546483
0.2041714 0.035813227 -0.10978189 0.60642385 1.0055164 0.1458685 0.011227168 0.4036537
0.5052892 0.38144046 0.4445687 0.4816192 0.32802677 0.40746704 0.57945 0.7689546
0.22255248 -0.11345027 0.10894619 0.94852394 0.059591856 0.6077825 0.2508971 0.5761565
-0.2194537 0.28983214 0.15053898 0.22019702 0.21988481 0.27382538 0.043501392 0.26693827
0.22815862 0.061383907 0.09870319 -0.108761035 0.11053358 0.24971923 1.1629186 0.13192533
0.23394962 0.12391053 -0.07239459 0.3069105 0.25036854 0.06520133 0.30044276 0.49175107
-0.08212019 0.28961068 0.24846424 0.122881785 0.0013151924 0.38606724 0.27379405 0.15740135
0.30972788 0.11918552 -0.05724214 1.7411159 -0.09402536 0.48492408 0.2899242 0.25480682
0.08314936 0.5938224 -0.22180165 0.66002744 0.54957336 -0.036025304 0.1294185 0.5112241
0.65245384 0.2423271 -0.07326046 -0.7085102 -0.05458443 0.7047865 0.4812082 -0.14228836
0.5509948 -0.035405405 -0.01800698 0.4226851 0.39016968 0.13395335 -0.046654023 0.65626365
0.005008851 0.702469 0.6019175 0.5275573 0.8561741 0.4356037 0.69880277 0.7046314
0.7515604 0.045741677 0.044438735 -1.1028231 0.08522787 0.77534676 0.48022878 0.4509792
0.14293875 -0.6242969 -0.024196263 -0.19115342 -0.006685379 0.30851677 -0.12483038 -0.60597676
-0.27867955 0.15390222 -0.10692541 0.34989768 0.012817457 -0.59729743 -0.74011046 0.06344472
-0.47503746 0.058395296 -0.087357886 -0.3059546 -0.4210992 0.0045259595 0.24133012 -0.32464564
-0.05457367 -0.5470857 -0.4749519 -0.26657614 -0.6258876 -1.3288953 -0.6107983 -0.14553101
-0.37845087 0.050572023 -0.1294314 0.12512773 0.10898382 -0.9048253 -0.32044545 -0.3271894
5.1200826e-05 -0.35716805 -0.17801636 -0.29092827 0.17744397 -0.19777448 0.040614754 -0.5324996
-0.50940716 0.450474 -0.05550255 0.012031004 -0.058603562 -0.49237105 -0.5191461 0.006622985

bias f4 [40]
00000000: 891c c63e 4e95 c03e a326 053f 88a2 bb3e
00000010: a0c9 433f 674c 96be 1d6d 30bf 73c4 003f
00000020: d1b5 f0be 60de b4be daae adbe ee87 f7be
00000030: f898 b5be 4cd1 ad3e 972b 05bf 2834 f33e
00000040: d055 10bf a179 0e3f cd27 98be 500d 5bbe
00000050: 3204 83be 6090 123f dea9 34bf 01a6 a83e
00000060: 0106 91be 864c f4be 022a e7be 687e d33e
00000070: f88d a6be 7cba 023f e877 90be 0d0b 17bf
00000080: 5d82 023f 0e1e fc3e e6f5 3f3e 33bc 08bf
00000090: 2183 193f 7e83 24bf 13c8 89be a44b b5be
0.38693646 0.3761391 0.5201208 0.3664744 0.7647953 -0.29355165 -0.68916494 0.5029976
-0.47013715 -0.3532591 -0.33922464 -0.48345894 -0.35468268 0.33948743 -0.5201964 0.4750073
-0.5638094 0.5565434 -0.29717866 -0.21391797 -0.25589138 0.5725155 -0.70571697 0.3293915
-0.28324893 -0.47714633 -0.45149237 0.41307378 -0.3253019 0.510658 -0.2821648 -0.5900124
0.5098017 0.4924168 0.18746147 -0.5341217 0.5996571 -0.6426314 -0.26910457 -0.35409272

weight f4 [40, 40]
00000000: a310 d63d 7604 42be 6769 4ebe 1225 e2be
00000010: 47ea b7be 27db 813e aa00 e53e 3291 9dbe
00000020: 99c2 d43e 9015 be3e 61bb c13e 0596 b73e
00000030: fd0c e33e afba 9cbe 1aff a43e 1d3d bdbe
00000040: 71f8 963e f898 cabe 0de1 0a3e 3493 f33e
00000050: d4eb 5f3e b619 b1be 04e8 c83e 5c08 683e
00000060: 0fd6 303e 54dd 793e ed73 1f3e 4577 54be
00000070: dd78 5bbe f584 73be ba09 c73e 56ee 513e
00000080: 095d 10be ea4f ecbe 4979 bcbe 886b 88be
00000090: d0a0 e1bd 0613 8c3e 582d 023e 6762 003e
000000a0: 99f0 61be 6661 e93e c888 613e 9516 403e
000000b0: 1c11 b93e 2ce0 4bbe 7504 38be 4a67 a23e
000000c0: 44c4 8ebe feb1 64be 2200 d7be b4ab 49be
000000d0: 417f c4be 7b16 893e 23ab 07be 9d30 da3e
000000e0: 94e7 06be 8c42 c43e 96b7 b9be ab67 4bbe
000000f0: 4097 d9be 7c08 ca3e 753c 00be f19f 27be
00000100: 91eb abbe 991b bcbe ff52 81be 6c3b e83e
00000110: 9f92 013e 2001 173f c8ed fabe 528f 94be
00000120: 7133 ab3e 6b55 c53e e631 933e f950 8d3e
00000130: 4db1 3a3e 8b02 d8bd 69e6 28be 7f59 46be
00000140: 6c6c 883e 0616 f3be 3131 5bbe 8831 9abe
00000150: ee47 b3be 31ff 033f f011 593e 0d4a 80be
00000160: 8d06 aa3e cb4a c93e 88a9 c23e ee8c da3e
00000170: c02d d53e c39e dcbe df7b a63e 2045 56be
00000180: 10c2 7e3e c247 abbe 52d9 c33e 4aec 233e
00000190: 5a76 8c3e 53a3 7bbe e3e4 a53e 1e0e 843d
000001a0: 06d6 953e 8767 973e 22a0 56be 4ba5 6dbe
000001b0: 1338 ce3c 76ea 643c 7b92 d63e 7bb1 3b3f
000001c0: bdc7 a2be c7e7 49be ec89 c5be 7801 05be
000001d0: ad79 d2be 2716 8a3e 8f0e a63e 222b af3e
000001e0: eb68 783e 0e31 86be b1e7 cfbe cf72 27be
000001f0: f1c6 6cbe 10f0 eb3e b159 623e 7a77 fcbe
00000200: 1b6d bb3e 10f6 a43e 168f 0e3f 090b e43e
00000210: 2eaa 683e 0b42 c4be 5143 abbd febb 69be
00000220: 9c14 9f3e 41ff e0be 2d8d 763d c91e cf3e
00000230: 2712 8c3e f951 9abe fbca ae3e 97e4 093d
00000240: ce7b b83e 0190 ad3e 8b10 febd e7be b3be
00000250: b109 8dbe a2e6 fcbc 2057 a33e d634 943e
00000260: 123d 6bbe 6099 3f3d 47d6 f1be 9b41 83be
00000270: 72b9 84be 1e23 bf3e b51c 0a3f b932 b7bc
00000280: 7bee bdbd 322f cebd 2c3b e4be 6063 84be
00000290: f7ae a43d 0a12 463e 9d11 b63e 2d14 0abf
000002a0: 894d aa3e d95c ba3e ead5 053f cd34 e93e
000002b0: 29c5 df3e 3518 adbe 7468 4d3f ed8e 733e
000002c0: 5d33 f43e f4b0 c4be f3c4 a93e a545 943e
000002d0: 8b73 273e c0ab d0be 6d3e ac3e 10bb bd3c
000002e0: ce14 e03e 8aea f33e 9af7 053e 512e 45be
000002f0: 9a9e 49be 40f0 55bf a7b9 8a3e cb52 803e
00000300: c3a1 c0be caad bcbe 4274 c6be dab9 3abd
00000310: bbab 693d 0122 7dbd 089a f83c 0c9b a13e
00000320: 443d dbbd d6dd c73e e516 aa3e 5f0e e03e
00000330: 1077 b73e cc5d 01be 7f37 a4be 112a 733e
00000340: 7b6f c8be 0f36 d2be a678 97be d3e1 63be
00000350: 3e0d b1be e313 fc3e 653f 71bd 7394 b53d
00000360: 8f89 83be 5b40 823e 269a 723d 38e9 f7bd
00000370: 324c bdbe 90da 873e 4903 debe 67f6 68be
00000380: d64c bebe d88b e4be caec cabe 108a 243e
00000390: bcbc c03e e24b 833e 4597 e6be 503a 24be
000003a0: a311 d23e 4936 df3d 41af a83e 86a5 fb3e
000003b0: 33a4 423e c589 95be 5350 adbe 2f39 2b3e
000003c0: 46fe 993e 4718 c4be 269c efbe 70eb d7be
000003d0: 5b67 3cbe d4e8 753e de24 0e3f 7b50 16bf
000003e0: 00d0 c73e 2db6 663e 1bac 1f3d 7653 f63e
000003f0: 1b1d 163f 4006 d1be 9bd7 103f 4f17 05be
0.10452392 -0.18947014 -0.20157395 -0.44168907 -0.35920927 0.25362512 0.4472707 -0.30774838
0.41554716 0.37125826 0.3783827 0.35856643 0.44345847 -0.30611178 0.32225877 -0.36960688
0.2948642 -0.3956983 0.13562413 0.47573245 0.21867305 -0.34589928 0.39239514 0.22659439
0.17269157 0.24400836 0.15571566 -0.20748623 -0.21432824 -0.23781188 0.38874608 0.20501074
-0.1409799 -0.4615472 -0.36811283 -0.2664454 -0.11017001 0.27358264 0.1271261 0.12537538
-0.22064437 0.45582122 0.22024834 0.18758614 0.36145866 -0.19909734 -0.1797045 0.31719428
-0.27884114 -0.22333524 -0.4199229 -0.19694406 -0.38378337 0.26774964 -0.13248877 0.42615214
-0.13174278 0.3833202 -0.36272877 -0.19863765 -0.42498207 0.39459598 -0.12523063 -0.16369607
-0.3357816 -0.36739805 -0.25258633 0.45357835 0.12653588 0.5898609 -0.49009538 -0.29015595
0.33437684 0.3854173 0.28749007 0.2760084 0.18231697 -0.1054736 -0.16494144 -0.19370078
0.2664522 -0.4747774 -0.21405484 -0.30115914 -0.35015815 0.51561266 0.21198249 -0.25056496
0.33208123 0.39314875 0.38019967 0.42685646 0.41636467 -0.43089876 0.3251638 -0.20924807
0.24878716 -0.33453184 0.3825174 0.16008106 0.27434045 -0.24574022 0.3240119 0.06448005
0.2926485 0.29571173 -0.20959523 -0.23207586 0.025173223 0.0139719155 0.4190863 0.7331769
-0.31793013 -0.19717322 -0.3858179 -0.12988842 -0.41108456 0.26970026 0.32432982 0.34212595
0.24258773 -0.262093 -0.40606454 -0.1635239 -0.23122765 0.4608159 0.22104527 -0.49309903
0.36606678 0.3221898 0.5568708 0.4453967 0.22721168 -0.38331637 -0.08362449 -0.2282562
0.3107041 -0.43944743 0.06019323 0.40453175 0.273576 -0.30140665 0.34139237 0.033665266
0.36031955 0.3389893 -0.12405499 -0.35106584 -0.27546456 -0.030871693 0.3190241 0.2894656
-0.22972515 0.04677713 -0.47233793 -0.2563599 -0.25922734 0.3733148 0.53950053 -0.022363054
-0.09274002 -0.100675955 -0.44576395 -0.25857067 0.080411844 0.19342819 0.35560313 -0.53937036
0.3326228 0.36398962 0.5227953 0.45548096 0.4370511 -0.3380753 0.8023751 0.2378499
0.47695437 -0.38416255 0.33158073 0.28959385 0.1635267 -0.40756035 0.33641377 0.023160487
0.43765873 0.47639877 0.13082734 -0.1925595 -0.19689408 -0.8356972 0.27094766 0.25063166
-0.37623414 -0.3685134 -0.38760573 -0.045587398 0.05704854 -0.061800007 0.030346885 0.31563604
-0.10705045 0.39036435 0.33220592 0.43760964 0.35833025 -0.12633437 -0.3207359 0.23746516
-0.39147553 -0.41056868 -0.29584235 -0.22254114 -0.34580415 0.49233922 -0.05889835 0.08866205
-0.25690886 0.25439724 0.05922904 -0.1210503 -0.36972195 0.26533937 -0.4336188 -0.22750245
-0.37167996 -0.44637942 -0.3963378 0.16068292 0.37643993 0.25643831 -0.45037284 -0.1603787
0.4102908 0.10899026 0.32946208 0.49149722 0.1900795 -0.29206672 -0.33850345 0.16721033
0.30076808 -0.38299772 -0.4679882 -0.42171812 -0.18398802 0.24014598 0.55525005 -0.58716553
0.3902588 0.22530432 0.038982492 0.4811055 0.5863816 -0.4082508 0.5657899 -0.12997173

bias f4 [40]
00000000: b9e6 c8be db9e 8d3e 9569 b5be 9a4b 83be
00000010: c58b 9bbe 8501 ce3e 6f4d debe 267d e63e
00000020: e7f0 0c3f fd75 9cbe 6895 d13e 8d7b 08bf
00000030: 86c7 073f 96cb 2ebe 8f23 103f 0b8f e1be
00000040: 1277 e4be 5222 ba3e 1803 eabe cdd6 a83e
00000050: b710 96be dd3b 053f b7ab bdbe 1ecd c23e
00000060: f831 7fbe 644f f3be 25a9 d43e 83cd 343e
00000070: 0923 fc3e 4c62 04bf e2cd c03e 1b38 b53e
00000080: 4d97 923e 2567 913e 6317 b63e 966e 893e
00000090: cde9 173f 1344 26be 754f aabe 821b 19bf
-0.39238527 0.2766026 -0.35432115 -0.25643617 -0.30380073 0.40235534 -0.43418452 0.45017356
0.5505509 -0.30558768 0.409343 -0.53313524 0.53038824 -0.1706985 0.5630426 -0.44054446
-0.44622093 0.3635431 -0.45705485 0.3297638 -0.29309627 0.5204447 -0.3704507 0.38047117
-0.24921405 -0.47521508 0.41535297 0.17656521 0.4924548 -0.5171249 0.37657076 0.35394368
0.28631058 0.28399006 0.35564718 0.26842183 0.59341127 -0.16236906 -0.33263746 -0.598076

weight f4 [1, 40]
00000000: c2cc ccbe 9d5e 7a3e c570 d9bd 50f7 e0be
00000010: 4ff8 b5be 39d3 9f3e 818e 32bf c4d8 df3e
00000020: 03ac 8b3e aff3 a3be 34f3 f03e ef8d 71be
00000030: c8fa a83e 3a10 ccbe 8e0d a63e b58d a4be
00000040: 475c 99be c016 843e eea5 aebe 1a06 a13e
00000050: 5d9d a8be 54aa ca3e 8ba6 24bf dae1 963e
00000060: b3ae ccbe 82b8 c1be ac4e 073f fc1e 453e
00000070: aba7 c03e 1e75 e2be d94b b43e d90b 923e
00000080: 22c4 d33e 1c80 083f 6d88 d23e 4b5f d53e
00000090: b047 cb3e 58fd 1abf 9f7c cdbe 97e0 a1be
-0.39999968 0.24450155 -0.10617212 -0.43938684 -0.35541007 0.31215838 -0.69748694 0.43720067
0.27279672 -0.32021853 0.4706055 -0.235893 0.3300383 -0.3985613 0.32432216 -0.32139364
-0.29953215 0.25798607 -0.3411097 0.31449968 -0.3293256 0.39583075 -0.64316624 0.29469186
-0.39977035 -0.3783608 0.5285442 0.19250101 0.3762792 -0.44229978 0.35214117 0.28524664
0.41360575 0.5332048 0.4111971 0.41674265 0.3970313 -0.6054282 -0.4013414 -0.3161666
