Gap_Gene_flow/min_func_Wt.pt (torch, 60841 bytes, 139 tensors)

weight f4 [2, 2]
-2.1098015 1.626134 0.14052318 1.7457939
00000000: fd06 07c0 2925 d03f 4fe5 0f3e 2d76 df3f

bias f4 [2]
-2.1490984 1.4234579
00000000: d48a 09c0 de33 b63f

weight f4 [2, 2]
-1.9184133 -3.184737 -5.98575 0.96899056
00000000: 918e f5bf bbd2 4bc0 448b bfc0 c40f 783f

weight f4 [1, 2]
-0.19568354 0.44534975
00000000: 4461 48be e204 e43e

weight f4 [2, 2]
-0.061325263 1.1636746 0.5880764 -1.9041306
00000000: 3330 7bbd 4af3 943f 2d8c 163f 8dba f3bf

bias f4 [2]
1.1956372 -2.5714445
00000000: a40a 993f 8c92 24c0

weight f4 [2, 2]
1.2938854 -0.20784931 1.3046273 -1.1583169
00000000: 099e a53f 73d6 54be 07fe a63f ba43 94bf

weight f4 [1, 2]
0.6543668 -0.09917307
00000000: 9584 273f 401b cbbd

weight f4 [2, 2]
-1.9172387 -2.9012978 -0.27746117 0.28897837
00000000: 1468 f5bf ddae 39c0 640f 8ebe f9f4 933e

bias f4 [2]
-3.5712078 1.0096757
00000000: ab8e 64c0 0e3d 813f

weight f4 [2, 2]
-0.833356 0.6557242 -0.22997688 4.5849648
00000000: d256 55bf 8bdd 273f 0f7f 6bbe 08b8 9240

weight f4 [1, 2]
-0.44506532 0.30745882
00000000: 9adf e3be 3e6b 9d3e

weight f4 [2, 2]
2.6597586 -0.19890147 -1.7851651 -4.0812163
00000000: 7c39 2a40 d4ac 4bbe 4a80 e4bf 5399 82c0

bias f4 [2]
0.23982452 1.1326553
00000000: 8f94 753e d9fa 903f

weight f4 [2, 2]
-3.8039334e-06 0.00084018183 0.0008147609 3.183096e-05
00000000: 1447 7fb6 a63f 5c3a ae95 553a 3c82 0538

weight f4 [1, 2]
-0.68645775 -0.53204125
00000000: b2bb 2fbf db33 08bf

weight f4 [2, 2]
-0.57325786 0.81873894 -0.28454676 0.380749
00000000: 07c1 12bf e098 513f 1db0 91be 88f1 c23e

bias f4 [2]
-2.1648676 1.5107466
00000000: 318d 0ac0 2560 c13f

weight f4 [2, 2]
-2.4942467 -3.5733874 -1.0282413 0.74710995
00000000: bda1 1fc0 61b2 64c0 699d 83bf 9942 3f3f

weight f4 [1, 2]
0.3228529 0.6721993
00000000: fa4c a53e 4115 2c3f

weight f4 [2, 2]
-1.7586068 -0.97751707 1.7687843 1.9315623
00000000: 071a e1bf 8f3e 7abf 8667 e23f 6f3d f73f

bias f4 [2]
-1.7289397 1.509143
00000000: e54d ddbf 992b c13f

weight f4 [2, 2]
-0.2581674 0.5933634 -0.27059746 0.5918166
00000000: 842e 84be aae6 173f c08b 8abe 4b81 173f

weight f4 [1, 2]
0.1893518 0.23375022
00000000: 70e5 413e 385c 6f3e

weight f4 [2, 2]
-1.3652077 -1.0485052 0.03247106 0.8363966
00000000: 20bf aebf 6b35 86bf 6000 053d 161e 563f

bias f4 [2]
-0.02740567 2.158439
00000000: db81 e0bc dd23 0a40

weight f4 [2, 2]
0.51752 -1.2178817 2.5368927 -2.005263
00000000: 317c 043f 8ce3 9bbf 735c 2240 3b56 00c0

weight f4 [1, 2]
-0.16951835 -0.34558678
00000000: 3896 2dbe c0f0 b0be

weight f4 [2, 2]
0.13095894 0.3557088 0.053842463 0.7818259
00000000: 1a1a 063e 771f b63e ea89 5c3d be25 483f

bias f4 [2]
0.9289465 4.5690823
00000000: 70cf 6d3f ec35 9240

weight f4 [2, 2]
-1.902779 -1.7859789 4.508833 -0.07169496
00000000: 438e f3bf f59a e4bf 5c48 9040 cfd4 92bd

weight f4 [1, 2]
-0.53508955 0.6044795
00000000: a1fb 08bf 2bbf 1a3f

weight f4 [2, 2]
-1.8061564 -0.3566846 -2.270944 -2.89225
00000000: 2230 e7bf 5d9f b6be 2657 11c0 a01a 39c0

bias f4 [2]
0.08447474 -0.118467
00000000: 1801 ad3d d49e f2bd

weight f4 [2, 2]
0.024155954 0.61367875 0.857162 0.6530691
00000000: b5e2 c53c 0d1a 1d3f f86e 5b3f 892f 273f

weight f4 [1, 2]
-0.6042001 -0.37819892
00000000: dcac 1abf 4aa3 c1be

weight f4 [2, 2]
-1.8016045 2.8194354 0.9537428 -0.0649353
00000000: fa9a e6bf a171 3440 7d28 743f ccfc 84bd

bias f4 [2]
2.7679749 -1.0339372
00000000: 8026 3140 0e58 84bf

weight f4 [2, 2]
-0.017397938 1.7812527 -0.016551161 1.8066366
00000000: 1f86 8ebc 1700 e43f 4d96 87bc de3f e73f

weight f4 [1, 2]
0.27901047 0.32859188
00000000: 76da 8e3e 323d a83e

weight f4 [2, 2]
-0.51422423 -0.37938878 0.9032304 1.0194407
00000000: 33a4 03bf 3f3f c2be 1c3a 673f 087d 823f

bias f4 [2]
0.3435002 0.6770563
00000000: 42df af3e 9053 2d3f

weight f4 [2, 2]
2.2237494 0.63743466 2.1939662 -3.5626118
00000000: e951 0e40 eb2e 233f f169 0c40 d501 64c0

weight f4 [1, 2]
-0.29005232 0.32133502
00000000: bd81 94be 0686 a43e

weight f4 [2, 2]
2.7888675 -1.1515416 0.7179903 -0.5655377
00000000: ce7c 3240 b765 93bf 36ce 373f 14c7 10bf

bias f4 [2]
0.5394046 0.77588415
00000000: 6b16 0a3f 58a0 463f

weight f4 [2, 2]
0.74992913 -2.4611394 -0.18025199 1.4756098
00000000: 5bfb 3f3f 4f83 1dc0 fa93 38be c8e0 bc3f

weight f4 [1, 2]
0.24349087 -0.61738575
00000000: ac55 793e fe0c 1ebf

weight f4 [2, 2]
0.6528401 -1.1232021 4.2896967 0.9558167
00000000: 8720 273f 16c5 8fbf 3245 8940 67b0 743f

bias f4 [2]
0.041718736 -0.70057446
00000000: 44e1 2a3d d958 33bf

weight f4 [2, 2]
2.2089307 -0.41713184 1.8253593 -0.009215099
00000000: 1f5f 0d40 4e92 d5be 60a5 e93f edfa 16bc

weight f4 [1, 2]
-0.50927806 -0.4371031
00000000: 0c60 02bf facb dfbe

weight f4 [2, 2]
0.7922219 -3.3370526 -1.9723184 0.86598414
00000000: 0ecf 4a3f 4592 55c0 ee74 fcbf 23b1 5d3f

bias f4 [2]
-2.8365977 -0.2953426
00000000: d18a 35c0 2537 97be

weight f4 [2, 2]
-0.77802324 1.3841846 -0.78672075 1.2489774
00000000: 882c 47bf f62c b13f 8866 49bf 7ede 9f3f

weight f4 [1, 2]
-0.13131493 -0.41440687
00000000: 6c77 06be 232d d4be

weight f4 [2, 2]
-23.086308 -6.5237036 4.1339245 12.152346
00000000: c2b0 b8c1 2ec2 d0c0 1c49 8440 0270 4241

bias f4 [2]
0.5310482 -2.8599815
00000000: c6f2 073f f009 37c0

weight f4 [2, 2]
-0.35738364 -0.076809585 -0.52054965 -0.41188332
00000000: fdfa b6be 584e 9dbd be42 05bf 5fe2 d2be

weight f4 [1, 2]
0.6399196 -0.3211325
00000000: c5d1 233f 7b6b a4be

weight f4 [2, 2]
2.9965935 0.37037128 -1.3426815 -0.20580983
00000000: 30c8 3f40 4ea1 bd3e fddc abbf d0bf 52be

bias f4 [2]
1.590216 -1.6857121
00000000: 338c cb3f 6ac5 d7bf

weight f4 [2, 2]
-2.0718644 2.43678 0.53274834 -2.200404
00000000: 6d99 04c0 34f4 1b40 3262 083f 6bd3 0cc0

weight f4 [1, 2]
0.303443 -0.1790232
00000000: e25c 9b3e dc51 37be

weight f4 [2, 2]
0.071596324 -0.053527713 0.33985505 -0.19989774
00000000: 18a1 923d e03f 5bbd 7b01 ae3e feb1 4cbe

bias f4 [2]
0.99206614 0.7269392
00000000: 0cf8 7d3f b018 3a3f

weight f4 [2, 2]
-2.1175072 0.6445552 0.79358625 -0.22843741
00000000: 3d85 07c0 9201 253f 7828 4b3f 7feb 69be

weight f4 [1, 2]
-0.44120702 -0.128761
00000000: e3e5 e1be ecd9 03be

weight f4 [2, 2]
0.74825376 -0.05097343 2.1429834 1.4371743
00000000: 8f8d 3f3f 84c9 50bd a426 0940 54f5 b73f

bias f4 [2]
-0.8825797 -4.0661745
00000000: bef0 61bf 1a1e 82c0

weight f4 [2, 2]
-2.1097403 -0.5274845 3.1993341 -0.3536653
00000000: fc05 07c0 3909 07bf e4c1 4c40 9e13 b5be

weight f4 [1, 2]
-0.28636187 0.6866134
00000000: 069e 92be e5c5 2f3f

weight f4 [2, 2]
-4.4232974 -9.161698 1.7502638 -1.1845845
00000000: a78b 8dc0 5196 12c1 a508 e03f 77a0 97bf

bias f4 [2]
-0.037298534 -0.013062013
00000000: 59c6 18bd 0e02 56bc

weight f4 [2, 2]
-0.0020017484 0.76558757 -0.40987504 -25.90592
00000000: c42f 03bb 8cfd 433f 24db d1be 533f cfc1

weight f4 [1, 2]
-0.6314885 0.582442
00000000: 3ba9 21bf eb1a 153f

weight f4 [2, 2]
0.043895237 -1.4293631 -0.5271581 -0.039917693
00000000: 7ecb 333d 5ff5 b6bf d5f3 06bf bc80 23bd

bias f4 [2]
-1.7671396 1.1623418
00000000: a131 e2bf 9ec7 943f

weight f4 [2, 2]
-1.0611464 0.21885993 0.025816958 2.26167
00000000: a5d3 87bf d11c 603e 167e d33c 34bf 1040

weight f4 [1, 2]
-0.6389854 0.21244782
00000000: 8c94 23bf ec8b 593e

weight f4 [2, 2]
0.45522135 0.9855276 -0.030095529 0.19074553
00000000: c612 e93e 894b 7c3f e68a f6bc cc52 433e

bias f4 [2]
0.0981845 0.17063594
00000000: f514 c93d 30bb 2e3e

weight f4 [2, 2]
0.14375597 0.10675331 0.10520222 1.4551712
00000000: c434 133e 7ba1 da3d 4374 d73d 0d43 ba3f

weight f4 [1, 2]
-0.20479184 -0.6777044
00000000: f4b4 51be 097e 2dbf

weight f4 [2, 2]
2.5657935 -1.5078202 0.033349905 0.028531801
00000000: f635 2440 4100 c1bf e999 083d 86bb e93c

bias f4 [2]
-2.9834912 -1.8706206
00000000: 85f1 3ec0 7f70 efbf

weight f4 [2, 2]
-0.23343042 1.6801463 0.00074039435 1.2083774
00000000: 6208 6fbe 090f d73f 0617 423a 1cac 9a3f

weight f4 [1, 2]
0.18903196 0.64877933
00000000: 9891 413e 6716 263f

weight f4 [2, 2]
0.017731681 0.020582756 -5.1207867 3.8488092
00000000: 0842 913c 2b9d a83c 7cdd a3c0 e452 7640

bias f4 [2]
1.0859404 0.7096414
00000000: 1800 8b3f 0fab 353f

weight f4 [2, 2]
-4.0042067 -3.9086187 -0.50253946 0.27342612
00000000: 7622 80c0 cf26 7ac0 6da6 00bf 82fe 8b3e

weight f4 [1, 2]
0.15921336 -0.24208221
00000000: d408 233e 66e4 77be

weight f4 [2, 2]
1.3465086 0.60551393 7.593395 2.0698464
00000000: 655a ac3f f602 1b3f 18fd f240 5d78 0440

bias f4 [2]
-0.025248421 3.1025696
00000000: c7d5 cebc 8090 4640

weight f4 [2, 2]
-3.068607 -2.736833 3.321455 -1.6185299
00000000: 0f64 44c0 4628 2fc0 b892 5440 fd2b cfbf

weight f4 [1, 2]
-0.08519733 -0.26674056
00000000: f07b aebd 3892 88be

weight f4 [2, 2]
-0.08409593 -0.54783857 0.8993967 0.11239737
00000000: 7d3a acbd 263f 0cbf dd3e 663f 9830 e63d

bias f4 [2]
-1.0382366 -0.8849926
00000000: f0e4 84bf e08e 62bf

weight f4 [2, 2]
1.795728 0.16669534 1.5904115 -8.88256
00000000: 6ada e53f 2fb2 2a3e 9b92 cb3f f71e 0ec1

weight f4 [1, 2]
0.23314422 -0.20625675
00000000: 5cbd 6e3e f834 53be

weight f4 [2, 2]
2.269794 0.9011825 -0.7762047 0.31732678
00000000: 4e44 1140 e5b3 663f 5ab5 46bf a878 a23e

bias f4 [2]
-2.5290558 0.46846715
00000000: 0ddc 21c0 edda ef3e

weight f4 [2, 2]
-0.24795344 2.041935 -2.2468288 -2.5891087
00000000: 82e7 7dbe 10af 0240 0bcc 0fc0 f5b3 25c0

weight f4 [1, 2]
0.6678178 -0.5253005
00000000: 1bf6 2a3f 187a 06bf

weight f4 [2, 2]
-0.7863057 -4.6216927 0.32094097 0.32695422
00000000: 554b 49bf e8e4 93c0 6052 a43e 8b66 a73e

bias f4 [2]
2.505693 -0.66720986
00000000: 465d 2040 44ce 2abf

weight f4 [2, 2]
-0.57746565 3.99888 -0.14581369 1.1315798
00000000: cad4 13bf a6ed 7f40 2f50 15be 9bd7 903f

weight f4 [1, 2]
0.32846576 -0.49294692
00000000: aa2c a83e 8a63 fcbe

weight f4 [2, 2]
-0.2780093 -0.25934124 0.08705998 -0.30840746
00000000: 3c57 8ebe 60c8 84be 814c b23d 95e7 9dbe

bias f4 [2]
0.50068945 0.16309655
00000000: 2f2d 003f c802 273e

weight f4 [2, 2]
-0.8503837 0.35284168 -0.26733893 0.9202822
00000000: bfb2 59bf aaa7 b43e a6e0 88be 9d97 6b3f

weight f4 [1, 2]
-0.15232807 -0.39765602
00000000: e4fb 1bbe 9299 cbbe

weight f4 [2, 2]
1.8264295 -5.7020082 -0.14031342 0.70943284
00000000: 71c8 e93f da76 b6c0 52ae 0fbe 649d 353f

bias f4 [2]
2.6033072 -1.6742316
00000000: 969c 2640 394d d6bf

weight f4 [2, 2]
-0.064144164 1.0748255 0.11108347 -3.1859467
00000000: 045e 83bd e293 893f bb7f e33d 8de6 4bc0

weight f4 [1, 2]
-0.11344057 0.5435831
00000000: 8853 e8bd 4328 0b3f

weight f4 [2, 2]
0.2818631 0.2910562 0.6177704 6.0729284
00000000: 5c50 903e 5105 953e 3326 1e3f 6e55 c240

bias f4 [2]
-1.3043426 -1.2937859
00000000: b3f4 a6bf c79a a5bf

weight f4 [2, 2]
0.34568143 -0.076971486 2.829472 -0.11819891
00000000: 28fd b03e 3aa3 9dbd 1216 3540 4512 f2bd

weight f4 [1, 2]
-0.0980258 -0.10982716
00000000: c0c1 c8bd 10ed e0bd

weight f4 [2, 2]
6.966406 2.7291017 2.6978192 0.39605033
00000000: ccec de40 9aa9 2e40 12a9 2c40 1cc7 ca3e

bias f4 [2]
2.151237 -0.19674431
00000000: dead 0940 5777 49be

weight f4 [2, 2]
-0.5694151 0.72986245 -0.09997372 -0.50179356
00000000: 30c5 11bf 44d8 3a3f 06bf ccbd 8b75 00bf

weight f4 [1, 2]
0.66334647 -0.004940212
00000000: 13d1 293f 80e1 a1bb

weight f4 [2, 2]
-0.06990224 0.030835286 -0.20195498 -1.0279176
00000000: e828 8fbd 489a fc3c 49cd 4ebe ce92 83bf

bias f4 [2]
-0.34927723 -0.8664688
00000000: 77d4 b2be e6d0 5dbf

weight f4 [2, 2]
-0.13007766 0.6751661 0.6246717 0.50225544
00000000: 1433 05be afd7 2c3f 7cea 1f3f d093 003f

weight f4 [1, 2]
-0.4283853 -0.5664629
00000000: 5155 dbbe b603 11bf

weight f4 [16, 2]
-5.1645765 -0.53709126 0.38282847 -0.96673256 2.8383586 -5.7860126 -0.8357233 -1.0126052
-0.4872303 6.257385 2.6782892 -1.907533 -0.77368253 0.4103246 -4.8907213 -0.6827955
-2.2469485 -2.2824645 -1.705578 -1.5880098 -1.4644308 -1.8125403 -2.283444 -1.6446729
-0.6085007 -1.134691 -1.981614 -1.3506676 2.8644779 -0.6980041 -2.6729016 -1.2704961
00000000: 3644 a5c0 d07e 09bf 1802 c43e c97b 77bf
00000010: aba7 3540 0427 b9c0 f6f1 55bf 0c9d 81bf
00000020: 4076 f9be 7f3c c840 1769 2b40 0b2a f4bf
00000030: 0f10 46bf 1116 d23e ca80 9cc0 b0cb 2ebf
00000040: 01ce 0fc0 e613 12c0 6150 dabf e843 cbbf
00000050: 7872 bbbf 5201 e8bf f223 12c0 a484 d2bf
00000060: b4c6 1bbf 8e3d 91bf 87a5 fdbf ade2 acbf
00000070: 9b53 3740 66b0 32bf d210 2bc0 9e9f a2bf

bias f4 [16]
0.26599178 -0.3823866 1.0544381 0.53002053 1.001106 -1.169821 0.5316837 0.7656713
-0.41372758 -0.6399374 0.22537273 0.7964416 -0.22244424 0.90126765 0.11419064 1.0329849
00000000: 1330 883e 2dc8 c3be d4f7 863f 6daf 073f
00000010: 3e24 803f b2bc 95bf 6c1c 083f 0903 443f
00000020: 1ad4 d3be f0d2 23bf 1cc8 663e 99e3 4b3f
00000030: 6cc8 63be 7ab9 663f c8dc e93d d938 843f

weight f4 [16, 16]
-0.6669758 -0.81499565 2.4672306 0.6306367 -2.987309 -2.6285665 -0.22166836 1.8954206
0.08260708 -0.22642887 1.1499528 1.8013555 0.49397537 1.0038913 -0.88048387 0.26945528
-0.12954897 -0.782725 0.2887672 -0.75948036 -4.9542313 -3.0717664 -3.2030907 0.37866694
0.707506 3.657811 -0.3351706 0.2220971 2.464651 -1.0622319 -4.3236756 0.08298347
2.590964 0.1588531 1.6585395 1.7407194 -1.3803033 1.7749648 -0.07334157 3.7419677
-0.6755695 1.0601404 2.4416203 1.1899447 -0.42563546 2.1587029 1.8133628 3.458587
1.0718794 -0.12572904 -4.123666 1.4859685 -0.94442093 -1.0984762 -0.16545656 -1.0178368
2.2839847 0.514404 1.2923635 1.9849491 1.5009131 1.0111144 -1.0064379 -0.5805856
-0.38470337 -1.4069583 -0.42607903 0.71614903 -0.96069497 -2.521995 0.1356568 0.39742523
-0.19623035 -0.68509173 0.8976448 0.07402344 0.38924745 0.22082937 -1.0668344 0.77319705
-1.4137349 3.1697316 -0.50278133 -2.6982644 0.76071894 5.766231 -1.8954368 -1.6636484
1.7477243 -0.01555686 1.2020421 1.1459746 1.745193 -0.7715125 1.8637426 -5.9363074
-2.4158254 -1.4120706 -1.4464434 0.41727513 -0.19979234 -2.5877783 2.6901622 -0.18243518
-2.056285 -0.44899273 1.35514 1.0633317 -2.6484945 1.946243 0.5466721 1.546087
1.9467564 -0.106560834 0.30196723 0.4807592 -1.2101818 0.79797184 0.25960082 1.9179058
1.8041265 1.4049104 0.526165 0.48889247 1.2323474 0.50961256 -0.36972937 0.59763163
-1.9944677 -1.638438 -1.0875101 0.97310364 -0.529185 -3.238631 2.380363 -0.22105756
-1.2318208 0.15436617 2.015994 1.6982166 -1.5387069 2.5807626 -0.86492085 1.5286605
1.7968233 -0.5607471 -2.487429 -0.07621763 2.1617992 0.77442604 0.83376485 -0.41779104
0.63859636 0.11186383 -0.06416856 -0.49029976 -0.7219831 -1.0073317 1.6679661 -0.40539986
1.659916 1.0536996 0.07506893 0.80719334 0.7208661 1.4295145 -0.41383007 0.048494756
0.13147403 1.3745358 0.24939376 0.16951898 0.29156515 0.019743051 -0.25807402 0.2841774
-0.1248609 0.18570742 1.3632758 0.5270126 -1.1451598 0.5356849 -0.6259744 -0.011782222
-0.15449914 0.6415772 0.641699 0.51341933 0.03222713 0.35397306 0.42049545 -0.79685014
-4.6187215 1.1819729 2.0834162 -0.8937154 -1.7842035 -1.2353323 -2.4954982 -3.3390782
2.3410954 1.1925375 1.7026298 0.1792324 1.9434392 0.5918421 -0.5668487 -3.0186539
1.0545394 -0.48985544 0.33729762 2.3108525 3.3564866 0.047055386 2.2999725 -1.6844059
0.36270487 -3.3207936 1.3340443 -2.4197226 0.18567498 0.7042183 -0.44351318 -0.8903977
1.9355073 -0.3334276 -1.8547758 1.0018824 -0.518037 -0.8354758 -0.19939649 0.82646185
1.3515333 0.5514564 -0.32205552 0.64396816 1.384609 0.20074055 -0.90190136 0.90851486
-7.058074 -3.1382601 3.1596723 -0.29932338 -5.680782 -6.7936273 -0.39533398 1.593123
-0.55736274 0.83153486 1.8355386 2.2949464 0.94245464 2.0487995 -0.92063427 1.0189561
00000000: edbe 2abf 8ea3 50bf 1be7 1d40 6871 213f
00000010: 1230 3fc0 6f3a 28c0 08fd 62be 249d f23f
00000020: e72d a93d f8dc 67be a731 933f d192 e63f
00000030: 57ea fc3e 837f 803f 6467 61bf 0bf6 893e
00000040: 7ca8 04be aa60 48bf 4bd9 933e 4e6d 42bf
00000050: 1089 9ec0 d297 44c0 70ff 4cc0 a2e0 c13e
00000060: 1d1f 353f 9319 6a40 7b9b abbe 6c6d 633e
00000070: d8bc 1d40 37f7 87bf 8d5b 8ac0 3df3 a93d
00000080: 5bd2 2540 63aa 223e 064b d43f e5cf de3f
00000090: c7ad b0bf 0c32 e33f 1b34 96bd 667c 6f40
000000a0: 1ff2 2cbf aeb2 873f 8243 1c40 1c50 983f
000000b0: e4ec d9be 3028 0a40 461c e83f 7d59 5d40
000000c0: 5833 893f 1dbf 00be 12f5 83c0 3734 be3f
000000d0: 92c5 71bf de9a 8cbf 726d 29be 7a48 82bf
000000e0: ce2c 1240 fbaf 033f 2b6c a53f d012 fe3f
000000f0: ec1d c03f 326c 813f f5d2 80bf 42a1 14bf
00000100: d7f7 c4be 3617 b4bf 0827 dabe 8b55 373f
00000110: 1bf0 75bf 5e68 21c0 9ee9 0a3e 527b cb3e
00000120: 9cf0 48be 2c62 2fbf 0dcc 653f 9a99 973d
00000130: 714b c73e 1821 623e 088e 88bf 3ef0 453f
00000140: 44f5 b4bf e2dc 4a40 47b6 00bf 5db0 2cc0
00000150: 7abe 423f f784 b840 ac9d f2bf 6ef2 d4bf
00000160: 6eb5 df3f 33e2 7ebc 84dc 993f 4caf 923f
00000170: 7c62 df3f d881 45bf 1e8f ee3f 3bf6 bdc0
00000180: e29c 1ac0 bbbe b4bf 0f25 b9bf 16a5 d53e
00000190: 5d96 4cbe 299e 25c0 9e2b 2c40 4ad0 3abe
000001a0: 2c9a 03c0 60e2 e5be 3a75 ad3f 411b 883f
000001b0: ef80 29c0 7e1e f93f b4f2 0b3f 2ee6 c53f
000001c0: 502f f93f 913c dabd 739b 9a3e 1226 f63e
000001d0: 3de7 9abf e247 4c3f 66ea 843e f07d f53f
000001e0: 9eed e63f 1bd4 b33f c0b2 063f 1d50 fa3e
000001f0: 8fbd 9d3f f875 023f 2b4d bdbe 63fe 183f
00000200: b84a ffbf 56b8 d1bf 8833 8bbf 521d 793f
00000210: ab78 07bf bb45 4fc0 de57 1840 ea5c 62be
00000220: 4eac 9dbf 2a12 1e3e 0c06 0140 295f d93f
00000230: 59f4 c4bf 372b 2540 746b 5dbf 26ab c33f
00000240: 4efe e53f 1f8d 0fbf 0932 1fc0 fd17 9cbd
00000250: eb5a 0a40 c940 463f 9d71 553f b5e8 d5be
00000260: 0d7b 233f dd18 e53d ce6a 83bd 9208 fbbe
00000270: e2d3 38bf 3ff0 80bf ea7f d53f 9290 cfbe
00000280: 2178 d43f a1df 863f bdbd 993d 39a4 4e3f
00000290: ae8a 383f 55fa b63f 89e1 d3be 70a2 463d
000002a0: 21a1 063e caf0 af3f 1461 7f3e 6296 2d3e
000002b0: 0748 953e 2ebc a13c 4722 84be b37f 913e
000002c0: 12b7 ffbd 162a 3e3e d27f ae3f 4cea 063f
000002d0: 9994 92bf a522 093f dc3f 20bf 390a 41bc
000002e0: 0635 1ebe 673e 243f 6346 243f 736f 033f
000002f0: 9800 043d f53b b53e 2e4b d73e 5ffe 4bbf
00000300: 91cc 93c0 e34a 973f b156 0540 88ca 64bf
00000310: c860 e4bf 5e1f 9ebf 3eb6 1fc0 75b3 55c0
00000320: 82d4 1540 12a5 983f c6ef d93f b388 373e
00000330: 9ec2 f83f f782 173f ff1c 11bf a031 41c0
00000340: 26fb 863f 55ce fabe 46b2 ac3e 02e5 1340
00000350: add0 5640 26bd 403d c032 1340 9d9a d7bf
00000360: 74b4 b93e e287 54c0 f7c1 aa3f bcdc 1ac0
00000370: 9521 3e3e a747 343f 2914 e3be 1bf1 63bf
00000380: b4be f73f 06b7 aabe 4b69 edbf af3d 803f
00000390: 139e 04bf bee1 55bf 982e 4cbe 0193 533f
000003a0: 0bff ac3f 3f2c 0d3f 76e4 a4be 19db 243f
000003b0: de3a b13f ee8e 4d3e 02e3 66bf 6e94 683f
000003c0: bedb e1c0 41d9 48c0 1238 4a40 ea40 99be
000003d0: f7c8 b5c0 6565 d9c0 3769 cabe 74eb cb3f
000003e0: 53af 0ebf 78df 543f eef2 ea3f 67e0 1240
000003f0: b544 713f 881f 0340 b0ae 6bbf 276d 823f

bias f4 [16]
-0.5389848 -2.4654357 1.1565889 -0.17373101 0.3264674 -1.1203656 2.2151706 -0.91212255
2.2506466 -0.16390395 -0.7423006 0.5520502 -0.8373087 -0.058315434 -0.7140096 0.08717253
00000000: e8fa 09bf b3c9 1dc0 1b0b 943f 8be6 31be
00000010: bc26 a73e 2468 8fbf 5bc5 0d40 dd80 69bf
00000020: 980a 1040 70d6 27be 6a07 3ebf 2953 0d3f
00000030: dd59 56bf 2adc 6ebd 55c9 36bf 8387 b23d

weight f4 [2, 16]
0.43608344 -0.38937956 -0.88159186 -0.2779565 -1.2393075 -0.44174805 0.49280092 0.8586499
0.31875575 -1.4052918 0.39399952 -0.36324263 0.074402004 0.6240452 0.54268044 0.35164192
1.2214044 -0.9172891 -1.2526351 0.75250244 0.16456506 1.2333019 0.46573174 -0.3959781
0.6011745 -0.58305365 -0.7789418 0.17231542 -1.6769061 -0.18863656 0.8407993 1.0155593
00000000: 5446 df3e c25c c7be 01b0 61bf 5050 8ebe
00000010: a1a1 9ebf cd2c e2be 6750 fc3e 7bd0 5b3f
00000020: f433 a33e 9ae0 b3bf 4eba c93e f0fa b9be
00000030: 1460 983d 6dc1 1f3f 1bed 0a3f 690a b43e
00000040: fb56 9c3f 75d3 6abf 5956 a0bf 00a4 403f
00000050: be83 283e d6dc 9d3f 6474 ee3e a4bd cabe
00000060: 92e6 193f 0143 15bf bb68 47bf 7473 303e
00000070: dca4 d6bf f129 41be 9f3e 573f d9fd 813f

bias f4 [2]
0.16015674 -0.48070225
00000000: 2100 243e 9b1e f6be

weight f4 [8, 2]
-0.34022734 -0.4277838 1.3238432 0.38709158 -0.6268783 -0.3526669 -0.00075491925 1.1131856
-2.0979865 0.5992599 1.8015307 0.049456224 0.5981372 1.302887 1.8232096 1.0302831
00000000: 4732 aebe 7a06 dbbe b273 a93f de30 c63e
00000010: 197b 20bf c290 b4be c6e5 45ba de7c 8e3f
00000020: 6945 06c0 1969 193f 8f98 e63f 9c92 4a3d
00000030: 851f 193f 00c5 a63f ef5e e93f 51e0 833f

bias f4 [8]
-0.17347342 0.044503663 -0.05292216 0.099565804 0.05626982 0.683099 0.209577 0.13160495
00000000: 04a3 31be 7949 363d e8c4 58bd 28e9 cb3d
00000010: 2f7b 663d 93df 2e3f 5a9b 563e 73c3 063e

weight f4 [16, 8]
0.19585754 0.294527 0.020457411 0.2421586 -0.6987657 1.074835 0.8910559 0.5021425
0.11087539 0.103729255 0.056884836 -0.14387055 -0.74733084 0.31624722 0.6406895 -0.713598
-0.38270685 -0.366105 0.18526529 0.00893325 -0.32084492 -1.0867139 -0.33978826 -0.43081442
-0.103184275 -0.0989117 0.29514888 0.044143125 1.6242656 -4.429799 -0.9980829 -1.4034595
0.35458538 -1.1288761 1.0304835 -1.4150459 -0.3438636 1.37983 1.3939586 -1.3325461
0.97446865 -0.9394329 1.0159985 -1.1884158 0.55326337 -1.0294689 -0.77955085 -0.39094347
-0.14225379 -0.37647834 0.044708986 0.17229441 -0.49892804 -1.1631268 -0.35034305 -0.22038144
0.19147749 -0.42604312 -0.14151096 -0.15133205 0.39717793 0.06004012 -0.65023655 -0.18165392
0.32825428 -0.10762325 -0.16342781 0.13651618 -0.4846023 -0.9112839 0.053681463 -0.5559327
0.041522067 -0.18234712 0.28648102 0.19520582 0.24549855 -0.12064999 -0.5333371 -0.17117396
0.17229389 0.4057412 -0.19640563 0.2229908 -0.19806612 1.1673583 0.8079003 0.3520992
-0.19277768 -0.51364255 -0.09252868 0.06507996 -0.6732826 -1.21079 -0.10083335 -0.3341143
0.3759061 -0.30668426 0.46341503 0.14659797 -0.58271265 0.5020755 1.0094073 -0.43203402
-0.30193746 0.1258947 -0.15495387 0.32510698 0.94039226 -0.74661946 -1.0619428 0.1739236
1.027231 -0.09985287 0.46397468 -2.280569 -2.1478374 -0.08237596 -1.0348853 0.42120242
-0.25172254 -0.101660915 -0.10463699 0.17612007 -0.4377213 -0.04865639 0.30071196 0.34032992
00000000: e18e 483e 3ecc 963e 4d96 a73c 6df8 773e
00000010: 4fe2 32bf 3194 893f 3d1c 643f 698c 003f
00000020: a312 e33d 0170 d43d 1300 693d cd52 13be
00000030: 1351 3fbf 28eb a13e 3a04 243f 5cae 36bf
00000040: 27f2 c3be 1d72 bbbe 2fb6 3d3e c45c 123c
00000050: c945 a4be 7119 8bbf baf8 adbe b593 dcbe
00000060: 4752 d3bd 3892 cabd c11d 973e 6ccf 343d
00000070: efe7 cf3f eac0 8dc0 5c82 7fbf 90a4 b3bf
00000080: 378c b53e 037f 90bf e2e6 833f 3920 b5bf
00000090: e40e b0be 459e b03f 3c6d b23f df90 aabf
000000a0: c776 793f ad7e 70bf 3d0c 823f 021e 98bf
000000b0: aba2 0d3f a3c5 83bf a590 47bf be29 c8be
000000c0: faaa 11be c5c1 c0be c520 373d f26d 303e
000000d0: 7f73 ffbe 57e1 94bf 2a60 b3be acab 61be
000000e0: ad12 443e 5322 dabe 40e8 10be caf6 1abe
000000f0: e85a cb3e a1ec 753d e775 26bf 7c03 3abe
00000100: f210 a83e 9469 dcbd 9f59 27be e6ca 0b3e
00000110: cb1d f8be e749 69bf 18e1 5b3d 9b51 0ebf
00000120: 0b13 2a3d 34b9 3abe a4ad 923e 09e4 473e
00000130: f963 7b3e 5817 f7bd c888 08bf 3a48 2fbe
00000140: cf6d 303e 50bd cf3e 8f1e 49be b357 643e
00000150: d8d1 4abe ff6b 953f 8ed2 4e3f 5946 b43e
00000160: 8367 45be 147e 03bf ad7f bdbd a448 853d
00000170: 405c 2cbf 2bfb 9abf b781 cebd 0811 abbe
00000180: c476 c03e b805 9dbe bc44 ed3e c71d 163e
00000190: a82c 15bf 0588 003f 4234 813f 9033 ddbe
000001a0: 8c97 9abe 8aea 003e 3aac 1ebe 6c74 a63e
000001b0: 8cbd 703f 7422 3fbf beed 87bf 0719 323e
000001c0: 4e7c 833f a97f ccbd 178e ed3e d8f4 11c0
000001d0: 2b76 09c0 bab4 a8bd 1f77 84bf d8a7 d73e
000001e0: c7e1 80be 9933 d0bd eb4b d6bd d258 343e
000001f0: 021d e0be ec4b 47bd ebf6 993e b93f ae3e

bias f4 [16]
0.79657924 0.5400742 -0.716387 0.117142074 0.1407184 0.13707495 -0.7678027 -0.80058205
-0.86331594 -0.7800122 0.7088382 -0.91672844 0.1842771 -0.57019717 0.26853633 0.5847452
00000000: 9eec 4b3f 4e42 0a3f 2365 37bf 2fe8 ef3d
00000010: 7c18 103e 605d 0c3e b88e 44bf f2f2 4cbf
00000020: 4602 5dbf e1ae 47bf 6c76 353f b7ae 6abf
00000030: 23b3 3c3e 71f8 11bf 987d 893e ddb1 153f

weight f4 [1, 16]
-0.38548324 0.21408044 -0.12611273 -0.743555 0.35805348 -0.8888405 -0.067004375 0.27308387
0.06254606 0.050864514 -0.36667585 -0.09435228 0.08863617 -0.2992184 -0.5885165 0.023954209
00000000: 0f5e c5be e737 5b3e b223 01be 9f59 3ebf
00000010: c952 b73e 0d8b 63bf 9739 89bd a6d1 8b3e
00000020: 2618 803d 4f57 503d f0bc bbbe c53b c1bd
00000030: e186 b53d 2733 99be 04a9 16bf 9e3b c43c
