[Fly gene Models]/Fly_Gene_Model_SG_40_40_.pt (torch, 58431 bytes, 31 tensors)

weight f4 [40, 2]
00000000: a508 bebe b90a cbbf 341c 6e3e f4f7 093f
00000010: 61a3 3f3f 414d 23bf 0eaf 97bf 45d2 89bf
00000020: 37a5 263f 245f 2d3f 460c 9fbf 25a6 ed3f
00000030: f7ac 8a3f df2b 89bf 1376 ba3e 3bad 883e
00000040: 6471 fb3e 2664 043d c77a 8d3f 57c4 0fbe
00000050: 99e2 11c0 80ff 2abf 865e ab3f 3d9e 28be
00000060: 146d 883f fccf 28be ef46 6d3f 30a1 1d3f
00000070: 942e 2e3f 7b80 6bbf cf48 71bf 9015 853f
00000080: f4a1 41bf 666d 05c0 f67a 38bd 7a6d 833f
00000090: 076f 3fbf 9246 75bf 8702 a13f c8db c2be
000000a0: 144f 6a3f e4d6 2e3f 5b72 673f c4f3 ea3e
000000b0: ce40 d3bf 01eb b1bf 3028 003d 25aa 30bf
000000c0: b3a5 aabe 9143 d13f 7ae6 d2bf 4f92 d9bd
000000d0: f3bf 183f 703e 2a3f d637 7a3f 4c71 9c3e
000000e0: f718 533f 0750 7bbf f80f a7be 3cea 1b40
000000f0: 20b8 193f a3a4 d1bf 3e27 c73f c96f 18bf
00000100: 0827 323f 05bf 8cbe 6fdb c0be e489 3bbf
00000110: 5629 e4bf 6669 8a3f d476 8d3e 2eea 0540
00000120: 3e6f ffbe a528 b23f 8ef3 dd3e c235 38bf
00000130: 2e1e 78be e121 9b3f 77aa 46bf feff a6bf
-0.3711597 -1.5862647 0.23252946 0.5389397 0.7485867 -0.63789755 -1.1850297 -1.0767294
0.6509585 0.677233 -1.242562 1.8566328 1.0834035 -1.0716513 0.36418208 0.26694664
0.49109948 0.03232207 1.1053094 -0.14039741 -2.2794554 -0.6679611 1.3388221 -0.16466613
1.0658288 -0.1648559 0.9268636 0.6157408 0.6803982 -0.9199292 -0.9425172 1.0397205
-0.75637746 -2.0848022 -0.04503914 1.0267785 -0.7477879 -0.95810807 1.2578896 -0.38058305
0.91526914 0.6829665 0.9040887 0.45889103 -1.6504152 -1.3899843 0.031288326 -0.6900962
-0.33329543 1.6348745 -1.6476586 -0.10623609 0.5966789 0.6650152 0.9774145 0.3055519
0.8245997 -0.9816899 -0.3262937 2.4361715 0.6004658 -1.6378368 1.5558851 -0.5954557
0.69590807 -0.27489486 -0.37667415 -0.7325728 -1.7825115 1.0813415 0.2762972 2.0924182
-0.4988956 1.3918654 0.4334988 -0.7195703 -0.24230263 1.2119714 -0.7760386 -1.3046873

bias f4 [40]
00000000: 43ef eebd 501f 163e 1f2a 983e 700e 34bf
00000010: d38a d93e b8e6 96be 7c4b 4ebf 130c 6ebe
00000020: b3dc 143e a153 b5be 3a6a 823e 7b46 213e
00000030: 4b2b d23e 8199 943e c0f8 5abe 244b 81be
00000040: bd03 00bf bc5d e73e f907 ea3e 0955 b5be
00000050: 2f02 d33e d176 0bbe 41b2 80bf d165 ca3b
00000060: a376 febd b11f 6fbd 8908 1f3f 4055 453e
00000070: 67c4 2c3e b0ae 00bf cc15 acbe 8feb 37be
00000080: da65 9bbe a744 783e bd2c 01bf 01a1 f83c
00000090: 8b28 c3bd e5ef d53e 510b 083f e28a 17bf
-0.11666729 0.14660382 0.29719636 -0.7033453 0.42488727 -0.294729 -0.8058393 -0.23246793
0.14537315 -0.35415366 0.2547167 0.15749542 0.41048655 0.29023364 -0.21383953 -0.2525264
-0.50005704 0.451887 0.45709208 -0.3541644 0.41212603 -0.13619544 -1.0054399 0.0061766882
-0.12424972 -0.058379833 0.621224 0.19270802 0.16871797 -0.5026655 -0.3361038 -0.17960952
-0.30351144 0.24244939 -0.5045889 0.03035021 -0.09529217 0.41784588 0.5314227 -0.59196293

weight f4 [40, 40]
00000000: 441a 02bf 5788 2a3d b13d 48be 8299 e3bd
00000010: fb56 6d3e 8e47 46bd ba4d 0cbf e1d4 bbbe
00000020: 0f2e 143e 1c66 3cbf 9e41 a33f bc42 a63d
00000030: a7ba b4bc 29de cf3d 4ae0 6dbf 09fa 6a3c
00000040: 8810 c3be 3f45 503e c374 8c3e d948 bdbf
00000050: f6a1 4f3e 979f bcbe ebfd a8bd ed57 79be
00000060: 1684 fb3c 10e8 863e 10b5 873e 8c2b 323e
00000070: b044 fabc c39d cebe 55f9 dabf 6045 58bf
00000080: 093f f8be 3b28 563e 7913 cbbe 7125 64bd
00000090: 8fcb 0a3d 3b9c 2a3e 5487 e63e fbd0 febd
000000a0: 434f 02bf df47 513e 1513 3cbe 805b eebd
000000b0: 77fc 92bc 903c 073f 380d a43d 6447 df3d
000000c0: c258 0c3d 5e9a 883d 07e8 42bf 588e 1dbe
000000d0: 78c4 fdbc 4ef6 2c3c 055e fbbd c22f 703e
000000e0: 9616 723c 7100 3f3d 248e 4cbe 7cc3 6a3e
000000f0: 9554 2d3e 08ad 8e3e 09d7 2f3d 346d dabe
00000100: ef3b 0e3f 6a05 aabe 0018 b43d 5193 153d
00000110: 43ae c5be d2b1 3b3f 4cee 8cbd f52f 3f3b
00000120: 8f12 98bc 5cdf 0abf cbd4 a73d ad77 ac3e
00000130: f157 b13e 59c9 92be 6abd a93d 46b7 12be
00000140: b592 bf3e 5d10 333d 5d0f ad3d 7ff2 443d
00000150: 6454 54be 1347 ab3d d6dd b63e cd4f 3f3e
00000160: 1b34 f7bc f67f c33e 1ce8 8bbe 3605 1c3e
00000170: bf74 19be e52f e63d b917 a73e 3c35 cc3d
00000180: 1842 2b3e c16e 37be 2146 a83c ea3e 193f
00000190: 7acf c9ba 0c91 603e badb 573e 9112 85bc
000001a0: 0bef 3dbd 9f34 1a3c b48d 89bd dd8c 1f3d
000001b0: 9c3b 323d 2179 8d3d f86a af3e 88b6 6f3d
000001c0: 0a8c 563e 2e33 1fbe 72b1 733e d489 97be
000001d0: 992b e13c c17d e9bd 611d b6bd b700 383d
000001e0: 6965 463f 6775 003d 1561 e03e e12f a83e
000001f0: be63 36be 7285 d2be d111 a6bd 99a5 24be
00000200: daf9 153e 2917 debe 7ab1 473f 6105 2e3d
00000210: e4c2 0e3e 89e5 b8be e48a eb3e 2ff0 54be
00000220: 876f 313e 1085 83be 0555 ee3e 55cf b6be
00000230: 5fc0 4ebe 802d cabe ac0d 2c3e 72c7 f43e
00000240: 57d0 33bf 1664 c3bc 274e 14bd bcd0 98bd
00000250: 0737 883e 9e05 dfbe 8ccb 443f dbb3 cc3e
00000260: a664 c5be 8ee0 b13e 914e e8bd a888 90bf
00000270: 2c21 07bf ff9d 8f3e 8832 e4be 1576 afbc
00000280: 1d14 82be 7625 093d 830a 173d 677f 6a3b
00000290: ed3e 73bd f06b 23be a340 223d 502c dcbd
000002a0: d71c 0bbe ae9c 90be bc81 453e 7ebc acbd
000002b0: 5a1c 92bd 2b6d 17bd 944b 483c 0172 1bbe
000002c0: b285 c739 e833 05bc 3800 cd3d e4b9 5fbe
000002d0: da4d 09bd aee4 dfbd 26f3 043e 01e3 cf3d
000002e0: 19fa 3ebe b5e5 f2bd c703 f7bd 2420 df3d
000002f0: 4074 96b9 991b cdbd 9a74 39be 310e 0fbe
00000300: cfdd 55bd 3f68 91bd e7fd 25bd 5668 dabd
00000310: 574d d7bb b852 153d 38d9 35bd f717 d63c
00000320: cd74 303f e8ad ffbe b81b a4be 6afc 1840
00000330: 8e24 b1bf 23cb 943e 3eb9 fc3e 7422 c43e
00000340: f2f7 1fbf 44ad 553e 70ae 173f 2d53 c6be
00000350: 0d01 cebe 1e47 b1bf d928 8a3e 40bd fc3e
00000360: eb8f d93f 62cb 54bf a259 38be 6773 38bd
00000370: aee0 92bf 9a23 313e b590 3940 402a 10be
00000380: 6237 f53d cf57 4a3e 1dd7 75bf 82d4 57bf
00000390: f154 0dbf 96df 483e 3424 363f d749 1e3e
000003a0: ae2d dc3e fdd3 73bd 9e6c c73e cc2f e0be
000003b0: 50d0 ed3d c27a fbbe 8c16 94bf 1551 743f
000003c0: d624 413f c507 14be f134 843e f2e8 873e
000003d0: ae42 1dbe 3dbc d3bd ac1e 873e ae72 60bd
000003e0: 2724 b2bb 73ab e93c 7f48 fdbe 3d67 50bd
000003f0: fba0 b73d 77eb 53be 75d3 f13e 7bf7 4dbc
-0.5082133 0.04163393 -0.19554783 -0.11113264 0.23177712 -0.048408084 -0.548061 -0.3668585
0.14470695 -0.73593307 1.27544 0.08118197 -0.022061659 0.101497956 -0.9292036 0.01434184
-0.3809855 0.20338915 0.27432832 -1.4787856 0.20276627 -0.36840507 -0.08251556 -0.24349947
0.030702632 0.26348925 0.26505327 0.17399424 -0.03055033 -0.40354738 -1.710734 -0.8448086
-0.48485592 0.20913784 -0.39663294 -0.05569977 0.033885535 0.1666116 0.45025122 -0.124422036
-0.50902194 0.20437573 -0.18366654 -0.11638546 -0.01794265 0.52826786 0.08010334 0.109022886
0.034264334 0.06670068 -0.76135296 -0.15386331 -0.030977473 0.0105567705 -0.12273792 0.23455718
0.014775893 0.04663128 -0.19976097 0.22926134 0.16926797 0.27866387 0.042929683 -0.4266144
0.555602 -0.33207256 0.0879364 0.036517445 -0.38609514 0.7331821 -0.06881389 0.0029172872
-0.018563537 -0.5424707 0.08194884 0.33685055 0.34637406 -0.2866924 0.08288081 -0.14327726
0.37416616 0.043716777 0.08450196 0.048082825 -0.20735317 0.08363166 0.35716122 0.18682785
-0.030176213 0.38183564 -0.27325523 0.15236363 -0.14985941 0.11239604 0.32635286 0.09971091
0.16724432 -0.17913343 0.020541253 0.59861624 -0.0015396916 0.21930331 0.21079913 -0.016244205
-0.046370547 0.00941196 -0.06716481 0.038952697 0.04351388 0.06907869 0.34261298 0.058523685
0.20951858 -0.15546867 0.23798159 -0.29597342 0.02748661 -0.11400939 -0.08892322 0.044922557
0.7749849 0.031361964 0.43824068 0.3284903 -0.17811486 -0.41117436 -0.08108867 -0.16078795
0.14646092 -0.43377045 0.7800518 0.0424856 0.13941532 -0.3611262 0.46004403 -0.20794748
0.173277 -0.25687456 0.4654924 -0.35705057 -0.20190571 -0.3948784 0.1680209 0.47808415
-0.70239776 -0.023851436 -0.036207344 -0.07461688 0.26604483 -0.43558973 0.7687309 0.3998097
-0.3855335 0.34741634 -0.1134311 -1.1291704 -0.5278499 0.2805023 -0.44569802 -0.02141861
-0.2540597 0.03348299 0.03687526 0.0035781504 -0.059386183 -0.15959144 0.039612424 -0.107506394
-0.1358522 -0.28244537 0.19287771 -0.084343895 -0.07134314 -0.036969345 0.0122250505 -0.15180208
0.0003805585 -0.008130051 0.10009807 -0.21848255 -0.03352151 -0.10932289 0.12983379 0.101507194
-0.18650092 -0.118602194 -0.12061267 0.10894802 -0.00028696842 -0.100150295 -0.18110886 -0.13970257
-0.052213486 -0.070999615 -0.040525343 -0.10664432 -0.006570499 0.03645584 -0.04439661 0.026134474
0.68928224 -0.49937367 -0.32052398 2.3904061 -1.3839281 0.2906123 0.4936008 0.38307536
-0.6248771 0.20866877 0.59250546 -0.38735333 -0.40235177 -1.3849828 0.2698429 0.49363136
1.6997045 -0.8312284 -0.18002942 -0.04503193 -1.1474817 0.17298737 2.8994572 -0.14078617
0.11973454 0.19760059 -0.9603136 -0.84308636 -0.55207735 0.19616541 0.7114899 0.15457855
0.430036 -0.05952834 0.38950056 -0.43786466 0.11611998 -0.49117094 -1.1569381 0.9543622
0.7544683 -0.14456089 0.2582164 0.2654491 -0.15357468 -0.10338638 0.26390588 -0.054796867
-0.0054364386 0.028524136 -0.49469373 -0.050879706 0.089662515 -0.20695291 0.4723164 -0.012571211

bias f4 [40]
00000000: d133 ef3e 1ef9 36be 7ced 0abe a6fd fa3d
00000010: 0266 d93d cf12 c0be 273c eebd 5c46 ecbe
00000020: c027 773d d369 c33c 9e8f 8bbd 1f0b fabd
00000030: 53a8 eabe f57c a6be c47e a1bd bb18 74be
00000040: 8cf9 093e 49eb 4dbe 581c 253e 9f67 413e
00000050: 2b20 02bc fd56 fabd de61 f03d be5c a8be
00000060: cec7 23be 6bf0 d8bd 7dc8 323e ce35 a9be
00000070: 58df 2dbd f5ad 0fbe f0ae 223e 9934 0f3e
00000080: be7f 20be d071 1f3e 0ea6 7c3d 0a33 e83d
00000090: 25ff 0b3d 01b9 d8be 9a02 cbbd 020a 71be
0.4671922 -0.17868468 -0.13567156 0.12255411 0.106151596 -0.3751435 -0.11632567 -0.4614743
0.060340643 0.023854172 -0.06814502 -0.122091524 -0.45831546 -0.3251721 -0.07885507 -0.23837559
0.13474101 -0.20109285 0.16124094 0.18887185 -0.00794224 -0.12223623 0.11737417 -0.32883257
-0.15994188 -0.10592731 0.17459293 -0.33048862 -0.042449325 -0.14031203 0.15887046 0.13984908
-0.1567373 0.1557076 0.0616818 0.1133786 0.03417887 -0.42328647 -0.099126056 -0.23538974

weight f4 [4, 40]
00000000: 3718 c2be 2866 6bbe 8a94 1b3d e681 07bf
00000010: b8dc 603d 3498 3cbe 85b1 e13d c548 98be
00000020: 8ba2 a53d 6032 b33e ea58 e03d 1d38 d03d
00000030: f322 39be f8ec c8be 0941 403d 9ae0 773e
00000040: fbb7 9ebe 0eae 11be 57ee f3bd 37d2 c1bd
00000050: cf5f 333e 2b5b e739 d575 62bd b3be ce3e
00000060: 69c5 4c3d 996c c43c a3cf 1f3e 642c 7cbe
00000070: d73e dbbd 57b6 583d 50c3 8abe 3f61 9fbd
00000080: 0378 373e 7f7a fc3d 6ec4 503e d969 913d
00000090: e380 81bb 969c d7be 9c58 4ebd 9792 90be
000000a0: ee67 8bbd fcd4 7bbe 0a70 f33c 8b56 833d
000000b0: 0dea 193c 8724 103f 4991 7f3e 3414 e43e
000000c0: ef73 5a3d 497c c83d db11 983e 566a 783e
000000d0: 2b81 10be 8327 8dbe 2347 5f3d 0823 9fbe
000000e0: 6516 dfbe 1de0 9e3d e6e2 ad3d b82d 8abe
000000f0: ff54 e73d 7e82 acbd e272 4cbd ddca 3f3e
00000100: a9cb f73c 3264 1c3c 4623 2f3e e05d 25bd
00000110: b79c 7e3e 2e75 233e c8a1 ff3d 4d70 13be
00000120: 11d0 a13e 18df 8b3c fdea c03d 2808 083d
00000130: 3e85 c1ba d5ec 063f 279f 123e ed05 5abe
00000140: 9081 8b3d 6fdf 033d 1813 6c3e aa48 e4bd
00000150: 9736 b3bd b431 b4bb fd4f ff3d 4bb6 f1be
00000160: 12ee 8bbd 3d0a a03e 76f1 4fbd a864 ebbd
00000170: f345 39be d796 2d3e 43c9 be3d 9811 d0be
00000180: b1f3 dc3d e158 573d b5a3 acbc 8e47 a1be
00000190: 6100 813e cf6d 9a3e d742 1bbd 3c49 453e
000001a0: 2526 7e3d d9ea 8e3b 4011 f8bc f426 95be
000001b0: ee6f 1fbc 9211 0a3e 73c4 1e3e 0a8a 413e
000001c0: a396 953d 76e3 0cbe 446b c8bd 965b 183c
000001d0: 4d16 31bb 8b1f c73e 1060 0abd 3a84 bf3e
000001e0: 65d6 b13e 2342 8e3e 06fc 1b3e a560 28be
000001f0: 78e0 a93c aacf c0bd 6c36 7c3e 3efb 9fbe
00000200: 7b84 bc3d d899 bcbe a0aa a3bd 30da 8bbe
00000210: 2b1f 31be cb18 603e 2e1d 623e 8af3 a53d
00000220: 6885 8bbe 67a3 223e da68 9a3e 38f0 e9bd
00000230: c553 a03d 8d78 843e 148a 09bc 469e 5dbe
00000240: 847c 1c3e 0185 573d c9a0 68bd d4df f13c
00000250: a6b3 0abd d72d a5bd 0ec7 c23d bab4 523e
00000260: 32bf a2be 9f5e dc3e d288 283e de80 fe3d
00000270: 6f72 c7bb fe30 00bf faad 863d 614b be3e
-0.379091 -0.22988188 0.037983455 -0.52932584 0.054897994 -0.18417436 0.11020187 -0.2974302
0.08087643 0.3499937 0.10954459 0.10166953 -0.18079738 -0.39243293 0.046937022 0.24206772
-0.3099974 -0.14226553 -0.11910694 -0.094639234 0.17517017 0.0004412768 -0.055288155 0.40379867
0.049992952 0.023977565 0.15606551 -0.24626309 -0.10705345 0.052908268 -0.27102137 -0.0778222
0.17916875 0.12328052 0.20387432 0.07100267 -0.003952132 -0.42111653 -0.050377473 -0.2823684
-0.068069324 -0.24592966 0.02971651 0.06412991 0.009394181 0.56305736 0.24957766 0.44546664
0.05333322 0.097893305 0.29701123 0.24259314 -0.14111774 -0.27569208 0.0545112 -0.31081414
-0.43571773 0.0775759 0.08490543 -0.26988006 0.112955086 -0.08423327 -0.04991425 0.1872973
0.03024848 0.009545373 0.171033 -0.04037273 0.2486447 0.15962669 0.12482029 -0.14398308
0.31604055 0.017074153 0.094198205 0.033210903 -0.0014764441 0.52705127 0.14318524 -0.21291323
0.068118215 0.032195505 0.23054159 -0.11146672 -0.087506466 -0.005499089 0.124664284 -0.4720939
-0.06832518 0.3125781 -0.050767384 -0.11493808 -0.1809309 0.16952072 0.093157314 -0.40638423
0.10788668 0.052574996 -0.021074155 -0.31499904 0.25195602 0.30161902 -0.03790554 0.19266218
0.062048096 0.004361492 -0.030281663 -0.2913128 -0.009731276 0.13483265 0.15504627 0.18900314
0.07304122 -0.13758644 -0.09786084 0.00929918 -0.002702135 0.38891253 -0.03378302 0.37405568
0.34733883 0.27784833 0.15232858 -0.16443117 0.020736918 -0.09414609 0.24630135 -0.3124637
0.09204956 -0.36836123 -0.079915285 -0.273149 -0.17297046 0.21884458 0.22081444 0.08103092
-0.27250218 0.15882646 0.3015812 -0.11422771 0.07828478 0.25873223 -0.008394737 -0.21642408
0.15281874 0.052617077 -0.05679396 0.029525675 -0.033862732 -0.08065384 0.09510623 0.20576754
-0.31786495 0.4304094 0.16458443 0.12426923 -0.0060866396 -0.50074756 0.06576152 0.37166885

bias f4 [4]
00000000: de70 813d 64cc a6bc 7110 d6bb 6421 33be
0.06320356 -0.020361133 -0.0065327217 -0.17493206

weight f4 [40, 2]
00000000: 7d37 23c0 2d72 3a3f 4a70 8dbf e218 a2bf
00000010: 8159 4f3f df50 893d 01be 2c3f f41b f0bd
00000020: 36dc 6c3c 6d56 e03d 9c21 133f fc77 293f
00000030: 6e59 ab3f 7229 abbe d5bd 023f d611 8e3f
00000040: a330 a6be 27d6 1b3f e3a7 bdbf 2fa1 e83f
00000050: 4310 dd3e ac50 6d3f e454 613f d468 cb3e
00000060: 1a50 7a3f 2455 80be 253a ef3e 8e11 f8bd
00000070: 25e6 573f 6e6e c4be 2118 423f fd09 cdbd
00000080: 634d e73e 9e1d 553d 4aaa 61c0 f548 753f
00000090: f646 f3bc b6a4 333f 1f0f 88bf 50c4 e73f
000000a0: 5a52 cb3e b580 d0be 71a2 1fbe da51 d6be
000000b0: a27c 1b3e 740b ea3c c5e3 34c0 215b b9be
000000c0: 3398 1b3f 5601 6bbf b4ac eb3e 0d55 46be
000000d0: 67df 6cc0 828c bdbd e25e 4c3d 0665 f2be
000000e0: a408 74be e7cd 7bbf f227 7a3f 6234 32bf
000000f0: 053a 023f 9cad 01be cbd0 9c3d df96 c33e
00000100: b058 ccbd 4ce2 27bf 7006 7c3f 4e84 0c3e
00000110: 37e4 383f 9ff0 9a3f 1c8a 8dbf 22bf b43f
00000120: 7dfc 81be 8c22 0dbe 4131 823f f5c3 40be
00000130: 5092 a83f 2381 18be a1de 973e 54a2 84be
-2.5502617 0.7283047 -1.1049893 -1.2663844 0.8099595 0.06704878 0.6747742 -0.11724082
0.014456799 0.109539844 0.5747316 0.66198707 1.3386667 -0.33430058 0.5107091 1.1099193
-0.32458982 0.60873646 -1.481686 1.8174189 0.4317647 0.9270122 0.8802016 0.39728415
0.97778475 -0.25064957 0.46724048 -0.12112723 0.8433555 -0.383655 0.7581807 -0.10011671
0.4517623 0.0520302 -3.5260186 0.9581445 -0.029696923 0.70173204 -1.0629615 1.8106785
0.39711267 -0.40723196 -0.1558931 -0.41859323 0.15184262 0.028569914 -2.826402 -0.36202338
0.6077911 -0.91798913 0.460302 -0.19368382 -3.7011354 -0.09255315 0.049895175 -0.473427
-0.23831421 -0.9836106 0.977172 -0.6961118 0.5086978 -0.12663883 0.076570116 0.38201043
-0.09977853 -0.65579677 0.9844732 0.13722345 0.7222323 1.2104682 -1.1057773 1.4120829
-0.25387946 -0.1378271 1.0171281 -0.18824752 1.3169651 -0.14893012 0.2966204 -0.25905097

bias f4 [40]
00000000: fb4a 243e 9548 8f3e 6a0b 833f 737b 31bf
00000010: dce1 1fbe 19dd 12bf 1eba f8bd 1caf ad3f
00000020: 059b 9f3f 245f 823e e58c 9f3f c708 893f
00000030: 067d 1cbe 76d3 983e 9059 d1bd d125 5c3d
00000040: 6a14 1cbf 9c91 373e 8f28 f0be 16f1 0a3f
00000050: f6d4 1ebf e6c6 93be 2946 28bf 2192 ce3e
00000060: 87cd 5cbd f974 bbbe 5aeb c83e 4028 253f
00000070: 6ef6 623e a51c 89be 8759 563e e5f1 1cbf
00000080: 8a3d 20bf dc7d f0bd ef8a 7c3f 5660 7a3e
00000090: cfa2 81be c682 59be d7c6 15be 50c5 cdbe
0.16044228 0.27985063 1.0237858 -0.69328994 -0.15613502 -0.5736862 -0.12144874 1.3569064
1.2469183 0.25463212 1.2464873 1.0705804 -0.15282068 0.29848832 -0.10222161 0.053747002
-0.6096865 0.1792664 -0.46905944 0.5427412 -0.620437 -0.28862685 -0.65732056 0.40345863
-0.053906944 -0.3661268 0.3924206 0.6451454 0.22164318 -0.26779667 0.2093259 -0.613066
-0.625939 -0.11742756 0.98649496 0.24450812 -0.25319526 -0.21241292 -0.14626633 -0.401896

weight f4 [40, 40]
00000000: 1b1a dcbe 3f01 0dbd c2da 83be e3f9 c9bc
00000010: 16d3 2dbd f95b f83d 1a4f 03be 498c 8cbe
00000020: dcca a0be 7588 e3bf 94d4 debd eac2 a0bd
00000030: 3971 53bb 63be 6abe be81 a2bc 71d4 19be
00000040: dc64 62bd 2482 ffbe 641f c53c ba29 90be
00000050: 6aac 6d3d d76d b33d d41a b9bd f9dc 18bf
00000060: eb9d 90bd df36 11be d6fb d8be 974b 93be
00000070: dedb 97be 7967 493e b15e 8fbe ae24 013e
00000080: 7460 7fbc 2591 b4bd 1552 3ebe cfbe dabf
00000090: 7217 6f3d 01ff 143e edf0 ccbd c316 10be
000000a0: e030 79be 2b55 abbf 271d e6be 012f 033e
000000b0: cd99 e3bd fd21 f2bd 2dd3 193f 6670 adbe
000000c0: b01c 24bf dd64 0ebf 7bf7 0abf 5a7c 90be
000000d0: a749 333e b888 97bb 4cf9 d93e 2506 683e
000000e0: 9a5b b53d 2742 00bf 0aac 84bd ed54 10bf
000000f0: 8637 7f3d e017 acbd 1807 d43d 5f4f 51bf
00000100: a177 46bd 589e 8ebd b17d 47bf 534e d3bd
00000110: e294 77bf 0334 183f 9772 b0bd 388c d0bc
00000120: 0804 0bbe 9792 1d3e 884c b6be 3d21 a0be
00000130: a1ea 94bd 70ac be3e 7e4e 253e 4885 06be
00000140: 7b65 1ebf 799a f6be c963 7abe 1cc3 343d
00000150: cd5c bdbd 2ff0 dbbd 701b f5bd bcbb 90be
00000160: d26b a6be 1175 3abf 2734 5bbe 6978 84be
00000170: b734 033e 93c2 39be be2f 363e c98f 7cbc
00000180: 4ff7 ccbd 70a4 d7be 348d bcbc eaf7 31bf
00000190: a092 083e 30e2 063e baef 80bd 7890 f0be
000001a0: 6638 09be 4c32 0d3d 9a24 b2be 8e15 8abe
000001b0: 748a 3cbe a98f 133c dda6 7fbd 89c2 1cbe
000001c0: e53a 373d 2226 243d 1173 4bbe ce04 2bbf
000001d0: e10a a43d 756d aebe ac5b 57be b844 21bd
000001e0: dfca 363f cbee 4b3e 9f47 c83e f98d 12bd
000001f0: 2738 d93c 4d92 df3c 78b7 163e ce1a 583e
00000200: 5b10 b23e d6bb e33f 1820 983e e1fc cc3d
00000210: 7d29 f33b 2414 353e 5f7f 46bc 9678 3b3e
00000220: cde0 b8bd 2f58 113f 8f74 943d df11 de3e
00000230: 7ecd 6f3d 1f4b f93d e785 613d dfbf 293f
00000240: 59e2 953e 825c 11be bf86 093f 5c4b 3a3e
00000250: 7570 393e 57e1 cc3d 10be af3d 9654 01be
00000260: a845 79bc 638d f43d c294 5b3e 221b df3f
00000270: 0847 37bd 16af 10be 3cd5 393c 8a82 983d
00000280: c424 133f 4306 6f3f e280 9a3e bc9b e53d
00000290: f697 273c ad1d cb3d 82bd a9bc 44f7 be3e
000002a0: b0a2 d43e 8ec1 213f be0a e23e 8800 373e
000002b0: 9b7c cdbd 3cba 903d fc2d 163e 692e 1fbd
000002c0: d17b c8bd d997 dd3e 6711 f63c 8cdb 143f
000002d0: dcae 193e a814 dd3d 2261 13be c7d6 e93e
000002e0: 4aab d13e 9488 023e dc8f 033f 75dc 393e
000002f0: 55d3 4b3f 0c93 c0bd d7d6 c83b 50d7 f3bd
00000300: 79b8 00be 7ae5 61be a57a 843e 7948 e53e
00000310: 3354 a3bd 3494 c43e 7047 493e 5a6e 9cbd
00000320: 6911 9dbf 4ef5 843f fcc2 8f3e a623 863b
00000330: 41d6 c5bc fdab 943d 760c 993e bada 543c
00000340: 0769 11be 9fc3 c4bf e03e 75bd 4f7c 4c3e
00000350: 2b6b 0d3b 05d5 983e f6b1 963d b2df 283f
00000360: b671 023e 6152 84bf 76ec 86bd 5933 91bf
00000370: 6f2a 00be da72 4ebd 6c16 36bd 41a3 bbbf
00000380: eb48 7d3f 12be 02be 7f7b c3bf c9ad b33e
00000390: 19fd f03e 735f 6a3f 5222 f43e 2254 0abc
000003a0: e3e8 1bbd 74e9 9c3e 31cf 10bd 0b9d c3bf
000003b0: d224 053e c784 6e3f b712 38bb 2724 583d
000003c0: bc00 5c3f f0e3 213f 1eed d0bd 84bc 88bb
000003d0: 740a 593e 91d2 063e c0ca f43e bb67 763e
000003e0: 06cf 723e d6de c03f b208 013e f724 78bd
000003f0: 3ec2 433e fac6 983d d67f 403f ef23 96be
-0.42988667 -0.034425016 -0.25752836 -0.024655288 -0.042437635 0.121269174 -0.12823144 -0.2745078
-0.3140477 -1.7776018 -0.1088039 -0.07849677 -0.003226353 -0.2292419 -0.019837257 -0.15022446
-0.05527197 -0.49903977 0.02406282 -0.28156835 0.058025755 0.08761185 -0.0903832 -0.5971218
-0.070613705 -0.14181088 -0.42379636 -0.28768608 -0.29659933 0.19668378 -0.2800193 0.12611648
-0.015586961 -0.088167466 -0.18586 -1.708948 0.05837197 0.14550401 -0.100068904 -0.14071183
-0.2433505 -1.3385366 -0.44944116 0.128109 -0.111133195 -0.11822889 0.60087854 -0.33874816
-0.64106274 -0.55622655 -0.54283875 -0.28219873 0.17508565 -0.0046244524 0.4257301 0.22658594
0.08855362 -0.5010094 -0.06478126 -0.56379586 0.06230881 -0.08402991 0.103529155 -0.81761736
-0.04845393 -0.069637954 -0.77926165 -0.103176735 -0.9671155 0.59454364 -0.08615606 -0.025457487
-0.13575757 0.15387951 -0.35605264 -0.3127536 -0.072713144 0.37240934 0.16143224 -0.1313678
-0.61873597 -0.48164728 -0.24452128 0.044131383 -0.09246216 -0.10739171 -0.11968124 -0.2826823
-0.32504135 -0.7283488 -0.21406613 -0.25873116 0.12813078 -0.1814063 0.1779165 -0.01541514
-0.10008108 -0.42117643 -0.02301655 -0.6951891 0.13337183 0.13172221 -0.06295724 -0.4698522
-0.1340042 0.034471795 -0.3479355 -0.2696957 -0.1841219 0.009006419 -0.062414993 -0.15308584
0.0447339 0.04007543 -0.19868113 -0.66804206 0.080098875 -0.34067884 -0.21031064 -0.039372176
0.71403307 0.19915311 0.39117143 -0.035779927 0.026516033 0.027291441 0.14718425 0.21103975
0.34778103 1.7791698 0.29711986 0.1000917 0.0074207173 0.17683464 -0.012115329 0.18307719
-0.09027252 0.5677518 0.07248794 0.4337301 0.058545582 0.12172531 0.05505934 0.663084
0.29274252 -0.14195445 0.5372123 0.1819281 0.18109305 0.10003918 0.085811734 -0.12629923
-0.015214361 0.1194103 0.21443465 1.7430155 -0.044745475 -0.1412929 0.011342343 0.07446773
0.57477975 0.9336893 0.30176455 0.112113446 0.010229101 0.099177696 -0.020720247 0.37298024
0.4153037 0.63185966 0.4414882 0.17871296 -0.10033532 0.070667714 0.14665979 -0.03886262
-0.09789241 0.43279913 0.030037595 0.581475 0.1500811 0.107949555 -0.14392522 0.45671675
0.40950996 0.12747413 0.51391387 0.18150504 0.7961934 -0.09403047 0.0061291265 -0.11906302
-0.1257037 -0.22060195 0.2587482 0.44781855 -0.07975044 0.3839432 0.19656157 -0.076382354
-1.2270938 1.0387361 0.2807845 0.004093605 -0.024150016 0.07259367 0.2989232 0.012991602
-0.14200221 -1.5372199 -0.059874415 0.19969295 0.002157877 0.2985002 0.07358162 0.6596633
0.1273869 -1.033764 -0.0658807 -1.1343795 -0.12516187 -0.0504025 -0.044454977 -1.4659196
0.9893939 -0.12767819 -1.5272063 0.35093525 0.47068098 0.91551894 0.47682434 -0.00844291
-0.038063895 0.3064686 -0.035353843 -1.5282301 0.13002327 0.9317135 -0.0028087327 0.052768853
0.8593862 0.6323843 -0.102014765 -0.0041728634 0.21195394 0.13166262 0.47810936 0.24063008
0.23711786 1.5068004 0.12600973 -0.060582127 0.19117066 0.07459827 0.7519506 -0.2932429

bias f4 [40]
00000000: e100 85be dbfc 11be eca3 64be 2950 a43e
00000010: 9420 283e cf03 823c 8f26 d53d 2382 30be
00000020: fb34 503e 14c6 82bd df2e 0d3f 7fe8 923e
00000030: 2f95 653e 4ac7 7cbe 7263 60be b383 50be
00000040: 50ae 39be 036b 8c3e 6e10 923e 2f3a 753c
00000050: b53e 1fbe 0d34 0e3e ad13 b13e f5bb c8be
00000060: ffb8 89be be99 91be 9ab0 6c3e a67a 133e
00000070: bf2f 2abe 20d1 193c f999 47be de10 d63e
00000080: f1ae 463e 0aea d03e 3da8 e6bd e18e 4bbe
00000090: b777 4b3e 8bda 14bd f7dc ca3e 16a1 3c3e
-0.25977233 -0.14256613 -0.22328156 0.32092407 0.16418678 0.015870957 0.10407745 -0.17237143
0.2033271 -0.06385437 0.55149645 0.28693005 0.2242019 -0.24685398 -0.21912935 -0.2036274
-0.18132901 0.27425393 0.2852816 0.014967485 -0.15551265 0.13887043 0.34585324 -0.392059
-0.26898953 -0.28437608 0.23114243 0.14402255 -0.16619776 0.009388238 -0.1949233 0.41809744
0.19402672 0.40803558 -0.11262558 -0.19878723 0.19869886 -0.03634123 0.39621708 0.18420824

weight f4 [1, 40]
00000000: dfdd 95be cc5e d9bd 7fd4 bbbe a7ce 6e3e
00000010: c7ea 7d3e 0fdf 00bf f03c 55c0 7aaf b83e
00000020: d3c4 9d3e 29cb fb3c 9580 94be 5644 dcbe
00000030: 9ad1 9e3e e4da 40bf d389 fabe 2d0d b4be
00000040: 69c6 9abe 3567 c9bd 5a66 15bf 819a 7b3f
00000050: 9e51 713f 7a95 453f 4b62 4b3f 99b4 353f
00000060: ef39 ee3e 669d 8bbe 0823 573f 7c54 ea3e
00000070: babd 28bf c2a5 48bf b7ba 84bc badd 4ebf
00000080: fe72 853f 8d94 2e3f d92e b3be 071d 53bf
00000090: 983f 1fbf 612d 39be 8954 3f3f 202a da3e
-0.29270837 -0.10613784 -0.3668556 0.23321019 0.24796592 -0.5034036 -3.3318443 0.36071378
0.30814227 0.030736523 -0.2900435 -0.43020886 0.31019288 -0.75334 -0.48933277 -0.35166302
-0.302295 -0.09834138 -0.583593 0.9828263 0.9426516 0.7718121 0.7944686 0.70978695
0.46528575 -0.27268523 0.8403783 0.4576758 -0.659145 -0.78377926 -0.016202314 -0.8080708
1.0425718 0.6819542 -0.3499668 -0.8246617 -0.6220641 -0.18083717 0.74738365 0.42610264

weight f4 [40, 2]
00000000: ef54 0d3e 903a bfbe 1465 dd3e 1007 84bd
00000010: 384b d83c 1d74 9ebe 4d20 f1bd 24eb 7cbf
00000020: 761c f2bd 92a7 1840 63f3 2bbe 5204 953e
00000030: 31ee 5c3e 587a 413f a38d fcbf abaa e73b
00000040: a8b2 1fbe 69b2 b7be cc06 9b3f 5405 1d3f
00000050: 388a ae3e c9c3 d13f b045 01bf 4574 263e
00000060: 525b 213e 9fc0 ffbe 74f3 043f cf12 233e
00000070: 9ff9 28be 151d 003f a0ea 85bf 9416 f33e
00000080: 67f9 e9bf 6284 3cbe 3f26 e0bc d276 eb3e
00000090: f764 b53d 0035 37c0 1526 8c3f 469a 9c3d
000000a0: f72e 16bf 13e2 0d40 11ad ecbf 6dd2 8c40
000000b0: 32c1 403f 074a 85be 5a52 263e 375a 28bf
000000c0: ff94 f73e 58c8 f03d 42b2 023f 5317 88bf
000000d0: dea2 333f b151 24bd f68d 953f e50b 3dbe
000000e0: 5c90 b93e 45aa dcbd cc30 83be 7f53 5ec0
000000f0: 229d e0bd 0cde 9fbe cad6 f23e 1ed1 3b3f
00000100: 987d 14c0 fd5f be3e 8ce5 babe b334 f63d
00000110: f573 8cbf 4544 a23e 3ffa 0dbf 027f 98bd
00000120: 2519 a33e 6723 b7bf 27b3 65bf 2c31 063f
00000130: 228e 783f 8849 0b3f 2bdd 84bf d302 fe3e
0.13801931 -0.37349367 0.4324118 -0.064466596 0.026403055 -0.30947962 -0.11773739 -0.98796296
-0.11821835 2.3852277 -0.16792063 0.2910486 0.21575238 0.75577307 -1.9730724 0.0070699058
-0.15595496 -0.35878304 1.2111449 0.61336255 0.34089828 1.6387874 -0.5049696 0.16255291
0.15757492 -0.49951646 0.5193398 0.15925144 -0.16501473 0.50044376 -1.0462227 0.47478163
-1.8279237 -0.18409875 -0.027361987 0.4598909 0.08857148 -2.8626099 1.0949122 0.07646613
-0.5866541 2.2169235 -1.8490316 4.4006867 0.7529479 -0.2603304 0.16242352 -0.65762657
0.48355862 0.117569625 0.5105325 -1.0632118 0.7017039 -0.04011697 1.1683948 -0.18461569
0.3624295 -0.10774664 -0.25623167 -3.4738462 -0.10967471 -0.31224096 0.47429496 0.7336596
-2.3201656 0.37182608 -0.36503255 0.1202177 -1.0972887 0.3169271 -0.5545997 -0.074461
0.3185512 -1.4307679 -0.8972649 0.5241878 0.9709188 0.54409075 -1.0379995 0.4961153

bias f4 [40]
00000000: e7c9 e03e ff06 283f d7f7 223f 09c7 1d3f
00000010: 6c9b 68be 82e6 e7be f897 cc3e 466d 363e
00000020: c178 2d3f 2d43 83be 964b 983e 8d4b 213f
00000030: 5836 413f 3948 2dbf 510d 293f d11e 7a3f
00000040: e501 35bd bcfd 1fbf b5da bc3e 6341 33be
00000050: fa5f 743e b9fc 813f 2939 1b3f 21c3 203f
00000060: 5f53 e5be 5106 693e cc00 22bf f98f a0be
00000070: 7cf5 183f 4158 903d c918 b13e 8a8d 673f
00000080: 9a9e bf3d a89d 003f 5204 f33e 9157 203f
00000090: 6f3d 90bc d00e 563f ed42 bb3d 2222 553f
0.4390404 0.65635675 0.63659424 0.6163183 -0.22715539 -0.4529305 0.39959693 0.17815122
0.6776238 -0.2563719 0.29745167 0.63005906 0.75473547 -0.6768833 0.66035944 0.9770327
-0.04419126 -0.6249654 0.3688561 -0.17505412 0.23864737 1.015525 0.60634094 0.62797743
-0.4479017 0.22756316 -0.63282466 -0.31359842 0.5974958 0.07048083 0.34589222 0.90450346
0.09356423 0.50240564 0.47464234 0.62633616 -0.017607419 0.8361635 0.091436245 0.8325521

weight f4 [40, 40]
00000000: 77b2 8fbd a4e0 97be e308 a0be c259 c4bc
00000010: 0e94 13bf 7583 19be f20e 38be 7a5d bebc
00000020: 1b9e e2bd fcf0 b8be d83e 96be bfcc 96be
00000030: 0a2e f63c e93b 1c3e 5012 57be 704a 84be
00000040: c776 a2be 4502 e4bc 9a17 23be acc5 45be
00000050: f84e 18bf c8bb f5be f712 2d3d cb43 c03d
00000060: 396b 34be 58a1 813d fa00 e13d c650 ab3d
00000070: 4e86 15bd f7dc dabe 1f15 93be 59d5 a1be
00000080: 6fa2 a1be 011b 8cbb bffd e4be 233e 85be
00000090: 1ff9 083d 663e c7be 839c 013d 5496 19be
000000a0: b21b aa3e d7ae 6d3e e243 85be f78a 293e
000000b0: 1057 273f 5c2b 92bd eb8b 373f 011d ddbf
000000c0: 60fe 123e 680b c33e 6e20 633f e207 b3be
000000d0: 4c5a 973e 4b6e a7bd a69d 79be 522e d6be
000000e0: 5788 3cc0 225d a5bc 7457 183f 0d69 6f3f
000000f0: 95ea 853f da27 d73e 0a71 933e 447d b73e
00000100: 29b7 e0bd 0843 5d3e ba3d 0c3e 193d dc3e
00000110: 08b0 973d 7cf1 103f 4a6c 36be 6e4f cfbb
00000120: 889c 60c0 5e8b a9be f8da c9bf 57bf 7cbe
00000130: fd81 b43f 86b4 78bf 59f1 5b3f b5bb 99bf
00000140: e7db 8c3e 6d14 5d3e 5a25 ad3e de7b 053f
00000150: c1cf 343f 6b6a debd f424 86bd ffd4 21c0
00000160: 457c 533e f21b 0b3f efe7 2c3f fde7 8c3e
00000170: 76d2 813e 0af1 d53d 08fd 163e 08b4 813e
00000180: 31a0 aebd a12c bebd 404f ca3f a5cc 093e
00000190: a552 2f3f e999 19bd ac73 043e b54d e73e
000001a0: 22c8 963e 7ece 443f ad6e bd3c f9a5 b73e
000001b0: ce76 0d3e 389d d53e cef4 1c3e c8d2 a23e
000001c0: af58 8ebc 0d6b 073e 6a13 a83e dc9a 763e
000001d0: 475b 643f 931f a13e a034 d23d d20e 8f3e
000001e0: 4049 21bd a2ca 8dbc 09ef 1ebe 6ff9 3b3d
000001f0: c433 1a3e 1f5c 04bc f01f d1bd ad87 913e
00000200: c9d0 23bc 0696 513e a9af e83c 9e19 84bd
00000210: 0741 45bd 5791 9dbd e348 8e3c ac03 efbd
00000220: 1aa8 de3e e2c5 08be 798a 6b3d 4496 8cbe
00000230: 8289 193e 244e 353e 3a24 ffbd 9e77 47be
00000240: 81eb f7bc 1f27 8bbe 344e 163e 878d 22be
00000250: e820 acbc 2989 0b3e 14bd 11be 661d f8bb
00000260: 799d d13e 1545 19bd d940 853e 1f52 bdbd
00000270: a4b0 5cbd f14f ed3c 89f8 ddbd e38c 3b3e
00000280: 13df f53c 7262 2c3e b9e4 aa3e f8b3 aa3e
00000290: e843 133f 746f d83d 8d08 2abc 757e 7d3e
000002a0: 9c41 413e 1078 783e 2875 7f3e c622 4e3e
000002b0: 9735 213e e967 f8bd f0d1 273e 35fb 8d3e
000002c0: 1de3 863e 7e85 b83d 935e 833f e3d2 bbbc
000002d0: dda5 f83e b195 cd3e c178 903b 79fe 7e3e
000002e0: 2954 233d de4c 1c3d 5bee 073e 61ec 79bd
000002f0: 8813 e23d 084b 6d3f a309 7b3e f698 ac3e
00000300: e1d2 a43e 0c7d 373e 7e67 af3e d361 733e
00000310: 4d84 95bd cd05 aa3e ef3b c53b dcc3 c63e
00000320: 7d21 3bbe 2889 40bc a56d 12be b8cf 2ebe
00000330: d191 5a3e ef4f d7bd 0ffc c6bd 12fc eb3e
00000340: c690 31be 62d4 923d 3fee 473d 8be4 3abd
00000350: 3206 08be ae75 a3bd 714f 8a3d 075e 583e
00000360: 3b13 3d3f a4d3 a8bd ad63 903e c490 25bc
00000370: b996 833e c95b 853e 9dbd 33be d3e6 86bd
00000380: 08c6 be3d 0118 8fbd e36e 533d e07e 99bd
00000390: 0922 41be 88f3 e2be b514 33bd 7247 e1bd
000003a0: ae6d 793e dad2 10be fbdb 613e 29ce b6bc
000003b0: 6564 f3bc ff0c 5f3e 6e1b 7ebd 1210 323e
000003c0: 2def f83d 63ce 073e adf5 b63e bca7 8b3e
000003d0: 3519 1abe 65bf dc3d 03ac 5c3e ceeb 18bf
000003e0: 5429 a53e d874 b63c c888 e53e 690a 183e
000003f0: 01af a13e ae59 663c 6ba6 b33e b7bb 6a3e
-0.07016461 -0.29663575 -0.3125678 -0.023968581 -0.5764779 -0.14991553 -0.17974451 -0.023237932
-0.110653125 -0.36121356 -0.2934482 -0.29453084 0.03005125 0.15257229 -0.2100308 -0.2583804
-0.31731245 -0.027833113 -0.15926972 -0.19313687 -0.59495497 -0.47994828 0.042254414 0.093879305
-0.17619027 0.06329602 0.109865144 0.08365016 -0.036505036 -0.42746708 -0.28727052 -0.31608084
-0.3156924 -0.00427568 -0.44724843 -0.2602397 0.033440705 -0.38914794 0.0316434 -0.14998752
0.33224255 0.23211227 -0.26028353 0.16556917 0.6536722 -0.071371764 0.7169787 -1.7274476
0.14354849 0.3809464 0.8872136 -0.34966952 0.2956108 -0.081753336 -0.24376544 -0.41832215
-2.9458215 -0.02018601 0.5950844 0.9351967 1.0462214 0.42022592 0.2879718 0.35837758
-0.10972435 0.21607602 0.13695422 0.43015364 0.07406622 0.56618476 -0.17814746 -0.0063266074
-3.509554 -0.3311414 -1.5769949 -0.24682365 1.4102169 -0.97150457 0.8591514 -1.2010409
0.27511522 0.21589823 0.3381756 0.5214213 0.7062951 -0.10860141 -0.06550017 -2.5286252
0.20652874 0.54339516 0.675414 0.27520743 0.2535588 0.10446365 0.14744961 0.25332665
-0.08526648 -0.09285856 1.5805435 0.13456972 0.6848548 -0.037500296 0.1293475 0.45176473
0.29449564 0.7687758 0.023124063 0.35868815 0.13814852 0.4172151 0.1532776 0.31801438
-0.017376272 0.1322443 0.32827312 0.24082512 0.8920178 0.31469402 0.10263944 0.27940995
-0.039376497 -0.017308537 -0.15520872 0.045892175 0.1505881 -0.008078604 -0.1021117 0.28423825
-0.009998509 0.20467386 0.028404074 -0.064501986 -0.048157718 -0.07693737 0.01736874 -0.11670622
0.43487626 -0.13356736 0.057505105 -0.27458394 0.14993861 0.1770559 -0.124580815 -0.19479224
-0.030263664 -0.27178285 0.1467827 -0.15874301 -0.021011785 0.13626541 -0.14232284 -0.007571864
0.40940455 -0.037419397 0.26026037 -0.09244179 -0.053879395 0.028968783 -0.1083842 0.18315463
0.030013597 0.16834429 0.33377627 0.3334043 0.5752549 0.10568133 -0.010378015 0.24755271
0.18872684 0.2426455 0.24947035 0.20130453 0.15743099 -0.12129194 0.16388679 0.27730718
0.2634515 0.090098366 1.0263237 -0.022927707 0.48564044 0.40153268 0.0044089262 0.24901761
0.039875183 0.038159244 0.13274519 -0.061016444 0.110388815 0.92692614 0.24515395 0.3371045
0.32192138 0.17918795 0.34258646 0.23767786 -0.07300625 0.3320755 0.0060191075 0.38821304
-0.18274494 -0.011751451 -0.14299639 -0.17071426 0.21344687 -0.10513293 -0.09716045 0.46090752
-0.17340383 0.07169415 0.048811194 -0.04562811 -0.13283613 -0.0798143 0.067534335 0.21129619
0.7385747 -0.08243492 0.28201047 -0.010105316 0.2570093 0.2604659 -0.175528 -0.06586995
0.09315115 -0.06987 0.05161942 -0.074949026 -0.1886064 -0.44326425 -0.04372092 -0.10999955
0.24358246 -0.14142933 0.22056572 -0.022315102 -0.029710958 0.21782301 -0.062037878 0.17388943
0.12154994 0.13262324 0.3573431 0.2727641 -0.15048678 0.10778693 0.21549992 -0.5973481
0.32258093 0.022272512 0.44830918 0.14847721 0.3157883 0.014059467 0.35087904 0.2292317

bias f4 [40]
00000000: 3adb 11be 58f7 e63c 4510 8a3e 5095 0dbe
00000010: 2129 b03e 4bf6 17be 1324 563e ad93 cabb
00000020: 6e71 943e 5056 5dbe 1c7b c0be 37d2 b03e
00000030: 8ad6 5abd 759b 9b3e 082b 80bd 6e33 a1be
00000040: 36db 66be 0c6a 9cbe b02a f0bd f8e2 1abe
00000050: c7eb eebd 9505 2abc 5ed1 13b8 8d84 683e
00000060: ed48 5f3d ff71 f73d 7211 cb3c 3301 cc3c
00000070: 0834 bb3d a13a 9bbd 68e2 e8bd 0d12 abbd
00000080: 0e80 5abc 550b 63be 1f2a 4c3d 3d3f 303e
00000090: 03d3 163e 3471 93be 9983 06be 3d70 1c3d
-0.14243785 0.028194115 0.26965538 -0.1382649 0.3440638 -0.14840047 0.20912199 -0.006182155
0.2899279 -0.21614957 -0.37593925 0.3453538 -0.053427257 0.30392042 -0.062582076 -0.3148455
-0.2254456 -0.30549657 -0.11726892 -0.15125644 -0.11666065 -0.010377307 -3.524252e-05 0.22706814
0.054512907 0.1208229 0.024788592 0.024902916 0.091407835 -0.07579542 -0.113713086 -0.08353052
-0.013336195 -0.22172292 0.049844857 0.17211623 0.14728932 -0.28797305 -0.13136138 0.038192976

weight f4 [1, 40]
00000000: 49ae 0c3d 46e2 a43e 11c5 033f f537 4f3b
00000010: 7265 1bbf fe48 933d 19cd 043d 2ba7 c0bc
00000020: 35cd 223d 431a cf3c 07ee a1be 1fce ca3d
00000030: cb58 bb3c 8258 553d 9515 ba3e 6099 fa3d
00000040: 7d6f af3c fcfc 713e d59f 95be 7328 84be
00000050: 925f 503e 07a8 2e3f 942f 1b3d e4b4 1bbd
00000060: a97c 323f dbc4 793c 4cf3 a4be 6977 d0be
00000070: ad6d 0ebf 831f 943c 91b0 263f 8799 94bb
00000080: 485a 98bd 2ebd 99be fb6b 853d 9545 3dbc
00000090: f1ef 39be a5e6 193f 38c9 30bd 0bf1 c83c
0.0343459 0.32203883 0.51472574 0.0031619046 -0.6070167 0.071916565 0.03242216 -0.023517212
0.039746482 0.025281077 -0.31626913 0.09902596 0.022869488 0.05208636 0.3634459 0.12236285
0.021415466 0.23631662 -0.29223505 -0.2581211 0.20348957 0.6822514 0.03788717 -0.038014308
0.69721466 0.015244688 -0.3221687 -0.40716103 -0.556361 0.018081432 0.6511317 -0.0045349034
-0.07439095 -0.30027145 0.06514736 -0.011552234 -0.18157937 0.6011756 -0.043160647 0.024529

weight f4 [40, 2]
00000000: 457a 333f 5e64 11bf dbd9 f2bf f179 293f
00000010: dabc e93e 6d7e ac3e 72e8 8c3c 54aa d0bf
00000020: 92d1 713f 8ec3 2abf 456c 56bf 173a 2240
00000030: 4af7 acbe 08f0 14bf 8af5 f73c bd3f 033f
00000040: 18f4 093c c8be 0c3e 9800 25be 1d65 66c0
00000050: f460 54be 950d 82be d2b9 e73f 4bfe a53f
00000060: dd56 783e 7524 46be 465e 0ebe 1d7b 2f3d
00000070: b70e 32bf e648 783e a2b5 023f 7c8d ec3e
00000080: f4b3 c73d 75e5 2d3f a456 db3e baa2 6bbe
00000090: 6fa9 0540 2d3c 8b3e 3eed d2be e3de d3bf
000000a0: 888c 94be 33b1 45be b4eb e0bc 2023 223e
000000b0: 1fe7 04bd efa8 053f a588 d9be 4f20 88bf
000000c0: c003 75bf 8f66 7d3f 3f04 53bc 05d1 7dbc
000000d0: 91de 2d3f 3324 0bbf ea5d ac3f e7d0 81bd
000000e0: 5b3e 49bf 3c5c 1540 b381 d8bd b821 5fbf
000000f0: 38cc 953e 92f7 a23d 3570 4dbe 4c80 62bf
00000100: 26dc 253f 4ca0 3d3f ebe0 ff3e 8593 aabf
00000110: 32eb f03e f774 af3f f63b cc3f 26df 3740
00000120: e09c 85bc 500f b53e db8f 5e3f 2398 eebf
00000130: b296 8b3e 6973 11c0 1043 08bf 9d78 f53e
0.70108443 -0.56793773 -1.8972734 0.6620169 0.45651895 0.33690205 0.017200682 -1.630198
0.94460404 -0.6670464 -0.83758956 2.5347955 -0.33782417 -0.5817876 0.03026845 0.5126913
0.008420013 0.13744652 -0.16113508 -3.5999215 -0.2074011 -0.25400987 1.8103583 1.2968229
0.24251886 -0.19349845 -0.1390315 0.04284202 -0.69553703 0.24246559 0.510584 0.46201694
0.0975112 0.6792825 0.4283954 -0.23011294 2.0884664 0.27194348 -0.41196626 -1.6552395
-0.29013467 -0.19305877 -0.027456142 0.15833712 -0.032446977 0.522109 -0.42487064 -1.063486
-0.9570885 0.98984617 -0.01287943 -0.015491729 0.67917734 -0.5435211 1.346616 -0.06338673
-0.7861077 2.3337545 -0.10571613 -0.87160826 0.2925737 0.079573765 -0.20062335 -0.88477015
0.64789045 0.7407272 0.49976286 -1.3326269 0.4705444 1.370757 1.5955799 2.872995
-0.016310155 0.35363245 0.86938256 -1.8640178 0.2726341 -2.272669 -0.5322733 0.47943583

bias f4 [40]
00000000: 9518 2ebf 48b4 073e 5c47 d2be 8a6b 813f
00000010: bd80 15be 99e7 303f 1848 f1be 5f8c ddbe
00000020: 2f39 83be cdb8 1c3f 3177 32bf 9b69 ed3e
00000030: 99b9 f3be f6aa e0bd 1030 19bf 805f c4be
00000040: 28de 02bf ffb2 32bf 2e13 4b3f c5fc 6a3f
00000050: de05 53be 89e0 0ebe 47b9 d2be 297b 993f
00000060: ccc9 2d3f cd18 533f 72b7 27bf df56 893f
00000070: 8121 ef3e 6bf3 733f 79f2 2a3f 32db 713f
00000080: d511 383f da32 013f a046 253f d5a2 6f3f
00000090: f98e 0cbf e427 693e aed6 013f d722 21bf
-0.6800626 0.13252366 -0.41070068 1.0110943 -0.14599891 0.6910339 -0.47125316 -0.43271157
-0.25629565 0.61219484 -0.6971312 0.46369633 -0.47602537 -0.10970108 -0.5983896 -0.3835411
-0.51120234 -0.69804376 0.7932614 0.91791946 -0.20607707 -0.13952841 -0.4115698 1.199071
0.6788604 0.8245972 -0.6551429 1.0729636 0.4670525 0.952933 0.66776234 0.9447509
0.7190221 0.5046822 0.6456089 0.93607837 -0.5490566 0.22769123 0.507182 -0.62943786

weight f4 [40, 40]
00000000: 74dd 4d3d b6cd 7fbe faa8 e0bd ea7f 5a3e
00000010: fd84 933e 62a3 7e3b c530 ac3d 3962 1a3e
00000020: 9bac e53d fd45 003f e2ef 853d 5349 653e
00000030: dda0 1bbe e39b 8abd 3bd8 46bd 1cc4 143e
00000040: e14e f8bd ba0b 1fbe 16aa e03e 14fe c13d
00000050: a6ef 2cbc d05a f7bd 4eff dd3c f6a6 1e3e
00000060: 1382 f33c d81d ae3d 40f4 65bd cf73 973e
00000070: 6915 05bc fe7c 2d3e 44ed 703d 1386 5c3e
00000080: f06b ae3e 442a d73e 322b 9c3e 5b79 023f
00000090: bd69 783d aefd 733e 1c82 453d a271 663d
000000a0: a3e1 bc3d 6922 3bbe 2afb 5d3d e3cb dabe
000000b0: a1ce 1cbe 1fc5 3abf 7157 8bba 97d8 003e
000000c0: 5a2e a8bd c11a 1fbf d3a2 9f3c 6587 60bd
000000d0: 1981 a43d b3d4 05be 2719 ae3d d749 fbbd
000000e0: d860 513c 5276 333d 208c 06be b1b1 cfbe
000000f0: ba14 c0bd d5e6 9a3d e261 023d d835 7abe
00000100: c88b 2ebe b456 95be 588a 0d3d bf68 89be
00000110: 3520 18be b207 c4be b3f9 a7be a41e 68be
00000120: 822c 76bd 3aa7 cebe 7392 063b e05e 72be
00000130: 9c5c 233d 5dba 8abe 6424 7cbf e411 cf3b
00000140: 21a0 91bc 36aa 1fbf 883d 77bd 2a9c 9ebe
00000150: 9c59 5dbd 4c56 aabf 6f4a 44be 745c 773e
00000160: d591 13bc 3a23 08bf 3ce0 e639 f19c e9be
00000170: 9175 193d c574 81bd 90ae 9d3d 17f8 8c3d
00000180: 54d2 a73d dd15 553d 1998 71bb 48aa b4bd
00000190: f442 1d3e 2e0c 553d 23b9 2b3e 4d59 d7bd
000001a0: 4f4a d8be 6cd7 9cbe ea05 35bb c5bc aebd
000001b0: 25f2 debe f3db afbd fcaa 0cbd 4ae8 fdbd
000001c0: 9e79 22be 8ce6 c8be bd54 56be be8d 2ebf
000001d0: d468 d13d ca49 d43d 9032 21bf 4894 533d
000001e0: 03a4 d9bc 6565 babd 2177 fabd 5efe 82be
000001f0: ecee 19be ea32 4bbe 77d2 a9bc 52b5 c43c
00000200: b2b3 d13d 1799 33bf 8bfe 41bd 7636 f0bd
00000210: 51d7 83bd 2ad6 34bd 0fab 97bd 1753 8e3d
00000220: b6e4 9f3d 470c c83d d3c3 ccbe 367f 5abe
00000230: f2d9 ffbc 940f 93bd e503 9ebd 7907 5fbe
00000240: 9635 6bbe 977c 0abe f0bf e9bb 407f 95be
00000250: 16f8 dfbd 3acb 0fbe d0d4 aebe 746b acbe
00000260: 4dee 4bbd 1258 d2be 8060 59be 5d41 a1be
00000270: c252 05bd b4b6 e4be 1ad4 96bf d14f 84bd
00000280: 9da6 10be 0dac 42bf 2502 d53c b43a 19bd
00000290: 740f b63d 16fd 97bf 9360 ac3d 9e88 17bd
000002a0: 8598 f8bb c353 b5be 3396 063e 476e bdbe
000002b0: 6838 0d3e c041 5dbd e8ac 66bd 3e10 a0bc
000002c0: db55 ce3c c364 1dbe 091f 143e f151 89be
000002d0: 7e12 08be 4975 a5bd 3ab4 02be c436 e2bd
000002e0: e273 52bf 8495 76be 0bd1 e13c 82e2 523d
000002f0: d25d 35bf 96b0 77be 46c9 34be a057 a7bd
00000300: 1104 aabe 7a54 6fbf f57f 3ebf 97ac 1bbe
00000310: 99a8 f83d c49a 263e f18b 06bf f615 cbbd
00000320: e8e9 8f3d 6c13 8bbe 6a4e d6bd 1cde 213e
00000330: 4401 993d 7a76 ebbe 5b8e 3d3d bb4f 71bd
00000340: 2b5c 123e 2b15 f13d 729d 933d 3824 0a3f
00000350: 7181 09be f51e 04be d41d f53d 83f1 40bb
00000360: 3f5b 103c ff50 8b3d 59bd 633e 28d0 313d
00000370: dc4b 67bd d3f1 e9bd 1897 9bbc 7564 373d
00000380: 7107 fbbd 6cc0 82bd cd9f 873d efb7 b13d
00000390: 6181 33be 59e4 073e 99de 223e 1c42 25bd
000003a0: fc85 083d d297 803f b449 6d3e e027 913e
000003b0: 0122 be3d 659d f13e 3d10 9c3e 1403 0fbe
000003c0: 329a 403d c553 0a3f 264a 38be 9f5d a13d
000003d0: d994 3dbc 2bf0 363f 8d98 c73d b770 0139
000003e0: 3328 18be 8a39 e53e 0c2a a93c 03d9 c03e
000003f0: 0d5b f43d 602b e2bd a813 963c 0273 c63d
0.050260022 -0.24980816 -0.1096973 0.21337858 0.288124 0.0038854708 0.084077395 0.15076531
0.112145625 0.50106794 0.06539895 0.22391252 -0.15198083 -0.06768014 -0.048546057 0.14527935
-0.1212442 -0.15531817 0.43879765 0.0947229 -0.0105551835 -0.12077868 0.027099278 0.15493378
0.02972511 0.08501786 -0.056141138 0.29580542 -0.00812278 0.16942212 0.058820024 0.2153552
0.34066725 0.42024434 0.30501705 0.50966424 0.060647715 0.2382724 0.048219785 0.056260712
0.09222724 -0.18274845 0.054194607 -0.42733678 -0.15313198 -0.7295703 -0.0010630918 0.12582622
-0.08211966 -0.621502 0.01948682 -0.054816622 0.08032436 -0.1306942 0.08500891 -0.12269943
0.012779437 0.04381401 -0.13139391 -0.40565255 -0.09378953 0.07563559 0.03183163 -0.24434602
-0.1704551 -0.29167712 0.034555763 -0.26837727 -0.14856036 -0.3828712 -0.32807693 -0.22667938
-0.06010104 -0.4036196 0.0020534068 -0.23669004 0.03988324 -0.2709531 -0.9849303 0.0063192714
-0.01777655 -0.62369096 -0.060361415 -0.3097852 -0.054040536 -1.3307586 -0.19169019 0.24156362
-0.009006937 -0.5317875 0.00044036086 -0.4562755 0.037465636 -0.063211 0.07699311 0.06883257
0.08194414 0.052022804 -0.003686434 -0.08821541 0.15357572 0.05201357 0.16769843 -0.1051508
-0.42244193 -0.30633104 -0.0027621933 -0.08532099 -0.43544117 -0.08586874 -0.03434275 -0.12397821
-0.15866706 -0.39238393 -0.20930763 -0.6818503 0.102250725 0.10365637 -0.6296778 0.051655084
-0.026567465 -0.09101371 -0.12229753 -0.25584692 -0.15032548 -0.19843641 -0.02073024 0.024012242
0.10239352 -0.7015547 -0.04736189 -0.117291376 -0.06437553 -0.044149555 -0.07405674 0.06949442
0.07807295 0.09767967 -0.39993152 -0.2133759 -0.031231854 -0.07180706 -0.077155866 -0.21780194
-0.2296966 -0.1352409 -0.0071334764 -0.29198647 -0.109359905 -0.14042369 -0.34146738 -0.3367573
-0.04978781 -0.41082817 -0.21228218 -0.3149518 -0.032549627 -0.4467064 -1.1783478 -0.06460536
-0.14126058 -0.7604378 0.026002 -0.0374095 0.08889666 -1.1874111 0.084168576 -0.036995523
-0.007586541 -0.35415468 0.13143234 -0.36998197 0.13791049 -0.054017782 -0.05631724 -0.019538995
0.025187423 -0.15370469 0.14464964 -0.2682033 -0.13288304 -0.08079011 -0.12764063 -0.11045602
-0.82208073 -0.24080473 0.0275655 0.051485546 -0.70846283 -0.24188456 -0.17654905 -0.0817101
-0.33206227 -0.93488276 -0.74413997 -0.15202557 0.121415325 0.16269976 -0.52557284 -0.09916298
0.07027036 -0.27163255 -0.10464175 0.15807384 0.074709445 -0.45988828 0.04627834 -0.058913928
0.14292972 0.117716156 0.07207765 0.53961515 -0.13428284 -0.12902434 0.1196858 -0.0029440827
0.008810817 0.06802558 0.22240199 0.043411404 -0.05646883 -0.114230774 -0.018992946 0.044773538
-0.12257279 -0.06384358 0.066222765 0.08677661 -0.17529823 0.13270701 0.15905227 -0.04034625
0.033330902 1.0046332 0.23172647 0.28350735 0.092838295 0.47190395 0.3048114 -0.13966018
0.047022052 0.5403407 -0.17997035 0.07879185 -0.011571133 0.7146022 0.097458936 0.00012344388
-0.14859085 0.4477046 0.020649932 0.37665567 0.11931429 -0.110434294 0.01831992 0.09689905

bias f4 [40]
00000000: 3ef1 243e 73d7 9bbd ae4a 54be f85a 7abe
00000010: f69b 6dbe 2b44 17be af7d c73d 1715 2cbe
00000020: a42f ecbd 07b7 d2be 2536 b23e e00f 443e
00000030: a04f 19be c918 de3e cf2a 7c3d 8dfd 503e
00000040: 04b1 1bbe 81aa d43e 1b3e 143e 2175 043d
00000050: a2ec 4ebe c198 133f ef9e c23e d44d b73d
00000060: dee0 103e 0635 1cbe 4f0e ad3d fda9 d6be
00000070: 1f30 2fbe 4072 573e 63cf c03e 60d0 8ebe
00000080: c24c 4d3e 6bc7 ae3e fc99 05be 94c2 983e
00000090: d751 7abd f94a 2c3e 86c1 45be fd03 d8bd
0.16107652 -0.07609453 -0.20731613 -0.24448764 -0.23204026 -0.14772098 0.09740769 -0.1680492
-0.11532524 -0.41155264 0.34806934 0.19146681 -0.14971781 0.43378285 0.061564263 0.20409222
-0.15204245 0.41536334 0.14476816 0.032338265 -0.20207456 0.5765496 0.38011882 0.089503914
0.1414828 -0.15254602 0.08449995 -0.41926566 -0.171082 0.21039677 0.37658224 -0.27893353
0.20048812 0.3413652 -0.13047022 0.2983595 -0.061113205 0.16825475 -0.19312105 -0.10547636

weight f4 [1, 40]
00000000: fee0 88be cb31 c0be efab 73be 7c73 373c
00000010: 258f 8d3e 9029 b9be 2e2a e7be 0161 a63e
00000020: 25b6 58be 00d4 44bd f829 613e 2767 dcbe
00000030: ac18 83be b608 4b3e 7f1f 2a3f c6e1 483e
00000040: 1b5f 95be 4dfc 1ebf 9fdf adbe a7d1 03bf
00000050: 9bce e33d d055 aabe 0139 6abe 2d20 c6bd
00000060: 4f2a 01bd 48dd a0be 7f63 843d d27b 2abe
00000070: b8ab 963e ffc6 02bf 5e2d d6bf e850 e4be
00000080: 45e4 58be 26b5 f1be 9fbc c43e 441d efbe
00000090: f731 833e 2100 c63e 801f 06bc 836d e5bd
-0.26734155 -0.3753799 -0.23796056 0.011196967 0.27648273 -0.36164522 -0.45149368 0.32495883
-0.21163233 -0.04805374 0.21988666 -0.4304745 -0.2560476 0.19827542 0.6645431 0.19617376
-0.29174122 -0.6210373 -0.33959672 -0.5149178 0.11123391 -0.33268595 -0.22873308 -0.09674106
-0.03153449 -0.31418824 0.0646429 -0.16648796 0.29427886 -0.51084894 -1.6732595 -0.44592977
-0.21180828 -0.47208518 0.38425156 -0.46702015 0.25624058 0.38671973 -0.008186221 -0.11202528

weight f4 [40, 2]
00000000: 1bad 473f 9e00 e9bf 03c0 5fbf 35d8 043f
00000010: ae6f cf3f 6f49 c73e 03c8 523f bcf0 e23f
00000020: 1cca 75be aa9c 31bf 3719 f5be 71ca 27be
00000030: ec36 883e 9bc7 8dbf 75fe 353e efcc 11bf
00000040: f804 79be 2b48 57be f929 3840 5e2b 403d
00000050: 54d9 4f3e 2754 67bf c11c 633f 132f a8bf
00000060: efcd cabf b264 2840 6b30 99be 1d34 7e3d
00000070: 913e 89be 190b 1ebf 0935 853e 2619 1fc0
00000080: 765e 0540 1f00 533f 2069 ff3f 11a6 70bf
00000090: 867e af3e 4bd8 22bf a47d 033d 46a8 183f
000000a0: d677 ff3f ec91 68bf b2f2 80be 9b54 26c0
000000b0: c47c f738 f67f 533d 3fab 7c3f 0d30 a8bf
000000c0: 8ebf 49bf 4ebd 98bf 2df7 9ebe bd57 d0bd
000000d0: c24e 7bbf a776 22bf bfd0 373e e1f8 693f
000000e0: e896 213f aaaf 14bf add7 b3be afad a0be
000000f0: 5cff c5bd b3b1 21bf 8977 ae3f f0ea 713f
00000100: bd25 053f ae00 14be 40ae 813e 335f c1be
00000110: 4a8e 8b3f 7c61 733e 042a 9c3d 1161 fc3e
00000120: f8ac 07bf 3de3 ddbd 54bb 62bf 7bad 82be
00000130: 9fc2 a63f 1741 b63f babb 00bf 2ceb 8ebf
0.77998513 -1.8203313 -0.8740236 0.51892406 1.6205957 0.38923213 0.82336444 1.7729716
-0.2400288 -0.69379675 -0.478708 -0.16385819 0.26604402 -1.107654 0.17772849 -0.5695333
-0.24318302 -0.21023624 2.8775618 0.04691636 0.20297748 -0.9036278 0.8871575 -1.3139366
-1.5844096 2.631146 -0.29919752 0.062061418 -0.26805547 -0.61735684 0.26017025 -2.48591
2.0838904 0.8242206 1.9953957 -0.940034 0.34276217 -0.63611287 0.032102242 0.59631765
1.9958446 -0.9084766 -0.25185162 -2.598914 0.00011801117 0.051635705 0.986988 -1.3139664
-0.78807914 -1.1932771 -0.31047955 -0.10172985 -0.9816705 -0.634623 0.17950724 0.91395384
0.6312089 -0.5808054 -0.35125485 -0.3138251 -0.096678466 -0.6316177 1.3630229 0.9449911
0.5201071 -0.14453384 0.25328255 -0.37767944 1.0902798 0.23767656 0.07625201 0.49292806
-0.52998304 -0.10834358 -0.8856709 -0.2552298 1.3028144 1.4238614 -0.5028645 -1.1165519

bias f4 [40]
00000000: 731a e8be a673 973f 80ed b93c 8eaa babe
00000010: e31b 2d3f a79c 2f3f 4185 6c3f 8d5d 833f
00000020: 451d 3bbe 578f 823f dc6f 773f 7178 013f
00000030: cbe7 a83e f9ed 843f da8d 1abf d37a abbe
00000040: 5885 38bc 705a 4f3f 5021 2c3f 99c5 f9be
00000050: 5cbc 01be 97fd 153e 0767 44be e08b 5f3f
00000060: 5616 703f 3760 2bbf e4b5 213f 203c 983f
00000070: f758 14bf 5ece 6f3f 5c20 f0be 379f b53e
00000080: f31e 1dbf 2079 873f a4ea 033f 61fd 9bbe
00000090: 12df 9c3f 7063 7f3f c8f6 9c3e b31e 993f
-0.4533268 1.1832168 0.022696257 -0.36458248 0.67620677 0.6859841 0.9239083 1.0262924
-0.18272884 1.0199994 0.9665506 0.50574404 0.32989344 1.0385123 -0.603727 -0.33492145
-0.01126226 0.8099737 0.6723833 -0.48783568 -0.1266951 0.14647518 -0.19179927 0.8732281
0.9378408 -0.6694369 0.6316817 1.1893349 -0.5794825 0.93674266 -0.46899688 0.35473034
-0.6137535 1.058384 0.5152991 -0.3046675 1.2255576 0.99761105 0.3065703 1.1962494
