[Fly gene Models]/Fly_Gene_Model_40_40x3_.pt (torch, 94695 bytes, 41 tensors)

weight f4 [40, 2]
-1.5417814 -0.1000473 0.4771136 -0.61277056 0.947963 -0.5480163 -0.6315432 0.9076152
-0.9286877 0.12618792 -1.1410236 -0.4326025 -0.38121614 -0.83422667 0.26525664 -0.5646231
-0.24685757 -0.41200632 -0.5184157 0.43844262 -0.19604573 -1.077102 0.6307762 0.058856122
0.25204906 0.9618729 -0.66518366 0.8189517 0.37821233 0.7383334 0.11196082 0.7965575
0.38574636 0.7971413 0.42719686 -0.6052725 -1.3093463 -0.855426 0.5392816 0.67459285
0.86622095 -0.4077716 -0.35317877 -0.5844721 0.7213162 0.18002054 0.773731 1.0748621
-0.98839813 -0.6748629 -0.403689 0.74510604 0.55294627 -0.5777154 0.10430215 0.80385727
0.9314764 -0.2296507 -0.8694698 -0.4864685 0.070757575 -0.55676645 -0.03958626 -0.05228668
0.21933389 -0.9428626 0.26787516 0.055317953 0.9504188 0.14843671 -0.8438392 -0.797083
-0.27062958 -0.53331345 -1.100064 0.7622143 -0.30340505 -0.7453133 -0.12191317 -0.62827915
00000000: 1859 c5bf 99e5 ccbd 3c48 f43e 88de 1cbf
00000010: b4ad 723f cc4a 0cbf d1ac 21bf 7859 683f
00000020: 7abe 6dbf 6837 013e 100d 92bf 137e ddbe
00000030: c32e c3be e18f 55bf b8cf 873e 248b 10bf
00000040: 3bc8 7cbe 7ef2 d2be e4b6 04bf 8d7b e03e
00000050: 36c0 48be 7ade 89bf 8d7a 213f 1e13 713d
00000060: 930c 813e 4d3d 763f 7a49 2abf d2a6 513f
00000070: 0ca5 c13e 6b03 3d3f b74b e53d 31eb 4b3f
00000080: 8c80 c53e 7411 4c3f 8cb9 da3e 23f3 1abf
00000090: a998 a7bf 33fd 5abf 5c0e 0a3f 1eb2 2c3f
000000a0: a8c0 5d3f 70c7 d0be d9d3 b4be f79f 15bf
000000b0: 2ea8 383f 4e57 383e 3c13 463f 1595 893f
000000c0: a907 7dbf d1c3 2cbf 53b0 cebe 45bf 3e3f
000000d0: e38d 0d3f 28e5 13bf 5e9c d53d 97c9 4d3f
000000e0: 3d75 6e3f 8e29 6bbe 9395 5ebf 6612 f9be
000000f0: 59e9 903d 3f88 0ebf 3425 22bd 8f2a 56bd
00000100: 1099 603e 715f 71bf ef26 893e 1495 623d
00000110: a54e 733f cbff 173e d905 58bf a20d 4cbf
00000120: f68f 8abe 3b87 08bf e6ce 8cbf 7a20 433f
00000130: e857 9bbe dacc 3ebf 9dad f9bd e7d6 20bf

bias f4 [40]
-0.20276321 0.3635251 -0.14862114 0.083375335 -0.25595042 -0.2794861 -0.4717889 0.20073989
0.345461 -0.0046579703 -0.113139905 0.2853027 -0.25531524 0.20276801 0.50525975 -0.24122567
-0.21698353 -0.020965675 -0.51026326 -0.0011982295 0.06978084 0.031523876 -0.60300314 -0.006923199
0.16608341 0.058249373 0.36907816 0.09994486 0.25266427 -0.3126485 -0.42130375 0.4580887
-0.107759885 0.053343683 0.39390647 -0.46463904 0.2875511 0.333508 -0.020134894 -0.534672
00000000: 29a1 4fbe f61f ba3e 2430 18be b0c0 aa3d
00000010: ef0b 83be cd18 8fbe 518e f1be c28e 4d3e
00000020: 44e0 b03e e3a1 98bb e5b5 e7bd 3213 923e
00000030: aeb8 82be 6ba2 4f3e b458 013f dd03 77be
00000040: ee30 5ebe 35c0 abbc 9da0 02bf e90d 9dba
00000050: 42e9 8e3d 2e1f 013d 6a5e 1abf 01dc e2bb
00000060: c511 2a3e e596 6e3d d0f7 bc3e e4af cc3d
00000070: 365d 813e 7713 a0be 20b5 d7be 9a8a ea3e
00000080: 37b1 dcbd e87e 5a3d 1cae c93e 2be5 edbe
00000090: e639 933e 90c1 aa3e eff1 a4bc 44e0 08bf

weight f4 [40, 40]
0.26022652 -0.17069043 -0.6633335 0.2051203 0.07844766 0.12319965 0.108391695 -0.094575316
0.10146649 0.06478835 -0.02400943 0.0056446907 0.0050662365 0.38308263 -0.034902085 0.07914651
-0.041865546 -0.0015552741 0.18106797 -0.12202287 -0.09020153 0.0071295556 -0.103885874 0.11394234
0.43860292 -0.02113995 -0.0019095317 -0.0143729 -0.22559898 0.07707327 0.027928945 0.009914689
-0.1972103 0.09547395 0.031017952 -0.039836816 -0.03136219 0.42045736 0.20292933 -0.10939511
0.5189152 -0.30143377 -0.46933436 0.10827914 0.26729918 0.42687765 0.3587128 -0.16471936
-0.035622124 0.10290409 0.064448304 -0.5021404 0.2076229 0.11449594 -0.2807232 0.10899127
0.09944562 -0.0647248 0.35852838 -0.2989993 -0.4526612 0.04156668 -0.15237571 -0.09595872
0.3960516 0.005544748 -0.13707013 0.05590356 -0.49431428 0.4209861 0.16292982 0.0807142
0.011154146 -0.32562712 -0.34998924 0.31839743 0.022765428 0.54608226 0.36096263 0.2736264
0.0495904 -0.045630787 0.29462707 -0.20457028 -0.008043363 0.024916634 0.22870451 0.12875137
0.016112588 -0.15046863 0.15134385 -0.04704798 -0.2535008 -0.39345536 -0.043544434 -0.02761668
-0.082221605 0.25606787 -0.10463657 -0.49140868 0.14297521 0.22064157 0.053907514 -0.59113824
0.20814277 -0.3115238 0.14886516 -0.3922098 -0.025939269 0.050819054 0.0961064 -0.17061967
0.4600892 0.054970536 -0.16735537 0.020020591 0.002438195 -0.23545317 0.1483182 0.033420585
-0.1261627 0.14265974 -0.12772064 -0.15733953 0.11429395 -0.015609482 -0.07737372 0.32553306
0.31818604 -0.02263585 0.28016943 -0.14738287 -0.36715338 -0.11006919 -0.08951186 -0.24090023
-0.2519518 0.05427449 0.11389404 -0.60907006 0.09266407 0.37938783 -0.14742433 -0.5494828
0.3567914 -0.18821679 0.2365952 -0.3733579 -0.054978482 0.16734438 0.11418868 0.10629729
0.50988173 0.0031653282 -0.19796914 0.09007573 0.11365065 -0.074399516 0.4990776 0.2080445
0.7702872 -0.081293926 -0.49439982 -0.34933826 0.5871621 0.82842094 1.2005049 -0.12072103
-0.032514177 0.038358755 0.9602209 -0.78512406 -0.07927983 -0.3410173 -1.0502951 0.05129189
-0.021960441 0.09974262 1.4360902 -0.6055897 -0.480203 0.61576104 0.19270554 -0.693389
0.718196 -0.36655658 -0.28015697 -0.57275283 -0.6952227 0.92141116 0.8516416 -0.3136946
0.50864804 -0.5797033 -0.9974029 1.2135736 0.04964957 0.006865486 0.6648175 0.8180904
0.12590337 -0.05749194 -1.0612376 0.43959326 0.17388014 -0.010184325 -0.2322734 -0.11939109
0.17758696 0.32431 -0.14008267 0.10419932 -0.18463963 0.4999541 0.13223198 -0.17695962
-0.17882124 -0.3519888 0.22039922 -0.2901816 -0.4200434 0.24732108 -0.2562846 -0.12610295
0.606717 0.440116 -0.17566662 0.16111645 -0.22099619 -0.0014150374 -0.23621504 0.045714803
-0.37555122 -0.18297048 -0.2118318 -0.19303586 0.15999004 0.8012988 0.11333373 -0.22649969
-0.0032484834 -0.09399714 -0.025649847 -0.07271969 -0.11117349 0.119785756 -0.075211294 0.11759313
0.04118755 -0.2064981 0.18059301 -0.05770822 0.004851397 -0.22480641 -0.049991433 0.11548355
00000000: 693c 853e 79c9 2ebe 39d0 29bf 0e0b 523e
00000010: 2ba9 a03d 1950 fc3d 77fc dd3d b4b0 c1bd
00000020: aacd cf3d c1af 843d 6daf c4bc 19f7 b83b
00000030: ac02 a63b 6823 c43e 7df5 0ebd 9117 a23d
00000040: 357b 2bbd 57da cbba e269 393e 20e7 f9bd
00000050: 94bb b8bd 0c9f e93b 1ec2 d4bd 9a5a e93d
00000060: 9090 e03e b02d adbc 4049 faba 507c 6bbc
00000070: 6b03 67be 97d8 9d3d 3ecb e43c 3871 223c
00000080: 7ff1 49be d987 c33d 5c19 fe3c ee2b 23bd
00000090: a475 00bd 3046 d73e b5cc 4f3e 8b0a e0bd
000000a0: a0d7 043f 8755 9abe 984c f0be 74c1 dd3d
000000b0: 70db 883e b58f da3e 34a9 b73e 31ac 28be
000000c0: 81e8 11bd 61bf d23d 79fd 833d 468c 00bf
000000d0: 199b 543e d97c ea3d f4ba 8fbe d136 df3d
000000e0: 25aa cb3d 708e 84bd 0891 b73e 7016 99be
000000f0: 35c3 e7be d341 2a3d 6108 1cbe 0186 c4bd
00000100: 46c7 ca3e b8b0 b53b 1d5c 0cbe 22fb 643d
00000110: c316 fdbe 7d8b d73e 13d7 263e 7d4d a53d
00000120: e1bf 363c 99b8 a6be ca31 b3be fd04 a33e
00000130: 907e ba3c 0ccc 0b3f 18d0 b83e c218 8c3e
00000140: 4e1f 4b3d 59e7 3abd 5cd9 963e df7a 51be
00000150: 4fc8 03bc f81d cc3c 8431 6a3e 66d7 033e
00000160: 8cfe 833c 7314 1abe e2f9 1a3e 62b5 40bd
00000170: dbca 81be fb72 c9be a65b 32bd 603c e2bc
00000180: cd63 a8bd 541b 833e b34b d6bd eb99 fbbe
00000190: 1868 123e ddef 613e 20ce 5c3d d654 17bf
000001a0: 6123 553e 0c80 9fbe 1c70 183e b9cf c8be
000001b0: 977e d4bc a427 503d 6fd3 c43d ecb6 2ebe
000001c0: d090 eb3e c928 613d 355f 2bbe 3902 a43c
000001d0: 20ca 1f3b a31a 71be bae0 173e 06e4 083d
000001e0: cb30 01be 6515 123e 33c9 02be 9d1d 21be
000001f0: f212 ea3d eabe 7fbc 1d76 9ebd 45ac a63e
00000200: 48e9 a23e d16e b9bc 5e72 8f3e 89eb 16be
00000210: 87fb bbbe f56b e1bd fe51 b7bd 8dae 76be
00000220: d4ff 80be ed4e 5e3d 4741 e93d 04ec 1bbf
00000230: a9c6 bd3d 1f3f c23e 67f6 16be e8aa 0cbf
00000240: 5dad b63e e7bb 40be 0346 723e c428 bfbe
00000250: 1e31 61bd 535c 2b3e c1db e93d 65b2 d93d
00000260: 9c87 023f 6571 4f3b 6cb8 4abe a079 b83d
00000270: acc1 e83d c65e 98bd 1987 ff3e 9e09 553e
00000280: 8b31 453f 6e7d a6bd f921 fdbe 77dc b2be
00000290: 4150 163f 6513 543f 25aa 993f 963c f7bd
000002a0: 962d 05bd 121e 1d3d 09d1 753f e4fd 48bf
000002b0: 775d a2bd d299 aebe 1270 86bf 7217 523d
000002c0: 62e6 b3bc dc45 cc3d ced1 b73f ed07 1bbf
000002d0: 2bdd f5be 84a2 1d3f 9a54 453e f181 31bf
000002e0: b1db 373f 4ead bbbe bc70 8fbe ee9f 12bf
000002f0: 1dfa 31bf 9ae1 6b3f 2f05 5a3f 949c a0be
00000300: c236 023f 6f67 14bf cc55 7fbf 6156 9b3f
00000310: 595d 4b3d dff7 e03b 7b31 2a3f 5f6e 513f
00000320: d0ec 003e ab7c 6bbd a2d6 87bf 5e12 e13e
00000330: a30d 323e 28dc 26bc 14d9 6dbe 5183 f4bd
00000340: 5bd9 353e f60b a63e d571 0fbe 7466 d53d
00000350: 2c12 3dbe fcf9 ff3e d267 073e e734 35be
00000360: ea1c 37be e037 b4be 55b0 613e af92 94be
00000370: ee0f d7be bd41 7d3e bc37 83be 2221 01be
00000380: ce51 1b3f e256 e13e f3e1 33be b6fb 243e
00000390: d34c 62be c778 b9ba 5be2 71be 723f 3b3d
000003a0: 4048 c0be 9d5c 3bbe 6fea 58be 31ab 45be
000003b0: 6ed4 233e eb21 4d3f 841b e83d 89ef 67be
000003c0: 82e4 54bb 9381 c0bd a11f d2bc 10ee 94bd
000003d0: edae e3bd 3c52 f53d 6108 9abd abd4 f03d
000003e0: 47b4 283d 3d74 53be 60ed 383e 745f 6cbd
000003f0: 78f8 9e3b a733 66be d1c3 4cbd a482 ec3d

bias f4 [40]
0.08529966 0.032864556 -0.09000907 0.035328943 -0.36814186 0.2061423 0.08586204 -0.18738589
-0.32104844 0.013266274 -0.14585693 -0.14186646 -0.11638926 0.115682855 0.008350654 -0.033438887
0.06198098 -0.21804157 -0.064099416 0.11103615 -0.15335885 0.07787655 0.007268729 -0.17488363
-0.07666759 -0.030773241 0.015179491 0.114265256 -0.064270005 0.2209198 -0.18426968 -0.011130512
0.119826786 -0.028526524 -0.066581205 0.046532955 0.050333448 -0.06322008 -0.12840451 0.015522742
00000000: 97b1 ae3d fc9c 063d ad56 b8bd 15b5 103d
00000010: 177d bcbe f816 533e 70d8 af3d 16e2 3fbe
00000020: 7660 a4be c95a 593c 855b 15be 7145 11be
00000030: 7e5d eebd 22eb ec3d 2ed1 083c 37f7 08bd
00000040: c5df 7d3d 4a46 5fbe 8e46 83bd ec66 e33d
00000050: 1a0a 1dbe be7d 9f3d 852e ee3b b214 33be
00000060: e603 9dbd 2a18 fcbc 66b3 783c e703 ea3d
00000070: fe9f 83bd cd38 623e 31b1 3cbe c05c 36bc
00000080: bf67 f53d 75b0 e9bc ba5b 88bd 5799 3e3d
00000090: 722a 4e3d 8879 81bd 797c 03be 1953 7e3c

weight f4 [4, 40]
-0.13858743 -0.37983945 -0.09614514 -0.31424773 -0.61137676 -0.1255185 -0.062789336 0.038808234
-0.1305165 0.023131717 0.004711996 -0.03472918 0.2945805 -0.29973957 0.20372722 0.12776305
-0.021405242 -0.07158439 0.045167293 -0.06297293 -0.022062266 -0.21194227 0.108448625 0.06810546
0.0111123165 0.24478224 0.07300601 -0.37433305 0.07121251 -0.40289354 0.076299325 0.07474337
0.01900803 -0.037949204 -0.15048258 -0.124803476 0.020880178 0.11455216 -0.103385456 -0.0717751
0.0324859 0.21984528 -0.106100515 -0.1678176 0.32191443 -0.002870773 -0.027774498 -0.00068668136
-0.27331033 0.055316728 -0.08225028 -0.058017828 -0.0680423 0.040587205 0.1509823 0.12204198
0.18633725 -0.15448171 -0.0005642426 -0.044816528 0.17592384 -0.06564896 0.16254784 -0.0017998887
0.046208717 0.02264023 -0.1476424 -0.19236997 -0.10699101 0.102012366 0.022482825 -0.06824332
-0.11570402 -0.05246536 -0.03483512 -0.011688806 0.07912779 0.037127823 0.07025607 -0.14248015
0.13959226 0.33223578 0.19920449 0.19208589 0.51352745 0.40037197 0.019935926 0.1425469
-0.010631629 0.22514813 -0.20041522 0.235945 -0.29625854 0.2994859 -0.110491864 -0.18307191
-0.109932944 0.23798193 -0.01731968 -0.1509804 0.24506535 0.08981187 -0.045610458 -0.019876888
0.14683387 -0.24842665 -0.07361936 0.2676282 0.105272666 0.3770067 -0.24979974 -0.036836326
0.09988194 -0.024555644 0.026186423 0.09864792 0.017034406 -0.14599073 -0.063847885 0.108460926
-0.110062264 -0.19323128 0.27068835 0.18928061 -0.6167779 -0.03197434 -0.040491126 0.2183273
-0.015438094 -0.05774107 -0.026389325 0.21905701 0.043954775 -0.14904982 -0.4006455 -0.33857912
-0.030660389 0.27654836 0.039840423 0.12259659 -0.18508348 -0.1676394 -0.22479577 0.17069761
-0.08194878 0.0106507 0.24568357 0.2701477 -0.020175898 0.042286403 0.09521216 -0.26932904
0.19825551 0.18517132 -0.08841253 0.19499804 -0.031802736 0.16908295 0.23708455 0.18853222
00000000: dde9 0dbe 517a c2be bee7 c4bd 14e5 a0be
00000010: 3083 1cbf ec87 00be b297 80bd 62f5 1e3d
00000020: 1ea6 05be ba7e bd3c 1667 9a3b 2f40 0ebd
00000030: 41d3 963e 7777 99be de9d 503e 51d4 023e
00000040: 0c5a afbc d69a 92bd 5701 393d f4f7 80bd
00000050: edbb b4bc 6507 59be 501a de3d e07a 8b3d
00000060: 6f10 363c 32a8 7a3e 2d84 953d 95a8 bfbe
00000070: ddd7 913d 1048 cebe d242 9c3d 0d13 993d
00000080: bab6 9b3c a070 1bbd 1b18 1abe f798 ffbd
00000090: e80c ab3c 539a ea3d c1bb d3bd d3fe 92bd
000000a0: ef0f 053d 1f1f 613e 3a4b d9bd 60d8 2bbe
000000b0: f8d1 a43e 9423 3cbb 5887 e3bc 6802 34ba
000000c0: 55ef 8bbe cb93 623d d672 a8bd 1aa4 6dbd
000000d0: c359 8bbd c53e 263d 1b9b 1a3e 25f1 f93d
000000e0: 31cf 3e3e 7430 1ebe aee9 13ba 8991 37bd
000000f0: 6125 343e f672 86bd f172 263e 3eea ebba
00000100: 5a45 3d3d 0178 b93c 922f 17be a2fc 44be
00000110: 1a1e dbbd dceb d03d e72d b83c 27c3 8bbd
00000120: 3bf6 ecbd ebe5 56bd 45af 0ebd 6882 3fbc
00000130: c00d a23d 5813 183d 6ae2 8f3d 51e6 11be
00000140: 46f1 0e3e cf1a aa3e 43fc 4b3e 2ab2 443e
00000150: 8976 033f 8efd cc3e ab50 a33c d1f7 113e
00000160: 4930 2ebc 3b8d 663e a639 4dbe 919b 713e
00000170: 33af 97be 3756 993e 8f49 e2bd 3477 3bbe
00000180: 8624 e1bd 89b1 733e 00e2 8dbc 9b9a 1abe
00000190: 69f2 7a3e 49ef b73d 08d2 3abd dbd4 a2bc
000001a0: 9e5b 163e 8e63 7ebe bfc5 96bd 9006 893e
000001b0: 3299 d73d 0607 c13e 81cb 7fbe b0e1 16bd
000001c0: e78e cc3d eb28 c9bc e984 d63c ec07 ca3d
000001d0: bd8b 8b3c 987e 15be aec2 82bd c320 de3d
000001e0: 5368 e1bd 6cde 45be aa97 8a3e c7d2 413e
000001f0: 28e5 1dbf 87f7 02bd 06da 25bd 3191 5f3e
00000200: 0ff0 7cbc e681 6cbd 6d2e d8bc 7b50 603e
00000210: ec09 343d 84a0 18be 6821 cdbe 3e5a adbe
00000220: 7f2b fbbc bf97 8d3e b62f 233d ec13 fb3d
00000230: 8686 3dbe aaa9 2bbe dd30 66be 5bcb 2e3e
00000240: c3d4 a7bd 4680 2e3c 7994 7b3e cd50 8a3e
00000250: ed47 a5bc 8234 2d3d 98fe c23d 7fe5 89be
00000260: 7e03 4b3e 8d9d 3d3e a111 b5bd 91ad 473e
00000270: 9643 02bd 1524 2d3e 4bc6 723e 970e 413e

bias f4 [4]
0.068121 -0.045337763 0.049280643 0.056840755
00000000: 0683 8b3d 17b4 39bd 80da 493d dad1 683d

weight f4 [40, 2]
0.017997546 0.0761414 0.5593615 0.33665863 0.27256587 0.6803297 0.51546663 0.35365126
0.65322316 0.350519 0.08468044 0.30608398 -0.3645927 0.31148735 -0.32936352 0.2077977
0.2999915 0.66711146 0.53768164 0.30109313 0.5280158 -0.45756575 -0.42123064 0.38277382
0.42197502 -0.75950885 0.7117586 0.30517837 0.500608 0.30331916 0.31716105 -0.7119765
-0.19626 -0.65150523 0.45423225 -0.6159075 -0.34426543 -0.63317406 -0.1027551 -0.1963365
0.48864803 0.39631525 0.48273534 -0.5274568 0.6093683 -0.15775776 -0.14371005 -0.79240364
0.7624799 -0.47953176 0.6042342 -0.7462202 -0.7055896 -0.52002144 -0.1274373 -0.85819006
0.09245689 0.118427776 -0.47852823 0.1425889 -0.41265705 0.7496295 -0.011336828 0.67650056
-0.028042978 -0.16414917 0.14358824 0.026034445 0.43949148 0.7212877 0.13104846 0.2774698
-0.33880115 0.04433857 -0.37811995 -0.47513178 0.6884267 0.109069034 0.5102448 -0.6828581
00000000: 976f 933c 06f0 9b3d 5132 0f3f 855e ac3e
00000010: c18d 8b3e 162a 2e3f 9ff5 033f c711 b53e
00000020: a239 273f 3a77 b33e f06c ad3d 0ab7 9c3e
00000030: e5ab babe 457b 9f3e 56a2 a8be ecc8 543e
00000040: 7c98 993e d1c7 2a3f 81a5 093f e128 9a3e
00000050: 0b2c 073f 0f46 eabe 8bab d7be eefa c33e
00000060: 1c0d d83e 2c6f 42bf d035 363f 5740 9c3e
00000070: d927 003f a64c 9b3e ef62 a23e 1844 36bf
00000080: 62f8 48be 0cc9 26bf 2191 e83e 1dac 1dbf
00000090: 8f43 b0be b217 22bf 4471 d2bd 6f0c 49be
000000a0: 1330 fa3e d5e9 ca3e 1629 f73e 6907 07bf
000000b0: 90ff 1b3f 408b 21be ba28 13be f7da 4abf
000000c0: e231 433f 3085 f5be 18af 1a3f 4908 3fbf
000000d0: 85a1 34bf 2020 05bf ec7e 02be 58b2 5bbf
000000e0: 0a5a bd3d 438a f23d a701 f5be d302 123e
000000f0: c947 d3be b8e7 3f3f 1abe 39bc 242f 2d3f
00000100: 63ba e5bc b816 28be cc08 133e 3046 d53c
00000110: 0705 e13e 50a6 383f 9131 063e 8610 8e3e
00000120: 5877 adbe 5c9c 353d f098 c1be 7944 f3be
00000130: bb3c 303f 965f df3d 679f 023f cacf 2ebf

bias f4 [40]
-0.5477055 0.7673923 0.008638542 -0.3823213 0.62799966 -0.67843986 0.46586934 -0.5002289
0.07426474 -0.23742151 0.7572648 -0.31334803 0.0027431645 0.0044044177 -0.47989783 -0.13634445
-0.5449997 0.48485178 0.40714478 0.49877986 -0.43829006 -0.57762235 -0.52830297 0.41418472
0.65166545 0.8316394 -0.43978643 0.315291 0.8739909 0.7065991 -0.20163646 -0.49768996
0.25939837 -0.11028464 -0.02054744 -0.6890636 -0.650141 -0.65037054 0.46800116 0.15933809
00000000: 6d36 0cbf d273 443f ac88 0d3c 9ebf c3be
00000010: 96c4 203f 3cae 2dbf 6d86 ee3e 000f 00bf
00000020: 1d18 983d a01e 73be 1bdc 413f 276f a0be
00000030: aac6 333b ef52 903b 2bb5 f5be e19d 0bbe
00000040: 1a85 0bbf 7e3e f83e 4875 d03e 1360 ff3e
00000050: 8e67 e0be 0fdf 13bf dd3e 07bf 0510 d43e
00000060: 8cd3 263f 52e6 543f b02b e1be d26d a13e
00000070: debd 5f3f aee3 343f ca79 4ebe 38d1 febe
00000080: ddcf 843e eadc e1bd 1b53 a8bc 7966 30bf
00000090: a46f 26bf af7e 26bf d99d ef3e 8629 233e

weight f4 [40, 40]
0.083763994 -0.23299086 0.15398929 0.084908165 -0.093851045 0.05885487 0.02723952 -0.059589703
-0.05517467 0.19650744 -0.19737287 0.13574532 -0.12825567 0.0040731984 0.082748786 -0.16077636
-0.06889735 -0.23019588 -0.33236834 -0.007800583 0.04892649 -0.13228661 0.12939183 -0.17468506
-0.19970353 -0.21380304 0.121022955 -0.09682375 -0.13258922 -0.2386858 -0.11376132 0.12224244
-0.03176852 -0.10288357 -0.077656105 0.04565049 0.01585744 0.13158098 -0.0791277 -0.26506436
0.057650875 -0.0044606756 0.03239988 0.042385887 0.16132635 0.050472107 0.109494336 0.07008951
-0.017223172 0.1082367 0.17082849 -0.04889063 0.005640217 -0.068847924 0.12624557 0.0453126
-0.030146955 -0.08993971 0.043948196 0.12130223 0.21482204 0.13748372 0.050040454 -0.08969115
-0.10487795 0.027842915 -0.05673715 0.096586175 -0.04314688 -0.009158955 -0.100491166 0.06592136
0.04485696 -0.069130376 0.2084806 -0.15618195 -0.0026121205 -0.046362422 -0.06900378 0.10401522
-0.14636593 0.13754201 0.20528647 0.12139005 0.26379108 -0.07402383 9.2699134e-05 -0.14407453
0.064081594 -0.09346701 0.16366605 -0.051860616 0.13728258 0.052010186 -0.0060428185 0.16242649
-0.085155234 0.2000045 0.29179314 0.21014805 -0.04902362 -0.051905565 0.09378448 0.112681955
0.24275945 0.17060275 0.06277467 0.36707923 0.14598887 0.008462457 -0.17521591 0.14736192
0.15934391 0.12509498 0.019744376 0.10662031 -0.12137905 -0.13069426 0.123681694 0.120023325
0.01021146 -0.24168465 -0.09428049 -0.14513156 -0.034685425 0.094263576 -0.077757545 0.011987303
-0.016486445 -0.048545357 -0.10682797 0.015467149 -0.2577267 -0.12623817 -0.14922631 -0.27884072
0.087730825 -0.32342523 -0.28257367 -0.03089916 0.12314866 -0.13056636 -0.039438862 -0.2708997
-0.2798194 -0.11246793 -0.051336806 -0.37811 -0.2336021 -0.2922508 0.15930973 -0.13716672
-0.2421768 0.15660116 -0.07876195 0.124717645 0.05358852 0.115183026 -0.06310061 -0.2926304
0.11143403 0.12031202 0.12907876 -0.07808156 0.25048295 0.004460117 -0.05417154 -0.108676925
0.17903247 -0.11451711 0.30833524 0.009051356 0.1619408 0.034796566 -0.10002033 0.08346593
0.15606937 0.27212396 0.11801144 0.1541204 0.05885572 0.13855438 0.028872013 0.25097165
0.2857331 0.20468132 0.018090438 0.21462886 0.2276419 0.1929025 -0.2954987 -0.036757834
0.21809421 0.09285456 0.19876806 -0.036124557 0.048368238 -0.083675295 0.011703486 0.25768244
0.052070774 -0.29515275 -0.30783823 -0.103226766 -0.15262432 0.086341396 -0.20463328 0.0054211714
-0.19321287 0.016740032 -0.22848254 0.098145254 -0.19363827 0.021884954 -0.12749827 -0.33506504
0.048389312 -0.27524465 -0.30296913 -0.18896624 -0.0060097645 0.15412377 -0.08398175 -0.3218384
-0.09249769 -0.29773444 0.06380183 -0.28721657 -0.022601862 -0.2137935 -0.10970133 0.102515884
-0.1784225 -0.13958763 -0.04455412 -0.040944513 -0.032633673 -0.07652402 -0.12819715 -0.27645916
0.04251031 0.14405596 -0.020985214 -0.124632075 0.19932118 0.1262929 0.092540875 0.009707862
0.13352895 -0.02637561 0.08353796 -0.048503295 0.022758424 -0.16948014 -0.027312513 0.18104473
00000000: 758c ab3d 2895 6ebe 5eaf 1d3e 55e4 ad3d
00000010: fa34 c0bd ce11 713d 6a25 df3c 5514 74bd
00000020: d6fe 61bd 3f39 493e 1d1c 4abe d200 0b3e
00000030: 7455 03be 7778 853b 3278 a93d 8fa2 24be
00000040: 0e1a 8dbd 78b8 6bbe 2f2c aabe 089c ffbb
00000050: 2567 483d 2476 07be 4b7f 043e a4e0 32be
00000060: 157f 4cbe 2fef 5abe e2da f73d 884b c6bd
00000070: 78c5 07be 0d6a 74be b2fb e8bd 3f5a fa3d
00000080: b51f 02bd 9fb4 d2bd 2a0a 9fbd 02fc 3a3d
00000090: 76e7 813c 2abd 063e b40d a2bd 84b6 87be
000000a0: 5323 6c3d dc2a 92bb bdb5 043d d39c 2d3d
000000b0: bc32 253e d7bb 4e3d 913e e03d 178b 8f3d
000000c0: 9c17 8dbc 34ab dd3d aaed 2e3e 8b41 48bd
000000d0: 92d1 b83b 2400 8dbd 8546 013e b499 393d
000000e0: bff6 f6bc 5032 b8bd 0603 343d 4e6d f83d
000000f0: 4ffa 5b3e 88c8 0c3e 38f7 4c3d feaf b7bd
00000100: 40ca d6bd d316 e43c 3765 68bd f9ce c53d
00000110: c8ba 30bd 710f 16bc 50ce cdbd c701 873d
00000120: efbb 373d 3a94 8dbd f07b 553e 29ee 1fbe
00000130: 1c30 2bbb 86e6 3dbd db51 8dbd ef05 d53d
00000140: f3e0 15be d0d7 0c3e 9e36 523e 599b f83d
00000150: a00f 873e ce99 97bd 7867 c238 4688 13be
00000160: 363d 833d a26b bfbd 1398 273e cc6b 54bd
00000170: ce93 0c3e a208 553d d602 c6bb 2153 263e
00000180: de65 aebd fbcd 4c3e e965 953e 0d31 573e
00000190: fecc 48bd ee9a 54bd 1412 c03d ccc5 e63d
000001a0: ef95 783e 7db2 2e3e 0290 803d cff1 bb3e
000001b0: 1b7e 153e 1ea6 0a3c cd6b 33be 0be6 163e
000001c0: 0d2b 233e e618 003e f5be a13c c05b da3d
000001d0: 9495 f8bd b7d4 05be d44c fd3d cace f53d
000001e0: f84d 273c 2e7c 77be 2116 c1bd 5e9d 14be
000001f0: 4e12 0ebd 430d c13d 593f 9fbd 6566 443c
00000200: 950e 87bc 7fd7 46bd 9fc8 dabd ed69 7d3c
00000210: c1f4 83be 9444 01be c8ce 18be 36c4 8ebe
00000220: 38ac b33d fe97 a5be 7fad 90be 3c20 fdbc
00000230: 5d35 fc3d 30b3 05be a58a 21bd 5eb3 8abe
00000240: 7d44 8fbe 9655 e6bd 8b46 52bd a297 c1be
00000250: 6435 6fbe e6a1 95be 1722 233e 6f75 0cbe
00000260: 32fd 77be 0e5c 203e f24d a1bd f76b ff3d
00000270: a37f 5b3d 14e5 eb3d e53a 81bd a7d3 95be
00000280: 8637 e43d 2666 f63d 392d 043e 3ae9 9fbd
00000290: 4d3f 803e 2c26 923b fae2 5dbd 0292 debd
000002a0: 4a54 373e f287 eabd 1ede 9d3e 244c 143c
000002b0: cfd3 253e d886 0e3d 75d7 ccbd 2ff0 aa3d
000002c0: a6d0 1f3e d553 8b3e fbaf f13d bdd1 1d3e
000002d0: b212 713d 33e1 0d3e 0085 ec3c 5b7f 803e
000002e0: 9c4b 923e fb97 513e 6632 943c abc7 5b3e
000002f0: f51a 693e 3c88 453e 9b4b 97be 628f 16bd
00000300: 1754 5f3e 882a be3d db89 4b3e 58f7 13bd
00000310: c61d 463d f45d abbd fabf 3f3c f4ee 833e
00000320: 2a48 553d 431e 97be f99c 9dbe 8e68 d3bd
00000330: 8d49 1cbe c2d3 b03d 638b 51be 15a4 b13b
00000340: 98d9 45be 6422 893c 54f7 69be 6100 c93d
00000350: 1c49 46be 1348 b33c e88e 02be a58d abbe
00000360: df33 463d deec 8cbe c51e 9bbe 5e80 41be
00000370: 8fed c4bb 9fd2 1d3e a0fe abbd 01c8 a4be
00000380: 6e6f bdbd a670 98be 89aa 823d 0d0e 93be
00000390: 8a27 b9bc afec 5abe 17ab e0bd d9f3 d13d
000003a0: 63b4 36be 0ff0 0ebe 627e 36bd 6fb5 27bd
000003b0: e3aa 05bd a0b8 9cbd 1d46 03be 0e8c 8dbe
000003c0: 4a1f 2e3d 6883 133e 2fe9 abbc 1a3f ffbd
000003d0: da1a 4c3e ed52 013e 1286 bd3d b90d 1f3c
000003e0: d0bb 083e aa11 d8bc f315 ab3d 64ab 46bd
000003f0: e06f ba3c 348c 2dbe 7ebe dfbc ca63 393e

bias f4 [40]
-0.17517777 -0.021347232 0.17504466 -0.042218234 0.034188367 -0.19085304 0.16279556 0.16194588
0.15706785 -0.0029088254 0.22904977 0.18254092 -0.02180145 -0.16669787 -0.17414582 0.0019023494
0.060474712 -0.0072085112 -0.21234259 -0.115746334 -0.23937564 -0.19029856 0.025860947 0.21729395
0.27993286 0.26212966 -0.008559774 -0.07908672 0.11174121 -0.30891103 -0.20998785 0.20491277
-0.08447602 -0.21479297 0.1375136 0.03376953 -0.07339992 0.07432903 -0.19744077 0.14210767
00000000: cd61 33be 64e0 aebc e83e 333e 07ed 2cbd
00000010: 1a09 0c3d fb6e 43be e1b3 263e 24d5 253e
00000020: 65d6 203e fea1 3ebb 068c 6a3e 02ec 3a3e
00000030: f498 b2bc d9b2 2abe 4853 32be 4158 f93a
00000040: 55b4 773d 6035 ecbb 5670 59be 6a0c edbd
00000050: e31e 75be a0dd 42be 56da d33c 4e82 5e3e
00000060: 5c53 8f3e dc35 863e 4b3e 0cbc 38f8 a1bd
00000070: 93d8 e43d 9629 9ebe 0e07 57be a7d4 513e
00000080: c301 adbd b0f2 5bbe 5dd0 0c3e eb51 0a3d
00000090: b252 96bd d239 983d ea2d 4abe ac84 113e

weight f4 [40, 40]
-0.071989805 -0.054956764 0.057733905 -0.14959316 0.28882098 -0.27795166 0.14868717 0.22893366
0.16175047 -0.28964943 0.1348754 0.29895237 -0.05610526 -0.18467487 0.016263785 -0.24277666
0.05025366 -0.05596308 -0.22192958 -0.19210108 -0.13339727 -0.3280137 0.0041705808 0.107405014
0.14587916 0.13549186 0.12083887 -0.05403974 0.25290018 -0.07714385 -0.08727625 0.2224603
-0.14789838 -0.20280224 0.3070073 0.32087544 -0.018556638 0.3401066 -0.09284991 0.2856776
0.19555195 0.028334403 -0.29881507 0.14064035 -0.03393301 0.21475315 -0.21257424 -0.14273265
-0.15237561 0.08655485 -0.25050262 -0.18472002 0.09816563 -0.009545064 -0.019665927 0.26188505
-0.21113865 0.13578008 0.2414881 -0.008268123 0.15907902 0.23670125 0.07979737 -0.24351658
-0.22892407 -0.20666365 -0.0871339 0.10996993 -0.27185363 0.05704653 0.16001712 -0.023357138
0.21435313 0.28086802 -0.25512147 -0.26944932 0.1724117 -0.18597797 0.15399228 -7.235995e-05
0.042427726 0.08114686 -0.2608362 0.19581863 -0.14491381 0.042513113 -0.27596685 -0.07834788
-0.10228901 0.04329364 -0.084763415 0.0032873214 -0.08735858 0.17516366 0.019520262 -0.025875436
-0.2080903 -0.053379696 0.19411276 0.01699032 0.15627949 -0.036522035 0.006321151 -0.114353016
-0.042800013 -0.2304545 -0.302874 -0.046183635 -0.17468692 0.11811952 0.09328686 -0.18772735
0.09790764 0.23016882 -0.035607923 -0.21795413 -0.056612663 -0.015537261 0.26773193 0.025687477
-0.012067712 -0.10958881 0.10871553 -0.18100928 -0.037168868 -0.19294015 0.16703273 0.1120876
0.16127054 -0.0021426962 0.08472071 0.0149485655 0.112639986 -0.123031385 0.04650147 -0.0720179
0.3349287 -0.09230519 -0.07969184 -0.13550666 -0.2371688 -0.10605802 -0.1207074 0.0841146
0.0070067784 0.061823998 0.18250914 -0.14573516 0.17249268 -0.084388606 0.008289211 0.14457028
-0.2622982 -0.020561205 0.15768962 0.14937799 -0.043769028 0.23760131 -0.2845454 0.25192687
0.25526825 0.056431785 -0.042594988 0.28232148 -0.2006914 0.066075616 -0.20337208 -0.20449738
-0.20050003 0.14402658 -0.2446669 -0.19058768 -0.22757709 0.25011423 0.054554593 0.020601336
-0.22206602 0.19216298 0.3381669 0.20076004 0.2666145 0.21437486 -0.08862898 -0.29526472
-0.049491443 -0.24190941 -0.22050735 0.03204976 -0.22343849 0.30577993 0.02158875 -0.1329752
0.040725436 0.13191403 -0.10854976 -0.30847955 0.060920738 -0.10174833 0.28308642 -0.25610074
0.15988334 0.0073181307 -0.23804538 0.29887462 0.012974569 0.26956266 -0.20594458 -0.013484631
-0.24406774 0.037928134 0.03408829 -0.24978687 -0.24299216 0.04270368 0.18391629 0.029194552
-0.16463943 0.17729297 0.26447725 0.14289668 0.2686309 0.22792749 -0.003977814 -0.20568933
-0.009528198 -0.23927064 -0.10607342 0.23272441 -0.20268823 0.22295596 0.09136875 -0.018733399
0.10372983 0.26536134 -0.0633384 -0.012956751 -0.055376355 -0.072055146 0.017941106 -0.10792043
-0.07162957 -0.14422661 0.1711375 -0.2645159 0.30046147 -0.24639942 0.31451532 0.31301612
0.22561097 -0.27003908 0.16537729 0.30427358 0.1627699 -0.14657383 -0.31860015 -0.34311032
00000000: 646f 93bd 581a 61bd 637a 6c3d f32e 19be
00000010: 58e0 933e ae4f 8ebe 7341 183e 966d 6a3e
00000020: eaa1 253e ee4c 94be c71c 0a3e 4910 993e
00000030: a1ce 65bd 691b 3dbe a13b 853c 729a 78be
00000040: c8d6 4d3d 8b39 65bd 8241 63be 25b6 44be
00000050: 4b99 08be 69f1 a7be 5ea9 883b 29f7 db3d
00000060: 5961 153e 61be 0a3e 5f7a f73d c658 5dbd
00000070: 227c 813e 98fd 9dbd e4bd b2bd a2cc 633e
00000080: ac72 17be 64ab 4fbe 1030 9d3e c949 a43e
00000090: 1704 98bc 7422 ae3e 1828 bebd 5644 923e
000000a0: c53e 483e 8d1d e83c 4afe 98be 0604 103e
000000b0: 57fd 0abd 40e8 5b3e 10ad 59be 8228 12be
000000c0: 5a08 1cbe ab43 b13d e141 80be 3f27 3dbe
000000d0: 100b c93d e662 1cbc 701a a1bc cc15 863e
000000e0: bb34 58be ef09 0b3e a848 773e 0577 07bc
000000f0: 9ce5 223e d061 723e ce6c a33d 695c 79be
00000100: 126b 6abe a39f 53be 4273 b2bd ea37 e13d
00000110: 6630 8bbe 9fa9 693d 87db 233e 7857 bfbc
00000120: 637f 5b3e efcd 8f3e 489f 82be 43f5 89be
00000130: b18c 303e 0271 3ebe 27b0 1d3e f4bf 97b8
00000140: b2c8 2d3d 5330 a63d 538c 85be ae84 483e
00000150: 4964 14be 3b22 2e3d 874b 8dbe da74 a0bd
00000160: e77c d1bd ac54 313d 7198 adbd 1a70 573b
00000170: 0ee9 b2bd 1a5e 333e f5e8 9f3c b9f8 d3bc
00000180: a015 55be aba4 5abd 7fc5 463e 492f 8b3c
00000190: bb07 203e 2198 15bd a821 cf3b ea31 eabd
000001a0: 114f 2fbd 44fc 6bbe 4d12 9bbe 0d2b 3dbd
000001b0: 21e1 32be a6e8 f13d 2e0d bf3d 993b 40be
000001c0: cd83 c83d 60b1 6b3e 9dd9 11bd 5e2f 5fbe
000001d0: aee2 67bd ff8f 7ebc 2914 893e 8b6e d23c
000001e0: a7b7 45bc 1970 e0bd 3fa6 de3d 7f5a 39be
000001f0: 623e 18bd 1a92 45be a10a 2b3e 2f8e e53d
00000200: 1b24 253e 7a6c 0cbb 0d82 ad3d d4ea 743c
00000210: cbaf e63d e1f7 fbbd 5378 3e3d 1f7e 93bd
00000220: c67b ab3e 810a bdbd 7a35 a3bd 42c2 0abe
00000230: 61dc 72be f234 d9bd 7135 f7bd 4744 ac3d
00000240: 1e99 e53b 293b 7d3d ade3 3a3e 993b 15be
00000250: eca1 303e efd3 acbd 79cf 073c 3b0a 143e
00000260: f34b 86be f96f a8bc 6379 213e 8bf6 183e
00000270: 2747 33bd c24d 733e efaf 91be 8ffc 803e
00000280: 85b2 823e 0425 673d 1578 2ebd 718c 903e
00000290: 0c82 4dbe a752 873d c540 50be c367 51be
000002a0: e14f 4dbe b47b 133e f689 7abe 6b29 43be
000002b0: f809 69be f90e 803e a374 5f3d 22c4 a83c
000002c0: 4665 63be 5fc6 443e 3624 ad3e 0a94 4d3e
000002d0: b281 883e 1585 5b3e 1c83 b5bd f02c 97be
000002e0: 8ab7 4abd 1ab7 77be aecc 61be 9c46 033d
000002f0: 0fcd 64be 308f 9c3e e4da b03c a72a 08be
00000300: b7cf 263d 7914 073e 564f debd 08f1 9dbe
00000310: 0688 793d 6e61 d0bd b4f0 903e a31f 83be
00000320: 75b8 233e eecc ef3b 2bc2 73be 1806 993e
00000330: 4993 543c 1e04 8a3e 23e3 52be a4ee 5cbc
00000340: e5ec 79be 885a 1b3d 2aa0 0b3d 21c8 7fbe
00000350: f0d2 78be 0eea 2e3d 8d54 3c3e 6a29 ef3c
00000360: 3d97 28be 4a8c 353e 9069 873e 8253 123e
00000370: fd89 893e d365 693e 5358 82bb 39a0 52be
00000380: 291c 1cbc 5d03 75be 053d d9bd 4f4f 6e3e
00000390: 818d 4fbe 914e 643e 8a1f bb3d c976 99bc
000003a0: 4e70 d43d 71dd 873e 90b7 81bd 8d48 54bc
000003b0: 51d2 62bd a691 93bd 3af9 923c 6305 ddbd
000003c0: 86b2 92bd 24b0 13be ab3e 2f3e a16e 87be
000003d0: 16d6 993e 2150 7cbe 2708 a13e a643 a03e
000003e0: 9006 673e 9042 8abe aa58 293e bfc9 9b3e
000003f0: 27ad 263e 7317 16be 8f1f a3be 28ac afbe

bias f4 [40]
0.18883118 -0.24290362 -0.15501496 0.17714638 -0.020415945 0.03280589 0.21262512 -0.12405493
-0.022613611 -0.072514184 -0.16283712 -0.28465667 0.031072753 -0.2651719 -0.077086136 -0.08235401
-0.03691369 0.18232432 0.057320327 0.0055953404 0.1840217 0.106551774 -0.0040780283 0.07476747
-0.06494754 0.030209664 0.09700974 0.23739971 -0.08459315 -0.040808413 0.09184243 -0.044994116
0.057504628 -0.060399342 -0.24109007 0.09431291 -0.16674046 0.04259847 0.19549668 0.28255674
00000000: f65c 413e babb 78be 3ebc 1ebe dc65 353e
00000010: 573f a7bc 785f 063d 66ba 593e 8310 febd
00000020: 2e40 b9bc 5182 94bd c6be 26be 85be 91be
00000030: 498c fe3c 9cc4 87be 56df 9dbd 38a9 a8bd
00000040: cf32 17bd 3ab3 3a3e b8c8 6a3d 1e59 b73b
00000050: 2f70 3c3e d137 da3d fba0 85bb b01f 993d
00000060: 3703 85bd 427a f73c 0bad c63d e918 733e
00000070: 2c3f adbd b926 27bd e217 bc3d c04b 38bd
00000080: f989 6b3d 4d65 77bd 51e0 76be 2127 c13d
00000090: 03be 2abe bc7b 2e3d 4830 483e 47ab 903e

weight f4 [1, 40]
-0.19064048 0.17080514 0.19899543 -0.14903815 0.24644417 0.16880493 -0.14645092 0.1796752
0.05759421 0.22640929 0.100323066 0.21187031 -0.02404797 0.20368011 0.046162587 0.07752619
-0.10540747 -0.103461735 -0.14593598 -0.11549285 -0.17610201 -0.13763821 -0.0261579 0.076456904
0.11328616 0.18059756 0.03559333 -0.17427687 -0.066381715 0.1131675 -0.1312081 0.11354659
-0.06464214 0.14641099 0.23847532 -0.23288733 0.08187884 0.17239685 -0.10070272 -0.20835264
00000000: 4237 43be 8be7 2e3e 75c5 4b3e 759d 18be
00000010: dc5b 7c3e 33db 2c3e 3bf7 15be c7fc 373e
00000020: e8e7 6b3d d6d7 673e 2e76 cd3d 88f4 583e
00000030: 4000 c5bc 8591 503e fb14 3d3d 0dc6 9e3d
00000040: dfdf d7bd bfe3 d3bd 3e70 15be 8487 ecbd
00000050: 1654 34be 08f1 0cbe 1849 d6bc 7095 9c3d
00000060: 9302 e83d 91ee 383e 50ca 113d a375 32be
00000070: 23f3 87bd 5dc4 e73d 6b5b 06be 1d8b e83d
00000080: 1963 84bd c3ec 153e e032 743e 047a 6ebe
00000090: 18b0 a73d cd88 303e 3a3d cebd 655a 55be

weight f4 [40, 2]
-1.8917698 -1.064578 0.12996483 0.6217295 -0.22151032 0.647723 0.27176744 0.3072242
-0.3924142 -0.092140175 0.5114724 -0.38859823 -0.2016472 0.7036694 -0.25421092 0.609364
0.13751362 0.10612483 -0.5556974 -0.7251977 -0.5504246 1.4951059 -0.35863855 0.3048772
0.16547468 0.12442424 -1.1740669 0.70576406 -0.38709924 1.5251284 -1.6391326 0.6531447
0.19694775 -0.29544318 0.5266064 0.48341668 0.46911556 0.2795003 -0.22782612 1.292949
0.65273285 -0.20072773 0.024735732 -0.6956672 -0.6505404 0.16633908 -0.2810604 -0.4014076
0.10521156 -0.3846868 -0.8723668 0.0850437 0.7640083 -0.5075259 -0.48967114 0.40389636
0.1693731 0.4039853 0.25109002 0.31748942 -0.094275 -0.21555643 0.71963066 -0.06695417
0.7862197 -0.28466532 0.5701503 0.038762033 0.40167513 -0.2949241 1.1094304 -0.013770163
-0.09914577 1.4269415 0.581091 0.27066 0.652285 -0.7148541 -0.21560054 0.35526776
00000000: 8325 f2bf 1844 88bf 8015 053e aa29 1f3f
00000010: 9ad3 62be 2dd1 253f 1a25 8b3e 7e4c 9d3e
00000020: 84ea c8be fdb3 bcbd dbef 023f 59f6 c6be
00000030: 9b7c 4ebe ae23 343f ef27 82be 47ff 1b3f
00000040: 5fd0 0c3e fa57 d93d 2f42 0ebf 8ea6 39bf
00000050: a0e8 0cbf a15f bf3f 799f b7be dd18 9c3e
00000060: 3272 293e 23d2 fe3d d347 96bf f4ac 343f
00000070: df31 c6be 6837 c33f 19cf d1bf 7e34 273f
00000080: acac 493e 5444 97be adcf 063f 6482 f73e
00000090: ea2f f03e aa1a 8f3e 404b 69be 5a7f a53f
000000a0: 8019 273f 928b 4dbe 97a2 ca3c 3f17 32bf
000000b0: d189 26bf cb54 2a3e 26e7 8fbe 4c85 cdbe
000000c0: 2979 d73d abf5 c4be 6e53 5fbf 642b ae3d
000000d0: 0c96 433f 38ed 01bf 2db6 fabe 81cb ce3e
000000e0: 2470 2d3e 29d7 ce3e df8e 803e f98d a23e
000000f0: 4013 c1bd d3ba 5cbe b739 383f 451f 89bd
00000100: b245 493f a7bf 91be 5ff5 113f f0c4 1e3d
00000110: 5da8 cd3e 4b00 97be d101 8e3f 409c 61bc
00000120: f00c cbbd 05a6 b63f 61c2 143f f393 8a3e
00000130: 26fc 263f ae00 37bf 63c6 5cbe a8e5 b53e

bias f4 [40]
0.06250459 0.60418576 0.41156545 -0.5699871 -0.4879311 -0.70553243 -0.59707296 0.5562823
-0.4502875 0.96062654 0.0061573875 0.28882787 -0.56218064 0.17728646 0.027076693 0.1894692
-0.36311212 -0.47322717 -0.37715134 0.04046688 -0.52717185 -0.5216236 0.41930386 -0.651502
0.7090381 0.7253107 -0.118318625 0.5115902 -0.6117271 -0.6523758 -0.3321595 0.61082894
0.14225698 -0.5428096 0.62278366 -0.07623809 0.08746369 -0.47611234 0.3969252 0.32748437
00000000: 6802 803d ebab 1a3f b5b8 d23e adea 11bf
00000010: 1bd2 f9be c69d 34bf c6d9 18bf 8468 0e3f
00000020: 158c e6be 9feb 753f e9c3 c93b 3fe1 933e
00000030: 12eb 0fbf 958a 353e f1cf dd3c 3704 423e
00000040: d5e9 b9be d54a f2be fb19 c1be 99c0 253d
00000050: bcf4 06bf 2089 05bf ffae d63e d6c8 26bf
00000060: 8583 353f f6ad 393f 0951 f2bd 93f7 023f
00000070: 269a 1cbf 1a02 27bf cf10 aabe 495f 1c3f
00000080: d0ab 113e 92f5 0abf c06e 1f3f b722 9cbd
00000090: 2a20 b33d ffc4 f3be c839 cb3e 08ac a73e

weight f4 [40, 40]
-0.10008273 -0.22544019 -0.008762959 -0.092868194 0.13560092 -0.0422075 -0.05063882 -0.23789652
-0.01730345 -0.27804568 -0.4833729 0.04146993 0.001148938 -0.3198583 -0.10638363 -0.42678154
-0.1312907 0.022420688 -0.06382661 -0.41338915 -0.11080271 -0.07456736 0.008097988 -0.07799316
-0.1522517 -0.06759628 -0.25079504 -0.026725624 0.11941877 0.043975826 0.14478268 -0.18392496
-0.11962205 0.14072 -0.23149721 -0.34224188 -0.30012524 0.1439812 -0.04521261 -0.24972013
1.1447753 -0.2672629 -0.22657703 -0.08340191 -0.005396894 -0.062721215 0.09127629 -0.007475827
0.15457222 0.24636917 -0.58178437 0.2765689 -0.15778111 -0.60969055 -0.607474 -0.39294904
-0.014568739 -0.1477319 -0.21593376 -0.7526361 0.097280845 0.054349273 0.36625415 -0.0902615
-0.08863729 0.34118813 -0.37400892 0.12685332 0.10371155 -0.11061419 0.02097379 -0.30323112
-0.42374247 -0.09729747 -0.10037298 -1.4117204 -0.7521362 -0.03948041 -0.057464607 -0.08971595
-0.5541256 -0.031932168 -0.41390574 -0.027425021 -0.0059990897 -0.12081221 0.12265176 -0.063732736
-0.06829776 -0.28014436 -0.49694663 -0.30358618 -0.1264474 -0.46692237 -0.41749305 -0.7521783
0.04250505 -0.08376874 0.004831091 -0.47641605 0.076332405 -0.11517522 -0.20559579 -0.004072306
-0.33289918 -0.282334 -0.019288976 -0.14850797 -0.005134936 0.087557 0.0599028 -0.22587313
-0.06606709 0.12087311 -0.09761706 -0.11115904 -0.14841345 0.017545825 -0.3345373 -0.30445012
0.18821882 0.21491604 0.51411104 -0.06033017 -0.023471462 -0.12947516 -0.14131978 0.2448113
-0.073702365 0.3570398 0.63489 0.30922744 -0.12548836 0.4930761 0.14202486 0.684852
-0.10543049 -0.0048671723 -0.022631887 0.39121878 -0.14344673 0.047284555 0.35853472 -0.048589505
0.061911914 0.34796673 0.15079556 0.24810956 0.06984985 0.05146089 -0.14537014 0.1796666
0.008327983 0.094592236 0.02065354 -0.003890717 0.040172815 0.054755587 0.22918 0.32694972
0.5454143 0.058024548 0.4279429 0.09229342 -0.035005495 -0.014884001 0.10288181 0.3104129
-0.039014544 0.24704891 0.3201123 0.16863151 -0.1324061 0.40822572 0.27920952 0.27972016
0.008796794 -0.032338485 0.1711614 0.32606646 -0.12953594 0.11180194 0.29667747 -0.03155459
0.28227577 0.19690913 0.09101515 0.1558931 -0.13664412 0.142102 -0.14885353 0.30709434
0.22008532 0.007413473 0.28671935 0.057219747 0.08812638 0.17380334 0.103028014 0.24188644
-0.22768953 -0.13297603 -0.10625811 0.06938808 -0.04610156 -0.05874466 -0.046467334 -0.15459351
0.10005071 -0.4802785 0.047512155 -0.18065314 0.03615196 0.07219995 -0.043586977 -0.0473767
-0.016074896 -0.02968667 -0.06833608 0.100530334 0.043325115 0.032249805 -0.25544786 0.026430812
-0.32780278 -0.2569816 -0.22494142 -0.33856305 -0.11073339 -0.014169694 0.15668254 -0.23007093
-0.272928 -0.14425734 -0.29160962 -0.063485116 -0.04517385 -0.08849488 -0.31863987 -0.14772013
-0.13785973 0.1792417 0.21939844 0.13036574 -0.033176664 -0.10343713 0.030685874 0.14307252
0.11738191 0.19585133 -0.023633095 0.32470447 0.1437184 -0.4769518 -0.38606146 -0.09414671
00000000: 2df8 ccbd cbd9 66be 8492 0fbc ae31 bebd
00000010: f8da 0a3e c6e1 2cbd a76a 4fbd 259b 73be
00000020: f7bf 8dbc 015c 8ebe a77c f7be 60dc 293d
00000030: f697 963a 78c4 a3be a9df d9bd 1c83 dabe
00000040: 1271 06be 97ab b73c 87b7 82bd bea7 d3be
00000050: 88ec e2bd c6b6 98bd 6cad 043c e1ba 9fbd
00000060: dfe7 1bbe eb6f 8abd 3568 80be b2ef dabc
00000070: d491 f43d ff1f 343d e941 143e d356 3cbe
00000080: 68fc f4bd e718 103e 9b0d 6dbe 543a afbe
00000090: 04aa 99be cf6f 133e dc30 39bd a2b6 7fbe
000000a0: ff87 923f afd6 88be cf03 68be 9fce aabd
000000b0: 6ed8 b0bb fb73 80bd 10ef ba3d c8f7 f4bb
000000c0: 2e48 1e3e 3348 7c3e d2ef 14bf 709a 8d3e
000000d0: 5f91 21be ae14 1cbf 6b83 1bbf 9e30 c9be
000000e0: b8b1 6ebc 0847 17be bd1d 5dbe c2ac 40bf
000000f0: 2e3b c73d 589d 5e3d aa85 bb3e 05db b8bd
00000100: 7887 b5bd 36b0 ae3e 197e bfbe d6e5 013e
00000110: b966 d43d b189 e2bd 3ad1 ab3c 1c41 9bbe
00000120: c6f4 d8be e543 c7bd 5990 cdbd 41b3 b4bf
00000130: ff8b 40bf 36b6 21bd 0260 6bbd ffbc b7bd
00000140: 2ddb 0dbf 4ecb 02bd 74eb d3be 70aa e0bc
00000150: 0394 c4bb 646c f7bd d930 fb3d 4f86 82bd
00000160: b2df 8bbd 156f 8fbe ca6f febe a66f 9bbe
00000170: 6d7b 01be 7310 efbe a6c1 d5be c28e 40bf
00000180: c619 2e3d f28e abbd 214e 9e3b ceec f3be
00000190: 2a54 9c3d fce0 ebbd b487 52be fb70 85bb
000001a0: c371 aabe 158e 90be ea03 9ebc 7912 18be
000001b0: f742 a8bb 1651 b33d a35c 753d 494b 67be
000001c0: 2f4e 87bd 528c f73d 74eb c7bd 5aa7 e3bd
000001d0: b2f9 17be 43bc 8f3c 7948 abbe e3e0 9bbe
000001e0: 6fbc 403e f312 5c3e c89c 033f c51c 77bd
000001f0: 3947 c0bc 2395 04be 22b6 10be d0af 7a3e
00000200: 44f1 96bd eccd b63e 2788 223f 0f53 9e3e
00000210: 0580 00be 7874 fc3e f76e 113e 7652 2f3f
00000220: f1eb d7bd cd7c 9fbb 8266 b9bc d44d c83e
00000230: b3e3 12be 73ad 413d dd91 b73e ca05 47bd
00000240: 5997 7d3d b228 b23e 276a 1a3e 6f10 7e3e
00000250: 700d 8f3d a7c8 523d e9db 14be 85fa 373e
00000260: 1872 083c 93b9 c13d 9d31 a93c 66fb 7ebb
00000270: 408c 243d 6547 603d 29ae 6a3e f465 a73e
00000280: 46a0 0b3f 26ab 6d3d 551b db3e 5504 bd3d
00000290: ec61 0fbd 06dc 73bc b3b3 d23d 71ee 9e3e
000002a0: b7cd 1fbd 64fa 7c3e c2e5 a33e bdad 2c3e
000002b0: 7795 07be f602 d13e 8df4 8e3e 7b37 8f3e
000002c0: 6e20 103c 5c75 04bd ef44 2f3e 2ff2 a63e
000002d0: 12a5 04be 6af8 e43d 1ce6 973e 633f 01bd
000002e0: 7386 903e 8ca2 493e 2766 ba3d 71a2 1f3e
000002f0: 70ec 0bbe 3083 113e 0f6d 18be 783b 9d3e
00000300: 0c5e 613e b8ec f23b e1cc 923e 415f 6a3d
00000310: 9b7b b43d 81f9 313e 5a00 d33d 14b1 773e
00000320: 7227 69be de2a 08be da9d d9bd 561b 8e3d
00000330: fdd4 3cbd 3e9e 70bd 8854 3ebd c34d 1ebe
00000340: 63e7 cc3d 10e7 f5be 1b9c 423d 23fd 38be
00000350: 1414 143d 91dd 933d 4288 32bd 120e 42bd
00000360: 80af 83bc 7631 f3bc c9f3 8bbd d9e2 cd3d
00000370: ad75 313d 5f18 043d 10ca 82be 6e85 d83c
00000380: c4d5 a7be 1893 83be 0b57 66be 2358 adbe
00000390: 30c8 e2bd 0128 68bc 6371 203e b797 6bbe
000003a0: 38bd 8bbe 32b8 13be db4d 95be 7c04 82bd
000003b0: 3708 39bd ce3c b5bd c424 a3be f243 17be
000003c0: 1a2b 0dbe 238b 373e fca9 603e 997e 053e
000003d0: 41e4 07bd d9d6 d3bd f160 fb3c 9a81 123e
000003e0: ed65 f03d 408d 483e 319a c1bc aa3f a63e
000003f0: eb2a 133e 0733 f4be d9a9 c5be fecf c0bd

bias f4 [40]
-0.25728294 -0.017094519 -0.32219726 0.2404304 0.17136014 -0.41149467 -0.04584444 -0.15763587
0.00095046754 0.18423057 -0.24373016 0.021126043 -0.24460956 0.021935295 0.18726929 0.04377192
0.18123505 -0.15999717 0.32133457 -0.22150274 0.40606216 0.008837068 -0.43716258 -0.19650972
0.13119109 -0.19840369 0.01179047 0.06588102 -0.10574278 -0.13392037 -0.020394208 0.27443466
-0.28018647 -0.35802403 -0.16040836 0.13273017 0.1464808 -0.16760431 -0.2221503 -0.024599604
00000000: 97ba 83be ce09 8cbc 0af7 a4be 6333 763e
00000010: 0879 2f3e 6eaf d2be 61c7 3bbd 4c6b 21be
00000020: cc28 793a f0a6 3c3e 6694 79be 8610 ad3c
00000030: ee7a 7abe a6b1 b33c 85c3 3f3e 2f4a 333d
00000040: ae95 393e 4cd6 23be f785 a43e 9dd1 62be
00000050: 61e7 cf3e 5ac9 103c c6d3 dfbe d839 49be
00000060: f556 063e 562a 4bbe d12c 413c a1ec 863d
00000070: ac8f d8bd 6c22 09be c111 a7bc b382 8c3e
00000080: 9a74 8fbe ed4e b7be 1742 24be 6bea 073e
00000090: 10ff 153e 77a0 2bbe 5e7b 63be 1c85 c9bc

weight f4 [40, 40]
-0.15868711 0.059159517 -0.15822852 0.14031638 0.15313317 -0.26185867 0.23973894 -0.21657982
-0.19295871 0.10889445 -0.21634585 -0.14848123 -0.35040462 0.16025746 0.20906718 0.14203888
0.26873642 -0.12433556 0.29186442 -0.2258814 0.1895636 0.004543596 -0.31580478 0.086490564
0.02301117 -0.31875703 -0.1728052 -0.2770024 0.06724793 -0.25691968 0.21047693 0.23287497
-0.20486602 -0.28991058 -0.35381848 0.17012824 -0.16992804 -0.055549346 -0.21457934 0.14309604
-0.013902205 -0.2555736 0.2616673 -0.3541754 -0.3933887 0.33576864 -0.32948866 0.3195871
0.2706617 -0.3238346 0.3112269 0.009300502 0.048170052 -0.044744868 -0.32475254 -0.28514773
-0.39396712 0.11450881 -0.33472598 0.14793704 -0.4152172 0.23104194 0.30207527 0.16080792
-0.28608304 0.28067005 -0.03557583 0.27401456 0.08143599 0.41508034 -0.21333103 -0.15678202
0.16412961 0.3244005 0.12156251 -0.25233257 0.117735796 0.11926333 0.21092954 -0.13019797
-0.021942025 0.19718093 -0.27419055 0.12329196 0.45190355 -0.42124912 0.2533454 -0.2226222
-0.3149036 0.13282342 -0.40730143 -0.122912385 -0.40318298 -0.012627264 0.3270622 0.11005316
0.17803505 -0.3093024 0.37601867 -0.3015273 0.3530341 -0.044093642 -0.4375015 -0.10451896
0.3013299 -0.396012 0.027188456 -0.45128778 0.00063839275 -0.29586625 0.38683298 0.22581182
-0.26768088 -0.36912283 -0.08502215 0.17726454 -0.26036593 0.0053748456 -0.0042095534 0.21027815
0.27975744 0.28390473 0.18946713 0.024460824 -0.04442304 -0.04428514 0.38982347 0.012902656
0.5617865 0.38208026 0.045017775 0.059509184 0.1039901 -0.6370137 -0.1821615 0.37575504
-0.08369871 0.20741087 -0.021141741 -0.024697382 -0.20280014 -0.0432329 0.16303845 0.1382746
-0.13073297 -0.0022672266 0.24226893 -0.1934431 -0.1866036 -0.0038789697 0.10084208 0.014608235
-0.18770294 -0.07999027 -0.037565574 -0.016459031 0.16833603 -0.29362476 0.072522745 -0.011640314
0.025222585 -0.20035224 0.08207061 0.002254907 -0.15197442 0.25680217 -0.28581744 0.20069401
0.1736611 -0.13927433 0.18582775 -0.13197622 0.2157876 -0.044554394 -0.10833286 -0.15692344
-0.028941669 0.2262741 -0.03111897 0.22187795 -0.1061331 -0.088226154 0.2685933 -0.019645581
-0.024807228 0.17584765 -0.0778034 0.25946924 0.21016963 -0.13403605 -0.11042369 -0.25038758
0.07792755 0.36579242 0.32737145 -0.009341485 -0.02210208 -0.060996477 0.08901061 -0.079749405
0.24603249 -0.178999 0.047825523 -0.29316276 -0.18551296 0.21099089 0.0188913 0.3599655
0.3144432 -0.061313115 -0.1368067 0.22162566 0.27222034 -0.25884503 -0.32621285 0.28337973
-0.26793206 0.16865574 -0.25795472 0.0667965 -0.23296192 -0.26542255 0.2965228 -0.0054003373
0.05745847 0.30729622 0.29292557 0.20127766 -0.31557414 0.20754154 -0.22527933 0.024051484
0.2584696 -0.17622627 0.39788926 -0.38350236 -0.18494804 -0.16691054 0.11622185 -0.27253118
-0.01469719 -0.19771302 0.38168758 -0.2640306 -0.29397652 0.35169712 -0.25041738 0.15272205
0.32594875 -0.21033727 0.25522175 -0.0035150421 0.21285625 -0.1166934 -0.15017919 -0.07243244
00000000: e07e 22be 4051 723d a806 22be 19af 0f3e
00000010: f1ce 1c3e 5712 86be 207e 753e 1ac7 5dbe
00000020: f896 45be 0e04 df3d c489 5dbe 770b 18be
00000030: 3c68 b3be 881a 243e b515 563e a472 113e
00000040: d297 893e a4a3 febd 416f 953e 744d 67be
00000050: f61c 423e 72e2 943b 2ab1 a1be f721 b13d
00000060: ec81 bc3c 1f34 a3be d9f3 30be 42d3 8dbe
00000070: 48b9 893d fa8a 83be 4487 573e c776 6e3e
00000080: 66c8 51be 296f 94be b227 b5be 1936 2e3e
00000090: 9e01 2ebe b687 63bd b0ba 5bbe c587 123e
000000a0: 13c6 63bc 8bda 82be 42f9 853e 7a56 b5be
000000b0: 3e6a c9be dee9 ab3e bdb2 a8be eca0 a33e
000000c0: 2c94 8a3e a6cd a5be 2259 9f3e 2261 183c
000000d0: f64d 453d 6546 37bd f745 a6be e2fe 91be
000000e0: 0fb6 c9be 9883 ea3d 3461 abbe cf7c 173e
000000f0: 5997 d4be 4296 6c3e 9ca9 9a3e d5aa 243e
00000100: 7a79 92be fcb3 8f3e f6b7 11bd a34b 8c3e
00000110: eac7 a63d 6985 d43e 7373 5abe 778b 20be
00000120: 9811 283e d317 a63e c4f5 f83d bc31 81be
00000130: 771f f13d 5540 f43d eafd 573e 9e52 05be
00000140: c3bf b3bc cce9 493e b462 8cbe 7f80 fc3d
00000150: e75f e73e f7ad d7be 7db6 813e 13f7 63be
00000160: 0b3b a1be dd02 083e d089 d0be 7db9 fbbd
00000170: 006e cebe 95e2 4ebc b274 a73e 8d63 e13d
00000180: d24e 363e e25c 9ebe 8585 c03e c961 9abe
00000190: e3c0 b43e 899b 34bd 3200 e0be 090e d6bd
000001a0: ea47 9a3e 16c2 cabe 53ba de3c 310f e7be
000001b0: d059 273a c87b 97be f90e c63e 373b 673e
000001c0: 780d 89be abfd bcbe 1820 aebd d684 353e
000001d0: af4e 85be 791f b03b 4bf0 89bb 2853 573e
000001e0: 5e3c 8f3e f65b 913e ac03 423e 1162 c83c
000001f0: eff4 35bd 5664 35bd f196 c73e a965 533c
00000200: 3dd1 0f3f 06a0 c33e 8f64 383d e7bf 733d
00000210: c3f8 d43d 5413 23bf 8b88 3abe f762 c03e
00000220: 3b6a abbd 8463 543e 7231 adbc 2a52 cabc
00000230: d7aa 4fbe fb14 31bd 8df3 263e db97 0d3e
00000240: ddde 05be c095 14bb 5915 783e f315 46be
00000250: 0415 3fbe 5036 7ebb 4b86 ce3d 6157 6f3c
00000260: 3335 40be f0d1 a3bd 5cde 19bd 17d5 86bc
00000270: 4860 2c3e fc55 96be ce86 943d 04b7 3ebc
00000280: 989f ce3c 2329 4dbe a314 a83d 10c7 133b
00000290: 2f9f 1bbe 937b 833e aa56 92be bb82 4d3e
000002a0: 37d4 313e ee9d 0ebe a149 3e3e c624 07be
000002b0: 6df7 5c3e ab7e 36bd 9edd ddbd 8ab0 20be
000002c0: 1417 edbc 66b4 673e 36ed febc f933 633e
000002d0: 505c d9bd eaaf b4bd 1085 893e c5ef a0bc
000002e0: 8738 cbbc 6811 343e 6457 9fbd 27d9 843e
000002f0: b536 573e bf40 09be d125 e2bd cd32 80be
00000300: 7b98 9f3d 2549 bb3e 3b9d a73e 070d 19bc
00000310: 6c0f b5bc 71d7 79bd 324b b63d a853 a3bd
00000320: f1ef 7b3e 844b 37be b2e4 433d 6e19 96be
00000330: 1cf7 3dbe ff0d 583e edc1 9a3c 664d b83e
00000340: b3fe a03e 7623 7bbd 0e17 0cbe d6f1 623e
00000350: 7760 8b3e 5687 84be 5f05 a7be 2617 913e
00000360: 642e 89be 17b4 2c3e a412 84be 9acc 883d
00000370: 928d 6ebe 77e5 87be d6d1 973e 50f5 b0bb
00000380: 9359 6b3d ee55 9d3e 57fa 953e bb1b 4e3e
00000390: ef92 a1be c585 543e a0af 66be 9e07 c53c
000003a0: 2156 843e a974 34be 24b8 cb3e 6c5a c4be
000003b0: 0563 3dbe 99ea 2abe b905 ee3d 3589 8bbe
000003c0: 7ccc 70bc 4875 4abe 8e6c c33e 052f 87be
000003d0: 1784 96be a511 b43e b536 80be 2b63 1c3e
000003e0: c1e2 a63e a762 57be 6dac 823e 9f5c 66bb
000003f0: fdf6 593e f3fc eebd 93c8 19be 7657 94bd

bias f4 [40]
0.18150948 -0.33582014 0.22255091 -0.0021226318 0.047380164 -0.290557 -0.09283667 0.037171625
-0.029980432 0.21804509 -0.12296986 -0.03835084 0.21406072 -0.2111554 -0.36991772 0.10349479
0.12905346 0.23041868 -0.060410064 -0.12152946 0.06372795 -0.17030191 0.011316169 0.42096624
-0.16564919 -0.27535778 -0.21994975 0.19537641 -0.038665496 -0.1249456 0.02542138 -0.25079235
-0.1411363 -0.24980983 0.23468003 0.16549288 0.12930669 0.19785352 0.007335258 -7.36169e-05
00000000: 9fdd 393e 9ef0 abbe 63e4 633e da1b 0bbb
00000010: b411 423d e3c3 94be 2721 bebd 4641 183d
00000020: 8699 f5bc 3647 5f3e 9fd7 fbbd c515 1dbd
00000030: bc32 5b3e 1f39 58be db65 bdbe 14f5 d33d
00000040: 9726 043e e0f2 6b3e 8b70 77bd 70e4 f8bd
00000050: cd83 823d a063 2ebe 7467 393c e388 d73e
00000060: f19f 29be b2fb 8cbe 823a 61be c110 483e
00000070: b65f 1ebd 7be3 ffbd 7f40 d03c db67 80be
00000080: 0986 10be 26ce 7fbe f64f 703e f776 293e
00000090: f968 043e 1d9a 4a3e 9b5c f03b c662 9ab8
