[Fly gene Models]/Fly_Gene_Model_SG_20_80_.pt (torch, 153471 bytes, 31 tensors)

weight f4 [20, 2]
000000 be 04 d3 be 9f cd ed bd 97 2f 58 3f f4 e2 6e 3f
       -0.41214556 -0.11611485 0.84447616 0.93315053
000010 3b d1 8e be 47 09 10 3f f1 a4 c8 bf 51 89 9e 3f
       -0.27894005 0.56264156 -1.5675336 1.2385656
000020 62 89 33 3e dc e1 54 be db 80 0c 3f 35 11 8b be
       0.17532876 -0.20789284 0.5488412 -0.27161565
000030 5b 90 1a 3f a5 28 4a 3f e7 88 15 c0 64 1e e7 bd
       0.6037652 0.7896827 -2.3364809 -0.112850934
000040 9b 54 b5 3f e7 ec 7e 3e 18 aa 1d 3e 8a e8 24 3f
       1.4166445 0.24895059 0.15396917 0.64417326
000050 f3 e8 af bf 7b cf 94 bd 11 70 5e bd cc 45 23 40
       -1.3742965 -0.07266136 -0.054306094 2.551135
000060 84 e6 14 be 9f 2c 11 3f 19 2e 90 be 0d 28 f8 3f
       -0.1454106 0.5670871 -0.2816017 1.9387223
000070 fe c3 90 be 8a a6 e8 3f c7 d9 c0 3f e3 6d 2d bd
       -0.2827453 1.8175824 1.506646 -0.042341124
000080 16 e3 5f bf 7c 3a 33 bf 19 77 38 bf e0 4b 2e 3f
       -0.8745588 -0.70011115 -0.7205673 0.68084526
000090 b0 40 92 3f 9e e8 8b 3e 24 76 b5 3f d2 b9 c4 bf
       1.1425991 0.2732591 1.4176679 -1.5369208

bias f4 [20]
000000 b8 76 02 3f 7b 7d 31 3f ed 5f 20 bf fb 01 1b bf
       0.509624 0.69332093 -0.6264637 -0.60549897
000010 55 e3 3c 3e 1b 3b 3d 3f 16 cc e1 3e 45 0a a7 3d
       0.18446095 0.7391831 0.44101018 0.08156256
000020 a3 1f 63 3e bb ae 35 3f 28 c6 7c 3e 32 9b 94 3e
       0.22180037 0.7096974 0.24684966 0.29024655
000030 12 5b 2a 3f e6 76 b8 3e da 20 0a be 3c 6f 55 bc
       0.6654521 0.36028212 -0.13489094 -0.013027009
000040 ec 17 31 3f d0 2e 5f be 56 5f 68 be 0e 06 86 be
       0.69177127 -0.21795201 -0.22692618 -0.26176494

weight f4 [20, 20]
000000 6e a6 04 3e 00 fc 79 3e 70 9d b4 bd 3d 2f 3e be
       0.12954113 0.24412537 -0.08819091 -0.18572707
000010 9e e6 83 3d ce d3 0f be 99 3b 49 be f4 38 f6 3d
       0.06440471 -0.14045641 -0.19651641 0.12022582
000020 37 8d 47 3c 80 64 07 3e 05 56 99 bd 38 8f a6 3d
       0.012179664 0.13221931 -0.0748711 0.081327856
000030 58 ab 8b 3c 8e ad c5 3d 81 12 78 3e db 30 87 bd
       0.017049477 0.096522436 0.24225809 -0.06601115
000040 33 d5 22 bc 15 42 93 3e e6 af fd 3d cf 89 c3 3c
       -0.009938526 0.28761354 0.123870656 0.023869423
000050 d9 a9 48 bd bd 0b 8c bf 89 a6 9a 3e 8d 10 65 3e
       -0.048990104 -1.0941082 0.3020518 0.22369595
000060 16 17 fa bd f5 aa bc be b7 a9 58 bf 3a 7a db 3f
       -0.122114345 -0.3684918 -0.84633964 1.7146676
000070 95 d5 92 bf 14 9d c6 be be da a2 3f a5 ca 28 be
       -1.147143 -0.38791716 1.2723005 -0.16483553
000080 e9 2c c6 be 5a 23 07 3f 8c de de be ad ef d5 bf
       -0.3870614 0.5278832 -0.43529165 -1.6713768
000090 a1 5e a2 3e 2d 62 46 3e 56 6c 6a bf 30 67 0b bf
       0.3171282 0.19373389 -0.9157156 -0.54454327
0000a0 d2 c8 01 bd c8 ca 83 3d ed 8c 35 3c d5 d8 ac 3d
       -0.031685658 0.06435162 0.011080963 0.08439795
0000b0 3d aa 26 3e d9 50 b0 3d 70 61 d7 3d e0 b8 30 3e
       0.16275878 0.086091705 0.105166316 0.17258024
0000c0 a5 a9 1c bc b7 dc 53 3d 99 a3 38 bd 79 fc 88 3e
       -0.009561931 0.051724162 -0.045077894 0.2675512
0000d0 98 19 1f be 1f a4 26 3e 66 f5 5a 3e 91 8d 3f be
       -0.15537107 0.16273545 0.21382675 -0.18706347
0000e0 68 00 35 3e 54 ce 7e 3e c4 63 82 be fd 63 c6 bd
       0.17675936 0.24883395 -0.2546674 -0.0968704
0000f0 5d b0 5c 3e e8 f3 af 3d e8 d8 0d 3e df 5f 84 be
       0.21551652 0.08591443 0.13852274 -0.25854394
000100 1c 67 09 3e 86 ba 73 be 94 a0 3d bd 32 3f 05 3f
       0.1341824 -0.23801622 -0.046295717 0.52049553
000110 5a 3e a5 be e6 85 27 be 25 97 77 3f 6d 92 2a bf
       -0.32274133 -0.16359672 0.96715003 -0.6662968
000120 83 f1 da bd e9 f0 b3 3e 24 4d a6 be d8 60 11 bf
       -0.10690596 0.35144737 -0.3248073 -0.56788397
000130 91 84 d1 3d ab 28 0e 3d 22 36 e0 be 56 d1 8f bf
       0.10230363 0.034706753 -0.437913 -1.1235759
000140 94 9e 81 bd 4e 57 08 be 36 36 a7 3e f0 ae 40 3f
       -0.063290745 -0.13314554 0.32658547 0.75266933
000150 fa 9c 82 be 6f f3 fa be 2a eb e4 be 2f aa f4 3f
       -0.2551039 -0.4901385 -0.44710666 1.9114436
000160 03 bb c5 bf cd 94 7e be e0 91 96 3f 59 62 be 3f
       -1.5447696 -0.2486145 1.1763268 1.4873763
000170 8c e0 ed bd c6 a0 ef 3e db d2 3d 3f 7e 4c 89 bf
       -0.116150945 0.46802348 0.74149865 -1.0726469
000180 70 be 14 bd 64 2f 51 3f 54 46 87 bf b0 52 8d be
       -0.036314428 0.8171294 -1.0568337 -0.27602148
000190 3a 86 f6 be ea 86 8d be 56 56 29 3e c1 1a c6 3e
       -0.48149282 -0.27641994 0.16536841 0.38692287
0001a0 41 d6 e9 bc f0 bf 9b bb 72 f1 83 be cb e8 85 be
       -0.028544547 -0.0047531053 -0.25770146 -0.2615417
0001b0 4a 31 d6 3d db c9 80 be 50 11 24 bf 45 93 97 be
       0.1045862 -0.25154004 -0.64088917 -0.29604545
0001c0 01 b0 0a bf 0b de a7 bf 41 17 9f 3e 40 30 1e 3f
       -0.5417481 -1.3114637 0.3107243 0.61792374
0001d0 ee a9 b7 be 6c 36 e3 3c 50 da 4d 3f b4 39 fe 3e
       -0.35871834 0.027735911 0.80411243 0.496534
0001e0 a2 bb c1 be 95 29 ce bd 8e f4 32 3e 16 1c 78 3e
       -0.37838465 -0.10066525 0.17476103 0.24229464
0001f0 00 b2 7d be f3 da 72 be 0b 18 a5 be b0 09 64 be
       -0.24774933 -0.23716335 -0.32244906 -0.2226932
000200 07 40 81 be e3 cb c0 be 24 b7 82 be b7 ff 24 be
       -0.2524416 -0.37655553 -0.2553035 -0.16113172
000210 4a c9 10 be a4 48 1e be d6 3a 31 3e 34 f9 b3 3e
       -0.14139286 -0.15457398 0.173076 0.35151064
000220 e1 b7 25 be 46 a6 1e 3e d1 7b 16 3e 5e 04 be bd
       -0.16183425 0.15493116 0.1469567 -0.09278177
000230 f0 07 80 be 29 46 bd 3e c6 0e 59 be 16 7e f9 bd
       -0.25006056 0.3696759 -0.21197042 -0.12182252
000240 7b 97 29 bd a4 01 08 3e 37 95 06 3e 69 98 86 3d
       -0.04140423 0.13281876 0.13142858 0.06572039
000250 7b ab d1 3d d9 e6 44 3e bb f2 79 3e 91 a2 8c be
       0.102377854 0.19228686 0.24409 -0.27467778
000260 8a be e8 3d d1 f8 8a 3c 15 e5 7b bd 6e 28 61 3e
       0.113644674 0.016964348 -0.061497767 0.21988079
000270 06 09 30 be a3 fe 83 be a4 7d 85 3e 03 46 0e bf
       -0.17190942 -0.2578021 0.2607242 -0.5557558
000280 63 d5 9c be bb d5 3a bd 13 48 e1 3e 2f b4 18 3f
       -0.3063155 -0.045613986 0.440003 0.5964994
000290 5e d1 0a bf 04 6b f5 be 4a ca 42 3e 6d c5 61 3f
       -0.5422572 -0.4793321 0.1902248 0.8819187
0002a0 6c 9a d5 bd 5e ab 56 be 0f 45 a4 3d 22 0c 5a 40
       -0.10429844 -0.20963809 0.080209844 3.4069905
0002b0 b8 db d9 3d bb 58 a3 3f 03 38 5c 40 ad 32 b2 3e
       0.10637611 1.2761453 3.4409187 0.34804288
0002c0 d8 a5 7b bf 84 fd 99 3f c2 d0 4b 3f 93 13 cc bf
       -0.9829993 1.2030492 0.79615414 -1.5943474
0002d0 93 9c d3 be 7c 49 85 bc 01 76 e7 3e 11 bd 93 3d
       -0.41330394 -0.016270392 0.45207217 0.07213796
0002e0 21 16 14 bc ef 39 d4 be 8f e8 91 bc fa 6a 1b be
       -0.009038479 -0.4145045 -0.017811088 -0.15177527
0002f0 08 5d 90 3d 0e 4c b6 be 89 3c 71 bf 8f 4d e2 be
       0.07048994 -0.356049 -0.94232994 -0.44199798
000300 5b 4b f2 be fc 39 94 bf f5 b6 4f 3e 04 54 06 3f
       -0.47323117 -1.1580195 0.20284636 0.5247195
000310 25 fa 5e bf e2 40 42 bd cf 0a 90 3f f7 6f 75 3f
       -0.8710044 -0.04742516 1.1253299 0.9587397
000320 36 01 eb 3c 79 c4 4f 3d c5 79 ad 3e a7 6e 93 3e
       0.0286871 0.05072448 0.33881965 0.2879536
000330 7e 13 93 be 74 65 0e 3e 7e 55 57 3e 4a 80 cf bd
       -0.2872581 0.13905889 0.21028706 -0.10131891
000340 98 e1 ea bc 5c e2 5c 3e dd f1 a3 3d c2 ae 77 3f
       -0.028672025 0.21570724 0.08005116 0.96751034
000350 ac 05 1a be eb 83 2b 3f 3f 1a 19 3f bc c8 be 3b
       -0.15041226 0.66998166 0.59805673 0.0058222692
000360 ce 8a 0e 3d da da 94 3e c0 fe 48 bb f3 74 35 bf
       0.034800343 0.2907322 -0.003066942 -0.70881575
000370 13 6f a1 be 50 1a bc 3e a1 80 c2 bb 21 91 05 3e
       -0.31530055 0.36738825 -0.005935744 0.13043644
000380 1b 36 ae bc f8 cb 86 3d 27 de b3 3e 54 34 85 bf
       -0.021266034 0.06581873 0.35130426 -1.0406594
000390 bf f0 11 3f 0e 28 ae 3d 30 43 46 bf 85 3a ad 3e
       0.57007974 0.085037336 -0.7744627 0.3383371
0003a0 4f 7a ef bd 54 42 cb 3e 51 6e d1 3d 15 e4 09 3f
       -0.116932504 0.39699042 0.10226119 0.5386365
0003b0 65 84 d9 be f6 72 a0 3e e0 fa ae 3d a0 dc 87 bd
       -0.42483822 0.31337708 0.08543944 -0.06633878
0003c0 85 27 3f 3c 45 da 5d 3d 74 3a 9b bd 4c e3 09 3e
       0.011667137 0.054163236 -0.075795084 0.13465613
0003d0 7d 43 0c be f2 a4 28 be f0 b9 c2 3c 0d 87 0c bf
       -0.1369762 -0.16469172 0.023770303 -0.5489357
0003e0 14 0a d2 3d c8 0f 0f bd cc b6 ae be 89 94 18 3d
       0.102558285 -0.03492716 -0.34123838 0.03725103
0003f0 e7 68 bd bd b1 ee 19 3f 5b bb da 3e 8c 19 70 3e
       -0.09248524 0.6012984 0.42721066 0.23447245

bias f4 [20]
000000 d6 62 c1 3c ee 28 81 bd 68 e7 09 3d a6 e7 ba 39
       0.023606699 -0.06306635 0.03366795 0.00035649276
000010 65 0e c9 be ee 57 3a be 77 ca 4d be 9a fe 5d 3e
       -0.39268795 -0.18197605 -0.20096765 0.21679154
000020 6a 02 5c be 3e 11 e7 be 88 4d ed bd 34 89 43 3d
       -0.21485296 -0.45130342 -0.115870535 0.04773827
000030 35 b3 9c bd e8 5b 03 3e b8 66 92 3d 0e ba e0 3d
       -0.076513685 0.12828028 0.07148498 0.10972987
000040 5a b9 58 3e e6 42 20 3e ef c0 1c 3e 29 af 1c 3e
       0.21164456 0.1565052 0.15307973 0.15301193

weight f4 [4, 20]
000000 b6 c3 c0 3d 68 7a 84 3e bd 7c 49 bc b7 41 a8 3e
       0.09412329 0.2587464 -0.012297806 0.32862636
000010 6e 1e e4 be 5b 86 fd 3e 83 ec db 3d 93 60 8c 3e
       -0.44554466 0.49516568 0.107384704 0.2741743
000020 07 d4 c1 bd b9 63 0c 3f 41 23 8e 3d b7 33 05 3d
       -0.09464269 0.54839665 0.06940318 0.032520022
000030 b0 2d ce bc 1e d9 a6 3e 01 ca 04 bd f6 1a b1 bd
       -0.02516827 0.32587522 -0.03241921 -0.086477205
000040 49 28 06 3f d7 5a af 3d 1c 82 78 3d 6e e3 c6 3e
       0.5240522 0.08562248 0.060670957 0.3884539
000050 fc f6 0a 3e 41 60 f2 be 62 b1 f3 bc d7 7e e6 3e
       0.1357078 -0.4733906 -0.029747669 0.45018646
000060 33 88 c9 3e 5b 83 29 bd c7 4a 0d be 64 0b 1d 3f
       0.39361724 -0.041385036 -0.13798057 0.61345506
000070 ac fd b6 3e ff 12 75 3e 84 39 3c be 9f db 09 bf
       0.3574041 0.23933028 -0.18381315 -0.5385074
000080 14 75 2a 3c 1b 73 03 3d a5 d5 0f bf 12 1e 7d bc
       0.01040389 0.032092195 -0.5618537 -0.015449064
000090 ed f6 09 3e 14 01 e6 3e cd 16 22 3e eb bf ea be
       0.13473101 0.44922698 0.1582901 -0.45849547
0000a0 fd c5 f5 3c 59 c0 23 3e 55 ee ca 3d 8d ea 27 be
       0.030001635 0.15991344 0.099087395 -0.16398068
0000b0 03 6e 14 3e cb 6a e4 bd f2 2c 12 be 8a 21 3b be
       0.14495091 -0.11153182 -0.14274958 -0.18274513
0000c0 70 16 d1 bd 52 78 cd be e7 7a 7d bc 8b 51 90 3e
       -0.10209358 -0.4013086 -0.015471197 0.28187212
0000d0 46 10 86 3e a3 fb bb 3d 05 f1 79 be 8c bc ba bd
       0.2618429 0.09178855 -0.24408348 -0.09117994
0000e0 79 47 8b 3d 20 7b c0 bd 3a 09 93 3b 15 11 fb 3d
       0.06800742 -0.09398484 0.004487184 0.122591175
0000f0 71 1b 26 be b8 0c 2c 3e 4d 43 2a bd d8 17 c0 bd
       -0.16221406 0.16801727 -0.04156809 -0.09379548
000100 fb 18 65 be e4 65 cf bd 44 69 1c 3e f3 a1 45 bd
       -0.2237281 -0.10126856 0.1527453 -0.04825015
000110 14 c7 81 3e 21 9e 8a bd 6c 37 31 be 1c aa f4 bd
       0.25347197 -0.06768442 -0.17306298 -0.11946508
000120 b9 63 b6 3d 62 e9 86 3d 51 54 8b be f8 53 14 be
       0.08905739 0.06587483 -0.27212766 -0.14485157
000130 a9 04 a0 bc a4 ea df 3d 3f 5e 5b be 03 a0 2b 3e
       -0.019533472 0.10933426 -0.21422671 0.16760258

bias f4 [4]
000000 11 45 3c be dc de 3d 3d 58 35 86 3c ae ec 61 3c
       -0.18385722 0.046355113 0.016382858 0.013789339

weight f4 [80, 2]
000000 df 69 d6 bd cf 1f c6 3e eb 6d 7b bf e0 c8 03 bf
       -0.10469412 0.38696143 -0.98214597 -0.51478386
000010 aa f3 03 40 e0 98 6c 3f b9 df a6 bf 44 b6 7c 3f
       2.061747 0.9242077 -1.3037025 0.98715615
000020 cd a3 41 3f 0e e1 62 bf 1c 0c 50 3f 85 8f 34 3f
       0.75640565 -0.88624656 0.8126848 0.70531493
000030 1f ee b0 bd 3f a5 1a 3f ed cb bb bf 6d a9 81 3f
       -0.08639168 0.60408396 -1.4671608 1.012983
000040 6d 80 5f 3d bc 79 2b 3e 28 05 65 bf c5 51 85 3f
       0.054565836 0.16745657 -0.8946099 1.0415579
000050 e3 fc 19 bf fc e6 1b 3e ca a7 8a 3f 81 f0 a8 3e
       -0.601515 0.15224832 1.0832455 0.3299599
000060 37 a5 22 bf 7d b2 57 bc 8a a5 4c 3f c3 6e 3c 3f
       -0.6353335 -0.0131651135 0.7994009 0.7360651
000070 04 4a 9b bf 70 86 64 bf 71 61 e0 3e a4 db f1 bd
       -1.2131963 -0.89267635 0.43824342 -0.11809471
000080 3b 0e a2 3e 80 43 a1 bd da f2 00 40 45 7c 60 be
       0.31651482 -0.07874203 2.0148225 -0.21922405
000090 50 86 f3 3f bd f2 3a 3f 4f 35 ff bc 30 bc 14 3f
       1.9025364 0.7302664 -0.03115335 0.5809965
0000a0 25 aa 9a 3e 27 34 5a 3e a2 c9 92 3f 33 4e 42 bf
       0.30207935 0.21308957 1.1467783 -0.7590057
0000b0 fc 90 1b bf 85 7f 1d bf ed 8f d2 3f 35 d7 51 3f
       -0.60768104 -0.61522704 1.6450173 0.81969005
0000c0 b3 8c 73 3d 1f 8f e8 3e 7c 3e 26 3f 59 42 27 3f
       0.059460353 0.45421693 0.64939094 0.65335613
0000d0 9f fb 64 bd 55 63 32 c0 53 3a 19 40 5f 89 f3 be
       -0.055904027 -2.7873127 2.3941848 -0.47565743
0000e0 2b 99 53 bf 0e 8c 1b c0 a4 fd ab 3f 6a 88 1f 40
       -0.8265559 -2.4304233 1.343678 2.492701
0000f0 de d3 2a 3f 29 78 2c 3f 76 5e 53 be 58 8f 7b c0
       0.66729534 0.6737085 -0.20641503 -3.930624
000100 94 98 22 3f 5c 18 e0 bf d4 9d 8f bd c9 1a 90 3e
       0.63514066 -1.7507434 -0.07012525 0.28145435
000110 d4 9e 0f 3f e5 0f 52 3f ae 5f 1a bf ff 2d 04 bf
       0.5610173 0.82055503 -0.60302246 -0.51632684
000120 47 d8 07 be d0 c4 15 c0 e1 80 01 40 51 d4 49 3f
       -0.13266097 -2.3401375 2.0234911 0.78839594
000130 aa e0 49 3c dc 36 f3 be f5 53 bc 3f af 08 f0 3e
       0.0123216305 -0.47502792 1.4713122 0.46881625
000140 2c dd 72 bd 82 71 00 3f 2d 14 0d bf 74 ed ce 3e
       -0.059292957 0.501732 -0.5510891 0.40415537
000150 64 0f ec be 93 0b 59 bf 54 93 90 bf ca 10 82 bf
       -0.46105492 -0.84783286 -1.1294961 -1.0161374
000160 93 2d 97 bf da 14 96 bf 4d b1 27 40 8a a3 09 3f
       -1.1810783 -1.1725113 2.6201966 0.53765166
000170 25 c4 6b be d3 83 ee 3e 86 08 dc bd 6e 24 3f be
       -0.23024042 0.4658495 -0.10743813 -0.1866624
000180 40 cf 19 bf e3 c6 6a bf 4f fd 5a bf d1 1e 3d bf
       -0.60081863 -0.9170973 -0.8554277 -0.7387515
000190 59 a0 6e bf a8 1e 5f bf eb 34 22 40 b4 44 a6 bd
       -0.9321342 -0.8715615 2.5344799 -0.08118573
0001a0 05 6a 05 40 b0 08 aa 3f 7a a1 e5 be 14 43 9e 3e
       2.084596 1.3283901 -0.4484976 0.30910552
0001b0 c8 01 87 bc 0e 87 03 3f b4 75 c3 bd 03 d3 11 3f
       -0.016480342 0.5137795 -0.095439345 0.56962603
0001c0 68 02 31 be 49 73 c5 be d7 2a 4d 3f ac e4 92 3f
       -0.17286074 -0.38564518 0.80143493 1.1476035
0001d0 17 0a 3a c0 a3 34 71 bf ea 1c 8d bf 6c b8 d9 3e
       -2.9068658 -0.9422094 -1.1024449 0.42523515
0001e0 19 1b 23 bd a7 ff 10 3f 67 46 0d bf ad 0f 11 bf
       -0.039820764 0.56640095 -0.5518555 -0.56664544
0001f0 b7 bb 13 3f a2 3c 98 be f3 84 ed be dd f7 31 3d
       0.57708305 -0.2973376 -0.46390495 0.04344927
000200 53 0a a5 be c3 81 0f bf f5 0c 28 be 60 93 20 3f
       -0.3223444 -0.56057376 -0.16411193 0.62724876
000210 3b 3a 0d 3f 1a ff 2e bc 97 c5 d7 bc 63 8c 99 3e
       0.5516698 -0.010680938 -0.026339335 0.2998992
000220 5e ba e6 3d e1 0d b7 3e 44 25 2b 40 00 ed c6 be
       0.112660155 0.35752776 2.6741495 -0.38852692
000230 21 e3 88 3f 58 3a 27 c0 fe a9 67 3f b3 f8 2f be
       1.0694314 -2.612936 0.9049376 -0.17184715
000240 f8 e2 91 3f 90 0e b2 3d 38 53 7a bf 18 84 9b be
       1.139739 0.08694184 -0.9778323 -0.30374217
000250 d0 3d f7 3e 25 79 14 c0 6b 7f e2 3d e4 0e 64 3d
       0.48289347 -2.319894 0.11059459 0.055678263
000260 cb e4 ab 3f d0 09 24 bf d9 15 cd 3c ce 12 4f 3f
       1.3429197 -0.6407747 0.025034832 0.8088807
000270 e2 28 3d 3f 25 81 4a bf 71 9e 03 3e a4 ac 22 3f
       0.7389051 -0.7910331 0.1285341 0.6354468

bias f4 [80]
000000 21 95 2c bf 4f 5a 56 3f 1e ac 38 be 7e cd 5f 3f
       -0.6741505 0.8373155 -0.18034407 0.8742293
000010 df 24 91 3e 68 d3 2f 3f 84 4a 33 bf 50 59 47 3f
       0.28348443 0.68681955 -0.70035577 0.77870655
000020 c0 5d c9 3e 93 38 3a 3f 8b 39 18 bf ae 8d eb 3e
       0.39329338 0.72742575 -0.59462804 0.4600653
000030 b4 40 98 3f 8f 21 c4 3c 92 14 79 3f ed 7a e5 be
       1.1894746 0.023941783 0.9729701 -0.44820347
000040 9f ce 24 bf 1e 07 8d 3e ee 2d c4 bd 86 ce f1 be
       -0.6437778 0.27544492 -0.09579073 -0.47227877
000050 48 ba d2 be 78 1b d3 3e 81 c2 07 bf c1 d5 41 be
       -0.41157746 0.41231894 -0.53031164 -0.18929197
000060 67 07 a8 be 40 7a 0e 3f fd 47 7d 3e fd 17 97 be
       -0.32818148 0.5565529 0.24734493 -0.2951049
000070 b0 7c 69 3b 15 cb 29 bf 37 d7 e6 3e 3b 9b 21 3e
       0.0035627298 -0.66325504 0.4508607 0.15781872
000080 e5 d1 87 3f dd f6 62 3f fc 7e 32 3f df 62 c6 be
       1.061093 0.88657933 0.6972501 -0.38747308
000090 88 c3 17 3e 3a c3 20 be 80 74 2d bf 45 55 20 3f
       0.14820683 -0.15699473 -0.6775589 0.6263011
0000a0 89 85 50 3f 37 a1 41 3f 1e e0 36 3f 32 ae 73 3f
       0.8145376 0.7563662 0.71435726 0.95187676
0000b0 ab a6 96 be c8 76 62 3e 21 ee 0d 3f 57 0e b1 be
       -0.29424033 0.22115624 0.5544148 -0.34581253
0000c0 19 b9 4c 3f ea e1 32 3f 30 c1 50 3f eb 4e 75 3e
       0.79969937 0.6987597 0.8154478 0.23955886
0000d0 02 fb c2 3c 29 64 0c 3f 34 cf 80 3f 1c 30 31 bf
       0.02380133 0.5484033 1.0063233 -0.69214034
0000e0 de 96 df be 40 06 ac 3f 8d f6 22 3e 46 37 61 3f
       -0.4366979 1.3439407 0.15914364 0.87974966
0000f0 3b ff c6 be 3d 94 26 3f 4a 15 17 bf 9a ad 0c bf
       -0.388666 0.65069944 -0.5901686 -0.54952395
000100 35 9c 14 bf 68 f2 55 3f 8b da 06 bf aa 2c 8a be
       -0.58050853 0.8357301 -0.5267722 -0.269872
000110 8b 00 24 3f a3 6a ff 3e af 25 c3 bc ec 91 a5 3e
       0.6406333 0.49886045 -0.02382168 0.32337892
000120 48 06 78 bd c3 83 4d 3f b0 95 89 3e 0b 20 28 bf
       -0.060552865 0.8027918 0.26872015 -0.65673894
000130 4b c1 e0 3e 7f 8f 82 3f 5d 6b 08 3f 6a ce 04 3f
       0.4389747 1.0200042 0.53288823 0.5187746

weight f4 [80, 80]
000000 11 19 16 bd 6d bf c4 3e 22 93 08 bf 84 eb cb bf
       -0.036645 0.38427296 -0.53349507 -1.5931249
000010 11 7c 5a be 77 09 07 be 1b d1 d1 3d 69 a5 bc bf
       -0.2133639 -0.13187204 0.10244962 -1.4737979
000020 f4 7a 95 bd 4d 47 d3 3e 36 4c a9 3d 0d a0 d4 bd
       -0.07298842 0.41265336 0.08266489 -0.1038209
000030 26 43 fe 3d 94 8f d3 3d 5a 3b 82 3e 04 c6 88 3d
       0.12415151 0.1033012 0.25435907 0.066783935
000040 b3 84 b1 3c 82 25 18 bf 1a fa 06 bf 24 09 c4 3d
       0.021669721 -0.5943223 -0.52725375 0.09572056
000050 03 16 83 ba 5f da 24 bf f1 b5 d3 bd ac 9b 35 bf
       -0.0010001067 -0.6439571 -0.10337437 -0.7094066
000060 91 ab c8 3d 63 c7 91 bd 4e d2 ac 3e 88 82 9b 3f
       0.09798349 -0.07118108 0.337542 1.214921
000070 34 a2 27 3f 4b 7c 81 3f 89 38 e8 3d 11 4d 00 c0
       0.6548188 1.0116056 0.11338908 -2.0047038
000080 0b 2b 2a 3d cf 37 0d 3e f8 cc 51 3e ef 73 c3 3d
       0.041544955 0.1379082 0.20488346 0.09543597
000090 b4 d8 53 bd b7 46 11 bf e7 b0 67 bd 97 b1 eb bd
       -0.051720336 -0.5674853 -0.05656519 -0.11508482
0000a0 1e d4 86 3e 49 8b 9f 3e a6 b7 da 3d 4f c5 a9 3e
       0.26333708 0.31160954 0.106795594 0.33158347
0000b0 3a 04 f6 bd f8 70 37 3f b6 e1 3e 3e dd e3 3c 3c
       -0.12012525 0.7165675 0.1864079 0.011528936
0000c0 b0 b8 d0 3e 84 16 bc 3e 3c 2c f1 3d 6e 7f 94 3e
       0.40765905 0.36735928 0.11776015 0.2900347
0000d0 dc dd 16 bf e3 8b af bd 70 73 44 3e 53 38 b1 bd
       -0.5893228 -0.08571603 0.19184661 -0.08653321
0000e0 98 89 88 3d f0 9e 42 3e 07 8f 0e 3d 89 58 5c 3e
       0.06666869 0.19005942 0.03480437 0.21518148
0000f0 41 70 a9 bc 52 e4 fb 3e c1 f4 6d ba ef 59 7c 3d
       -0.02068341 0.49197632 -0.00090773037 0.061609205
000100 97 f5 be bb 8c 95 d6 3d ca c6 21 3d 48 b5 23 b9
       -0.0058276164 0.104777426 0.03949622 -0.00015612424
000110 ed 56 cc 3d 43 23 4e bd 7e db 7b be e9 d4 bc be
       0.09977517 -0.050326597 -0.24595448 -0.36881188
000120 97 e5 48 bf cf a4 dc 3e 36 d1 7a bd 8a 4e c5 bc
       -0.78475326 0.4309449 -0.061234675 -0.024085302
000130 6d df b7 be 28 c4 84 3d 84 47 62 be 50 8c 23 be
       -0.35912648 0.06482726 -0.22097594 -0.15971494
000140 f4 67 f7 3b 6e fe 88 3e 5e 7b 82 be 37 9e 05 bf
       0.007550234 0.26756614 -0.25484747 -0.5219454
000150 4f 4c e4 be ee 81 f1 3e a6 7a 6d 3d ff c8 0a bf
       -0.4458947 0.4716944 0.057978295 -0.54212946
000160 7f f1 67 3e 04 70 22 be f9 7b 93 3d 70 04 ef 3e
       0.22650717 -0.15863043 0.0720138 0.46683073
000170 f7 82 90 3e f5 0c 9a 3e d1 90 5a 3e ca e8 5d 3d
       0.28224918 0.3008801 0.21344306 0.054177083
000180 b0 b1 c8 b9 8b 6a 93 bf 3c d3 0c bf 35 9d c2 bd
       -0.0003827936 -1.1516889 -0.5500982 -0.09502641
000190 a0 ca db 3b b4 ee 7a bf 4b df a9 3d 16 9b 40 bf
       0.0067075044 -0.9802048 0.08294543 -0.7523664
0001a0 98 50 18 bd 3b 24 71 3e d8 f2 b5 3f 87 ba 0b c0
       -0.037186235 0.23548977 1.4214735 -2.1832597
0001b0 b9 85 66 40 cf 7b 6c bf 1f 9f f8 3e 66 9b a4 3f
       3.6019118 -0.92376417 0.485589 1.2859924
0001c0 e3 ef dc bf 7f 18 cf 3e 81 40 53 3e 28 cd be 3d
       -1.7260708 0.40448377 0.20630075 0.09316474
0001d0 a1 e6 01 40 f6 81 4a bf 13 25 0f bd c3 8a 2b 3f
       2.0297015 -0.79104555 -0.034947466 0.6700861
0001e0 89 6a ab 3e 83 ef cd 3d ac 0b 79 3e af 21 64 3e
       0.33479717 0.10055449 0.24320859 0.22278474
0001f0 a5 08 eb 3f ef 51 da 3f 55 cb de 3d 66 be 84 3d
       1.8362013 1.7056254 0.10878626 0.06481628
000200 bc f6 97 3e 8d f3 3a 3e cc 56 c8 3d f3 80 63 be
       0.2968043 0.1825697 0.0978218 -0.22217159
000210 22 f9 15 3e 2c f5 9e 3e dc 4f a0 3e bb 63 b8 3b
       0.14645818 0.31046426 0.31310928 0.005627123
000220 e9 03 a6 bc 79 d6 0f bf 26 ac 82 c0 b2 2b be bd
       -0.020265536 -0.56186634 -4.083514 -0.09285678
000230 95 ea e4 bd a0 d5 9a 3e 59 f6 41 bd 06 58 bf 3d
       -0.111775555 0.30241108 -0.047354076 0.09342961
000240 17 bb b0 bc 04 4d d5 3e 1d ee d5 3b 38 f3 90 3d
       -0.021573586 0.4166032 0.0065286295 0.0707764
000250 e5 46 7b 3e 83 d5 08 3f ff 3f af 3f a7 39 a6 3f
       0.24538763 0.53450793 1.3691405 1.2986344
000260 da 6c 9f bf 19 31 e8 3d 79 74 f8 3d ba a8 47 3d
       -1.2455094 0.1133749 0.121315904 0.048744895
000270 2e 4e d0 3e c5 1c b2 3e d5 35 b3 bd 2e 0a 84 3e
       0.40684646 0.34787574 -0.08750502 0.25789016
000280 49 bd 0b 3c a4 81 a8 be 04 fe 51 bc 50 7c 88 be
       0.008529016 -0.32911408 -0.01281691 -0.26657343
000290 a8 83 04 bf 2f 6d f8 bd a4 d5 dd 3b e6 68 49 be
       -0.5176339 -0.121302 0.0067698527 -0.19668922
0002a0 4f 6c 86 bd 1c 1b 84 be c0 56 df 3d 92 67 28 39
       -0.06563627 -0.25801933 0.10905218 0.00016060311
0002b0 00 c1 93 be 35 13 ad be 2b 13 e1 bd 8a 55 8f 3b
       -0.28858185 -0.33803716 -0.10989984 0.0043742107
0002c0 8c 81 35 bd f9 5f 38 3d 6e 89 48 bd 13 d4 8f bd
       -0.044313 0.0450134 -0.04895919 -0.07022872
0002d0 1b 5d b8 bd c6 5c 25 bd 40 cf c7 bd 57 52 7e bc
       -0.090021335 -0.04037168 -0.09756327 -0.015522561
0002e0 dd 04 7b 3d f9 92 0a be 36 db db 3d de 1c 1a be
       0.061283935 -0.13532628 0.107351705 -0.15050074
0002f0 e2 49 a0 3d 47 72 03 3e ea af 43 be eb 39 12 3d
       0.07826592 0.12836562 -0.19110075 0.035699766
000300 33 6f 19 be db 29 1d be fd 30 d0 bd 5e 5a 5f 3d
       -0.14983825 -0.15347998 -0.10165594 0.05452954
000310 f1 56 91 3e ae e6 cb bd fd f7 5a bd c7 b9 c1 bd
       0.28386644 -0.09956108 -0.053459156 -0.09459262
000320 8d d5 a1 bd 49 e6 7b be c2 6f da bd d0 a7 c9 bd
       -0.0790206 -0.24599566 -0.10665847 -0.09846461
000330 05 06 a3 be cb dc 82 be 39 78 4b be 80 7d 38 3d
       -0.3184053 -0.25559077 -0.1987008 0.04504156
000340 c8 6d 72 be 31 b9 8f be 52 37 5a be 5f 28 3b be
       -0.2367469 -0.28070977 -0.21310166 -0.18277119
000350 43 ed ac bd 27 aa 8b be 15 64 53 be 11 62 a8 bd
       -0.084436916 -0.27278253 -0.20643647 -0.0822183
000360 c3 09 e1 bd 7e 05 fc 3e e0 07 a2 be f6 47 65 be
       -0.1098819 0.4922294 -0.31646633 -0.22390732
000370 60 1b 2e 3c a4 46 54 be 3f 34 95 bd 3f 3c 97 3d
       0.010626644 -0.20730072 -0.07285356 0.07384538
000380 84 e2 19 bd 3f 18 a6 bd 32 28 e6 3c ec dc 64 bd
       -0.037569538 -0.08110093 0.028095338 -0.05587475
000390 22 b1 ef bd 7b ae 9f bd b4 07 1b 3d ba 51 a0 be
       -0.11703707 -0.077969514 0.037849143 -0.31312352
0003a0 ee ca ad be 6c 93 29 be 69 7a 40 3e d2 e3 ac bd
       -0.33943886 -0.16560143 0.18796696 -0.08441891
0003b0 32 64 e8 bd 7b 6e 97 bd 5e cb 1f be d1 7c af bd
       -0.11347236 -0.07394119 -0.15604922 -0.08568729
0003c0 57 c9 4b bd 44 f4 f3 bd 1c 85 a0 be 58 42 ac be
       -0.04975256 -0.11911824 -0.31351554 -0.33644366
0003d0 45 c3 09 3d d7 1d 7c be 68 41 40 3d 42 a5 13 be
       0.03363349 -0.24620758 0.046937376 -0.1441851
0003e0 54 62 86 be 81 8f 8f 3d 5f de 63 3d 05 08 2f be
       -0.26246893 0.07009793 0.05563199 -0.17092903
0003f0 b0 43 8a be 5e a3 b3 be 70 a5 7a be 1a a1 71 3d
       -0.27004766 -0.35085577 -0.24477172 0.05899153

bias f4 [80]
000000 a5 97 6b 3d 1a 2e a4 3e a3 d5 7e bd 8b 87 71 be
       0.057517666 0.32066423 -0.06221546 -0.23586862
000010 7d 52 ea bd c0 64 7e 3d af 49 17 be a1 9d e3 3d
       -0.11441515 0.0621078 -0.14774202 0.1111405
000020 cf 85 9f 3d f6 c8 13 3e 0c fb 2f be 66 b8 ec bd
       0.07789194 0.1443213 -0.1718561 -0.11558609
000030 13 01 9c 3b 53 73 27 be 4a bc 6c be f1 5e 3b 3e
       0.0047608702 -0.16352586 -0.23118702 0.18297936
000040 3a 93 8d 3d 56 84 87 3e e5 32 6f be de 04 17 bf
       0.06912847 0.26468152 -0.23359258 -0.589918
000050 77 b3 0d 3e 81 5e 98 be f0 e5 78 3e 76 f4 02 be
       0.13837992 -0.297596 0.24306464 -0.12788567
000060 d3 b1 4b be aa 55 20 be 23 fc e3 3d 4a 30 7a 3e
       -0.19892053 -0.15657678 0.11132076 0.24432483
000070 3e 6a a1 be fa 7f 32 3c 6a 08 22 3e 6f e6 56 3e
       -0.3152637 0.01089477 0.15823522 0.20986341
000080 48 c4 7a be 5c ca 80 bd 24 f9 6f bc b7 70 dc be
       -0.24488938 -0.06288597 -0.014646802 -0.43054745
000090 17 d7 aa be c6 ff 38 be ec e1 9b 3e 64 52 0a be
       -0.33367226 -0.1806632 0.30445802 -0.13507992
0000a0 c8 65 05 3f c9 62 89 3d d2 5e f3 be 3c f5 05 3c
       0.5210843 0.06708295 -0.4753328 0.008176144
0000b0 f5 20 82 be 1c 0a 5e 3e 9c d7 b8 be 51 c7 74 3e
       -0.2541577 0.21683544 -0.36101997 0.23904158
0000c0 f5 06 97 3d 7e 2e 42 3e 06 e2 10 3e 33 9a a7 be
       0.07374374 0.18963048 0.14148721 -0.32734832
0000d0 ac 40 2a bd de 77 bc be 65 90 a3 be d7 aa 47 3e
       -0.041565582 -0.368102 -0.31946102 0.19498764
0000e0 e2 ba ae 3e 00 36 33 3e 85 96 1d be 40 93 83 bd
       0.34126955 0.17501068 -0.1538945 -0.0642457
0000f0 34 41 23 3e 42 13 54 3e 96 71 89 bd 5a 19 77 3e
       0.15942842 0.20710471 -0.06711118 0.24130765
000100 a5 8e 7e 3e 82 3c 10 3e f2 b8 df 3e 1a df 67 3d
       0.24859102 0.14085582 0.4369579 0.05660925
000110 6c 10 d6 bd 9e 85 67 be 9f de 56 be 0b b7 ab 3e
       -0.10452351 -0.22609565 -0.2098336 0.33538088
000120 6e 8f aa 3d f3 c4 60 be 95 60 14 be dc 8d 47 3e
       0.08328138 -0.2195013 -0.14489968 0.19487709
000130 e2 13 0e bc e6 58 5a be 08 ee 1a be eb 1b 3e 3e
       -0.008671733 -0.21322975 -0.15129864 0.18565337

weight f4 [1, 80]
000000 ca ac a0 bd d9 77 d3 3e 5f fa f8 be 17 b7 1b bf
       -0.07845457 0.41302374 -0.48628518 -0.6082625
000010 c7 74 be be 15 28 d5 3e 7e 70 2b be 9b 74 17 3f
       -0.3719847 0.41632143 -0.16742131 0.591623
000020 f7 9f 64 3e 90 0d 99 3e 78 7d 8a be c7 3e a7 3e
       0.22326647 0.2989316 -0.2704885 0.32665083
000030 c6 e3 6b be ed 35 3f be 38 7a 5f bc ec 74 3f 3e
       -0.23036107 -0.18672915 -0.013639979 0.18696946
000040 3c 24 1c 3f 31 29 0b 3e 1d 22 67 3f d5 9e 62 be
       0.6099279 0.13589932 0.9028643 -0.22130902
000050 fe 4b 67 3e ee cf 30 3f 17 77 88 3e ef c7 1c be
       0.22587582 0.69067276 0.26653358 -0.15310644
000060 a4 e9 79 be f3 c4 dd 3e 0b 3d 28 3e 8a 25 71 3e
       -0.24405533 0.43314323 0.16429536 0.23549476
000070 15 8d cb be 99 66 bb bc bd b1 09 3f 3e be de 3e
       -0.39756075 -0.02287607 0.5378683 0.43504518
000080 62 c3 8d be a5 a2 0d 3e f1 c0 ca bf 3e 4a 29 3f
       -0.27688128 0.13831575 -1.5840131 0.6612891
000090 aa 6b 7f be 09 e4 ef bd 59 1a 96 3e 47 2e 5a 3e
       -0.24943414 -0.11713416 0.29316977 0.21306716
0000a0 f5 76 e3 3e 49 3c 62 3d fc a3 04 bf 2b 67 82 bf
       0.44426695 0.055233274 -0.5181272 -1.0187734
0000b0 73 dd 8a 3e 56 0c fa bf 94 a2 40 40 d8 0b 71 3e
       0.27122077 -1.9535015 3.009923 0.23539674
0000c0 4f 53 c1 3f a6 a3 27 3e d0 78 ff 3e 83 b1 0b bf
       1.5103549 0.1637102 0.4989686 -0.54567736
0000d0 7d 4c 85 be 99 60 c2 be 58 ae 36 be 2e 2b a3 3e
       -0.26034918 -0.37964323 -0.17839944 0.3186888
0000e0 10 c2 d6 3e 1d f1 d0 3e 45 40 94 be 44 66 25 3f
       0.41944933 0.40808955 -0.28955284 0.6460917
0000f0 38 25 d0 3e 21 c0 9e 3e 99 b4 cc be ad a9 dd 3e
       0.40653396 0.31005958 -0.39981535 0.43293515
000100 09 41 ac 3e 8b 42 ca 3e 23 2a 8d 3e 91 97 94 be
       0.33643368 0.39503893 0.2757121 -0.29021886
000110 85 85 46 3e 39 a0 67 be 6a 07 48 be 3d 89 84 3e
       0.19386871 -0.22619714 -0.19534078 0.25885954
000120 b6 1b 05 3f 84 7f 02 bf 8e de af bf 62 22 f7 3e
       0.5199541 -0.50975823 -1.3739793 0.4826842
000130 a6 73 05 bf f4 41 e7 3e ca 3e 04 be bd 45 84 bf
       -0.5212959 0.45167506 -0.12914577 -1.0333782

weight f4 [80, 2]
000000 3f ad df bf 43 1d c2 bd 33 05 5c 3d 89 f1 15 3f
       -1.7474746 -0.094782375 0.053715896 0.5857168
000010 1e 56 1b be a7 5e 0b 3f 77 5b d8 be 93 a6 49 3e
       -0.1516957 0.54441303 -0.42257282 0.1969245
000020 4c 2f 87 be ea fd 16 3f 77 b6 54 3f 6c 55 f6 3e
       -0.26403272 0.5898119 0.8309092 0.48112047
000030 8c 6c 00 c0 cb aa 69 bf 87 ec 6e bf c9 0b ae 3f
       -2.0066252 -0.91276234 -0.9332966 1.3597347
000040 20 14 fb be ee 6a cc 3e b6 8d 08 c0 7b 9f 04 3c
       -0.49038792 0.3992533 -2.1336493 0.008094664
000050 26 e5 90 bf 10 94 67 be 93 17 a4 bf 8f 32 c3 bf
       -1.131993 -0.22615075 -1.2819694 -1.5249804
000060 54 42 a6 bd 24 05 48 c0 5b 26 f5 be 2e ee 8c 3c
       -0.0811812 -3.1253138 -0.47880825 0.017203417
000070 85 d8 85 bf fc cf 27 c0 a0 6a b7 3c 21 42 d0 3e
       -1.0456702 -2.6220694 0.02238971 0.40675452
000080 48 00 22 bd f9 af 2f c0 e0 9e 1a 3f 08 10 26 3f
       -0.03955105 -2.7451155 0.60398674 0.6486821
000090 e7 c7 17 bf 5c f2 59 bf 59 b3 88 3d aa f9 0f 40
       -0.592894 -0.85135436 0.06674833 2.2496133
0000a0 f0 4a 92 3d 36 24 ae be 0d ec 89 3d 65 60 24 3f
       0.071431994 -0.34012002 0.06734476 0.64209586
0000b0 f8 39 57 3f 94 7a 1e 3f 38 1c 95 3e ce db 9f be
       0.8407283 0.6190579 0.29123092 -0.31222385
0000c0 9f 18 de bf 44 2d 55 bf 68 0e 8b bf 82 a4 7b bf
       -1.7351264 -0.83272195 -1.0863771 -0.98297894
0000d0 04 3f 59 bf d4 58 0a c0 f2 04 a6 bf 2c a2 45 bf
       -0.8486178 -2.1616716 -1.2970259 -0.7720058
0000e0 cc 95 2d bf ea f4 f0 3e 86 61 b4 bf c3 75 52 3f
       -0.67806697 0.47061855 -1.4092262 0.8221094
0000f0 26 62 73 3f a9 da a4 be 27 36 15 3e 12 d5 72 3e
       0.9507164 -0.32198074 0.14571439 0.23714092
000100 1c 38 4e 3f 74 fc 6d bf 56 90 cd bf 5e 8d 6e 3f
       0.80554366 -0.9296334 -1.6059673 0.9318446
000110 94 d7 00 3f e0 d6 d6 be ec 7b 90 3f 15 62 79 c0
       0.50328946 -0.41960812 1.1287818 -3.8966115
000120 ca 9a 7e 3f c4 86 96 3e ab 5d f6 3e 16 4a 26 3e
       0.9945494 0.29399693 0.48118338 0.16239199
000130 e1 e4 06 3f bc f0 51 be 19 bb 63 3e bf 29 ba 3e
       0.5269299 -0.20501989 0.22239341 0.36359975
000140 f3 5d 18 bf 67 17 56 be 23 60 c7 be 8f 3e 24 be
       -0.59518355 -0.20907365 -0.38940534 -0.16039489
000150 1e 96 d0 bf e2 62 61 be 45 43 23 bf 1c ab 00 3f
       -1.6295812 -0.22010377 -0.6377452 0.5026109
000160 3e d2 dd bf 02 fa 07 bf 14 ba f2 3e 79 c9 1b be
       -1.7329786 -0.53115857 0.4740759 -0.15213574
000170 af 79 c4 3d 17 fc 82 3f d1 0d 88 3f 5b 8c d2 bd
       0.09593522 1.0233182 1.0629216 -0.10280677
000180 68 67 f6 bf 6f 95 81 3d 3e 35 c4 be 2c ed c1 3d
       -1.9250307 0.0632733 -0.3832187 0.09469065
000190 f9 ce 89 3e 1d 5e 02 3e 38 1d a9 bf 3c cb a6 3d
       0.2691572 0.12731214 -1.3212042 0.08144233
0001a0 61 c9 bc be 17 ba b9 be 07 3c 53 40 8f 02 b1 bd
       -0.3687239 -0.36274788 3.3005388 -0.08643066
0001b0 19 e2 bd 3e f4 7b 48 3f fd 45 00 bf b3 1b a2 3d
       0.3708656 0.7831414 -0.50106794 0.079154395
0001c0 94 af 09 c0 c8 4d 38 3f 28 71 a5 be 16 2a ed 3d
       -2.1513414 0.71993685 -0.32312894 0.11580293
0001d0 d1 29 1e 3e c1 dc ae 3e be 9c 49 3f 8a 72 4f 3f
       0.15445639 0.34152797 0.78754795 0.8103415
0001e0 51 2f 01 3f 21 d8 19 3f f2 65 75 3e 1d 23 ec 3e
       0.50462824 0.6009541 0.2396467 0.4612054
0001f0 10 72 b6 bf 08 d8 35 3f d2 59 38 bf c1 51 12 3f
       -1.4253559 0.7103276 -0.72012055 0.57155997
000200 32 fb 85 be 7f 49 f4 bd 13 cd 0d 3f 53 cb e1 3d
       -0.2616821 -0.11928081 0.55391043 0.11025109
000210 14 dd dd 3f 3e 45 08 c0 7f f1 15 3e 47 21 26 bf
       1.7333093 -2.1292262 0.14642905 -0.6489453
000220 bc fc cc 3e b5 e8 37 3f c2 89 e8 3d 00 db a2 3e
       0.4003657 0.7183946 0.113544 0.3180771
000230 61 32 cd bf 72 70 5a bf 36 02 84 3f a2 e1 09 bd
       -1.6031 -0.8532783 1.0313175 -0.033662446
000240 31 c8 e7 be 83 34 54 c0 6f f8 7e bf d2 fa 91 be
       -0.4526992 -3.315705 -0.9959783 -0.28511673
000250 5f 7f 6c bf 12 1b 9d 3f 03 07 63 3f 0d b6 4a 3f
       -0.9238185 1.2273886 0.88682574 0.7918404
000260 53 3a a8 be 59 48 30 3f 46 86 a6 bd 2b 84 d1 3c
       -0.32856998 0.68860394 -0.081310794 0.025575718
000270 f4 66 aa 3e aa 74 e9 bd 93 12 7b 3f 76 df 15 bf
       0.33281672 -0.11399205 0.98075217 -0.585441

bias f4 [80]
000000 7f d4 76 3e fe fb a7 3f e7 bc e4 be 3a 21 de be
       0.24104498 1.3123777 -0.4467537 -0.43384725
000010 c1 9d e3 be a2 02 73 3f 02 d8 62 3d 49 46 bc 3e
       -0.44456294 0.9492589 0.055381782 0.36772373
000020 80 17 e2 be 66 f8 87 3e 66 bc e3 3e 70 9d af 3e
       -0.44158554 0.265567 0.44479674 0.34299803
000030 cc 06 ef bd 8a fe a8 be e2 15 17 3e d2 ce b8 be
       -0.11671218 -0.33006698 0.14754441 -0.3609529
000040 c6 d2 ec 3e bf 8f 20 bf 30 c2 08 bf 76 a8 2b 3e
       0.46254557 -0.6271934 -0.53421307 0.16763481
000050 6d bc f3 be c0 fa e7 be 8c 5d 65 3f 9a 92 ca be
       -0.47604695 -0.45308495 0.89595866 -0.39564973
000060 77 e4 93 be 59 7c 4c 3f e8 71 bb 3d 53 e1 03 bf
       -0.28885242 0.7987724 0.09152585 -0.5151569
000070 f4 55 19 3f f0 70 d9 be 4b 76 6e 3f 01 bf 98 be
       0.5989678 -0.42468977 0.9314925 -0.29833224
000080 ce b9 f3 be 1f d6 f9 be 10 35 90 3f 9e 0d f8 3e
       -0.47602695 -0.48796174 1.1266193 0.4844789
000090 41 a8 86 3f 32 ee 23 3f c2 40 15 bf fd bc c5 be
       1.0520097 0.6403533 -0.5830194 -0.3862075
0000a0 7a 84 f3 be 4e 27 1a bf f4 c1 b5 bd 36 a7 2a bf
       -0.4756201 -0.60216224 -0.08874884 -0.66661394
0000b0 74 eb 8a 3d fd d6 71 3f 8d d0 8e 3f e3 38 83 3f
       0.0678319 0.9446867 1.1157395 1.0251735
0000c0 d8 27 a3 3e 82 10 74 be 14 05 fb be 5b 5c 80 3f
       0.31866336 -0.23834422 -0.49027312 1.0028185
0000d0 1a f1 95 be a6 3d 09 3f 27 23 84 3f 13 4d e3 be
       -0.29285508 0.53609693 1.0323228 -0.4439474
0000e0 1a 1a b4 3e e6 67 c6 be 54 11 f5 be cd 45 85 3f
       0.35176164 -0.38751143 -0.47864783 1.0411927
0000f0 10 f0 e6 be 17 97 44 3f c3 4f 6f 3e 29 cc 6d 3f
       -0.45105028 0.76793045 0.2337027 0.9288965
000100 3c c1 12 bf a0 c8 7f 3f d6 fa 55 3e 3c d6 3c 3f
       -0.573261 0.99915504 0.20896468 0.73764396
000110 06 14 83 3f 99 2f 13 3f e3 81 01 3e 14 88 6a 3f
       1.0240486 0.57494503 0.12647204 0.9161389
000120 ae 3f 89 3e 01 34 1f 3f b6 ed 68 3e 54 3f 96 3f
       0.26806396 0.62188727 0.2274693 1.1738076
000130 bd 36 2e 3f 84 0d 08 be d1 31 0c bf 89 bf f4 3e
       0.68052274 -0.13286406 -0.54763514 0.4780238

weight f4 [80, 80]
000000 ba a3 3a bf 8e 4b c3 3d 4d a7 c3 3d ad cf 29 3d
       -0.72906077 0.09535895 0.095533945 0.04145782
000010 04 1d a5 bd 53 1f 83 3e 44 30 e3 bf 26 d1 d2 3f
       -0.08062175 0.25609836 -1.7749104 1.6470077
000020 d0 ca 78 bd b4 be c4 3c c1 77 bb 3e b6 52 81 bf
       -0.060740292 0.024016716 0.36614802 -1.0103366
000030 a4 24 b9 3e c1 8f 8c 3c 9f 0c 7f bc 1c 88 10 bd
       0.36160767 0.017158391 -0.015566974 -0.035286054
000040 c5 85 93 bd 6a 46 8c 3d f7 3b 51 3f c1 04 93 3e
       -0.07203249 0.06849368 0.81732124 0.28714564
000050 e8 52 3a 3d b2 9d d4 bc 94 19 a7 3e b6 7b 98 bd
       0.04548922 -0.025954101 0.32636702 -0.07445471
000060 af b3 69 bf e6 82 44 bf 3e 69 b0 bd 99 6d 06 bf
       -0.912898 -0.76762235 -0.08613823 -0.5251098
000070 96 cb 36 3e 98 99 f5 3d 2c 2e e8 3c 36 c1 c3 3d
       0.178511 0.11992186 0.028342329 0.095583364
000080 1c 78 0d be f8 24 65 3e a4 2b e1 bd 38 72 94 3e
       -0.1381535 0.22377384 -0.10994652 0.28993392
000090 d3 fa 73 3e 5d 95 26 3e 35 a9 43 3d 8c 6c 6c bc
       0.2382615 0.16267915 0.04776879 -0.0144301765
0000a0 2c 82 a7 bd 4a 7f 5f bd 7a 42 1f c0 ee 21 46 3d
       -0.08179125 -0.05456475 -2.4884324 0.0483722
0000b0 e6 b1 06 c0 b8 92 0d be d9 85 ac 3e 26 f5 52 bd
       -2.104608 -0.138255 0.33695868 -0.051503323
0000c0 6f 7d 23 3e e8 cc 46 3b 4b e4 61 3b c7 cc 07 bd
       0.15965818 0.0030334536 0.0034468349 -0.033154275
0000d0 d7 78 92 bd f7 7a 7f bf bd 73 95 3e 71 51 3b bd
       -0.071519546 -0.99797004 0.29189864 -0.045731965
0000e0 d2 20 e8 3f e4 be ec bc 6f c2 bc 3c df 7a 57 3e
       1.8135016 -0.028899617 0.023041932 0.21042965
0000f0 50 e6 cc 3d 22 fd 98 3e 74 09 07 3f a4 c9 93 3d
       0.10004866 0.29880625 0.527488 0.07216194
000100 cd a9 19 bc d3 1b eb 3d 8e 0d 0b 3f 21 c4 c3 be
       -0.009378863 0.114799164 0.5431756 -0.38235572
000110 63 b9 cf 3d 56 1f 5b 3f 4f 48 08 c0 9a da 3d 3d
       0.101427816 0.8559469 -2.1294134 0.046351053
000120 73 17 23 3e 5f 67 c8 be 20 b0 23 3f 79 58 05 3e
       0.15926914 -0.39141366 0.6394062 0.13022031
000130 8c 62 44 3e 75 f3 d4 3d 77 e5 bd bd 0c 2a c9 bc
       0.19178218 0.10397998 -0.092722826 -0.024556182
000140 09 93 72 3c 7f c1 98 3d f0 6a 97 3c 5b 47 55 bc
       0.014805564 0.074587815 0.018483609 -0.013017501
000150 39 70 0a 3d 6a 03 8b bc 3c db dd bd 33 0d 30 3f
       0.03379843 -0.016969401 -0.10832831 0.6877014
000160 d9 dc bd 3c 5b 58 f6 3e d8 80 43 3f 3d a5 72 be
       0.023176597 0.48114285 0.76368475 -0.23695846
000170 c2 4e ad 3d f2 d4 12 bd 07 98 0c be 77 3f 60 3d
       0.084622875 -0.03584761 -0.13729869 0.054748025
000180 cc a5 bf 3d 61 3e 25 3d 3e 90 26 bd 99 53 9c 3e
       0.09357795 0.040342692 -0.040664904 0.3053253
000190 2e e5 7a bd 5b 18 b6 bd 92 19 5e bd 0c 73 e5 3c
       -0.06125372 -0.08891364 -0.054223605 0.02800896
0001a0 25 74 7c be 1c 5f 8e 3e 27 0b f0 3d a0 b0 d5 3c
       -0.2465368 0.27806938 0.11720877 0.026085198
0001b0 01 cc 9d 3e 19 49 c5 3d 7a 80 53 3d 22 6e 43 bd
       0.30819705 0.09633083 0.051636197 -0.047712453
0001c0 d5 b3 7b bd 5f 58 1b bf ff e5 5c 3d ad 72 0b 3f
       -0.061450798 -0.6068172 0.05393028 0.54471856
0001d0 43 e8 0b 3d 09 29 79 3d a1 29 fa 3c 2c ed f9 3c
       0.03415705 0.06083015 0.030537428 0.0305086
0001e0 43 4d c2 bd a2 74 d3 3b 6b ca a6 3c 9b 12 13 3d
       -0.09487393 0.0064531127 0.020360192 0.035906415
0001f0 07 ef a7 bd 47 29 be 3c 87 51 3b 3e 0e 7b cd 3d
       -0.08199888 0.023213042 0.18292819 0.100332364
000200 84 e9 0e 3f e9 74 15 bb 73 bc a0 bd 7d 3e 80 3e
       0.55825067 -0.002280528 -0.07848444 0.25047675
000210 ea 36 cc 3d 34 2f a0 bc 8b ce 1a 3e 4d 06 b3 bd
       0.099714115 -0.019553758 0.15117852 -0.08741436
000220 e5 72 d3 3e 29 a9 6d 3d 7c 73 a3 bc ba ac 27 3e
       0.41298595 0.05802265 -0.019952528 0.16374484
000230 61 e4 98 bd 77 b4 41 3d 84 ba 62 3e 9d ae a4 3d
       -0.07465435 0.047291245 0.22141463 0.08041117
000240 49 da 31 3d 65 a5 8e bc 66 1c 08 3f 59 0e 17 3e
       0.043421064 -0.01741285 0.5316833 0.14751567
000250 29 b8 8c 3d d1 73 80 3d ec fa 1f be 86 3e 6b 3d
       0.06871063 0.0627209 -0.15623063 0.057432674
000260 2c 48 20 bd 8f 42 73 3e ea 15 bd 3e 82 4c 4a 3e
       -0.03913133 0.23755859 0.36930782 0.19755748
000270 71 6a 34 bd 2d 6a 51 bc 1d bf 19 3d e8 3c 4f bd
       -0.044046823 -0.012781662 0.037535775 -0.050595194
000280 03 b4 c7 3d d9 2c d8 3d 57 f6 96 3d 17 46 df bc
       0.097511314 0.10555429 0.07371204 -0.027255101
000290 31 c2 1b 3d 5c f8 72 3e d5 23 de 3d dc 9f f3 bc
       0.038026992 0.23727554 0.10846678 -0.029739313
0002a0 27 6d c5 bc 50 53 3d 3e 05 22 27 3e d9 d4 16 3e
       -0.0240999 0.18488812 0.16321571 0.14729632
0002b0 a8 d7 e1 3d c7 07 62 bd ac a4 a8 3d 5d 21 98 3d
       0.11027461 -0.0551832 0.08234534 0.074282385
0002c0 63 88 54 3d 55 32 79 bd d4 af f2 bd 46 9b 85 3e
       0.05188788 -0.060839016 -0.11849943 0.26095027
0002d0 ca 19 a7 bd fc 6c 59 3c 80 06 93 3e ce 4d d0 bc
       -0.08159216 0.013270613 0.28715897 -0.025427725
0002e0 f2 a9 4d 3c 17 94 9e 3e 5b 36 56 3e b7 ba ff 3d
       0.012552725 0.3097236 0.20919172 0.12486785
0002f0 43 6c c3 3d 32 30 a0 3e 87 67 1a 3e 68 58 b7 3b
       0.09542134 0.3128677 0.15078555 0.0055952556
000300 e4 39 8d 3d c0 64 a4 bd 3f 05 8b 3e 8c fc 05 3e
       0.068958074 -0.08027029 0.2715244 0.1308462
000310 a1 3c 92 3e 5e ea 29 3e 0d 8c 9b 3d 5c ff e2 3d
       0.2856188 0.1659331 0.07595072 0.11083862
000320 11 96 84 bd 5c 1b 44 3d ef 69 eb 3d 31 1f 56 bc
       -0.064739354 0.047877654 0.114948146 -0.01306896
000330 90 2c e8 bd fe ba 11 3e 52 ad a2 3e a2 f3 29 3e
       -0.113366246 0.14231488 0.31772858 0.16596845
000340 8c fc 1a 3e c1 7d 9b bc c0 5a d3 bc 4e ee 8c 3e
       0.15135401 -0.018980863 -0.025800109 0.27525562
000350 ff af 31 bc f7 9d bf 3d 99 c4 e6 3d 94 38 f7 3c
       -0.010845183 0.09356301 0.11267967 0.030178346
000360 b6 c4 63 3d 82 0a af 3d 0e a3 7d 3c d8 a5 5c 3e
       0.05560752 0.08546926 0.01548077 0.2154764
000370 6b 03 91 bc 52 26 ab 3d 99 e1 23 bd a5 c5 02 3e
       -0.017701825 0.083569184 -0.04001007 0.12770708
000380 c2 20 de 3d 0b c8 44 3e 8b 5b 42 3e 97 a4 89 3e
       0.10846092 0.19216935 0.18980233 0.26883385
000390 a9 46 93 3e bf bb 77 3e 63 d7 91 bd 8c 7b a5 3e
       0.28764847 0.24192713 -0.0712116 0.3232082
0003a0 92 1e bb 3d dd 6c a3 3e 46 76 3b 3e 27 10 96 3e
       0.0913669 0.31918994 0.18306836 0.29309198
0003b0 ec e3 06 3e db 60 51 bd cd fe 65 bb a6 65 e3 3d
       0.13172883 -0.05111776 -0.00350945 0.11103372
0003c0 c3 c2 0c 3d be c5 79 be fa de ae bd 5f d2 ba bd
       0.034365427 -0.24391839 -0.08538623 -0.09122156
0003d0 de 3c a6 bd 3c 55 67 be 6e 29 39 be b3 e2 20 3f
       -0.08117078 -0.22591108 -0.1808221 0.62845916
0003e0 0e b4 95 bd 97 8c 23 be 7d 18 e5 3d 7c 73 cc be
       -0.07309733 -0.159716 0.111863114 -0.39931858
0003f0 e9 72 c6 be ea 78 c9 3d 3b c6 a3 be eb ed d1 bd
       -0.38759544 0.09837516 -0.31987175 -0.102504574

bias f4 [80]
000000 70 26 c2 bc 4b b8 43 3e e6 7d f9 3d 82 6f 64 be
       -0.023699969 0.19113271 0.12182216 -0.22308162
000010 28 77 67 3e 43 7b 1c 3e 2c 3c 4f be 15 8f a2 3e
       0.22604048 0.15281396 -0.20237797 0.31749788
000020 b0 67 4c be 17 0a 9f 3e c4 0c bb 3c 58 d6 4a be
       -0.19961429 0.31062385 0.022833236 -0.19808328
000030 89 97 c0 bb 8d 3e 38 3e 4b 21 9f be f2 e8 53 3e
       -0.0058774394 0.17992611 -0.31080088 0.2069433
000040 ec 88 8d 3d 1e 94 d1 bb 90 ed 64 be 2d 38 85 3e
       0.069108814 -0.006395831 -0.22356248 0.2601942
000050 a2 2a ce bc 54 9c c3 3d cc aa 93 3e 02 d1 7d 3e
       -0.025166813 0.095513016 0.28841245 0.24786761
000060 ec 18 10 be 66 01 63 be 34 fb af be 7b 9d 42 be
       -0.14072007 -0.22168502 -0.3437134 -0.19005387
000070 62 70 bd 3e e0 b5 e4 3d 4c e4 52 3d 22 9c 8c 3d
       0.36999804 0.111675024 0.051487252 0.068657175
000080 5c 86 6c bd 6a 57 97 be 2d 9e 77 3d 5f a0 56 3e
       -0.057745323 -0.2955888 0.060453583 0.20959614
000090 ab 54 52 be 9e 5f 3d be 08 46 56 be 34 38 6d be
       -0.20540111 -0.18493506 -0.20925152 -0.23165971
0000a0 0d cc 38 be e6 44 07 be 19 4c 8f 3e d7 80 1c be
       -0.18046589 -0.13209876 0.27987745 -0.15283523
0000b0 cf 2e ca bd c8 d4 d5 3c 3f fb d7 3d 6e f9 86 3e
       -0.09872209 0.026102439 0.10545968 0.26362175
0000c0 29 2f ae be 21 b7 8a 3e b1 31 c4 3d 6b d9 29 be
       -0.34020355 0.2709284 0.095797904 -0.16586845
0000d0 a7 2c 9a 3e 0a 2a 20 be 93 14 b6 3e af 5a 00 bf
       0.30112192 -0.15641037 0.35562572 -0.5013837
0000e0 da 89 5f be 06 97 3f 3e 4d be fb be 87 93 86 be
       -0.2182993 0.18709955 -0.49168625 -0.2628443
0000f0 f8 5b 83 be b8 fd 01 3d ca 2a ba be 7d 63 4d 3e
       -0.25656104 0.031736106 -0.3636077 0.20057483
000100 c7 2e 81 be 85 ff 47 be 28 40 4f 3e 89 27 1c be
       -0.25231 -0.19531067 0.20239317 -0.15249456
000110 2c 41 9e bd ce 8a f1 bd c3 3c 95 3e 78 eb 20 be
       -0.07727274 -0.11794053 0.2914792 -0.15714824
000120 f1 d1 77 be 8f 5b 27 be ab 15 88 be f1 bf d2 bd
       -0.2420118 -0.1634352 -0.2657903 -0.10290516
000130 87 24 9b 3e 1b cb 4c 3e f5 8c 89 3e 02 a1 66 3e
       0.30301306 0.19999354 0.26865354 0.22522357

weight f4 [1, 80]
000000 a9 a3 a4 3c 8b ab eb bd 6f 12 01 3d 7e 9b bc be
       0.02009757 -0.115073286 0.03151172 -0.3683738
000010 6c 76 a5 3c 3d 4d ce 3d ed 9b c3 be 6c 49 81 3e
       0.02019807 0.10073326 -0.382049 0.2525133
000020 69 5e e4 bc 7e 0e 12 3e c9 d8 40 be b4 c4 ca be
       -0.02787705 0.14263341 -0.18832697 -0.39603198
000030 77 d2 0b 3f 17 52 04 3e 25 6b 5a 3d 2b b2 0a be
       0.5461802 0.1292194 0.053324837 -0.13544528
000040 48 53 3f 3f a3 0d c7 be a2 42 d4 bc fd 06 31 3e
       0.7473645 -0.38877591 -0.02591068 0.17287822
000050 3e 69 36 be e7 42 cb 3e 1f b6 e6 3d 3a 84 b3 3e
       -0.17813584 0.3969948 0.112652056 0.35061818
000060 cf 64 b2 be cd bb 96 bd ef f5 b0 be 9a 46 0a be
       -0.34842536 -0.07360039 -0.34562632 -0.13503495
000070 f7 53 c1 3e e7 58 bf 3e fd 54 9a 3e eb 0a fe bd
       0.37759373 0.37372515 0.30142966 -0.12404426
000080 b5 9d db bd 8f e2 f8 bc 8d 6c 0e bd 4e bb 2f 3c
       -0.107234396 -0.030381469 -0.03477149 0.010725809
000090 36 93 f5 3d fd 88 15 be e1 12 9d bd 20 f8 fd be
       0.11990969 -0.14603038 -0.076696165 -0.49603367
0000a0 d5 d6 15 be b9 4d 31 3d c5 86 2b 3d 46 5b 3a bb
       -0.14632733 0.043287013 0.041876573 -0.002843575
0000b0 e4 8e de be bc 8a 1b ba 2c 60 8b 3e d6 10 48 3d
       -0.43468392 -0.0005933454 0.2722181 0.04884418
0000c0 ef d9 1c 3e ed 56 f6 3d 4b e5 66 3e 45 6e 85 bd
       0.1531751 0.120282985 0.22548406 -0.06515173
0000d0 0a a7 4a 3e 46 a6 72 be d5 5b a5 3e be 9e 87 be
       0.19790283 -0.23696241 0.32296625 -0.26488298
0000e0 d2 b3 51 be 9d 23 8f 3d ce cc 94 be 0d 72 95 bd
       -0.20478752 0.069892146 -0.29062504 -0.07297144
0000f0 19 7a 6c be ea 53 55 3e 9e 74 34 be 5b e7 37 3e
       -0.23093452 0.20832792 -0.17622611 0.17959349
000100 32 18 03 bd 67 39 b8 3e 13 c5 8c bf a5 66 22 3d
       -0.032005496 0.35981295 -1.0997642 0.03964867
000110 07 0d 07 be 4e 78 c6 3d 74 b1 9a 3c 34 7d de 3d
       -0.13188563 0.09690915 0.018883444 0.10863724
000120 d1 0b 58 3c b1 2c 79 3f 44 9d 2e bd f6 47 70 3e
       0.013186411 0.9733382 -0.04263045 0.23464951
000130 cc bf 7f 3e ca af 75 bd ca 22 2d 3d 79 41 72 3d
       0.24975508 -0.0599821 0.042269506 0.05914447
