[Fly gene Models]/Fly_Gene_Model_SG_40_40x2_.pt (torch, 94887 bytes, 41 tensors)

weight f4 [40, 2]
000000 64 29 ca bf 87 5f 3c bf 63 0d 3d 3e ff d7 2d 3f
       -1.5793881 -0.73583263 0.18462138 0.6790771
000010 b9 8f 0e c0 0e f8 53 3f 88 c9 00 40 ce 7b b9 3d
       -2.2275221 0.82800376 2.0123005 0.09056817
000020 be 95 10 3f d6 e4 1d bf 38 0f fd bf 4a b6 84 3f
       0.5647849 -0.616773 -1.9770269 1.036813
000030 04 9c af 3e d2 64 88 3e 1c 06 a2 be 8b 9c 15 bf
       0.34298718 0.2663942 -0.31645286 -0.5844199
000040 89 e8 86 bd ce 18 96 3e 8e 80 9f be 02 52 6c 3f
       -0.06587321 0.293158 -0.31152767 0.92312634
000050 3a be ea bf 29 9a b2 bf 1c 9c cf bf d6 77 a0 3f
       -1.8339303 -1.3953296 -1.6219516 1.2536571
000060 71 fe 54 bf b4 1b ab 3f 31 36 fd bf aa 89 24 3f
       -0.83200747 1.3367829 -1.9782163 0.6427256
000070 9d 30 a8 3f db 44 6c bf 93 56 cd 3f eb ad 7d 3f
       1.3139836 -0.92292565 1.6042045 0.990935
000080 1c f1 30 bf 8f af 11 3f f3 97 ee bc 62 ee a0 3f
       -0.69117904 0.56908506 -0.02912519 1.2572749
000090 f0 d8 57 3d 3d 6c bd 3f 81 4b 55 bf 8a be 5c 3f
       0.052697122 1.4798657 -0.83318335 0.8622824
0000a0 75 9a 5d 3f d6 7e b7 3f 6e fd 0d c0 a7 30 3b 3e
       0.8656381 1.4335582 -2.2185931 0.18280278
0000b0 c2 ac 66 3f 61 b5 91 3f 93 65 00 3f e6 df 85 3f
       0.9010736 1.1383477 0.5015499 1.0458953
0000c0 6f e2 3a bf 18 af e8 be 83 d0 16 c0 38 18 7f 3e
       -0.7300176 -0.45446086 -2.3564765 0.24911582
0000d0 c8 d2 1d 3f cb a7 58 3f d7 5f e2 bf 32 f0 71 3e
       0.6164975 0.8463103 -1.7685498 0.23626783
0000e0 75 52 b1 3f 47 e3 c1 bf 54 1a 20 3f b2 1e 4d bf
       1.3853289 -1.5147485 0.62540174 -0.8012496
0000f0 ee 14 0b 40 ef 48 7e 3e 35 62 e3 3d 8c bb b1 3f
       2.1731524 0.2483251 0.11102716 1.388536
000100 2c 4b b3 bf 8c b5 ad bf 3e f5 bc 3e d3 83 81 bd
       -1.4007316 -1.3571029 0.36905855 -0.063239716
000110 0d c3 e3 3f 56 54 8d 3d 68 0f c4 bf a8 4f 9f bf
       1.77939 0.069008514 -1.5317202 -1.2446184
000120 3a 8e 2e 3e 89 18 6e bf 71 6f 26 3f 17 2d 5e bf
       0.17046443 -0.9300619 0.65013796 -0.8678755
000130 19 b8 83 3e eb 68 2b 3f 93 ec c2 3e 7c 49 f2 3f
       0.25726393 0.6695697 0.38071117 1.8928676

bias f4 [40]
000000 5c 41 06 3e b9 06 4e be bd 38 20 3e 07 6a 43 be
       0.1311087 -0.20119752 0.15646644 -0.19083415
000010 0f cd d4 3d 95 60 20 bf 3c d1 40 3f d0 b4 12 bf
       0.10390674 -0.6264737 0.75319266 -0.5730715
000020 93 5d 0c 3f 81 fe 1b 3f c3 30 87 bf 98 5b b0 3d
       0.5483028 0.6093522 -1.0561756 0.0861122
000030 32 55 84 be 0e a8 28 bf 42 61 a3 bd c1 ec 41 be
       -0.2584625 -0.6588143 -0.07977535 -0.1893797
000040 a7 e2 fd 3e 2b a9 37 3e e3 74 53 be aa e6 30 3f
       0.49586985 0.17935626 -0.20650057 0.69101965
000050 78 f2 f4 bd 4a 81 d1 be 5f cb 0d 3f 39 f7 4b bd
       -0.1196031 -0.40918952 0.55388445 -0.049796317
000060 91 8d 2b 3f 3c ba 4b 3c 13 3a 0b 3f b8 a4 a9 3d
       0.6701289 0.012434538 0.5438549 0.08283371
000070 6b ba 90 bf 4c 74 12 3e 50 5b 42 3e 7d e3 9f be
       -1.130689 0.14302176 0.18980145 -0.31228247
000080 59 71 54 3e 40 7a ae be e4 31 a3 3e 89 89 2a 3e
       0.20746364 -0.34077644 0.31874 0.16654028
000090 17 5e 06 be b0 ee 68 3c 8b 02 1a 3f 33 81 a8 be
       -0.1312183 0.014217064 0.6016013 -0.3291107

weight f4 [40, 40]
000000 3a a0 db 3e 49 40 5e 3d 2a d5 eb 3d f9 d0 bd be
       0.4289568 0.054260526 0.11515267 -0.37073496
000010 57 1a 06 3e f3 fb 51 3d 42 e5 b8 3d 82 da 4f be
       0.13095985 0.051265668 0.090281025 -0.20298198
000020 64 44 ee 3c 77 5e ff bc 5e 7d 32 be 34 ed f5 3d
       0.029085346 -0.031172974 -0.17430636 0.120081335
000030 cd 45 ef bd 3f e8 ff 3d 23 1d ce 3c 78 d1 f4 be
       -0.11683235 0.12495469 0.025160378 -0.47816062
000040 7b 83 8d 3d c1 05 75 be 08 1d 8f be 2b 74 49 3d
       0.069098435 -0.23927976 -0.27951837 0.049183052
000050 19 ea eb be 61 61 58 be a6 8a 0f be c1 e7 96 be
       -0.4607704 -0.21130897 -0.14017734 -0.2947369
000060 de 33 ee 3d f5 12 b1 3d f1 92 5b bd 70 fc 03 3e
       0.11630987 0.08646194 -0.05360693 0.12889266
000070 05 86 1d be 8d 30 1b 3e 8d 6d 0d bd c0 2e b3 be
       -0.15383156 0.1515524 -0.034528304 -0.34996605
000080 82 e9 91 3e 36 ab 32 be db 46 8b 3d b8 5e 87 3e
       0.28498465 -0.17448124 0.06800624 0.26439452
000090 ee fb c4 3d ba 58 96 3d 2a 8a 35 bc f8 a5 96 be
       0.09618364 0.07341142 -0.011080304 -0.294235
0000a0 5e cf bf 3b ae 89 6e bd a0 91 21 be 09 0c 14 be
       0.0058535775 -0.05823677 -0.15778208 -0.14457716
0000b0 29 2f aa bc 27 4f 0d 3e c1 36 9c 3b a5 27 5e 3d
       -0.02077444 0.13799725 0.0047672694 0.054237027
0000c0 72 f9 d9 3c 98 48 5b 3c 3e ee 19 be ef f9 78 bc
       0.026608203 0.013384007 -0.15032288 -0.015196308
0000d0 17 78 12 be 27 b2 40 bd 5e ad 00 be 1c 05 80 bd
       -0.14303623 -0.0470449 -0.12566134 -0.062509745
0000e0 b2 9b e1 3d a1 40 19 be cf dc 8c bd 18 e4 2e bc
       0.11016025 -0.1496606 -0.068780534 -0.010674499
0000f0 7a d0 d7 bd 1c 67 25 3e 8a ac b0 bd 1d 34 e8 bd
       -0.105378106 0.16152614 -0.08626659 -0.11338065
000100 7c 0a 1b be c9 22 07 3d aa 3d 3b be 3c c0 2f be
       -0.15140718 0.032992158 -0.18285242 -0.17163175
000110 88 84 51 3d 61 81 33 be 30 b9 74 3d 15 5a 08 3c
       0.051151782 -0.17529823 0.05974692 0.0083222585
000120 f8 85 7e 3e 3b c4 29 be c1 f0 59 be e4 1f 95 3d
       0.24855793 -0.16578762 -0.21283247 0.07281473
000130 be 48 08 3d 8c e2 9d bd e0 d6 23 be a5 6d af 3d
       0.033272497 -0.07709226 -0.15999937 0.08565835
000140 85 b4 2e 3e 89 a9 94 bc bd 8f 23 3f 0f 62 0b bf
       0.1706105 -0.018147247 0.638912 -0.544465
000150 4a 45 cc be ce b4 39 be 2c c3 b2 bc e6 06 1c be
       -0.39896613 -0.18135378 -0.02182158 -0.15237007
000160 2c 98 12 3d c9 67 16 3e b1 5d a5 3c 9f 92 ed 3e
       0.035789654 0.14688028 0.020186277 0.46400926
000170 e8 8d b2 bd 32 0e 0c 3c 98 06 59 bf c0 46 81 be
       -0.08718473 0.008548306 -0.84775686 -0.2524929
000180 67 d0 1f 3e 32 6c 06 3f 8e c5 cc 3c 36 de 68 3e
       0.15606843 0.5250884 0.024996545 0.22741017
000190 1b 94 2b be 69 de 2c 3b a7 1f 06 3e 9b c8 f8 3d
       -0.16755717 0.0026377684 0.13098012 0.121476375
0001a0 c7 85 30 3e dc a0 bd 3e b9 22 8c 3b 4b f0 fc 3e
       0.17238532 0.37036788 0.0042766 0.4940208
0001b0 bf 01 f3 be 60 fe a2 be 67 df a5 be db 8d b1 3d
       -0.4746227 -0.31834698 -0.32397005 0.08669635
0001c0 70 80 59 be 9c 2c 19 be 08 4d ad be 63 b3 f0 bd
       -0.21240401 -0.14958423 -0.33847833 -0.11752965
0001d0 a0 e4 c5 be 82 e7 15 bf 47 9e 92 3d bd 99 02 be
       -0.3865099 -0.5855638 0.07159095 -0.12753959
0001e0 82 f9 09 bf 21 63 2c bd 9e 5d 82 bf e5 8d 0c 3f
       -0.53896344 -0.042086724 -1.018482 0.54904014
0001f0 81 54 ae 3c 56 c5 8c be 28 ce c1 bd 98 7b 22 bd
       0.021280529 -0.27494305 -0.09463149 -0.03966865
000200 fe ce 46 be 88 46 00 be 02 1e 47 bd ac 35 4e bf
       -0.19414899 -0.12526906 -0.048612602 -0.80550647
000210 7c b3 84 be 5f 47 2e be e7 fb c8 3e 85 15 b2 3e
       -0.25918186 -0.17019413 0.39254686 0.34782043
000220 b8 80 90 be ca 59 d5 be bb ed 90 3c b1 6f 0e bf
       -0.28223205 -0.41670066 0.017691484 -0.5563918
000230 66 5a a0 3d 37 35 bd be 38 a3 82 bd be 53 bf bd
       0.07829742 -0.36954662 -0.06378788 -0.093421444
000240 94 66 fa 3a c4 a9 19 bf ec 14 f3 3d 85 c7 e9 be
       0.0019104057 -0.60024667 0.11869225 -0.45660034
000250 08 ac 60 3e 86 88 30 bd ff 24 57 3e c6 c1 fa bb
       0.21940625 -0.04309895 0.21010207 -0.007652494
000260 08 50 c0 3c f2 d7 96 bc 92 81 74 3e fe 6b c5 bd
       0.023475662 -0.018413518 0.23877552 -0.096397385
000270 31 b9 57 3e c4 35 34 3e 2a e0 b6 3d 9d 3f 7d 3d
       0.21066739 0.17598635 0.08929475 0.061828244
000280 89 7a 0c be b8 5a cd 3d d5 3d 46 bf b3 d1 1f 3d
       -0.13718618 0.10027069 -0.774381 0.039018344
000290 cd 3c 0c 3e 6e cb 0b be 5e 69 82 3d c8 4d 25 3e
       0.13695069 -0.13651821 0.063677534 0.16142952
0002a0 cd f3 1e 3d 88 a4 50 bd 19 cb 18 be bb 83 01 bf
       0.038806725 -0.05093816 -0.14921226 -0.5059163
0002b0 2d 7f c5 bd 1f 7e 10 be ef 9a b3 3e 6e 01 1c 3e
       -0.096433975 -0.14110611 0.35079142 0.1523492
0002c0 91 fa 9b bd f4 5e eb be 6d 6a df 3c ac a1 33 be
       -0.07616151 -0.4597088 0.027272427 -0.17542142
0002d0 50 66 aa bd 26 5d ac be ce 0f 1c 3e 47 7d a8 bd
       -0.08320296 -0.33664817 0.15240404 -0.0822702
0002e0 e5 0f 22 bd 12 1e 07 bf bd 26 6c bd 71 1a e7 be
       -0.03956594 -0.5278026 -0.05765413 -0.4513736
0002f0 df a9 40 be a3 76 4f 3e 53 60 62 3d 6b 51 03 3e
       -0.188148 0.202601 0.055267643 0.12824027
000300 1c 16 a9 bd a6 c0 2b 3e 04 9b 10 3e 6e b3 d0 3d
       -0.0825617 0.16772708 0.14121634 0.101904735
000310 56 19 27 3e be c8 bb bc d3 40 14 be eb 05 42 3d
       0.16318259 -0.02292287 -0.14477853 0.047368925
000320 3b 74 5e 3f b3 a5 4c 3e 14 41 63 3e a6 a4 39 bf
       0.86896104 0.19985084 0.22192794 -0.7251686
000330 eb 23 a8 be 51 88 5c 3e ce 61 a7 be 62 ad ae 3e
       -0.32839903 0.21536376 -0.32691807 0.34116656
000340 45 48 33 be 54 94 f5 bd 21 0a d1 3e e3 77 33 3e
       -0.17508037 -0.11991182 0.4082804 0.17526202
000350 9b 23 3f 3e 6b d3 89 3e 62 33 c1 be 67 52 7e be
       0.18665926 0.26919112 -0.37734514 -0.24836121
000360 46 08 a3 bc 9b d9 c2 3c f4 d0 25 3d d6 c7 92 3b
       -0.019901406 0.023785403 0.040482476 0.0044793887
000370 46 40 15 bf ac 53 25 3f e4 57 b0 be 94 c0 fd be
       -0.583012 0.645808 -0.34442055 -0.49560988
000380 2d 86 2b bd 62 90 e3 3e 9e 93 06 bf 74 02 9d 3e
       -0.041876007 0.44446093 -0.52568996 0.30665934
000390 15 6d 08 bd a2 63 23 be 30 58 85 bf 02 18 5f 3d
       -0.033307154 -0.15955976 -1.0417538 0.054466255
0003a0 51 bf 15 3f 5b bb 85 3e d6 0f 53 bf 74 f1 31 3f
       0.5849505 0.26119503 -0.8244604 0.69509053
0003b0 2a 3a 1a 3e 8e 41 98 be 00 56 4f be a5 14 68 3d
       0.1506125 -0.29737514 -0.2024765 0.056660313
0003c0 82 cb 5a bf a5 af 84 39 63 34 fa be 0d 1e 49 3f
       -0.8546678 0.00025307867 -0.48868093 0.7856148
0003d0 fc 3c 8d 3e eb 49 40 3d 7f 31 ee bd fd 70 13 3e
       0.2758559 0.046945494 -0.116305344 0.1439857
0003e0 08 6f e6 bc 17 d6 0d bd 13 82 b0 bd 0f a8 87 be
       -0.028129116 -0.034628 -0.0861856 -0.26495406
0003f0 aa b6 53 3e ec 10 0b 3d ae a9 a0 3e a6 f3 42 3e
       0.2067515 0.033951685 0.31379455 0.19038257

bias f4 [40]
000000 40 07 b8 bc b8 12 8b 3d 4a 9c 06 3e 31 af a7 3d
       -0.022464395 0.0679068 0.13145557 0.08187712
000010 8a 35 6e 3d 8d 0f 84 be 7e 03 65 be a7 d4 69 be
       0.058156528 -0.25793114 -0.22364613 -0.22835027
000020 33 ea 9d 3c 70 f6 c3 3d 68 42 2f be ce dc ea bd
       0.019276714 0.095684886 -0.17115176 -0.114678964
000030 18 d7 a7 bd 9f 14 f1 3d 15 ca 40 bd 2d 64 58 bf
       -0.08195323 0.11771511 -0.04706772 -0.84527856
000040 2a 87 2a 3c 5e e1 9a bc 72 57 d1 3d e0 a5 0b be
       0.010408202 -0.018906292 0.10221757 -0.13637495
000050 03 7f a6 bd f7 88 cd bd 6c cd 33 3d 25 96 02 bd
       -0.08129694 -0.100358896 0.043897077 -0.03188147
000060 cf e0 a8 be a4 80 06 3e 07 b2 3e be d0 59 03 be
       -0.32984015 0.1313501 -0.186226 -0.1282723
000070 04 6b 90 3d 46 5a aa bd bb ff b5 3d 8d d7 46 bf
       0.070516616 -0.083179995 0.08886667 -0.77672654
000080 45 a8 41 bc 5f dc 12 bf 21 0b 25 be 1d 77 94 3d
       -0.011819904 -0.5736751 -0.16117527 0.072492816
000090 87 83 bc bd d3 7f 33 ba fc 29 64 be fb 7e 3a be
       -0.09204774 -0.00068473554 -0.22281641 -0.18212502

weight f4 [4, 40]
000000 67 3f f3 3c 38 f8 87 3c c0 ee 62 3d 6f 8c 11 be
       0.029693319 0.016597852 0.05540347 -0.14213727
000010 5f ea ab bd 9a 37 51 3e f4 23 b3 3c 62 a5 0c bf
       -0.08394312 0.20431367 0.02186773 -0.54939854
000020 9d 82 a5 3d f6 09 c9 bc c8 56 8d be 28 ae c1 3d
       0.08081553 -0.024540883 -0.2760527 0.09457046
000030 79 05 3a bd 8c 43 9f 3d fe d4 8c b9 53 84 78 be
       -0.045415375 0.077765554 -0.00026861572 -0.24269228
000040 25 dc 33 3c 9b 5e 72 3a 8c e9 0f bb 4b 12 2a bc
       0.0109777795 0.00092456647 -0.0021959273 -0.010380338
000050 b2 0c 2f bb 7d b4 1c bd 80 8c e6 3d e3 27 40 3e
       -0.0026710448 -0.038258065 0.11257267 0.18765216
000060 30 5e 97 3b b2 41 d6 3a eb 31 52 bd ca bf 19 3e
       0.0046193823 0.0016346483 -0.051317137 0.15014568
000070 e6 a6 a1 3d 72 4b 21 3e 11 be 4d ba 3d a7 b6 3f
       0.078931615 0.15751436 -0.00078484515 1.4269787
000080 c2 91 2e 3b ff 25 a8 3e e9 d5 dd 3d c0 08 17 bb
       0.0026637171 0.3284149 0.10831816 -0.0023045987
000090 4d b5 90 ba 08 3e 95 3e 88 0b de bd 3a fe 28 3e
       -0.001104036 0.2914889 -0.10842043 0.1650323
0000a0 1c bb 02 3e 46 d4 c0 bc e1 37 b3 be 77 93 96 3e
       0.12766689 -0.02353872 -0.3500357 0.29409382
0000b0 ad c7 e1 3d 6b 26 38 be c0 62 08 be a3 7c 95 be
       0.11024413 -0.17983405 -0.1331892 -0.29196653
0000c0 83 b8 2b 3e 4f e3 12 ba 84 9c a8 bd 9f df 2e 3f
       0.16769604 -0.00056033296 -0.08232978 0.6830997
0000d0 94 3b 8f 3c 40 9e 84 3e 34 56 a2 3b 55 36 e9 3d
       0.017484464 0.25901985 0.004954124 0.11387316
0000e0 a7 0d 87 be fd da ed bb 51 d4 cf ba 52 c4 a5 be
       -0.26377603 -0.0072587715 -0.0015856122 -0.32376343
0000f0 21 52 86 bb 54 a9 af bb eb 9b 39 bc d4 1e c4 3e
       -0.004099146 -0.0053607617 -0.011328678 0.3830477
000100 a1 40 cd 3d 57 2e c6 bc 98 81 93 be a0 a6 86 be
       0.100220926 -0.024192018 -0.2880981 -0.26299
000110 9e 55 b3 3d ab 73 da 3c 13 8c 3c bb 92 00 1b 3d
       0.087565646 0.026666483 -0.0028770014 0.03784234
000120 b8 e0 3e ba 4f b3 7e bf 6d 75 25 3e 0d c3 e9 bb
       -0.00072814105 -0.99492353 0.16158076 -0.0071338476
000130 6a db de b9 40 8d 6f be ac 04 a7 3b 27 71 3f be
       -0.00042506616 -0.23393726 0.0050969925 -0.18695508
000140 fc f1 43 3e fc 9d fa bd 58 cd 45 3c 01 ad d8 bd
       0.19135278 -0.122371644 0.012072884 -0.10579873
000150 c7 07 95 bd bd 82 06 3d d7 a7 07 be fd e3 73 3e
       -0.07276874 0.032839525 -0.1324762 0.2381744
000160 6c 29 f8 3e 9d d5 06 3d 23 fc 8f be c7 fd b2 be
       0.48469102 0.03291856 -0.28122053 -0.34959242
000170 62 43 48 3d 57 46 8c be 68 cf 0a 3c f1 82 44 3d
       0.048892386 -0.27397415 0.008472301 0.047976438
000180 f7 b0 71 3d 23 26 6e bc a3 a2 02 bb d0 38 29 3d
       0.059006657 -0.01453546 -0.0019933365 0.041313946
000190 01 b8 70 bb 9a 8c 33 3d 24 7d e3 be 33 d5 2f be
       -0.0036730769 0.04383526 -0.44431412 -0.17171173
0001a0 8b d7 fe 3d 8e b9 18 bd f4 68 1a bd cf 21 76 3e
       0.12443455 -0.037286334 -0.037697747 0.24036334
0001b0 a9 34 15 3f 67 42 2f 3d 93 85 1d bb a3 7d 75 3f
       0.5828348 0.042787936 -0.0024035915 0.9589483
0001c0 cc 68 2a bb c6 3f f9 3e 94 24 c6 3d 99 75 7b bc
       -0.0026002405 0.48681468 0.096749455 -0.015347862
0001d0 b9 0d 0a 3a e6 c3 e9 3e c8 7a 1d be df 9c d4 3e
       0.0005266327 0.4565727 -0.15378869 0.41525933
0001e0 5d df a5 3c 6b ae 9f bd 3d f0 c4 bb 18 14 37 3e
       0.02024811 -0.077969395 -0.006010084 0.17878759
0001f0 42 45 7e be 8f fa 16 be e8 fb 97 3e 44 f4 b4 3e
       -0.24831107 -0.14744018 0.29684377 0.3534261
000200 b6 fe 00 3e 3d 61 17 3d 23 f5 09 3f 59 09 36 be
       0.12597165 0.036957968 0.53889674 -0.17777003
000210 62 83 c0 3d ce 24 f2 3e 85 1a e8 3b 36 04 0d 3f
       0.09400059 0.47293705 0.0070832395 0.5508455
000220 fc 52 b4 bc 07 b5 49 bc 64 46 97 3a 98 4e 0b be
       -0.022012226 -0.012311227 0.0011541364 -0.136042
000230 c0 21 ed ba c5 ab a4 3c aa 2f 25 3e d5 c2 80 be
       -0.0018091723 0.020101437 0.16131464 -0.25148645
000240 f8 b6 c6 bd c3 d4 3b bd 20 ec 5b bf 1a f3 73 3b
       -0.09702867 -0.045857202 -0.85907173 0.0037223757
000250 7d 66 6a be 41 d1 36 bd 4c 64 df ba aa 68 09 3f
       -0.22890659 -0.044633154 -0.0017043441 0.5367533
000260 de 70 a3 bb 0f aa 2e be fc c6 78 bd 87 1e db bb
       -0.00498782 -0.1705706 -0.06073664 -0.0066869888
000270 84 f2 78 3a 5c 61 10 be ae 15 2a be 99 c4 a9 bc
       0.0009496587 -0.1409964 -0.16609833 -0.020723628

bias f4 [4]
000000 3b 27 6e bd 80 86 ea 3d f0 42 2d 3d a0 02 5d 3e
       -0.05814288 0.11451435 0.042300165 0.21583033

weight f4 [40, 2]
000000 2d 65 ed be 7a 0a 5a 3d b9 11 1f 3f b8 51 ac be
       -0.46366253 0.053232647 0.6213642 -0.33656096
000010 00 93 df be 38 1d cb bf 47 9d 9b 3f 57 a8 13 bf
       -0.4366684 -1.5868292 1.2157372 -0.5767874
000020 be de 76 c0 e5 71 8d bf bf e8 56 3f 2e 64 59 bf
       -3.857345 -1.1050383 0.8394889 -0.8491849
000030 94 83 14 bf 01 d7 42 be b6 ef 28 3e 38 d4 33 3f
       -0.5801327 -0.1902733 0.16497692 0.70245695
000040 49 7b 5c bf 69 b5 04 3f 37 25 20 3f d4 30 df be
       -0.8612562 0.5183931 0.62556785 -0.4359194
000050 73 68 a1 3f 4d 06 97 bf c3 ae 80 3f cd 88 01 3e
       1.261 -1.1798798 1.0053333 0.12649842
000060 5d af bf 3e aa d1 f3 3e 8a 75 9b 3e d8 a7 cd be
       0.3743848 0.47620898 0.30363113 -0.40167117
000070 80 da 9f be 12 83 bb bf 9f 2d ac 3f 64 03 7e 3e
       -0.3122139 -1.4649374 1.3451422 0.24805981
000080 16 b4 a3 3e 8d a2 58 bf 16 4e af 3f 2e a1 8e bf
       0.31973332 -0.8462303 1.3695705 -1.1142938
000090 8e 91 dc 3e 3a 40 d3 3f be 47 91 3f 4a 5a 17 3e
       0.430798 1.6503975 1.1350019 0.14780536
0000a0 3a c3 b7 be 4d c8 25 3f a6 e0 67 bf a6 b3 42 bf
       -0.35891134 0.6475876 -0.9057716 -0.7605537
0000b0 36 80 0e be ea f4 29 bf ec d3 a9 bf dc a8 7d bf
       -0.13916096 -0.66389334 -1.3267798 -0.99085784
0000c0 e8 e0 1e bf ca e0 8e bf ec 04 0c bf 6b 46 79 bf
       -0.6206193 -1.116235 -0.5469501 -0.97373074
0000d0 14 4b 21 bf c9 c1 f1 be b3 dd 29 bf 08 39 56 3f
       -0.63005185 -0.4721816 -0.6635391 0.8368077
0000e0 a7 d5 2f c0 34 c2 70 3f 5b 0a 7a bf c3 27 59 3f
       -2.7474153 0.9404633 -0.9767205 0.84826297
0000f0 ae fb 43 3e 7d 31 69 3e dd 7b 1c bf 38 a4 b4 be
       0.19138977 0.22772785 -0.611265 -0.3528154
000100 3f 19 e1 3e ec 9f 5e 3e 7c 0c 5b 3d 22 13 1c bf
       0.43964574 0.21740693 0.053478703 -0.60966694
000110 1f f5 ab be 74 10 2b 3f 7c e4 d6 bf 92 82 25 bf
       -0.3358545 0.6682198 -1.6788478 -0.6465236
000120 af 22 ae 3e e7 81 df 3f a8 23 f7 be 13 1c 1e bf
       0.34010836 1.7461518 -0.4826939 -0.6176159
000130 6a 19 13 3f 01 ea 57 bd b1 3e 2b bf e6 45 f3 3c
       0.57460654 -0.052713398 -0.66892534 0.029696416

bias f4 [40]
000000 10 e2 19 bf d9 f7 22 bf b7 80 63 be 82 37 01 3f
       -0.6011057 -0.63659436 -0.2221707 0.50475323
000010 99 0e 30 3d 49 b9 73 3e da de 2a bf 08 14 16 bf
       0.04298267 0.2380115 -0.66746294 -0.58624315
000020 b7 05 25 3f ff cc d7 3e 5d 04 8f 3e 36 6a 0a bd
       0.64461845 0.42148587 0.27933016 -0.033792697
000030 cd c6 d6 be d8 2d da be b0 6d 2c bc c1 da 69 bc
       -0.41948548 -0.426131 -0.010524198 -0.014273346
000040 d1 af 08 3f fe 39 fc 3e ed 1c c7 bd 39 eb f6 3e
       0.53393275 0.49262995 -0.09722314 0.48226336
000050 ed d5 02 bf c7 20 5a 3f 48 4e 16 bf 1a c6 14 3d
       -0.51107675 0.85206264 -0.587132 0.036321737
000060 2e f5 4e be 4c fa 45 3f eb 80 04 bf e7 28 dc 3e
       -0.20210716 0.7733505 -0.51759213 0.42999956
000070 bb 8a 77 be 57 77 51 3f 85 06 21 bf 3e 09 9d be
       -0.24174015 0.81822723 -0.62900573 -0.30671114
000080 19 82 f6 be f3 44 33 bf fb fb fd be ba 0e ff bd
       -0.48146132 -0.70027083 -0.49606308 -0.12453981
000090 8e 1e e2 bd a7 2f 2f 3f bc d9 f0 be 1d 46 ed 3e
       -0.11040984 0.68432087 -0.47041118 0.46342555

weight f4 [40, 40]
000000 44 79 83 bd be 8a 19 3e 0f 39 05 3f fd f4 36 3e
       -0.06419614 0.14994332 0.5204019 0.17866893
000010 53 54 be bd 4c b5 0d 3e 36 2e 93 bd c9 12 bc 3b
       -0.09293427 0.1383869 -0.071865484 0.005739544
000020 ac 5b cb 3e e4 22 6c 3e e5 09 50 3e 72 65 47 be
       0.39718378 0.23060185 0.20316274 -0.19472292
000030 b8 30 08 be 7b 8a 6a 3c 2e 6b 04 3f 1e 21 04 3d
       -0.13299835 0.014315243 0.51726043 0.032258146
000040 0f cd a8 3e 3a 08 08 3e c4 af 69 3f d3 fd a8 3e
       0.32968947 0.13284388 0.9128382 0.33006153
000050 a5 a8 90 bd ec c7 e1 3e f8 23 b4 3c 57 eb 82 bd
       -0.070634164 0.4409784 0.021989807 -0.06392544
000060 2d 96 dd 3e e2 07 c4 3e 2f 89 6b bd 16 4a f4 3e
       0.43278638 0.38287264 -0.057503875 0.47712773
000070 38 84 83 be cb d0 52 3e 6f a3 18 3d b7 c0 0b 3e
       -0.25686812 0.2058746 0.037265237 0.13647734
000080 f3 34 21 bd 2a b9 03 3d 06 47 00 3e 63 1f 33 bd
       -0.039357137 0.032159008 0.12527093 -0.043731105
000090 66 2c 98 3f 2e f7 be 3e 12 ce 1b be 63 b3 bc 3e
       1.1888549 0.37297958 -0.15215328 0.3685561
0000a0 55 6f 3e bc 75 9a 6b bd 4b 43 5b 3f fb 83 e3 3d
       -0.011623223 -0.05752035 0.85649556 0.11109158
0000b0 6c f2 cc 3e 2a dc 1a 3f 3e 17 89 bd 92 dc d0 3d
       0.40028703 0.60492194 -0.06693886 0.101983204
0000c0 b3 f9 55 bf ec 49 35 be 3d 3f 99 3e 4c 2d 8c 3e
       -0.83584136 -0.1770398 0.2993106 0.2737831
0000d0 a5 70 b4 bd 1e d7 d2 bd 31 56 34 3e 29 2a 0c be
       -0.08810548 -0.102949366 0.17611004 -0.13687958
0000e0 ee ec a6 3e d2 40 a8 3e 7e 12 55 bf f8 ef 4b be
       0.32602638 0.32861954 -0.8323134 -0.1991576
0000f0 df 21 80 3c 83 22 82 bd 35 5c 95 3c 64 62 7c 3d
       0.015641151 -0.06354239 0.018232444 0.06161727
000100 b1 af 36 3e 68 b7 2d 3d 2f b4 50 3c 43 f5 de bf
       0.17840458 0.042411238 0.012738272 -1.7418598
000110 b9 97 25 3e 97 d7 87 bf 96 28 0c be b2 c6 11 be
       0.16171159 -1.0612668 -0.13687357 -0.14235952
000120 9b d2 d4 3c 37 d3 9d bd 24 87 fa bd e7 af ae 3d
       0.02597933 -0.07706302 -0.12232807 0.085296445
000130 d1 29 67 bf cf 10 85 3d 97 69 97 3d b3 00 15 bf
       -0.9029818 0.064973466 0.073931865 -0.5820419
000140 a4 3b db 3d 39 bd 0f 3e 81 f0 03 bc a9 4f 03 be
       0.10704735 0.14037026 -0.008052946 -0.12823357
000150 cc 32 b1 bd 7e 0c 52 3e 47 41 3a bd cb aa a9 3d
       -0.08652267 0.20512578 -0.04547241 0.08284529
000160 48 b1 ac be e9 30 28 3d 4d de f4 3d 9d c2 56 3e
       -0.33729005 0.04106227 0.11956463 0.20972677
000170 a2 d5 8c bd 3c 8e 56 ba e1 b6 3f 3d 95 e2 54 3e
       -0.06876685 -0.0008184647 0.046805266 0.20789559
000180 bf 98 4d be c3 dc 23 bd 96 69 23 bf fd 03 58 be
       -0.200778 -0.040005457 -0.63832986 -0.21095271
000190 8c 1e fa 3d 9c 63 92 bd 4d 6a bc bc 9d 9c 00 be
       0.122128576 -0.07147905 -0.022999907 -0.12559743
0001a0 fa bc 9c bb 47 b4 86 be 3e 9b ea bd 8d 17 53 be
       -0.00478327 -0.26309416 -0.11455391 -0.20614453
0001b0 a0 60 8c 3e 1d ee c3 be 1c ea 9e 3d 38 49 1b 3e
       0.2741747 -0.38267604 0.077594966 0.1516465
0001c0 76 b4 ca bc d3 03 60 3c b4 c9 76 bd 66 be 0a bd
       -0.024744254 0.013672787 -0.060250953 -0.033872984
0001d0 68 f7 1d bf 31 cc 7e be 20 09 03 3e a1 e1 8e be
       -0.61705637 -0.2488258 0.1279645 -0.27906516
0001e0 92 3b 16 be 41 3d 62 3d 96 ba 78 3d 58 df a0 be
       -0.14671162 0.055234198 0.060724817 -0.31420398
0001f0 57 46 d4 3d 5a 03 3b bd 4a 88 0d 3d 2e e2 97 bd
       0.10364979 -0.045657493 0.034553804 -0.07416187
000200 f5 c3 1d be 32 22 2b bd 48 6f 88 be bb 12 06 3e
       -0.15406783 -0.041780658 -0.266474 0.13093083
000210 5c 5c 18 be a3 55 a9 bd 63 c4 2e be 53 0a 5f 3e
       -0.14878982 -0.08268287 -0.17067103 0.21781282
000220 df 29 54 be 6e 24 58 be bc 13 25 3f ae 21 cc bc
       -0.20719098 -0.21107647 0.6448324 -0.024918403
000230 40 7b e8 3d 8d 6e 14 be ee 41 ba 3b 47 ba d2 3c
       0.11351633 -0.14495297 0.005684129 0.02572359
000240 cd 51 28 be c5 dc 20 be 67 fd 04 be 8b 31 01 3e
       -0.16437455 -0.15709217 -0.1298729 0.12616555
000250 2b 7e c8 bf 9e 57 2b be f6 e5 1d be d2 fd 73 bd
       -1.5663503 -0.16732642 -0.15419754 -0.059568234
000260 7d 38 0e 3e 85 73 b4 bd 4d 40 8f b7 5e 6f 6a be
       0.13888736 -0.08811096 -1.707687e-05 -0.22894046
000270 78 78 26 3f 3e 64 8e bd 2a fb eb 3c 0d fe 65 bd
       0.6502757 -0.069527134 0.028806288 -0.056150485
000280 3f 50 f2 3d 2f 89 07 bd af 3e ed 3d dd 68 88 3e
       0.11831712 -0.033089813 0.115842216 0.26642504
000290 4b 63 2c 3f 30 a9 ac 3c 6d 27 08 3e 9f f7 ca bd
       0.6733901 0.021076769 0.1329629 -0.09910511
0002a0 4e c5 30 3e 9b 97 f7 3d e4 01 7f bd eb b2 b3 be
       0.17262766 0.12089463 -0.062257662 -0.3509744
0002b0 57 f3 2b 3d 42 cf 19 3c de f3 89 3d e9 c9 f6 be
       0.041980114 0.009387793 0.06735967 -0.4820092
0002c0 de 5c 0e 3f bb 50 d6 3e 2b b4 dc be 08 42 87 3c
       0.55610454 0.41858467 -0.43106207 0.016510978
0002d0 d6 51 12 3e 21 19 8d 3e 53 6f 11 3e fe 7e ab bd
       0.1428903 0.27558234 0.14202623 -0.08373831
0002e0 d8 33 f9 3d 71 88 f7 3e a7 9f 0e be e5 84 09 be
       0.121680915 0.48346284 -0.1392809 -0.13429601
0002f0 eb b2 5f 3f 4d a4 82 3d 1d 0a ab 3d 43 bf 88 bd
       0.8738238 0.06378994 0.08351538 -0.06677105
000300 a8 08 6e bd b6 71 0a be cb 6c d8 3d f7 c0 57 3e
       -0.058113724 -0.1351994 0.105676256 0.21069704
000310 79 b7 4e bf 45 fe a6 3e 07 7e e6 3d 05 e6 8b 3e
       -0.8074871 0.32615867 0.112545066 0.27323928
000320 d6 66 10 be bb 86 d6 3d 56 1a ba bf 82 f7 de be
       -0.14101729 0.104749165 -1.4539287 -0.43548208
000330 9d 17 ea bd f7 cf d0 be 29 04 00 be 7e 35 96 bd
       -0.11430285 -0.40783665 -0.12501587 -0.073344216
000340 a1 f5 22 3e 62 de a4 bd 0f 64 71 be 5c 4c a9 3d
       0.15914012 -0.08050229 -0.23573326 0.082665175
000350 f0 31 d2 bd 29 df 9e 3c 67 5a 51 be eb 5f e3 3d
       -0.10263431 0.01939352 -0.20444642 0.11102279
000360 c3 2b 0b bf a1 cc 3f bf 0a 3d 53 3d 1a 78 bf be
       -0.5436365 -0.74921614 0.051571883 -0.37396318
000370 9a 7e e5 3d 69 b7 31 bd 8b 67 64 bd f2 55 52 3f
       0.11205788 -0.043387804 -0.05576281 0.8216239
000380 8e c4 bf be bd d0 5c bd 2d dc ff 3c 36 71 02 3e
       -0.37454647 -0.053910006 0.031232918 0.12738499
000390 0d b8 8e be 22 bf c7 bc 81 68 06 3c 73 be 06 be
       -0.27874795 -0.024383131 0.008203627 -0.13158588
0003a0 d4 58 f9 bd ff 6a 3d bc 16 bf cd bd 40 ca fb be
       -0.12175146 -0.011561154 -0.100462124 -0.49177742
0003b0 0d 2a 34 3e 1f 9f fc 3d 55 fc c5 bd 93 e9 ea 3c
       0.17594166 0.123350374 -0.09667269 0.02867583
0003c0 10 dc 0f be e2 03 18 3e 06 db 23 3f 63 ea 0c 3f
       -0.14048791 0.14845231 0.6400608 0.55045146
0003d0 23 3e a0 be d7 31 2c 3f 09 85 15 be 2b 8a 00 be
       -0.31297407 0.6726355 -0.1460153 -0.12552707
0003e0 af dd 61 3e e8 ae 1b 3f dd c2 d9 3e 2f 5e b8 3e
       0.22057222 0.6081376 0.4253148 0.36009356
0003f0 bf 10 f7 bd 0a 02 1f 3e bd 23 de 3e de 3f b4 3e
       -0.12063741 0.15528122 0.4338664 0.35204977

bias f4 [40]
000000 aa e5 c2 3e 03 49 a0 bc 1d 02 27 be 44 87 82 be
       0.38065845 -0.019566065 -0.163094 -0.25493824
000010 02 2b 30 3e 40 88 d6 b7 6e 10 ca 3e 85 1d 82 3e
       0.17203906 -2.5574234e-05 0.3946566 0.25413147
000020 84 27 86 3e b2 24 6f bd 23 7e f8 be 22 c1 2e be
       0.26202023 -0.058384605 -0.48533735 -0.17065862
000030 6f b6 94 3e ef 3c da be 21 ae b2 3e 0f 63 e7 3e
       0.29045436 -0.42624614 0.34898475 0.45192763
000040 1e c7 00 be 1b fe 0f 3b 13 46 e2 bc a9 44 ad be
       -0.12575957 0.0021971527 -0.027621305 -0.33841446
000050 0d 0b 38 3d 0c 67 ae bd 1f d3 81 be 57 5f bc 3e
       0.044932414 -0.085157484 -0.25356385 0.3679149
000060 d8 67 a6 3e 57 e5 77 3e da ce 09 bf 3e c4 43 be
       0.32501101 0.2420858 -0.53831255 -0.19117829
000070 c0 25 2c 3c e4 8b b8 3e 2b ce 09 be 58 5e 2d 3e
       0.010507047 0.36044228 -0.13457553 0.1693052
000080 27 98 2f 3e 6f 51 90 3e ce b7 f6 3e 24 cb 1b be
       0.17147885 0.2818713 0.48187107 -0.15214211
000090 8c 62 90 3d df 3c a9 3e e9 fc 19 3e 8d f7 a3 3d
       0.07050046 0.33054253 0.15037884 0.08006201

weight f4 [40, 40]
000000 5a 6e b4 be 54 c6 23 bf b3 15 e2 3d 0e 8b 45 3e
       -0.35240442 -0.639745 0.11039295 0.19291326
000010 19 cf 05 be ea da 27 3d 70 7c a9 be 32 09 9c be
       -0.13067283 0.040980257 -0.3310275 -0.30475765
000020 65 79 03 be 2f 71 34 bd 5f 13 e6 3e 16 07 f9 bd
       -0.12839277 -0.044053253 0.44936654 -0.12159555
000030 02 db 17 3e 69 b0 fc 3d ed 4d 4f 3e 61 25 ae 3d
       0.14829639 0.12338335 0.2024457 0.08503223
000040 2d 9a cd 3d 71 4f 12 3e e1 dd c6 3d 6f cd 82 3e
       0.10039172 0.14288117 0.09710289 0.25547358
000050 9d 9f f4 3d fa 2c aa 3e d6 1b 61 be 1c cd d7 3d
       0.11944506 0.3323744 -0.21983275 0.105371684
000060 c1 e7 7c be 52 bf f7 3d f2 dd c3 3e df 41 c9 3e
       -0.24697782 0.12097038 0.38255268 0.39308068
000070 91 d8 7b 3c 64 25 a1 be e8 7e fb bd 6b e8 83 bb
       0.015371458 -0.3147384 -0.12280065 -0.004025509
000080 0b 3f f7 bc 6c e2 44 bd e8 27 a8 be 9f fc 8d 3e
       -0.030181428 -0.048067495 -0.32842946 0.27731797
000090 27 14 6f bf 91 a0 c3 be ff c7 f5 be 92 2b 19 3e
       -0.93390125 -0.3820844 -0.48004147 0.14958027
0000a0 2a 2e a2 3d a3 b4 d4 bd ba b7 95 3d 35 85 e4 be
       0.07918961 -0.10386016 0.07310434 -0.4463288
0000b0 04 cd 34 3e 4d 8e 32 be 1d bb 80 3e 56 1b 11 bd
       0.17656332 -0.17437096 0.25142756 -0.03542646
0000c0 0e 8e 80 bc 7f 51 00 bd c9 c0 73 be 17 2d 1b 3e
       -0.015692737 -0.03132772 -0.2380401 0.15153919
0000d0 d5 ef c4 be 60 4d 5a bb 93 2f 09 3c 20 a0 3c 3e
       -0.38464227 -0.003331028 0.008373159 0.18420458
0000e0 fd d3 9b be e3 d5 1f be bf 29 36 bf 4a 34 ed be
       -0.30435172 -0.15608935 -0.7115745 -0.46328956
0000f0 f8 ef be be c1 cd 48 bf c9 b4 a9 bf 5e f3 94 3f
       -0.37292457 -0.78438956 -1.3258296 1.163677
000100 5a 4a 95 3d 88 26 94 3e bf ed a6 bd 58 5e bc 3e
       0.07289572 0.28935647 -0.08150815 0.3679073
000110 2c 7b 03 3f 07 1d 82 3e 1a 8f d5 3d e4 9c 02 3f
       0.5135982 0.2541277 0.10427685 0.51020646
000120 ef 2a 81 3f 39 14 17 3f 49 7a 6c 3e f1 38 1f 3f
       1.0091227 0.5901523 0.23093523 0.6219626
000130 bb 48 37 be 19 a2 29 bf 80 10 a8 bd 94 49 1d 3e
       -0.17898838 -0.66262966 -0.08206272 0.15360099
000140 b6 e1 79 be 27 d2 ce 3d 10 d0 5b 3e 40 64 f5 bd
       -0.24402508 0.10098677 0.21466088 -0.11982012
000150 33 18 03 3c 2d 99 0d 3c 93 73 ae bd c7 5d 14 be
       0.008001375 0.008642477 -0.08518138 -0.14488898
000160 03 c5 8d be 4d e1 95 3d 1b fb 69 bc cb f0 08 3f
       -0.2768937 0.07318363 -0.01428106 0.5349242
000170 88 4f c1 bd 53 ba e5 3d e6 f9 e5 3e d6 f0 44 bd
       -0.094389975 0.11217179 0.4491722 -0.04808124
000180 10 46 ca bd cf 6d d6 3d ce 01 05 be 51 69 5e 3c
       -0.098766446 0.10470163 -0.1298897 0.013574914
000190 c1 0e 87 3d 5b 80 e0 3d 72 5d d3 be e7 ba 87 3f
       0.06594611 0.10961982 -0.4128223 1.0603913
0001a0 24 d5 0e 3f ec 12 98 3e 52 19 86 3d e9 e8 b2 3e
       0.55793977 0.29701936 0.06547798 0.3494332
0001b0 b8 c3 eb 3e 22 95 40 bd 55 d8 e2 bc 79 14 80 3e
       0.4604776 -0.047017224 -0.027691046 0.2501562
0001c0 85 ad 2e 3f ab e6 bc be 56 c3 b7 bd 97 89 3e 3e
       0.6823352 -0.36894736 -0.08972804 0.18607174
0001d0 e4 12 34 bf e2 f3 bf bd e4 48 3c bf 63 36 54 3c
       -0.70341325 -0.09372689 -0.7354872 0.01295242
0001e0 ad a8 6f 3e fc b6 85 3e b1 04 ce bc 71 d9 08 bd
       0.23404188 0.26116168 -0.025148721 -0.033410493
0001f0 d0 bc 95 3e d7 e4 92 3e 59 3d 48 3e db 64 0f 3e
       0.29245615 0.28690216 0.19554652 0.14003317
000200 63 e9 80 3f c6 ab b7 3d ff f6 77 be 44 e6 da 3e
       1.0071224 0.0896831 -0.24215315 0.42753804
000210 af 92 04 bf b8 05 ae be 44 71 e4 3e 6c f8 81 be
       -0.5178632 -0.33988738 0.44617665 -0.25384843
000220 22 04 3d be 2c 3a 8b be 83 4d 10 bf da 06 79 be
       -0.18458608 -0.2719282 -0.56368273 -0.2431902
000230 49 db 04 bf 38 72 9f be 68 60 ab bf 97 e7 2f 3f
       -0.518971 -0.3114183 -1.3388796 0.68712753
000240 ec ed 15 3e ad 3f 06 be 34 69 3b be 90 d8 83 3e
       0.14641541 -0.13110228 -0.1830185 0.25751162
000250 dc 87 bd bb 4e fb a3 3e 58 48 65 3e f2 9b 1a be
       -0.005784018 0.32027668 0.22390878 -0.15098551
000260 3e 50 93 3f 3f db a3 3f ef 19 97 3d 07 26 ab 3e
       1.1508863 1.2801284 0.07377993 0.3342745
000270 e4 1f 45 3e 1a b8 9f 3e 9c ee cf be 6c 7c fc be
       0.19250447 0.31195146 -0.40611732 -0.49313676
000280 74 5f b5 3e 47 0e 90 bf 5e 79 a8 be 42 2f 75 be
       0.35424387 -1.1254357 -0.32905096 -0.23943809
000290 ed ec 5c 3e 33 05 6a be d4 8f 99 3e 50 23 99 3e
       0.21574755 -0.22853546 0.29992545 0.29909754
0002a0 3d 10 e9 bd 7b 2e 8c be 0f f2 a2 be fd ce 9e bf
       -0.1138005 -0.27379212 -0.318253 -1.2406918
0002b0 77 c8 85 bd ca 70 f4 be 02 31 c3 be 70 22 30 3e
       -0.06532376 -0.477423 -0.38123327 0.17200637
0002c0 07 4f 5f be e5 a7 55 3e 83 e1 c7 be 13 da c2 be
       -0.2180749 0.20864828 -0.3903924 -0.38057002
0002d0 b1 85 94 be 19 3f ac bf 5b be 9d be d2 1f 77 3f
       -0.29008248 -1.3456756 -0.30809292 0.9653293
0002e0 e4 74 d3 3f 0d e7 af 3d 14 95 36 be e5 15 22 be
       1.6520047 0.08588991 -0.17830306 -0.15828665
0002f0 05 16 66 3f 45 08 ec 3e af 10 41 be 74 4f fd 3d
       0.8987735 0.4610006 -0.1885402 0.1236867
000300 b8 59 ce 3e e1 08 98 3e 32 28 89 3e 53 18 90 be
       0.40302825 0.29694274 0.2678848 -0.28143558
000310 c8 39 7b be 8c 3b 2f 3b 22 f9 55 3f 4e 48 d4 be
       -0.2453376 0.0026738374 0.8358327 -0.41461414
000320 79 51 1c be 3c 58 c8 be d2 4a 57 3d 4f 7a 88 3e
       -0.15265454 -0.39129817 0.05256159 0.26655814
000330 08 a0 8b be f1 89 df 3e b4 f3 a6 be bc ef c8 be
       -0.27270532 0.43659928 -0.32607806 -0.39245403
000340 57 3d 2e bf 73 68 fe bd 51 af c8 3e 2f d0 d4 be
       -0.6806235 -0.12422266 0.39196256 -0.4156508
000350 f3 b8 30 3f 74 cf 8c 3e f9 88 54 bf e5 88 3a 3e
       0.6903221 0.27502024 -0.83021504 0.18216284
000360 f8 73 a6 3e f3 44 0b 3f 4d 13 6c 3f ed c9 ac 3e
       0.32510352 0.54402083 0.9221695 0.33747807
000370 07 c7 3f 3f a6 02 ff be b4 28 d4 3d a3 d3 f1 bd
       0.74913067 -0.49806708 0.10359326 -0.118079446
000380 1c 90 e2 3d 0a 14 a3 3e 4f e5 d1 3e 19 f4 1a bf
       0.11062643 0.31851226 0.4099526 -0.60528713
000390 01 14 a9 bd be 0f 6e be 8b 58 b8 be c7 45 7e 3e
       -0.082557686 -0.23248193 -0.36005053 0.24831305
0003a0 02 4a 2e be 60 db 32 3e 62 e8 85 be 1a c2 e4 3f
       -0.17020419 0.17466497 -0.26153857 1.7871735
0003b0 ce 58 28 be 5e b1 95 bf 73 64 85 3f 1d fd 90 3e
       -0.16440126 -1.1694753 1.042128 0.2831811
0003c0 f7 90 85 3c 4f a8 c5 be 98 05 ee bd 26 ee f0 3d
       0.016304476 -0.38604972 -0.11622161 0.11764173
0003d0 ee dc d9 bd 03 83 e7 bd cb 04 5f 3d 98 4c 01 3d
       -0.10637842 -0.113042854 0.05444793 0.031567186
0003e0 88 87 8d 3e 9b cd 33 3d 59 4c 96 bc 06 8d 20 bc
       0.27642465 0.043897253 -0.018346952 -0.009799248
0003f0 ee 40 c4 bd 0c e6 26 3d 22 7e 2c 3f af 4f 05 be
       -0.09582697 0.040746734 0.67379963 -0.13018678

bias f4 [40]
000000 6e fe d4 bd 93 cd 34 3c b1 75 ba 3d f0 1e 03 3e
       -0.10400091 0.011035341 0.09104479 0.1280477
000010 0d 15 c9 3e 8c 9c 92 be 38 e4 59 bd d7 85 a4 3e
       0.39273873 -0.2863506 -0.053196162 0.32133362
000020 45 3d 0e 3d 6e ec 69 be 3d 9a 86 bd 7f 45 1a 3e
       0.0347264 -0.22844097 -0.06572387 0.15065573
000030 a5 0b b4 be 57 5a 2d 3e 51 f8 bb be 6d 24 02 bc
       -0.35165134 0.16928993 -0.36712888 -0.007943255
000040 b1 0a a3 3e 05 a6 9a 3e 15 71 6c be e7 e1 50 3e
       0.31844094 0.30204788 -0.23090012 0.20398675
000050 c9 73 e9 3e 0d 49 e5 be c6 cb 44 be fb 27 ea 3d
       0.4559615 -0.44782296 -0.19218358 0.11433407
000060 ce cd 97 3e 34 99 de 3e 82 4f 14 3e 5b 40 4b be
       0.29649204 0.4347626 0.14483455 -0.19848768
000070 05 bf e7 bd 4f 74 40 be 19 09 a7 be 1d 0b 6f 3e
       -0.11315731 -0.18794368 -0.32624128 0.23344083
000080 74 50 96 be 99 1d 44 3e f8 ed de 3e 69 33 02 3e
       -0.29358256 0.19151916 0.4354093 0.12714924
000090 9c b1 77 3e e5 a4 8e be ae 38 40 3e 19 c3 a2 3e
       0.24188846 -0.2786018 0.18771622 0.31789473

weight f4 [1, 40]
000000 a2 8a 22 be 38 51 e6 b9 35 06 d1 bd a8 d5 0d 3e
       -0.15873197 -0.0004392953 -0.10206262 0.13851035
000010 2d 2d 16 3f 19 ea cf 3e f2 bc f7 be ad 11 03 bf
       0.5866268 0.4060829 -0.4838634 -0.51198846
000020 2a a1 63 bc 10 cb 9c be a6 2a 34 be 34 af 02 3f
       -0.013893405 -0.30623674 -0.17594394 0.5104859
000030 b2 5b 84 be e9 f8 19 be 0a 5f 8d be 0e 53 dd bd
       -0.25851208 -0.15036358 -0.27611572 -0.10806857
000040 76 7e 9b 3e cc d6 e9 be 12 0f 54 be a9 40 8c 3e
       0.3036992 -0.4567169 -0.20708874 0.27393082
000050 f1 83 a3 be eb 69 d5 be c5 0b 99 be 71 61 1b 3e
       -0.319366 -0.41682371 -0.29891792 0.1517389
000060 3a 52 c6 3e d4 7e 80 be 68 dd 97 3e 00 ca 8a be
       0.3873461 -0.25096762 0.29661107 -0.2710724
000070 10 9f cf 3d 96 57 25 bf 85 b4 74 be 3f 34 73 3e
       0.10137761 -0.6458677 -0.23896988 0.23750399
000080 17 b5 71 be 04 fc 9d 3e 4d ce 37 3e f3 55 04 3f
       -0.23604237 0.30856335 0.17949791 0.5169365
000090 dd fb e1 bd 98 fb 48 be f6 fb 5f 3e 5e 64 23 3e
       -0.11034367 -0.19627225 0.21873459 0.15956256

weight f4 [40, 2]
000000 b5 ad 55 bf ed fe 7f 40 e1 89 5f be 25 0b 8b 3f
       -0.8346818 3.9999344 -0.2182994 1.0862776
000010 d5 83 7c 3e c4 a9 99 3c 33 62 35 3d ca c8 0e bf
       0.24659665 0.018757708 0.044283103 -0.5577513
000020 bb 76 e2 3f 18 82 a1 bc 33 f7 a8 bf 2b 6f b8 3f
       1.7692484 -0.019715354 -1.3200439 1.4408926
000030 c6 37 9f bf 9f fa c0 3f 26 fb 1d be f5 0a 4f 3d
       -1.2438896 1.5076483 -0.15427837 0.05054756
000040 77 16 18 3f 2a 5d 33 3f 83 a7 ad 3f 68 72 d2 3e
       0.5940928 0.7006403 1.3566746 0.4110291
000050 42 b3 8a be cf 82 6d 3e b6 00 86 be e8 20 c9 bd
       -0.27089888 0.23194431 -0.26172417 -0.098207295
000060 e9 d6 9d bc d2 e5 33 3e be c6 b5 3e ba bf e5 be
       -0.019267516 0.17568138 0.3550319 -0.44872838
000070 6a 06 79 3f c9 51 54 3f 1d 91 18 bf 89 dc e4 be
       0.9727541 0.82937294 -0.59596425 -0.44699505
000080 28 bb ec 3f 02 4b 25 bf 45 bf 82 3f 4e be 73 3f
       1.8494616 -0.6456758 1.0214621 0.95212257
000090 d7 4c 67 3f 09 bc 88 3f 8f 97 93 3f 2c 38 10 3f
       0.90351623 1.0682384 1.1530627 0.5633571
0000a0 10 4f 82 3f 41 f3 c5 bd ca 23 22 bf 89 21 52 bf
       1.0180378 -0.096655376 -0.6333586 -0.8208242
0000b0 72 91 b3 3f 75 ed e8 3f f3 6f 87 3f bd e6 54 bf
       1.4028761 1.8197466 1.0581039 -0.8316458
0000c0 c2 86 48 bf ff 8d 52 bf a6 a3 ab bf e9 da 88 bf
       -0.78330624 -0.8224792 -1.3409317 -1.0691806
0000d0 bb 83 c8 3e 82 7b ea be 1d 19 d4 bf 86 4a 12 bf
       0.39163002 -0.45797354 -1.6570164 -0.57144964
0000e0 81 81 c3 3f 03 f9 42 3f 8b 75 bc bc d5 de 1a 3f
       1.5273896 0.7616121 -0.023005268 0.60496265
0000f0 60 e0 86 be 50 c5 6a bf a9 69 44 bf ca 82 ef be
       -0.2634306 -0.91707325 -0.76723725 -0.46779472
000100 1c 9f 0c 3f 09 66 29 3f 69 8f 78 3e b1 05 8f 3e
       0.5493028 0.6617132 0.24273457 0.2793403
000110 bb 65 18 3d bb e7 3e be 90 96 f1 bd f9 12 99 3e
       0.037206393 -0.18643086 -0.11796296 0.29897287
000120 33 58 30 3e 0b 92 e5 be 4f 20 17 bf ef fa 5f bc
       0.17221145 -0.44837984 -0.59033674 -0.013670667
000130 13 30 06 bf e8 b2 06 bf 28 9b 9d 3f ec 05 31 3f
       -0.52417105 -0.5261674 1.2312975 0.6914966

bias f4 [40]
000000 fc e8 67 3e 4f df 44 3f 02 ac 34 bf de 93 24 bf
       0.2264747 0.7690324 -0.70574963 -0.6428813
000010 8d 3a a0 bd 4c 43 fe 3e 83 1a 68 bf 03 be 24 bf
       -0.07823668 0.49660718 -0.90665454 -0.64352435
000020 db 7e 03 bf 31 87 1d 3f 37 86 96 be 02 b4 25 bf
       -0.5136544 0.6153441 -0.29399273 -0.64727795
000030 fd 56 1b bf 6c 25 e5 be be 4a 36 3f d7 9e e8 be
       -0.6067961 -0.44755113 0.712078 -0.45433685
000040 78 7d fe 3d 60 e8 2f 3f 18 5a 31 3f 96 bf 2f 3f
       0.12426275 0.6871395 0.692781 0.6865171
000050 f6 29 d4 3e 4f fa 45 3f 80 fb b8 bc ab 7d af 3e
       0.41438264 0.77335066 -0.022580862 0.34275565
000060 1b e7 84 3f d0 88 0d bd 11 59 10 bf 7a a1 72 3e
       1.0383028 -0.034554303 -0.56385905 0.23694411
000070 f2 8a 3d 3f 1b 58 d8 be 95 51 42 3f fc b8 79 3f
       0.7404014 -0.4225472 0.75905734 0.9754789
000080 8c 5a 0c bf d6 1b 8c be d0 32 a2 be bb b5 c7 be
       -0.54825664 -0.27364987 -0.31679392 -0.39005837
000090 64 97 d5 be d1 36 11 bf 93 26 c5 be 0b 41 1d 3f
       -0.41717064 -0.5672427 -0.38505992 0.6142737

weight f4 [40, 40]
000000 5f f3 7a be 71 d1 9e bf de 3e 1e 3e 35 b9 aa b8
       -0.24506901 -1.2407666 0.1545367 -8.140729e-05
000010 5c b0 12 bf 73 2e 65 bf b8 7d dc bf 7a 63 80 bd
       -0.57300353 -0.89524 -1.7225866 -0.06268974
000020 ea e6 97 3d a9 15 56 3e ab db f1 bd f2 f4 2f bd
       0.0741709 0.209067 -0.118094765 -0.042958207
000030 39 9d b7 3d 0b d7 9a bd 96 5e f0 bd 62 92 d6 bc
       0.08965535 -0.075605474 -0.11736791 -0.026192848
000040 10 1a 9a be 9e ab 41 be ec 86 5b be 03 15 21 be
       -0.3009801 -0.18913123 -0.21438187 -0.15730672
000050 9a 5f 1c be 7f 99 db be c4 87 9a be c3 68 f3 bc
       -0.15270844 -0.42890546 -0.30181706 -0.02971304
000060 32 03 aa be 33 60 02 bf 43 5d fc 3d ff fc 5a bf
       -0.33205563 -0.5092804 0.12322476 -0.8554229
000070 b5 b6 04 bd d5 6a d1 3d 91 c2 cc be 8b b8 8e be
       -0.032400806 0.10225455 -0.39992192 -0.2787517
000080 bd 29 1d 3c 58 7e c0 3b 70 36 12 3e c8 b4 94 3d
       0.009592471 0.0058744363 0.14278579 0.07261044
000090 bd 38 8c bd df ea 9e bd 20 b8 02 3e 9e c7 2f 3d
       -0.068467595 -0.07759642 0.1276555 0.04291498
0000a0 5c 6b a1 bd 03 b6 22 3f df bf 09 be 08 80 9a 3b
       -0.07881805 0.6355898 -0.134521 0.0047149695
0000b0 5f 5c 68 be 3d 30 1f be b2 a2 d2 3e e0 b0 a5 3d
       -0.22691487 -0.15545745 0.41139752 0.08090377
0000c0 b0 88 97 3d a6 05 d4 bd f5 54 a4 bd 18 13 ed bd
       0.07399118 -0.1035264 -0.08024017 -0.115759075
0000d0 9b c4 63 bd f1 d0 df 3d 5c 46 f0 3b 0d d6 1b 3d
       -0.05560742 0.10928524 0.0073326062 0.03804593
0000e0 e2 76 ef be 0f 72 2e 3e ea ad f1 3d 64 2f 11 be
       -0.46770388 0.17035697 0.118007496 -0.14178234
0000f0 78 d4 1b be 9d 78 0e 3e 6b d9 93 3f 85 0b 9f be
       -0.15217769 0.13913198 1.1550726 -0.31063476
000100 be a5 e6 3d da 30 db 3e b9 22 fc bd c8 62 1d 3f
       0.112620816 0.42810708 -0.1231131 0.61478853
000110 59 4f 84 be 64 46 04 3e a3 fb 8c 3e 08 98 25 3e
       -0.25841787 0.12917477 0.27535734 0.16171277
000120 73 fc 2e bd b7 05 8a 3d 8c 04 89 bd 51 3b 4f bb
       -0.042721223 0.06739371 -0.066903204 -0.0031621049
000130 b1 73 ba bc e3 5e 0c 3e 17 0b 83 bd 41 1d 9c be
       -0.022760244 0.13708071 -0.063985996 -0.3049107
000140 05 2f 0f c0 06 62 a9 bd e2 21 c7 3d 67 8a d5 3d
       -2.2372448 -0.082706496 0.097232595 0.10426789
000150 92 60 30 3f 56 24 1b bf 62 68 23 3f 60 83 55 bd
       0.68897355 -0.6060232 0.6383115 -0.052127242
000160 33 8a b7 3d 20 4c 0b be 68 60 80 3d fb dd 07 3e
       0.08961906 -0.13603258 0.06268388 0.13268273
000170 04 86 cf 3d e2 2b 12 3d 38 31 d8 3d f9 77 8b bd
       0.10132983 0.03568638 0.10556263 -0.06809992
000180 3e 7f 02 3f bf 9f e4 bd fc e8 b5 bd 4c 43 1d 3e
       0.50975406 -0.11163282 -0.08882329 0.15357703
000190 5a ce 61 3e 91 29 8d 3e b2 91 20 3f 79 41 41 3e
       0.22051373 0.27570775 0.62722313 0.18872632
0001a0 b7 19 a7 3e 31 c0 89 3f c0 0d 74 bd 09 f7 07 3f
       0.32636806 1.0761777 -0.059583426 0.5311132
0001b0 55 02 c5 bd 60 1c 06 3d 16 a5 14 3e d1 4b 3c 3e
       -0.096195854 0.032741904 0.145161 0.18388297
0001c0 d1 fc a6 bc 6b e5 c1 3d c2 9f 80 bd e7 9f 36 3d
       -0.020384224 0.09467586 -0.062804714 0.04458609
0001d0 6e 6e 0a bd 29 ef 6d 3d 3f ef c6 3d 7f 81 d3 bc
       -0.03379672 0.05808941 0.09713601 -0.025818584
0001e0 12 18 c1 be 6f d3 69 bf 10 bb 15 3e b9 dd 8d bd
       -0.37713677 -0.9133825 0.1462214 -0.06927056
0001f0 ae 82 35 3d 83 b8 40 3e d3 46 f0 bf f1 88 3d 3d
       0.04431408 0.18820386 -1.8771614 0.046273176
000200 4e a4 7c bd fa 7b 31 3e 5a 07 44 bd 95 8a 1d 3c
       -0.06168013 0.1733245 -0.047858573 0.00961556
000210 00 10 d6 3d cd 55 15 be f6 ed 8e 3d 90 1d 74 bb
       0.104522705 -0.14583512 0.06978981 -0.0037249066
000220 88 48 8b 3e 32 49 07 3e 77 f9 ae 3c 28 66 13 3e
       0.27203774 0.13211516 0.021359188 0.14394438
000230 a4 08 cf 3c 14 d5 87 bd 6a 25 40 bf 40 0e 55 3e
       0.025272675 -0.06632438 -0.7505709 0.20806217
000240 54 01 55 bc 76 0d ee be 5e 9c 4d 3d f8 86 44 bf
       -0.013000805 -0.46494645 0.05019795 -0.76768446
000250 b8 67 f4 3c 4e 14 e6 3c 2f 66 6c be 32 c3 fa bd
       0.029834613 0.028085854 -0.23085855 -0.12244262
000260 36 dc d1 bc 09 3a 05 be c7 a5 93 bd cb 84 b7 3d
       -0.0256177 -0.1301042 -0.07209354 0.08960875
000270 69 a2 29 be 95 6e 0a 3e 3f ad 9e 3d d5 9e d3 3d
       -0.16565861 0.13518746 0.07747888 0.10333029
000280 61 c0 f5 bf 38 af c9 be ae 8d d1 bd e2 91 35 bd
       -1.9199334 -0.39391494 -0.102321014 -0.044328578
000290 79 7d 1d 3f ed aa 51 bf f9 93 3f 3f 1a 2f 88 3d
       0.6151958 -0.8190144 0.74835163 0.06649609
0002a0 6e cd f5 3d 56 ae e9 bc 9a 61 ec 3d 3c 1d 1a 3e
       0.12002073 -0.028525513 0.115420535 0.15050215
0002b0 57 62 c0 3c 2c 83 e4 3c f2 b1 8b bd 26 50 4f 3d
       0.023484392 0.027894579 -0.0682105 0.050613545
0002c0 e8 4e c6 3e e9 8d 33 3e 76 52 26 be 94 d9 3e bd
       0.38732076 0.17534603 -0.16242394 -0.046594217
0002d0 41 c5 ec 3d 6e 5a 51 3e 3a ef 3f 3f 20 83 f0 3d
       0.11561061 0.20444652 0.74974406 0.1174376
0002e0 5c 4e 9b 3e 47 5e 8f 3f 1a c0 98 3d 7a 02 20 3f
       0.3033322 1.1200646 0.074585155 0.6250378
0002f0 38 60 71 bb 4d ca 3a 3c 76 8d 82 3e 07 7a cf 3e
       -0.0036831032 0.011400771 0.2549855 0.40522787
000300 37 aa 2f bd 97 c7 67 bd 63 eb 05 be ee f9 a1 3d
       -0.04288694 -0.056586828 -0.13078074 0.079089984
000310 f4 0a 40 3d 15 37 a4 3d 1e 06 1a 3e c8 cd af 3d
       0.046885446 0.080183186 0.15041396 0.085841715
000320 25 8f d0 c0 33 94 8f bf 3c 96 cc bd 1c e8 ac 3d
       -6.5174737 -1.1217102 -0.099895924 0.08442709
000330 08 69 cd 3e 64 08 d7 bf 11 b1 85 bd 2e 20 07 be
       0.40119195 -1.6799436 -0.06527913 -0.1319587
000340 70 00 d0 3d 9b c3 1a bd 21 06 e3 3d d4 fc 7c bd
       0.101563334 -0.0377842 0.11085153 -0.061764553
000350 a2 5b 6f bd 7c 4c fe 3d 32 f1 f0 3e 27 2e 01 3c
       -0.058436997 0.12416932 0.47059017 0.007884539
000360 cd 8a 6f 3f 5d 9c ba 3e 40 b6 10 3f 5f 35 21 3e
       0.9357117 0.3644742 0.5652809 0.15743016
000370 03 bc 56 3e 2b ea e9 3e 98 0c d7 bf 3a 97 b6 3e
       0.20970158 0.45686468 -1.6800718 0.35662252
000380 0d 52 2d 3f 09 80 2f 3f 45 23 bb bd 57 42 4e 3f
       0.67703325 0.6855474 -0.091375865 0.80569977
000390 9c 1a 02 3d e4 b4 17 be d0 f1 c8 3e a0 be fa 3e
       0.031763658 -0.14815098 0.39246988 0.4897356
0003a0 89 26 ff bd da f3 81 3d 85 07 8a 3d ee 02 c5 3d
       -0.12458522 0.06345339 0.067397155 0.096196994
0003b0 f2 40 8e 3c fa e8 c5 bd 5c 4d 5b bd eb 97 23 3d
       0.017364953 -0.096635774 -0.053540573 0.039939802
0003c0 c6 50 70 3f c4 58 05 c0 4e 9b d1 3c 45 2b 85 bd
       0.9387325 -2.0835428 0.02558675 -0.06502394
0003d0 06 be ad 3f e0 83 4c 3f 58 e5 40 bf b5 12 0f be
       1.3573616 0.79888725 -0.7534995 -0.1397198
0003e0 71 4e b2 bd 60 98 d0 be 70 9f 04 3d 0f 7a bf bd
       -0.08706368 -0.40741253 0.032378614 -0.09349453
0003f0 3a b0 56 3c b8 65 b0 3c 16 e5 09 bf c8 65 f7 3d
       0.013103539 0.021532878 -0.5386518 0.1207996

bias f4 [40]
000000 62 da b8 be dd 00 92 3e d1 6c 98 3d 9a ff 7c bd
       -0.36104113 0.28516284 0.0744263 -0.0617672
000010 d8 fc 84 3e ff b5 d0 3e d6 d2 bb bc a4 e3 98 be
       0.25974154 0.40763852 -0.022927683 -0.29861176
000020 6f d4 52 3e 5b 43 28 3f 51 75 c7 be b2 18 f3 3c
       0.2058885 0.65727776 -0.38956693 0.029674862
000030 04 93 fa be 60 79 0d 3e 15 fa 75 3e 14 41 ba 3e
       -0.4894029 0.13815832 0.2402118 0.36377776
000040 4b d3 99 3d 8e 82 88 be c3 14 c4 be 60 4e 7e 3c
       0.07511004 -0.26662105 -0.3829709 0.015521616
000050 f4 ef cc 3d 2c 8f 86 3c 65 e0 3b 3c 02 e6 82 be
       0.10006705 0.016425692 0.011467074 -0.25566107
000060 9d df f6 be ba 81 ed 3d cf b3 bf 3b 22 53 8e 3e
       -0.48217478 0.11597009 0.0058502923 0.277978
000070 e2 be 29 bd ac a1 00 3f ec 7b 82 3e 3b 43 c3 3e
       -0.041441806 0.5024669 0.2548517 0.3813723
000080 12 63 55 3e ee 79 13 3f 7e 72 97 bd b6 03 84 bc
       0.20838574 0.57607925 -0.073948845 -0.01611505
000090 78 4d ee be 0b 77 94 3e 00 b7 10 be fa 81 5f be
       -0.4654348 0.28997073 -0.14132309 -0.21826926
